experiments/data/vae/008_UCR_Anomaly_DISTORTEDCIMIS44AirTemperature4_4000_5549_5597.txt-.ckpt (torch, 60843 bytes, 102 tensors)

encoder.0.0.weight f4 [16, 24]
000000 96 c5 a2 bd ed d1 76 3d 71 1d 74 be 9c c3 27 be
       -0.07947843 0.060258795 -0.23839356 -0.16383213
000010 36 83 e0 3d 02 81 19 be 16 3a 21 be 37 2d 7a 3c
       0.109625265 -0.14990619 -0.15744814 0.015269569
000020 43 51 49 be 82 77 16 3e c6 18 17 3e 1c 59 0a be
       -0.19659905 0.14694026 0.14755544 -0.13510555
000030 1e 9a 30 3d 3a 75 16 be f1 48 fb 3d 7d d5 24 3e
       0.043115728 -0.14693156 0.12269772 0.16097064
000040 0f 7d 62 bd 5a 18 24 be c9 71 e1 3d d9 46 98 bd
       -0.055295046 -0.16024914 0.11008031 -0.07435388
000050 b6 70 2f be 98 d8 51 3e 0d 48 b6 bd ca f3 78 bd
       -0.1713284 0.2049278 -0.08900461 -0.06077937
000060 b7 7d 47 3d f1 58 02 be bb 5e 26 3d 7e 24 4a be
       0.048703875 -0.12729241 0.040617686 -0.19740483
000070 c8 c3 0c 3e 5e 2f 33 be f1 4a 93 bd a6 43 89 bd
       0.1374656 -0.17498538 -0.07192028 -0.06702356
000080 a8 b8 5c bd 8f 2a 19 3e 9f d0 98 3d 51 58 68 3e
       -0.05388704 0.14957641 0.07461666 0.2268994
000090 7b f3 3f 3e 5f 87 38 be 89 12 1b 3e 3f 74 1c be
       0.18745224 -0.1802039 0.1514379 -0.1527872
0000a0 a6 7c d4 3c ff 0d 08 be fc 86 9d bb 2f 93 b8 3b
       0.025938343 -0.13286589 -0.004807351 0.00563278
0000b0 11 65 d5 3b db c6 13 be 6f 94 d8 bd aa e0 fe 3c
       0.006512292 -0.14431326 -0.105751865 0.031112988
0000c0 ae 77 7a 3d 33 bd a7 3d 5a e1 58 bc 3c 72 9c bd
       0.06114929 0.08190384 -0.013237322 -0.07638976
0000d0 38 94 12 3e f0 89 3c be 85 4c ae bd 99 54 c6 bd
       0.14314353 -0.18411994 -0.08510689 -0.096841045
0000e0 32 64 14 3e 56 7c 51 3d 3a 2d 9e 3d b2 4d 10 3e
       0.14491346 0.051143967 0.0772347 0.14092138
0000f0 a5 2f a4 3d 17 77 61 3e 6c a3 15 bc 38 5c 8d bd
       0.080169 0.22018085 -0.009133201 -0.06902355
000100 71 95 84 bd b0 6a 2f 3d 5b 25 11 be 4f 5a 95 3d
       -0.06473816 0.042826355 -0.14174406 0.072926156
000110 f3 28 44 3e fb 5a 4f bd 42 f7 1d be 89 08 82 3d
       0.19156246 -0.050623875 -0.15426353 0.06349284
000120 42 e7 ba 3d 46 8f 43 be 1e 69 d1 bd 70 16 15 3e
       0.0912614 -0.19097623 -0.10225128 0.1455934
000130 52 9e c3 bd e1 6b 3a be db fd a5 3c 3f 4d b6 3d
       -0.095516816 -0.18205215 0.02026265 0.08901452
000140 1f 65 75 3c 5c 73 d9 3d fc 24 e3 3d ba 1d 8c 3d
       0.014977722 0.10617706 0.110910386 0.068416074
000150 23 d2 66 3e 8e dd 11 bc 6f 7a 7b 3d 13 47 c6 3d
       0.22541098 -0.00890292 0.06139606 0.09681525
000160 79 20 29 3e f2 f8 97 3c 65 79 f2 3d 13 6a 16 be
       0.16516294 0.018551324 0.118395604 -0.14688902
000170 32 34 42 be 1f 50 fc 3c c3 7f e4 bb 93 05 b4 3d
       -0.18965223 0.030799923 -0.006973238 0.08790126
000180 77 06 25 be 3b e5 33 3d e8 40 48 3c 71 d6 04 3e
       -0.16115747 0.043919783 0.012222506 0.12972428
000190 34 c3 49 bd 9c 8a c4 3d f4 23 37 3e 7b 79 dc 3d
       -0.049258426 0.0959675 0.17884809 0.10765358
0001a0 67 97 27 bd 5a 69 f4 bd 07 cc 20 3c 02 1e 15 3e
       -0.040915873 -0.11934157 0.009814269 0.14562228
0001b0 c8 3b 59 3d e9 82 b6 3d 1f 61 03 bd 7d 45 a0 3d
       0.053035527 0.08911688 -0.032075044 0.07825754
0001c0 d0 1f 57 bd 6f af 7b bd 31 ed 6d 3d 06 43 ea 3d
       -0.052520573 -0.061446603 0.05808753 0.11438565
0001d0 4e 3b c8 bd 9f c0 b0 bd 10 ef db 3d ad f8 28 be
       -0.097769365 -0.086304896 0.10738957 -0.16501112
0001e0 90 2d 40 3e a0 67 bc bd 26 5c 07 3d b8 ff c9 3c
       0.1876738 -0.091994524 0.033046864 0.024658069
0001f0 67 5d 03 be ec eb 0e be 6e f7 14 be 08 47 5e bd
       -0.12828599 -0.13957185 -0.14547512 -0.05426696
000200 b0 68 d7 3d 9f ee af bd 09 3a 0e be 36 13 9a 3b
       0.105180144 -0.08590435 -0.13889326 0.004701997
000210 79 28 1f bd 27 a3 10 3c ba 0c d8 bd 72 55 89 3d
       -0.038856957 0.008827961 -0.105493024 0.067057505
000220 48 db 6b be 3b 54 6c bd 9c c3 a9 3c 14 04 7b bd
       -0.23032868 -0.057697516 0.020723157 -0.061283186
000230 8a 68 db 3d d3 b5 46 be 02 fd df bc 84 30 27 be
       0.107132986 -0.19405298 -0.027342323 -0.16327101
000240 ca cb e6 3d e7 14 7c ba 1c bd 0f 3e 09 50 41 bc
       0.112693384 -0.0009616152 0.14036983 -0.011798867
000250 b9 02 2b 3e da f9 c8 bd 26 d9 06 be 3a 44 1b 3e
       0.16700257 -0.098132804 -0.13168773 0.15162745
000260 f6 9f 81 bd 5a a6 0e be ae f0 74 3e b2 c1 92 bd
       -0.06329338 -0.13930646 0.23919937 -0.07165851
000270 9e e6 5b 3e 91 9a c5 3d d4 5c d3 bd 79 f0 93 bd
       0.21474692 0.09648622 -0.1032044 -0.07223601
000280 50 37 00 3e cb 66 c2 3c 7a 55 d5 3d c4 a0 01 3e
       0.125211 0.023730656 0.10416694 0.12658983
000290 c8 04 06 3e 28 9d 3f be fd 71 32 bd 92 ac 63 be
       0.13087761 -0.18712294 -0.04356574 -0.22233799
0002a0 10 c4 26 3d 4c a6 1e bd c5 4a 23 be c3 cb 81 bd
       0.040714324 -0.03873281 -0.15946491 -0.063376926
0002b0 41 a5 aa 3d 8d 3c 96 3c 25 48 84 3d f7 3d 4e 3e
       0.08332301 0.01833942 0.06459073 0.20140825
0002c0 0a b7 7d bd c4 a1 5c 3e a9 17 d7 bd c1 79 fd 3d
       -0.061942138 0.21546084 -0.1050256 0.12376738
0002d0 02 c7 54 3e 32 14 bd bd 5e 5e f7 3b 68 32 e2 bb
       0.2077904 -0.092323676 0.0075490912 -0.0069029815
0002e0 c0 1f 02 3e 52 f6 10 3e 61 b4 0a be 64 33 e7 bd
       0.12707424 0.14156464 -0.13545372 -0.11289099
0002f0 75 be dd 3c a5 2e 33 3e a5 19 3e be c4 22 41 bd
       0.027068356 0.17498262 -0.1856447 -0.047152296
000300 28 b8 92 3c e5 52 2f 3e 33 da cd bd ec 52 4d 3e
       0.017910078 0.17121466 -0.10051384 0.20051163
000310 76 35 87 bd 6f 91 9d bd 24 09 24 bc 38 f5 25 be
       -0.06601994 -0.07693755 -0.010011945 -0.16206825
000320 c4 64 6b 3b f1 04 20 3d 40 cf 21 be df 62 ff 3d
       0.0035918215 0.039067212 -0.15801716 0.1247003
000330 94 44 c6 3d 65 60 14 be 35 8b cd 3d 93 81 1a 3e
       0.09681049 -0.14489897 0.10036317 0.15088491
000340 1b ad 09 be 9e 1b 55 3b c2 66 32 3e a1 54 f3 3d
       -0.13444941 0.0032517682 0.17422011 0.11881376
000350 35 8a f4 3d 0a b0 6c 3d d5 05 53 bd 6c 0a 04 3e
       0.119404234 0.05778507 -0.051519234 0.128946
000360 77 ca d4 bd 43 41 93 3d 09 3c 48 3e c1 77 9c 3d
       -0.103901796 0.07190182 0.19554152 0.07640029
000370 10 08 ab bc 2b 81 30 3e a9 a9 d1 3d 1b 52 63 3d
       -0.020877868 0.17236774 0.10237438 0.055498224
000380 a6 f0 d9 bd 15 18 0c 3e 9f 50 3e be 28 bf 26 3e
       -0.10641603 0.13681062 -0.18585442 0.16283858
000390 eb 5b 8a 3d 0b 25 0b be 0d 85 98 3d 1d 2c 89 3d
       0.06755813 -0.1358835 0.074472524 0.06697867
0003a0 a4 66 1e be c0 66 92 bd a4 02 ef bc b6 ff 9a bd
       -0.15468842 -0.07148504 -0.029176064 -0.07568304
0003b0 71 a2 91 bd 60 ee c0 3d f9 0c 8e bc 73 fc a3 3d
       -0.07111061 0.094204664 -0.01734017 0.08007135
0003c0 75 44 cd bc a1 88 21 3e 1e 96 36 bd cf c6 08 be
       -0.025057057 0.15774776 -0.044576757 -0.1335709
0003d0 b4 c3 5f be 6e 70 3e 3d 1f 11 bc bd 1d 62 e1 3d
       -0.21851999 0.04649394 -0.09182953 0.11005042
0003e0 55 a3 16 be 60 57 dc 3d 68 d5 02 be 5b ed ae 3b
       -0.14710744 0.10758853 -0.1277672 0.0053383536
0003f0 ad 75 36 bd 17 6e 72 bc ce 6c 92 bd e4 03 b4 3d
       -0.044545818 -0.014796755 -0.07149659 0.087898046

encoder.0.0.bias f4 [16]
000000 53 9c a6 3d 28 e1 1c 3d 29 e5 29 be 13 33 a3 3c
       0.08135285 0.038300663 -0.16591324 0.019921815
000010 2f 44 28 3e 3b d3 e7 3d b3 e9 5d bc 49 31 4c 3e
       0.1643226 0.11319586 -0.013544488 0.19940676
000020 e1 4d 35 3e 3d f5 19 bd 9a f6 80 3d 7f be a1 3d
       0.1770549 -0.037587393 0.062970355 0.07897662
000030 2f db 2d bc 34 48 cf 3d 3d f3 96 bb 24 1e 8d 3d
       -0.0106113395 0.101211935 -0.004606633 0.068905145

encoder.0.1.weight f4 [16]
000000 3b 00 7f 3f e9 63 86 3f c6 44 81 3f 66 16 77 3f
       0.99609727 1.049924 1.0099113 0.9651855
000010 72 4e 83 3f b3 4f 82 3f 88 94 72 3f 89 3c 84 3f
       1.0258315 1.0180572 0.9475789 1.0330974
000020 46 66 7e 3f 2b 34 82 3f 3e 76 78 3f 6e c9 80 3f
       0.99374807 1.017217 0.97055423 1.0061471
000030 90 6f 7d 3f 61 c1 84 3f d8 43 79 3f bc 6a 6f 3f
       0.98998356 1.0371515 0.97369146 0.9352224

encoder.0.1.bias f4 [16]
000000 ed 6a 4f bb 3c 88 05 3d e9 99 a0 3c 51 2b 1f bc
       -0.0031649426 0.032600626 0.01960464 -0.009714917
000010 97 b0 39 3d 88 25 6a 3d 20 df 5d bc 0b ad 6b 3b
       0.045334425 0.0571647 -0.013541967 0.0035961296
000020 2e 70 4d bc e7 0d b0 bc e5 73 68 bc 4e 44 f0 3a
       -0.012538953 -0.021491004 -0.014187788 0.0018330903
000030 99 2f 8d 3c 6a 71 d1 3c cb f6 a2 bb 11 71 42 bd
       0.01723461 0.025566775 -0.0049732677 -0.04747111

encoder.0.1.running_mean f4 [16]
000000 2b b5 3c be 36 d0 8b bd c6 66 40 bc 33 39 52 3e
       -0.18428485 -0.068268225 -0.011743253 0.20529632
000010 8d af 94 3e 83 cc 89 be 12 9c 22 3e 91 bb b3 3e
       0.29040185 -0.26913843 0.15879849 0.3510404
000020 84 26 c5 3e 0e 07 ca 3d 0c 94 a6 3d 6c 03 97 3e
       0.38505948 0.09864627 0.081337065 0.29494798
000030 78 8e 0c be 98 bc 37 3d b8 96 0c 3e 4d f4 94 3e
       -0.13726223 0.04485759 0.1372937 0.29092637

encoder.0.1.running_var f4 [16]
000000 94 17 38 3c 81 2d 21 3c 12 53 a6 3b 62 55 92 3c
       0.01123609 0.009837509 0.0050758207 0.01786298
000010 17 c8 d4 3b e3 7a 26 3c b2 f1 97 3b ca 46 36 3c
       0.006493579 0.010161134 0.0046369666 0.011125276
000020 61 12 42 3c a1 e0 38 3c 46 e5 09 3c af 38 6b 3c
       0.011845202 0.011284024 0.008416479 0.014356776
000030 07 3f 4a 3b da 3f d9 3b 4a 80 3b 3c b7 94 fa 3b
       0.003086032 0.006629926 0.011444161 0.0076471227

encoder.1.0.weight f4 [8, 16]
000000 b7 1d 44 3c 7a ed 33 bd 8a 4f 83 bd 0d c2 55 be
       0.011969975 -0.043927647 -0.06411655 -0.20874806
000010 70 bc 34 bc 71 d2 de bd 7b f3 06 3e b4 ba 3d be
       -0.011031255 -0.10879982 0.13178818 -0.18528253
000020 98 ca e7 3d e3 f4 6d 3e d6 80 03 be 18 31 60 3e
       0.113179386 0.23237948 -0.12842116 0.21893728
000030 44 e9 d5 3a a8 81 76 3e 6a e7 7b bd 7b f2 e3 bc
       0.0016320129 0.24072897 -0.06149999 -0.027825585
000040 0a bf 43 3d 86 85 8b 3e 68 2e a7 3d 40 d2 26 3e
       0.04778961 0.27250308 0.08163148 0.16291142
000050 9a 70 df 3d 51 75 03 3e 70 50 1d 3e 07 7c 9f 3d
       0.10910149 0.12837721 0.15362716 0.07787328
000060 33 06 4e be f2 1d 95 bd a4 69 1c be e6 25 9d 3d
       -0.20119552 -0.07281102 -0.15274674 0.07673244
000070 fa ce 40 3e 52 24 8b 3e 06 5d 3e 3e 3d 6c 12 3e
       0.18828955 0.27176148 0.18590173 0.14299102
000080 5c d6 e7 3d ad 65 38 3e 70 50 7c bd e2 43 02 3e
       0.11320183 0.18007536 -0.06160015 0.12721208
000090 e1 d7 1d be fa cb 25 3e a6 47 82 bb e5 15 89 be
       -0.15414383 0.16191092 -0.0039758263 -0.26774517
0000a0 98 b4 0c 3e f6 cf cd bd 96 b3 3c 3e 7f 8b 70 be
       0.13740766 -0.10049431 0.18427882 -0.23490714
0000b0 3c 2b c0 bd 3d 57 19 3e a6 00 7e 3e 35 2d 15 3e
       -0.09383246 0.14974685 0.24804935 0.14568026
0000c0 84 0c 81 3d 07 3c 40 be 16 4f 79 3d e5 c3 84 be
       0.06301215 -0.18772899 0.060866438 -0.25930706
0000d0 16 9d 1a be f3 88 44 3e fa 73 c0 bd be 49 23 be
       -0.15098986 0.19192867 -0.09397121 -0.15946099
0000e0 49 a3 ac bc 4f 88 3e be 6e 9f bb bd ab f7 90 bd
       -0.021073954 -0.18606685 -0.09161268 -0.07078489
0000f0 8c 25 ce 3d 89 fb 7d be 53 70 d1 3d d5 c7 1f 3e
       0.10065755 -0.24802984 0.10226502 0.15603574
000100 19 88 a0 bc 46 91 4f be 68 38 ea bd d2 41 14 3b
       -0.019596146 -0.20270261 -0.1143654 0.002262224
000110 f0 dd ed bd d8 17 b1 3d c2 9a dc bc c5 80 5b be
       -0.11614597 0.08647126 -0.026929263 -0.2143584
000120 ff 77 0e 3e d4 d3 14 bd eb 58 b2 bd 1e f2 89 be
       0.13912962 -0.036334828 -0.08708366 -0.26942533
000130 bb a9 e1 bc 4e 71 35 be fd e9 45 be 5b 8f e9 bd
       -0.027546754 -0.17719004 -0.1932754 -0.11404296
000140 03 c5 05 be f9 38 64 3e 36 17 6d 3e bc b2 47 be
       -0.13063435 0.22287358 0.23153386 -0.19501776
000150 1d 75 aa 3d d8 1f 4d 3d cb 86 b2 3d 5d f2 4b bc
       0.08323119 0.050079197 0.08717116 -0.012447921
000160 1a 95 4e be 9e b3 96 bc 03 a3 48 3d cb 3b e6 bd
       -0.20174065 -0.018396195 0.048983585 -0.11241873
000170 ba ed 5b 3e 6d 16 22 3e b3 d9 28 be 58 e7 cd 3c
       0.21477404 0.15828867 -0.16489296 0.025134727
000180 ce 5a 23 be 82 77 69 be 69 63 38 be 1b a1 b3 3d
       -0.15952608 -0.22799495 -0.18006672 0.08770963
000190 a5 0b 3b be d7 1b 36 3e f9 91 18 be 58 52 79 3d
       -0.18266161 0.17784058 -0.14899434 0.060869545
0001a0 67 27 a2 bd 2b a9 3b be 23 11 43 3d e6 d2 6f be
       -0.07917672 -0.18326251 0.047623765 -0.23420295
0001b0 b2 35 72 3e d2 21 73 be f5 38 97 bc 7c 0e ff bd
       0.23653296 -0.2374337 -0.018459776 -0.124539346
0001c0 ea b5 1f 3e 7a f6 29 3e e0 f2 1b be 00 37 2c 3e
       0.15596738 0.1659793 -0.15229368 0.16817856
0001d0 f3 92 68 be 2f e3 74 3e fe 5b ff bd 09 46 3a be
       -0.22712307 0.23914789 -0.12468718 -0.18190779
0001e0 60 22 83 be d3 79 1b 3e 60 d6 be 3d 1d f5 0e 3e
       -0.25612164 0.15183191 0.093182325 0.13960691
0001f0 6f 25 32 3e c1 2c c0 3d a0 9b 86 bc ba 49 a7 3d
       0.17397092 0.09383536 -0.01643163 0.08168359

encoder.1.0.bias f4 [8]
000000 39 99 42 3e 45 d6 48 3e 1c f3 fe bc 3e e7 89 bd
       0.19003762 0.19612987 -0.031121783 -0.06733559
000010 a5 27 1c be c3 9e 70 be 79 4c d0 bc f4 63 0a be
       -0.15249498 -0.23498063 -0.02542709 -0.13514692

encoder.1.1.weight f4 [8]
000000 75 36 8d 3f 0a 73 82 3f 38 26 7d 3f 49 da 6f 3f
       1.1032244 1.0191357 0.9888644 0.9369245
000010 6e 9a 7c 3f 22 2d 83 3f 7e 15 6d 3f 6b cc 73 3f
       0.9867314 1.0248148 0.9261092 0.9523379

encoder.1.1.bias f4 [8]
000000 7d 6d 70 3d 99 70 4b 3c 4c 9a cf 3c c7 7a a6 bc
       0.058698166 0.012416982 0.02534213 -0.020322217
000010 24 f1 07 bb e0 9c 68 3d ae 16 9c bd 56 8c 34 bd
       -0.0020743096 0.056790233 -0.07621513 -0.044079147

encoder.1.1.running_mean f4 [8]
000000 c1 d6 6f 3e b2 0a 4f 3f e1 c2 42 3e 72 73 cd be
       0.23421766 0.80875695 0.19019653 -0.4012714
000010 0d 3c 36 bf eb 2b c7 bd 72 ff ff be 0a 3a a1 3d
       -0.7118538 -0.097251736 -0.49999577 0.07872398

encoder.1.1.running_var f4 [8]
000000 03 bf cc 3d 7c db f3 3e 4d 13 da 3e 10 c5 9f 3e
       0.0999737 0.4762839 0.4259285 0.31205034
000010 67 67 95 3e 33 4a 40 3e 8e 6d bb 3e 67 9b 1d 3e
       0.29180452 0.18778305 0.3660702 0.15391313

encoder.2.0.weight f4 [8, 8]
000000 ee 80 58 be a8 6d c1 bd ad c7 5a 3e bd 5f 60 be
       -0.21142933 -0.094447434 0.21365233 -0.21911521
000010 1a 05 8c 3e a7 48 40 3e a9 c3 b8 3d e6 43 89 bd
       0.27347642 0.18777715 0.09021694 -0.06702404
000020 e2 91 2a 3e 7a 1d 43 3e f4 5d a0 bd 34 23 af be
       0.16657212 0.19054213 -0.0783042 -0.34206545
000030 fd 64 b3 be 70 48 71 be 3a c9 b2 3d 36 25 cd 3d
       -0.35037985 -0.23562789 0.08729787 0.10016863
000040 24 02 41 3e 1a 29 76 be d8 17 4e 3e 64 87 6b bd
       0.18848473 -0.24039117 0.20126283 -0.057502165
000050 50 3a 86 3e 29 e2 b3 be ff a9 74 be 73 a9 35 3e
       0.26216364 -0.35133484 -0.23892973 0.17740421
000060 a1 9b b5 be 55 d1 81 3e 3b 14 ac 3d 01 c4 67 3e
       -0.35470298 0.2535502 0.08402296 0.22633363
000070 6d 90 65 be 58 b0 27 3e c2 b6 ea bc a6 61 65 3c
       -0.22418375 0.16375864 -0.028651599 0.014000332
000080 8a cc 05 3e 25 4f b2 3d 35 33 5f be 0b 32 8e be
       0.13066307 0.08706502 -0.21796878 -0.27772555
000090 5d 9e 6a 3d f9 d2 f5 bd a7 d8 e7 3d dc 87 e2 bd
       0.057279933 -0.120031305 0.1132062 -0.11061069
0000a0 5c d9 87 3e 0c d4 97 3e 99 59 3a bd 25 12 3c 3e
       0.2653302 0.29653966 -0.045495603 0.18366297
0000b0 36 30 02 be 84 65 37 3d 64 0f ca be 54 a9 ac 3d
       -0.12713704 0.044774547 -0.39464867 0.08430734
0000c0 5f e6 b7 3e ce 3e cb be 14 f7 bb 3d df 68 06 3e
       0.35917947 -0.39696354 0.09177986 0.13125943
0000d0 d7 e7 9d 3d a8 34 c6 bd 14 cd 7d 3e a2 30 44 be
       0.077102356 -0.09678012 0.24785262 -0.19159177
0000e0 a6 52 7e 3e 8e 17 77 be 44 c4 3e 3d f4 07 4d 3c
       0.24836215 -0.24130079 0.046573892 0.012514103
0000f0 24 6d 45 be ac a5 b8 be 79 df 7b bd 49 35 e9 3d
       -0.19279915 -0.36063898 -0.061492417 0.113871165

encoder.2.0.bias f4 [8]
000000 02 bd ae bd e8 73 08 3d 29 39 40 be 62 8b 50 3e
       -0.08532144 0.03331366 -0.18771805 0.2036567
000010 e9 2b a3 bd 48 6e 14 3b 3d e1 70 be 16 7b 0c be
       -0.079673596 0.002264874 -0.23523422 -0.13718829

encoder.2.1.weight f4 [8]
000000 47 45 6a 3f 6e d8 6d 3f 9a b4 7e 3f 54 ba 69 3f
       0.9151196 0.9290837 0.99494326 0.9129994
000010 70 37 6a 3f ed c7 6a 3f 0f 42 6a 3f 6d e1 77 3f
       0.9149084 0.9171131 0.9150705 0.9682835

encoder.2.1.bias f4 [8]
000000 30 46 ad bd 53 73 27 bd 32 a7 dd 3d 32 d5 40 bd
       -0.08460653 -0.040881466 0.108229056 -0.04707832
000010 d4 fc b2 bd 1d 59 88 bd ff df bb bd 6d c5 06 3c
       -0.087396294 -0.06657622 -0.09173583 0.008225781

encoder.2.1.running_mean f4 [8]
000000 8c c8 5c bc 7c f2 19 be 8c 26 5d be be d4 84 3e
       -0.0134755485 -0.15033907 -0.21596736 0.2594356
000010 7d 0d 58 be 93 6b 29 3e c7 c2 25 be b0 1a a6 be
       -0.21098895 0.16544943 -0.16187583 -0.32442236

encoder.2.1.running_var f4 [8]
000000 55 77 7f 3d 9a 4c d6 3d 20 73 61 3e ca 38 77 3e
       0.062369663 0.10463829 0.22016573 0.24142757
000010 f5 2d 6c 3d 77 ff 1a 3e a7 53 af 3e 0b 35 62 3e
       0.057661016 0.15136515 0.3424351 0.22090547

mu.weight f4 [5, 8]
000000 3c 62 a2 bd 31 69 6b bd e1 c5 2b 3c e9 a0 10 3e
       -0.07928893 -0.057473365 0.01048419 0.14123882
000010 34 25 33 3d c2 57 3a 3e b4 ed 41 3e 1e 17 6b bd
       0.04373665 0.1819754 0.18938333 -0.057395093
000020 46 10 42 3e a7 d7 f8 bd 0d ec 47 3e 00 d2 0d be
       0.1895152 -0.121505074 0.1952364 -0.1384964
000030 c2 97 b0 3d cc b9 15 3e a1 98 2c 3e 5b f7 b5 be
       0.086226955 0.14621657 0.16855098 -0.3554028
000040 7c 86 bb 3c 70 38 2a 3e dd 82 e4 3c f2 93 9c bd
       0.022891276 0.16623092 0.027894432 -0.07645406
000050 37 65 0d be 84 e6 7b 3d 20 83 01 3e 0c 62 3e be
       -0.13808142 0.061499134 0.12647676 -0.1859209
000060 6f 25 20 3e 66 40 49 be f4 0f 15 bd b6 3b 2c bd
       0.1563928 -0.19653472 -0.036392167 -0.042049132
000070 3c 2f 14 3e 4f bf 37 3e ff ec c8 bd f5 af b4 3d
       0.14471143 0.17944072 -0.098108284 0.08822624
000080 80 f7 86 3e 37 20 73 bd f0 71 ab 3b 78 e5 fe bd
       0.26360703 -0.059356894 0.0052320883 -0.124461114
000090 50 29 f9 3d 18 62 29 3e ee 96 84 3d b0 7c a7 bd
       0.12166083 0.16541326 0.064741 -0.08178079

mu.bias f4 [5]
000000 f1 44 23 be 34 7f 24 bc 90 7c a7 bb a4 bf ad bd
       -0.15944268 -0.010040093 -0.0051112846 -0.08483818
000010 4e ca fa bd
       -0.12245618

sigma.weight f4 [5, 8]
000000 d4 2c b6 bd 30 55 2f be 08 3f 86 3d 5e d5 f4 bd
       -0.08895269 -0.1712234 0.06554991 -0.11954759
000010 45 91 b4 3c 2f 6b ea 3d 0b f5 a7 3d 6b 53 b3 bd
       0.022041926 0.11446225 0.08201035 -0.08756145
000020 29 27 04 3d 2a 45 2d be 9c e2 8a be 0e 79 49 3e
       0.03226391 -0.16920915 -0.27126014 0.19675085
000030 6a ae 28 3e 9e 0d 74 be 2f 3a 3b 3e 4a c1 6c 3e
       0.16472784 -0.2383332 0.18283914 0.23120609
000040 6e 96 80 3e ad ca 5b 3c 6d 92 a9 bd 33 22 36 be
       0.2511477 0.013415021 -0.082798816 -0.17786483
000050 e8 f8 83 3e 91 64 da 3b b9 af 5a be 5c fa 31 be
       0.25775838 0.0066648205 -0.21356095 -0.17380661
000060 a3 91 c1 be 42 eb 12 bd 8e 84 52 be 2a 55 54 be
       -0.37806424 -0.03586889 -0.20558378 -0.20735613
000070 65 93 ca be 06 cf 5d 3e d7 89 ff 3c 95 41 69 3e
       -0.39565578 0.21661004 0.031193657 0.22778924
000080 04 ec 15 3e cd 43 d3 3b 74 39 72 bc 60 55 30 3e
       0.14640814 0.0064472915 -0.014784206 0.17220068
000090 ba ee ba bd 58 30 b6 bd 03 ac ca bb c3 9d 93 3e
       -0.09127565 -0.088959396 -0.006185056 0.288313

sigma.bias f4 [5]
000000 7c 59 0c 3d 1e aa b8 3d 4e c6 e8 3d d0 d5 78 3e
       0.034265026 0.09016822 0.113659486 0.24300313
000010 8d fe 24 be
       -0.16112728

decoder.0.0.weight f4 [8, 5]
000000 d0 d5 3d bc d1 0d de 3e be 43 3f be ab 2b 9c 3e
       -0.011586621 0.43369916 -0.18678185 0.30502066
000010 54 5b 95 3e 12 e2 86 3c 5e 6a 2e be 2b 20 c0 3d
       0.2917124 0.01646522 -0.17032763 0.093811356
000020 84 b9 d2 3d 60 9a 9c bd 23 46 75 3e 84 13 a9 be
       0.102892905 -0.07646632 0.23952536 -0.33022702
000030 8b c6 a5 3e d1 91 1a 3e 61 30 06 be 94 3f e9 bd
       0.3237804 0.15094687 -0.13104393 -0.1138908
000040 06 fd 04 bf f1 8f c2 3d cf 75 9f 3e 24 22 89 be
       -0.51948583 0.09500111 0.31144568 -0.2678386
000050 a6 6f 83 3e 19 87 9d be 49 42 b0 3e 7c 06 86 be
       0.25671118 -0.30767134 0.34425572 -0.26176822
000060 98 fd dc 3d 48 08 76 be ff 85 67 3d 47 25 a0 3e
       0.10790557 -0.24026597 0.056524273 0.3127844
000070 c6 84 3c bd 23 ec 13 be 8c 76 b2 be 54 90 ca 3d
       -0.04602506 -0.14445548 -0.3485607 0.0989081
000080 5a de 15 3d f3 36 a8 bc 82 27 ad b7 c7 e5 7e 3c
       0.036589004 -0.020534014 -2.0641604e-05 0.015557713
000090 c2 ca a4 be 45 57 b8 be 00 89 a4 be 5a 86 9c 3e
       -0.32185942 -0.3600408 -0.32135773 0.30571252

decoder.0.0.bias f4 [8]
000000 e6 8a bf 3d 4c d1 06 be b1 61 8e bd 8d 49 6e be
       0.09352665 -0.13165778 -0.06952227 -0.23270245
000010 d5 c9 c0 be 64 f8 4e be a1 e5 7e 3e b3 a7 2d 3e
       -0.37653986 -0.20211941 0.24892284 0.16958503

decoder.0.1.weight f4 [8]
000000 d6 71 8a 3f e3 d3 8f 3f 9a 75 72 3f b6 bf 6e 3f
       1.081599 1.1236538 0.94710696 0.9326128
000010 63 92 60 3f d9 89 72 3f 46 e8 69 3f 7a ef 79 3f
       0.8772337 0.9474159 0.91370046 0.9763104

decoder.0.1.bias f4 [8]
000000 a5 6b a5 3d 8a 31 38 bd 7c 88 e8 3d c7 e1 1f bd
       0.08077172 -0.04496912 0.11354157 -0.039033677
000010 3c 43 f8 bd fd 8f 1c bd b2 45 70 3c 03 bf c1 3c
       -0.12122199 -0.038223255 0.014665054 0.023650652

decoder.0.1.running_mean f4 [8]
000000 d6 a4 c1 3d 2c be 0f be 97 28 b1 bd 97 7c 82 be
       0.09455268 -0.14037389 -0.0865032 -0.2548568
000010 f4 8a c4 be 4e c8 3b be 9d a0 86 3e ae 6b 1a 3e
       -0.38387263 -0.18338129 0.26294413 0.15080139

decoder.0.1.running_var f4 [8]
000000 45 e4 e3 3e cd 46 75 3d a5 85 ad 3e 6f 5b 03 3f
       0.44510093 0.059881974 0.33891025 0.5131139
000010 4d 7d cc 3e 20 2c 47 3e d9 c6 0a 3e f7 85 f6 3e
       0.39939347 0.19450426 0.13552417 0.48149082

decoder.1.0.weight f4 [8, 8]
000000 b7 a5 e3 3e c2 8b 83 3d 57 3b a8 be 04 a6 54 3e
       0.44462368 0.06423141 -0.32857773 0.20766455
000010 af 93 71 be f1 21 0f 3e 8b cc e0 3d 4c af 71 3d
       -0.23591493 0.13977791 0.109765135 0.059005067
000020 09 15 c1 3e 0f 5d 3d be a9 54 c7 be 5e 39 eb 3d
       0.3771136 -0.1849253 -0.38931778 0.11485551
000030 0a 27 0d 3e bf de 80 3e a1 07 51 3e 1e 49 69 be
       0.13784423 0.25169942 0.20413066 -0.22781798
000040 b5 94 17 be 82 32 ba 3e d5 43 ed bd a2 e3 eb 3d
       -0.14802821 0.3636666 -0.115852036 0.11518027
000050 cb fa 4d 3e b0 69 36 bd 1f d7 00 be ff a1 cd bc
       0.20115201 -0.044534385 -0.12582062 -0.02510166
000060 b4 a0 6b be 3f 88 98 be 13 d4 42 bc 08 e4 db bc
       -0.23010522 -0.29791448 -0.011891383 -0.026842132
000070 03 38 20 bd 5c 74 6b be c8 1b 16 bc 8e 6e 5a bc
       -0.039115917 -0.22993606 -0.009161897 -0.013332022
000080 48 95 bc 3e c0 4a 90 be 1c 9f b6 bd 2a 47 ba 3d
       0.36832643 -0.2818203 -0.089170665 0.09095605
000090 0e 30 35 be e7 08 59 3d b5 07 28 3d 4d fd 51 3d
       -0.17694113 0.052987006 0.041022975 0.051266957
0000a0 b3 bb 2f bd 22 15 d2 3d 5e 38 1f 3e 75 b8 a4 3e
       -0.042903613 0.10257937 0.15548846 0.3217198
0000b0 aa bb 0b 3e 1e a3 07 bc f2 8b de bd 09 ac 4c bc
       0.13645807 -0.008278636 -0.10866536 -0.012492188
0000c0 e1 bc 69 3e 7e 1e b4 be ca d5 ad 3d bb c2 dc be
       0.22825958 -0.35179514 0.08488043 -0.43117318
0000d0 05 49 70 3e 5b ad 29 be 03 1a f1 bc e0 94 96 3d
       0.23465355 -0.16570036 -0.029431349 0.073526144
0000e0 54 e7 1b be 28 3d 77 3e 88 43 62 3e 5b 33 89 3e
       -0.15224963 0.24144423 0.22096074 0.26796994
0000f0 e0 98 c9 bd 7b 78 65 3d 3d 6d c6 bd 25 93 82 3d
       -0.09843612 0.056023102 -0.09688804 0.06375722

decoder.1.0.bias f4 [8]
000000 f6 7c 57 be 1a ab 4d be c6 fe 28 3e a3 e1 94 3e
       -0.21043763 -0.20084801 0.16503438 0.29078397
000010 fa 39 26 bd 7b 2d 57 3e bb de 7f 3e 83 e2 c9 bd
       -0.040582635 0.21013443 0.24987309 -0.09857657

decoder.1.1.weight f4 [8]
000000 ef 5f 66 3f 73 bb 69 3f c1 85 8b 3f 7f f8 68 3f
       0.89990133 0.9130165 1.0900193 0.91004175
000010 56 98 86 3f 11 81 7c 3f a8 18 62 3f 12 09 8b 3f
       1.0515239 0.9863444 0.8831887 1.0862143

decoder.1.1.bias f4 [8]
000000 f6 eb c6 bd 16 aa 17 3d 19 8e 85 bd 24 0f d7 bd
       -0.09712975 0.03702744 -0.065212436 -0.10500935
000010 33 e2 3f 3d 80 2e c6 bc 72 7e a5 3b 21 65 01 3e
       0.04684658 -0.024192095 0.005050474 0.12636234

decoder.1.1.running_mean f4 [8]
000000 c6 06 30 3b bb c3 e6 bd 47 12 61 3e ee 95 72 bd
       0.0026859506 -0.112678014 0.21979629 -0.059225015
000010 a4 d7 10 3c 9d d8 d0 3e 34 36 00 3e 4e e2 cb 3d
       0.008840475 0.40790263 0.12520677 0.099552736

decoder.1.1.running_var f4 [8]
000000 f4 65 44 3e ab 87 80 3e 37 28 f0 3d 68 8c 73 3d
       0.19179517 0.25103506 0.117264204 0.059460074
000010 91 55 27 3e 53 e0 03 3e 51 86 75 3e 6f 73 45 3e
       0.16341235 0.12878542 0.23977019 0.19282316

decoder.2.0.weight f4 [16, 8]
000000 65 b2 58 be 35 24 cd be 9b b8 d5 bd 35 77 53 3e
       -0.21161802 -0.40066686 -0.10435601 0.20650943
000010 cf a4 d3 be 00 82 4f be 55 27 d0 be ea 20 5a bd
       -0.41336676 -0.20264435 -0.40655008 -0.053254046
000020 0b a2 06 be 1b 0c cb bd 0e 1b 5c bc c7 91 01 be
       -0.13147752 -0.09914418 -0.013434185 -0.12653266
000030 6a b5 99 3d 38 8f 7b bd 3f 35 3e 3d 7e 63 9d be
       0.07505305 -0.06141588 0.0464375 -0.3073997
000040 84 ca 27 3b 28 da 40 3e 63 ec c6 be 02 dc 1c 3e
       0.0025602886 0.1883322 -0.38852224 0.15318301
000050 6c 94 3a be 12 cb d0 be 3d be 9e 3e eb 9e aa 3d
       -0.18220681 -0.4077993 0.31004515 0.083310924
000060 e4 49 d2 3d 52 3b 58 3e 57 45 17 3e 5a c5 97 be
       0.10268 0.21116379 0.14772545 -0.29642755
000070 c8 14 37 bc 9c 13 19 3e dd 8b 15 3d f5 45 e7 3c
       -0.011174388 0.14948887 0.036510337 0.0282316
000080 02 da 1d 3d 46 24 08 3e 20 be ad bd c9 5c 2a 3e
       0.038537987 0.13295087 -0.08483529 0.16636957
000090 0f dd 02 3e bf 2c e2 be 86 15 06 3e b8 e0 d2 be
       0.1277964 -0.44174764 0.13094148 -0.41187072
0000a0 b8 ef 35 3e ef ae 87 3e 46 63 d3 be 12 b2 b6 3d
       0.17767227 0.2650065 -0.41286677 0.08920683
0000b0 2f 79 5b 3e b3 3e c6 be 13 65 69 be df 4a 4f 3e
       0.21432947 -0.3871971 -0.22792463 0.20243405
0000c0 18 5b 55 be b4 d8 41 bc d1 fd 37 3e 7b 7c b3 be
       -0.20835531 -0.011831451 0.17967917 -0.3505591
0000d0 2b 64 b7 3e 0c 77 60 be 08 2e a4 be 8e 99 49 3e
       0.3581861 -0.21920413 -0.3206637 0.19687483
0000e0 12 37 4f be 79 66 f7 bd a2 a8 36 be e4 9a 10 bd
       -0.20235851 -0.12080092 -0.17837766 -0.035303965
0000f0 4d 92 87 3e 2f 25 88 3e 3b 0c d1 be ff 62 b7 3e
       0.26478806 0.2659087 -0.40829644 0.35817716
000100 8d df f9 3d b4 3f 50 be ea 0d 9e 3d 4f 78 67 be
       0.12200842 -0.20336801 0.07717498 -0.22604488
000110 21 f4 49 3d ab 97 53 3e 37 63 27 3d 78 95 be 3e
       0.049305085 0.20663325 0.040866103 0.3722341
000120 63 78 01 be ba 5d 49 3e 3e 2b 4a bd 3a 34 39 be
       -0.1264358 0.1966466 -0.049357645 -0.18086329
000130 36 dc 5b be bf f6 6e 3e 82 a4 38 3e d5 e8 48 3e
       -0.21470723 0.23336314 0.18031505 0.19620068
000140 95 a8 83 be 77 27 c3 3c 32 3b 2c 3e ca d9 f9 bd
       -0.25714555 0.02382253 0.16819456 -0.12199743
000150 4d 4b 07 3e a6 74 b3 bd 18 46 f8 bd 0e a4 80 3e
       0.13212319 -0.08762483 -0.12122744 0.25125164
000160 1c b9 27 3e 39 f0 d9 be 39 45 f1 3c da 61 3c be
       0.16379207 -0.42566088 0.029451953 -0.18396702
000170 64 dd c3 be a8 6b 68 3e 00 ac d2 be c1 33 52 3e
       -0.38254845 0.22697318 -0.4114685 0.20527555
000180 25 18 b9 3b f8 64 8c bd 34 0e 80 be 27 0c fb bd
       0.00564863 -0.06855196 -0.25010836 -0.12258177
000190 bf 25 e9 bd 34 24 bd bc 49 b8 2e 3e b5 99 31 be
       -0.113841526 -0.023088552 0.17062487 -0.17343791
0001a0 f6 86 2f bd ea 54 04 3e 9a d5 b0 be cd d2 33 3d
       -0.04285332 0.12923017 -0.34537965 0.043902207
0001b0 a8 79 55 bc 32 4d 8d 3d 8a 63 32 3e c5 46 b7 be
       -0.013029493 0.068994895 0.17420784 -0.3579618
0001c0 91 dc 69 be 43 ef 00 3e d3 3a 71 3e 66 2d a8 bc
       -0.22838046 0.12591271 0.23557596 -0.02052946
0001d0 95 5c 1e be 3b ba 8e 3e b6 35 94 be 34 de ee 3d
       -0.15465005 0.27876458 -0.28947228 0.11663476
0001e0 9a f9 52 3e d5 da 2a 3d f4 94 d0 3e bd 6b 90 3d
       0.20603028 0.0417126 0.40738642 0.070517994
0001f0 b8 65 a7 3e cd dd fb 3d 2b 11 96 bd 20 fa a8 3e
       0.32694793 0.122981645 -0.07327493 0.3300333

decoder.2.0.bias f4 [16]
000000 33 21 f6 bc d8 ed 52 bd 65 0e 01 be 32 9c 72 3d
       -0.030045127 -0.051496357 -0.12603147 0.05923099
000010 81 53 5e 3e 51 1f 7e 3c e0 2e 05 be 78 a1 87 be
       0.21711542 0.015510396 -0.13006163 -0.26490378
000020 3a c9 00 3e 8d 1d 68 be 5e 48 30 bc e1 96 10 be
       0.12576762 -0.22667523 -0.010759441 -0.14120056
000030 e5 99 76 be 76 2a 07 be 6e 13 99 3e 46 e9 07 3e
       -0.24082144 -0.13199791 0.29897636 0.1327258

decoder.2.1.weight f4 [16]
000000 09 02 6a 3f db 66 7b 3f 5d d9 6f 3f 7e cc 68 3f
       0.91409355 0.9820382 0.93691045 0.9093703
000010 70 20 85 3f 08 58 6b 3f 1e 4f 76 3f 5f 06 75 3f
       1.0400524 0.919312 0.96214473 0.95712847
000020 12 a9 74 3f 42 6d 6f 3f 09 0f 72 3f 7f 30 73 3f
       0.9557048 0.9352609 0.9455419 0.94995874
000030 84 d4 76 3f d0 16 7c 3f c8 35 70 3f 0e 7b 6e 3f
       0.96418023 0.9847231 0.93832064 0.93156517

decoder.2.1.bias f4 [16]
000000 a3 76 21 bd 7c a1 b5 3c 94 0b 26 bd d7 15 92 bd
       -0.03941978 0.022171728 -0.040538386 -0.07133072
000010 c6 37 d1 3d 93 e3 92 bd 2d 98 bf 3d 48 83 8b bc
       0.10215716 -0.071723126 0.09355197 -0.017030373
000020 e5 ed 27 bd 9f 5d 0e 3e 17 93 81 bd b2 c3 8a bb
       -0.04099836 0.13902901 -0.06326883 -0.0042347545
000030 b4 91 fc 3d 84 55 98 3b c4 08 6a bd 96 4e 88 bd
       0.12332478 0.004648866 -0.057137266 -0.06655614

decoder.2.1.running_mean f4 [16]
000000 2b 14 26 bf 96 29 97 be c0 a7 75 be ac e8 60 3e
       -0.64874524 -0.29523915 -0.23989773 0.21963757
000010 ac 7e 32 3d 67 44 a9 b9 43 7c 35 be a0 4f 55 be
       0.043577835 -0.00032285156 -0.17723183 -0.20831156
000020 81 07 ad 3e 06 67 d8 bd 4e da 48 3d b6 4b d6 be
       0.33794788 -0.10566525 0.049036317 -0.41854638
000030 0d 4a f5 be 6c 10 9c be 97 9a b8 3e b1 65 36 3f
       -0.4790806 -0.3048128 0.36055443 0.7124892

decoder.2.1.running_var f4 [16]
000000 ab 89 ce 3e aa 92 a0 3d 41 c2 a9 3e 36 1a d1 3d
       0.40339407 0.07840474 0.33156016 0.102100775
000010 96 7b 31 3f 04 60 b5 3e 5f 19 95 3d 34 e7 44 3e
       0.693292 0.35424817 0.0728023 0.19228822
000020 34 c9 9d 3e 24 e8 d7 3d a8 99 c8 3d 36 d6 07 3f
       0.30817568 0.10542324 0.097949326 0.53061235
000030 a9 23 c8 3d f4 da 9b 3e 4e c7 b7 3e 1a 51 b6 3e
       0.09772427 0.30440485 0.35894245 0.3560875

decoder.3.weight f4 [24, 16]
000000 5a d5 85 3e 35 98 5e 3e 28 cc 03 bc 01 9c 35 3e
       0.26139337 0.2173775 -0.00804428 0.17735292
000010 75 20 cc 3d 20 7b 8e 3d c4 fa 45 3e 96 c1 1e bd
       0.09967128 0.06957078 0.1933394 -0.038758837
000020 6e 19 8c 3d 60 84 6f 3c 0d 37 39 bd fe 20 2e 3e
       0.06840788 0.014618963 -0.045218516 0.17004773
000030 ff 50 ba bd f7 15 cc bd 3e d3 53 be 14 8a f2 bd
       -0.0909748 -0.09965127 -0.20686051 -0.118427426
000040 23 01 b9 bc f5 0b f9 3d 0a 32 d0 3d f2 35 fa bc
       -0.02258355 0.12160484 0.10165794 -0.030543301
000050 db f0 69 bc 5f ff 62 3d 44 8b c5 bd 63 18 2b bd
       -0.014278616 0.055419322 -0.096457034 -0.041771304
000060 bf b5 15 3e 75 73 13 be 02 d2 73 3d 45 3b 22 be
       0.14620112 -0.14399512 0.05952645 -0.15842922
000070 1d b8 5a 3c 61 d9 dc bd d7 7b 29 3e 7a 8c c1 3d
       0.01334956 -0.10783649 0.16551147 0.09450622
000080 da 11 6d 3e a4 5c 83 3b 1a 01 0e 3e 4f 56 33 bc
       0.23151341 0.0040088464 0.13867608 -0.010945871
000090 f2 3e 62 3e c2 27 db 3d c4 31 b8 bd aa 4d f2 3d
       0.22094324 0.107009426 -0.08993867 0.118312195
0000a0 06 11 83 3c 5c 21 22 3e 2d 1e 87 3d 04 6b 55 3d
       0.015999328 0.15833038 0.065975524 0.05210401
0000b0 d9 30 63 3e 68 ff 40 3d d0 96 6e bc e8 e5 8f bd
       0.22186603 0.047118574 -0.014562324 -0.07026273
0000c0 fd 97 58 3d b6 8b 07 3d ea d5 94 bd 37 a8 d2 bc
       0.052879322 0.033092223 -0.07267363 -0.025714977
0000d0 5f dc d9 bb 0b 33 c9 3c 60 2c a2 3d 47 ed 76 3d
       -0.0066485847 0.024560472 0.0791862 0.06028488
0000e0 20 26 02 be 8f cf 18 3e 50 d7 08 be 1b 6b a8 3d
       -0.12709856 0.14922927 -0.13363385 0.08223554
0000f0 74 56 ae 3e a8 bc 9f 3e 3b 03 83 3d 35 0c dd 3d
       0.34050333 0.3119862 0.063971005 0.10793344
000100 24 03 04 3d e6 8a b7 bd 67 c9 3b be 9e 4e bf bd
       0.032229558 -0.0896204 -0.18338548 -0.09341167
000110 cf 61 3d 3e 9b 65 f4 bd 4c 13 1e 3e 0a 2f 81 bd
       0.18494342 -0.11933442 0.15437049 -0.063078
000120 7b 5a 2d be 31 22 c6 3c 91 9c 2d 3e 9d cf 35 3e
       -0.16929047 0.024186226 0.16954257 0.1775498
000130 3c d1 4f 3e 37 d3 64 3d 2c b5 73 be 46 e9 0b 3e
       0.2029466 0.055865493 -0.2379958 0.13663206
000140 ee 46 81 bd 45 77 86 bd c4 5e d5 bd db 09 af 3c
       -0.06312357 -0.065657176 -0.10418466 0.021367004
000150 1d cd 71 bb ee 91 44 bd f8 f8 2d 3e 99 39 2f bd
       -0.0036895939 -0.047990732 0.16989505 -0.04277954
000160 b4 27 00 3c 52 d1 92 3d 9c d4 fd bd e5 b4 20 3e
       0.007821966 0.07168831 -0.12394068 0.15694006
000170 6c e8 b3 3e fe 89 16 3e dc f9 49 be aa 76 0d 3e
       0.3513826 0.14701077 -0.1972422 0.13814798
000180 ad 5e 92 3d 11 c3 46 3e e1 5e 86 3e 79 87 a9 3d
       0.07146964 0.1941035 0.26244262 0.082777925
000190 a7 4b 10 be 1d 26 ef 3d e3 0e f1 3d f5 53 20 3e
       -0.14091359 0.116771914 0.117704175 0.15657027
0001a0 b5 3d 00 be 86 ce 07 be f3 2a 1b 3d 72 36 39 3e
       -0.1252354 -0.13262376 0.037882756 0.18087175
0001b0 c7 53 6f 3e d6 0d 01 be 54 9c da 3c 31 50 b4 bd
       0.23371802 -0.12602934 0.026685871 -0.08804358
0001c0 bf 7c 1c 3d e3 7d 80 3d f0 58 22 3e 96 4d 01 be
       0.038204905 0.06274011 0.1585424 -0.12627253
0001d0 b5 32 4d 3e d3 79 71 3d 89 b3 22 3c e3 21 8c bd
       0.20038874 0.05895407 0.0099305 -0.06842401
0001e0 91 03 44 bd 2e b4 e8 3d f4 ea a3 bd 99 51 8b 3e
       -0.047854964 0.113624915 -0.08003798 0.27210692
0001f0 09 06 59 bd 68 e1 01 be eb e2 c2 3c c5 db a8 b9
       -0.05298427 -0.12683642 0.023789844 -0.00032207198
000200 38 d3 2a 3e b7 81 48 3e 65 d4 21 3e e0 43 0a 3e
       0.16682136 0.19580732 0.15803678 0.13502455
000210 51 d8 3f bd c9 6f a6 3d fa 1a bb 3d a6 ab 11 bd
       -0.046837155 0.0812679 0.09136005 -0.035564087
000220 3e db 4f 3e 78 f0 15 3e 50 e0 84 bc 74 b8 ee bd
       0.20298478 0.14642513 -0.016220242 -0.116562754
000230 a9 3e 0d 3d cd 34 34 bd 96 77 c0 bd 39 05 1f be
       0.034483586 -0.043995667 -0.09397809 -0.15529336
000240 d0 0d fe 3d 84 85 7a 39 3d 12 fc bd da 66 e0 3d
       0.12404978 0.00023891596 -0.12308166 0.109571174
000250 f8 7d 37 3d 85 69 60 3d b8 34 25 3d bf b9 4d 3e
       0.044797868 0.05478813 0.04033348 0.20090388
000260 00 cc 9c bd 4b 11 3c 3d 14 a3 2a be 54 5d af bd
       -0.076560974 0.04591493 -0.16663772 -0.08562723
000270 9a 61 17 3e 8e 3c 7a bd 85 4b 4e 3e e9 16 3b be
       0.14783326 -0.061092906 0.20145996 -0.18270458
000280 0b b2 40 3d ac 20 01 3d c3 5d 9d 3a 32 3c 5c 3e
       0.047044795 0.0315253 0.0012006093 0.21507338
000290 82 41 eb bb e1 58 97 bd a9 b8 0e 3e 1a a6 20 bd
       -0.00717944 -0.07389999 0.1393763 -0.039220907
0002a0 ca 74 ec bd 16 46 9b bd d9 71 85 3d 71 a5 a1 bd
       -0.11545713 -0.07581727 0.06515855 -0.078928836
0002b0 a9 d8 72 3e ff a0 a9 bd 2e 0b 31 3e 89 13 b4 bd
       0.23715462 -0.08282661 0.17289421 -0.087927885
0002c0 58 b6 4c 3e c3 13 30 be 6e 5e 20 3e a8 4b 59 be
       0.19991434 -0.17195038 0.15661022 -0.21220267
0002d0 98 61 5c 3d 82 c3 45 3e ed d4 c5 3d ce 28 ce 3d
       0.05380401 0.19312862 0.09659753 0.100663766
0002e0 1f cc 1a 3e 91 e3 88 3d 7a 26 f1 bd 80 06 0e be
       0.15116929 0.0668403 -0.11774917 -0.13869667
0002f0 9a a5 71 3e 12 50 87 3d 7b 14 6d 3e a0 00 9b bd
       0.23598328 0.06607069 0.23152344 -0.075684786
000300 9f c6 43 3d 8d 3a 66 3e c9 28 14 3d a0 ad 4e 3e
       0.04779684 0.22483273 0.03617171 0.2018342
000310 a8 bd 9e ba 80 e5 df bd 60 92 ac bd 35 28 fb bd
       -0.0012110965 -0.109324455 -0.08426356 -0.12263528
000320 7f ca 4a be 6d 04 15 3e 4e 7d 89 bb fc 3b 82 3e
       -0.19803809 0.1455247 -0.0041958457 0.2543639
000330 b8 ec 8b bc 55 e4 f6 bb 09 a1 d6 bb 31 37 fc bc
       -0.01708065 -0.0075345435 -0.0065499586 -0.030788036
000340 31 c8 35 3e 9e 67 e3 3d 76 a4 92 bc ff ea 86 bc
       0.17752148 0.11103748 -0.017900687 -0.016469477
000350 a5 58 a1 3e 71 6b 9c 3c 80 2c 2c 3e 4f 4b d8 bd
       0.31512943 0.0190942 0.1681385 -0.10561239
000360 98 c0 6e bd 11 6b 4f 3e cf e6 28 3e 25 1b c2 3d
       -0.05828914 0.20255686 0.16494296 0.09477834
000370 23 02 36 3e 7f 74 33 be ca cf bb bd fd aa 15 be
       0.17774253 -0.17524908 -0.09170492 -0.14616008
000380 91 ba 2c bd 62 04 99 ba 7e 3f ac 3e 99 88 84 3d
       -0.04217011 -0.001167428 0.3364219 0.064713664
000390 c7 46 a1 3e 48 05 26 bd 0d 28 d0 bd 58 85 d1 bd
       0.3149931 -0.04053238 -0.10163889 -0.102305114
0003a0 38 6d 1e 3e d5 36 05 3e 6f 7b 23 3d 65 9e 05 3e
       0.15471351 0.13009198 0.039912637 0.13048704
0003b0 51 1e 78 3c 64 9e e8 bd cb 16 d3 3b 8f 4c 27 be
       0.015143947 -0.113583356 0.006441926 -0.16337799
0003c0 07 1d 8e 3d da 00 dc 3d f3 e0 1e 3e a5 f6 1f be
       0.0693913 0.1074235 0.15515499 -0.15621431
0003d0 0e 11 ae 3d 9b de bb 3c 59 43 58 3e 38 53 33 3e
       0.08499347 0.022933295 0.21119441 0.17512214
0003e0 87 7d 27 be c4 c8 14 3e a5 f2 99 bd 25 f5 ff 3b
       -0.16356479 0.14529711 -0.07516984 0.007811206
0003f0 b8 b4 ea bd 83 3e f7 3d 01 86 de 3c 13 a5 4f bd
       -0.114602506 0.1207247 0.027163507 -0.050694536

decoder.3.bias f4 [24]
000000 7c c9 9e 3d ee 5d a2 3e c3 ff 06 be e8 6f 95 bd
       0.07753274 0.31712288 -0.13183503 -0.07296735
000010 42 c7 5d 3e f9 6e bf 3d 6b 1d 38 3d 16 94 35 3e
       0.21658042 0.09347338 0.04494993 0.17732272
000020 9d 3c ac 3d 7b f2 71 3e a7 d5 3c 3e fa da cf 3c
       0.084099986 0.23627655 0.18440877 0.02537297
000030 36 e2 61 3e 02 31 ae bc 08 63 83 3d e5 48 b8 3d
       0.22058949 -0.021263603 0.06415373 0.089982785
000040 e8 e7 8c 3e 40 51 9d 3e 06 d3 46 3e 67 99 6a 3e
       0.2752068 0.3072605 0.19416437 0.22910081
000050 cd 5e 16 3e cd b5 d4 3d aa aa 5e 3e db 32 8d 3d
       0.14684601 0.10386238 0.2174479 0.068944655

exp_avg f4 [16, 24]
000000 f4 81 9f b7 fe 01 e4 b6 a9 c6 34 b6 d6 1d e4 b6
       -1.9014791e-05 -6.7951614e-06 -2.6937726e-06 -6.798403e-06
000010 62 c1 65 36 68 9d 50 37 09 ea 0f 38 b0 56 2b 38
       3.4236223e-06 1.2434415e-05 3.431182e-05 4.085031e-05
000020 4d 7f d7 37 88 08 01 37 d5 0d 77 b6 6e 64 3e 36
       2.5689276e-05 7.6909855e-06 -3.681392e-06 2.8370664e-06
000030 1d ad 06 38 e3 27 88 38 81 9a a7 38 d2 7f ab 38
       3.2109314e-05 6.492415e-05 7.991959e-05 8.177724e-05
000040 38 62 8a 38 22 45 22 38 e5 d6 b1 36 a2 ab 49 b6
       6.5986475e-05 3.8688195e-05 5.300028e-06 -3.0051237e-06
000050 1a 56 22 b4 1c ad 48 b4 98 1a 3d b7 b9 80 68 b7
       -1.5118749e-07 -1.8689428e-07 -1.127147e-05 -1.3858248e-05
000060 05 6e dc 38 f0 fa 0f 39 93 85 cf 38 ae fe 5a 38
       0.0001051091 0.00013731024 9.895409e-05 5.221244e-05
000070 bd 37 96 37 7a 6e 10 b7 06 71 f4 b7 82 96 e5 b7
       1.7907349e-05 -8.608791e-06 -2.9139697e-05 -2.7369013e-05
000080 d7 3f c8 36 b9 c9 4b 38 9b 0d 9e 38 ee 64 d3 38
       5.9678964e-06 4.858684e-05 7.536561e-05 0.00010080064
000090 49 f5 03 39 5f 25 11 39 9e e3 2d 39 be af 31 39
       0.0001258451 0.000138422 0.0001658336 0.00016945504
0000a0 cb 0f 31 39 2a 26 19 39 7c 84 02 39 2f f2 c9 38
       0.00016885919 0.00014605434 0.0001244712 9.629537e-05
0000b0 59 3c a2 38 18 19 62 38 a1 31 82 38 07 19 91 38
       7.7360026e-05 5.390597e-05 6.208127e-05 6.9188005e-05
0000c0 4b 76 d6 39 8f d0 d6 39 0d b6 b6 39 5e 2d 95 39
       0.00040905396 0.0004097265 0.00034849384 0.00028453296
0000d0 3e 0e 5d 39 28 ee e5 38 4b 22 33 b7 c1 0a b5 b8
       0.00021081508 0.00010963931 -1.0677216e-05 -8.6327556e-05
0000e0 3e 06 ed b8 3d f2 05 b9 92 58 07 b9 8d 16 ea b8
       -0.00011302203 -0.00012774109 -0.00012907598 -0.0001116219
0000f0 a9 b8 58 b7 a8 58 83 38 2c 54 1e 39 d6 b9 7e 39
       -1.2917598e-05 6.26308e-05 0.0001509941 0.00024292557
000100 d8 0c 9b 39 7b 1b c7 39 23 90 e9 39 0d cc f9 39
       0.00029573473 0.00037976712 0.00044548613 0.0004764501
000110 da a5 f4 39 0e c4 e4 39 bf 46 d5 39 07 6b c3 39
       0.00046662876 0.0004363362 0.00040679236 0.0003727304
000120 b5 88 d1 b6 77 89 83 37 ef 4b a6 37 fa 42 96 37
       -6.2446e-06 1.5680429e-05 1.9824101e-05 1.7912582e-05
000130 fe 48 1a 38 8c e8 99 38 1f 4b e3 38 67 ee 03 39
       3.678444e-05 7.338924e-05 0.00010838196 0.00012581945
000140 23 5e da 38 e2 be b6 38 2d 45 63 38 fa a8 6c 37
       0.000104125844 8.713991e-05 5.4185442e-05 1.4106039e-05
000150 2b 50 cc b7 34 e2 39 b8 ec ca 5b b8 37 38 9d b8
       -2.4356026e-05 -4.4318105e-05 -5.2402655e-05 -7.496814e-05
000160 b4 7c d3 b8 34 b0 10 b9 47 58 2a b9 15 15 21 b9
       -0.00010084492 -0.00013798551 -0.00016245349 -0.0001536201
000170 ae 71 0c b9 07 db de b8 8c 3b 91 b8 81 df 22 b8
       -0.0001339379 -0.00010626582 -6.92523e-05 -3.8831964e-05
000180 a8 0b d9 b8 b8 ad e9 b8 87 e1 04 b9 2b 26 10 b9
       -0.000103495375 -0.000111426634 -0.00012672516 -0.00013747129
000190 f8 1d 13 b9 e6 45 0a b9 23 f9 dc b8 8a ca c1 b8
       -0.00014030177 -0.00013186745 -0.00010536823 -9.240683e-05
0001a0 7b 15 d7 b8 32 ae af b8 9c 12 db b7 77 2e 72 37
       -0.00010256 -8.377097e-05 -2.61155e-05 1.44351425e-05
0001b0 8a d5 39 38 43 09 a6 38 0d 27 02 39 0e 2d 1d 39
       4.430631e-05 7.917222e-05 0.00012412314 0.00014989471
0001c0 f9 4a 30 39 50 51 37 39 7d 3e 3e 39 32 81 1b 39
       0.00016812597 0.00017482531 0.0001814309 0.00014830081
0001d0 a5 ef 91 38 76 69 81 b7 75 28 58 b8 23 84 83 b8
       6.958776e-05 -1.5427107e-05 -5.153609e-05 -6.271179e-05
0001e0 80 c2 41 39 49 94 36 39 fc c3 24 39 dd b2 14 39
       0.00018478371 0.00017412113 0.00015713269 0.00014181012
0001f0 5d 79 05 39 78 73 f4 38 00 24 c0 38 66 2b 84 38
       0.0001272908 0.000116563344 9.161979e-05 6.302334e-05
000200 c0 26 46 38 3c 00 c9 37 12 32 c3 35 fa 3b 82 b7
       4.7242967e-05 2.3961176e-05 1.4543205e-06 -1.5525136e-05
000210 42 e0 91 b7 9a 89 0c b8 b5 e5 29 b8 45 a1 13 b8
       -1.7389775e-05 -3.3506753e-05 -4.050667e-05 -3.5197725e-05
000220 6e 84 09 b8 ff f8 f9 b7 77 8b 4d b7 2b b3 8e b6
       -3.278668e-05 -2.9799061e-05 -1.2251424e-05 -4.2527877e-06
000230 d3 ff 79 b7 2a d7 ef b7 bc 19 da b7 ec c2 e5 b6
       -1.490112e-05 -2.8591214e-05 -2.5999609e-05 -6.8474237e-06
000240 10 e1 60 38 60 2e 95 38 c6 9f ae 38 b7 31 ad 38
       5.3615368e-05 7.113512e-05 8.326727e-05 8.258543e-05
000250 7c b0 5d 38 2b f1 e3 37 89 32 95 36 86 12 02 b8
       5.285487e-05 2.7172811e-05 4.446429e-06 -3.1011667e-05
000260 92 18 75 b8 77 db 9a b8 b2 b5 93 b8 46 32 88 b8
       -5.8435435e-05 -7.384171e-05 -7.0433496e-05 -6.4943495e-05
000270 85 7f a5 b8 9d 37 93 b8 ad e5 95 b8 5e 3b 86 b8
       -7.8915655e-05 -7.019865e-05 -7.147654e-05 -6.400676e-05
000280 32 e4 07 b8 95 d1 7d 37 ec ad 82 38 74 ee a9 38
       -3.239903e-05 1.5128772e-05 6.2312785e-05 8.102963e-05
000290 fc a1 aa 38 36 8e 9f 38 c4 a4 9f 38 d7 87 91 38
       8.1364036e-05 7.6082e-05 7.612401e-05 6.939441e-05
0002a0 c9 c0 91 38 17 da 26 38 16 2b c9 b6 3f e3 d2 b7
       6.950048e-05 3.9780596e-05 -5.9952827e-06 -2.513977e-05
0002b0 28 1a ca b7 3e b2 8f b7 25 51 ec b7 67 8a 35 b8
       -2.4092456e-05 -1.7129929e-05 -2.8171178e-05 -4.328266e-05
0002c0 dd 4f 85 b8 b2 2e 90 b8 a8 0d 2c b8 bf 4f ad b6
       -6.35681e-05 -6.875153e-05 -4.1020714e-05 -5.1650854e-06
0002d0 8b 31 48 38 b2 1c c6 38 9b ad 23 39 6b 66 52 39
       4.7729856e-05 9.446721e-05 0.00015609564 0.00020065314
0002e0 5e 4b 6d 39 3e d4 66 39 ba 9b 59 39 9c a0 53 39
       0.00022630158 0.00022013576 0.00020752745 0.0002018236
0002f0 97 40 2c 39 8d 8d ee 38 92 d5 b1 38 66 b6 be 38
       0.0001642726 0.0001137509 8.479798e-05 9.09388e-05
000300 84 d4 ad 38 b4 60 2b 38 c9 f8 d5 b7 95 5c 7e b8
       8.288867e-05 4.085964e-05 -2.5507428e-05 -6.0644543e-05
000310 03 4c a6 b8 13 42 94 b8 7e 75 a3 b7 10 f0 28 37
       -7.929655e-05 -7.069497e-05 -1.9485826e-05 1.0069474e-05
000320 b2 07 64 38 ba 2d 60 38 51 35 ce 37 9e ea 8a 35
       5.4366603e-05 5.3448348e-05 2.4581941e-05 1.0350084e-06
000330 9e d1 87 b8 cb b6 ae b8 4a ce cd b8 a2 9a d7 b8
       -6.476346e-05 -8.3310144e-05 -9.813586e-05 -0.000102808015
000340 ef 33 73 b8 d5 d7 91 b7 76 0a b9 37 05 1e 91 37
       -5.798408e-05 -1.7385852e-05 2.205859e-05 1.7299326e-05
000350 77 3f 11 36 e3 6e fa 35 5f d2 70 36 eb b6 9a b7
       2.1643625e-06 1.8658724e-06 3.588524e-06 -1.8443408e-05
000360 c8 23 aa b8 02 8a b8 b8 dc 3e 3c b8 d9 95 b7 b7
       -8.1128965e-05 -8.79951e-05 -4.4881235e-05 -2.1885078e-05
000370 40 49 27 b7 0a 0d 32 36 02 bd 70 37 10 25 cb 37
       -9.9710305e-06 2.6531657e-06 1.4349122e-05 2.4216744e-05
000380 a7 20 79 38 2c 1d bb 38 14 5e e7 38 8d 99 ff 38
       5.9396636e-05 8.9222885e-05 0.00011032462 0.000121879486
000390 33 f7 c6 38 a1 2f 87 38 1b 0a ae 36 1c 3a d1 b7
       9.48742e-05 6.446173e-05 5.1867805e-06 -2.49418e-05
0003a0 9f 45 72 b7 b6 88 da b7 cb f9 67 b8 55 44 b9 b8
       -1.4440534e-05 -2.6051286e-05 -5.530733e-05 -8.834215e-05
0003b0 d7 17 bb b8 7c bd 8c b8 48 82 cc b8 e7 2c 25 b9
       -8.9212954e-05 -6.7110144e-05 -9.751745e-05 -0.00015752354
0003c0 26 07 65 39 f2 a6 7e 39 6a d6 76 39 f1 f0 55 39
       0.00021841805 0.0002428552 0.00023540264 0.0002040302
0003d0 04 fc 41 39 14 96 2b 39 76 13 15 39 20 e4 08 39
       0.00018499797 0.00016363739 0.00014216997 0.00013054954
0003e0 e4 53 14 39 a3 52 0d 39 11 b1 ad 38 d1 91 5b 38
       0.00014145632 0.00013477592 8.282264e-05 5.234947e-05
0003f0 39 a8 23 38 33 9a 3e 36 ff b8 d9 b7 6a fd 08 b8
       3.9018898e-05 2.8401962e-06 -2.5954561e-05 -3.2660937e-05
