experiments/data/vae/014_UCR_Anomaly_DISTORTEDECG3_8000_17000_17100.txt-.ckpt (torch, 678827 bytes, 102 tensors)

encoder.0.0.weight f4 [128, 167]
0	0x3cb974cd	0.022638703
1	0xbd63f425	-0.055652756
2	0x3cad1e6d	0.021132672
3	0x3d08825c	0.033327445
4	0xbd307fd3	-0.043090653
5	0xbd703faa	-0.058654465
6	0x3d6c873c	0.057746157
7	0xbbff724f	-0.007795609
8	0x3d68e9e0	0.056863666
9	0xbb9cb1cd	-0.0047819377
10	0xbd1b2caf	-0.03788441
11	0x3c0b82bb	0.008515055
12	0xbbd3881a	-0.0064554336
13	0xbd372e33	-0.044721793
14	0xbd0ae45f	-0.033909198
15	0x3d9b02e2	0.07568909
16	0x3d4a1b34	0.04934235
17	0xbd38cd6a	-0.045117773
18	0x3d941c50	0.07231963
19	0xbcd3f9f5	-0.025876025
20	0xbd8a8312	-0.06763281
21	0x3c751878	0.014959447
22	0x3d54b5ad	0.051931072
23	0xbd85647a	-0.06513305
24	0xba834ed7	-0.0010018003
25	0xbc501135	-0.012699415
26	0x3c977bbb	0.018491616
27	0x3c85f0ef	0.016350238
28	0x3d18f3e4	0.037341967
29	0xbd5ceb69	-0.053935442
30	0xbc99e104	-0.018784054
31	0x3da3c474	0.07996455
32	0xbc668c23	-0.014071497
33	0x3cc9a60d	0.024615312
34	0x3ce01b9b	0.027356913
35	0x3cdb7b58	0.026792213
36	0xbd7efec9	-0.0622547
37	0xbd126c15	-0.035747606
38	0x3cf294d2	0.029611979
39	0x3d924af7	0.07143205
40	0x3d83bac9	0.06432111
41	0xbc80c565	-0.015719125
42	0xbd603b6e	-0.054744177
43	0xbcdf3738	-0.02724801
44	0x3da69ebf	0.08135747
45	0xbce4b99b	-0.027920535
46	0x3db29d39	0.08721394
47	0x3cb2c13f	0.021820663
48	0x3d8ed1fb	0.06973644
49	0x3da22ec6	0.079190776
50	0xbc321198	-0.0108684525
51	0x3cef671b	0.02922397
52	0xbd23c543	-0.039983045
53	0xbdc0eee5	-0.094205655
54	0x3d5a2823	0.053260934
55	0x3d348d92	0.044080324
56	0xbd8a7829	-0.067612
57	0xbd498581	-0.049199585
58	0xbc9ccbf9	-0.01914023
59	0x398d32c9	0.00026931454
60	0x3d264655	0.040594418
61	0x3d365593	0.044515204
62	0x3c146222	0.0090566
63	0x3d8fbd98	0.07018584
64	0x3d6d1506	0.057881378
65	0xbc4b8948	-0.012422867
66	0x3d6f7c19	0.058467958
67	0xbd769c62	-0.060207732
68	0x3d987eb9	0.074460454
69	0xbcc728b8	-0.024311408
70	0x3d21681c	0.039405927
71	0x3cbc5eaa	0.022994358
72	0xbd3a04ce	-0.04541474
73	0x3daa5f99	0.08319015
74	0xb99fd839	-0.00030487942
75	0x3d5cce34	0.053907588
76	0xbd811ed6	-0.063047096
77	0x3d549587	0.051900413
78	0x3c3396ce	0.010961248
79	0xbc14b46f	-0.009076222
80	0x3ce45f16	0.027877372
81	0xbdb2829c	-0.08716318
82	0xbd0ab568	-0.03386441
83	0xbc8fcaa1	-0.017552676
84	0xbd56916b	-0.052384775
85	0xbb74fdab	-0.0037382643
86	0x3d491c1e	0.04909908
87	0xb9e6dfb9	-0.00044035705
88	0x3d9eb110	0.07748616
89	0xbc9bb0ea	-0.019005258
90	0x3d2955ea	0.0413417
91	0xbd4bb416	-0.04973229
92	0xbd16100b	-0.036636394
93	0xbd89f456	-0.067360565
94	0x3da06e60	0.07833552
95	0xbd474021	-0.048645142
96	0x3c555dc2	0.013022842
97	0x3d3e4562	0.046452887
98	0xbd7fd8aa	-0.062462486
99	0x3d415d2a	0.04720799
100	0xbd0f5053	-0.034988713
101	0x3d4df07b	0.05027817
102	0x3b0a08b7	0.0021062323
103	0xbd8c99db	-0.06865283
104	0xbd457a1b	-0.048212152
105	0xbda2c28c	-0.07947263
106	0x3c29ae31	0.010356472
107	0xbc25d047	-0.010120458
108	0xbd5e2735	-0.05423661
109	0xbd9facfa	-0.077966645
110	0x3d40f4ce	0.047108464
111	0xbd463344	-0.048388734
112	0xbc1e209c	-0.009651329
113	0xbd8efe9d	-0.069821574
114	0x3c08669e	0.008325247
115	0x3c57df7e	0.013175843
116	0xbd47a529	-0.048741493
117	0x3d213f38	0.03936693
118	0xbcac7970	-0.021054
119	0xbd5757f8	-0.052574128
120	0xbd33bbba	-0.043880202
121	0x3d50e38b	0.050998252
122	0xbc3b75e4	-0.0114416815
123	0x3d18d428	0.037311703
124	0xb9e72109	-0.00044084367
125	0xbd730a62	-0.059336074
126	0x3c7f2154	0.015571911
127	0x3c3a294b	0.011362384
128	0xbca87723	-0.020564621
129	0xbd4c5232	-0.049883075
130	0xbd05bf3b	-0.032653075
131	0xbd4224f7	-0.047398534
132	0x3d767321	0.06016839
133	0xbd00904c	-0.031387612
134	0x3cc58bee	0.024114575
135	0xbd4d1366	-0.050067328
136	0xbd221ff2	-0.039581247
137	0x3d6232f7	0.055224385
138	0x3c87286a	0.016498763
139	0xbd890bf3	-0.06691732
140	0x3bd9187c	0.006625233
141	0xbd278eb4	-0.040907577
142	0xbce021b5	-0.027359823
143	0x3d6c1e0d	0.057645846
144	0xbda8bac2	-0.08238746
145	0x3d527565	0.051381487
146	0x3d695f66	0.056975745
147	0xbd0995c2	-0.033590086
148	0xbba832c6	-0.005133006
149	0xbcf7739c	-0.030206494
150	0x3c9563c1	0.018236043
151	0xbd309251	-0.04310829
152	0x3d6e631e	0.058199994
153	0xbd89b4f2	-0.06723966
154	0xbd756794	-0.059913233
155	0xbd7df48c	-0.062000796
156	0x3c3860d2	0.0112535525
157	0xbc9f2863	-0.019428438
158	0x3caa1e2c	0.02076634
159	0xbbe3ff68	-0.006957937
160	0x3d26b8f6	0.040703736
161	0x3b56a91d	0.0032754608
162	0x3bc42450	0.005985774
163	0xbce9418d	-0.02847364
164	0xbb984201	-0.00464654
165	0xbd6ccd76	-0.05781313
166	0x3d9275b4	0.07151356
167	0x3da14e15	0.07876221
168	0x3d81a657	0.06330555
169	0xba860508	-0.0010224888
170	0x3d423973	0.04741807
171	0xbd3537ef	-0.044242796
172	0xbcf0fb20	-0.02941662
173	0xbd755b2f	-0.059901413
174	0xbc581990	-0.013189688
175	0x3d1f61a1	0.038911466
176	0xbd9c15b6	-0.076213285
177	0xbcc5a838	-0.024128065
178	0x3ce8e43e	0.028429147
179	0x3bca8f4c	0.006181633
180	0x3d6f1f80	0.05837965
181	0xbbeaeb56	-0.0071691675
182	0x3b656241	0.003500119
183	0x3d056010	0.032562315
184	0x3d72abc9	0.05924586
185	0xbce29ba9	-0.027662115
186	0x3cc7a23e	0.024369355
187	0x3d98ea67	0.07466584
188	0xbd87a36c	-0.06622967
189	0x3d925da8	0.0714677
190	0x3d4ac318	0.049502462
191	0x3ced7473	0.028986191
192	0x3dafe442	0.085884586
193	0xbbb3da55	-0.0054886737
194	0x3c176b95	0.009241958
195	0xbd1b0852	-0.03784973
196	0x3d3f44fc	0.046696648
197	0xbcf4bf65	-0.02987642
198	0xbc81b227	-0.01583202
199	0xbd5f981c	-0.054588422
200	0xbd230a47	-0.039804723
201	0xbb0b796d	-0.0021282092
202	0x3d457e06	0.04821589
203	0xbd8ddeec	-0.069272846
204	0x3901b343	0.00012369179
205	0xbbbb2be5	-0.0057120197
206	0x3d6db4ad	0.058033634
207	0xbdaa1398	-0.083045185
208	0xbce1cfd7	-0.027564926
209	0xbccfbf7e	-0.025359865
210	0x3d17b959	0.037041996
211	0x3cb372ff	0.02190542
212	0xbd8252b0	-0.06363428
213	0x3d5c8f99	0.053847883
214	0x3d8cf056	0.06881778
215	0x3d8c24fb	0.06842991
216	0x3d38b0ca	0.045090474
217	0x3c9332d3	0.01796857
218	0xbd3aaf9b	-0.045577627
219	0x396fb348	0.00022859604
220	0xbc957a53	-0.018246805
221	0xbd7f0bec	-0.06226723
222	0xbc0a6eec	-0.008449297
223	0xbd8d7f6c	-0.069090694
224	0x3c1c2022	0.009529145
225	0x3d7176dc	0.058951244
226	0x3d11abac	0.03556411
227	0xbd87134e	-0.06595479
228	0xbcb26b3d	-0.02177965
229	0x3d3314ca	0.043720998
230	0x3d150366	0.036380194
231	0xbd336af2	-0.043803163
232	0x3d8ccc5a	0.068749145
233	0xbc2f262a	-0.010690251
234	0x3996bc45	0.000287505
235	0x3c43d2df	0.011952131
236	0xbd597a83	-0.053095352
237	0x3d0a0094	0.033691958
238	0xbd49ce22	-0.04926885
239	0x3d33e127	0.043915894
240	0x3b969592	0.004595467
241	0xbd9c49d1	-0.07631267
242	0x3cfa5efe	0.030562874
243	0xbda0ff88	-0.07861239
244	0x3cc5c711	0.024142774
245	0xbc9e9e14	-0.019362487
246	0xbc70ca75	-0.014696707
247	0xbc80b3b1	-0.015710684
248	0xbc2c2a5a	-0.010508144
249	0x3c93b979	0.018032776
250	0x3bd3eb19	0.006467235
251	0x3d1db019	0.038498018
252	0x3d06a50d	0.03287225
253	0xbcd3ea48	-0.02586855
254	0x3db12004	0.086486846
255	0xbc5dca9f	-0.013537078

encoder.0.0.bias f4 [128]
0	0x3d802680	0.06257343
1	0xbd835d9c	-0.06414339
2	0x3d94f496	0.072732136
3	0x39ad696c	0.00033075677
4	0xbd1cd3aa	-0.038287796
5	0x3cae2c26	0.021261286
6	0x3d969ed1	0.073545106
7	0xbd9b02e6	-0.07568912
8	0xbd355368	-0.044268996
9	0xbd16d30a	-0.036822356
10	0xbdb6d024	-0.089264184
11	0xbd4ad3d5	-0.049518425
12	0xbd87e65e	-0.06635736
13	0x3cd721d1	0.026261242
14	0xbd62eeb0	-0.05540341
15	0xbc14a3d8	-0.0090722665
16	0x3d11dd77	0.035611596
17	0xbd3992a5	-0.045305867
18	0x3cccb76d	0.024989808
19	0x3d904848	0.070450366
20	0x3d5fd49b	0.054646116
21	0x3d92b4be	0.0716338
22	0xbd061bdc	-0.032741413
23	0xbd6d866c	-0.057989523
24	0x3c39ca69	0.011339762
25	0x3d9097be	0.070601925
26	0x3d9b381d	0.07579062
27	0x3bed396f	0.0072395126
28	0x3a982ffe	0.0011610982
29	0xbc85ee84	-0.016349085
30	0x3d438d25	0.047742028
31	0xbc02f80e	-0.007993711
32	0x3d858777	0.065199785
33	0xbd7328a7	-0.05936494
34	0x3d91caea	0.07118781
35	0xbd79c6f7	-0.060980763
36	0xbc897b59	-0.01678245
37	0xbd5757f9	-0.05257413
38	0xbcb727a9	-0.022357779
39	0xbd828f51	-0.06374992
40	0xbd86ccc7	-0.06582027
41	0x3c8d67a9	0.017261343
42	0xbd30631e	-0.043063276
43	0x3d286573	0.041112375
44	0x3d86ce8c	0.065823644
45	0xbd8488bb	-0.06471392
46	0xbcfd0b07	-0.030889047
47	0xb9ec5557	-0.0004507701
48	0x3d52c686	0.051458858
49	0xbd3e9d63	-0.046536814
50	0xbcabef89	-0.020988243
51	0xbd44e840	-0.048073053
52	0xbcf16895	-0.029468814
53	0xbd77a046	-0.060455583
54	0x3d0a90ce	0.033829503
55	0x3d09a43a	0.033603884
56	0xbd388f31	-0.045058433
57	0xbd65f70a	-0.056143798
58	0xbc53726d	-0.012905699
59	0x3d8935e8	0.06699735
60	0xbb624081	-0.003452331
61	0x3c0de362	0.008660169
62	0xbce9d5f8	-0.028544411
63	0xbd4dc6c3	-0.050238382
64	0x3d71bf0d	0.05902009
65	0xb947e5c9	-0.0001906372
66	0xbcf33b37	-0.029691322
67	0xbcb6c720	-0.022311747
68	0x3d3266ad	0.04355495
69	0xbcf290ce	-0.029610064
70	0xbd363428	-0.044483334
71	0x3c6fd2b8	0.014637642
72	0xbb9b76b9	-0.0047443775
73	0x3c9d398f	0.019192485
74	0xbce89b1f	-0.02839428
75	0x3d4c9a55	0.04995187
76	0x3d9f1fd8	0.077697456
77	0x3d106016	0.035247885
78	0x3c5c1662	0.013433071
79	0xbd6173c4	-0.055042043
80	0xbd7ba30f	-0.0614348
81	0x3cc00d0d	0.023443723
82	0x3d65d7f9	0.05611417
83	0x3ce213e5	0.027597377
84	0xbcf10cd9	-0.029425072
85	0xbd113e70	-0.035459936
86	0xbc0918a1	-0.008367688
87	0xbd6c349d	-0.057667363
88	0x3d91a606	0.071117446
89	0x3ba6a7fb	0.005085943
90	0xbc123c99	-0.00892558
91	0xbd3e8df5	-0.0465221
92	0xbc9956b8	-0.018718109
93	0xbda146f7	-0.078748636
94	0x3bea0101	0.007141233
95	0xbd548b91	-0.051890913
96	0x3d271abf	0.04079699
97	0xbd077bdc	-0.033077106
98	0xbd86567c	-0.06559464
99	0x3d0e767b	0.03478096
100	0x3d5c4159	0.053773258
101	0xbd4e37c6	-0.05034616
102	0xbd6ed453	-0.058307957
103	0xbd2bbe25	-0.041929383
104	0xbda40c41	-0.0801015
105	0xbc4cd923	-0.012502941
106	0xbc9a042e	-0.018800821
107	0x3c234cf4	0.0099670775
108	0x3bb719e3	0.0055878027
109	0x3b31d1ca	0.00271331
110	0x3d71475c	0.058905944
111	0xbd3119b3	-0.0432374
112	0xbd98c29d	-0.074589945
113	0x3db1fd0b	0.08690842
114	0x3d288f78	0.041152447
115	0xbd8cb402	-0.06870271
116	0xbda6dadd	-0.081472136
117	0xbd0d19e6	-0.034448527
118	0xbcbde8a5	-0.023182223
119	0x3d15eb58	0.036601394
120	0xbd3a1c16	-0.04543694
121	0x3d328f17	0.043593492
122	0xbd410e65	-0.04713287
123	0x3da7dde4	0.08196619
124	0x3cf53e2d	0.029936874
125	0x3d0450a3	0.032303464
126	0x3d09c928	0.033639103
127	0xb9c93283	-0.00038375342

encoder.0.1.weight f4 [128]
0	0x3f7fd43b	0.99933213
1	0x3f80b644	1.0055623
2	0x3f7d0e55	0.98849994
3	0x3f7e52a5	0.99344856
4	0x3f83ffbe	1.0312421
5	0x3f7ae150	0.9800005
6	0x3f7ca0e9	0.9868303
7	0x3f817f90	1.0117054
8	0x3f7c6a03	0.9859926
9	0x3f7b547d	0.98175794
10	0x3f845be5	1.0340544
11	0x3f80fa69	1.0076419
12	0x3f7efa5d	0.99600774
13	0x3f7cbb64	0.98723435
14	0x3f7a5ca3	0.977976
15	0x3f7f4103	0.99708575
16	0x3f7ffa65	0.99991447
17	0x3f7c13d2	0.98467743
18	0x3f7e049b	0.9922578
19	0x3f7fd889	0.9993978
20	0x3f7fea08	0.9996648
21	0x3f7ebd13	0.99507254
22	0x3f836529	1.0265247
23	0x3f80e1c9	1.0068904
24	0x3f7c7d7d	0.9862898
25	0x3f7c3aea	0.98527396
26	0x3f780150	0.96877
27	0x3f779155	0.96706134
28	0x3f7ee388	0.99565935
29	0x3f82bd71	1.0214063
30	0x3f7d75c3	0.99007815
31	0x3f7df04e	0.991948
32	0x3f7d9015	0.99047977
33	0x3f809123	1.0044292
34	0x3f7f4e94	0.99729276
35	0x3f8037f3	1.0017074
36	0x3f7ac635	0.9795869
37	0x3f7fd0af	0.999278
38	0x3f7e46c0	0.99326706
39	0x3f7d4ad4	0.98942304
40	0x3f80c5e1	1.0060388
41	0x3f7d3595	0.98909885
42	0x3f800fad	1.0004784
43	0x3f7f8b94	0.99822354
44	0x3f7e1408	0.99249315
45	0x3f808fd3	1.0043892
46	0x3f7ee1f7	0.99563545
47	0x3f7db5c0	0.99105453
48	0x3f7fa222	0.9985677
49	0x3f80618c	1.0029769
50	0x3f7f6a51	0.997716
51	0x3f7df253	0.9919788
52	0x3f7d9a63	0.990637
53	0x3f7d0c9b	0.9884736
54	0x3f7bdd3f	0.9838447
55	0x3f83b581	1.0289766
56	0x3f790de4	0.9728682
57	0x3f77d904	0.96815515
58	0x3f813676	1.0094745
59	0x3f7d5c95	0.98969394
60	0x3f7ccdd5	0.98751575
61	0x3f7b633c	0.98198295
62	0x3f7d5506	0.9895786
63	0x3f837566	1.0270202
64	0x3f800178	1.0000448
65	0x3f7d78a1	0.9901219
66	0x3f7f8ab6	0.9982103
67	0x3f76ee79	0.9645763
68	0x3f7f2d9e	0.9967898
69	0x3f7bcfa5	0.98363715
70	0x3f8049a0	1.0022469
71	0x3f7e672c	0.9937618
72	0x3f7d6c5c	0.9899347
73	0x3f7dfe02	0.9921571
74	0x3f8441d3	1.0332588
75	0x3f7cd3a4	0.9876044
76	0x3f7c6b73	0.98601454
77	0x3f81aa97	1.0130185
78	0x3f80c67e	1.0060575
79	0x3f7ee799	0.9957214
80	0x3f8006ec	1.0002112
81	0x3f794d7a	0.97383845
82	0x3f7d8bbb	0.99041337
83	0x3f838ee1	1.0277978
84	0x3f8334b4	1.0250459
85	0x3f7c6e83	0.9860613
86	0x3f7d12b7	0.9885668
87	0x3f808d06	1.0043037
88	0x3f7ec7e2	0.99523747
89	0x3f7b70ed	0.98219186
90	0x3f7a9fa4	0.9789984
91	0x3f7f6c35	0.99774486
92	0x3f78b96c	0.9715793
93	0x3f7d1e3a	0.9887425
94	0x3f81368b	1.009477
95	0x3f8116fb	1.0085138
96	0x3f80697d	1.0032192
97	0x3f7c56d7	0.9857001
98	0x3f7eb5ab	0.99495953
99	0x3f7e8b42	0.9943124
100	0x3f7d62ef	0.98979086
101	0x3f82d954	1.0222573
102	0x3f7a6304	0.97807336
103	0x3f820ecb	1.0160764
104	0x3f7bebb1	0.9840651
105	0x3f7cfcb9	0.98823124
106	0x3f80b047	1.0053796
107	0x3f8088c5	1.0041739
108	0x3f7d9a0c	0.9906318
109	0x3f7d4d2d	0.98945886
110	0x3f80f2a2	1.0074046
111	0x3f7e73a3	0.993952
112	0x3f81f047	1.0151452
113	0x3f7c9597	0.98665756
114	0x3f7a98d7	0.97889465
115	0x3f77ef88	0.9684987
116	0x3f811695	1.0085016
117	0x3f81aff6	1.0131824
118	0x3f7e846d	0.99420816
119	0x3f7e12c8	0.9924741
120	0x3f7bd797	0.9837584
121	0x3f8095fc	1.0045772
122	0x3f7b214f	0.980977
123	0x3f804d06	1.0023506
124	0x3f7ec6b0	0.99521923
125	0x3f803dba	1.0018837
126	0x3f801b5d	1.0008351
127	0x3f799632	0.97494805

encoder.0.1.bias f4 [128]
0	0xbbce5535	-0.0062967786
1	0xbb083034	-0.0020780684
2	0xbc067837	-0.008207372
3	0x3c1da1b2	0.009621071
4	0x3cac0c25	0.021001885
5	0x3bfbef74	0.007688457
6	0x3c0bcbc0	0.0085324645
7	0x3a96cac5	0.0011504522
8	0xbc2cd819	-0.010549569
9	0xbca9de60	-0.02073592
10	0x3c2f3ea9	0.010696092
11	0x3c70f46f	0.014706715
12	0xbb7e9723	-0.0038847409
13	0xbc76430e	-0.0150306355
14	0xbcae233b	-0.021257034
15	0xbc2d1187	-0.010563261
16	0xbc6c41e7	-0.014420009
17	0x3b011079	0.0019693656
18	0x3bee8217	0.0072786915
19	0xbc147107	-0.009060151
20	0x3c1aa6c4	0.009439174
21	0x3b1e9205	0.002419592
22	0x3c2f8bf8	0.0107145235
23	0x3c90c09e	0.017669972
24	0x3bc79ec3	0.006091924
25	0x3c498d5f	0.012301772
26	0xbbfd25e7	-0.0077254656
27	0xbd07d272	-0.03315968
28	0x3c64542c	0.013936084
29	0x3c3cf370	0.011532649
30	0xbc1a726d	-0.009426695
31	0x3bd94a0b	0.006631141
32	0x3bfa22e5	0.0076335543
33	0xbb97bc4b	-0.0046306006
34	0x3c17de75	0.0092693465
35	0x3bfee320	0.0077785403
36	0x3a28d726	0.0006440751
37	0x3ca64edf	0.02030128
38	0x3bd3ef87	0.006467763
39	0x3b6b031e	0.0035860012
40	0x3cbe084f	0.023197321
41	0x3bc28043	0.0059357
42	0xbb95eda1	-0.0045754467
43	0xbbe3b8e8	-0.006949533
44	0xbb3ea536	-0.0029090173
45	0xbbe72af5	-0.0070546814
46	0x3c02b123	0.007976803
47	0x3804ea60	3.168953e-05
48	0x3bbecf08	0.00582302
49	0x3c03fff3	0.0080566285
50	0x3b7cc9d7	0.0038572454
51	0xbbf53d6e	-0.0074841296
52	0xba165c7a	-0.0005735826
53	0xbb23e023	-0.0025005422
54	0xbc898aa1	-0.016789736
55	0x3bbdb544	0.005789431
56	0xbc9404d8	-0.018068716
57	0xbd09f46d	-0.03368037
58	0x3b92eb5b	0.004483623
59	0xbc9f785f	-0.019466577
60	0x3c0ffa11	0.008787648
61	0x3b49a71a	0.0030769766
62	0xbc8047fd	-0.015659327
63	0x3ccd25a2	0.025042359
64	0x3a8f38a6	0.0010926917
65	0xb9de4db8	-0.00042401045
66	0x3b53aa25	0.003229746
67	0xbbaa880f	-0.0052042077
68	0x3c0d9371	0.00864111
69	0x3ad66ec9	0.0016359921
70	0xbbfc808b	-0.007705753
71	0x3ba234ac	0.0049501266
72	0xbbdc67ff	-0.0067262645
73	0xbbe3bd74	-0.006950075
74	0xbb003d81	-0.001956791
75	0xbba667e5	-0.005078303
76	0x3c04886f	0.008089169
77	0x3c5691aa	0.013096252
78	0x3c00b83e	0.007856427
79	0x3ada4c46	0.0016654811
80	0x3ae793f8	0.0017668
81	0xbc3fb8a5	-0.0117017375
82	0x3c1db775	0.009626259
83	0x3cbedbc8	0.02329816
84	0x3c89840c	0.016786598
85	0xbae718d8	-0.0017631305
86	0x3acb40c2	0.001550697
87	0x3c61898e	0.013765706
88	0x3c437864	0.011930559
89	0xbcbbb80b	-0.022914907
90	0x3adce25d	0.001685213
91	0x3c963326	0.018334936
92	0xbb868208	-0.0041048564
93	0x3acbc5d1	0.0015546625
94	0xbb8fc8d1	-0.004387953
95	0x3bbc1857	0.005740206
96	0xbbd893a9	-0.0066093993
97	0x3c765084	0.015033845
98	0xbc49301b	-0.012279536
99	0xbba26874	-0.0049562994
100	0x3bb912f3	0.005648011
101	0xbd070a8b	-0.03296904
102	0xbb3565d8	-0.0027679112
103	0x3b9075a3	0.0044085546
104	0x3ba093e1	0.004900441
105	0xbb99d092	-0.004694053
106	0x3c331ad2	0.010931687
107	0x3b1a609c	0.0023556119
108	0x3c6351c0	0.013874471
109	0xbb882cb2	-0.0041557187
110	0x3cdb1a06	0.026745807
111	0xbb856861	-0.004071281
112	0xbbad9805	-0.005297663
113	0xbc2c8b07	-0.010531194
114	0xbc749834	-0.014928866
115	0xbbc3a19d	-0.0059701935
116	0x3ae30435	0.0017319979
117	0xbbc2165b	-0.005923075
118	0xbad15003	-0.001596928
119	0x3c816a06	0.015797626
120	0xbb86b617	-0.0041110623
121	0x3c55f0a1	0.013057859
122	0xbc21855a	-0.009858454
123	0xbc8dac6e	-0.017294135
124	0xbb80ec59	-0.003934425
125	0x3bbc4b5c	0.005746288
126	0xbbf43319	-0.0074523804
127	0x3bab4940	0.005227238

encoder.0.1.running_mean f4 [128]
0	0xbc3aafac	-0.0113944225
1	0x3da2a226	0.079410836
2	0x3e54ae27	0.20769559
3	0x3e71ce03	0.23613743
4	0x3d3232dd	0.04350554
5	0x3ca7eb29	0.020497875
6	0xbe090493	-0.13380651
7	0xbe8db6c2	-0.27678496
8	0xbd819c7b	-0.063286744
9	0x3e8f4f84	0.27990353
10	0x3d8cb296	0.0687
11	0xbdefdad0	-0.11711657
12	0x3d981f13	0.07427802
13	0xbdaaee31	-0.08346213
14	0xbe2f8b58	-0.17142999
15	0x3d398a40	0.04529786
16	0x3cfb00f9	0.030640112
17	0xbe26a050	-0.16272092
18	0xbe1d9b9d	-0.15391393
19	0x3e39a37a	0.18128768
20	0xbdd061c4	-0.10174897
21	0x3cb1a6ef	0.021686045
22	0x3c319b10	0.010840192
23	0x3c373ddf	0.011184185
24	0x3d0d52b1	0.03450269
25	0x3ea163b1	0.3152137
26	0x3e4cffc5	0.20019443
27	0xbe682d1c	-0.22673458
28	0x3e289a9f	0.16465233
29	0xbd85e3f9	-0.06537623
30	0x3e0130c7	0.12616263
31	0xbe127a25	-0.14304407
32	0x3e96cdcf	0.29453894
33	0x3d2998f3	0.04140563
34	0x3de9d81f	0.11418175
35	0xbc0d5b60	-0.0086277425
36	0xbde0eee6	-0.10983066
37	0xbe85edfb	-0.26158127
38	0xbeca0ce1	-0.3946295
39	0xbe971d87	-0.29514715
40	0x3d416432	0.047214694
41	0xbdb182b1	-0.086675055
42	0xbe6d4b1b	-0.23173182
43	0xbded6f75	-0.11593524
44	0x3ebc9653	0.36833438
45	0xbd917d46	-0.07103972
46	0xbd20c824	-0.03925337
47	0xbd393488	-0.045216113
48	0x3ddba6b2	0.10725154
49	0x3c98066c	0.01855775
50	0x3cb361f0	0.021897286
51	0x3e741bf2	0.23838785
52	0x3be5c05a	0.0070114555
53	0x3d8ced4f	0.068812005
54	0x3ddbfad1	0.10741199
55	0xbe579e88	-0.21056569
56	0xbb2dfe79	-0.0026549383
57	0xbd351745	-0.044211645
58	0xbc012e2d	-0.007884544
59	0x3de8b155	0.113619484
60	0x3c0d714d	0.00863297
61	0xbea8b329	-0.32949188
62	0xbe45e123	-0.19324164
63	0x3d8ca373	0.06867113
64	0x3d8d3c41	0.06896258
65	0x3e2a47d4	0.16628963
66	0x3d93240f	0.07184612
67	0x39c9c0e6	0.00038481428
68	0x3cb9bd7d	0.022673363
69	0xbdce27d3	-0.100661896
70	0x3d2819a0	0.041040063
71	0x3e803e9f	0.25047776
72	0xbdd0e14e	-0.101992235
73	0x3c925c44	0.017866261
74	0xbe6b3b00	-0.22971725
75	0xbe7276bd	-0.23678108
76	0xbe491d99	-0.19640197
77	0xbbd946a5	-0.006630736
78	0x3ced645b	0.028978517
79	0xbdb8bc77	-0.09020322
80	0x3d506d01	0.050885204
81	0x3dc7b404	0.09751132
82	0x3e1ba10d	0.15198155
83	0xbda0a5a6	-0.07844095
84	0xbc052f24	-0.008128915
85	0xbe2384ab	-0.15968578
86	0xbe92c46c	-0.28665483
87	0x3da063fc	0.078315705
88	0x3d3dad8a	0.046308078
89	0xbc82a1d8	-0.015946314
90	0x3e1c4f88	0.15264714
91	0x3e2eb222	0.1706014
92	0x3d5a64cb	0.05331878
93	0xbce84e60	-0.028357685
94	0xbe19ff6f	-0.15038846
95	0xbea68068	-0.3251984
96	0x3e883cc7	0.2660887
97	0x3e2e411c	0.17017025
98	0xbe8558d9	-0.26044348
99	0x3e17ebf5	0.14836104
100	0x3b56c200	0.0032769442
101	0xbe4b4f97	-0.1985458
102	0xbea03942	-0.31293684
103	0xbce86825	-0.028369972
104	0xbe1aff90	-0.15136552
105	0xbe92a70a	-0.28643066
106	0xbe1f6c91	-0.15568759
107	0x3d2d7b58	0.042353958
108	0x3d8e761d	0.06956122
109	0xbc9cc83f	-0.019138454
110	0x3e2ec149	0.1706592
111	0xbc9771e3	-0.018486923
112	0x3e5c90b8	0.21539581
113	0x3da1f20b	0.07907494
114	0x3d20abc9	0.039226327
115	0x3d69f442	0.057117708
116	0xbd9148b8	-0.07093948
117	0x3d41d1e0	0.047319293
118	0x3cba195b	0.022717169
119	0xbdd2f00b	-0.10299691
120	0x3c315355	0.010823091
121	0xbd898ec9	-0.06716687
122	0x3e764549	0.24049868
123	0x3e1f4960	0.15555334
124	0xbd902333	-0.07037964
125	0xbd9aa701	-0.07551385
126	0xbe646945	-0.22305782
127	0xbd174e2b	-0.03693978

encoder.0.1.running_var f4 [128]
0	0x3b86de55	0.0041158595
1	0x3b93f327	0.00451507
2	0x3c0d74b7	0.008633784
3	0x3c0f03d5	0.008728941
4	0x3bc8e265	0.006130504
5	0x3ba46973	0.0050174533
6	0x3bcc699e	0.0062381765
7	0x3bd7dc41	0.0065875356
8	0x3c3070ed	0.010769111
9	0x3bc5f904	0.006041648
10	0x3bdba52e	0.0067030406
11	0x3b8f1aa8	0.0043671913
12	0x3c297ec4	0.010345165
13	0x3bf82adb	0.007573468
14	0x3ba76909	0.0051089567
15	0x3c15dd8a	0.009147057
16	0x3bc20fee	0.005922309
17	0x3c31fe14	0.0108638
18	0x3c1510c7	0.009098238
19	0x3bbd692b	0.0057803593
20	0x3bf8b645	0.0075900876
21	0x3b949b8c	0.004535144
22	0x3b741215	0.0037242223
23	0x3c26f00d	0.0101890685
24	0x3bbdbe30	0.0057904944
25	0x3b9f61a0	0.0048639327
26	0x3bd0215a	0.006351632
27	0x3bff6d58	0.007795017
28	0x3b9db13b	0.0048123873
29	0x3ba104a4	0.0049138833
30	0x3bb718c6	0.00558767
31	0x3bb8490c	0.0056239422
32	0x3bd1dbd8	0.0064043812
33	0x3bd2f0f4	0.0064374153
34	0x3ba53e75	0.005042846
35	0x3bb64e04	0.0055634994
36	0x3c05e909	0.008173236
37	0x3bbbffdf	0.0057372893
38	0x3beaaef9	0.0071619716
39	0x3c29bbe4	0.010359738
40	0x3be96541	0.007122666
41	0x3bfc02e9	0.0076907766
42	0x3c154dbc	0.009112772
43	0x3bb19d67	0.005420375
44	0x3b9ea1b8	0.0048410557
45	0x3b868681	0.0041053896
46	0x3c2f18a8	0.010687031
47	0x3b4a1dcb	0.0030840512
48	0x3bee9a9c	0.0072816145
49	0x3bbc6acc	0.005750036
50	0x3b6a17cd	0.0035719753
51	0x3c03d367	0.008046008
52	0x3bca3c16	0.0061717136
53	0x3be403e0	0.0069584697
54	0x3c090c81	0.008364798
55	0x3b7e2883	0.003878147
56	0x3bc4fa3d	0.006011276
57	0x3bb6cdc3	0.005578728
58	0x3b98d268	0.0046637543
59	0x3b65b1ed	0.003504868
60	0x3bdc7eb4	0.0067289714
61	0x3c2cecad	0.010554475
62	0x3bb72965	0.0055896514
63	0x3c0546eb	0.008134584
64	0x3bf689c5	0.0075237476
65	0x3c18463d	0.00929409
66	0x3bd3bf80	0.0064620376
67	0x3c3e5330	0.011616513
68	0x3bbba948	0.005726967
69	0x3c025397	0.0079545
70	0x3b9ecedb	0.0048464364
71	0x3be10e27	0.006868142
72	0x3bd31117	0.0064412463
73	0x3bdc53cc	0.0067238566
74	0x3b3eef19	0.0029134213
75	0x3bc2e8b9	0.005948153
76	0x3b996ae0	0.00468193
77	0x3baa7a1f	0.0052025463
78	0x3be3ccfe	0.006951927
79	0x3c288184	0.010284785
80	0x3b55269c	0.0032524234
81	0x3bc0df1a	0.005885971
82	0x3c24076f	0.010011538
83	0x3be45c33	0.006968999
84	0x3b425c5d	0.0029657104
85	0x3bed9c92	0.0072513307
86	0x3bcfb166	0.006338286
87	0x3bcccb17	0.006249796
88	0x3bdedefe	0.006801485
89	0x3c10c397	0.008835695
90	0x3bc7aec6	0.0060938327
91	0x3bb1aa3b	0.0054219044
92	0x3bee703d	0.0072765634
93	0x3b961b09	0.0045808596
94	0x3bcaebc1	0.006192655
95	0x3bbe596a	0.005808999
96	0x3b98f341	0.00466767
97	0x3c031e88	0.008002885
98	0x3b90678f	0.0044068764
99	0x3be197ae	0.0068845367
100	0x3ba199a9	0.004931648
101	0x3b9ab3b9	0.0047211316
102	0x3c18ac0d	0.009318364
103	0x3bcd5ebf	0.006267398
104	0x3ba5f14c	0.005064165
105	0x3c08486b	0.008318047
106	0x3bc0e4e0	0.005886659
107	0x3b73302f	0.0037107577
108	0x3c07ca12	0.008287923
109	0x3c1b6385	0.0094841765
110	0x3b844028	0.0040359683
111	0x3b941310	0.004518874
112	0x3bd6ed53	0.006559053
113	0x3be9c032	0.007133507
114	0x3b8fe519	0.0043913242
115	0x3bf4cc05	0.00747061
116	0x3bce752b	0.0063005886
117	0x3bcf5c27	0.006328124
118	0x3bd32047	0.0064430567
119	0x3be64dfb	0.007028339
120	0x3ba8ebc5	0.005155059
121	0x3c15477c	0.0091112815
122	0x3ba18f6b	0.004930427
123	0x3beccd3b	0.007226614
124	0x3ba56794	0.005047748
125	0x3bb86ee8	0.0056284554
126	0x3be4edbc	0.006986348
127	0x3bf77214	0.007551441

encoder.1.0.weight f4 [32, 128]
0	0x3d4e00f7	0.05029389
1	0x3d66debc	0.05636476
2	0xbd78e2d5	-0.0607632
3	0x3d2fe494	0.0429426
4	0x3d5d192d	0.053979088
5	0xbd7e415e	-0.062074058
6	0xbc62ae74	-0.013835538
7	0xbd9229c7	-0.07136875
8	0x3d398b40	0.045298815
9	0x3d539311	0.051653925
10	0xbd38c2dc	-0.045107707
11	0xbd35ac2f	-0.04435366
12	0xbcb242aa	-0.021760304
13	0xbce43d3e	-0.027861234
14	0xbd8feed1	-0.070279725
15	0x3aec6435	0.0018035235
16	0xbd691a5f	-0.056909915
17	0xbda1a033	-0.07891884
18	0x3c456efb	0.012050386
19	0xbc7b0276	-0.015320411
20	0x3d808fc8	0.06277424
21	0xbda097c8	-0.0784145
22	0x3c0c3ebd	0.00855988
23	0xbd358b75	-0.04432245
24	0xbcdc8ba7	-0.02692206
25	0xbbfb525b	-0.0076697296
26	0x3ce3a862	0.027790252
27	0xbdaeb30b	-0.085302435
28	0xbda6a65f	-0.081372015
29	0x3da492d2	0.08035816
30	0xbcbce938	-0.023060426
31	0x3b8e68a8	0.004345972
32	0x3d956688	0.07294947
33	0xbae3ff88	-0.001739488
34	0x3da7085c	0.08155891
35	0xbc366a39	-0.011133724
36	0xbc85f97b	-0.016354313
37	0xbd1663d0	-0.036716282
38	0xbcb66d56	-0.022268932
39	0xbcb86f00	-0.022513866
40	0xbd753970	-0.05986923
41	0x3d7fb56f	0.062428888
42	0x3c092468	0.008370496
43	0xbd7a290c	-0.0610743
44	0xbd790faa	-0.060805954
45	0x3ca9e47d	0.020738835
46	0xbc8fb0e3	-0.0175404
47	0xbcf51866	-0.02991886
48	0xbc9987d5	-0.018741528
49	0xbc9c3794	-0.01906947
50	0xbd468efc	-0.048476204
51	0x3aec6f95	0.0018038625
52	0x3d824c6e	0.06362234
53	0x3d884ede	0.06655668
54	0x3d1bc4e0	0.03802955
55	0x3c87f20c	0.01659491
56	0xbca445bc	-0.020052783
57	0xbd892512	-0.06696524
58	0x3d785804	0.060630813
59	0x3c7bab79	0.0153607065
60	0x3d85426a	0.06506808
61	0x3bf5f7c3	0.007506342
62	0x3d93c51c	0.0721533
63	0xbcc0f3da	-0.023553777
64	0xbd8b4cfb	-0.06801792
65	0x3d2cfb3a	0.042231776
66	0xbd6fa9a5	-0.058511395
67	0xbbc1b208	-0.0059111156
68	0xbd165c99	-0.0367094
69	0xbceae490	-0.02867344
70	0x3da7e12a	0.081972435
71	0x3d9f164a	0.07767923
72	0xbda99924	-0.082811624
73	0xbd8dd89a	-0.06926079
74	0x3dc43b6b	0.095816456
75	0x3d98fe6b	0.074704014
76	0x3d698ed5	0.05702098
77	0x3d4b9695	0.049704153
78	0xbd4d7d24	-0.05016817
79	0xbcc64b75	-0.024205903
80	0xbd04baf2	-0.032404847
81	0xbd5307e2	-0.05152119
82	0xbd0cdef8	-0.034392327
83	0x3d5996f4	0.053122476
84	0x3d4e9ef3	0.050444555
85	0xbd522711	-0.051306788
86	0xbd5dbc46	-0.05413463
87	0xbdb2f93e	-0.087389454
88	0x3d080829	0.033210907
89	0xbc3f142d	-0.011662525
90	0xbcf38a99	-0.029729174
91	0x3d0d45d2	0.034490414
92	0x3d6f5f71	0.05844063
93	0xbd9ff910	-0.07811177
94	0x3d8c0a69	0.06837923
95	0x3bf41e39	0.007449892
96	0x3d73b836	0.05950185
97	0xbcf557f1	-0.02994916
98	0x3d3e3da7	0.046445515
99	0x3ca40f1f	0.020026742
100	0xbdc0f54f	-0.09421789
101	0x3dc80108	0.09765822
102	0x3c7e350d	0.015515578
103	0xbd0164c6	-0.031590246
104	0xbd22811c	-0.03967391
105	0x3d3b4507	0.045720126
106	0xbca30b8b	-0.019902965
107	0xbd7f90cc	-0.06239395
108	0xbd85e152	-0.06537117
109	0x3cb12fd8	0.021629259
110	0xbd9ca95e	-0.07649492
111	0x3ce09501	0.0274148
112	0xbabe7a24	-0.001453225
113	0x3c678ae4	0.014132235
114	0xbcd2e2f1	-0.02574298
115	0xbc2f6283	-0.010704639
116	0x3db60128	0.08886939
117	0x3cef0ec4	0.029181845
118	0x3b8c507f	0.004282057
119	0xbd8d51d7	-0.06900375
120	0x3cc47690	0.023982316
121	0x3d6f72b5	0.058459003
122	0xbd471941	-0.04860807
123	0xbcaa3566	-0.020777415
124	0xbca72d5d	-0.020407373
125	0xbd6e32c7	-0.058153894
126	0xbd675a9d	-0.0564829
127	0xbc22ac5c	-0.009928789
128	0xbd7d2103	-0.06179906
129	0x3cbfab48	0.023397103
130	0xbd2f69b3	-0.042825412
131	0x3d5399cd	0.051660348
132	0x3dbd12dc	0.09232113
133	0x3be9d40c	0.0071358737
134	0x3d80ede0	0.06295371
135	0x39e0f55d	0.0004290742
136	0x3d94702b	0.07247957
137	0x3d9c8b77	0.07643788
138	0x3dc02dec	0.09383759
139	0x3d4127e8	0.0471572
140	0xbd425099	-0.047440145
141	0x3db3a0c0	0.08770895
142	0xbc85b104	-0.01631976
143	0x3d81d07c	0.06338593
144	0xbba212e1	-0.004946098
145	0xbd3a752c	-0.0455219
146	0x3d33e9ae	0.043924026
147	0x3da662c0	0.08124304
148	0x3da2be8d	0.07946501
149	0x3dcf7229	0.10129196
150	0x3d792cf3	0.060833883
151	0xbd053f66	-0.032531165
152	0xbd265f14	-0.040618017
153	0x3d15b0fb	0.036545735
154	0xbd9e0c1a	-0.07717152
155	0xbd302a1f	-0.04300892
156	0x3c8ff305	0.017571935
157	0x3d2bf6dc	0.04198347
158	0x3d4809e9	0.048837576
159	0xbd5812ad	-0.052752186
160	0xbd2a6fc7	-0.041610505
161	0x3d064505	0.032780666
162	0x3c6fb689	0.014630922
163	0xbcad35ed	-0.021143878
164	0x3d0b74c6	0.03404691
165	0x39782538	0.00023664988
166	0xbd3c290b	-0.04593758
167	0xbd28c3e7	-0.041202452
168	0x3d995567	0.07486992
169	0x3d9eafc3	0.07748368
170	0xbd8f1dda	-0.069881156
171	0xbc99c2ff	-0.01876974
172	0x3dc263f6	0.09491722
173	0x3d67a159	0.056550357
174	0xbd2806b8	-0.041022032
175	0xbd06a7bf	-0.03287482
176	0x3c015ce2	0.00789568
177	0xbda4dd16	-0.08049981
178	0x3be0dfec	0.006862631
179	0x3dab66d2	0.08369221
180	0xbd46d99f	-0.048547383
181	0x3c806d92	0.015677247
182	0x3da039b1	0.07823504
183	0x3daa034d	0.08301411
184	0x3d057a18	0.03258714
185	0xbdaeaf34	-0.08529511
186	0xbd60fb51	-0.054927174
187	0x3d0df989	0.034661803
188	0xbcad5690	-0.02115944
189	0xbbbc5063	-0.0057468875
190	0xbc67880a	-0.014131555
191	0xbd8f6508	-0.07001692
192	0xbdbb089f	-0.09132504
193	0xbd644971	-0.0557341
194	0xbc25ca14	-0.01011898
195	0x3d0bfc64	0.034176245
196	0x3c4397e0	0.011938065
197	0xbd0024ef	-0.031285223
198	0x3d2dc6f4	0.042426065
199	0xbd818967	-0.063250355
200	0x3cbd8aee	0.023137536
201	0xbd55e81c	-0.05222331
202	0xbd155a1d	-0.03646289
203	0x3d5c3273	0.05375905
204	0xbba05c8d	-0.0048938454
205	0x3c6549fa	0.013994688
206	0x3d1fbafb	0.038996678
207	0xbb47dc7c	-0.003049641
208	0xbc10cd6a	-0.008838037
209	0xbd9eb0fa	-0.07748599
210	0xbd51b96d	-0.051202226
211	0xbdafe2b6	-0.085881636
212	0xbc34575e	-0.011007158
213	0x39e9ec24	0.00044617162
214	0x3d445494	0.047932222
215	0x3d0aacd5	0.03385623
216	0x3d0ed2cc	0.034869
217	0x3d6b7a3e	0.057489626
218	0xbc0cbd17	-0.008590004
219	0xbda96069	-0.08270342
220	0xbdb18ae5	-0.0866907
221	0x3d3c7e02	0.046018608
222	0xbc021a24	-0.007940803
223	0xbd2fe5f3	-0.042943906
224	0x3d6fdba1	0.058559064
225	0xbd0a3da9	-0.03375021
226	0x3dbad153	0.09121957
227	0xbc8122af	-0.015763609
228	0xbd9d978d	-0.07694922
229	0x3c396cb3	0.01131742
230	0x3c708edc	0.014682498
231	0xbc605781	-0.013692738
232	0xbd5c73c5	-0.053821344
233	0x3d935450	0.07193816
234	0xbdd5b320	-0.10434556
235	0xbda01726	-0.07816915
236	0x3d4d2373	0.050082635
237	0x3d307ded	0.043088842
238	0xbbc5d2c6	-0.006037089
239	0x3d80978a	0.06278904
240	0xbc4fed96	-0.012690922
241	0xbdac26ac	-0.084058136
242	0xbce593a3	-0.0280245
243	0x3d2e3b45	0.042536993
244	0x3d34749f	0.04405653
245	0xbcfb9030	-0.030708402
246	0xbd76c9fa	-0.060251214
247	0xbd2adf94	-0.041717127
248	0xbdb39aed	-0.08769784
249	0xbc855e61	-0.016280355
250	0x3d43b790	0.04778248
251	0x3d398252	0.0452903
252	0xbdca2c5c	-0.09871742
253	0x3d8cf8d1	0.068833955
254	0x3b2447a9	0.0025067127
255	0xbd7a3a81	-0.06109095

encoder.1.0.bias f4 [32]
0	0xbd65c673	-0.05609746
1	0xbdab0723	-0.083509706
2	0xbcf5a712	-0.029986892
3	0xbd349516	-0.044087492
4	0xbd8c3cb4	-0.06847516
5	0x3b8cf87a	0.0043020817
6	0x3d5f1a56	0.054468475
7	0x3b98660c	0.004650837
8	0x3d49d754	0.04927762
9	0x3d4128de	0.047158115
10	0xbd6237ff	-0.055229183
11	0xbd18940e	-0.03725057
12	0x3d645ec7	0.05575445
13	0x3bfc3f1c	0.007697953
14	0x3d7308ab	0.05933444
15	0x3da29b41	0.079397686
16	0xbbbab8f3	-0.005698317
17	0x3cf292b0	0.029610962
18	0xbd9a4ea0	-0.07534528
19	0x3d9704ce	0.07373963
20	0xbd878a66	-0.06618194
21	0x3c080ac5	0.008303349
22	0xbc9318e3	-0.017956203
23	0xbcbfc729	-0.023410397
24	0x3d31bfcb	0.0433958
25	0x3da2c838	0.07948345
26	0x3d6b786c	0.05748789
27	0x3d950d6b	0.0727795
28	0x3d15c23b	0.036562186
29	0xbcc7e8de	-0.024403032
30	0xbd1189a3	-0.03553165
31	0x3daa4afa	0.08315082

encoder.1.1.weight f4 [32]
0	0x3f830725	1.0236555
1	0x3f7c417a	0.9853741
2	0x3f7c36d7	0.9852118
3	0x3f7641b2	0.96193993
4	0x3f77cf20	0.9680042
5	0x3f805383	1.0025486
6	0x3f7e56d9	0.9935127
7	0x3f7d38c2	0.9891473
8	0x3f840912	1.0315268
9	0x3f8091b4	1.0044465
10	0x3f7c51f5	0.98562557
11	0x3f815732	1.0104735
12	0x3f807eb8	1.0038671
13	0x3f7e7ba0	0.99407387
14	0x3f75fcfb	0.9608914
15	0x3f82b788	1.0212259
16	0x3f826f8d	1.0190293
17	0x3f8707e7	1.0549287
18	0x3f83fe02	1.0311892
19	0x3f79bfcb	0.9755828
20	0x3f7e8f82	0.99437726
21	0x3f794f7e	0.9738692
22	0x3f833150	1.0249424
23	0x3f742fb6	0.953853
24	0x3f78f091	0.97242075
25	0x3f80d219	1.0064117
26	0x3f87b292	1.060137
27	0x3f81b609	1.0133678
28	0x3f75a3cc	0.9595306
29	0x3f816c07	1.0111092
30	0x3f79be4f	0.9755601
31	0x3f7b2786	0.9810718

encoder.1.1.bias f4 [32]
0	0xbce0d4db	-0.027445247
1	0xbb669174	-0.0035181912
2	0xbc508b37	-0.012728504
3	0xbce46438	-0.02787982
4	0xbc4f2709	-0.012643584
5	0x3cb0d14c	0.021584176
6	0x3cbfd026	0.023414683
7	0xbb388322	-0.0028154333
8	0xbc9938b5	-0.018703798
9	0x3ca18089	0.01971461
10	0xba1fe675	-0.00060997094
11	0x3c87895b	0.016544988
12	0xbca0c538	-0.019625291
13	0xbc1102f5	-0.008850803
14	0xbc2adf6b	-0.010429244
15	0x3d0d76e0	0.034537196
16	0x3c283797	0.01026716
17	0x3c56765b	0.013089742
18	0x3d1dcae9	0.03852359
19	0xbcbbd52a	-0.022928793
20	0xbb8ef7ae	-0.004363022
21	0xbc66bff0	-0.014083847
22	0x3c080543	0.008302036
23	0xbcd70b84	-0.026250608
24	0x3c93aac5	0.018025765
25	0xbc3c98c1	-0.011511029
26	0x3d22aa01	0.03971291
27	0x3b0cf0c9	0.0021505824
28	0xba1dd332	-0.0006020545
29	0x3ce086cb	0.027408024
30	0x392fa9cb	0.00016752553
31	0x3c8c0f1c	0.017097048

encoder.1.1.running_mean f4 [32]
0	0xbe9910fa	-0.29895765
1	0xbd14df31	-0.036345664
2	0xbe965bb7	-0.29366848
3	0xbea1aa07	-0.31575033
4	0xbdf152f1	-0.11783398
5	0xbe271888	-0.16317952
6	0xbe72c799	-0.23708953
7	0x3e5e0dc0	0.21684933
8	0x3e0b19e3	0.13584094
9	0x3f3f2d5c	0.7467859
10	0xbe37b198	-0.1793884
11	0x3e53f787	0.20699893
12	0xbeca77e8	-0.39544606
13	0x3e11c61d	0.1423573
14	0x3e3ec01a	0.18627968
15	0x3e8dcd0f	0.2769551
16	0x3e35bb77	0.17747293
17	0x3dc53ba0	0.09630513
18	0x3cfd0fb7	0.030891282
19	0xbb98fc15	-0.0046687224
20	0xbd8ba2f1	-0.06818188
21	0xbed5b1ea	-0.417373
22	0xbda5ca90	-0.08095276
23	0xbe3d7a68	-0.18503726
24	0xbd979f5a	-0.07403441
25	0x3b446f97	0.002997374
26	0x3e6157b9	0.2200612
27	0x3c0e1132	0.008671092
28	0xbf1f2a81	-0.6217423
29	0x3e2ff097	0.17181621
30	0xbdb00a91	-0.085957654
31	0x3eeba0b4	0.46021044

encoder.1.1.running_var f4 [32]
0	0x3e5bd3be	0.21467492
1	0x3e9b1dc6	0.30296153
2	0x3ea0cf68	0.31408238
3	0x3eb71ec2	0.35765654
4	0x3e915e55	0.28392282
5	0x3ea1b44e	0.31582874
6	0x3ebfacd5	0.37436548
7	0x3e7203a0	0.23634195
8	0x3e559905	0.20859154
9	0x3ef0ac36	0.47006387
10	0x3ed2f807	0.41204855
11	0x3e801e35	0.25023046
12	0x3e6db61d	0.23214002
13	0x3e9e0b54	0.30868018
14	0x3eac4b7d	0.33651343
15	0x3e929e27	0.28636286
16	0x3e399bbd	0.18125816
17	0x3e819c5e	0.2531461
18	0x3eb0e257	0.34547684
19	0x3e79e6a1	0.24404384
20	0x3ea59d61	0.32346633
21	0x3e97c9eb	0.2964624
22	0x3ecfa849	0.4055808
23	0x3ecd27fd	0.4006957
24	0x3eb037d7	0.34417602
25	0x3ec41556	0.38297528
26	0x3e9339b0	0.2875495
27	0x3e51ff6d	0.20507593
28	0x3efebb6a	0.4975236
29	0x3eb15382	0.34634024
30	0x3ecd7836	0.40130776
31	0x3e88894b	0.26667246

encoder.2.0.weight f4 [8, 32]
0	0xbde66bd6	-0.11251037
1	0x3d43afcf	0.047775086
2	0x3cabb258	0.020959064
3	0xbd44ee8c	-0.04807906
4	0xbe0b44d1	-0.1360047
5	0xbde97d55	-0.11400858
6	0x3e1d889b	0.15384142
7	0xbd5ad0a6	-0.05342164
8	0xbe386b3c	-0.18009657
9	0x3a8e5eed	0.001086203
10	0xbd9985aa	-0.074961975
11	0x3d90f1d5	0.07077376
12	0x3cf9b608	0.030482307
13	0x3d551326	0.052020214
14	0x3da7a6a4	0.08186081
15	0x3cfecdcb	0.03110399
16	0x3d0a15ba	0.033712126
17	0xbd18f997	-0.037347402
18	0x3cdcf3e9	0.026971774
19	0x3dd24c95	0.10268513
20	0x3c07a614	0.008279342
21	0x3cc34bcd	0.023839856
22	0x3dfdb6cb	0.123883806
23	0xbc535a60	-0.012899965
24	0x3dddb609	0.10825736
25	0xbda0bd42	-0.07848598
26	0x3d00263a	0.031286456
27	0xbe374007	-0.17895518
28	0x3d245940	0.040124178
29	0xbe1012d3	-0.14069681
30	0x3defdfd7	0.11712616
31	0x3dd65ea9	0.10467274
32	0x3c8082bf	0.015687345
33	0x3d4cb97e	0.049981587
34	0xbd817a91	-0.06322206
35	0xbcec9a8b	-0.028882286
36	0xbcdae24d	-0.026719237
37	0x3d9bf1a2	0.07614447
38	0x3dd716fe	0.10502432
39	0xbd3a8145	-0.045533437
40	0x3d05c5bc	0.032659277
41	0xbdd25e1e	-0.10271858
42	0x3d39d235	0.045366485
43	0x3d8022ab	0.062566124
44	0xbc818a78	-0.015813097
45	0x3ddacdcb	0.10683783
46	0x3d21dad5	0.039515335
47	0xbe094ca8	-0.13408148
48	0xbdb73fe3	-0.08947732
49	0x3d745901	0.059655193
50	0xbc89d62c	-0.016825758
51	0xbd8d8b1b	-0.06911298
52	0xbd8003a0	-0.062506914
53	0x3e10190b	0.14072053
54	0xbe30be6f	-0.17260145
55	0xbc9ccc38	-0.019140348
56	0xbd365a22	-0.04451955
57	0xbe572610	-0.21010613
58	0xbe10c9ad	-0.14139433
59	0xbe031d64	-0.1280418
60	0x3e023ecd	0.12719269
61	0x3daa28ff	0.08308601
62	0xbe240ef5	-0.1602133
63	0xbd8e0c8b	-0.06935986
64	0x3da303eb	0.07959732
65	0x3e1e9eb4	0.15490228
66	0xbd969911	-0.07353414
67	0x3db91b32	0.0903839
68	0x3ddd796b	0.10814174
69	0xbe08c2de	-0.13355586
70	0xbe206591	-0.15663745
71	0xbdd6a3f6	-0.10480492
72	0xbd04ff4d	-0.032470036
73	0xbdc0c81f	-0.0941317
74	0xbd70740c	-0.05870442
75	0x3bca38e1	0.0061713313
76	0xbd689780	-0.056785107
77	0x3cc77ff5	0.024353007
78	0x3d9c4918	0.07631129
79	0xbd8708c9	-0.065934725
80	0xbdf5e664	-0.12006834
81	0x3ca55521	0.020182194
82	0xbda7a3ab	-0.08185514
83	0x3db62506	0.088937804
84	0xbe085a4d	-0.13315697
85	0xbe1152ab	-0.14191692
86	0x3de379ca	0.11107214
87	0x3dc54e82	0.09634115
88	0xbd39511e	-0.045243375
89	0x3d98c53a	0.07459493
90	0x3ddcd4ad	0.10782752
91	0xbe3c4ab3	-0.1838787
92	0x3e1ce991	0.15323474
93	0xbd56416e	-0.052308492
94	0x3c777e8a	0.015105853
95	0xbd68c1e7	-0.056825545
96	0xbda86580	-0.082224846
97	0xbab3b94a	-0.0013711837
98	0xbdb9b278	-0.09067243
99	0x3cd2cb00	0.025731564
100	0x3bfadf45	0.0076560103
101	0xbd1e4bea	-0.038646616
102	0xbdeef2b1	-0.116673835
103	0xbe154e21	-0.14580585
104	0x3cf69a32	0.030102823
105	0xbd854931	-0.06508101
106	0x3cf590d4	0.029976286
107	0xbd702d8d	-0.05863719
108	0x3df23317	0.11826151
109	0xbdcee840	-0.10102892
110	0xba81525f	-0.0009866467
111	0x3d2a75b0	0.04161614
112	0x3da49c50	0.08037627
113	0xbe68d684	-0.22738081
114	0xbe3bd781	-0.18343927
115	0x3ca0e8ac	0.019642197
116	0xbc98428c	-0.01858642
117	0x3d57d363	0.05269183
118	0xbe07db00	-0.13267136
119	0x3e04c0f9	0.12964238
120	0x3d81d278	0.06338972
121	0x3d883625	0.06650952
122	0xbdec589c	-0.115403384
123	0x3d0d4130	0.034485996
124	0x3dd0920c	0.10184106
125	0xbd595dcb	-0.053067964
126	0x3e0f0d14	0.13969833
127	0x3d4914ca	0.04909209
128	0xbe6074c7	-0.21919547
129	0x3cb02414	0.021501578
130	0x3d217442	0.039417513
131	0xbe0b7d7d	-0.13622089
132	0x3da8e616	0.082470104
133	0xbd16d31a	-0.036822416
134	0xbd839689	-0.06425197
135	0x3d98784c	0.0744482
136	0x3dc2e1a9	0.095156975
137	0xbd6c656f	-0.057713922
138	0x3d8d1cf2	0.068902865
139	0xbe14fe4a	-0.14550129
140	0xbe4ec662	-0.20192865
141	0xbe21a7d3	-0.15786676
142	0x3ae9e4c2	0.0017844664
143	0x3e1d580a	0.15365615
144	0x3d8c8133	0.0686058
145	0xbce38d89	-0.02777745
146	0x3d2e27aa	0.042518295
147	0xbdf982e0	-0.121831656
148	0xbe4b2823	-0.1983953
149	0xbdc21d83	-0.09478285
150	0xbd802d88	-0.062586844
151	0xbd6bdee5	-0.057585616
152	0xbdb20228	-0.086918175
153	0xbe120337	-0.14259039
154	0x3d5cd5d8	0.053914875
155	0xbd6e5da3	-0.058194768
156	0xbcce018c	-0.025147222
157	0x3e1bb885	0.15207107
158	0x3d9ab1ed	0.07553468
159	0x3d11097b	0.035409432
160	0xbdeefe86	-0.1166964
161	0xbdad2e3d	-0.08456085
162	0x3dd0bbd4	0.10192075
163	0x3cd2bc8d	0.025724674
164	0xbda12178	-0.07867712
165	0xbd3501d3	-0.044191193
166	0x3d9c94ca	0.07645567
167	0xbce513c3	-0.027963525
168	0x3dbe8801	0.093032844
169	0xbd972fec	-0.07382187
170	0xbdb17729	-0.08665306
171	0xbd974cb0	-0.07387674
172	0x3d18e4e3	0.03732766
173	0x3e113f52	0.14184311
174	0xbd8069f1	-0.06270207
175	0xbc8f9f6c	-0.017532073
176	0xbd606c42	-0.054790743
177	0xbd4963b7	-0.04916736
178	0xbe1d745c	-0.15376419
179	0xbdf8ec60	-0.1215446
180	0x3d8661f7	0.06561654
181	0x3df9a5d7	0.121898346
182	0xbe1723f3	-0.14759807
183	0xbdf9fac3	-0.12206032
184	0x3d7fd85a	0.06246219
185	0xbd997d45	-0.074945964
186	0xbd886e8a	-0.06661709
187	0x3be4e038	0.006984737
188	0xbc5f9af9	-0.013647788
189	0xbe3e0570	-0.18556762
190	0xbe17d74b	-0.14828221
191	0x3ddc2c41	0.10750628
192	0x3da65c4a	0.081230715
193	0xbdfb0427	-0.12256651
194	0x3e30e201	0.17273714
195	0xbd846c20	-0.06465936
196	0x3d62c13f	0.055360075
197	0x3db61d82	0.08892347
198	0x3dbb1e16	0.09136598
199	0xbe1081ff	-0.1411209
200	0xbc9c61f7	-0.019089682
201	0x3e139297	0.14411388
202	0x3ddb3945	0.10704283
203	0xbcb0c7fa	-0.021579731
204	0x3d078cb5	0.033093173
205	0xbddb6e55	-0.107144035
206	0xbcf77f4d	-0.030212069
207	0xbe12009c	-0.14258045
208	0x3cb4f272	0.022088263
209	0x3d0de1ad	0.03463905
210	0x3d1d7eed	0.038451124
211	0x3dd2aa5e	0.10286401
212	0xbe3c3092	-0.18377903
213	0xbd6a2d3f	-0.057172056
214	0x3cae1408	0.021249786
215	0xbe1ab5dd	-0.15108438
216	0x3db56c4b	0.08858546
217	0x3ddf80df	0.10913252
218	0xbdc172e7	-0.09445744
219	0x3dea0c73	0.11428156
220	0xbce8d880	-0.028423548
221	0xbe3160f2	-0.17322138
222	0x3dfeb897	0.124375515
223	0xbe3b1b21	-0.18272068
224	0xbdbba59e	-0.09162448
225	0x3d9eaf00	0.07748222
226	0x3ddd1083	0.10794165
227	0x3dc990c5	0.09842066
228	0xbe0dc17f	-0.13843344
229	0x3dffe480	0.12494755
230	0x3db8a17e	0.09015177
231	0xbbfa685f	-0.0076418365
232	0xbd497973	-0.04918809
233	0x3d8f592d	0.06999431
234	0x3e0698af	0.13144182
235	0xbe07d8a0	-0.1326623
236	0xbd8551cf	-0.065097444
237	0x3dd6f5ab	0.10496076
238	0x3deff105	0.11715893
239	0xbdcc907a	-0.09988494
240	0xbbac3ed9	-0.0052565155
241	0xbdff12c0	-0.12454748
242	0xbd8a5e52	-0.067562714
243	0xbe056497	-0.13026653
244	0x3e1bbb65	0.15208204
245	0x3da4b831	0.08042944
246	0x3cd2bfd7	0.025726242
247	0x3d12834f	0.035769757
248	0xbc252666	-0.010079956
249	0xbe31b81c	-0.17355388
250	0xbdbbffbc	-0.09179637
251	0x3e2632e5	0.16230352
252	0xbe15b668	-0.14620364
253	0xbe23b2bd	-0.15986152
254	0xbb77e217	-0.003782397
255	0xbe3b1e85	-0.18273361

encoder.2.0.bias f4 [8]
0	0x3dffbc97	0.124871425
1	0x3dea81dd	0.11450551
2	0x3cfd3518	0.030909106
3	0xbd82c8fc	-0.06385991
4	0x3db9815f	0.09057879
5	0xbe290406	-0.16505441
6	0x3d1f9517	0.038960543
7	0x3bc58853	0.006028214

encoder.2.1.weight f4 [8]
0	0x3f6eeb33	0.93327636
1	0x3f6ec0fc	0.9326322
2	0x3f7f7bc3	0.9979822
3	0x3f720764	0.9454253
4	0x3f71b103	0.94410723
5	0x3f741c14	0.95355344
6	0x3f707ee9	0.9394365
7	0x3f8ad599	1.0846435

encoder.2.1.bias f4 [8]
0	0xbdc399dd	-0.095508315
1	0xbdc16d11	-0.09444631
2	0x3e34ca5c	0.17655319
3	0xbd73c288	-0.05951169
4	0xbdc2ac0c	-0.095054716
5	0xbd60456f	-0.054753717
6	0xbd98ec52	-0.074669495
7	0x3df795d1	0.12089122

encoder.2.1.running_mean f4 [8]
0	0x3e2846e0	0.16433287
1	0xbddda574	-0.10822573
2	0xbe0239fd	-0.12717433
3	0xbe800ae6	-0.25008315
4	0xbe59ce2a	-0.21270052
5	0xbf089bc2	-0.5336267
6	0xbc820922	-0.015873495
7	0xbdf02975	-0.11726657

encoder.2.1.running_var f4 [8]
0	0x3e63bb51	0.22239424
1	0x3eef4160	0.46729565
2	0x3e9621a7	0.2932255
3	0x3e892148	0.26783204
4	0x3ef93314	0.48671782
5	0x3f132555	0.5747884
6	0x3eb8776f	0.3602862
7	0x3eb3e01c	0.3513192

mu.weight f4 [5, 8]
0	0x3e4c545e	0.19954059
1	0x3e1eef6c	0.1552102
2	0x3dfcc060	0.1234138
3	0x3dd74d4e	0.105127916
4	0x3ded79ca	0.11595495
5	0xbecd684f	-0.40118644
6	0x3ccf8593	0.025332248
7	0x3dbb92b2	0.09158839
8	0x3e6069c4	0.21915346
9	0x3db13861	0.086533315
10	0xbe43faf8	-0.19138706
11	0x3e5a88fc	0.21341318
12	0x3e1857fe	0.14877316
13	0xbeb03eaa	-0.3442281
14	0x3d31bde6	0.043393992
15	0xbe20c3a7	-0.15699635
16	0xbda364a7	-0.07978182
17	0x3e8422f3	0.25807914
18	0x3d89a779	0.06721396
19	0xbe4bb872	-0.19894579
20	0xbe776870	-0.24160933
21	0x3e71e1e8	0.23621333
22	0x3e6f0bb0	0.23344302
23	0xbd2e507e	-0.042557232
24	0x3e42890e	0.18997595
25	0x3d9ad2fb	0.075597726
26	0xbdad9d55	-0.08477274
27	0xbe03369d	-0.12813802
28	0x3e0dab3b	0.1383485
29	0xbb1ff316	-0.0024406365
30	0xbe5fcaee	-0.21854755
31	0x3dcb9000	0.09939575
32	0xbe887584	-0.26652157
33	0x3eb5848c	0.35452688
34	0xbdbe562d	-0.092937805
35	0xbde52b9f	-0.11189961
36	0x3e0172ef	0.126415
37	0x3d94ea36	0.07271235
38	0xbe84ba3c	-0.25923336
39	0x3dffdcaa	0.1249326

mu.bias f4 [5]
0	0xbdf703f6	-0.12061302
1	0x3e0acc68	0.13554537
2	0xbd913855	-0.070908226
3	0x3d2b592b	0.041833084
4	0x3d1d24a7	0.038365033

sigma.weight f4 [5, 8]
0	0x3c924dd0	0.01785937
1	0x3e2b096d	0.16702814
2	0xbe455a3d	-0.19272704
3	0x3ce1fa01	0.027585031
4	0xbdf24f96	-0.11831586
5	0xbe24bcd1	-0.16087653
6	0xbe98a0ff	-0.2981033
7	0x3e23a119	0.15979423
8	0x3e7b8838	0.24563682
9	0x3d4f83cf	0.05066281
10	0xbd9d42f4	-0.07678786
11	0xbe99dacb	-0.30049738
12	0x3e5cd3c3	0.21565156
13	0x3e3e5a9e	0.18589255
14	0xbe95fc50	-0.29294062
15	0x3e0eafca	0.13934246
16	0x3e73254f	0.23744701
17	0x3e55c788	0.20876896
18	0xbe39d291	-0.18146731
19	0xbd1077c4	-0.035270467
20	0x3e56ad5d	0.2096457
21	0x3dcc8c9c	0.099877566
22	0x3e6990b4	0.22809106
23	0xbea036d7	-0.3129184
24	0xbca907a3	-0.020633524
25	0xbe56efb5	-0.20989878
26	0xbe40f632	-0.18843916
27	0x3e673f66	0.22582778
28	0x3e9ada0f	0.3024449
29	0x3ddb8917	0.10719507
30	0xbdcab769	-0.09898264
31	0xbe36a890	-0.17837739
32	0xbd16b6e6	-0.03679552
33	0xbd7a4e55	-0.06110986
34	0xbe1d81ce	-0.15381548
35	0xbcd5c6f5	-0.026095847
36	0xbce32bb9	-0.02773081
37	0x3dc69e42	0.09698154
38	0xbe8af437	-0.27139446
39	0x3dbeb6e6	0.09312229

sigma.bias f4 [5]
0	0x3ded1ce2	0.115777746
1	0x3d0a80e0	0.03381431
2	0x3de4b373	0.1116704
3	0x3dff68ac	0.124711365
4	0x3dddc838	0.10829204

decoder.0.0.weight f4 [8, 5]
0	0x3e075694	0.1321662
1	0x3f03c5cb	0.51473683
2	0xbe75fc57	-0.24022041
3	0x3eb27046	0.34851283
4	0x3d8cf07d	0.06881807
5	0xbef73372	-0.48281437
6	0x3e5cec19	0.21574439
7	0x3ea959e4	0.33076394
8	0x3ead1692	0.33806282
9	0x3e5ccf87	0.2156354
10	0x3e91d42a	0.2848218
11	0x3e490711	0.19631602
12	0xbd570bba	-0.052501418
13	0x3c12846f	0.008942707
14	0xbe3037a1	-0.1720872
15	0xbe9c7237	-0.3055589
16	0x3e4007df	0.18753003
17	0x3e91671a	0.28398973
18	0x3e135ab7	0.14390074
19	0x3e686038	0.22692955
20	0x3dc6ba6c	0.09703526
21	0xbe906ca1	-0.28207877
22	0x3e9a699e	0.30158705
23	0xbec13a12	-0.37739617
24	0xbd6e01ea	-0.058107294
25	0xbd84fe1c	-0.0649378
26	0xbe327356	-0.1742681
27	0x3ecf318f	0.40467498
28	0xbe967ac6	-0.29390544
29	0x3deac869	0.114640065
30	0xbe483f19	-0.1955532
31	0x3eb7edb8	0.35923553
32	0x3c17a1fc	0.009254929
33	0x3e9dcedc	0.30821884
34	0x3e29d3a4	0.1658464
35	0xbd74caa1	-0.059763554
36	0xbed9f1e8	-0.42567372
37	0xbe8f0420	-0.27932835
38	0xbd43f5e7	-0.047841933
39	0xbd4fcb37	-0.05073091

decoder.0.0.bias f4 [8]
0	0x3e90e61e	0.28300565
1	0xbe3817b9	-0.179778
2	0xbdbe7f1a	-0.093015864
3	0xbeb2d6d0	-0.34929514
4	0x3e4fa5a6	0.20278034
5	0xbe27b971	-0.16379334
6	0xbe970b33	-0.29500732
7	0x3e4d25fc	0.20034021

decoder.0.1.weight f4 [8]
0	0x3f861e79	1.047805
1	0x3f6273df	0.88458055
2	0x3f63324a	0.8874861
3	0x3f6fb12c	0.9362972
4	0x3f8aabc7	1.0833672
5	0x3f89737e	1.073837
6	0x3f7762e0	0.96635246
7	0x3f8938a2	1.0720408

decoder.0.1.bias f4 [8]
0	0xbd2ecfd5	-0.042678673
1	0xbdcde323	-0.100530885
2	0xbde301eb	-0.1108435
3	0xbdbcbc54	-0.09215608
4	0xbc81f7e8	-0.015865281
5	0xbd1dda92	-0.038538523
6	0xbdaeabfd	-0.08528898
7	0xbd56c2a6	-0.052431725

decoder.0.1.running_mean f4 [8]
0	0x3e93b8a9	0.28851822
1	0xbe332073	-0.17492847
2	0xbdc438d7	-0.09581154
3	0xbeb0351c	-0.3441552
4	0x3e4a4f8d	0.19756909
5	0xbe299d0d	-0.16563816
6	0xbe93add5	-0.2884356
7	0x3e4bd7a8	0.19906485

decoder.0.1.running_var f4 [8]
0	0x3eeac035	0.45849767
1	0x3f0cbdb3	0.5497696
2	0x3e1a319e	0.1505799
3	0x3e8fa985	0.2805902
4	0x3ea6eaae	0.3260092
5	0x3e956a93	0.29182872
6	0x3e95dcf6	0.29270142
7	0x3e8964e9	0.268348
