experiments/data/vae/024_UCR_Anomaly_DISTORTEDInternalBleeding10_3200_4526_4556.txt-.ckpt (torch, 629483 bytes, 102 tensors)

encoder.0.0.weight f4 [128, 151]
0.045805484 -0.07479917 0.020901132 -0.04119212 -0.025622252 -0.028129717 -0.06643522 0.054886207
-0.053562753 0.031304784 0.044086315 0.012527515 0.0017524536 -0.08456097 -0.01851007 0.017369365
0.05842205 0.033968344 0.015771983 -0.046001755 0.013259701 0.052378736 0.06246602 0.020532101
0.063798904 0.0336383 0.0727213 -0.043128394 -0.08298272 0.0043983706 -0.07937108 0.051026568
0.014660634 -0.045440704 0.06660004 -0.041684706 -0.033564236 -0.07216013 -0.04655162 -0.0068110223
0.011391737 -0.055837624 -0.081537895 -0.06320954 0.015835378 -0.01982789 -0.054500505 0.054645527
0.06011607 -0.05227941 -0.06905453 0.07619882 0.021914635 0.013860893 -0.040717665 0.0690397
-0.060897846 -0.04881359 -0.05372495 -0.062629126 -0.07133387 0.074661285 -0.050520144 0.06794047
0.008153641 -0.004909568 0.060549915 0.0683714 0.018864557 0.031030053 0.011768698 0.05759929
0.017595096 0.06612203 0.043371838 -0.037429716 0.022549689 0.007823668 -0.067315064 0.01649056
-0.024793988 -0.024259932 -0.02855476 0.057471715 0.0029414073 -0.0066286465 0.055698268 -0.023719827
0.03772053 0.08111292 0.026768908 0.043863613 -0.057566904 0.004664946 0.061264593 0.05540107
0.043926354 -0.010250592 -0.04485348 -0.061867695 -0.026635101 0.030968305 0.08249827 -0.026549904
-0.07338613 -0.02087252 0.0784777 0.069560744 -0.034047656 0.061838735 -0.02088757 -0.05584779
0.0399741 0.05707428 0.08357264 -0.016859187 0.08041041 0.07562962 -0.06602581 0.04417934
-0.0010877518 -0.01106457 -0.008492784 0.050864823 -0.003434895 0.028913733 0.015950002 0.029348033
0.026012668 -0.04328653 0.008569016 0.011788794 -0.028449154 0.021480847 -0.043099888 -0.031674493
-0.026680151 -0.054148506 -0.048751067 0.034150094 0.030926874 0.06607403 0.014570195 -0.08969356
-0.0046354393 -0.05471489 -0.0014442451 0.013328793 -0.10455548 0.0025468452 -0.06691694 0.059282325
-0.037494853 0.04153389 -0.079221606 0.018194472 0.06548565 -0.0010956716 -0.033368528 0.033980146
-0.028825568 -0.058970463 0.035876542 0.011861931 0.027971983 -0.058298867 -0.018266913 -0.07822112
-0.05883694 -0.03565478 -0.02861538 -0.07807363 -0.034639776 -0.024657723 -0.014289724 0.010777869
-0.016217679 0.033063386 0.063440196 -0.03898863 -0.0594314 0.070223995 -0.0567762 -0.06703651
0.062133376 0.0715884 -0.057580765 -0.0046474594 0.07016417 0.015275255 -0.014957438 0.008884889
-0.0072725685 0.040611807 0.026587788 0.051118158 0.030254431 -0.020225117 0.03239341 0.019315936
0.060723037 -0.03898987 -0.005850327 0.013137688 0.07028069 0.034765325 -0.004250421 -0.05483182
0.07241028 0.04844863 0.044574738 -0.040402807 -0.006013979 0.03387291 0.08886489 0.012536866
-0.052774098 -0.023645492 0.041744802 -0.020594507 -0.045179125 0.050231002 -0.012271005 0.04608517
-0.024101945 -0.011662248 -0.06718982 0.076158985 -0.0152400425 0.06790888 0.047817867 -0.064321384
-0.052149154 -0.007851954 0.07643887 0.038255315 0.030412339 -0.011091531 0.03944052 0.07423271
0.071419366 -0.03904807 0.042004712 0.06922891 -0.019436575 0.03542414 -0.04170984 0.009655878
0.00022143102 0.015570851 0.0015572662 -0.004954509 -0.05907466 0.04533979 -0.03493332 0.010597754
00000000: 889e 3b3d 4f30 99bd da38 ab3c 12b9 28bd
00000010: c2e5 d1bc 4b70 e6bc 300f 88bd 5cd0 603d
00000020: 9e64 5bbd 7239 003d da93 343d 3540 4d3c
00000030: 96b2 e53a 4d2e adbd 6ea2 97bc 334a 8e3c
00000040: f64b 6f3d 6422 0b3d 3f34 813c 566c 3cbd
00000050: 383f 593c 168b 563d 5fdc 7f3d f032 a83c
00000060: 00a9 823d 50c8 093d e8ee 943d 66a7 30bd
00000070: d8f2 a9bd 3520 903b 4e8d a2bd 3c01 513d
00000080: 2833 703c 0820 3abd 9a65 883d 95bd 2abd
00000090: a77a 09bd b1c8 93bd e9ac 3ebd ff2e dfbb
000000a0: 68a4 3a3c feb5 64bd 57fd a6bd 0174 81bd
000000b0: 32b9 813c 196e a2bc ec3b 5fbd fdd3 5f3d
000000c0: 453c 763d ef22 56bd 766c 8dbd 200e 9c3d
000000d0: 5286 b33c cd18 633c 91c7 26bd b064 8d3d
000000e0: 0570 79bd c2f0 47bd b10e 5cbd b343 80bd
000000f0: 7e17 92bd 04e8 983d 36ee 4ebd 6024 8b3d
00000100: d996 053c 71e0 a0bb 3003 783d 4e06 8c3d
00000110: d889 9a3c bd32 fe3c 7fd1 403c 3ced 6b3d
00000120: 9723 903c fd6a 873d aba6 313d e74f 19bd
00000130: 20ba b83c d82e 003c 7bdc 89bd 3617 873c
00000140: c31c cbbc c4bc c6bc aceb e9bc 7667 6b3d
00000150: a0c4 403b 1e35 d9bb de23 643d 1550 c2bc
00000160: d880 1a3d 881e a63d 784a db3c 55aa 333d
00000170: 46cb 6bbd 67dc 983b 95f0 7a3d 3bec 623d
00000180: 1fec 333d 19f2 27bc 48b8 37bd fb68 7dbd
00000190: db31 dabc 3eb1 fd3c daf4 a83d 2f7f d9bc
000001a0: 784b 96bd d9fc aabc ebb8 a03d dd75 8e3d
000001b0: 8e75 0bbd 9d4a 7d3d 691c abbc a7c0 64bd
000001c0: e2bb 233d b8c6 693d 2228 ab3d 471c 8abc
000001d0: 37ae a43d b4e3 9a3d 8a38 87bd 65f5 343d
000001e0: e592 8eba 2c48 35bc 5125 0bbc a257 503d
000001f0: fa1b 61bb 7edc ec3c 94a9 823c 496b f03c
00000200: 8518 d53c 374d 31bd 0f65 0c3c c925 413c
00000210: 330e e9bc 9af8 af3c 8289 30bd 1dbd 01bd
00000220: 5590 dabc d3ca 5dbd 33af 47bd f8e0 0b3d
00000230: 5b5a fd3c d251 873d d4b7 6e3c 42b1 b7bd
00000240: e2e4 97bb b81c 60bd d34c bdba 0361 5a3c
00000250: 2f21 d6bd f9e8 263b c00b 89bd 06d2 723d
00000260: 3494 19bd 711f 2a3d f03e a2bd 930c 953c
00000270: 571d 863d a39c 8fba 70ad 08bd c42e 0b3d
00000280: 9923 ecbc 038b 71bd 48f3 123d 8b58 423c
00000290: 8025 e53c cbca 6ebd 7ea4 95bc 6532 a0bd
000002a0: 01ff 70bd bf0a 12bd cd6a eabc 11e5 9fbd
000002b0: 70e2 0dbd fefe c9bc 721f 6abc a995 303c
000002c0: f0da 84bc 796d 073d efec 813d 8bb2 1fbd
000002d0: 576e 73bd 99d1 8f3d 298e 68bd 704a 89bd
000002e0: 917f 7e3d f09c 923d cfd9 6bbd b749 98bb
000002f0: 3bb2 8f3d 1045 7a3c 0b10 75bc ed91 113c
00000300: ba4e eebb 9158 263d a2ce d93c 4661 513d
00000310: 24d8 f73c 25af a5bc f4ae 043d 743c 9e3c
00000320: b8b8 783d d8b3 1fbd 1ab4 bfbb 753f 573c
00000330: 53ef 8f3d 1666 0e3d 1e47 8bbb 5597 60bd
00000340: d74b 943d 1272 463d 0094 363d 6a7d 25bd
00000350: ea10 c5bb 52be 0a3d ccfe b53d 6d67 4d3c
00000360: a729 58bd 31b4 c1bc 99fc 2a3d d0b5 a8bc
00000370: bf0d 39bd 06bf 4d3d 530c 49bc cec3 3c3d
00000380: 7171 c5bc 0313 3fbc d19a 89bd 3ef9 9b3d
00000390: 5fb1 79bc d013 8b3d abdc 433d eeba 83bd
000003a0: 5a9a 55bd 7ba5 00bc fb8b 9c3d 9bb1 1c3d
000003b0: 4c23 f93c 41b9 35bc 628c 213d 5207 983d
000003c0: 5144 923d def0 1fbd 220d 2c3d e3c7 8d3d
000003d0: 7439 9fbc e718 113d f0d7 2abd b033 1e3c
000003e0: f02f 6839 e21c 7f3c 2f1d cc3a 6f59 a2bb
000003f0: 45f8 71bd 37b6 393d 3e16 0fbd 34a2 2d3c

encoder.0.0.bias f4 [128]
0.030011274 -0.045670565 0.055571385 0.0050409487 0.016931081 0.06912211 -0.012095863 0.046000347
0.010645278 -0.010046155 0.0013707756 0.009446269 -0.022219358 -0.03754278 0.07171796 -0.01877306
0.033264395 0.011185341 -0.06726291 0.0739814 -0.00435307 0.039791025 -0.03545989 -0.031771846
-0.01749328 0.011851449 -0.0058035296 0.058721036 -0.02872259 -0.05008394 -0.010251251 0.015839383
0.018160034 -0.058072742 -0.0052237436 0.0783489 0.021001335 -0.036935028 -0.04423575 -0.038224615
-0.016401544 0.020094264 0.02795009 -0.022085018 0.00062069646 0.028477024 0.06243285 0.052991983
0.055351194 0.08695637 -0.06581253 0.020012697 -0.07428031 0.05160443 0.019077744 -0.0276476
-0.05977763 0.02919475 -0.06870377 0.038730342 0.058042977 0.0289064 -0.045443054 -0.042684596
-0.073691435 0.047415745 0.03643247 0.0068998956 0.010101219 0.06440858 -0.037186813 -0.045367762
0.043411564 -0.027931675 0.011768127 0.07715555 0.0075482978 0.043534137 0.055026058 -0.0044063046
-0.032796547 0.067956425 -0.009891244 -0.028733032 -0.0865081 -0.061845113 -0.060634874 0.034332328
-0.061181746 -0.014975258 0.021559836 0.023189085 -0.052805677 -0.022473505 0.039281435 0.011541745
0.06032874 -0.06322309 0.07534645 0.021729229 -0.0008011267 -0.0076569845 -0.06612624 0.050193995
0.07935773 0.015564982 0.023690343 0.017399453 -0.04367668 0.046256952 0.04717354 0.02302134
-0.050118938 -0.06978326 -0.061842553 -0.037672393 0.020510966 -0.04908923 -0.003316868 -0.016801836
-0.026490089 -0.081561364 -0.020199036 -0.0456821 0.03305219 -0.0070753214 0.051824085 -0.0036946556
00000000: 34da f53c 0f11 3bbd d29e 633d 8b2e a53b
00000010: 0db3 8a3c e58f 8d3d ba2d 46bc dc6a 3c3d
00000020: 8869 2e3c a198 24bc 99ab b33a 86c4 1a3c
00000030: 5f05 b6bc 75c6 19bd dee0 923d f6c9 99bc
00000040: 3f40 083d b842 373c 23c1 89bd 8f83 973d
00000050: 33a4 8ebb eafb 223d 643e 11bd 3223 02bd
00000060: 114e 8fbc 942c 423c 892b bebb 7885 703d
00000070: a34b ebbc d124 4dbd ddf4 27bc 98c1 813c
00000080: 5ac4 943c afdd 6dbd f02b abbb 6375 a03d
00000090: fe0a ac3c 2f49 17bd 8c30 35bd 6a91 1cbd
000000a0: 885c 86bc ba9c a43c 96f7 e43c a4eb b4bc
000000b0: 3cb6 223a a648 e93c 97b9 7f3d 1f0e 593d
000000c0: efb7 623d 2e16 b23d b8c8 86bd abf1 a33c
000000d0: 4620 98bd 2b5f 533d ee48 9c3c 387d e2bc
000000e0: 63d9 74bd d429 ef3c 90b4 8cbd b5a3 1e3d
000000f0: 79be 6d3d 1dcd ec3c 7f22 3abd 0bd6 2ebd
00000100: 89eb 96bd 0337 423d 373a 153d 8518 e23b
00000110: 957f 253c a5e8 833d 3351 18bd 8cd3 39bd
00000120: 53d0 313d f8d0 e4bc 1acf 403c bb03 9e3d
00000130: b657 f73b da50 323d 0163 613d c362 90bb
00000140: ac55 06bd bd2c 8b3d e20e 22bc 8961 ebbc
00000150: 292b b1bd 4d51 7dbd 465c 78bd 0ea0 0c3d
00000160: b699 7abd c95a 75bc 419e b03c 09f7 bd3c
00000170: c44a 58bd 5b1a b8bc 92e5 203d 9619 3d3c
00000180: 451b 773d 1b7b 81bd 3d4f 9a3d 7f01 b23c
00000190: b402 52ba 71e7 fabb 326d 87bd 3898 4d3d
000001a0: 4e86 a23d 4404 7f3c 4012 c23c 4c89 8e3c
000001b0: 52e6 32bd ee77 3d3d 0b39 413d 4097 bc3c
000001c0: 8449 4dbd 87ea 8ebd 9e4e 7dbd 5e4e 1abd
000001d0: 9d06 a83c ca11 49bd d05f 59bb 01a4 89bc
000001e0: be01 d9bc a509 a7bd 7378 a5bc 271d 3bbd
000001f0: bc61 073d 19d8 e7bb 7e45 543d 0922 72bb

encoder.0.1.weight f4 [128]
1.0025083 1.003447 1.0075788 1.0162963 0.99359 1.0084348 1.0165485 0.9792291
0.98974246 0.99483186 1.0060561 1.0010047 1.0052003 0.9873679 0.99241185 0.99443907
0.9901795 0.9928585 1.005313 1.0063307 1.0027008 0.99887365 1.0005985 0.9997915
0.99106586 0.99080455 1.0090697 0.9895307 1.0136815 0.99019885 1.0049839 1.0017409
1.0088934 1.0049006 1.0003604 0.99595165 0.9911011 0.9902344 1.0047414 1.008219
0.9883062 0.99035835 0.99949074 0.987893 1.0007384 1.007429 1.0149 0.98795533
1.0102026 0.99708647 0.9883937 0.98139393 1.0012408 0.9917341 0.98664576 1.0028772
1.0060556 0.9981299 1.0106485 0.99594665 0.99466395 1.0008614 0.9970606 0.9970279
1.0054381 1.0305086 0.9895249 1.0161982 0.98568654 0.9917419 1.0020808 1.0036776
1.0090759 0.98738533 0.9994189 0.9921751 1.0048101 1.0043381 0.99124384 0.99245054
0.9854005 1.0132304 1.0152328 1.0208737 0.9994401 1.0038781 1.0093435 1.0006808
0.9908703 1.0119635 0.99533784 0.99059623 0.98752886 0.99787825 0.98928857 0.99328125
1.0174537 0.9871376 0.99724925 0.99157584 0.989136 0.9925886 1.0054765 1.0063969
0.9932155 0.9946677 0.9862313 0.9947711 0.99022025 0.99938107 1.0149862 1.0046518
1.0117818 0.99237883 1.0107678 1.0149056 0.9999844 0.9919999 0.99383956 0.9931325
0.9950949 0.99857837 0.99430364 1.0131875 0.98503184 1.0098702 0.99308646 1.0070337
00000000: 3152 803f f470 803f 58f8 803f ff15 823f
00000010: ea5b 7e3f 6414 813f 431e 823f c2ae 7a3f
00000020: c35f 7d3f 4dad 7e3f 72c6 803f ec20 803f
00000030: 67aa 803f 25c4 7c3f b40e 7e3f 8f93 7e3f
00000040: 677c 7d3f fa2b 7e3f 19ae 803f 72cf 803f
00000050: 8058 803f 2fb6 7f3f 9d13 803f 56f2 7f3f
00000060: 7eb6 7d3f 5ea5 7d3f 3229 813f e251 7d3f
00000070: 51c0 813f ac7d 7d3f 50a3 803f 0c39 803f
00000080: 6b23 813f 95a0 803f cf0b 803f b0f6 7e3f
00000090: cdb8 7d3f 0080 7d3f 5e9b 803f 520d 813f
000000a0: a301 7d3f 2088 7d3f a0de 7f3f 8ee6 7c3f
000000b0: 3218 803f 6ff3 803f 3ee8 813f a4ea 7c3f
000000c0: 524e 813f 0f41 7f3f 5f07 7d3f a23c 7b3f
000000d0: a928 803f 49e2 7d3f d194 7c3f 485e 803f
000000e0: 6ec6 803f 7185 7f3f ee5c 813f 5cf6 7e3f
000000f0: 4ca2 7e3f 3a1c 803f 5d3f 7f3f 383d 7f3f
00000100: 32b2 803f b5e7 833f 8151 7d3f c812 823f
00000110: f455 7c3f cce2 7d3f 2f44 803f 8278 803f
00000120: 6629 813f 49c5 7c3f ebd9 7f3f 30ff 7d3f
00000130: 9e9d 803f 278e 803f 28c2 7d3f 3d11 7e3f
00000140: 3543 7c3f 89b1 813f 26f3 813f fdab 823f
00000150: 4edb 7f3f 147f 803f 2b32 813f 4f16 803f
00000160: ada9 7d3f 0588 813f 76ce 7e3f b797 7d3f
00000170: b1ce 7c3f f374 7f3f 0442 7d3f ae47 7e3f
00000180: ec3b 823f 0db5 7c3f ba4b 7f3f ead7 7d3f
00000190: 0438 7d3f 491a 7e3f 74b3 803f 9dd1 803f
000001a0: 5f43 7e3f 8ba2 7e3f a879 7c3f 52a9 7e3f
000001b0: 137f 7d3f 70d7 7f3f 11eb 813f 6e98 803f
000001c0: 1182 813f 8a0c 7e3f d760 813f 6de8 813f
000001d0: fafe 7f3f b5f3 7d3f 456c 7e3f ee3d 7e3f
000001e0: 8abe 7e3f d5a2 7f3f af8a 7e3f 21b0 813f
000001f0: 0c2b 7c3f 6d43 813f ea3a 7e3f 7be6 803f

encoder.0.1.bias f4 [128]
0.00775658 0.00815587 0.006805733 -0.014774804 -0.00086057925 0.006758827 0.012374544 -0.009847499
-0.0097522 0.009191268 0.0077374545 0.010772025 0.013825212 0.0005650949 -0.0072225756 -0.011439772
-0.007691678 0.002590534 -0.0049337787 0.0020617647 0.0024235118 0.006475088 0.0065562646 0.0065631582
-0.011304784 -0.005129297 -0.0052574244 -0.005474053 0.002262636 -0.003012231 0.011932395 0.008561039
0.015587921 0.017256957 0.006355588 -0.0022746855 -0.008468168 -0.012990449 0.0036630768 0.012498105
-0.0057878885 -0.008598366 0.007828402 -0.0069159456 0.004987065 0.0023464297 0.015766751 -0.00089265575
0.021290187 -0.0009862583 -0.010712166 -0.014179991 -0.005526751 -0.009871661 -0.0077918097 0.0128166685
0.009199053 0.010534394 0.009666793 0.0021125528 -0.001925409 0.004283783 -0.0050975676 0.0053890264
0.0062838057 0.0024955173 -0.010371195 0.019783234 -0.016510466 -0.0053842817 0.01240446 0.002923709
0.011427033 -0.006966376 -0.0028989462 -0.0064328974 0.018236794 0.0077091195 -0.002479791 -0.008717958
-0.00923188 0.015410532 0.02220556 0.032873478 0.011008008 0.014680268 0.02598728 -0.009539668
0.007949841 0.021963824 -0.008583923 0.0005464477 -0.001646478 0.004126159 -0.010148225 0.00086317846
0.029283883 -0.011368684 0.008599938 0.0019051306 -0.011673711 0.008246146 0.0050234958 0.008505357
-0.00518779 -0.011068611 -0.009037515 -0.009432192 -0.009495453 0.0023306443 0.015315476 0.013675542
0.0024335994 -0.014003492 -0.00823576 0.0008821952 0.0074478644 -0.005435271 -0.0054551987 0.004755085
-0.0021346507 0.004611509 -0.0010601053 0.017989371 -0.0060489047 -0.012205379 0.00044035955 0.019414807
00000000: e92a fe3b 33a0 053c a002 df3b 0512 72bc
00000010: 7f98 61ba 2679 dd3b 99be 4a3c 6857 21bc
00000020: b1c7 1fbc f996 163c 798a fd3b 267d 303c
00000030: 2483 623c e022 143a 5bab ecbb e26d 3bbc
00000040: 790a fcbb f3c5 293b 89ab a1bb ac1e 073b
00000050: c8d3 1e3b fa2c d43b efd5 d63b c30f d73b
00000060: b337 39bc a913 a8bb 7946 acbb af5f b3bb
00000070: bc48 143b da68 45bb 1880 433c 9a43 0c3c
00000080: 7b64 7f3c 765e 8d3c 8942 d03b e412 15bb
00000090: 12be 0abc e4d5 54bc 3b10 703b dac4 4c3c
000000a0: 54a8 bdbb 29e0 0cbc b342 003c 289f e2bb
000000b0: 896a a33b 8fc6 193b 4629 813c 1d01 6aba
000000c0: c268 ae3c 5645 81ba 1582 2fbc 3153 68bc
000000d0: bf19 b5bb bfbc 21bc 7052 ffbb 01fd 513c
000000e0: a0b7 163c 7398 2c3c 7861 1e3c c172 0a3b
000000f0: 015e fcba fa5e 8c3b 7f09 a7bb 6e96 b03b
00000100: 62e8 cd3b d58b 233b f2eb 29bc 7310 a23c
00000110: f540 87bc a16e b0bb 143c 4b3c b39b 3f3b
00000120: 7338 3b3c 3346 e4bb 3ffc 3dbb 0ecb d2bb
00000130: 5465 953c c89c fc3b fd83 22bb c4d5 0ebc
00000140: 5041 17bc 757c 7c3c 6fe8 b53c 57a6 063d
00000150: ef5a 343c 8285 703c 47e3 d43c 454c 1cbc
00000160: 0d40 023c 7aed b33c 95a3 0cbc 7c3f 0f3a
00000170: a2ce d7ba bb34 873b be44 26bc ed46 623a
00000180: c1e4 ef3c b743 3abc c1e6 0c3c 93b5 f93a
00000190: 1843 3fbc d81a 073c 239c a43b 0e5a 0b3c
000001a0: 56fe a9bb 1f59 35bc 1612 14bc 7b89 1abc
000001b0: d192 1bbc b9bd 183b c3ed 7a3c 610f 603c
000001c0: 067d 1f3b e76e 65bc 48ef 06bc 1e43 673a
000001d0: 370d f43b 5c1a b2bb 86c1 b2bb 8bd0 9b3b
000001e0: 7fe5 0bbb 241c 973b 3bf3 8aba 725e 933c
000001f0: e435 c6bb 12f9 47bc 0fe0 e639 cd0b 9f3c

encoder.0.1.running_mean f4 [128]
0.108205095 -0.12916356 0.15340595 -0.08979191 0.16495886 0.37066254 -0.48479676 0.03389267
-0.1558242 0.16421321 0.23013766 -0.18925367 0.29605326 -0.23196495 -0.04103052 0.1060448
0.042132713 -0.108649135 0.23049653 0.1193658 0.11200808 0.19268158 -0.20452459 0.34446925
-0.15488225 -0.13652635 0.35719007 -0.05307454 0.4920142 -0.19954531 0.09152342 -0.36433315
0.06439441 -0.10283681 -0.39363322 -0.123921454 -0.4881838 0.18147436 -0.22153564 0.26615408
-0.09883885 -0.24022676 0.43350342 -0.09335818 0.16246848 0.09136831 0.43506873 -0.019579789
0.08809771 -0.21671441 0.0066528628 0.15321754 -0.07475382 -0.11791612 0.18734401 -0.15165202
0.24548386 0.101556815 0.13182093 -0.20792088 0.13112338 0.08734919 -0.43980327 -0.121508
-0.2270384 0.05815338 -0.094947435 0.09099932 0.16833374 0.048660852 -0.23257484 -0.07245333
0.32830364 -0.014519285 0.10527218 -0.22073795 -0.45580935 0.23260039 0.104268245 0.10948743
0.26297262 0.25910825 0.37056664 -0.20016578 -0.3685389 0.19227278 0.006114773 0.10470152
0.17776194 0.09266561 0.031876676 0.126449 -0.23594289 -0.5319492 -0.040949803 0.16218472
0.25558832 0.015391793 -0.29761598 -0.10969086 0.38550937 0.09030589 -0.2934762 0.16326255
0.024308197 -0.21820207 -0.5371067 0.031697482 -0.35660145 0.09417735 0.06681662 -0.13787706
-0.053655107 0.3757888 -0.31124592 0.0008580795 -0.28273857 0.04791419 0.0977215 0.23550937
0.056531843 -0.33035702 0.3155516 -0.17023024 -0.2752218 0.06169198 0.56366616 -0.096181355
00000000: a29a dd3d 7443 04be 7316 1d3e d2e4 b7bd
00000010: faea 283e 7bc7 bd3e 4837 f8be 0ad3 0a3d
00000020: 6190 1fbe 8227 283e 35a9 6b3e b7cb 41be
00000030: 4b94 973e 3888 6dbe 9e0f 28bd 042e d93d
00000040: 5a93 2c3d 7083 debd 4807 6c3e 0e76 f43d
00000050: 7e64 e53d 524e 453e e56e 51be 465e b03e
00000060: 7499 1ebe 90cd 0bbe 9ee1 b63e b064 59bd
00000070: 49e9 fb3e 9b55 4cbe a170 bb3d e089 babe
00000080: 37e1 833d 1b9c d2bd 4b8a c9be 88ca fdbd
00000090: 3af3 f9be 6ad4 393e 3dda 62be 5945 883e
000000a0: 066c cabd 01fe 75be 29f4 dd3e 9332 bfbd
000000b0: 235e 263e 4f1f bb3d 54c1 de3e cb65 a0bc
000000c0: 926c b43d 62ea 5dbe 4200 da3b 0fe5 1c3e
000000d0: 8818 99bd 027e f1bd 1cd7 3f3e ab4a 1bbe
000000e0: 1f60 7b3e 05fd cf3d 11fc 063e 36e9 54be
000000f0: 3545 063e 22e4 b23d e52d e1be 30d9 f8bd
00000100: c17c 68be 3d32 6e3d cd73 c2bd da5d ba3d
00000110: ae5f 2c3e 9a50 473d 1928 6ebe 6962 94bd
00000120: 6a17 a83e 4ce2 6dbc f198 d73d 2109 62be
00000130: d85f e9be cc2e 6e3e 978a d53d f23a e03d
00000140: 59a4 863e d6a9 843e e9ba bd3e 42f8 4cbe
00000150: 21b1 bcbe 28e3 443e 6f5e c83b c06d d63d
00000160: 3a07 363e 78c7 bd3d 1e91 023d d97b 013e
00000170: 039b 71be d32d 08bf fbba 27bd c013 263e
00000180: 79dc 823e dc2d 7c3c 1f61 98be 9aa5 e0bd
00000190: 7c61 c53e 4bf2 b83d 8342 96be 4c2e 273e
000001a0: fc21 c73c 5d70 5fbe d37f 09bf 38d5 013d
000001b0: 7794 b6be 0ee0 c03d 27d7 883d a52f 0dbe
000001c0: 75c5 5bbd 6467 c03e a05b 9fbe bef0 603a
000001d0: 1cc3 90be ab41 443d 3622 c83d 5e29 713e
000001e0: ef8d 673d 8e24 a9be fb8f a13e d650 2ebe
000001f0: dfe9 8cbe bbb0 7c3d 6d4c 103f bbfa c4bd

encoder.0.1.running_var f4 [128]
0.03702817 0.056073405 0.03093135 0.0047928537 0.03649007 0.017540526 0.02176292 0.029964188
0.033629872 0.0484879 0.03669301 0.038352944 0.048728064 0.06337285 0.036805212 0.05127769
0.011703779 0.052727506 0.016466646 0.027534887 0.009005086 0.020490846 0.05388425 0.022966318
0.0493957 0.029777067 0.027253378 0.055449236 0.01567229 0.025863448 0.058129176 0.081369735
0.056558654 0.018680707 0.035087086 0.06413173 0.05651864 0.023189474 0.025210943 0.03617949
0.0388445 0.020418687 0.052548297 0.039290294 0.027000293 0.014997668 0.03414255 0.059264682
0.032880288 0.04887033 0.04465009 0.04370516 0.025260724 0.03639568 0.020164248 0.032860614
0.043192256 0.023794914 0.053845692 0.012358235 0.05765212 0.066244915 0.032921396 0.021688342
0.07697069 0.024251921 0.011745289 0.020330716 0.02742909 0.026822636 0.043855812 0.05822315
0.03652991 0.0094628725 0.0262401 0.01129402 0.10529705 0.042948388 0.029681273 0.020943094
0.025310827 0.089206256 0.016644774 0.04531913 0.040750187 0.043651335 0.05354453 0.01982771
0.04665348 0.049818568 0.01787784 0.0055971374 0.007965754 0.043282833 0.026894875 0.015959961
0.035786927 0.03603417 0.036716547 0.02410788 0.032404404 0.02934505 0.03194647 0.02169237
0.042063855 0.025934456 0.016573856 0.061282534 0.019158015 0.018808946 0.035805497 0.031674277
0.02456983 0.017499305 0.027975779 0.019823005 0.09749024 0.01602699 0.046811234 0.0061149034
0.044785667 0.04044396 0.035338525 0.05957231 0.03070475 0.050566632 0.017526364 0.036930326
00000000: daaa 173d 3aad 653d be63 fd3c 5f0d 9d3b
00000010: 9d76 153d 26b1 8f3c 2748 b23c 7577 f53c
00000020: 7abf 093d 409b 463d 694b 163d fa17 1d3d
00000030: 1497 473d a0c9 813d 10c1 163d 8e08 523d
00000040: 35c1 3f3c ccf8 573d 0fe5 863c d890 e13c
00000050: 118a 133c 6bdc a73c bbb5 5c3d dc23 bc3c
00000060: 2553 4a3d 09ef f33c 7a42 df3c bd1e 633d
00000070: 2d63 803c 95df d33c dc18 6e3d 2da5 a63d
00000080: 0caa 673d 4808 993c 7ab7 0f3d 7f57 833d
00000090: 1780 673d daf7 bd3c 2e87 ce3c f230 143d
000000a0: 691b 1f3d 1745 a73c e23c 573d dcee 203d
000000b0: b82f dd3c c7b8 753c 0fd9 0b3d 86bf 723d
000000c0: 7bad 063d 412c 483d 03e3 363d 2f04 333d
000000d0: 94ef ce3c a313 153d 7e2f a53c da98 063d
000000e0: 5dea 303d 8ded c23c 4d8d 5c3d 327a 4a3c
000000f0: a124 6c3d 6aab 873d 96d8 063d c0ab b13c
00000100: cfa2 9d3d f7ab c63c 506f 403c 9a8c a63c
00000110: f9b2 e03c 25bb db3c 27a2 333d 667b 6e3d
00000120: 63a0 153d 2a0a 1b3c 7af5 d63c 8e0a 393c
00000130: fba5 d73d a6ea 2f3d 2426 f33c da90 ab3c
00000140: a758 cf3c c5b1 b63d 9f5a 883c 8da0 393d
00000150: abe9 263d becb 323d 8251 5b3d b96d a23c
00000160: b817 3f3d 8e0e 4c3d 8c74 923c 3168 b73b
00000170: cb82 023c 5749 313d a452 dc3c 77be 823c
00000180: 5095 123d 9198 133d 1764 163d e47d c53c
00000190: 7bba 043d 0865 f03c 4dda 023d 32b4 b13c
000001a0: 264b 2c3d 7f74 d43c e5c5 873c 6503 7b3d
000001b0: 45f1 9c3c 3815 9a3c c9a8 123d e3bc 013d
000001c0: ab46 c93c b45a 8f3c 762d e53c db63 a23c
000001d0: f7a8 c73d 094b 833c 23bd 3f3d 875f c83b
000001e0: 2d71 373d 91a8 253d 21bf 103d 1802 743d
000001f0: 8788 fb3c f51e 4f3d 7393 8f3c 4144 173d

encoder.1.0.weight f4 [32, 128]
-0.032965213 -0.022894496 0.022566857 -0.04059438 -0.027517006 0.004925445 0.0044654375 0.002248874
0.016697368 0.041947704 -0.08178991 -0.08141467 -0.05803313 -0.03431562 0.04175052 -0.0035864033
0.07733888 -0.032820113 0.011762114 0.0018038223 0.034121502 -0.06524554 0.06129545 -0.0783965
0.023527969 -0.041855548 0.07395951 -0.019588057 0.084337674 -0.05685984 0.04509831 -0.008969394
0.030677238 0.067724586 0.046132967 -0.008448302 -0.0435959 0.0004974206 0.06842233 -0.004152401
0.011825296 0.051697712 -0.0021505344 -0.07241908 -0.012234739 0.018052531 -0.064502686 -0.028583795
0.019144492 0.058423903 0.045599554 0.08031997 0.0065768487 0.01977556 -0.05105064 -0.034579914
0.06945653 0.038459957 -0.0134833725 0.06729958 0.06523849 0.07944641 -0.08147803 -0.081288755
-0.056304555 -0.069633044 0.08997971 0.07131584 -0.0359225 0.058325425 0.06396233 0.06732467
-0.011484169 0.067625135 0.013463203 -0.08067259 0.068031214 0.011096459 -0.004800053 0.0887648
-0.07947608 -0.05039017 0.061083317 -0.081719525 -0.010296492 -0.03403049 -0.04092875 -0.07289364
-0.03700739 0.018161917 -0.07001162 -0.011183055 0.04525155 0.011078311 -0.019819465 0.039252564
0.06483277 -0.10891342 -0.028528912 0.012394095 0.06940308 -0.013096357 -0.036942948 -0.076126315
0.07333261 -0.06637212 -0.062025785 0.0892276 0.056418564 -0.08432242 -0.042636387 -0.06424354
-0.041693687 0.037204776 -0.09207178 0.011529056 -0.051851798 0.057359383 -0.04903959 -0.07073721
-0.07424531 -0.052781172 0.059516594 0.052236494 0.0086839255 -0.064686395 -0.07093964 -0.0721376
0.05231045 -0.09882721 -0.054967113 -0.022312447 0.019809661 -0.019966606 -0.0017789468 0.07630064
-0.027386023 -0.04607038 0.053513654 0.06693031 0.09655951 -0.01276018 0.009497555 0.059057117
0.065511286 -0.044430923 0.06782781 -0.017081406 -0.03790686 -0.014379218 -0.0034487543 -0.021760752
-0.055888534 0.010467207 0.06956282 0.050077006 0.070801064 -0.027579715 -0.064743504 -0.019864777
0.06348083 -0.074547835 -0.047627278 0.08487365 0.013573761 -0.021702284 -0.053817306 -0.037756406
0.08087139 -0.016175948 -0.006007032 -0.07573975 0.066396035 0.029231552 0.004584304 0.06313598
-0.032567848 0.018857932 0.05771067 -0.002750087 -0.078643695 -0.06421012 0.060840394 0.0027975133
0.092959315 -0.03080982 -0.04371194 -0.07370207 0.020990541 -0.07194618 -0.041139327 0.048285306
-0.008610479 0.013585579 -0.04669179 0.07055569 -0.02908031 -0.041403014 0.07114478 0.09026601
0.011997834 -0.029312184 -0.029850546 -0.08920639 0.0040555196 0.09213077 0.039465137 0.09680466
-6.4584376e-05 0.07334562 0.059908565 0.028156608 0.05588076 0.017695196 0.05783582 0.01726049
-0.09560103 -0.018319203 -0.038724896 0.043506198 0.020239254 0.020925928 0.0063220873 -0.010394228
0.06052581 -0.048236925 -0.05524953 0.059815638 -0.049449027 -0.06669475 -0.02340723 -0.07798921
-0.026837641 0.03882196 0.005217043 0.0066438643 0.041844018 0.00520262 -0.060690742 -0.09001514
-0.069582716 -0.03269827 -0.020469518 -0.017498994 -0.039864384 0.044735536 -0.021020083 -0.094129376
-0.011294672 0.09817584 -0.023887293 0.020391362 -0.024522236 -0.06274174 0.059788294 -0.01363776
00000000: 8806 07bd 3d8d bbbc 21de b83c 4b46 26bd
00000010: 586b e1bc a165 a13b ce52 923b d861 133b
00000020: ebc8 883c 5bd1 2b3d 7881 a7bd bcbc a6bd
00000030: 26b4 6dbd 898e 0cbd 9802 2b3d dd09 6bbb
00000040: d963 9e3d 626e 06bd e2b5 403c 3c6e ec3a
00000050: fdc2 0b3d 749f 85bd f010 7b3d 588e a0bd
00000060: babd c03c b970 2bbd 1578 973d 2277 a0bc
00000070: 3bb9 ac3d dde5 68bd 01b9 383d 5df4 12bc
00000080: d54e fb3c 30b3 8a3d ecf5 3c3d bf6a 0abc
00000090: 9d91 32bd 5565 023a 0221 8c3d dd10 88bb
000000a0: e3be 413c fbc0 533d fbef 0cbb 7450 94bd
000000b0: 3774 48bc e7e2 933c fc19 84bd 9028 eabc
000000c0: e9d4 9c3c e74d 6f3d 99c6 3a3d cc7e a43d
000000d0: 9b82 d73b 5b00 a23c 7a1a 51bd aba3 0dbd
000000e0: 3a3f 8e3d 3088 1d3d 5de9 5cbc 5dd4 893d
000000f0: c29b 853d cdb4 a23d f4dd a6bd b87a a6bd
00000100: 9b9f 66bd c59b 8ebd 4847 b83d 0a0e 923d
00000110: 7923 13bd a4e6 6e3d affe 823d 84e1 893d
00000120: 1928 3cbc 0c7f 8a3d c494 5c3c ac37 a5bd
00000130: f353 8b3d eccd 353c c349 9dbb 52ca b53d
00000140: 5bc4 a2bd ec65 4ebd 8032 7a3d 915c a7bd
00000150: 9eb2 28bc 8e63 0bbd e8a4 27bd 4349 95bd
00000160: 1095 17bd 4dc8 943c 4162 8fbd 2239 37bc
00000170: b059 393d ce81 353c 6e5c a2bc 4cc7 203d
00000180: 0bc7 843d 000e dfbd 77b5 e9bc 9a10 4b3c
00000190: 3423 8e3d 1a92 56bc 7d51 17bd 1de8 9bbd
000001a0: 682f 963d 1bee 87bd c00e 7ebd f6bc b63d
000001b0: 2717 673d 3cb1 acbd 7ea3 2ebd 1e92 83bd
000001c0: 00c7 2abd 0964 183d 2190 bcbd 5ee4 3c3c
000001d0: 8d62 54bd acf1 6a3d bddd 48bd acde 90bd
000001e0: ed0d 98bd 1231 58bd acc7 733d eff5 553d
000001f0: 0647 0e3c 4d7a 84bd cd48 91bd e1bc 93bd
00000200: 7b43 563d ec65 cabd 3225 61bd 98c8 b6bc
00000210: df47 a23c 0291 a3bc 8d2b e9ba 8343 9c3d
00000220: a758 e0bc 4bb4 3cbd 2231 5b3d c212 893d
00000230: fec0 c53d 1310 51bc a29b 1b3c e0e5 713d
00000240: c82a 863d 33fd 35bd 4fe9 8a3d 4eee 8bbc
00000250: 3944 1bbd d096 6bbc 7f04 62bb 9b43 b2bc
00000260: 60eb 64bd a67e 2b3c f476 8e3d 8c1d 4d3d
00000270: 2600 913d dbee e1bc 3e98 84bd 75bb a2bc
00000280: 3d02 823d 89ac 98bd d214 43bd 3cd2 ad3d
00000290: 7b64 5e3c fdc8 b1bc 896f 5cbd 76a6 1abd
000002a0: e69f a53d 6c83 84bc a3d6 c4bb 711d 9bbd
000002b0: a5fa 873d 0277 ef3c ee37 963b 704d 813d
000002c0: dd65 05bd f37b 9a3c 0662 6c3d ce3a 34bb
000002d0: f20f a1bd 9880 83bd c733 793d 7c56 373b
000002e0: 7461 be3d e064 fcbc 4b0b 33bd 1cf1 96bd
000002f0: 5bf4 ab3c 8558 93bd b681 28bd d0c6 453d
00000300: f712 0dbc 0c96 5e3c e43f 3fbd 807f 903d
00000310: d539 eebc 3596 29bd 5bb4 913d 63dd b83d
00000320: 9092 443c 1b20 f0bc 2289 f4bc d7b1 b6bd
00000330: 2ae4 843b 0faf bc3d 32a6 213d 8641 c63d
00000340: 7971 87b8 3a36 963d af62 753d b0a8 e63c
00000350: 39e3 643d 84f5 903c 41e5 6c3d df65 8d3c
00000360: 79ca c3bd 2712 96bc ff9d 1ebd 8e33 323d
00000370: cbcc a53c da6c ab3c 8329 cf3b 8d4c 2abc
00000380: e9e9 773d 1594 45bd 554d 62bd 3e01 753d
00000390: 108b 4abd 4297 88bd 85c0 bfbc cfb8 9fbd
000003a0: 9dda dbbc c703 1f3d bbf3 aa3b c6b4 d93b
000003b0: a264 2b3d bd7a aa3b db96 78bd dc59 b8bd
000003c0: 6281 8ebd 9fee 05bd b1af a7bc 0d5a 8fbc
000003d0: d648 23bd 9c3c 373d 4f32 acbc e7c6 c0bd
000003e0: 4a0d 39bc 6a10 c93d 49af c3bc c90b a73c
000003f0: dbe2 c8bc be7e 80bd 92e4 743d e970 5fbc

encoder.1.0.bias f4 [32]
-0.064616844 -0.083148435 -0.066542044 -0.07286949 0.030955084 0.042843938 0.0016592884 0.08001538
-0.013431338 -0.0021113849 -0.07567916 0.040037982 0.09380893 0.046462838 -0.0751686 0.03209079
-0.06334254 0.0024338316 -0.030081155 -0.015812255 -0.08585204 0.041448977 -0.024193468 -0.07200875
-0.044022933 0.04810608 -0.032561652 0.046744823 0.03808319 0.045363203 -0.0055043628 -0.01313169
00000000: d655 84bd ba49 aabd 3247 88bd 993c 95bd
00000010: 8495 fd3c 207d 2f3d 7b7c d93a 1bdf a33d
00000020: 1d0f 5cbc 295f 0abb adfd 9abd defe 233d
00000030: e51e c03d d14f 3e3d fff1 99bd a271 033d
00000040: bcb9 81bd eb80 1f3b c16c f6bc b488 81bc
00000050: 32d3 afbd 67c6 293d 6131 c6bc 5379 93bd
00000060: 6451 34bd e20a 453d 5e5f 05bd 8077 3f3d
00000070: 1efd 1b3d c4ce 393d f15d b4bb 4d26 57bc

encoder.1.1.weight f4 [32]
1.0330697 0.9897497 0.9940807 0.997421 0.9909113 0.9785347 0.99093443 1.0015887
1.0107867 1.0043483 1.0249672 0.96660495 0.9850266 1.0136931 1.0000504 0.9853364
1.0076562 1.0131081 1.0389796 1.0043502 0.98989826 0.99292487 1.008828 0.98769766
0.993257 1.0183858 1.0001973 0.98464155 1.0141011 1.0003828 1.0222554 0.98855376
00000000: a13b 843f 3d60 7d3f 137c 7e3f fc56 7f3f
00000010: 5dac 7d3f 4081 7a3f e1ad 7d3f 0f34 803f
00000020: 7561 813f 7c8e 803f 2032 833f 6c73 773f
00000030: b42a 7c3f b2c0 813f a701 803f 023f 7c3f
00000040: e1fa 803f 87ad 813f 49fd 843f 8c8e 803f
00000050: f969 7d3f 5330 7e3f 4721 813f c1d9 7c3f
00000060: 1746 7e3f 775a 823f 7706 803f 7811 7c3f
00000070: 11ce 813f 8b0c 803f 44d9 823f dc11 7d3f

encoder.1.1.bias f4 [32]
0.022652443 -0.004800366 0.014840746 -0.004776427 -0.006427082 -0.015042481 0.012408518 -0.0033618184
0.0027979724 0.020879025 0.020392038 -0.0118415905 -0.014937502 0.018889979 -0.019185293 -0.005715798
0.0032056668 0.02367189 0.036433786 0.0021292863 0.0062702186 0.010891895 0.013360968 0.0018999018
0.013769231 0.028667515 -0.0046025603 -0.0034870976 0.029827558 -0.0012574373 0.031043682 -0.0036019795
00000000: 9e91 b93c 634c 9dbb 9a26 733c 9383 9cbb
00000010: 459a d2bb bd74 76bc 194d 4b3c f451 5cbb
00000020: 305e 373b 7d0a ab3c 340d a73c 3b03 42bc
00000030: 6dbc 74bc 28bf 9a3c 7a2a 9dbc 974b bbbb
00000040: 2a16 523b 8deb c13c 983b 153d 7f8b 0b3b
00000050: 6876 cd3b eb73 323c f6e7 5a3c 2006 f93a
00000060: 5798 613c 23d8 ea3c 13d1 96bb ca87 64bb
00000070: ec58 f43c 98d0 a4ba 524f fe3c 300f 6cbb

encoder.1.1.running_mean f4 [32]
-0.26238748 -0.04104073 -0.4816813 -0.2651159 -0.017368771 0.42263332 0.061346523 0.15713662
0.14033975 -0.12732737 0.2087464 -0.028386263 0.33694872 -0.1604601 0.32537207 0.21640222
-0.015813038 -0.8179075 0.09761744 0.34732026 -0.04308966 0.04504493 0.21195601 -0.5192727
0.17741224 -0.116740055 -0.30610043 -0.14159559 -0.4886634 -0.1739066 0.12450186 -0.16038375
00000000: a757 86be 531a 28bd ee9e f6be 45bd 87be
00000010: f448 8ebc 6563 d83e 7e46 7b3d 6ce8 203e
00000020: 39b5 0f3e 1b62 02be 9ec1 553e 4f8a e8bc
00000030: 8b84 ac3e a74f 24be 2b97 a63e 8b98 5d3e
00000040: 588a 81bc 6362 51bf a7eb c73d f6d3 b13e
00000050: c97e 30bd 0881 383d ff0a 593e 0eef 04bf
00000060: 8eab 353e 6915 efbd 32b9 9cbe 6ffe 10be
00000070: 1732 fabe 9214 32be d5fa fe3d a33b 24be

encoder.1.1.running_var f4 [32]
0.34954822 0.2470497 0.50261384 0.21054363 0.16212681 0.5937966 0.4481154 0.51410013
0.26045358 0.34932908 0.10620841 0.20317078 0.5759077 1.1009722 0.27418983 0.4114159
0.3033323 0.4725062 0.7112285 0.16774648 0.1954355 0.3858084 0.49865693 0.69946194
0.38668108 0.42965725 0.291409 0.2633569 0.86484814 0.17140265 0.34999982 0.21758862
00000000: fcf7 b23e 99fa 7c3e 4dab 003f c098 573e
00000010: 9204 263e 0e03 183f 626f e53e 119c 033f
00000020: 2c5a 853e 43db b23e cb83 d93d 000c 503e
00000030: b06e 133f a8ec 8c3f 9c62 8c3e 1ba5 d23e
00000040: 5f4e 9b3e 55ec f13e 1213 363f bcc5 2b3e
00000050: 3e20 483e ae88 c53e f64f ff3e f00f 333f
00000060: 10fb c53e 09fc db3e 8f33 953e b7d6 863e
00000070: b066 5d3f 2d84 2f3e 2d33 b33e 8dcf 5e3e

encoder.2.0.weight f4 [8, 32]
-0.1506053 -0.07809756 -0.09763599 0.08171399 0.04034113 0.04495468 -0.05290638 0.13494727
-0.17204444 -0.05130399 0.057231206 -0.11379741 0.034775313 0.15392438 -0.11073985 0.0010508387
-0.1394366 0.1831931 -0.07934493 0.14708863 -0.09883305 -0.13419522 -0.054709546 -0.019876182
-0.19217744 0.1396094 -0.09571584 0.09314027 -0.12781145 -0.04394887 -0.0115256 0.05537634
-0.1740198 -0.16523916 0.102825224 0.016508508 -0.06695963 -0.04860037 0.13419035 -0.1768444
-0.16077687 0.068091385 -0.19177447 -0.13250872 0.0964645 0.012955163 -0.01795399 0.14206798
-0.06858761 0.041837174 0.11354723 -0.055853054 0.04814747 0.11182563 0.07063602 -0.056942217
0.09520449 0.066611886 0.14523998 -0.04611667 -0.0486401 0.03088488 0.05740693 0.1477734
0.03384136 0.073132865 -0.016539855 0.014154447 0.107268885 0.15503559 0.13917895 0.14249486
-0.0016835054 0.14148074 0.001645985 0.11808342 0.12568568 -0.08209392 -0.06426171 -0.0887857
0.081114255 0.120193094 0.122251146 -0.03222463 0.008903393 0.06423582 -0.038952183 0.041618012
0.08155896 -0.13542752 -0.18427816 0.15161686 -0.12002113 0.0022198027 -0.12375709 0.07528227
0.11929436 -0.115582064 0.12236488 0.117382824 0.009446481 -0.12863737 -0.031135218 -0.020756891
0.009925096 0.13950032 0.1176263 0.12397012 0.14870574 0.0036360286 0.07882272 0.09957966
0.052696172 0.18286002 -0.16185127 -0.027783582 0.1258038 -0.11681804 -0.16458695 0.044166844
0.15306209 0.025777066 -0.1745207 0.087245576 0.18843696 0.066774495 0.054131486 -0.07935592
-0.11575038 0.024611527 0.16916521 0.087106615 0.035516243 0.018240735 0.003833071 -0.101338185
0.0627139 -0.06432316 -0.05367305 -0.02860598 0.15028656 0.16223261 0.15581076 -0.06049385
-0.027419033 0.16205905 -0.18815115 0.16709512 0.040367916 0.07650053 -0.08343925 0.031571157
0.044703852 -0.041463844 -0.016640276 0.11502511 0.16630454 -0.026281597 -0.058126736 0.09578574
0.039641414 -0.100812905 -0.19155882 0.16521563 0.12871747 0.011967521 0.10686183 0.08571541
-0.002221216 0.10801568 -0.0021740834 -0.060241465 0.17346811 -0.13447577 -0.02861861 -0.14370722
-0.09760433 -0.031717516 0.006285584 0.11593583 -0.039220586 0.14732833 0.017955301 0.050277732
-0.09029315 0.113504596 -0.1610337 0.01613353 -0.13305889 -0.06540138 -0.17862108 0.10517034
-0.069882356 -0.022137439 0.023658333 0.044846177 0.15097249 0.030337878 0.17090793 0.05567341
-0.1270567 -0.091208756 -0.047892258 0.06754075 0.0047849626 0.13047166 -0.028327575 0.14942048
-0.17147785 0.1787306 -0.0068869935 -0.038405646 0.080397055 0.0372242 0.1248076 0.10008041
0.10351829 0.123520486 -0.04562289 0.15318346 0.05326494 0.1386664 0.1529065 0.11484397
0.050672088 0.06510456 0.06416697 0.08605687 0.03172018 0.081755064 0.11639346 -0.013200938
-0.092001356 0.09200104 -0.016386341 -0.1324998 0.025962425 0.15090777 -0.10949045 0.11643229
0.13095422 -0.10497273 0.028463563 -0.13710597 0.15823212 -0.13850306 0.02788912 -0.15560824
0.14774483 -0.11922521 0.056784064 -0.1445579 0.016888399 0.09123 0.02114557 -0.1565221
00000000: 4738 1abe 9df1 9fbd 61f5 c7bd aa59 a73d
00000010: be3c 253d 6622 383d 5cb4 58bd 9e2f 0a3e
00000020: 6b2c 30be 2224 52bd 456b 6a3d 9e0e e9bd
00000030: 8f70 0e3d 5a9e 1d3e 93cb e2bd 4cbc 893a
00000040: 78c8 0ebe f996 3b3e 987f a2bd 679e 163e
00000050: fb68 cabd 796a 09be 1e17 60bd 60d3 a2bc
00000060: 2aca 44be c4f5 0e3e ab06 c4bd 53c0 be3d
00000070: 01e1 02be bb03 34bd dfd5 3cbc 4dd2 623d
00000080: 3f32 32be 7434 29be 0896 d23d da3c 873c
00000090: 2122 89bd 2e11 47bd 3269 093e b316 35be
000000a0: b1a2 24be 7f73 8b3d 8760 44be 5eb0 07be
000000b0: 2e8f c53d e441 543c 3f14 93bc 457a 113e
000000c0: a977 8cbd 755d 2b3d 738b e83d 2cc6 64bd
000000d0: 4836 453d d604 e53d 9ea9 903d 3e3c 69bd
000000e0: 92fa c23d d06b 883d cab9 143e d5e4 3cbd
000000f0: d73a 47bd 4a02 fd3c 8723 6b3d e951 173e
00000100: 3d9d 0a3d afc6 953d 977e 87bc 0ee8 673c
00000110: caaf db3d a6c1 1e3e ed84 0e3e 2cea 113e
00000120: 11a9 dcba 54e0 103e 17be d73a b8d5 f13d
00000130: bfb3 003e db20 a8bd a59b 83bd 47d5 b5bd
00000140: 3b1f a63d cc27 f63d cf5e fa3d f9fd 03bd
00000150: 89df 113c 128e 833d 538c 1fbd a677 2a3d
00000160: 6208 a73d 83ad 0abe 6ab3 3cbe 7341 1b3e
00000170: a3cd f5bd 1c7a 113b 5b74 fdbd 972d 9a3d
00000180: 9a50 f43d 4ab6 ecbd 709a fa3d 6866 f03d
00000190: 6ac5 1a3c 84b9 03be 490f ffbc 5b0a aabc
000001a0: df9c 223c 2cd9 0e3e 0fe6 f03d 0ce4 fd3d
000001b0: 5146 183e 704a 6e3b ce6d a13d 6cf0 cb3d
000001c0: f1d7 573d a83f 3b3e 57bc 25be 659a e3bc
000001d0: b6d2 003e 4c3e efbd 7b89 28be 4be8 343d
000001e0: 4fbc 1c3e 6d2a d33c 8eb5 32be cfad b23d
000001f0: 9ef5 403e 11c1 883d fab8 5d3d 5b85 a2bd
00000200: 890e edbd 1d9e c93c a539 2d3e f464 b23d
00000210: 7b79 113d 986d 953c 4334 7b3b 658a cfbd
00000220: 2570 803d dcbb 83bd 46d8 5bbd 1757 eabc
00000230: b8e4 193e 4e20 263e db8c 1f3e 66c8 77bd
00000240: e19d e0bc cff2 253e b2aa 40be fc1a 2b3e
00000250: d458 253d 4fac 9c3d 33e2 aabd c250 013d
00000260: 631b 373d fed5 29bd 3051 88bc 4992 eb3d
00000270: bd4b 2a3e 814c d7bc 4d16 6ebd 502b c43d
00000280: 095f 223d ff76 cebd ff27 44be 492e 293e
00000290: 83ce 033e 6c13 443c 60da da3d 908b af3d
000002a0: d291 11bb 5337 dd3d 117b 0ebb c1bf 76bd
000002b0: a0a1 313e 04b4 09be 9371 eabc fc27 13be
000002c0: c7e4 c7bd 3aea 01bd 4df7 cd3b c46f ed3d
000002d0: c4a5 20bd 3ddd 163e ff16 933c 06f0 4d3d
000002e0: 9deb b8bd 1975 e83d 05e6 24be 772a 843c
000002f0: 9740 08be 29f1 85bd 72e8 36be 8c63 d73d
00000300: 7b1e 8fbd 9359 b5bc 1fcf c13c a0b0 373d
00000310: 8898 1a3e 2487 f83c 7d02 2f3e cd09 643d
00000320: 271b 02be a8cb babd ac2a 44bd ce52 8a3d
00000330: 2dcb 9c3b 5d9a 053e 3b0f e8bc af01 193e
00000340: e497 2fbe 2805 373e 4aac e1bb 3d4f 1dbd
00000350: 36a7 a43d 6778 183d 219b ff3d f5f6 cc3d
00000360: 6601 d43d 4ff8 fc3d 11df 3abd 20dc 1c3e
00000370: 562c 5a3d 91fe 0d3e 8693 1c3e 5133 eb3d
00000380: 898d 4f3d 8a55 853d f969 833d 963e b03d
00000390: 05ed 013d 336f a73d b25f ee3d bf48 58bc
000003a0: 356b bcbd 0b6b bc3d a63c 86bc 07ae 07be
000003b0: 27af d43c 9187 1a3e 873c e0bd 0d74 ee3d
000003c0: dd18 063e f1fb d6bd 6b2c e93c 8265 0cbe
000003d0: 9a07 223e bfd3 0dbe b977 e43c c457 1fbe
000003e0: 6c4a 173e 592c f4bd 6896 683d fc06 14be
000003f0: 8a59 8a3c cbd6 ba3d 7939 ad3c 5447 20be

encoder.2.0.bias f4 [8]
-0.051960237 -0.029710697 0.09543822 0.022665067 0.058146168 -0.1380719 0.14582697 -0.021238828
00000000: 42d4 54bd d963 f3bc 1d75 c33d 17ac b93c
00000010: ad2a 6e3d b862 0dbe aa53 153e 0dfd adbc

encoder.2.1.weight f4 [8]
1.029148 0.94377506 0.9765717 0.9734827 0.9894057 0.9826422 0.96456575 0.96709865
00000000: 1fbb 833f 3e9b 713f 9a00 7a3f 2a36 793f
00000010: b149 7d3f 708e 7b3f c8ed 763f c793 773f

encoder.2.1.bias f4 [8]
0.056520693 -0.06493713 -0.006535263 -0.02135504 0.031348646 0.0056260154 -0.036552176 -0.03728681
00000000: 3e82 673d c2fd 84bd c225 d6bb c4f0 aebc
00000010: 7067 003d 705a b83b bcb7 15bd 0eba 18bd

encoder.2.1.running_mean f4 [8]
-0.33319625 0.031120563 0.47713816 0.46872026 0.41604945 -0.18245737 0.8329181 0.08639507
00000000: b398 aabe 8df0 fe3c 744b f43e 1afc ef3e
00000010: 6f04 d53e 1bd6 3abe 1f3a 553f e6ef b03d

encoder.2.1.running_var f4 [8]
0.24210562 0.16724966 0.44757828 0.23863438 0.36374986 0.29040232 0.33418027 0.23494598
00000000: 89ea 773e 7f43 2b3e fb28 e53e 925c 743e
00000010: 6c3d ba3e 9daf 943e ad19 ab3e ae95 703e

mu.weight f4 [5, 8]
0.25156087 0.12929922 0.14076938 -0.15848875 0.025471795 0.20883091 -0.074325405 0.21459161
0.028030917 0.05400331 -0.08892328 -0.45329323 -0.34922156 -0.0088344645 0.14437756 0.1563931
0.34647512 0.0889736 0.34554377 -0.20137443 0.18599376 -0.16476957 -0.15138327 -0.11241849
0.13931152 0.053130098 -0.03953111 -0.2944885 0.21538866 -0.20208932 0.07576603 0.28384835
-0.16555823 0.27264366 0.3329807 -0.06460675 0.010335157 0.102044314 0.11299988 -0.129376
00000000: 96cc 803e 0467 043e d925 103e e04a 22be
00000010: 3aaa d03c c5d7 553e eb37 98bd e7bd 5b3e
00000020: 18a1 e53c 9332 5d3d 691d b6bd 0d16 e8be
00000030: 2bcd b2be 6ebe 10bc b6d7 133e 8325 203e
00000040: 3065 b13e ca37 b63d 1deb b03e 1935 4ebe
00000050: 2675 3e3e 5bb9 28be 3704 1bbe aa3b e6bd
00000060: aea7 0e3e f29e 593d 60eb 21bd 32c7 96be
00000070: d88e 5c3e 81f0 4ebe 382b 9b3d 9254 913e
00000080: 1988 29be f397 8b3e 727c aa3e 8b50 84bd
00000090: ca54 293c 9cfc d03d 7b6c e73d 247b 04be

mu.bias f4 [5]
-0.30858785 0.2587491 -0.17914157 -0.11829711 -0.15118952
00000000: 3aff 9dbe c37a 843e e370 37be c145 f2bd
00000010: 6dd1 1abe

sigma.weight f4 [5, 8]
-0.12011099 -0.13292712 0.30649236 -0.1004579 0.11582501 0.20196182 0.24666366 -0.32055834
0.08755035 -0.04084852 0.04256154 0.15112725 0.16168351 -0.15668215 -0.2869636 0.13543214
-0.10932874 0.08473618 -0.24868359 -0.03071991 -0.079687476 -0.07585762 -0.04204519 0.116449684
-0.29577994 0.022030175 0.17962894 -0.015851298 0.005682022 -0.42298728 0.22148976 0.0024824236
-0.2758438 -0.28390363 -0.17553157 -0.16465004 -0.019221636 -0.31436244 0.2898241 0.26062238
00000000: c0fc f5bd 0c1e 08be 91ec 9c3e dfbc cdbd
00000010: aa35 ed3d 14cf 4e3e 6695 7c3e 3920 a4be
00000020: 994d b33d c750 27bd 0255 2e3d 1ac1 1a3e
00000030: 5d90 253e 4971 20be e5ec 92be b9ae 0a3e
00000040: bfe7 dfbd 2a8a ad3d e9a6 7ebe 52a8 fbbc
00000050: 3033 a3bd 3d5b 9bbd 9437 2cbd 2c7d ee3d
00000060: 7870 97be a078 b43c a6f0 373e 95da 81bc
00000070: 4130 ba3b ca91 d8be 36ce 623e 28b0 223b
00000080: 663b 8dbe d15b 91be 8cbe 33be 059a 28be
00000090: b176 9dbc 1df4 a0be d363 943e 4c70 853e

sigma.bias f4 [5]
-0.13760038 -0.10790432 0.22111194 0.15537642 0.25998068
00000000: 1de7 0cbe f1fc dcbd 2b6b 623e ff1a 1f3e
00000010: 301c 853e

decoder.0.0.weight f4 [8, 5]
0.11319803 -0.5011463 0.07081746 -0.21813162 -0.18933001 -0.3010249 0.15288658 0.42354527
0.24168631 0.33387956 0.15392005 -0.37798047 0.26614824 -0.14532076 0.30750042 -0.18746734
-0.40546644 0.364906 0.19431844 0.04278257 0.22244316 0.27128357 -0.13715684 -0.005080059
-0.015479929 0.44757843 0.07890685 0.102862634 -0.036667787 0.42504913 0.33910614 0.11926743
-0.219878 -0.15793498 -0.13747941 0.091790944 -0.35407645 0.076532274 -0.1189392 -0.029122377
00000000: 5ed4 e73d 204b 00bf bf08 913d e55d 5fbe
00000010: badf 41be f01f 9abe 4d8e 1c3e edda d83e
00000020: 9e7c 773e 43f2 aa3e 389d 1d3e a886 c1be
00000030: 9544 883e f7ce 14be b270 9d3e 70f7 3fbe
00000040: 4c99 cfbe f6d4 ba3e 6afb 463e c73c 2f3d
00000050: 24c8 633e aee5 8a3e d872 0cbe a076 a6bb
00000060: 879f 7dbc 0029 e53e ea99 a13d a5a9 d23d
00000070: f630 16bd 0aa0 d93e 529f ad3e 7b42 f43d
00000080: b327 61be b5b9 21be 67c7 0cbe e4fc bb3d
00000090: 8249 b5be f4bc 9c3d 6596 f3bd 0d92 eebc

decoder.0.0.bias f4 [8]
0.43305263 -0.4019828 0.22973274 0.12388263 0.0923251 0.25249866 0.049781445 -0.07835004
00000000: 13b9 dd3e b1d0 cdbe 0f3f 6b3e 2db6 fd3d
00000010: f114 bd3d 8147 813e a1e7 4b3d fc75 a0bd

decoder.0.1.weight f4 [8]
1.0364919 1.0121922 0.9863094 0.9448932 1.0079039 0.9976943 0.9421327 1.0462002
00000000: c4ab 843f 848f 813f c67e 7c3f 85e4 713f
00000010: ff02 813f e568 7f3f 9c2f 713f e3e9 853f

decoder.0.1.bias f4 [8]
-0.018972106 0.0029903774 -0.046934653 -0.053235464 -0.027954169 -0.013814005 -0.05949048 0.019922497
00000000: 646b 9bbc 35fa 433b 8d3e 40bd 6e0d 5abd
00000010: 2400 e5bc 2354 62bc 4aac 73bd 8134 a33c

decoder.0.1.running_mean f4 [8]
0.44204098 -0.41014966 0.24374099 0.11399903 0.09359925 0.2614345 0.0569956 -0.07373132
00000000: 3253 e23e 23ff d1be 3d97 793e 5378 e93d
00000010: f7b0 bf3d beda 853e 3874 693d 7200 97bd

decoder.0.1.running_var f4 [8]
0.36338148 0.4605892 0.3393228 0.3854322 0.15051237 0.42009848 0.22154842 0.15562879
00000000: 230d ba3e 59d2 eb3e b8bb ad3e 5f57 c53e
00000010: ea1f 1a3e 2617 d73e 97dd 623e 275d 1f3e

decoder.1.0.weight f4 [32, 8]
-0.02455506 0.032120153 -0.29939327 -0.13847885 0.06985379 0.13443318 -0.15955833 -0.010842014
-0.12708016 -0.15041642 -0.34739286 0.22377637 0.0021542835 -0.36560103 0.025828522 -0.20770398
-0.17775597 0.26582208 -0.22997767 -0.122550055 0.34953493 0.25707605 0.12289078 -0.0052602347
-0.122937486 0.21177138 0.1373222 0.29344127 0.18440919 -0.123456694 0.1251593 0.305325
0.10056367 -0.03555345 0.065207474 0.046996422 0.032955773 -0.08359918 0.14857936 0.3001219
-0.073537745 -0.03457032 0.07577715 -0.025510449 -0.20351942 -0.34141257 -0.32891208 0.27255386
-0.25505707 -0.09393065 0.3483698 -0.032403678 0.20658085 0.20909566 -0.10837825 0.15354225
0.10709172 -0.23271951 0.28673896 -0.23650077 -0.067141145 0.10884816 0.23610717 -0.07510467
-0.071013935 0.32432133 0.0974353 0.12509446 0.025266597 0.28206375 0.24164963 -0.26325077
-0.14196159 0.14434834 -0.3351308 0.13620837 -0.33173883 -0.27125195 0.1734401 0.0051607653
0.1583502 0.21739158 -0.14433035 -0.2920799 0.3150055 0.17774233 -0.30458185 -0.34475744
0.33571497 -0.062477257 -0.2588858 -0.20052512 -0.3008115 -0.16435443 0.16381873 -0.19075048
0.19997647 0.23848727 0.2081588 -0.27401856 0.25471702 0.33208087 0.25886893 0.24208593
-0.3280196 0.079641014 0.1537691 -0.1641023 0.2649413 0.0326153 -0.20251782 -0.2402234
-0.0580544 0.15948485 0.1766281 0.23270431 -0.039841503 -0.060906634 0.24196093 -0.34805343
-0.20692444 0.005010996 -0.11754517 -0.25156313 -0.08635081 0.2137829 0.06536829 0.34532246
0.11016157 -0.031922303 0.35821214 -0.17133008 0.06221472 -0.25571358 -0.12881032 0.07739889
-0.18284948 -0.0043150056 0.0055224276 -0.3509801 -0.223967 0.35580647 0.15367487 -0.15802461
-0.21916924 0.34305236 0.015336716 0.16921467 0.17879938 -0.12169766 -0.23891474 -0.30933037
-0.094815455 -0.22419648 0.23691761 0.12951456 0.38057062 -0.30394447 0.3208631 -0.23075125
-0.18837282 0.27759683 -0.23105046 -0.3687076 0.17123179 -0.2010804 0.11343487 0.09915152
-0.117544584 -0.33287176 0.02165433 0.010714801 -0.020483313 -0.08147149 -0.08059209 0.066929795
0.1745034 0.2967554 0.21812427 0.2641946 -0.27267334 -0.1003937 0.1363599 0.17595172
-0.28742892 -0.22906235 0.08085681 0.2009914 0.27991468 0.1832476 0.2363385 -0.26224905
0.31976753 -0.11302214 0.09455715 0.21776552 0.3406851 -0.050493475 0.34970117 -0.08514426
0.23546834 0.13316864 -0.1510657 -0.06801596 -0.2896975 0.067896955 0.13667978 0.3935913
0.2304884 -0.34729618 -0.021855937 0.29256558 -0.31580654 -0.18515807 -0.31576392 0.034890678
0.35059667 0.32492965 0.17850131 -0.21115151 0.014524634 0.14166398 0.30305713 0.2569666
-0.28751037 -0.1901749 -0.3130526 -0.23983157 -0.38821667 -0.067746215 -0.10752249 0.32762262
0.14039066 -0.095686726 0.26739165 0.2661049 -0.0113420375 -0.10035801 -0.018923739 0.16002373
0.077126764 -0.0034342518 0.2156053 0.21436614 -0.28961834 0.19264549 0.06123332 0.2718789
0.2790897 -0.13851228 -0.164826 0.25179586 -0.116881885 0.31935865 0.16560689 0.26487145
00000000: b127 c9bc 6c90 033d 134a 99be 66cd 0dbe
00000010: 810f 8f3d daa8 093e 4263 23be b4a2 31bc
00000020: 4d21 02be c306 1abe 7add b1be a225 653e
00000030: e12e 0d3b 0f30 bbbe 5696 d33c 5ab0 54be
00000040: a905 36be d519 883e 447f 6bbe 86fb fabd
00000050: 3ef6 b23e 799f 833e 29ae fb3d 0c5e acbb
00000060: a6c6 fbbd 99da 583e 319e 0c3e ef3d 963e
00000070: c3d5 3c3e ddd6 fcbd c229 003e 8f53 9c3e
00000080: 53f4 cd3d 7fa0 11bd 7f8b 853d 527f 403d
00000090: a2fc 063d 0c36 abbd 3025 183e 94a9 993e
000000a0: f59a 96bd 9c99 0dbd 0d31 9b3d 4afb d0bc
000000b0: 6567 50be a1cd aebe 2a67 a8be 2e8c 8b3e
000000c0: d796 82be b65e c0bd 875d b23e b8b9 04bd
000000d0: ee89 533e 2c1d 563e 6af5 ddbd 2e3a 1d3e
000000e0: e752 db3d 064e 6ebe 73cf 923e 422d 72be
000000f0: 4c81 89bd c9eb de3d 14c6 713e 7ad0 99bd
00000100: c16f 91bd 720d a63e 298c c73d c318 003e
00000110: e5fb ce3c a96a 903e 0073 773e cec8 86be
00000120: 615e 11be 0dd0 133e 4496 abbe 357a 0b3e
00000130: acd9 a9be 89e1 8abe 489a 313e a31b a93b
00000140: 8e26 223e e69b 5e3e 56cb 13be 7f8b 95be
00000150: 6748 a13e 1602 363e 27f2 9bbe 0c84 b0be
00000160: d5e2 ab3e 27e8 7fbd ae8c 84be 7556 4dbe
00000170: f703 9abe 874c 28be 19c0 273e 1854 43be
00000180: a2c6 4c3e 0236 743e 9527 553e 294c 8cbe
00000190: 456a 823e 8106 aa3e 788a 843e 60e5 773e
000001a0: 2ff2 a7be d41a a33d a675 1d3e 6f0a 28be
000001b0: 63a6 873e 9f97 053d d560 4fbe 1ffd 75be
000001c0: 73ca 6dbd ff4f 233e ffdd 343e 0a4a 6e3e
000001d0: d830 23bd 3c79 79bd 9bc4 773e 0f34 b2be
000001e0: 00e4 53be 4833 a43b 86bb f0bd e2cc 80be
000001f0: b2d8 b0bd e8e9 5a3e cfdf 853d 1bce b03e
00000200: 649c e13d f6c0 02bd 9567 b73e 2771 2fbe
00000210: ddd4 7e3d e4ec 82be dae6 03be 4f83 9e3d
00000220: e53c 3bbe e464 8dbb 7bf5 b43b aab3 b3be
00000230: 9b57 65be 442c b63e f25c 1d3e 34d1 21be
00000240: e76d 60be 8fa4 af3e d946 7b3c 9c46 2d3e
00000250: 2f17 373e 9f3c f9bd 11a6 74be 8d60 9ebe
00000260: 9b2e c2bd c393 65be 889a 723e 779f 043e
00000270: 27da c23e 9c9e 9bbe 2b48 a43e 0e4a 6cbe
00000280: cee4 40be 2c21 8e3e 7e98 6cbe 3ec7 bcbe
00000290: 6357 2f3e 05e8 4dbe 8b50 e83d f40f cb3d
000002a0: 37bb f0bd 2b6e aabe 6c64 b13c 228d 2f3c
000002b0: 9fcc a7bc 86da a6bd 770d a5bd 7d12 893d
000002c0: 05b1 323e 53f0 973e f85b 5f3e 8444 873e
000002d0: d79b 8bbe 369b cdbd eea1 0b3e b02c 343e
000002e0: e229 93be 528f 6abe 4198 a53d b1d0 4d3e
000002f0: fa50 8f3e 42a5 3b3e b802 723e 8245 86be
00000300: 92b8 a33e 2778 e7bd 2ea7 c13d edfd 5e3e
00000310: 476e ae3e 3fd2 4ebd 080c b33e 1d60 aebd
00000320: 9d1e 713e 5c5d 083e f8b0 1abe f44b 8bbd
00000330: 3b53 94be 8f0d 8b3d c9f5 0b3e cd84 c93e
00000340: 2705 6c3e ced0 b1be 390b b3bc 28cb 953e
00000350: 65b1 a1be 149a 3dbe cfab a1be 87e9 0e3d
00000360: 6881 b33e 2e5d a63e 0cc9 363e 1a38 58be
00000370: bbf8 6d3c 5d10 113e 4e2a 9b3e 2091 833e
00000380: 8f34 93be 36bd 42be 6e48 a0be 6896 75be
00000390: 56c4 c6be 87be 8abd c034 dcbd 27be a73e
000003a0: 92c2 0f3e 67f7 c3bd 8fe7 883e e73e 883e
000003b0: f4d3 39bc 8088 cdbd f505 9bbc 43dd 233e
000003c0: a3f4 9d3d 2f11 61bb a3c7 5c3e cc82 5b3e
000003d0: db48 94be dc44 453e cacf 7a3d b633 8b3e
000003e0: d8e4 8e3e 2ad6 0dbe 26c8 28be 63eb 803e
000003f0: c55f efbd fa82 a33e da94 293e 3b9d 873e
