experiments/data/vae/037_UCR_Anomaly_DISTORTEDLab2Cmac011215EPG1_5000_17210_17260.txt-.ckpt (torch, 91435 bytes, 102 tensors)

encoder.0.0.weight f4 [32, 34]
00000000: 8fd3 123e 9a18 56bd 321c f5bc 96b8 783d
00000010: 1cea 08bd cddc c43d 2c84 86bc 007e f03d
00000020: 9ede 0f3e 46b0 dc3d 580b 30be abff f13d
00000030: ec3c 23be b089 efbd 6e37 673d cb25 bcbd
00000040: 38f0 f03c efbc cfbd bbfd 20bd d8ab c7bd
00000050: 4b7e 18be 2d9b 83bd 99a6 9e3d 7fdf 613c
00000060: cfd1 cdbd 2aff e3bc 7172 1ebc 54b0 1dbe
00000070: 659c 1bbe 06ec 21bd 7c6c 553d 0763 11bd
00000080: f978 45bd 02dc d0bd 5780 bebc d6e3 81bd
00000090: f49f 123e 21aa 64bd b767 eebd 5a61 173e
000000a0: 5364 cf3d 35ec 74bd 3341 bbbd 90ff 183e
000000b0: 9d75 d3bd 1109 f5bd 1f2c 853c 42d4 debd
000000c0: babb b6bd c85e cabd c573 d33d 695c a43d
000000d0: ceea 1abe a982 523d 7d16 bbbd 0dea 253e
000000e0: 83a2 f1bd 3066 49bc dc7f b7bd cb42 23be
000000f0: 6f0b 6a3d 0478 18be 837d 89bd f84a fe3c
00000100: 473e 01be 9def 063e ce97 3b3e 5c9b d8bd
00000110: 62c1 083e 126c f83d 824a 1ebe 2c7c cbbd
00000120: 3a25 f0bd ac1b 10ba 3586 943d 0d88 1abe
00000130: b431 1d3e 8227 14be d6d0 4dbd 7c46 273e
00000140: f279 1c3e f65e 14bd 4d59 c23c 93a3 a2bd
00000150: cbc9 e03d 6d6e e4bd 03ed 5dbd 8ac3 7ebd
00000160: 7446 73bd d4ed 55bd 2cad 26bd b97a f23b
00000170: 0e38 2d3d 064f 18ba 637d 3fbd f542 2cbd
00000180: 511c ccbc 81e7 f53d 91b1 34be 56dc ce3d
00000190: 5deb d6bd b10d f03b 803f b8bd 8e16 01be
000001a0: 9131 9fbb e923 09be b604 013d ebab 10bd
000001b0: d81e e43d 0463 02be bbd2 cbbd 201f 12be
000001c0: f118 3fbd d8cc 003e 1f8d f83d 3da9 02be
000001d0: 82be 073e f331 343e 201f bbbd f9b5 06bc
000001e0: 4228 073e 814e 5c3d a416 aa3d a15a 983a
000001f0: 5861 bbbd 7a79 10bd 8d4f dbbd e137 0e3e
00000200: 30f6 34bc aca4 273d 7373 b8bd c922 62bd
00000210: a0a0 fabd 163c 98bd c7ef aebc 7c49 983c
00000220: 4b9a 213e ed54 c63b 73b0 273d 7457 a6bd
00000230: d259 903d e2f2 97bd 076c 22bd d173 1abd
00000240: 4558 273e da21 15bd 7bd5 19be 9d47 67bd
00000250: c568 3bbd efbb df3c 757d 183d cd45 c0bd
00000260: 5603 a6bd feae a3bc d9e6 15be cf74 4ebd
00000270: f95e a53d 7d65 84bd a731 d83d 3ede 803d
00000280: 16cb 87bc 7069 a8bd 0230 e6bd 6ee1 d8bd
00000290: f88a f33d 2fa9 e2bd c006 033e 986e ccbd
000002a0: d455 e2bd 44f0 0cbe 85f3 8fbd cd2d 4bbd
000002b0: 5556 053d bb42 c2bc d6ac 113e f20e 2b3d
000002c0: 0d71 a43c 5272 38bd b6ce 08bd 6fc9 883d
000002d0: c242 73bc f1d9 9ebc 3415 203e c12c e73d
000002e0: dab3 3abd 4a10 183d 5e45 dc3d 96cf 1f3e
000002f0: 19a8 adbd 5fc9 063e f814 eebd a360 123d
00000300: 2e86 a2bd 0337 763b c0ec 0e3e 0279 443c
00000310: 1a60 0cbe bbe7 663b b3c6 aa3d 5b57 9a3d
00000320: 26a3 833d 2bc1 9ebd 9d74 08be 2fda 0abe
00000330: f945 b23d 753e 7f3d a3e9 9ebc 0903 e7bd
00000340: a784 2abe ffb9 97bc 269b a73d a0c3 243d
00000350: 6c8e 083e cc82 89bc cd71 8abc 3897 a73d
00000360: 4aa9 93bb 765d 993d fe41 f8bd a7f9 d6ba
00000370: ad03 523d 3582 1d3d 1bc9 37bd a5a7 bdbb
00000380: 16c6 d13c b462 6bbd 8067 18be dc84 b63d
00000390: 3ce9 edbd 6e1f a23d b79b 17be 91c3 383c
000003a0: 902f 293d eef9 cc3d 717d 5cbd 4db2 33bd
000003b0: f400 9ebc 9a2e 13be 3987 dfbd 2036 05bc
000003c0: a617 a0bd 18ba 563d fbaa c13a 034f c23c
000003d0: 2420 bc3d bc51 22be ba42 ba3b 026a d33d
000003e0: 3c37 15be 04c2 603d d5c2 93bd 2e0d 32be
000003f0: 2cb0 55bd 9c9f adbd 293c 82bd 9507 463c
0.14338516 -0.052269556 -0.029920671 0.06072291 -0.03342639 0.09612427 -0.016420446 0.117427826
0.14049765 0.10775809 -0.17191827 0.11816343 -0.15941209 -0.11696184 0.056449346 -0.09186896
0.02941142 -0.10143458 -0.039304476 -0.097495735 -0.14891927 -0.06426082 0.0774662 0.013786196
-0.100497834 -0.027831633 -0.00967084 -0.15399295 -0.15196379 -0.03953173 0.052105412 -0.03549483
-0.04821107 -0.10198213 -0.023254557 -0.063422844 0.1431883 -0.05582631 -0.11640876 0.1478323
0.10126557 -0.059795577 -0.09143295 0.1494124 -0.10325167 -0.1196462 0.01625639 -0.10880329
-0.08922525 -0.09881359 0.10324816 0.08025438 -0.15128633 0.05139414 -0.09135149 0.16202565
-0.11798575 -0.01229243 -0.08959934 -0.15943448 0.05713981 -0.14889532 -0.067133926 0.031041607
-0.12621413 0.13177343 0.18319628 -0.105765074 0.1335502 0.12129988 -0.1545811 -0.09935793
-0.117258504 -0.00054972875 0.072521605 -0.15090962 0.15350991 -0.14468196 -0.05024799 0.16335481
0.15280893 -0.036223374 0.023724223 -0.079413556 0.10975989 -0.111538745 -0.05418111 -0.0621982
-0.05939336 -0.052228764 -0.040692493 0.0073998836 0.042289786 -0.0005810115 -0.046750437 -0.042056043
-0.024915846 0.120070465 -0.17645861 0.101006195 -0.10494111 0.007325851 -0.08996487 -0.1260626
-0.0048582037 -0.13392605 0.031498633 -0.035320204 0.111386955 -0.12733084 -0.09952303 -0.14269686
-0.046654645 0.12578142 0.12136292 -0.12759872 0.13256267 0.17597179 -0.09136796 -0.008222097
0.13198951 0.053785805 0.083050996 0.0011623689 -0.09149426 -0.0352721 -0.107085325 0.13888504
-0.011045024 0.040928528 -0.09006395 -0.055208955 -0.12237668 -0.074333355 -0.02135457 0.018589728
0.15781514 0.0060526044 0.04093976 -0.08122149 0.07048382 -0.07419373 -0.039653804 -0.037708107
0.16342266 -0.036409236 -0.15022843 -0.05646478 -0.045754213 0.027311293 0.03722902 -0.093883134
-0.08106105 -0.019980904 -0.14638843 -0.050404366 0.08074755 -0.0646467 0.105563454 0.06292389
-0.016576331 -0.082232356 -0.112396255 -0.10589872 0.118917406 -0.110674255 0.12795544 -0.099820316
-0.11051527 -0.13763529 -0.070288695 -0.049604226 0.032553036 -0.02371346 0.14226088 0.0417623
0.020073438 -0.0450309 -0.03340026 0.066790454 -0.014847459 -0.019391032 0.15633088 0.11287833
-0.045581676 0.03712491 0.10755418 0.15606532 -0.08479328 0.13162754 -0.11625093 0.03573669
-0.07935749 0.003756941 0.139575 0.011991741 -0.13708535 0.0035233337 0.0833868 0.07536193
0.064276025 -0.077516876 -0.13325734 -0.13559793 0.087047525 0.062315423 -0.019398516 -0.11279876
-0.16652165 -0.018521307 0.08183889 0.040225625 0.1333558 -0.016786002 -0.016899968 0.081831396
-0.004506265 0.074885294 -0.12121962 -0.0016401306 0.051273037 0.038454253 -0.044869523 -0.005787807
0.02560715 -0.057467178 -0.14883232 0.0891206 -0.116167516 0.07916151 -0.14805494 0.011277095
0.041305125 0.10008608 -0.053830568 -0.043871213 -0.019287564 -0.14373246 -0.109144635 -0.00813058
-0.078170106 0.052423567 0.0014775688 0.023719316 0.09185818 -0.15851492 0.005684224 0.10322954
-0.14571851 0.054872528 -0.07214896 -0.1738784 -0.052169964 -0.08477709 -0.06359131 0.012086769

encoder.0.0.bias f4 [32]
00000000: e14c 96bc fa14 92bd 7193 e9bd 49a1 203c
00000010: 3fa7 183e 720a 543d 8b00 25be 4c74 2bbe
00000020: 9527 0b3e beef e73d 1e87 2f3e 7950 b73d
00000030: d286 f63d 7b63 a83d a2f0 653c c3f1 bd3d
00000040: 300c 763d bd3c d13c 16ee dfbd 11b5 e63a
00000050: 92e6 e53d 0d31 76bd c284 003d 5d3e 9c3d
00000060: 468c 69bd e3f7 f4bc 1cd7 143e f4a7 da3d
00000070: 3644 ecbd a8ac 7e3d 1dc5 0f3e 7e17 f6bd
-0.018347206 -0.07132907 -0.11405075 0.009804078 0.1490755 0.051767774 -0.16113488 -0.16743582
0.13589318 0.11325024 0.17141387 0.08950896 0.12037434 0.082220994 0.014034422 0.09274628
0.060070217 0.025541658 -0.10934083 0.0017601569 0.112256184 -0.060105372 0.031376608 0.07629082
-0.05701854 -0.029903358 0.14535183 0.10676566 -0.11536448 0.062176377 0.14040036 -0.120161995

encoder.0.1.weight f4 [32]
00000000: 7831 7b3f 2063 803f 2b83 763f 03b5 793f
00000010: ae11 7d3f 6a74 793f e871 7e3f 11ef 773f
00000020: c921 853f b8ad 7a3f 38d8 7d3f 6ab9 823f
00000030: c64b 763f ce08 773f 4168 793f 0447 833f
00000040: ca1d 843f 2307 823f 794b 873f 1ea3 7a3f
00000050: c8e8 7b3f 722b 853f e3f7 803f e23b 813f
00000060: 69cb 803f b634 7b3f e2f5 773f 2b74 7f3f
00000070: 4cc1 7e3f aa4c 793f 6626 7b3f 0015 843f
0.9812236 1.003025 0.96293896 0.97541827 0.988551 0.9744326 0.9939256 0.9684916
1.0400935 0.97921324 0.9915805 1.0212834 0.9620937 0.9649781 0.97424704 1.0256047
1.0321591 1.0158428 1.0569907 0.9790515 0.9840207 1.0403883 1.0075649 1.00964
1.0062076 0.98127306 0.9685956 0.99786633 0.995137 0.97382605 0.98105466 1.0318909

encoder.0.1.bias f4 [32]
00000000: d227 0e3c e53c 9f3c 7417 71bc c7ca 87bc
00000010: 2ea2 a93c 1041 febc 1e48 45bc f399 87bc
00000020: 731d 313d c815 2abc dc19 0b3c 8361 6bbb
00000030: b59c 6dbc 4788 4fba 0487 4fbc a8b2 ad3c
00000040: 00d2 8d3c dc2d af3c 57fe 7a3c 880f 833c
00000050: 7fb2 0dbc 6543 1b3d 0f9f 33bc 14b7 143d
00000060: b7b6 64bc e126 cfba e662 97bc 75b6 193c
00000070: ce56 d03c 72bb b83a 9aec 9bbb b051 4b3c
0.008676486 0.019438216 -0.014715064 -0.016576184 0.020707216 -0.031036884 -0.01204112 -0.0165529
0.043240976 -0.01038117 0.008490052 -0.0035916276 -0.014502694 -0.000791673 -0.012666468 0.021203354
0.01731205 0.021384172 0.015319428 0.015998617 -0.008648514 0.03790607 -0.0109632155 0.03630741
-0.013959578 -0.0015804433 -0.018479776 0.00938188 0.025432017 0.0014093949 -0.0047584297 0.012409613

encoder.0.1.running_mean f4 [32]
00000000: aa07 00bf ca95 efbe 8fc1 b9be a0e3 91be
00000010: 4dba a2be 9373 8c3e e17c a6be 24be 09be
00000020: 08d2 d5be c538 ed3e ad69 c33e 0606 e4bd
00000030: dce7 263e dcbb dd3e c52b 2b3e b943 173f
00000040: e950 cebe c419 7dbd e305 c6be 47b2 84bd
00000050: 4ef4 4b3e ef58 7fbe 3394 ff3e 5270 7fbe
00000060: 8985 813e e9a5 0abf 5d5e 013f 7731 b4be
00000070: 2334 5abe c90f ea3e 0984 2abd 94a6 fcbd
-0.50011694 -0.46793967 -0.36280486 -0.28493977 -0.3178276 0.27431926 -0.3251715 -0.13451439
-0.41761804 0.46332374 0.38166562 -0.111339614 0.16299385 0.43307388 0.16715916 0.5908771
-0.40296105 -0.06179215 -0.38676366 -0.06479316 0.19917414 -0.24936269 0.49917755 -0.2494519
0.25297192 -0.5415941 0.5053461 -0.3519399 -0.21308951 0.45715168 -0.041629825 -0.1233646

encoder.0.1.running_var f4 [32]
00000000: b63b 083b 53b3 c03a eec2 ba3a 4932 073b
00000010: ee8a bb3a aa4e e03a ae45 9e3a 0b81 2c3b
00000020: 6328 4c3b 5505 cd3a a69d 493b 99b1 ef3a
00000030: 3f92 183b 2fe4 043b 8b98 203b 4765 2f3b
00000040: 6912 a93a e3e4 213b 98dd 473b e096 f83a
00000050: 2345 7b3a bc7c 4d3b 8644 e33a 1b66 e03a
00000060: dcc4 c13a 3013 c43a 1196 303b 5788 293b
00000070: b0d1 de3a 9ae5 cf3a ff8d 193b 1719 8e3b
0.0020787544 0.001470188 0.0014248767 0.0020629338 0.0014308372 0.0017113287 0.001207521 0.0026322033
0.0031152002 0.0015641848 0.0030764132 0.0018287181 0.002328053 0.002027761 0.0024504985 0.0026763247
0.0012899163 0.0024703078 0.003049707 0.0018965863 0.00095851923 0.0031354865 0.0017339147 0.0017120274
0.00147834 0.0014959332 0.0026944915 0.0025868618 0.0016999748 0.0015861273 0.0023430584 0.004336487

encoder.1.0.weight f4 [16, 32]
00000000: 2c5e 5abd 4975 8d3d 66b0 efbb d613 b23d
00000010: 1413 343d 2caa d1bd 43f1 2d3d 4233 bc3d
00000020: 4d37 da3d 534e 0bbc 5b49 8d3d 39ef 3b3e
00000030: c448 8ebd df92 ad3d 7a8c e2ba 2aab a5bd
00000040: 187b f63d aa3f 323e 51c8 d3bd f8f4 0abe
00000050: cfe8 233d 8ed2 163b e474 90bc 0d26 3bbe
00000060: b5d1 0d3d bda9 633d e9b4 c5bd d4ae 2a3e
00000070: 3f96 18be 9f33 34be 0714 89bd 9d01 0a3e
00000080: a3d6 01be 3278 2dbe ff31 c1bc 4571 003e
00000090: eea8 1f3d e8c3 a73d 776f 173e c558 a2bc
000000a0: e2db ce3d 9f02 b4b9 926e f8bd 86a5 8a3d
000000b0: 27f6 783d ed31 793d 7a6b cd3d ea3b 9cbd
000000c0: f068 25be cf32 b13d 8129 69bd 72fb dbbc
000000d0: 4601 663d 2a7a b6bd 3eb9 07be a276 133d
000000e0: 2994 54be bbe5 053e efda d9bc 7404 26be
000000f0: b448 adbc 56dd 8eba 988d 743d 8c26 32be
00000100: bdb7 303e 3330 34be 524e c13c 280f a23d
00000110: a42c 1f3e 73d0 283e 358e c33c 0651 b3bd
00000120: 6541 dc3d 79d3 bb3d 68f8 adbc e2da e63d
00000130: b947 17be 7d3a b3bd 957b 6bbd 9da9 bdbd
00000140: 8c72 24bd ccb0 05be b231 393d 9953 1bbe
00000150: 457f c73d 6f11 b83d 0001 e13d 6352 cebc
00000160: b233 f0bc da8e b23d cf51 18be 0a98 b5bc
00000170: 4740 10be 0802 153e c6ea 043e c7d3 39bd
00000180: 84a3 a8bd dd05 be3b 1d7b bbbb 4984 223e
00000190: 72ed 55bd 3a35 b4bd 4864 433d 539e 0abd
000001a0: 2c98 6d3d b67b 52bd bdb7 5ebd d3bd 913d
000001b0: a950 293d 3f4d 20be a3d0 d2bd 532f 8c3d
000001c0: aab2 1bbe 1e02 9ebd 5acd 073e f027 aab8
000001d0: d7e8 4abc 3848 72bc a023 853c 655f 29be
000001e0: 5eb4 f4bb 9d26 283d d5d8 b9bd 948b 853a
000001f0: 4c55 a93d 237d 9fbd e5ae 5ebc 8dfc f6bc
00000200: 5f44 04be f32a 9fbd 29d6 36bc 289f 35be
00000210: 9198 4d3d 7e09 023e 276b 203e e5df 333d
00000220: d45a 3e3e 9f20 52bd 8ccd 863d d088 20bd
00000230: 2f54 afbc 5ad5 be3d 944f 59bd d32c b7bd
00000240: cebc 2c3e 4949 42bc 9e03 013d 2d8c c53d
00000250: bafd 3a3c a019 173d b242 f4bd 3a53 32bd
00000260: c35d ad3c 0367 3a3e 8b9b b33d 35fb 143d
00000270: 0541 e7bd f81b 34be 72b4 81bd f488 dbbd
00000280: 9621 713d 6dc4 d43d aca3 0dbe ee09 d13d
00000290: 3629 bdbb e026 143e b74b db3d a7ce d83d
000002a0: e79c c3bd f5f8 e9bd 664c b43d a6bf 24bd
000002b0: 19fe 003e e2d5 5ebd 35e7 74bc a533 51be
000002c0: 0f2a 683c c8db 043d 0ca3 2abe c0db 7f3c
000002d0: 2769 d0bd 02ad ebbd 8e66 04be 7692 83bc
000002e0: a111 1b3e eb12 6a3c 4706 ab3c 889d 5b3b
000002f0: b217 293e 2d8b 5c3d 8c11 7e3c 8dd1 bcbd
00000300: 4359 d13d 85d8 023e 9ff1 9fbc e81e 13be
00000310: 4724 1bbe 42bd 33bd 2a9f 4e3d 575c 29bd
00000320: f3ed 3b3e 01c2 033e dfd4 24be b9b5 15be
00000330: d6cd 32be 4e3c f8bd d009 5e3d 06f4 923d
00000340: 09b7 b8bd 3d52 b53d 85a3 013e 278a df3d
00000350: ecdb 0e3e 087d 773c f793 713d 8ec3 44be
00000360: 5f6a a1bd edc9 6c3d 777d 63bc c64b 2ebe
00000370: e520 ae3d 5dbb 35bc 2f0b 6dbd 9c93 04bd
00000380: b065 99bd 9dd7 c5bd c116 c1bd d4d8 0b3e
00000390: e235 e9bd 8a3d 163e 8135 d53c 7c2e 873d
000003a0: cc33 2b3d 5f8c 21be f147 303d 7128 f1bb
000003b0: c9fa e43d 11d5 333d f471 97bd 8d44 1d3d
000003c0: 728b 913d 268d 63bd 0e0b de3d 4601 2ebe
000003d0: cff8 23bd f80c a03d ca34 c23d 5b38 823d
000003e0: b7f5 2b3e 288c 0bbd 692e 12bd 8c3d 243d
000003f0: b841 e73d 583d 03be 9cfb eabd 7d68 8c3d
-0.053312466 0.06907136 -0.0073147295 0.0869519 0.043963507 -0.10237536 0.042466413 0.09189464
0.10655079 -0.008502561 0.06898757 0.18352975 -0.06947473 0.08475279 -0.0017284297 -0.080892876
0.12035197 0.17407098 -0.10340942 -0.1357001 0.040016945 0.0023013684 -0.017633863 -0.18276234
0.03462382 0.055581797 -0.096536465 0.16668254 -0.14901064 -0.17597817 -0.06693273 0.13477178
-0.12679534 -0.16940382 -0.02358341 0.12543209 0.038979463 0.08191663 0.14788614 -0.01981772
0.10100533 -0.00034334228 -0.121304646 0.06769852 0.060781624 0.06083863 0.10030265 -0.07628615
-0.16153312 0.08652269 -0.056924347 -0.026853297 0.05615356 -0.0891002 -0.13254258 0.03600181
-0.20759644 0.13075916 -0.026593653 -0.16212636 -0.021152832 -0.0010899703 0.059705347 -0.17397517
0.1725759 -0.17596512 0.023596916 0.07913047 0.15544373 0.16485767 0.02387152 -0.08755688
0.107546605 0.091711946 -0.021236613 0.11272217 -0.14773454 -0.0875139 -0.057490904 -0.09260867
-0.040148303 -0.13055724 0.04521341 -0.15168609 0.097410716 0.089877 0.10986519 -0.02518577
-0.029321525 0.08718653 -0.14874958 -0.022167224 -0.1408702 0.14551556 0.12980184 -0.045367982
-0.08234313 0.005799039 -0.0057214634 0.15870775 -0.0522284 -0.08799215 0.047703058 -0.033842396
0.05800645 -0.05138751 -0.054374445 0.07116284 0.04133669 -0.15654467 -0.102937005 0.06844964
-0.15204874 -0.077152476 0.13261929 -8.1136706e-05 -0.012384615 -0.014787726 0.016252339 -0.16540296
-0.0074677905 0.04105245 -0.090745606 0.0010188692 0.08268222 -0.0778754 -0.013591503 -0.030149722
-0.12916707 -0.07771864 -0.011159458 -0.17736495 0.050194327 0.12698933 0.15665875 0.043914694
0.18589336 -0.05130064 0.06582174 -0.039192975 -0.021402447 0.09318037 -0.053054407 -0.089440964
0.16868898 -0.011858293 0.03149759 0.09645877 0.011413032 0.036889672 -0.119267836 -0.043536402
0.021162873 0.18203358 0.08769902 0.036372382 -0.11291698 -0.17588794 -0.06333245 -0.10719481
0.05886992 0.10389028 -0.13831967 0.10206972 -0.005772735 0.14467955 0.10707801 0.10586291
-0.09551411 -0.11424438 0.08803634 -0.040221833 0.1259693 -0.054403193 -0.014947702 -0.20429857
0.014170184 0.032436162 -0.1666376 0.015616357 -0.10176306 -0.11507608 -0.12929747 -0.016061049
0.15143444 0.014286737 0.020877017 0.0033510644 0.16512945 0.053843666 0.015507113 -0.09219656
0.102221034 0.12777908 -0.019524394 -0.14367259 -0.15150557 -0.043881662 0.05044476 -0.041347828
0.18352489 0.12866975 -0.16096829 -0.14620103 -0.17461333 -0.12120877 0.054208577 0.0717545
-0.09019286 0.08853576 0.12660034 0.10915022 0.13951081 0.015105493 0.058979 -0.19215223
-0.07881617 0.05780976 -0.013884894 -0.17021093 0.08502368 -0.011092034 -0.057871994 -0.032367334
-0.074900985 -0.096602656 -0.09428168 0.13656932 -0.113872305 0.14671913 0.02602649 0.06600663
0.041797444 -0.15776204 0.04303736 -0.0073595573 0.11180646 0.043904368 -0.07394782 0.038395453
0.07106675 -0.05555453 0.10841952 -0.16992673 -0.040032204 0.078149736 0.09482725 0.06358405
0.16792952 -0.03406921 -0.03568879 0.04009776 0.11291832 -0.1281637 -0.11473772 0.06855867

encoder.1.0.bias f4 [16]
00000000: 6ce2 2e3d beb7 0f3e d255 d1bb ea1e 90bd
00000010: a117 f93d 5478 c23c f749 27bd ea21 243e
00000020: 28a0 183e bd2f 2d3e 2378 633d 3ee8 1c3e
00000030: 238d c8bd 9ee6 28be 760c dc3d 9a1c 163e
0.0426964 0.14034936 -0.0063884044 -0.070371464 0.1216271 0.023739018 -0.040842023 0.16028562
0.14904845 0.16912742 0.055534493 0.15322968 -0.09792545 -0.16494223 0.10744564 0.14659348

encoder.1.1.weight f4 [16]
00000000: 7ceb 813f a75b 7a3f ecaf 743f 8689 853f
00000010: f75f 6f3f f2e8 763f 37ae 7a3f 7807 893f
00000020: ec07 803f ca3f 853f 9541 783f a2d4 723f
00000030: c663 763f 69fc 843f 9107 803f f909 813f
1.0149989 0.977961 0.95580935 1.0432594 0.93505806 0.96449196 0.9792208 1.0705404
1.0002418 1.0410092 0.9697507 0.948557 0.9624599 1.038953 1.0002309 1.0081168

encoder.1.1.bias f4 [16]
00000000: e747 5cbc d71c bb3a 0249 5a3c f0a0 eabc
00000010: d6a9 40bd 19e2 843c 0976 edbc 47b3 b6bc
00000020: a449 01bd 4397 933c 77bc 4a3c a1c4 1cbd
00000030: eae0 1d3c a097 093d e5dd 5dbb 93c6 033c
-0.013444877 0.0014275563 0.0133230705 -0.028641194 -0.04703697 0.016221093 -0.028986948 -0.022302283
-0.03156437 0.018016463 0.012374035 -0.038273457 0.009636143 0.033591866 -0.0033854183 0.008042949

encoder.1.1.running_mean f4 [16]
00000000: 8cb0 183e 6099 89bd 709b ae3d 7bfc 93be
00000010: fa9a 293e 2816 c93c d902 11be 7291 8b3e
00000020: 2da0 243f bad3 bc3e a74c dfbe a904 043f
00000030: 172b 4bbe 72be 87be 4da5 60bb d484 733e
0.14911097 -0.06718707 0.08525741 -0.28903565 0.16563025 0.024546698 -0.14161243 0.27259403
0.6430691 0.36880285 -0.4361317 0.5156961 -0.19840656 -0.26512486 -0.0034278214 0.23781139

encoder.1.1.running_var f4 [16]
00000000: a28f 953e 861e 373e 1c1d 163e c302 063e
00000010: 1a4d 393e be22 163e 0842 fc3d ae66 4f3e
00000020: 0151 af3e 8230 883e a87a 363e b07c 783e
00000030: 9b76 2b3e ad53 123e ad9e 403e 931e 143e
0.29211146 0.17882738 0.14659542 0.13086991 0.18095818 0.1466169 0.12317282 0.20254013
0.3424149 0.2659951 0.17820227 0.24266315 0.16744463 0.14289732 0.1881053 0.14464788

encoder.2.0.weight f4 [8, 16]
00000000: 3c34 253e 0678 1b3e 8b5e 0d3e 81c1 51be
00000010: 833e 3fbe 2308 0f3e aab7 cb3d 7fb7 4cbe
00000020: 84fd 273e 9bd1 85be d5ea 443d 00e9 40be
00000030: 4864 1abe 982c 47bd 9d21 e23c 9375 d0bc
00000040: 3a1c 003e 0bc7 c5bb 1bec 54be 56b8 1f3e
00000050: e9e5 183e 533c 9b3d 28df fabd 265b dd3c
00000060: eab3 933d 54e4 babd 77f2 debd 9a37 943d
00000070: b3c0 5f3b f343 1c3e ee91 6abe 1884 15be
00000080: 076c ef3d 2516 583d 2d38 323d ca08 8fbe
00000090: a778 81bd 094d 383d 7298 95bd 812a 8fbe
000000a0: 6dde dcbd efdc ca3c a409 4a3e b62e 19be
000000b0: edaa 32bc f8d1 653d 32a9 0dbc 29ce 493d
000000c0: 122d 513e 8c8f acbd 7e3b 9bbe 8d08 493e
000000d0: f585 81bd 9469 4f3e 926b 253e 3465 5ebe
000000e0: 6a7e fb3d 6e09 06bc 8ff3 99be 0c58 363e
000000f0: 3972 4dbd bbd1 ee3d de86 553d c7bc 3d3e
00000100: 5768 363e 1ef1 e5bb 3e95 1a3e 94af cd3d
00000110: c78a 3a3d b24c 673e 731b e9bd 5a3e 3f3a
00000120: d34e 42be 828b 953c a985 123e 6df9 18be
00000130: 3e43 f1bd 9650 5b3d 4bd0 ecbd 3693 4d3e
00000140: a51b 3abe 39e8 413d 1735 27be 5e48 45bc
00000150: 34ba 0a3e 7b4d 04be b3d0 b6bd 2d20 5bbe
00000160: 57dd 69be e0d0 8bbe 533b 27be 667c 2f3d
00000170: f384 0b3e 191e 2d3e 0b8e 4cbd 8bb2 f33d
00000180: 5dae 9dbe ac2a cd3d b370 233e 8530 17be
00000190: 59e9 f2bd 3cb7 c63d 997f 8b3d 9ddb 9bbc
000001a0: 2f82 56bd af60 003e d0e9 2abc d964 b8bd
000001b0: 4a2d 25be 0d89 0dbe eaa9 6bbd d9f9 68be
000001c0: d104 093e c409 7ebb 9e7a 013e 6ac0 e3bd
000001d0: 8d94 08bd 1130 153e 91ed 89be 1293 2a3e
000001e0: 271d 9a3d 2e53 b0bd fc0c b73d 0ac5 8abd
000001f0: 188f 5ebd b36c 86be 8841 88bc 24e0 1a3e
0.16133207 0.15182504 0.13805597 -0.20483972 -0.1867619 0.13967948 0.099471405 -0.19991873
0.16405302 -0.2613648 0.048075516 -0.18838882 -0.15077317 -0.048626512 0.027603919 -0.025446689
0.12510768 -0.0060356907 -0.20793192 0.15597662 0.14931454 0.07579865 -0.12249595 0.027021002
0.0721205 -0.091255814 -0.1088609 0.07237168 0.0034141957 0.15260296 -0.2290723 -0.14601171
0.116905265 0.052755494 0.043510605 -0.27936393 -0.06321841 0.04499534 -0.07304467 -0.27962115
-0.10784612 0.024763552 0.1973024 -0.14959225 -0.01090501 0.056108445 -0.008646296 0.049268875
0.20427349 -0.08425817 -0.30318826 0.19632168 -0.063243784 0.20255119 0.16154316 -0.21718293
0.12279971 -0.008180959 -0.30068633 0.17807025 -0.05015776 0.11661097 0.052130572 0.18529044
0.1781324 -0.007017269 0.15095994 0.100432545 0.045542505 0.2258785 -0.11382189 0.0007295363
-0.18975382 0.018255 0.143088 -0.14938898 -0.117804036 0.05354365 -0.11563166 0.20075688
-0.18174608 0.047340605 -0.16328846 -0.012041179 0.13547593 -0.12920181 -0.08926525 -0.21398993
-0.2283834 -0.27307796 -0.16331224 0.042843245 0.13624935 0.16906013 -0.04994015 0.11899289
-0.3079709 0.10017905 0.1596096 -0.14764602 -0.11860914 0.09702918 0.06811447 -0.019025618
-0.052370246 0.12536882 -0.010431722 -0.0900361 -0.16130558 -0.13821812 -0.05753509 -0.2275156
0.13380744 -0.0038763145 0.12644431 -0.111206844 -0.033344794 0.14569117 -0.2693906 0.16657665
0.075250916 -0.08609615 0.089380234 -0.067758635 -0.054335684 -0.26254806 -0.01663281 0.15124565

encoder.2.0.bias f4 [8]
00000000: e0ee 24bd e972 57be d7a2 82bd 22e1 7b3d
00000010: 134e 393e 2526 413e caaf b8bd ce75 d638
-0.04026687 -0.21039928 -0.063787155 0.061494 0.18096189 0.18862207 -0.09017904 0.00010226258

encoder.2.1.weight f4 [8]
00000000: ccfd 6d3f 2034 673f 76fc 703f 6eab 6b3f
00000010: 7f96 683f e8fb 673f d0b5 6d3f e730 653f
0.9296539 0.9031391 0.94135225 0.92058456 0.9085464 0.90618753 0.9285555 0.89527744

encoder.2.1.bias f4 [8]
00000000: 84c5 c03c 2a1a a4bd ae62 2cbd 2122 463d
00000010: 7688 98bd 0eec e7bd e5ee 8abd a30e d5bd
0.023531683 -0.08012803 -0.042086296 0.04837239 -0.07447903 -0.11324321 -0.06783847 -0.10403182

encoder.2.1.running_mean f4 [8]
00000000: b7d8 1dbe 11d4 89be 190c 33be b94c 4a3e
00000010: 5aa0 b73e 6781 00be 7d03 b9be 0f0f 8fbb
-0.15414701 -0.26919606 -0.17485084 0.1975583 0.35864526 -0.12549363 -0.36135474 -0.004365809

encoder.2.1.running_var f4 [8]
00000000: 1d41 923e 90f5 213e 7bb4 d53e 059f 713e
00000010: fb54 e43d 067e b83e 55cd 883e 9063 d83d
0.28565302 0.15816331 0.41739258 0.23595817 0.11149021 0.36033648 0.26719156 0.10565865

mu.weight f4 [5, 8]
00000000: f203 0fbe c561 dc3c e9c0 983e b740 a53d
00000010: 5748 66be 12ab e63d 4888 19be 84c1 2f3e
00000020: 4967 e9bd b6c1 3cbe d2e2 6fbd 66f7 6c3e
00000030: 526c 0e3b d7ae 72be 9bf1 ab3d 5c65 76be
00000040: 8abb 23be 9c36 3b3e a421 6e3e 93ae 0a3e
00000050: c426 3dbe 0305 40bd f36a 913e 5a8d 3b3e
00000060: cc9c 67bd 2375 56be 995e 993b 3157 5f3e
00000070: 4eb8 833d 7517 ddbd b345 063e ea9a 3ebe
00000080: 9a7e 80be e204 4a3e b7c7 4d3e 7ae5 c3bd
00000090: 6c62 83bd a127 243b 5857 df3d 9469 d4bd
-0.13966349 0.026902089 0.2983468 0.08068984 -0.22488533 0.11263098 -0.14993393 0.17163664
-0.11396653 -0.1843327 -0.058565922 0.2314125 0.0021732044 -0.23699509 0.08395692 -0.24062103
-0.15989509 0.1828255 0.2325502 0.13543157 -0.18471819 -0.04687978 0.28401908 0.1831564
-0.056546018 -0.20943122 0.0046804664 0.21810605 0.06431638 -0.1079549 0.13112526 -0.18613783
-0.2509659 0.19728425 0.20095716 -0.095652536 -0.06415257 0.0025048035 0.109053314 -0.103717

mu.bias f4 [5]
00000000: c740 d1bc 2419 d33d 743b 48be cfc1 463b
00000010: 5a1a 823c
-0.025543584 0.103075296 -0.1955393 0.0030327921 0.015881706

sigma.weight f4 [5, 8]
00000000: a340 493e b2e5 863d 4e46 7f3e dcdd 483e
00000010: 9070 2abe 5fe1 07be b103 2a3e a14a 37ba
00000020: d69f 8cbd 03b4 333e 41b2 3bbd c1f5 4b3e
00000030: c65a 15be 7f57 0fbe 6a3e ba3e 0f6d 4d3e
00000040: f2c5 723e e748 103d 9498 8b3e 3ed9 8bbd
00000050: e305 843c 5b7d 0bbe dcb8 42be 777f 04be
00000060: 7d00 833e d204 fdba cfa7 18be 2799 bd3d
00000070: caf6 d53c 3404 30be e8a8 83bc 434b d6bd
00000080: b92b ecbc 5e43 20bd 0dc7 b0bc 7e09 103a
00000090: 4c8f 5d3d a4a6 b63d 01e5 573e 8631 7aba
0.19653563 0.0658678 0.24929163 0.19615883 -0.16644502 -0.13269566 0.1660297 -0.00069920166
-0.06866424 0.17549138 -0.045824293 0.19917966 -0.14585409 -0.13998221 0.36375743 0.20061134
0.23708323 0.035225775 0.27264845 -0.06828545 0.016116088 -0.13622038 -0.19015831 -0.12939249
0.2558631 -0.0019303805 -0.14907764 0.09257727 0.026118655 -0.17189103 -0.016071752 -0.10463574
-0.028829442 -0.039126746 -0.02157929 0.00054945785 0.054091737 0.08918503 0.21083452 -0.0009544123

sigma.bias f4 [5]
00000000: 83ba 78be 9c93 53be b051 3fbd 46ea f2bc
00000010: cb2a 9bbd
-0.24289899 -0.20661777 -0.046708763 -0.029652726 -0.075765215

decoder.0.0.weight f4 [8, 5]
00000000: 9fa1 a73d fdd1 e8bd bbfa 1fbe 8066 b9be
00000010: 5c3e 65be 522b 07bc 6812 a53d f9f1 9bbe
00000020: 68a7 893d f4c0 9f3e 7e07 68be c720 e23c
00000030: f4cd eebe 83a4 fabd 1fef d13e 0f58 9d3e
00000040: 5a16 143d a06b b4be acb1 b93e 4996 6d3e
00000050: 6a09 903e 579c b23c 961e 793d 93b2 e23e
00000060: b8ec 2c3d 0b21 84bc 476b 6b3e c41c f73e
00000070: 86a9 873e 0db8 f53d 0426 163e f554 f4bd
00000080: 28ec 15be 2756 bcbe b3a0 60be 7fae 043e
00000090: 9404 513d a791 8bbe 27e3 323e 2827 633e
0.08185124 -0.11368177 -0.1562299 -0.36211014 -0.2238707 -0.008250074 0.08060151 -0.30458048
0.06721383 0.312019 -0.22659108 0.02760352 -0.46641505 -0.12238409 0.41002747 0.30731246
0.03615413 -0.3523836 0.36268365 0.2320186 0.28132182 0.021803064 0.060820185 0.44276866
0.04221794 -0.016129037 0.22990142 0.48264134 0.26496524 0.119979955 0.1466294 -0.11930267
-0.14640868 -0.3678448 -0.21936302 0.1295719 0.051029757 -0.2725956 0.17469464 0.22182906

decoder.0.0.bias f4 [8]
00000000: 507f ca3e eba7 52be 23bd a93e 9fa8 aebd
00000010: a525 88be a3f4 663e d16b 96be 81a9 d63e
0.39550257 -0.20571868 0.33152112 -0.08528256 -0.2659122 0.22554259 -0.29379132 0.41926196

decoder.0.1.weight f4 [8]
00000000: 468e 8f3f 7b86 6f3f 3c72 853f b429 7d3f
00000010: ea99 803f 2a87 7d3f 9416 693f 05e5 713f
1.1215293 0.93564576 1.0425487 0.9889176 1.0046971 0.9903437 0.91050076 0.9449008

decoder.0.1.bias f4 [8]
00000000: 59db e53d 767f 92bd 63a5 e43c 2c07 28bd
00000010: e0d2 cd3d 086b 993c 4776 bdbd 763c b5bb
0.11223478 -0.071532175 0.027910894 -0.041022465 0.10049987 0.018727794 -0.09251075 -0.005530889

decoder.0.1.running_mean f4 [8]
00000000: c10c d23e 8433 52be dcc9 ae3e 1893 b3bd
00000010: 28a0 8dbe 7e0d 503e e07d 8ebe 445b d63e
0.41025355 -0.20527464 0.3413838 -0.0876829 -0.27661252 0.20317647 -0.2783041 0.41866505

decoder.0.1.running_var f4 [8]
00000000: 5b45 683e e22f 503e 3beb e73e 3eac c83e
00000010: 1779 8c3e 2e3b be3e 1855 753e de87 2e3e
0.22682707 0.20330766 0.45296654 0.3919391 0.27436134 0.37154526 0.23958242 0.17044017

decoder.1.0.weight f4 [16, 8]
00000000: efe4 82be f2b8 b33d 9a8c 6dbe 7568 f13d
00000010: 45b4 083e cae0 493e 8b69 85be b8ff acbc
00000020: f372 d43e ebcb f63d fe5c 503d 7da0 493e
00000030: 3e68 6bbe 5a90 c93d ad58 bf3e 10b1 aebe
00000040: c853 28be 3647 eb3d 5556 aa3e f5f6 323d
00000050: 821d 453e 415c 30be adee 1dbe b3d7 6b3d
00000060: a5e2 3cbd 62b5 59be f25e 0e3e e7c1 123e
00000070: f71a 45be e6b2 41be cace 173e 61f4 4a3e
00000080: 0005 9e3d 7c31 213c 3f8e 74be eba5 ba3c
00000090: 0049 61be 1c4a 42be 6ed4 03bb bf6f be3b
000000a0: cd34 1cbe 3057 593e cc85 c3be 1f94 b1be
000000b0: 6ec8 473e 36ad 343e 4bd5 123d 1786 b1bc
000000c0: 1b78 ed3d 0ac0 bbbc d20e 5d3e d30a 21bc
000000d0: cc77 8ebe b8db 2abd ff92 a73c 1b2d e7bd
000000e0: 9537 1abe 8c51 643e 8e66 523e 5d7d 183e
000000f0: 5d94 a93e fa92 8d3e 6704 97bd cbd3 1dbe
00000100: 0efb b6be 82dd 69be f9cd 5bbc 42e6 963e
00000110: 05e2 473d 6b74 043e 3a97 b23d 9ca1 3f3e
00000120: c18b c5be fcdf a23e cd23 873c 1fcf 2e3e
00000130: f9be 7c3e ff3a 99be 6d63 3abe 8745 6ebe
00000140: a393 853e fd43 823e cb34 a7be 8ecf 92be
00000150: 6aac 08bc e3a8 a93c 8145 523e 8185 74be
00000160: 225d a83d 34af 39be 14a2 74be 945b 85be
00000170: ea4a a13e fd91 47be 9f79 a1ba a4b5 183e
00000180: 1b75 93be 5db6 943d e834 b1be 6991 3f3e
00000190: 6b8d 853e c564 37be 33b9 293e 08e1 aabe
000001a0: 1a24 d7bd b6fd aebd 3bfb 083e bc95 1d3e
000001b0: a549 423d a945 b53e 6c21 11be 5907 36be
000001c0: fd5b 113d 5b61 b1be c7a3 acbe b9aa 33be
000001d0: 6224 af3e 5d02 4b3e a6ad 47bd d0db 46be
000001e0: 2db2 a9be 10f8 7ebe 320d 05be c38e e6bd
000001f0: 4d18 683e d0ac 3c3e d6a6 8c3d cb59 ed3c
-0.25565287 0.0877551 -0.23198166 0.11787502 0.13350017 0.19714656 -0.26057085 -0.02111803
0.4149395 0.12050613 0.050869934 0.19690128 -0.22988984 0.09841986 0.37372342 -0.34119463
-0.1643821 0.11488192 0.3326899 0.043692548 0.19249538 -0.17222692 -0.15423079 0.057578754
-0.046114583 -0.21260598 0.13903406 0.1433178 -0.19248568 -0.189159 0.14824978 0.19819786
0.077157974 0.009838458 -0.23882388 0.022784194 -0.22000504 -0.18973583 -0.0020115632 0.005811661
-0.15254517 0.21224666 -0.38188016 -0.3468332 0.19510052 0.176442 0.035847943 -0.021670384
0.11595174 -0.02291872 0.21587685 -0.009829241 -0.27825773 -0.041713446 0.020455835 -0.112879
-0.15060265 0.22296733 0.20546934 0.14891572 0.33121005 0.27651197 -0.073738866 -0.15412824
-0.35738415 -0.22838405 -0.013415807 0.29472548 0.048799533 0.12935035 0.087202504 0.18713993
-0.38583186 0.31811512 0.016496563 0.17071198 0.24682225 -0.29927823 -0.1820199 -0.2326871
0.260892 0.25442496 -0.32657465 -0.28673977 -0.008341888 0.020710414 0.20534326 -0.23879053
0.08220889 -0.18133241 -0.23889953 -0.2604643 0.31502467 -0.19489284 -0.0012319571 0.1491304
-0.28800282 0.072613455 -0.34610677 0.18707813 0.26084456 -0.17909534 0.16574554 -0.3337481
-0.10504933 -0.08544485 0.13377087 0.1538915 0.047433514 0.3540471 -0.14172906 -0.1777624
0.035488117 -0.3464459 -0.33718702 -0.17545594 0.34207445 0.1982512 -0.04874959 -0.1941979
-0.3314375 -0.24899316 -0.12993315 -0.112576984 0.2266552 0.18425298 0.06867759 0.02897348

decoder.1.0.bias f4 [16]
00000000: ac29 363e c494 013e faa9 8fbe b5f8 2dbe
00000010: e1f8 0b3e a902 833e 18e3 32be 8ccd 8cbe
00000020: 08af 8ebe 49b1 b2bd 9951 bcbd bdab 983e
00000030: 9bca 9b3e 322a 033e 62e4 b1be 9361 5fbe
0.17789334 0.12654406 -0.2805937 -0.16989405 0.13669159 0.25587967 -0.17469442 -0.2750057
-0.27867913 -0.08725221 -0.09195251 0.29818526 0.30428013 0.12809065 -0.34744555 -0.21814565

decoder.1.1.weight f4 [16]
00000000: f312 893f e852 813f 25ba 863f 957c 7f3f
00000010: f239 883f f13b 703f 0c1d 833f 9bb3 6c3f
00000020: acdc 843f 5b54 773f 6b2d 853f 5c13 743f
00000030: 0360 723f 4b07 7b3f 4ac3 6e3f bd68 7c3f
1.0708908 1.0103426 1.0525557 0.9979947 1.0642684 0.93841463 1.0243239 0.92461556
1.0379844 0.9661309 1.0404485 0.9534204 0.9467775 0.98058003 0.9326674 0.9859732

decoder.1.1.bias f4 [16]
00000000: f360 053e d7ba 0d3c 7e54 0c3e 649d db3d
00000010: 301e bb3d 8bde d6bc 3dcf d43d 3b61 cfbc
00000020: 81af 083e 4515 423e 41ee 103e 409c 4f3c
00000030: 6c6f 54bd 983c 53bc c05e 4b3d 734e 733d
0.13025264 0.008650503 0.13704106 0.10723379 0.09136617 -0.026229164 0.1039109 -0.025314918
0.133482 0.18953426 0.14153387 0.01267153 -0.051864073 -0.012892865 0.049650908 0.059400987

decoder.1.1.running_mean f4 [16]
00000000: ddc0 8c3d f9dc cc3e dbf1 30be a25b 46be
00000010: 8d4e b5bd b309 f43d c5cb 56be 00c6 4f3d
00000020: 14aa 83be 6b96 82be 982c 12be 8361 4a3e
00000030: 6ad7 a33d 5cf3 583e 7f5d 02bf a001 b7be
0.06872723 0.4001234 -0.1727976 -0.19370893 -0.08852873 0.119159125 -0.2097617 0.050725937
-0.25715697 -0.25505385 -0.14274824 0.1976376 0.08000071 0.21186584 -0.50923914 -0.35743427

decoder.1.1.running_var f4 [16]
00000000: b134 633e 66cb 8d3e 2f6a 203e 63c3 5e3d
00000010: 4f2a 593d 6a92 f83d 5a36 c03d 768f 423e
00000020: 6df6 093e f9d6 473e aab5 453e 9544 9a3d
00000030: d449 d63d e4bb bd3d d23e b33e 3f11 2b3e
0.22188069 0.27694243 0.15665506 0.054385554 0.053018864 0.12137301 0.09385367 0.19000039
0.1347291 0.195156 0.1930758 0.07532612 0.104633 0.09264353 0.35008866 0.16705798

decoder.2.0.weight f4 [32, 16]
00000000: 813e f8bd 768c a1be 6bc4 353e f35e 94be
00000010: 9a55 1d3d 3295 c8bd 6684 393e 6cd1 263e
00000020: 1a42 033e e6eb 583e 5ed8 0ebe a410 f73d
00000030: 0b10 023d 922f c5bd 1fda a33d 9bd2 9a3d
00000040: 741c 97be f8e8 85bd f800 68be 9f28 adbd
00000050: ebfa a43c 841d 083e 0e6e 1d3e 52da c33d
00000060: c1d4 be3d 1861 68be 6351 783e 9f7c 813d
00000070: fae9 9c3c ebc3 b73d 7dec 38be 5936 063c
00000080: 1072 f6bc 47f7 10be 4f32 bdbc c4a3 1cbe
00000090: fe1d a0be 17f9 4bbe 489d 19bd 31e0 f33d
000000a0: 6e07 9c3c bfe8 01be fd24 a8bd 26d8 a1bc
000000b0: d153 c03c f1c6 e5bd d18f 983b cfea fa3d
000000c0: 7b01 fcbd d06c 93be 99eb 263e 7ec8 753d
000000d0: a33a 96be 5c84 763e 2035 1fbb f5a7 0b3e
000000e0: 3b26 063e 6f8e 72bd ee0a b1bd d5fe 42be
000000f0: e354 e1bb d04d 16be c6b3 903c e820 243e
00000100: 45dc 0b3d f593 b7bc d5f4 90bd a923 95be
00000110: d11c 2b3e 718b e63d f9f9 813e 3f2b af3d
00000120: 7406 adbc fc42 f93c b2d4 553e 281f 33bd
00000130: c30c 9dbe 123f 1fbc be5b 573e 6e96 84be
00000140: 1d03 c8bd b3f3 ddbd 8135 793d 742f 433e
00000150: f2bb 5a3e 286c 8bbe 3fa1 513e 3f7f 87bd
00000160: 8698 1abc 3b6e 74be a6e6 623e 1c6b 0b3e
00000170: 7cb6 3a3d 362c 3abe da1b 123e 0db9 b43d
00000180: c720 e33d 5ece 053d 5386 553e bcd7 4cbe
00000190: 6132 8dbe 9bcd b0bd e5be 62bd 2fc2 82bd
000001a0: 6ad9 10bd 635d 213e 224c 27be 9f9c 04be
000001b0: 73b8 bebb 5273 ed3d 5ed4 64be 3657 50bc
000001c0: 7f1a b8bb 39a2 bcbd 1a51 213b bc8d 4d3e
000001d0: 6811 a03d 8a58 42be de1b 163d dcd6 38bd
000001e0: 6e37 0abe eb47 4e3d a37f 193c 8fcb 87bc
000001f0: 18b8 b73d 3447 98be 60c2 81be 7d0e e7bd
00000200: 1443 303b bd01 ba3c 3d79 10bb 7508 94be
00000210: 7193 86bd 33d6 f83d 9b53 95be 16b0 a73d
00000220: 51b0 3d3e c8c6 edbd 7ba7 88be 335f 193e
00000230: b4d4 b5bd 2711 91be 3cc7 c43c 0bae 89bd
00000240: c38a 64be 8486 b73c c007 003e 1590 6e3e
00000250: 918b 343e c7bf f33c 3b0d 44be 6e1d dfbd
00000260: 3904 8ebe 8191 fc3d b33c 093d 2b50 b1be
00000270: 2264 5fbe 63c8 a73d 6bf4 98be 4db2 af3d
00000280: f52f 7dbe 9257 1b3d c4a1 e53c e2a0 1ebe
00000290: 76a1 0d3e 50c7 2b3e 0ff9 523e 4492 33bc
000002a0: c907 8ebe 409f 9fbe 6533 90bd d1b8 40bd
000002b0: f15a 063e 3bbd 0bbe e870 1d3e d213 0d3e
000002c0: 1813 08be 9858 383e b009 f3bd fe26 88bd
000002d0: 2a33 773d e14f 7b3d 2b83 a0bd bd82 56be
000002e0: 3b7b 93be f779 1dbe dadb 5cbe 8a13 913d
000002f0: 0b15 01be fe79 0dbd adf3 003d 6019 cbbd
00000300: 209c c53d a596 a3bc 339c 9fbe 2de6 0d3e
00000310: 8118 753d 7036 c23d f326 63be 770d 263d
00000320: 9cd2 943c fd74 b43d 1581 c13d aa9a efbd
00000330: 82d7 353e 8ebc 18be 2d11 d1bd c7be 023e
00000340: 9fc8 b53d 6792 d73c 9e1c da3d 2846 abbe
00000350: 6234 8abe 058d 4d3d b455 8c3c aa55 26be
00000360: 3f51 e5bd 242c f23d 95a2 243e 2f3e 1dbe
00000370: 4302 c13d c221 fb3d 9d01 0c3d 3484 6a3e
00000380: f4d5 79be 2ba3 bd3d 21df 1b3e d493 b0bc
00000390: 8ad3 0c3e 5cb9 1fbe 0c90 f63d 92b8 86be
000003a0: 44de d23d 508d e63d 32da 5d3d 8f65 ec3d
000003b0: 4a5d f83d a194 18be d276 1f3e 2e40 93be
000003c0: d55b c03d 0f24 583d a58e 6bbe 9f8f 31be
000003d0: 8da6 2d3d 4b9f ea3a b264 d63c bf93 80be
000003e0: f111 9bbd 44a4 a1be 9ca0 9f3d 53c5 aabd
000003f0: 1ff8 343e 7143 513e 5ebe 73be b34f 98be
-0.12121297 -0.31552476 0.17750709 -0.2897869 0.038411714 -0.09794082 0.18116912 0.16290826
0.12818184 0.21183738 -0.13949725 0.12063721 0.03175358 -0.09628214 0.08000588 0.07559701
-0.29513896 -0.06538576 -0.2265662 -0.084550135 0.020139178 0.1329251 0.15374014 0.09563126
0.09317923 -0.22693288 0.24249797 0.06322598 0.019154537 0.08972915 -0.18058963 0.008191668
-0.030083686 -0.14156829 -0.023095278 -0.15296847 -0.31272882 -0.19919239 -0.03750351 0.119079955
0.019046512 -0.12686442 -0.0821018 -0.019756388 0.023477467 -0.11219586 0.004655816 0.122518174
-0.1230497 -0.28793955 0.16300811 0.060005657 -0.2934161 0.24073929 -0.002429314 0.1363829
0.13100521 -0.059217867 -0.08644663 -0.19042523 -0.0068765744 -0.1467812 0.017663848 0.16028178
0.034145612 -0.022409419 -0.07077948 -0.2912877 0.16710211 0.11257065 0.25386027 0.085531704
-0.021121241 0.030427448 0.20881918 -0.043730885 -0.306738 -0.009719627 0.2103109 -0.2589602
-0.09766219 -0.108374976 0.06084204 0.1906107 0.21360758 -0.27230954 0.20471667 -0.06616067
-0.0094357785 -0.23870175 0.22158298 0.13615078 0.045584187 -0.18180928 0.14268437 0.08824358
0.11090236 0.03266751 0.20852022 -0.20004171 -0.275775 -0.08632966 -0.055357832 -0.06384694
-0.035363592 0.1575828 -0.16337636 -0.12950371 -0.005820328 0.11594261 -0.22346637 -0.012716105
-0.005618393 -0.09210629 0.002461499 0.20073599 0.0781582 -0.18979087 0.03664767 -0.04512678
-0.13497707 0.050361555 0.00936881 -0.016576556 0.0897066 -0.29741824 -0.2534361 -0.1128206
0.002689545 0.022705907 -0.002204492 -0.28912702 -0.06571091 0.1215023 -0.29165348 0.081878826
0.1852429 -0.1161018 -0.26690277 0.14977722 -0.088784605 -0.283334 0.024020784 -0.06722649
-0.22318558 0.02240301 0.12502956 0.2329715 0.17631365 0.029754533 -0.19145672 -0.10894285
-0.27737597 0.1233244 0.033505153 -0.34631476 -0.21815541 0.081925176 -0.29873976 0.0857893
-0.24725325 0.03792531 0.028031237 -0.1549106 0.13831124 0.1677525 0.20602821 -0.010960165
-0.27740315 -0.31176186 -0.07041053 -0.047051255 0.13120629 -0.13646404 0.15375102 0.13777092
-0.13288534 0.18002546 -0.11867082 -0.06648062 0.06035153 0.061355475 -0.07837518 -0.2094831
-0.28804955 -0.15378557 -0.21568242 0.07083805 -0.12605684 -0.03454017 0.031482387 -0.09916949
0.09648919 -0.019969294 -0.31173858 0.13857336 0.059837822 0.094830394 -0.22182827 0.040540185
0.018166833 0.08811376 0.094484486 -0.11699422 0.17757991 -0.14915678 -0.10208354 0.12768088
0.08876156 0.026314927 0.106499895 -0.33451962 -0.2699309 0.050183315 0.01713071 -0.16243616
-0.11197137 0.118248254 0.16077645 -0.15355752 0.094242595 0.12262298 0.034181226 0.22901994
-0.24398023 0.092596374 0.15221836 -0.021554865 0.13752571 -0.15598053 0.120391935 -0.2631269
0.102963 0.11257422 0.054163165 0.11542808 0.121271685 -0.14900447 0.1557267 -0.28759903
0.093925156 0.052768763 -0.23003633 -0.17339943 0.042395163 0.0017900256 0.026171062 -0.2511272
-0.075717814 -0.31570637 0.07794306 -0.08338418 0.17672776 0.20435883 -0.23803088 -0.29748306

decoder.2.0.bias f4 [32]
00000000: 7652 743e fbe7 983d c216 6e3e cb74 57be
00000010: 118e b63c e995 15be 32b5 f7bd 06f6 9f3d
00000020: 7f05 b93d da07 6fbe 1256 1f3e c6d8 473e
00000030: 628e 3e3e 8ff1 6e3e d0c6 03be df18 2abe
00000040: a3f4 6d3e 6124 3239 c280 843a 4f8c 203d
00000050: 203c 093c 42cc 343e a92e 78be 3aac c1bd
00000060: 03a2 3f3e 8b53 67be 7430 35bc 4d08 c63d
00000070: 4bc7 70be 504a d5bd ccc8 353e 8497 4d3e
0.23859581 0.07466122 0.23250869 -0.21040647 0.02228454 -0.14607967 -0.12095107 0.07810597
0.090342514 -0.23342839 0.15560177 0.19516286 0.18609002 0.23334335 -0.1286881 -0.1661105
0.23237853 0.00016988955 0.0010109174 0.03919631 0.008376151 0.17656043 -0.2423655 -0.09456678
0.18714146 -0.22590463 -0.011058915 0.09669552 -0.23513524 -0.104145646 0.17752379 0.2007733

decoder.2.1.weight f4 [32]
00000000: 5e08 6f3f 21db 753f 910a 823f 2f30 703f
00000010: bf53 6f3f ae59 6d3f efac 733f 08ee 6e3f
00000020: b16b 8b3f ca60 703f a656 723f f568 7f3f
00000030: 0a9e 6c3f d85e 6c3f ac91 703f 6dfb 773f
00000040: 69dc 723f 7ddf 7d3f a81d 803f b2f5 763f
00000050: d51e 823f 2fe7 653f e1b7 773f 7f32 7b3f
00000060: 3e70 6b3f a9a1 823f 9af1 733f c571 863f
00000070: 0fc7 763f d1f8 6b3f 2abf 843f 7e24 6a3f
0.9337214 0.9603749 1.0159475 0.9382352 0.9348716 0.92714965 0.9518575 0.93331957
1.089224 0.9389769 0.94663465 0.99769527 0.9242865 0.9233222 0.9397228 0.9686802
0.9486757 0.9916914 1.000905 0.9646865 1.0165659 0.89805883 0.9676495 0.98123926
0.91968143 1.0205585 0.9529053 1.050347 0.9639749 0.9217654 1.0370839 0.9146193

decoder.2.1.bias f4 [32]
00000000: 61cb 673c 54f9 a63c fe5f c83d c4ec 16bd
00000010: 94c4 8a3d 4379 8b3d 99a8 4e3b 836b 7fbd
00000020: f16f b33d ee70 26bd 7584 dbbc f9db 023d
00000030: 61df 94bd 40c4 54bd 16ae e9bc f354 413d
00000040: 7f5e c6bc 81e0 c53d f512 183d 5102 833d
00000050: d39f b63d c213 f43c 9ae9 fb3b 353f a53d
00000060: 060e 0d3d dad8 ae3d 8d15 893d 3233 bf3d
00000070: eb98 023c 3cf4 5cb8 a2ad ae3d 7f11 1abd
0.01414761 0.02038256 0.09783934 -0.03684689 0.067757756 0.06810238 0.0031533598 -0.06235839
0.087615855 -0.040635042 -0.026796559 0.031948064 -0.07269169 -0.05194497 -0.028525393 0.047200155
-0.024214981 0.09661961 0.037127454 0.06396926 0.08917203 0.029794578 0.0076877596 0.080686964
0.034437202 0.08537455 0.066935636 0.093359366 0.007971029 -5.267955e-05 0.085292116 -0.03761434

decoder.2.1.running_mean f4 [32]
00000000: 3594 a33e 647b f5bc b482 41be ee1a b0be
00000010: d501 b53d 1d20 1e3d 8c9c babe ca77 27be
00000020: 2cf7 9ebe d74a 03bf d4b0 4dbc d452 a0be
00000030: 9f6d 3b3e 3f26 763e 5efb a1bd 940d 1bbf
00000040: ace3 8bbd d60b 383d c933 cdbd 561f f1be
00000050: 848e 7fbd 20ca af3e df3e f3be ed95 11bf
00000060: f363 fabd 45ba cabe 1e26 17be e8b3 fcbe
00000070: f4b6 0dbf 5e29 563e 90f7 bcbd 63b2 093e
0.3194901 -0.029966064 -0.18897516 -0.34395546 0.0883824 0.038604844 -0.3644756 -0.1635429
-0.31047952 -0.5128607 -0.012554366 -0.31313193 0.18303536 0.24038027 -0.079092726 -0.60567594
-0.06830534 0.044933163 -0.10019643 -0.4709422 -0.062391773 0.34333897 -0.47508904 -0.56869394
-0.12226095 -0.39595237 -0.14760634 -0.49356008 -0.5535729 0.20914218 -0.09226906 0.13446955

decoder.2.1.running_var f4 [32]
00000000: 8fb0 773e 6d4e 203e c0c7 cb3d f2a5 ab3e
00000010: db26 163e 54d8 933e 7a97 613e 8fee a03e
00000020: 70bc 0c3e 6b7f 923e b40b 673e 9056 893e
00000030: 3def 853d 62e2 103e 642e ac3e 66e6 853e
00000040: 7c72 523e 1ee4 223e 2323 0d3e 2e9a 763e
00000050: c7d9 7e3e 92ae 413e 8c5b 553e 16db b63d
00000060: 0d0a 033e 073f 0f3e 18ce 973d 926c 363e
00000070: 2978 773e d096 873e 028a 4e3e a73a 333e
0.24188446 0.15654917 0.09950209 0.33525044 0.1466326 0.28875983 0.2203044 0.31432006
0.13743758 0.28612837 0.22563058 0.26823854 0.06539772 0.14148858 0.33629143 0.26152343
0.20551485 0.15907332 0.13782935 0.24082252 0.24887763 0.1891425 0.20835704 0.08928506
0.12796803 0.13988887 0.07412356 0.17814854 0.24166931 0.26482248 0.20169833 0.17502843

decoder.3.weight f4 [34, 32]
00000000: 301c 8a3b eebc e33d 0315 01bc 761c df3d
00000010: 934f f0bd b268 723d 15f3 223e 8ef7 05be
00000020: 201a 17bd 2921 97bd e7c0 543e 2d44 1f3e
00000030: 3805 673d 6275 513d b67e 0f3e f3a9 4bbd
00000040: 575f eb3c e818 e0bd 9ab8 bf3d 04a3 43bd
00000050: 2205 4b3e 6449 25bd 488e 4ebb b75d 2abc
00000060: 2904 463e 1cc2 423e ddd4 8d3d 7d20 8c3d
00000070: c0f6 493e 6149 4c3d bdc1 053d e502 bfbb
00000080: 2f2e 1b3d 8af6 3abd abbc 02bb 54cd 0dbb
00000090: 686e 963d 9507 d0bd b378 bcbd 0fda 8c3d
000000a0: 88a8 ee3d d851 293d ebb0 023e 9046 3d3e
000000b0: cc4c 123e 66d1 acbd 9561 773d f116 ba3d
000000c0: ad68 c9bd fdce a33d dc83 f83d 8677 133e
000000d0: 9ef2 003e 863f 8f3d f3ff 90bd 8be3 8c3d
000000e0: b23b 483d fb7b ad3d 5351 05be 827a 88bc
000000f0: 5f66 be3b 1090 4fbc 11ef 193d 7384 9ebb
00000100: 7aa2 a13d 024b cebd 3ac7 62bc 3b94 403d
00000110: c9ba 8b3d 78f5 833d 0e1a e5bd 6dc9 95bd
00000120: 0f41 c23d e834 5abd 9cba 773d f1f7 3f3d
00000130: 8985 233e 3aa1 0dbc c2ec a03b cbcf 623d
00000140: ceac adbd febe 22bd 854e ab3c f24e 0d3e
00000150: c829 b3bc d29e d53d 97f5 633e b04e 2c3d
00000160: 301e ae3d b4ad 1f3e 122f a0bd 917e f03d
00000170: 2a1d 29bd 6683 0fbd c77c 23bd 7e17 063e
00000180: 2588 543d 6cf2 943c 8ccd f53d 4f3f 04bd
00000190: a6ab 93bd f652 553c 768e 0b3c ce9d c33d
000001a0: 0738 173d 6623 a03d b55c 353c 2c2d 193e
000001b0: 0a13 9dbd ad94 e33d 8b18 4bbc cc34 a2bc
000001c0: 03ee f33d 3c52 ea3c 98f4 ad3d d232 c03b
000001d0: bd47 0f3b eab8 c13d fe47 c33d ead5 923d
000001e0: f81b f63d aa92 c63c 2a0a 29bd 241a 74bd
000001f0: fee7 36bd b403 a2bc 0cc4 003e 91c6 8cbd
00000200: 5fbd a93d f7c3 f0bd 0ea7 0b3e 58e4 1bbd
00000210: 49b1 7abd 7d32 ca3d c299 f5bc e969 0b3e
00000220: 64af 00bc 616e 8fbd be33 d3bc 3997 3b3e
00000230: b217 213e df1b f23d 38a5 bcbd 9333 b73d
00000240: 3237 273d 477b 3a3d 1b5a 153e b543 1a3d
00000250: 7918 4b3c 00c9 113e 8646 1e3e 7949 803d
00000260: 9569 073d 829b b03d 67fc f2bd 7cd8 6bbd
00000270: a98c 91bd 6360 fdbd a350 1a3e 966e 75bd
00000280: a474 e93b 9ff7 dcbd 237b d3bd 6729 9b3c
00000290: 8231 f83c 3dd3 543d 345e 433e b764 a3bd
000002a0: 0325 663e 4d70 103e 42ab 013e beea 93bb
000002b0: 3104 3fbd 2bb0 7b3d 0377 1a3e 0da8 693d
000002c0: 5df2 603d 0bd6 01bd d641 f03b 01cd 86bd
000002d0: 6750 5c3d 0231 a1bd 9591 fdbc e746 273e
000002e0: a5f1 f23d 3765 803d 77bb 65bd c903 f53d
000002f0: f62d 973d c821 043e a9a9 82bd adc4 003e
00000300: 1b9d 3bbd 05f3 383d cb05 4b3d 1413 153c
00000310: a97f a93d dfdf bbbd 6fab df3d e19b 073d
00000320: b1c1 403e f54c 1a3e 7a9a 0f3e e349 f53d
00000330: a080 7dbd bc6c 463e a07b b9b9 a833 433d
00000340: 4641 9bbd 29a1 343e 425c 823d b165 3e3d
00000350: f4a3 dcbd 3d87 efbd 6ff9 ba3d bebf 583d
00000360: e495 c3bd 15d0 733c 9c12 583e f8df 823d
00000370: b02c 22bc 5fc6 183e dce2 6a3d 4b91 23bd
00000380: 13e9 2b3e afe4 053e 4fcc 74bd 495e 24bd
00000390: 62db 543d bc1e 7c3d e41a d13c 8be3 09bc
000003a0: 5071 343e f5ce b8bd 44be 35bd ed19 42bd
000003b0: 8fdc 303d b617 2f3e 7189 8a3d e24b 2abb
000003c0: 70d7 093e db35 cf3d 2212 ffbd ea5b 5abd
000003d0: 418c 8a3d 04b0 fabd 6c35 8bbd b486 4c3e
000003e0: b0d6 a13d beb0 383c 0e4d 8bbd 73f6 a83b
000003f0: b4f0 043e 7ffb 11be 4e2a 253e c261 b63c
0.004214786 0.1112002 -0.007878545 0.108941 -0.117339276 0.059181876 0.15913041 -0.13082716
-0.03689015 -0.07379372 0.20776711 0.15553351 0.05640146 0.051137336 0.1401318 -0.049722623
0.028731985 -0.109422505 0.09361382 -0.047762886 0.19826177 -0.040353194 -0.0031517912 -0.01039832
0.19337524 0.1901936 0.06925366 0.06842134 0.19723034 0.049874667 0.032655466 -0.0058292025
0.03788584 -0.045645274 -0.001994888 -0.0021637278 0.07345277 -0.10157696 -0.09202709 0.06877529
0.116532385 0.041337818 0.12762801 0.18483949 0.14287108 -0.08438377 0.060395796 0.09086407
-0.098344184 0.07998464 0.12134525 0.14401063 0.12592551 0.06994538 -0.070800684 0.06879338
0.048885055 0.08470913 -0.13019304 -0.016659979 0.0058105434 -0.0126686245 0.037581507 -0.0048375665
0.07892318 -0.100729 -0.013841445 0.047016364 0.06822736 0.06443304 -0.1118661 -0.073138095
0.09485065 -0.05327311 0.0604807 0.046867315 0.15968908 -0.008644396 0.004911036 0.055373948
-0.084802255 -0.039732926 0.020911464 0.13799646 -0.021870509 0.10430683 0.22261654 0.04206723
0.085018516 0.15593606 -0.07821478 0.117428906 -0.04128758 -0.03503742 -0.03991392 0.13094899
0.05188765 0.018182002 0.120020956 -0.03228694 -0.07210474 0.013020268 0.008517852 0.09551583
0.036918666 0.07819252 0.011069466 0.14958638 -0.07669647 0.11112342 -0.012395988 -0.019800566
0.119106315 0.028603666 0.08493918 0.0058654333 0.0021862828 0.09459098 0.09535216 0.07169707
0.12017053 0.024239857 -0.04126946 -0.059595242 -0.04465484 -0.019777156 0.12574786 -0.06873811
0.08288073 -0.11756127 0.13637945 -0.038059562 -0.06120423 0.09872911 -0.029980544 0.1361462
-0.007854316 -0.07003475 -0.025781509 0.18319406 0.15731695 0.11821722 -0.092112005 0.08945384
0.040824123 0.045527723 0.14585154 0.037662227 0.012395971 0.14236832 0.1545659 0.06264014
0.033059675 0.08623411 -0.11864548 -0.057579502 -0.07106907 -0.123719 0.15069823 -0.059919916
0.0071245003 -0.107894175 -0.10326221 0.01894064 0.030297045 0.051959265 0.19078904 -0.07978194
0.22475056 0.1410534 0.12662986 -0.0045140674 -0.046634857 0.061447304 0.15084462 0.05704503
0.054918636 -0.031698268 0.007332067 -0.0658207 0.053787615 -0.078706756 -0.030953208 0.16335641
0.11862496 0.06269305 -0.056086984 0.119636126 0.07381813 0.12903512 -0.06380016 0.12575026
-0.045804124 0.045153636 0.04956607 0.009098787 0.08276302 -0.091735594 0.1092137 0.033107642
0.18823887 0.1506842 0.14023772 0.119769834 -0.061890244 0.19377416 -0.00035378058 0.047656685
-0.07580809 0.17639603 0.06365253 0.0464837 -0.10773459 -0.116957165 0.09129607 0.052917235
-0.09550074 0.014881154 0.21100849 0.06390375 -0.00989835 0.14919423 0.057345256 -0.039933484
0.1678813 0.13075517 -0.059765156 -0.04012898 0.051967032 0.061552748 0.025525518 -0.008416067
0.1762135 -0.09023849 -0.044370905 -0.047388006 0.04317909 0.17098889 0.06764496 -0.002598517
0.13461089 0.10117694 -0.124546304 -0.053310312 0.067650326 -0.122406036 -0.06797299 0.1997326
0.079022765 0.011272607 -0.068018064 0.005156332 0.12982446 -0.14256094 0.16129419 0.022263411

decoder.3.bias f4 [34]
00000000: 1cbf 833c bef2 3a3e 2b43 6b3e 89ab 523e
00000010: 14ba 433e 0c64 dc3d 7f49 9a3c aea3 613e
00000020: eaca 2a3e 826c e03d 188e 843d 6804 b7bc
00000030: ab64 053e 1308 6f3e e962 0f3e c5d2 9abd
00000040: ce8c 063e bd5c 403d 7a3e efbb 2230 18bd
00000050: 75a3 773d e362 493d 9fcc c53d 812a a23d
00000060: 0ece 403e 292c 533e 271f 903d ae1b c1bc
00000070: 9ee5 293d 3989 503e 080f a1bc 2e8a 083d
00000080: a961 5c3e da12 cabd
0.016082339 0.18256661 0.22974841 0.20573248 0.19113952 0.1076127 0.018833874 0.22035095
0.16678968 0.10958196 0.06472415 -0.022340968 0.13026683 0.23342924 0.14002575 -0.07559732
0.1313965 0.046963442 -0.007301149 -0.037155278 0.06045862 0.04916657 0.09658169 0.07918263
0.18828604 0.20622315 0.07037192 -0.023572769 0.041478746 0.20364846 -0.019660488 0.033334903
0.2152163 -0.09866877
