experiments/data/vae/095_UCR_Anomaly_NOISECIMIS44AirTemperature4_4000_5549_5597.txt-.ckpt (torch, 60843 bytes, 102 tensors)

encoder.0.0.weight f4 [16, 24]
000000 c1 e7 5c be a0 2c 2e 3e 3e 9f ee bd 71 20 0f be
       -0.21572782 0.1700921 -0.11651467 -0.13977219
000010 62 19 80 bd 6f a4 75 bd 20 73 f2 3d ea c7 35 be
       -0.062548414 -0.05997127 0.118383646 -0.17752042
000020 5e cf e2 bc 91 f4 57 3e 8a 98 35 3e 04 8c 05 be
       -0.027686771 0.21089388 0.1773397 -0.13041693
000030 01 37 ee bc 2f 74 f4 bc 8a 64 33 3e e3 e0 f6 bd
       -0.029078962 -0.029840557 0.17518821 -0.120546125
000040 c9 99 0b 3e 6f a6 eb bd 88 60 cb 3d 8c 9a de 3d
       0.13632883 -0.11506354 0.09930521 0.10869321
000050 31 ec b0 bd 16 b1 f6 bc ba 3d 2a be 4b ce 2d be
       -0.086388 -0.030113738 -0.1662511 -0.16973226
000060 4d 61 16 3e 70 2e 3d 3e 0e 18 11 3e 06 fa ba bd
       0.14685555 0.18474746 0.14169332 -0.091297194
000070 ad 2f 6b bd 47 ea 0a be 8c 17 00 be d8 9a db 3c
       -0.057418514 -0.13565932 -0.12508982 0.026807234
000080 c8 03 aa bd 85 6e 55 be 0b ac 42 be c1 28 7f 3d
       -0.083015025 -0.20842941 -0.19010942 0.062294725
000090 8b 50 fb bd 5a c2 11 3e 2d 42 35 be 8b 1e 8c 3d
       -0.12271222 0.14234295 -0.17701025 0.06841763
0000a0 13 ea d0 bd a8 c8 ae bc 5d b6 73 3c e5 54 07 3c
       -0.10200896 -0.021335915 0.014875022 0.0082599865
0000b0 86 47 2b be 13 48 1e be 46 8b b5 bc 72 99 a7 bd
       -0.16726503 -0.15457182 -0.022161137 -0.08183564
0000c0 11 e3 86 bd d2 66 54 3e 8d 3f 89 bd 47 9c 0b be
       -0.06586278 0.20742348 -0.067015745 -0.13633834
0000d0 3e 48 fa 3d 79 25 b1 bc 1d 77 72 3d 8b 66 d6 3d
       0.1222081 -0.021624314 0.059195627 0.10468777
0000e0 df df 38 bd c6 29 f4 bd 49 44 86 bd 43 92 0e 3d
       -0.045135375 -0.1192203 -0.06555993 0.034807455
0000f0 6b 42 f4 3d fd 81 35 be 51 c5 5f 3e 82 24 4c 3e
       0.11926731 -0.17725368 0.21852614 0.19935802
000100 90 50 16 be d8 34 84 3d c3 b3 2f 3e d3 1d 22 3e
       -0.1467917 0.06455392 0.17158417 0.1583169
000110 93 bb 5a 3d ba 75 f8 bc 7b 94 5e 3d e5 2f 37 3e
       0.05340154 -0.030329574 0.05434082 0.17889364
000120 7e e7 4a 3c ab e3 b9 3d 90 25 42 be a7 f6 49 be
       0.012384294 0.09076627 -0.18959641 -0.19722997
000130 15 52 d9 bd 47 8b 5e bd 25 50 fe bd 72 97 36 be
       -0.10611359 -0.054332044 -0.1241763 -0.1783121
000140 85 6a 16 3c 72 29 35 3e b4 ef d0 3d 0c 03 35 bd
       0.00918067 0.17691591 0.1020197 -0.04419236
000150 cf ba 90 bd b5 f5 7a 3d 65 d0 88 3d f8 28 08 3d
       -0.07066881 0.06126948 0.06680373 0.033242196
000160 a1 6d 86 bd 70 21 95 3d 89 1f 3a 3e 52 1b e9 bd
       -0.06563879 0.07281768 0.18176092 -0.11382164
000170 fa 70 e8 3a 4d f1 89 3d 8a 73 b7 bd 10 73 98 ba
       0.0017733865 0.067354776 -0.08957584 -0.0011630971
000180 43 65 13 be b4 75 52 bd 8b 25 1f be 1b 3f f8 3d
       -0.14394097 -0.05138178 -0.15541665 0.121214114
000190 a1 99 ba bd 94 7f f3 3d 30 4a aa 3d 40 74 bb bc
       -0.09111334 0.11889568 0.083149314 -0.02288258
0001a0 dc 51 e1 3c ee e6 04 3e 44 a0 f7 bd 0c 90 56 bd
       0.027504854 0.12978718 -0.12091115 -0.052383468
0001b0 7e 39 24 bd f0 3c 86 bd 88 58 16 3d 09 9c 21 3e
       -0.04009389 -0.06554592 0.036705524 0.15782179
0001c0 0c 8b 08 bd 1a f4 6f bc 9d 56 dd bd 55 b2 7f 3b
       -0.03333573 -0.014645601 -0.10807536 0.0039016206
0001d0 23 e4 4b bd 61 45 25 3d 5c 59 2a be b2 41 22 3d
       -0.049778115 0.040349368 -0.1663565 0.039613433
0001e0 35 7d 0c 3e a5 ca b5 3c 33 63 55 be fd b8 7d bd
       0.13719638 0.022191355 -0.20838623 -0.061943997
0001f0 d0 eb a5 3d c9 83 4f be 3f a9 bd bc 4d 53 20 be
       0.08101618 -0.20265116 -0.023151992 -0.15656777
000200 0f d1 2a be 7b 32 12 3e 70 2d 25 bd ca 61 02 3e
       -0.16681312 0.1427707 -0.040326536 0.12732616
000210 0e 11 45 3e b7 51 b4 bd a6 83 2f 3e ed d6 34 be
       0.19244787 -0.08804648 0.17140064 -0.17660113
000220 59 ac 29 be 0f 69 b3 bd 74 b3 f1 3c 9a 30 37 3e
       -0.16569652 -0.08760273 0.029504515 0.17889634
000230 de bf 0f 3e 72 9f 83 3d ba 17 09 bd b2 2d 8a bd
       0.14038035 0.06426896 -0.033469893 -0.06746997
000240 f7 8f 26 bd 55 0d fb 3c ab 0e 07 3e f2 43 b9 3d
       -0.04066464 0.030646006 0.13189189 0.09046163
000250 2b 19 8a 3d ad 49 71 3d 82 98 a3 bc f5 f2 ec 3d
       0.06743082 0.058908153 -0.019970182 0.11569778
000260 d1 a1 3a be e6 37 85 bc ab 65 29 3e ad 14 18 3e
       -0.1822579 -0.016262006 0.1654269 0.14851637
000270 34 9d 58 be df 6e e8 3d 5b a2 9b 3d 65 d4 1b be
       -0.21153718 0.11349272 0.07599326 -0.15217741
000280 57 11 15 3c f0 cb a8 3d 5a 60 35 3d 96 bf 17 3d
       0.009098372 0.08242023 0.04428134 0.037047945
000290 64 e8 88 bd 5a be d3 3d cc 41 50 3e 3a ca 10 be
       -0.0668495 0.10339041 0.203376 -0.14139643
0002a0 38 ea 27 3d 33 f1 df bd 52 96 19 be 22 bf be bc
       0.040994853 -0.10934677 -0.14998749 -0.023284499
0002b0 8d dc 37 3c 34 5a 45 3e 85 b0 4d 3e 4f 8b 33 3e
       0.011222017 0.19272691 0.20086868 0.17533611
0002c0 5b f2 08 3e b4 a3 13 bd 56 57 39 3e 7c 3d e7 bd
       0.13373701 -0.03604479 0.18099722 -0.11291024
0002d0 be 07 e8 bd 53 ef 3b be 70 7d 07 3e 11 eb 8e b9
       -0.11329602 -0.18353014 0.13231444 -0.0002725949
0002e0 6f 89 be 3d 38 7d 14 3e 92 fe 34 bd 61 81 07 be
       0.09303557 0.14500892 -0.04418809 -0.13232948
0002f0 92 47 7e 3d e3 0b c4 3d 41 25 0c be 6f 14 f5 3c
       0.062079974 0.0957258 -0.13686086 0.02991697
000300 af 2e 9a 3c cf b1 39 3d 30 2b 46 be cd f1 9a bd
       0.018821089 0.045335587 -0.19352412 -0.07565651
000310 fb 6d 02 be 7f ce 5c bd 7b db 12 3e 03 f2 10 be
       -0.12737267 -0.053907868 0.14341538 -0.1415482
000320 f6 50 4e 3e fb f6 42 3e 1e f8 2e be e2 db 8a 3d
       0.20148072 0.19039528 -0.17086837 0.067802206
000330 a9 a2 35 3e 56 6f 34 bc f7 7f 91 bd d1 84 30 3e
       0.17737831 -0.011012873 -0.071044855 0.17238165
000340 04 d0 8f bd c1 d6 98 bd d8 05 d9 bd 6c 18 46 bb
       -0.07022098 -0.07462836 -0.10596818 -0.003022696
000350 99 01 4e 3d f9 42 cc 3d 30 3d 39 bc 3a 50 06 3e
       0.050294492 0.099737115 -0.011306092 0.13116542
000360 24 72 5c be d7 80 2e 3c fc 6e 2c be 5c 05 a9 3d
       -0.21527916 0.010650835 -0.16839212 0.08252975
000370 07 88 2a be a7 7f b4 3c 52 4e 18 be d1 5f 47 3e
       -0.16653453 0.022033526 -0.14873627 0.19470145
000380 63 a0 1b 3e 09 45 37 3e 97 ce bc 3d a3 b7 ca bc
       0.15197901 0.17897429 0.092190914 -0.024745768
000390 18 29 3c be f1 07 5b 3d 59 c4 4e 3b 40 c9 24 be
       -0.18375051 0.05347437 0.0031550138 -0.16092396
0003a0 ec 07 30 bd 19 eb 14 3e 19 7e b2 bc 36 37 86 bc
       -0.042976305 0.14542808 -0.021788644 -0.016383749
0003b0 df 54 3c be ef ab 51 bd 61 26 0d 3e 86 89 22 3d
       -0.18391751 -0.05118936 0.13784172 0.039681934
0003c0 05 14 2d bd 4a 47 f6 3d 6e 24 54 3b 93 3a 8d 3d
       -0.04225542 0.12025316 0.0032370347 0.06895938
0003d0 63 e5 5f 3e a9 9c 22 3e ee 1d e6 b9 4d d4 dd bd
       0.21864848 0.15880074 -0.00043891318 -0.10831509
0003e0 3f 14 11 be 52 02 a7 3d b5 48 03 3e 59 b9 f6 3d
       -0.1416788 0.081547394 0.12820704 0.12047071
0003f0 aa 33 35 be a6 ea d8 3d f0 f2 bb 3d 2c 94 8d bd
       -0.1769549 0.10591631 0.09177196 -0.06913027

encoder.0.0.bias f4 [16]
000000 91 c6 ac bd da 53 85 bd 98 91 06 3d 53 d2 22 be
       -0.08436311 -0.06510134 0.032853693 -0.15900545
000010 b7 0c f3 3d 7b 4c 1b 3e ef 91 c5 bb 26 f2 01 3e
       0.118676595 0.15165894 -0.0060293595 0.12690029
000020 55 99 af 3d ef 00 30 3e 8e 28 02 be 36 6a 41 3e
       0.08574168 0.17187856 -0.12710783 0.18888173
000030 47 67 a8 3d 8b 35 1d be 24 bc 9c 3d 7f df 82 3d
       0.082228236 -0.15352456 0.076530725 0.06390285

encoder.0.1.weight f4 [16]
000000 08 94 7b 3f 8a 9d 7a 3f 25 8d 83 3f fa f3 72 3f
       0.9827275 0.97896636 1.0277449 0.9490353
000010 1d 98 80 3f 95 b0 80 3f 90 f8 74 3f 91 12 80 3f
       1.0046421 1.0053889 0.95691776 1.0005666
000020 88 d6 81 3f 79 ae 81 3f ea 17 81 3f f4 a0 78 3f
       1.0143595 1.013137 1.0085423 0.97120595
000030 2f 0a 7d 3f 3d e3 84 3f 7b 33 85 3f be a6 77 3f
       0.98843664 1.0381848 1.0406336 0.96738803

encoder.0.1.bias f4 [16]
000000 86 fc 2e bc 73 f7 e9 bb 5c 4b 4b 3c 0e cc 55 bd
       -0.0106803235 -0.007140094 0.012408104 -0.052196555
000010 34 8a 31 3d 0f fb 59 3d ae da f4 bc ec 1e 8d bb
       0.04334469 0.053217944 -0.02988943 -0.0043066647
000020 9d 22 aa 3a 72 66 a6 3a ea 51 df bc bb 50 5f bd
       0.0012980286 0.0012695326 -0.02726074 -0.05452035
000030 5d ec 66 bb c1 aa b7 3c bf c2 fc 3c ec 03 b4 bc
       -0.0035236098 0.022420289 0.03085458 -0.021974526

encoder.0.1.running_mean f4 [16]
000000 6c 22 87 be 15 14 d8 be 73 04 b9 3e bb b5 97 be
       -0.2639345 -0.4220282 0.36136207 -0.29630837
000010 52 f1 9d bc a9 af a4 3d 09 34 73 3e ab e2 98 3e
       -0.01928011 0.08041317 0.23750319 0.29860434
000020 52 d2 1e 3e cd e2 84 3d cb 3f 77 3d af fe 86 3e
       0.15509918 0.06488571 0.060363572 0.26366183
000030 62 79 cf 3e 4e 24 d2 3b 04 00 df 3e c0 5b 08 3f
       0.40522295 0.0064130193 0.435547 0.53265

encoder.0.1.running_var f4 [16]
000000 99 7b 69 3c ef 4a 60 3c 03 2c 47 3c c4 dc 74 3c
       0.014250659 0.013689741 0.012156489 0.014945213
000010 64 26 91 3b 5d ad e3 3b 08 71 91 3b e2 a8 09 3c
       0.0044296253 0.0069481567 0.004438523 0.008402081
000020 ca bc 5b 3b 3c 86 ed 3b 07 b5 9c 3b fa d1 42 3b
       0.0033529275 0.007248668 0.0047823223 0.0029727207
000030 4a d0 12 3d 5c 51 9c 3b 13 67 22 3c 2d a5 24 3d
       0.03584317 0.004770441 0.00991227 0.040196586

encoder.1.0.weight f4 [8, 16]
000000 8b 5b 2a 3d 20 08 c0 bd 29 59 1d 3e 56 2c 87 bc
       0.04159121 -0.0937655 0.15366043 -0.016500633
000010 30 0f 75 bd ed 27 55 be 25 21 25 3e a9 8a e7 bd
       -0.059828937 -0.20816012 0.16125925 -0.11305744
000020 ea e5 1a 3d 31 22 d7 3d 85 26 0c be 06 55 29 3e
       0.03781692 0.10504568 -0.13686569 0.1653634
000030 3b e6 44 be fc f5 db 3d c0 68 7a 3e d1 31 62 be
       -0.19228451 0.10740277 0.24454021 -0.22089316
000040 5b 59 ba bd 3c 8f 29 be 38 30 79 be 5f 7d 02 3e
       -0.090990745 -0.16558546 -0.243348 0.12743138
000050 94 52 20 3e 4e 5f 8a be 74 df 6d be 76 bd ec 3d
       0.15656501 -0.27025837 -0.23229772 0.11559574
000060 4f ed 20 3d af 50 eb 3d f7 83 d9 bc b9 f0 50 3e
       0.039288815 0.114899985 -0.026552184 0.20404328
000070 41 ed 1b 3e c8 dd 2d be c7 b8 44 3d 30 e4 5a 3c
       0.15227224 -0.16979134 0.04802778 0.013360068
000080 fd 28 7a 3d 74 ad 1a be 02 9b ee bd f2 e7 ab 3b
       0.061074246 -0.1510523 -0.11650659 0.005246156
000090 a7 c0 c2 3d 10 1e 90 3d ef 0d a0 ba 52 5a 4e 3e
       0.09509402 0.07036984 -0.0012211184 0.20151642
0000a0 5c 19 62 3e 50 d5 28 bd 9b 9e b3 3b 11 e6 0b 3e
       0.22079986 -0.041219056 0.0054815537 0.13661982
0000b0 af d8 7e 3d 47 d0 40 3d 90 73 c6 bd 67 f2 1a 3d
       0.062218364 0.04707363 -0.096900105 0.03782883
0000c0 4d 2a b6 3c 01 91 63 3b f8 3a 2e bc e3 46 65 3e
       0.022236967 0.003472388 -0.010634176 0.22390322
0000d0 bb 78 ba bc bd ea 6e be 12 a8 11 3e bd 2e 2c bd
       -0.022762647 -0.23331733 0.1422427 -0.04203676
0000e0 d4 73 25 3d 88 38 b4 3d 7d 0b 61 3e 7a d3 e2 bd
       0.040393665 0.08799845 0.21977039 -0.11075492
0000f0 97 d6 4f 3e e0 5f 6f 3e 01 82 2d bc 85 1a 5d 3e
       0.20296703 0.23376417 -0.010590077 0.21592148
000100 3f db 31 3e 85 ae 30 3e 2b 83 53 bd 98 b0 05 be
       0.17368792 0.17254074 -0.051638763 -0.13055646
000110 e5 67 d2 3d e6 05 0c be 1b 54 0b be c1 31 e1 bc
       0.102737226 -0.13674125 -0.13606302 -0.027489545
000120 4e 79 4a 3e 68 35 a0 3c 36 99 4d be ed 6c 2e 3d
       0.19772837 0.019556716 -0.20077977 0.04258435
000130 d3 44 45 bc 00 29 82 be 87 02 b6 3c 49 fd 5f 3e
       -0.012040335 -0.25421906 0.022218002 0.21873964
000140 c6 73 af 3d a4 77 1d 3e 9a d4 25 be 51 7b db 3c
       0.08567004 0.1537767 -0.16194382 0.0267922
000150 02 64 12 3d 7d bf 1a be 30 b4 42 3e 9f b3 c2 ba
       0.035739906 -0.1511211 0.19014049 -0.0014854557
000160 12 77 27 3e b8 97 0a 3e dd 6c 15 3c 06 e4 df bc
       0.16354015 0.13534439 0.009120193 -0.02733041
000170 b0 ba 6e be 62 13 24 be 5a a5 f7 bd 1c 4f 72 bd
       -0.23313403 -0.16023019 -0.12092085 -0.059157476
000180 a7 38 4a 3e d7 72 69 3d 9d b9 01 be fb bc b2 bd
       0.19748174 0.056994285 -0.12668462 -0.087274514
000190 af 42 88 be c5 c0 4e 3d a3 93 30 be bf 4a 3d 3e
       -0.26613376 0.050476808 -0.17243819 0.18485545
0001a0 d3 e7 10 be df 52 00 3e 42 27 be 3d b9 e3 dc bd
       -0.14150934 0.12531613 0.092848316 -0.10785622
0001b0 b4 52 43 3d 11 b8 8f 3e 96 95 70 3e 57 0f 4c be
       0.047686294 0.2807012 0.23494563 -0.19927727
0001c0 33 a7 96 3d 3f c6 76 be 52 e0 47 be 2f 8f ad bd
       0.073561095 -0.24099062 -0.19519165 -0.08474576
0001d0 52 ad 87 3e 20 4e 52 3e 80 3b a2 bd 7c 07 20 3e
       0.2649942 0.20537615 -0.07921505 0.15627855
0001e0 74 a4 30 be 51 57 31 3e 6a 1c eb 3d 6a 23 7d 3c
       -0.17250234 0.17318465 0.11480029 0.015450338
0001f0 97 49 a5 3c 29 9e 64 be 94 6a ab bd 77 14 91 bb
       0.020176692 -0.22325958 -0.083699375 -0.0044274884

encoder.1.0.bias f4 [8]
000000 d1 be 97 3c 69 f2 76 be ec ec 08 bd ac c1 09 bd
       0.018523606 -0.2411591 -0.03342907 -0.033631966
000010 96 fd be 3d 07 0d 31 3c 20 be 68 3c cb 5c 58 3e
       0.093257114 0.010806329 0.014205486 0.21129148

encoder.1.1.weight f4 [8]
000000 a7 be 87 3f 93 06 70 3f 66 dd 70 3f f6 7f 78 3f
       1.0605057 0.9376003 0.9408783 0.9707025
000010 d4 44 77 3f b5 d2 79 3f 0d d2 86 3f d6 1e 80 3f
       0.965894 0.9758714 1.0532852 1.000941

encoder.1.1.bias f4 [8]
000000 ff 2c 01 3b 35 66 87 bd 7e 11 6e bd 4d c8 6e bd
       0.0019710658 -0.06611291 -0.05812215 -0.05829649
000010 d1 13 6a bd 62 59 82 bc dd 1b 18 bd 86 58 72 3b
       -0.057147805 -0.015911762 -0.037135947 0.0036979034

encoder.1.1.running_mean f4 [8]
000000 40 a0 4a 3c b7 82 b1 be df 29 36 3e 2f a8 ac 3e
       0.012367308 -0.3467004 0.1778941 0.33722064
000010 7c da ae 3d a6 f2 6e bd 66 69 e0 3d 0d d2 4d 3e
       0.08537766 -0.058336876 0.10957603 0.2009966

encoder.1.1.running_var f4 [8]
000000 e6 2d e0 3d a8 ed f9 3d 4c 65 af 3d a9 1c 5a 3e
       0.109462544 0.122035325 0.08564243 0.21299995
000010 2c 56 0c 3e 85 ac 0a 3e 33 a3 89 3d a3 8a 4b 3e
       0.13704747 0.13542373 0.06720581 0.19877104

encoder.2.0.weight f4 [8, 8]
000000 41 d0 e0 3d 5a 8d 80 be 22 18 15 3e 5c a8 86 3d
       0.10977221 -0.25107843 0.14559987 0.06575081
000010 f3 1c 12 3a bf 89 28 be e2 2d 62 3e b6 9f a9 be
       0.0005573772 -0.16458796 0.22087815 -0.33129662
000020 7d 32 ac 3d 4b 36 b4 3d 0d 2c 61 3e a7 7c 2d be
       0.084080674 0.08799418 0.2198946 -0.16942082
000030 60 d7 e8 bd 97 47 86 be b3 7a 11 3e 8b cb 99 be
       -0.113692045 -0.26226494 0.14206962 -0.30038103
000040 5b dd b5 be d3 4b a0 3d 06 f9 44 3d 9b 8b 0b 3e
       -0.35520443 0.07826962 0.04808905 0.13627474
000050 a1 0b 51 3e cf 56 7f be ae c1 c0 3d 23 28 33 bd
       0.20414592 -0.24935459 0.094119415 -0.04373945
000060 bf 75 d2 be 11 33 a1 be 78 bb bb 3d cd 99 91 bd
       -0.41105458 -0.31484273 0.09166616 -0.07109413
000070 32 e5 88 3e 57 10 ad be 1d f3 70 bd c2 29 69 3e
       0.26737362 -0.3380153 -0.0588256 0.22769836
000080 10 2c a6 3e 1a 7a 1e 3c 53 0b 17 3e 52 5e c5 3d
       0.32455492 0.009672666 0.14750414 0.09637131
000090 41 4a 03 3e 3d 07 1f 3e 3e 93 aa 3e 8b d0 bd be
       0.12821294 0.15530105 0.33315462 -0.37073168
0000a0 56 51 eb 3d 9a 4f 9d 3e 87 ed da 3c a3 db 2f be
       0.11490123 0.30724794 0.02672459 -0.17173629
0000b0 93 00 bf 3d a4 12 24 bd b8 8e af be 40 06 b0 be
       0.093262814 -0.04005684 -0.34288573 -0.34379768
0000c0 48 7a 7f 3e 53 36 ab bd c2 ba 86 be 91 26 c4 bd
       0.2494899 -0.08359971 -0.2631436 -0.095776685
0000d0 6a ff c3 3d b1 0c 96 bd 39 2e 69 3e 2e 55 86 3d
       0.09570201 -0.073266394 0.22771539 0.065592155
0000e0 56 ac f0 3d 3b 6b b6 bd ec 59 be be 1e e4 92 3e
       0.117516205 -0.08907171 -0.3717798 0.28689665
0000f0 4d 01 4b be 01 89 ae bd 50 61 87 3e 58 e3 4e be
       -0.19824715 -0.08522225 0.2644143 -0.20203912

encoder.2.0.bias f4 [8]
000000 40 1b 89 3d 0b 56 31 be c9 8e 58 be 60 3b bd bd
       0.06694651 -0.17317979 -0.21148218 -0.092398405
000010 45 b1 10 be 98 c5 0e 3e 62 30 0c 3e 4b eb aa be
       -0.14130123 0.13942564 0.13690332 -0.3338264

encoder.2.1.weight f4 [8]
000000 84 b2 73 3f 9d b0 6d 3f e1 5f 6d 3f ff 69 6e 3f
       0.9519427 0.92847615 0.92724425 0.9313049
000010 85 66 82 3f ca c8 68 3f 52 fc 72 3f de b3 6b 3f
       1.0187536 0.9093138 0.9491626 0.9207133

encoder.2.1.bias f4 [8]
000000 c3 aa 75 bd c8 f8 4e bd 35 11 a0 bd c0 11 ac bd
       -0.059977304 -0.050530225 -0.07815782 -0.08401823
000010 4e 6a e2 3d fd 13 e2 bd e6 ee 77 bd 80 a7 b1 bd
       0.11055432 -0.11038969 -0.060530566 -0.08674526

encoder.2.1.running_mean f4 [8]
000000 38 f0 c1 bc 32 df 9a be 97 af 84 be 00 5f 9f be
       -0.023674116 -0.3024841 -0.25915214 -0.31127167
000010 6c 51 13 3e 3d 93 5e bb 21 81 3d 3e d4 83 e4 be
       0.14386529 -0.0033962273 0.1850629 -0.44631827

encoder.2.1.running_var f4 [8]
000000 5b da 67 3e 3d 1c 96 3d b5 2a db 3d 0d 4e 07 3e
       0.2264189 0.07329605 0.10701505 0.13213368
000010 14 e5 61 3e a4 20 38 3e 40 eb e6 3d fe ea ea 3e
       0.22060043 0.17981201 0.11275339 0.4588241

mu.weight f4 [5, 8]
000000 93 0a ec bd 63 08 36 be 3a b5 b9 3e 3e ff 95 3e
       -0.11525454 -0.17776637 0.36271077 0.29296297
000010 8e a5 a9 3d 6c ee 6e be 08 be 66 3e 99 4c 57 be
       0.0828353 -0.23333138 0.22533429 -0.21025313
000020 76 a3 cc 3e fe b6 29 be be 19 03 be 55 fc 05 be
       0.3996846 -0.16573712 -0.12802789 -0.13084538
000030 81 00 2d bd b0 35 8a 3e db a7 04 be 4a 1c 1f be
       -0.04223681 0.26994085 -0.12954657 -0.15538135
000040 f4 b1 55 3e ba a8 ac 3d 92 ca b2 3d 6c c5 2f be
       0.20868665 0.084306195 0.087300435 -0.17165154
000050 f9 fb 22 3e 56 9d 1d 3d 41 62 a5 bd 3a 35 8c be
       0.15916432 0.038480125 -0.08075381 -0.2738436
000060 42 1d 6d 3e 32 4e 09 3e 5c bb e4 bd a5 27 1b 3e
       0.23155692 0.13408735 -0.111685485 0.15151842
000070 b2 7f e2 bd 66 e3 1f 3b d5 d2 c4 3d 09 9a 60 be
       -0.11059512 0.0024397015 0.096105255 -0.2193376
000080 f3 d5 6c be 1c f1 e5 3d 1b 0a d5 3d f4 78 45 be
       -0.2312849 0.112276286 0.10402318 -0.19284421
000090 96 eb 55 3e 05 69 a9 3d 58 cd 64 be 18 8e 17 bc
       0.2089065 0.08271984 -0.22343957 -0.009250186

mu.bias f4 [5]
000000 6c f7 f9 bd d6 69 24 3d 43 9a 61 bd 1d 74 53 bd
       -0.12205395 0.040139996 -0.055078756 -0.051624406
000010 15 fe 1b 3e
       0.15233643

sigma.weight f4 [5, 8]
000000 85 6b f3 bd c0 df b0 3d 12 22 1b 3e 6d 19 dc bd
       -0.11885742 0.08636427 0.15149716 -0.10747037
000010 f9 eb 7e be 8f a0 7b bd 09 d2 db 3d 2d 9f 70 3e
       -0.24894704 -0.061432417 0.107334204 0.2349822
000020 70 e2 87 3e 6a 4e 99 bd 39 6e 10 3e d0 bb 18 be
       0.26539946 -0.074856594 0.14104547 -0.14915395
000030 19 67 a5 be 5a c6 d0 3d 54 9a 57 3d f4 bf 26 3e
       -0.3230522 0.101940826 0.052637413 0.16284162
000040 c1 91 15 3e 27 9f c8 be f5 d5 dc 3d 74 42 72 3e
       0.14606382 -0.39183924 0.107829966 0.23658162
000050 b6 72 85 be 49 6b 8c 3e f3 1a 6a 3e 00 ab 24 3e
       -0.2606408 0.27425602 0.22861843 0.16080856
000060 bf f9 02 3e 2f 2f ba bd 4b 37 c1 3d c2 cb 50 3e
       0.12790583 -0.09091031 0.094343744 0.20390227
000070 9f 22 a5 be 90 14 75 3e 24 c7 5c 3e 43 47 ae bb
       -0.32252976 0.23933625 0.21560341 -0.0053185537
000080 cb 47 a6 be d1 9b 5d 3e 49 3d c4 bd f8 e0 1f bd
       -0.3247665 0.2164147 -0.09582002 -0.039032906
000090 3d b0 9f 3e 4c e9 36 bd bc 47 62 be 0f 2d 1f 3d
       0.31189147 -0.044656083 -0.22097677 0.03886133

sigma.bias f4 [5]
000000 e3 dd 81 3d b6 db 74 bc cd 6b 2a bd 01 c8 2a 3d
       0.0634115 -0.014944961 -0.041606713 0.041694645
000010 61 89 37 bc
       -0.011202187

decoder.0.0.weight f4 [8, 5]
000000 2d 9b e1 3d 73 b1 9a be 8e 92 d4 be 83 43 6f 3e
       0.110159256 -0.30213508 -0.41518062 0.23365597
000010 43 af d1 bd 52 6a 8a 3d 35 04 88 bd 3c 07 d5 3e
       -0.10238507 0.0675856 -0.066414274 0.41607082
000020 c0 5b db 3e 9c 67 87 be 80 58 13 3e c5 d3 9b 3e
       0.42843437 -0.26446235 0.14389229 0.30435005
000030 f5 10 d9 3d d8 80 c5 be 96 25 b1 be fa cc 16 bd
       0.105989374 -0.38574862 -0.34598988 -0.036816575
000040 99 ca b2 be b1 b9 b5 3e 3c 16 99 be a8 1b 05 3f
       -0.34920195 0.35493234 -0.29899776 0.51995325
000050 9f d7 d7 3e 8a 4f 3f 3e e6 fd d5 be d2 1d 99 be
       0.42156693 0.18682685 -0.41795272 -0.29905564
000060 1f 83 78 be 64 69 17 3e 8a d0 36 be ac 6a 0a 3e
       -0.24268769 0.14786297 -0.17852989 0.13517255
000070 a3 b1 0d be 4d 00 f2 bd 09 fe 85 3e 1b ed 84 3e
       -0.13837294 -0.118164636 0.26170376 0.25962147
000080 44 a3 56 be c3 4d a9 3e e0 12 81 be 85 9d 8b 3e
       -0.20960718 0.3306714 -0.25209713 0.27268615
000090 d5 27 a1 be e2 ef fb 3e 95 cc dc 3d f4 a0 3a 3e
       -0.31475702 0.49206454 0.107812084 0.18225461

decoder.0.0.bias f4 [8]
000000 d4 b7 80 be 43 b7 ac be ca ff a1 3e e9 a5 0f bc
       -0.2514025 -0.33733568 0.31640464 -0.008767583
000010 6e 07 fb 3c 19 5a 59 3e a9 0b b7 3d 7e c8 b3 be
       0.030643191 0.21225776 0.08937771 -0.351139

decoder.0.1.weight f4 [8]
000000 8c b3 7e 3f ed e1 73 3f 77 1b 66 3f be b8 8b 3f
       0.99492717 0.9526661 0.8988566 1.0915754
000010 58 0a 74 3f ed ed 73 3f 8f 54 8d 3f 5d 17 75 3f
       0.95328283 0.9528492 1.104143 0.95738775

decoder.0.1.bias f4 [8]
000000 e7 51 e3 bc 7f 31 8a 3d 49 fa 70 3b f5 06 e2 3d
       -0.027749015 0.06747722 0.0036770275 0.11036483
000010 78 cd f7 bc 9d 12 35 bd 86 36 bd 3d 5f b0 ec bc
       -0.030249342 -0.044207204 0.09238915 -0.028892694

decoder.0.1.running_mean f4 [8]
000000 09 4f 86 be 33 dc c6 be fa 0c 80 3e d5 53 7c 3d
       -0.26232174 -0.38839874 0.250099 0.061603386
000010 76 a8 00 bd e4 1d 3a 3e b7 fc 10 3d 97 6a b6 be
       -0.031410657 0.18175465 0.035397258 -0.35628197

decoder.0.1.running_var f4 [8]
000000 37 1e c2 3e a0 ab ff 3e 37 14 e2 3e ff 16 26 3f
       0.37913677 0.49935627 0.44156048 0.6487884
000010 85 4c 18 3f a7 80 ee 3d 55 6a c8 3e 89 fe 01 3f
       0.5949176 0.11645632 0.39143625 0.50779015

decoder.1.0.weight f4 [8, 8]
000000 6a 8a 40 3e cf da 4b be 3a d1 9c 3d 18 bb a4 be
       0.18802801 -0.19907688 0.07657094 -0.3217399
000010 e9 c2 f7 3d 9b d1 51 be ba 5f b8 be 7a 2b 20 3e
       0.12097723 -0.20490114 -0.36010534 0.15641585
000020 03 c1 20 3e 12 1d 60 be 27 41 cd bd aa 5e a6 bd
       0.15698628 -0.2188609 -0.100221924 -0.081235245
000030 3a 14 6b be 4c e3 89 bd cd 96 d4 3e 6a e8 72 be
       -0.22956935 -0.067328066 0.41521302 -0.23721471
000040 5d 05 7f 3e ef ed 78 be 49 87 16 3e 75 ac c0 be
       0.2490439 -0.24309514 0.14700045 -0.37631574
000050 30 80 b5 3e 13 0b d3 3d 52 1c 6f be 4f f3 9d be
       0.35449362 0.103048466 -0.23350647 -0.30849692
000060 36 de ce bd 6f 5f 16 3e bf 73 fc bd 0e c4 1c be
       -0.10100977 0.14684843 -0.12326764 -0.15309164
000070 6e f9 8e 3e 0d 83 16 3e 2e c8 3f 3e cf d8 09 be
       0.27924675 0.1469843 0.18728706 -0.13461612
000080 08 91 af bd 71 4c c7 bc bc ae 99 bd 9a a8 14 3e
       -0.085725844 -0.024328442 -0.07504031 0.14517441
000090 96 4f 9e 3d 95 a4 22 be d3 4a ec bd a6 bc be 3d
       0.077300236 -0.15883096 -0.11537709 0.093133256
0000a0 83 b5 10 3e 13 ad 3a be b4 8b 06 3e e3 db 9c 3e
       0.14131741 -0.18230085 0.1313923 0.3063651
0000b0 4a d3 ef bd 73 c8 9d 3e 6e fb 8b be 52 97 ca bd
       -0.11710222 0.30816993 -0.27340263 -0.09892143
0000c0 7c bc 1b 3e 89 92 ed bc bc e6 a9 bd d0 24 9c 3e
       0.1520862 -0.029000537 -0.08295962 0.30496836
0000d0 73 e0 e2 3d e0 b6 bc be 16 29 6f be b8 87 99 3e
       0.110779665 -0.36858273 -0.23355517 0.29986358
0000e0 d1 1c 0c 3e e6 b7 70 3e 1b 0e 2e 3e cf 04 56 be
       0.13682868 0.23507652 0.16997568 -0.20900272
0000f0 6d 70 8c be cb ee 6e be 25 ad aa bc 31 b3 dd 3d
       -0.27429524 -0.2333328 -0.020834515 0.10825194

decoder.1.0.bias f4 [8]
000000 c5 15 92 be b8 70 6d be 94 5c 5a 3e e4 ae 21 be
       -0.28532234 -0.2318753 0.21324378 -0.15789372
000010 6f 12 bb bc c3 c3 eb bd 5a db 9e be 34 bc 9a be
       -0.022835938 -0.11511948 -0.31026727 -0.30221713

decoder.1.1.weight f4 [8]
000000 69 2a 7d 3f 21 b4 85 3f 11 6d 63 3f 27 b6 89 3f
       0.9889284 1.0445596 0.888383 1.0758713
000010 66 00 8a 3f f4 6a 64 3f c6 89 8b 3f 16 e0 72 3f
       1.0781372 0.892257 1.090142 0.9487318

decoder.1.1.bias f4 [8]
000000 ec c0 12 bd 40 38 de bd db bf f8 bd cb 24 9e 3d
       -0.035828516 -0.108505726 -0.121459685 0.077218615
000010 c6 60 6c 3d 22 8f a5 3d b9 42 d9 3d 63 19 19 bd
       0.057709478 0.08083941 0.106084295 -0.037377726

decoder.1.1.running_mean f4 [8]
000000 12 35 11 bf a7 11 aa be 95 dc ad 3c 91 1c 7a bd
       -0.56721604 -0.33216593 0.021223346 -0.0610624
000010 08 53 99 bd 52 eb 1b bd 0c 26 79 be 47 be b0 be
       -0.0748654 -0.038066216 -0.2433092 -0.3452017

decoder.1.1.running_var f4 [8]
000000 23 66 a2 3d 91 43 2b 3e c6 6b 98 3e ae 4b aa 3d
       0.07929637 0.16724993 0.29769725 0.08315216
000010 55 2e 0b 3d 59 39 39 3e c9 69 ff 3d 00 f7 a4 3d
       0.033979733 0.18088283 0.12471349 0.08054924

decoder.2.0.weight f4 [16, 8]
000000 af 61 79 bd f1 11 2c 3e 88 ac 28 be 5f 86 a5 3e
       -0.060884174 0.16803719 -0.16472065 0.3232908
000010 25 16 97 be 5f cf 81 3e 68 2f db be a4 f0 bd 3d
       -0.29509082 0.25353524 -0.42809606 0.09274414
000020 2a 39 00 3d c4 f2 43 be d8 be 31 3e e6 df cc bd
       0.031304516 -0.19135576 0.17357957 -0.10003643
000030 2f e5 08 3e 32 7d 1c 3e 2c 90 86 3d b7 0f 65 bd
       0.13368677 0.15282133 0.06570467 -0.05592319
000040 86 2f 67 3e b1 f0 dc bd c1 87 54 be a6 f2 73 be
       0.22576723 -0.10788096 -0.20754911 -0.23823032
000050 35 e0 ca be 5a 77 36 3d 5d e4 90 be 86 3f 5a 3e
       -0.3962418 0.044547416 -0.28299227 0.21313295
000060 e0 ee 64 3e e9 79 ed bd 76 2e 9d be a3 8e c2 be
       0.22356749 -0.11595518 -0.3069951 -0.37999448
000070 da 17 05 3e 50 0e 36 3e ca a8 75 be ba 15 25 3e
       0.1299738 0.17778897 -0.23990169 0.1612157
000080 93 51 0f 3b dd c4 27 be fc db be bc 6d 18 fe bc
       0.002186869 -0.16383691 -0.023298256 -0.031017506
000090 38 ab ae be d2 92 d9 be 31 29 de 3d 6c 40 cd 3c
       -0.34115005 -0.42494828 0.108477004 0.025055133
0000a0 a0 6d 54 3e bd ce 98 bd 5f ae b0 be c9 0b 99 be
       0.20744944 -0.07461307 -0.34508035 -0.29891804
0000b0 03 6a 4d be 78 64 0c 3c 6c 35 58 be 86 24 64 3e
       -0.20059972 0.0085688755 -0.21114129 0.22279558
0000c0 5b 9e 2f be e2 77 fa bd 0a 54 ec 3d 3f 50 0e be
       -0.17150252 -0.12229897 0.11539467 -0.13897799
0000d0 8e e2 d3 bd ef 7b 53 be d3 81 fc 3d 75 d3 eb be
       -0.10345946 -0.20652746 0.123294495 -0.46059766
0000e0 91 ff 6a be 4d f7 9e be a4 99 d3 3c 7b ba 8e 3d
       -0.22949053 -0.3104805 0.025830097 0.06969162
0000f0 69 35 22 3e 6e ee 79 3e b6 07 4a be 6e 29 c7 3d
       0.15840687 0.2440736 -0.19729504 0.09724699
000100 14 1c ba be 76 2a 21 3d 2a 84 84 3d 7b 25 ae 3e
       -0.36349547 0.039347135 0.06470521 0.3401297
000110 6c 35 58 3e 80 49 83 3e f7 72 53 3e 42 cb 3c 3d
       0.21114129 0.25642014 0.20649324 0.04609228
000120 5e 62 5b 3d 21 1d 54 3d d3 42 18 be 6c 54 af be
       0.053560607 0.051785592 -0.14869241 -0.34244096
000130 18 ee ad 3e 2e 7f 84 3d c7 fb 0a 3e 8e a9 39 3e
       0.33970714 0.0646957 0.13572608 0.18131086
000140 19 fd 03 3e 39 e9 b4 3e 30 ab 82 3e 1b 8e 5e 3e
       0.12889518 0.35334185 0.2552123 0.21733896
000150 b3 a9 33 3e 10 f1 a4 3e 16 11 2b be 45 c3 1f bb
       0.17545204 0.32215166 -0.16705737 -0.0024377864
000160 9e 73 5a bd fc e5 0b 3d e6 1b aa be 05 27 01 3d
       -0.053332917 0.034154877 -0.3322441 0.031531353
000170 25 4b 59 3e 7a 8b 16 3e 46 97 90 3d 50 09 f9 3c
       0.21220072 0.14701644 0.07060103 0.030399948
000180 42 be 22 3e 8a a8 4e bd eb 0d e8 bd fd e9 49 3e
       0.1589289 -0.0504537 -0.1133078 0.19718166
000190 1b f6 c4 3e 9c c6 5d 3e 3a 00 4c 3e 50 93 9d 3e
       0.38469014 0.21657795 0.19921961 0.30776453
0001a0 97 04 59 be 34 87 bc be 2c 44 23 bb 4e 69 93 3d
       -0.21193157 -0.36821902 -0.002491246 0.0719782
0001b0 00 55 21 3e df 78 11 3e df 3f 17 be 51 21 96 3d
       0.15755081 0.14206265 -0.14770459 0.07330573
0001c0 84 21 90 3e 1d 6e e1 be 8d 02 19 be e7 67 24 be
       0.2815057 -0.44029322 -0.1494238 -0.1605526
0001d0 cd 28 83 3e f8 3b a1 3e 6c 7b df 3d e0 1e 62 be
       0.25617066 0.31491065 0.10912213 -0.2208209
0001e0 18 c1 ae 3d 30 c7 0e be 41 f8 0a 3e cd 87 ee bd
       0.085329235 -0.13943172 0.13571264 -0.11646996
0001f0 85 a6 d9 3e d8 b8 09 3c 8a 87 b7 3e 16 b5 73 3e
       0.42509857 0.008405887 0.35845596 0.23799548

decoder.2.0.bias f4 [16]
000000 20 3a cf bd d6 43 8c bd 60 fb 59 3e 4b cb 88 be
       -0.10118508 -0.06848876 0.21287298 -0.267176
000010 04 76 a9 3d f6 b5 59 3e 8e 14 5c bc 6d 53 a8 3d
       0.08274463 0.21260819 -0.013432635 0.08219037
000020 80 0e 6e be 50 31 b1 be 8d 9d 5c 3e ff 01 93 be
       -0.23247719 -0.34607935 0.21544476 -0.2871246
000030 d1 86 a6 be 67 f7 39 bb 3f 9b 93 3d ca b7 46 3e
       -0.32524732 -0.0028376223 0.07207345 0.19406047

decoder.2.1.weight f4 [16]
000000 0e 5e 74 3f 9d 28 6f 3f eb 59 69 3f 8d 21 78 3f
       0.95456016 0.93421346 0.9115283 0.96926194
000010 10 a2 84 3f 0b f3 70 3f 09 66 6c 3f 4a 40 6b 3f
       1.0361958 0.94120854 0.92343193 0.9189497
000020 92 c1 66 3f 2b 17 83 3f 59 5b 6c 3f 26 5a 60 3f
       0.90139115 1.0241445 0.92326885 0.87637556
000030 7d 98 70 3f dd c5 6f 3f 92 bb 80 3f 64 b5 72 3f
       0.9398268 0.9366129 1.0057242 0.9480803

decoder.2.1.bias f4 [16]
000000 6e d3 d2 3d 5c e5 5b bd f0 4a a6 bd 1c a6 00 3e
       0.10294233 -0.05368553 -0.08119762 0.12563366
000010 4d a7 28 3e 53 9b 24 bd dd 51 0b 3d 6f d5 9b bd
       0.1647007 -0.04018719 0.034013618 -0.076090686
000020 f3 58 b2 bb ef 07 e0 3d 69 9b 51 bd e4 44 ea 3d
       -0.0054427325 0.10939013 -0.0511736 0.11438921
000030 17 22 64 bd 35 4e 64 bd ea 1e ee 3d 47 6e 0e bd
       -0.055696573 -0.055738647 0.1162699 -0.034773137

decoder.2.1.running_mean f4 [16]
000000 3d 94 27 be 7f 95 71 3c cc ce fd bd 31 57 d5 be
       -0.16365142 0.014745115 -0.12392959 -0.41668084
000010 1b b1 80 be 79 08 9a bd cb 53 c3 be 1d 01 14 3d
       -0.2513512 -0.07521147 -0.38149866 0.036133874
000020 f9 f8 05 3e 3f 0f 4f be 33 57 30 3f 7b 46 39 be
       0.13083257 -0.2022066 0.68883055 -0.18093292
000030 ce 02 6f 3e 4b 64 bd bd c8 83 f4 3d 28 50 1c 3f
       0.23340914 -0.09247645 0.11939198 0.6105981

decoder.2.1.running_var f4 [16]
000000 a1 ed bb 3e fa 68 c2 3d e2 29 66 3e af ef 20 3e
       0.36704734 0.09492679 0.22476915 0.15716432
000010 de 00 c0 3d aa 72 0e 3e be 4e 8a 3d 92 c7 a1 3d
       0.093751654 0.13910928 0.067533 0.07899393
000020 26 e5 47 3e 59 ff 7f 3e 7d a5 f8 3d 80 45 d4 3d
       0.19521007 0.24999751 0.121409394 0.103648186
000030 02 ab 26 3e ea f5 a5 3d 38 3b e9 3e 90 11 a6 3e
       0.16276172 0.08103545 0.45552993 0.32435274

decoder.3.weight f4 [24, 16]
000000 55 89 e7 3d 1a 13 3c 3e 5c 90 cc 3d 2e ec e1 3d
       0.11305491 0.18366662 0.09988472 0.11031376
000010 57 60 a0 bc 8c e6 3f bc 01 92 3c 3e e8 4f 94 bc
       -0.019577188 -0.0117126815 0.18415071 -0.018104509
000020 3d 5a 25 be 2f 37 49 bd 08 4b da 3b 28 6c 02 3e
       -0.16147704 -0.049124893 0.0066617765 0.12736571
000030 69 4d 11 3e 76 32 84 bc ce 47 40 be 6d 4d 3e bd
       0.14189686 -0.016137343 -0.18777391 -0.046460558
000040 81 f7 e3 3d 0a cf 22 3e cb 75 be 3d 6d 6f 6d bd
       0.11131192 0.15899292 0.09299811 -0.057967592
000050 74 07 61 3c c6 04 cf 3d 3d ed a9 bd de 14 64 3d
       0.013734687 0.10108332 -0.08297203 0.055683963
000060 a5 6b 4c 3d 97 bc 5a 3e b5 04 49 bd 50 73 c4 3d
       0.049907345 0.21361004 -0.049076755 0.095923066
000070 70 45 4c be 77 48 97 bd ad 82 14 be 64 34 2c 3c
       -0.19948363 -0.073868684 -0.14502974 0.010510538
000080 dd 14 9c 3e 7b 94 6e 3d 03 0e 19 bd ab d4 3a 3e
       0.30484667 0.05824707 -0.03736688 0.18245189
000090 64 b8 96 3e 61 f1 15 be 05 63 3b 3d c7 b1 a2 bc
       0.29437554 -0.1464286 0.04574873 -0.019860161
0000a0 83 eb 0c be 20 6a 89 3e 1d b0 ca bc 5f 16 18 3d
       -0.13761716 0.2683878 -0.02474218 0.03713071
0000b0 b0 bd 15 be 00 06 21 be 1d 39 81 3e a9 2f da bd
       -0.14623141 -0.15724945 0.25238886 -0.10653622
0000c0 67 74 7c bd 7c c3 1f 3e 6e 84 72 bc 91 88 7c 3d
       -0.061634447 0.15601915 -0.0148020815 0.061653677
0000d0 f1 ee 64 3e 75 e5 bf 3d 5d fd 87 3e da 5d 01 bd
       0.22356774 0.09369937 0.26560488 -0.031583644
0000e0 6c b4 bf 3c ad 3d fa 3d 92 ac 35 3e 8e 84 9d 3d
       0.023401462 0.12218795 0.17741612 0.076912984
0000f0 37 2a 16 bd 6f 91 3e 3d ba 9c 81 3a 9d 47 26 be
       -0.036661353 0.046525415 0.0009888627 -0.16238256
000100 34 ca 2b 3e a1 fd 06 3e 49 c1 c3 3d 1c 55 35 3e
       0.16776353 0.13182689 0.095583506 0.17708248
000110 54 a9 c5 3a 02 c8 a1 bd 42 f2 17 3e 0a a0 42 bd
       0.0015080371 -0.078994766 0.14838508 -0.047515906
000120 48 59 90 3d f0 80 14 bd ad 6c 9d bd 4e 35 34 be
       0.07048279 -0.036255777 -0.07686744 -0.17598459
000130 df a4 0d bd a0 94 df 3b 26 0b e2 bc c3 88 11 3e
       -0.03458106 0.0068231374 -0.027593207 0.14212327
000140 8c ea 8e 3d e6 7c 03 be b5 45 03 bd cd b4 24 bd
       0.0697833 -0.12840614 -0.0320489 -0.040211488
000150 23 66 44 bc 30 2e 54 3e 54 7b e9 bc 0a 94 11 3e
       -0.011987242 0.20720744 -0.02850119 0.14216629
000160 65 d8 50 3e 6f 83 50 3e d7 04 68 bd 6a 6a 32 bd
       0.20395048 0.20362638 -0.05664524 -0.043558516
000170 5a 07 43 be 1e ec 19 be 2b 02 3b 3e 90 3f 27 3c
       -0.19045773 -0.15031478 0.18262546 0.010208026
000180 09 3b c0 bd e9 2e 24 be fc 9d 2e 3e d8 8e 2a be
       -0.0938626 -0.1603352 0.17052454 -0.16656053
000190 90 56 00 3d 98 cc 12 3e 27 e2 23 3e 6a f8 0d be
       0.031332552 0.14335859 0.16004239 -0.13864294
0001a0 7b b2 09 3e 69 fe a8 bd 0c 7c d9 3d b4 b8 4b 3e
       0.13446991 -0.0825165 0.10619363 0.19894677
0001b0 bb b4 c5 bd 2e e1 10 3e 99 b3 61 3e 7e 3a cb bd
       -0.09653612 0.14148399 0.22041167 -0.09923266
0001c0 f0 e7 0b 3d 0a 73 38 be 16 db 03 3e bb 6a c4 3c
       0.03415674 -0.18012634 0.12876543 0.023976674
0001d0 f8 2a 79 3d b0 db 38 bd 5a cd c8 bd 3d fd 6e bd
       0.060831994 -0.045131385 -0.09804793 -0.058346976
0001e0 36 b1 ee 3d 0b 8a bb bc 8e 08 10 3d ed bc ad 3c
       0.11654894 -0.022892972 0.03516441 0.02120825
0001f0 e0 6e 57 be 91 43 2f 3d 82 0d 6b 3e de 98 3b 3e
       -0.21038389 0.042789046 0.22954372 0.18320033
000200 81 5c ed bd 3e 9d 03 3e ee af 02 3c 9c eb 3a 3e
       -0.11589909 0.12852952 0.007976515 0.1825394
000210 ce 36 2c 3e ad b7 50 bd 32 41 c9 bd 64 61 cc bd
       0.16817781 -0.050956417 -0.09826888 -0.09979513
000220 5a 13 5d 3e 88 78 e9 bd 16 0c 0a bc 73 49 6b 3e
       0.21589413 -0.11399943 -0.008425733 0.22977237
000230 2c a8 44 3c 8f 16 7d 3d 4e 45 20 be 19 e8 15 be
       0.012002986 0.06178909 -0.15651438 -0.1463932
000240 49 cf 04 3e eb 93 3c be 6f 7c b9 bc d0 f3 63 3e
       0.12969698 -0.18415801 -0.022642342 0.22260976
000250 ab 46 32 3d 59 61 f8 bb 52 66 4a 3e 87 2f a3 bd
       0.043524425 -0.007579964 0.19765595 -0.079680495
000260 4f 6a 2d be 95 f0 56 be 64 20 2f 3e 57 81 ed 3d
       -0.16935085 -0.20990212 0.171022 0.11596935
000270 80 45 42 3e b0 95 16 3e a7 97 36 3e 5e eb 90 3d
       0.18971825 0.14705539 0.17831288 0.07076143
000280 92 ed 45 3d 19 a1 4d be 17 db b8 bd 81 94 5b 3e
       0.048322268 -0.20080985 -0.09026163 0.21443368
000290 e1 10 92 bb 63 65 36 3d db fa 5e 3e a6 ad bf bd
       -0.0044575785 0.044530284 0.21775381 -0.09359293
0002a0 9e 69 1a 3e d0 23 88 bd 57 52 bf 3d fe df 7e be
       0.15079352 -0.06647456 0.09341877 -0.24890134
0002b0 38 3d 1e 3e d0 b6 2b 3e 56 c5 04 3e bc 15 0a 3d
       0.1545304 0.16768956 0.12965903 0.033712134
0002c0 de d6 ba 3c fb 7e 19 be ff 27 f7 3d 87 ec 67 3d
       0.022807535 -0.14989845 0.120681755 0.056622054
0002d0 9f 76 6a 3e 0c f1 ee bb 72 34 9b 3e 9d 49 25 3e
       0.22896813 -0.0072919186 0.3031345 0.16141362
0002e0 e1 0f b1 3d eb 58 00 be b2 6b 14 3e f7 6e 32 3d
       0.08645607 -0.1253392 0.14494208 0.043562856
0002f0 4a f8 c3 3d 70 f2 92 bd 4c 77 14 3e cb 11 b2 3c
       0.09568842 -0.071751475 0.14498633 0.021737
000300 e7 c7 f2 3d 4f a1 b3 bb 6e b0 36 3e c2 b7 ae bd
       0.118545346 -0.005481876 0.1784074 -0.08531143
000310 70 04 14 bc 13 e4 74 bc 49 42 68 3e 5d 70 f0 3d
       -0.009034261 -0.014946955 0.22681536 0.117401816
000320 2d 6a 22 be 6c 89 f2 3d f1 9c 33 3d c6 bf 8d bd
       -0.15860815 0.118426174 0.043850843 -0.069213435
000330 e9 0e d2 3d 22 8c 55 3c c9 c0 0a 3d 05 66 0e bd
       0.1025675 0.013033899 0.03387526 -0.034765262
000340 cc 63 59 3e e5 50 13 3e 09 df 2c 3c 61 a0 58 3e
       0.21229476 0.14386328 0.010551223 0.2115493
000350 0b c3 4d 3d e7 31 13 3d 32 8b 67 3e 58 ea 84 bd
       0.050234836 0.035936262 0.22611693 -0.0649001
000360 10 ee 0a be 78 e4 34 bc d5 b7 97 3d fe 5e d4 bd
       -0.13567376 -0.011040799 0.0740811 -0.10369681
000370 8b 1b 2f 3e 52 12 d7 3d 7b 0d ee bb 28 ef 08 3c
       0.1710035 0.10501541 -0.0072647906 0.008357801
000380 05 c8 34 3d 96 af 65 bd 07 7e 65 3e 1b 92 ca bd
       0.044136066 -0.056075655 0.22411357 -0.09891149
000390 3c 16 f9 3d 58 a5 20 be e0 04 73 bd bc 46 89 3c
       0.12162444 -0.15688074 -0.05933082 0.016757362
0003a0 0c eb 9d bd b9 b7 bc 3d eb 13 9f 3d e6 b7 59 3e
       -0.07710847 0.0921473 0.07767471 0.21261558
0003b0 3c 7a 03 be fd 82 f0 bd 5e 74 44 3e 4c 15 9a bd
       -0.12839597 -0.11743734 0.19185016 -0.07523593
0003c0 66 53 ca 3d 43 b6 3a 3d bf e1 1a 3e fc 05 54 3e
       0.09879188 0.045583975 0.15125178 0.20705408
0003d0 85 aa 80 3c 5d 44 17 be 35 07 4d bd 8b 04 18 be
       0.01570631 -0.14772172 -0.0500557 -0.14845483
0003e0 1c a4 3b bc e0 ee 14 3e 88 26 27 3d ac 7b a6 bd
       -0.011452701 0.14544249 0.04080823 -0.08129057
0003f0 65 84 8a 3d 39 ff b2 3d 99 17 8f bc 3b d4 96 bd
       0.067635335 0.08740086 -0.017467307 -0.073646985

decoder.3.bias f4 [24]
000000 d6 1e 65 3e 02 28 7a 3e 46 b9 18 bb 25 50 4a bd
       0.22375044 0.24429324 -0.002330379 -0.049392838
000010 50 84 47 3e c2 e9 18 3e 49 d4 4f 3e a2 45 75 3e
       0.19484067 0.14932922 0.20295824 0.23952344
000020 36 cd 81 3e 82 65 10 3d 25 53 13 3e b6 44 81 bd
       0.25351876 0.035253055 0.14387186 -0.06311934
000030 98 f7 2d 3e 31 3b a0 39 3a 79 87 3e 11 25 60 3e
       0.16988981 0.0003056168 0.26459676 0.2188914
000040 c1 59 7b 3e f3 1d 85 3e 62 b6 78 3e 8e a2 77 3c
       0.24545957 0.25999412 0.24288324 0.01511444
000050 0b 3a 13 3e 40 43 6e 3e 52 ef b1 bc d0 25 c8 3d
       0.1437761 0.23267841 -0.021720562 0.09772837

exp_avg f4 [16, 24]
000000 ca af 88 38 99 de 80 38 2d 3c 28 38 50 9d 3e 38
       6.5177286e-05 6.144978e-05 4.0110364e-05 4.544604e-05
000010 3c 0b 56 38 6d 54 c4 37 ef 37 b9 b7 a3 83 8e b8
       5.103204e-05 2.3404335e-05 -2.2079765e-05 -6.795607e-05
000020 75 e0 e6 b8 b2 3c 45 b8 59 07 d2 b7 c3 a6 8f b7
       -0.00011009063 -4.7024987e-05 -2.5037372e-05 -1.7124583e-05
000030 b4 03 67 b7 3a cc 6a b7 b1 e0 78 37 05 95 72 b7
       -1.3769535e-05 -1.3995037e-05 1.4834267e-05 -1.445902e-05
000040 dc 25 f8 37 3e 38 c9 37 e1 59 96 38 54 e8 7b 38
       2.9581533e-05 2.3987257e-05 7.1692986e-05 6.0059436e-05
000050 b4 b6 5c 38 07 56 b0 37 f8 42 cb 36 b1 b7 d5 b7
       5.2622243e-05 2.1020895e-05 6.0576676e-06 -2.5477117e-05
000060 67 f2 83 b8 f1 7f 0a b8 13 e8 51 b7 1f 90 98 b7
       -6.291718e-05 -3.302092e-05 -1.2511405e-05 -1.8186924e-05
000070 16 42 66 b7 9c 44 45 36 b7 27 06 37 97 10 16 38
       -1.3724455e-05 2.9395223e-06 7.996269e-06 3.5778237e-05
000080 06 0e 08 38 ed 35 c1 37 5d f8 b8 b5 26 79 aa 37
       3.2437987e-05 2.3032504e-05 -1.3781352e-06 2.0321993e-05
000090 85 07 75 35 45 9e 92 35 32 71 88 b7 73 91 45 b8
       9.1280555e-07 1.092391e-06 -1.6265174e-05 -4.710392e-05
0000a0 5c b1 5b b8 b5 9f 92 b8 fb 72 92 b8 fe 2b 6e b8
       -5.2378848e-05 -6.99157e-05 -6.983239e-05 -5.6784593e-05
0000b0 4c d9 80 b8 25 fb 50 b8 6c 6a 59 b7 20 e8 08 38
       -6.14399e-05 -4.982496e-05 -1.2958986e-05 3.264111e-05
0000c0 e8 69 20 b9 8e 89 c7 b8 16 f4 fa b7 38 35 54 33
       -0.00015298242 -9.514681e-05 -2.9915984e-05 4.94085e-08
0000d0 ae 5a be 38 c1 06 37 39 66 6c 88 39 96 44 7b 39
       9.0767964e-05 0.00017454756 0.00026020705 0.00023962776
0000e0 54 56 59 39 24 b4 33 39 b5 42 3e 39 64 cf 48 39
       0.00020726892 0.00017137878 0.00018144662 0.00019150745
0000f0 b4 79 3f 39 67 43 41 39 26 5e 25 39 c3 0d ab 38
       0.00018260517 0.00018431024 0.00015770699 8.156479e-05
000100 c0 af e0 b7 e8 57 ae b8 34 1c 8e b8 ec 2a e5 b8
       -2.678472e-05 -8.3133404e-05 -6.776341e-05 -0.00010927566
000110 ce 29 d7 b8 20 b8 75 b8 64 ae 36 b8 16 f8 6a b8
       -0.000102597856 -5.858403e-05 -4.3554595e-05 -5.6020996e-05
000120 61 d3 0f 37 a8 8c 03 b7 61 94 18 37 52 07 a1 36
       8.57268e-06 -7.840958e-06 9.094453e-06 4.799026e-06
000130 b5 e5 47 b8 7b 0a 75 b8 5b 6f 58 b8 c6 c3 08 b8
       -4.765923e-05 -5.8422313e-05 -5.160212e-05 -3.2607255e-05
000140 bd 52 f9 36 f3 23 61 b8 24 4b 8c b8 e9 0f d9 b8
       7.4304103e-06 -5.367766e-05 -6.689716e-05 -0.0001035033
000150 55 40 d3 b8 d6 88 b1 b8 c8 41 cd b8 25 67 a9 b7
       -0.00010073247 -8.4655054e-05 -9.7874145e-05 -2.01944e-05
000160 f5 79 e2 b7 be 0c 0d 36 57 97 5b b7 11 0f be b6
       -2.699809e-05 2.1018054e-06 -1.3088654e-05 -5.664195e-06
000170 77 81 0a b7 0d 58 0c 37 3f b3 93 37 59 bc 18 38
       -8.255584e-06 8.365151e-06 1.7607234e-05 3.6415036e-05
000180 e3 7d e9 b8 e8 1d 87 b8 b8 b7 32 b9 1c 4a ca b9
       -0.00011133754 -6.442872e-05 -0.00017043843 -0.00038583658
000190 4d 0f 26 ba 21 61 53 ba fd bc 77 ba 09 08 81 ba
       -0.00063346775 -0.00080634846 -0.00094504637 -0.0009844314
0001a0 1a 1a 85 ba 9f ff 81 ba 69 76 83 ba 72 06 66 ba
       -0.0010154874 -0.00099181 -0.0010029796 -0.0008774764
0001b0 af 57 2d ba c9 a1 08 ba de 39 8f b9 a3 bf 1b b9
       -0.0006612492 -0.0005212096 -0.000273182 -0.00014853342
0001c0 c4 df c6 b8 09 6a dd b8 62 39 13 b9 98 89 3c b9
       -9.483055e-05 -0.00010557852 -0.00014040389 -0.00017980335
0001d0 5d ba 99 b8 7b 73 3e b9 ef 93 88 b9 2a 9e 37 b9
       -7.3303214e-05 -0.00018162832 -0.0002605016 -0.0001751116
0001e0 14 f7 bd b5 28 04 20 38 ce e8 14 38 19 c7 b2 38
       -1.4153507e-06 3.8150843e-05 3.5502766e-05 8.524786e-05
0001f0 94 a1 61 39 a9 b8 7c 39 c3 f8 82 39 dd 43 6c 39
       0.00021517865 0.00024101384 0.00024980874 0.00022531995
000200 46 a0 1b 39 8e ee 7a 39 70 69 86 39 c7 7d a6 39
       0.00014841658 0.00023930726 0.0002563703 0.000317557
000210 48 de 83 39 b1 e1 56 39 46 43 86 39 88 7b e7 38
       0.0002515188 0.00020492707 0.00025608594 0.00011037948
000220 17 f4 0d 39 48 21 c6 38 d2 fb a9 38 74 33 7b 38
       0.00013537738 9.447575e-05 8.105453e-05 5.9890983e-05
000230 92 72 7a 38 96 59 0b b8 dc cd 02 37 f5 5f 51 35
       5.9711347e-05 -3.3223616e-05 7.796534e-06 7.7998203e-07
000240 f5 26 0d b9 cd af ac b8 6d 0a 8b b7 84 63 c1 b7
       -0.0001346132 -8.2343446e-05 -1.6574946e-05 -2.3053733e-05
000250 88 90 93 b6 e7 11 fb 37 3f 33 97 37 56 33 57 b7
       -4.397767e-06 2.9929868e-05 1.8024466e-05 -1.2826951e-05
000260 a7 4c ca b8 0d 0a af b8 e5 a5 7f b7 07 15 8b 37
       -9.646388e-05 -8.3465224e-05 -1.523781e-05 1.6579883e-05
000270 09 3a d1 38 34 aa 58 39 a7 ba 4e 39 5a b1 0c 39
       9.9767065e-05 0.00020662771 0.00019715224 0.00013417509
000280 a3 14 07 38 20 45 a9 b8 4c 46 08 b9 33 e4 40 b9
       3.2205728e-05 -8.0714235e-05 -0.00012996158 -0.00018395558
000290 f5 4e 20 b9 17 c1 3b b8 75 97 36 b8 1e 07 35 b8
       -0.00015288203 -4.4764103e-05 -4.3533237e-05 -4.316039e-05
0002a0 41 68 8c 38 2f 44 5d b8 4d 80 af b8 4d b8 4b b8
       6.695139e-05 -5.2754007e-05 -8.368548e-05 -4.8570615e-05
0002b0 95 c1 17 b8 cf 51 b5 b8 f5 57 b2 b8 f1 d4 85 b8
       -3.6181493e-05 -8.6459906e-05 -8.504085e-05 -6.3815976e-05
0002c0 ba df 34 b8 44 be 14 b8 dd 96 03 37 7f ea 8f 37
       -4.3123706e-05 -3.546315e-05 7.843334e-06 1.7156124e-05
0002d0 db 88 3d 38 3a 9e 5a 38 b0 5a ab 38 50 c7 15 39
       4.5188568e-05 5.212261e-05 8.170807e-05 0.00014283997
0002e0 51 27 59 39 16 9d 90 39 26 a5 89 39 41 d8 83 39
       0.00020709379 0.00027582858 0.0002625372 0.0002514739
0002f0 8b 27 52 39 d7 04 a4 38 c8 54 be 37 38 26 61 b8
       0.00020041892 7.821031e-05 2.2689244e-05 -5.3679774e-05
000300 dd b6 0f 39 20 7e 2c b8 cb f2 ac b8 d6 6d d0 b8
       0.00013705665 -4.112546e-05 -8.246823e-05 -9.9386714e-05
000310 00 20 3e b9 73 0d 85 b9 36 2a 85 b9 c4 b1 a1 b9
       -0.00018131733 -0.00025377757 -0.00025399186 -0.0003084076
000320 f6 77 8e b9 67 2f c3 b9 45 49 cc b9 67 c3 ab b9
       -0.00027173728 -0.00037228616 -0.00038964502 -0.00032761248
000330 8b 90 7d b9 28 ff 22 b9 fb e3 36 b9 c9 4c 0e b8
       -0.00024181807 -0.00015544577 -0.00017441802 -3.392695e-05
000340 55 34 2a b8 72 b4 6b 38 c2 d3 aa 38 97 af 37 39
       -4.0579896e-05 5.619642e-05 8.145675e-05 0.00017517652
000350 2b 9b 33 39 ac c2 69 39 da 71 5c 39 f2 11 5e 39
       0.00017128575 0.00022293132 0.00021023248 0.00021178255
000360 d9 fa c0 36 07 15 84 38 33 00 2a 38 6a 44 a8 36
       5.7512484e-06 6.298167e-05 4.0531344e-05 5.0147546e-06
000370 40 09 a5 b8 e7 53 12 b9 d1 5e 6d b9 da 06 69 b9
       -7.869536e-05 -0.00013954901 -0.00022637403 -0.00022223164
000380 28 7a 7f b9 2d ea 76 b9 4d 65 8b b9 cc 00 a7 b9
       -0.00024364202 -0.00023547625 -0.0002658762 -0.00031853316
000390 2f 79 be b9 ab dc ab b9 af b8 9e b9 e0 6b 8b b9
       -0.00036329913 -0.00032780072 -0.00030273708 -0.0002659252
0003a0 16 e9 3d b9 5d c9 20 b9 6a c6 25 b9 fd 47 fd b8
       -0.00018111276 -0.00015333803 -0.00015809541 -0.00012077389
0003b0 0e 59 0c b9 5d d4 d9 b8 a7 94 92 b8 ff 82 8e b8
       -0.00013384616 -0.00010386922 -6.989511e-05 -6.7954876e-05
0003c0 f5 02 de b8 6c a3 64 b7 5c 71 39 b6 25 0f a3 b7
       -0.00010586336 -1.3627909e-05 -2.7633132e-06 -1.9438166e-05
0003d0 b3 5f 91 34 68 76 c3 36 ad 7f 6b b7 79 fa 6e 37
       2.7077985e-07 5.825237e-06 -1.4036818e-05 1.4244223e-05
0003e0 27 7e 2f b7 47 c2 18 b7 28 d5 3a b8 ee 6e 14 b9
       -1.0460185e-05 -9.10514e-06 -4.4544373e-05 -0.00014155704
0003f0 65 db 34 b9 6d 0a 25 b9 14 29 ef b8 1e f0 fa b8
       -0.00017247869 -0.0001573951 -0.000114040595 -0.00011965654
