experiments/data/vae/119_UCR_Anomaly_ECG1_10000_11800_12100.txt-.ckpt (torch, 222315 bytes, 102 tensors)

encoder.0.0.weight f4 [64, 92]
0.07950764 0.081527375 -0.11402333 -0.062022183 0.06435872 -0.02326482 -0.0021649406 0.026471902
-0.016223129 0.023275968 0.06670247 0.023377573 0.037586257 -0.03223973 -0.036235753 0.01632576
0.055264197 0.037543736 -0.07864253 0.027858172 0.08250853 -0.06081148 -0.09284747 0.06564193
0.09704419 -0.023692362 -0.07343128 0.07649627 -0.006705873 0.05849764 -0.06777287 0.083435185
0.10944351 0.05029047 -0.085013375 0.10321953 -0.023474243 0.093888044 -0.028171634 0.077087976
0.064725496 -0.07700572 0.090111725 0.008782487 -0.0069480916 -0.0047365567 0.05790357 -0.026276438
0.0044047553 0.1036389 0.108386174 0.10564885 -0.07503571 -0.08065611 -0.08863016 0.0076274057
-0.11580492 -0.047728054 0.0062370803 0.043767225 -0.09456198 -0.044655476 -0.002704603 -0.0006636099
-0.09312409 0.015964534 -0.0010197008 -0.04763318 0.0868269 -0.00665888 0.016232532 -0.0023797026
-0.060068432 0.08223459 0.02534115 0.048251305 0.06500489 -0.06276292 -0.008351792 -0.1052225
0.03997713 -0.013715039 -0.038808264 0.071362235 0.03081577 0.041694336 -0.1020629 -0.073414154
-0.032324966 -0.09324646 0.059950236 -0.0066156415 -0.10644435 0.017744405 -0.07894038 0.079510845
-0.010075657 -0.07217219 0.036261193 0.028934075 -0.030620797 0.01942632 -0.031880446 0.115730315
0.077702075 0.03108543 0.030753516 0.10980825 -0.064901516 -0.008606824 -0.03431086 0.10422598
-0.07451994 -0.08879348 -0.013791258 -0.03548558 -0.047951065 -0.017273376 -0.012416538 0.057032805
0.0006652552 -0.081556424 -0.0053368467 0.0018995223 -0.06876848 -0.09969847 0.07046445 -0.0017459275
0.06533241 -0.033646643 0.047084466 0.008760411 0.008316921 0.085085556 0.0753048 -0.008809325
0.13025935 -0.044234395 -0.026219029 0.08017495 0.017418696 -0.0287553 -0.08037535 -0.030426586
-0.06254062 -0.088240884 -0.03506421 0.059332155 -0.083791845 -0.08487369 -0.09536612 -0.023747744
0.0010206875 -0.08801002 0.011910726 0.04056267 0.03522196 0.028466538 -0.069194265 -0.100659974
0.038536146 0.08124652 0.015258923 0.0075077266 0.08870869 -0.00980053 -0.03423977 0.052426577
-0.040501382 0.047204535 0.07484503 0.017609043 -0.04639994 -0.082040854 0.054757476 -0.01625574
-0.053195275 -0.027614886 0.0031868 0.089070916 -0.102831446 -0.020918189 -0.110226415 -0.03505655
0.053282235 0.0535851 -0.03922358 0.027494144 0.102071375 -0.053332277 0.10402668 0.11324264
0.07439322 0.07644424 -0.08352142 -0.07786378 -0.053989615 0.047557075 -0.07848372 -0.10169678
0.032995034 -0.04103302 -0.055628154 -0.06181294 -0.006136772 0.037067056 -0.0051126126 -0.00895324
0.07045203 -0.1239599 -0.11672817 0.013184123 -0.06386019 0.008077631 -0.10164735 -0.019806974
-0.022660859 0.015047566 0.015569442 0.004590704 0.07187513 -0.06483164 0.021713497 -0.089056596
-0.06062668 -0.072419 0.0071539967 -0.066961534 0.004360034 0.03264224 -0.045447428 -0.07595938
-0.030486792 -0.06839246 0.10692536 -0.046549737 0.09231782 0.08923189 0.09069036 0.032924093
0.054405894 0.066740245 0.009539799 -0.05639598 -0.0750039 0.083692 -0.045633744 -0.055307005
-0.07311627 0.012810966 -0.08669242 -0.023962654 0.08968197 -0.04352546 -0.044171028 0.07894655
00000000: e7d4 a23d d3f7 a63d 1085 e9bd f90a 7ebd
00000010: 81ce 833d dd95 bebc ade1 0dbb 9adb d83c
00000020: 5ee6 84bc 3ead be3c 4e9b 883d 5382 bf3c
00000030: 0cf4 193d cf0d 04bd f16b 14bd 9abd 853c
00000040: b65c 623d 76c7 193d 560f a1bd d236 e43c
00000050: 3bfa a83d 7515 79bd d026 bebd 476f 863d
00000060: 1bbf c63d 7c16 c2bc 2463 96bd 14aa 9c3d
00000070: f1bc dbbb 399b 6f3d 81cc 8abd 11e0 aa3d
00000080: eb23 e03d 61fd 4d3d 7e1b aebd c364 d33d
00000090: 0e4d c0bc 6048 c03d 33c8 e6bc 4de0 9d3d
000000a0: cd8e 843d 2db5 9dbd 7f8c b83d 6ce4 0f3c
000000b0: d1ac e3bb 1e35 9bbb 4b2c 6d3d af41 d7bc
000000c0: c455 903b a240 d43d 92f9 dd3d 6d5e d83d
000000d0: 53ac 99bd 082f a5bd bb83 b5bd 51ef f93b
000000e0: 212b edbd 7e7e 43bd 6c60 cc3b 4345 333d
000000f0: b6a9 c1bd a9e8 36bd b53f 31bb 1bf6 2dba
00000100: d8b7 bebd 0ec8 823c 7ba7 85ba 021b 43bd
00000110: 4dd2 b13d bc32 dabb 16fa 843c c9f4 1bbb
00000120: 510a 76bd 9c6a a83d 3e98 cf3c 29a3 453d
00000130: 4921 853d d989 80bd f4d5 08bc e57e d7bd
00000140: 0fbf 233d 0bb5 60bc 6af5 1ebd 5d26 923d
00000150: 5b71 fc3c aec7 2a3d 5b06 d1bd 295a 96bd
00000160: 2f67 04bd 00f8 bebd 618e 753d 06c8 d8bb
00000170: 7fff d9bd b75c 913c 7eab a1bd 95d6 a23d
00000180: 5e14 25bc 03cf 93bd 9e86 143d 2707 ed3c
00000190: 77d8 fabc f223 9f3c 1295 02bd 0404 ed3d
000001a0: 4422 9f3d dfa6 fe3c ccee fb3c 26e3 e03d
000001b0: 16eb 84bd a303 0dbc 8b89 0cbd 6e74 d53d
000001c0: e99d 98bd 5bd9 b5bd bbf4 61bc 5459 11bd
000001d0: 5668 44bd e580 8dbc bc6e 4bbc 3b9b 693d
000001e0: 8564 2e3a 0e07 a7bd b7e0 aebb 64f9 f83a
000001f0: 7dd6 8cbd b62e ccbd aa4f 903d 9bd7 e4ba
00000200: 00cd 853d 10d1 09bd a4db 403d d487 0f3c
00000210: b243 083c 5641 ae3d 6739 9a3d fd54 10bc
00000220: b562 053e 202f 35bd 4ac9 d6bc c432 a43d
00000230: a7b1 8e3c 3c90 ebbc d59b a4bd 2d41 f9bc
00000240: 4c15 80bd a3b7 b4bd 7d9f 0fbd 4606 733d
00000250: 0f9b abbd 42d2 adbd 504f c3bd a18a c2bc
00000260: 97c8 853a 993e b4bd 3525 433c 0b25 263d
00000270: e744 103d a832 e93c b9b5 8dbd d126 cebd
00000280: 14d8 1d3d 9364 a63d 9000 7a3c 6003 f63b
00000290: e7ac b53d 6792 20bc 003f 0cbd 40bd 563d
000002a0: c7e4 25bd 8b59 413d 5a48 993d d740 903c
000002b0: dd0d 3ebd 0905 a8bd 6049 603d c22a 85bc
000002c0: 4ae3 59bd 9d38 e2bc a2d9 503b d06a b63d
000002d0: 4b99 d2bd 9f5c abbc 63be e1bd 7597 0fbd
000002e0: 793e 5a3d 0d7c 5b3d e8a8 20bd 663b e13c
000002f0: cc0a d13d f272 5abd f10b d53d c2eb e73d
00000300: 795b 983d cc8e 9c3d 470d abbd 0c77 9fbd
00000310: 3724 5dbd 35cb 423d 13bc a0bd 6746 d0bd
00000320: cd25 073d 3d12 28bd 59da 63bd 912f 7dbd
00000330: fa16 c9bb a0d3 173d b487 a7bb 9cb0 12bc
00000340: 2749 903d b0de fdbd 2e0f efbd 3802 583c
00000350: 22c9 82bd 0a58 043c 7c2c d0bd 3c42 a2bc
00000360: 44a3 b9bc 118a 763c f916 7f3c 9e6d 963b
00000370: 4533 933d 73c6 84bd 81e0 b13c 4e63 b6bd
00000380: ae53 78bd 6a50 94bd 136c ea3b 2123 89bd
00000390: 9ede 8e3b dfb3 053d 1527 3abd 9790 9bbd
000003a0: 70bf f9bc 5911 8cbd affb da3d f0aa 3ebd
000003b0: 2011 bd3d 36bf b63d debb b93d 6adb 063d
000003c0: b7d8 5e3d 1caf 883d d14c 1c3c 79ff 66bd
000003d0: a59b 99bd b666 ab3d 73ea 3abd 9989 62bd
000003e0: fcbd 95bd 16e5 513c cc8b b1bd 544d c4bc
000003f0: 2eab b73d c147 32bd aeec 34bd bbae a13d

encoder.0.0.bias f4 [64]
-0.07304268 -0.084391534 -0.07396084 2.9053322e-06 0.0016771251 -0.062679574 0.07892711 -0.011886656
0.06131752 -0.03772577 0.08499352 0.107878394 -0.080136135 -0.026794214 -0.07056434 -0.010001474
0.06971966 -0.08143091 -0.071110554 0.045022674 -0.056964852 0.09597157 0.06472448 -0.027087783
-0.10816022 -0.070282 0.05862131 0.04816964 -0.07598734 0.043313995 -0.0071407 0.09535367
0.070930175 -0.03852654 -0.0362219 -0.011110297 -0.028271131 0.08179939 -0.10601293 -0.05909845
0.040242422 0.101072736 0.09529574 -0.0069311224 0.06378586 -0.033805504 0.05254466 0.0041104085
-0.061146498 -0.061629478 -0.05644598 -0.08469707 0.035644207 -0.01047141 -0.029670483 0.0341793
-0.025056293 0.0079063885 0.108314514 0.07838976 0.10092273 0.057370353 0.08880645 0.037791
00000000: 6797 95bd 78d5 acbd c878 97bd 3af9 4236
00000010: fbd2 db3a 265e 80bd 89a4 a13d 40c0 42bc
00000020: 1428 7b3d 5686 1abd 1511 ae3d 59ef dc3d
00000030: 6a1e a4bd 8a7f dbbc 0984 90bd 39dd 23bc
00000040: 2ec9 8e3d 40c5 a6bd 69a2 91bd b269 383d
00000050: fa53 69bd be8c c43d 458e 843d 33e7 ddbc
00000060: 1b83 ddbd 02f0 8fbd e61c 703d 874d 453d
00000070: 409f 9bbd 046a 313d 88fc e9bb c948 c33d
00000080: d743 913d 01ce 1dbd 6a5d 14bd f707 36bc
00000090: dc98 e7bc 7086 a73d 4f1d d9bd 3711 72bd
000000a0: 3dd5 243d 39ff ce3d 6a2a c33d 781e e3bb
000000b0: 29a2 823d a477 0abd 1239 573d 9bb0 863b
000000c0: c074 7abd 316f 7cbd e633 67bd a875 adbd
000000d0: a9ff 113d 4790 2bbc 830f f3bc 98ff 0b3d
000000e0: db42 cdbc cc89 013c 00d4 dd3d cf8a a03d
000000f0: 94b0 ce3d 2dfd 6a3d 28e0 b53d bcca 1a3d

encoder.0.1.weight f4 [64]
0.96332526 0.96470904 0.98838365 0.9608048 1.0155252 0.9798033 1.0161661 1.0477973
1.040415 0.9598253 0.9897316 1.0162572 0.96829134 1.0140918 0.9847639 1.0280608
0.9755841 0.9759374 1.0322508 1.0129458 0.96245444 0.98110825 0.99816585 0.97670704
1.0015535 1.0200123 0.983026 1.0121151 1.0102729 0.9864986 1.0123017 0.99807644
0.9710424 0.9695046 1.0035625 0.98888624 0.9693646 1.0252459 0.99132746 1.0058682
0.98493487 0.97555214 0.98805004 1.0171443 0.98259336 0.9852096 0.96953326 0.9841194
0.99850553 1.0009 0.977993 0.9967729 0.9944149 1.0174525 0.9807523 0.99564815
1.0091231 0.9781992 0.9911491 1.0143131 1.0220392 0.9869891 1.0026425 0.99896216
00000000: 7c9c 763f 2cf7 763f b606 7d3f 4ef7 753f
00000010: bbfc 813f 64d4 7a3f bb11 823f 391e 863f
00000020: 522c 853f 1cb7 753f 0d5f 7d3f b714 823f
00000030: f1e1 773f c3cd 813f 7d19 7c3f 7f97 833f
00000040: e1bf 793f 09d7 793f cb20 843f 35a8 813f
00000050: 6a63 763f e929 7b3f cc87 7f3f 7909 7a3f
00000060: e832 803f c38f 823f 98a7 7b3f fd8c 813f
00000070: 9f50 813f 2c8b 7c3f 1a93 813f f081 7f3f
00000080: 3c96 783f 7431 783f bc74 803f a627 7d3f
00000090: 4728 783f 423b 833f a3c7 7d3f 4ac0 803f
000000a0: b124 7c3f c9bd 793f d9f0 7c3f c931 823f
000000b0: 3d8b 7b3f b236 7c3f 5533 783f 40ef 7b3f
000000c0: 0f9e 7f3f 7e1d 803f c05d 7a3f 822c 7f3f
000000d0: fa91 7e3f e23b 823f 9512 7b3f cce2 7e3f
000000e0: f22a 813f 436b 7a3f f3bb 7d3f 03d5 813f
000000f0: 2ed2 823f 51ab 7c3f 9756 803f fcbb 7f3f

encoder.0.1.bias f4 [64]
-0.01972968 -0.012332984 0.007297418 -0.0052303546 0.020536374 -0.017483605 0.007850221 0.0017271898
0.024376862 -0.021825768 -0.0024076877 0.0144052515 -0.035296444 -0.0025916968 -0.012569106 0.0072880588
-0.008088816 0.007797877 0.019125942 0.02908594 -0.028148113 -0.007156122 0.0014024801 0.017818123
0.010198924 0.018547192 -0.0006199643 0.026157428 0.018337145 0.0024930628 0.01568375 -0.0020580771
-0.022862654 -0.033161413 -0.010877358 -0.0319592 -0.0053614313 -0.008083496 -0.0007721509 0.021802427
-0.02116834 -0.017607898 -0.00860406 0.0128237875 -0.0030194358 0.0024058586 -0.008885873 0.010167005
-0.008820142 0.010801216 -0.018221488 0.009578529 -0.010710738 0.024632152 -0.0036903324 -0.0054459614
0.021141134 0.0011186061 0.013206036 -0.014393982 -0.009562926 0.029267881 0.015006834 -0.014829827
00000000: 23a0 a1bc 4910 4abc 2e1f ef3b 6563 abbb
00000010: e63b a83c c739 8fbc 379e 003c df62 e23a
00000020: fcb1 c73c f4cb b2bc 4cca 1dbb 0104 6c3c
00000030: 0193 10bd 75d9 29bb a7ee 4dbc abd0 ee3b
00000040: f486 04bc 5585 ff3b 02ae 9c3c a345 ee3c
00000050: df96 e6bc e77d eabb 6cd3 b73a 50f7 913c
00000060: 6319 273c 48f0 973c 1a85 22ba 1a48 d63c
00000070: c837 963c a762 233b 357b 803c cee0 06bb
00000080: 764a bbbc 43d4 07bd f236 32bc a6e7 02bd
00000090: f2ae afbb a470 04bc 2b6a 4aba 019b b23c
000000a0: 3a69 adbc 703e 90bc 0bf8 0cbc dd1a 523c
000000b0: bae1 45bb 9cab 1d3b 0d96 11bc 8293 263c
000000c0: 5b82 10bc 95f7 303c 3b45 95bc 43ef 1c3c
000000d0: 177c 2fbc 5ec9 c93c 81d9 71bb 0974 b2bb
000000e0: 2c30 ad3c 319e 923a 215e 583c bcd4 6bbc
000000f0: d2ad 1cbc 32c3 ef3c 39df 753c cdf8 72bc

encoder.0.1.running_mean f4 [64]
0.06445692 -0.26792973 -0.20557648 0.3510051 -0.05571818 -0.16276638 0.046184447 0.110370934
0.048403703 0.031857688 0.10927065 0.08283412 0.012007471 0.08084635 0.0021693455 0.030797936
0.39618787 0.12842496 -0.049330734 0.16396737 0.23009826 0.22461945 -0.058431156 -0.1428966
-0.41437173 -0.18926576 0.06369382 -0.13211104 -0.044454 0.0050145662 0.15096344 0.2599779
0.14374585 -0.008353137 0.04945338 -0.058613177 0.013559277 -0.075086616 -0.0988988 -0.05912514
0.10966638 -0.05063885 0.18525077 -0.055196248 0.25363213 -0.05553928 -0.19331515 -0.35992497
-0.0051003345 -0.05587754 -0.41143107 -0.15304193 0.12952988 -0.09673845 0.15940283 0.095855005
0.048065253 -0.0008138824 0.19790754 0.036576316 0.18589851 0.0058329897 0.13953999 0.09491027
00000000: fd01 843d 162e 89be a482 52be f1b6 b33e
00000010: bf38 64bd 3bac 26be e72b 3d3d 280a e23d
00000020: f642 463d 357d 023d 4ac9 df3d efa4 a93d
00000030: fcba 443c c592 a53d 942b 0e3b f44b fc3c
00000040: 23d9 ca3e d581 033e 060f 4abd 10e7 273e
00000050: e19e 6b3e a402 663e 8255 6fbd 7c53 12be
00000060: 8828 d4be e2ce 41be e871 823d 1e48 07be
00000070: 6615 36bd 3b51 a43b 2996 1a3e d31b 853e
00000080: 1d32 133e 99db 08bc a18f 4a3d 5f14 70bd
00000090: bb27 5e3c 03c7 99bd 748b cabd 342d 72bd
000000a0: c498 e03d af6a 4fbd 61b2 3d3e 7615 62bd
000000b0: 12dc 813e 287d 63bd 68f4 45be 1648 b8be
000000c0: b520 a7bb d9df 64bd 18a7 d2be 06b7 1cbe
000000d0: 7ba3 043e cf1e c6bd 7f3a 233e a14f c43d
000000e0: 12e0 443d b95a 55ba 46a8 4a3e 0cd1 153d
000000f0: 2e5c 3e3e aa22 bf3b 92e3 0e3e 5160 c23d

encoder.0.1.running_var f4 [64]
0.0024133187 0.0034341633 0.0039770855 0.0051834434 0.002680807 0.0026741698 0.0017242216 0.001519723
0.0025260677 0.0024024153 0.0032088393 0.0024759804 0.0018042101 0.003558241 0.0021571885 0.0029169777
0.004232958 0.004509249 0.0025728776 0.0035952015 0.002936241 0.0016458813 0.0016565947 0.002640019
0.0041263765 0.003637053 0.0016686592 0.0033072918 0.0021226048 0.0037318626 0.002655678 0.0029204483
0.0025261259 0.004944382 0.0022819503 0.0046828603 0.0020020953 0.0030451494 0.0029461957 0.0046467413
0.0019406355 0.004659731 0.0022503885 0.003033936 0.0033769677 0.00253649 0.0018801023 0.003971414
0.0033459263 0.002894272 0.0036942498 0.002768 0.0035066728 0.0013572798 0.003025136 0.0038195304
0.0017160716 0.0026306012 0.0027245474 0.001500603 0.0017770461 0.0051266477 0.0031277738 0.0032828022
00000000: c528 1e3b b30f 613b 3652 823b e0d9 a93b
00000010: 7ab0 2f3b 2041 2f3b 47ff e13a 7131 c73a
00000020: 628c 253b d771 1d3b 644b 523b 0f44 223b
00000030: 3f7b ec3a 6131 693b 9e5f 0d3b c42a 3f3b
00000040: a0b4 8a3b 52c2 933b b99d 283b 799d 6b3b
00000050: f36d 403b 9dba d73a 1822 d93a 2b04 2d3b
00000060: 8e36 873b a05b 6e3b e9b6 da3a 26bf 583b
00000070: 661b 0b3b 4492 743b e20a 2e3b fe64 3f3b
00000080: 5c8d 253b 7b04 a23b c68c 153b ae72 993b
00000090: 9635 033b 2191 473b f614 413b b143 983b
000000a0: ec5c fe3a a8b0 983b 417b 133b 00d5 463b
000000b0: 1e50 5d3b 3e3b 263b c46d f63a a322 823b
000000c0: 5447 5b3b d4ad 3d3b 3a1b 723b 5567 353b
000000d0: 35d0 653b c1e6 b13a 5c41 463b 1651 7a3b
000000e0: cfed e03a 2a66 2c3b 528e 323b e2af c43a
000000f0: c6eb e83a 70fd a73b 56fb 4c3b 4824 573b

encoder.1.0.weight f4 [16, 64]
0.0067381407 -0.09648478 0.016175503 -0.103239685 -0.006761817 0.029585008 0.08312577 0.036182974
0.0773942 -0.06761019 0.053396475 -0.025391351 0.079036 0.036020473 0.023207474 -0.0028112652
-0.048621953 -0.073664874 -0.093828686 0.11637224 0.02051032 0.06373246 0.13017641 -0.012508329
-0.009016552 0.01562926 -0.014960554 0.08031293 -0.08387456 0.047902454 -0.05505949 0.09722792
-0.05158913 -0.08615702 0.048364665 0.029502006 0.11099643 0.023587288 0.062394638 -0.07366899
-0.018500855 0.03937458 0.023383524 0.091514304 0.0124432575 0.052518513 0.08456407 0.07134772
0.0008244514 0.11516604 0.052412976 -0.11444255 -0.06760377 0.04343629 0.095011614 0.020165674
0.038179483 0.028087303 -0.052850384 -0.0973367 0.117232695 -0.03140651 0.08042417 -0.04801103
0.041458543 0.12777889 0.025529498 -0.08548226 -0.04044604 -0.046892963 -0.014718801 -0.020059906
-0.13011289 -0.104178846 0.038336966 -0.08807452 -0.052291345 0.060344998 -0.036435757 -0.0046846843
-0.011183585 -0.115363665 0.022577101 0.011195169 -0.03740368 0.053780522 -0.010325442 0.09775722
-0.012150524 -0.05025876 -0.13550553 -0.14973645 -0.072167784 -0.012664858 0.052412692 0.058499437
-0.0035198573 -0.13088389 -0.07452246 -0.096736394 -0.032562193 -0.08493802 -0.073836446 -0.038207237
0.060932074 -0.018826833 0.10695257 0.08637556 0.015661394 0.09902368 0.05125595 -0.028031118
-0.10006863 -0.042093333 -0.039987493 -0.035007853 0.045001157 0.06304414 -0.09407048 0.105342805
-0.09998535 -0.08435644 0.10763976 -0.12214736 0.04039834 -0.02862 -0.060374465 0.04241446
-0.120887466 -0.06154438 -0.0014682545 0.017142493 0.08696346 0.06003214 -0.104253165 0.10869653
-0.047242165 0.028582571 0.0740778 0.01992784 -0.024292326 0.026298335 -0.025608016 0.12726746
-0.096776314 0.070584886 0.042843454 -0.12903845 0.0640496 0.0318588 -0.063385256 0.058757413
-0.09727074 -0.10609338 -0.06882568 -0.06583554 -0.15376183 0.0814718 0.045743573 0.011589359
-0.11230798 -0.008499706 -0.10691772 -0.124073654 0.07462037 0.10926234 -0.10181854 -0.04811776
0.07840348 -0.026986944 -0.114179865 -0.15601802 -0.046926197 0.082569875 0.0061630523 0.06359419
-0.073107496 -0.025344837 0.09886135 0.007894412 0.12977442 -0.108154535 0.0602698 0.14157866
-0.12537313 0.059215724 0.078752756 0.0763924 -0.0031483634 0.1494881 0.014792774 -0.0120202685
-0.06998669 -0.030946732 0.030712528 0.0055508623 0.09544077 0.08545788 -0.124278985 -0.017620923
-0.043634705 0.025168445 0.11552603 0.08236542 -0.040150058 -0.13770612 0.07260004 -0.069427975
-0.006788079 0.09993637 -0.008320275 -0.048807867 0.056527603 0.1055456 0.023220465 -0.029681481
-0.0018171547 0.019744962 -0.08200457 -0.06295797 0.09595267 -0.12156914 0.083752505 -0.08271162
-0.056711152 -0.06889072 -0.11347296 0.07810957 0.104684375 0.036870107 -0.03927486 0.043109804
-0.029261678 -0.026846142 -0.09461734 -0.07608464 -0.053830575 0.033604153 0.080834955 0.08371186
0.006824109 0.063681066 0.033243246 0.0016993145 0.032595925 -0.09032116 0.06428767 -0.03126133
0.060739327 0.1096588 0.101249926 0.015378235 -0.109125696 -0.07388748 -0.0017313971 -0.04810935
00000000: 9fcb dc3b d099 c5bd 7d82 843c 546f d3bd
00000010: 3b92 ddbb 425c f23c d83d aa3d 9934 143d
00000020: da80 9e3d 3677 8abd 43b6 5a3d 8601 d0bc
00000030: a0dd a13d 348a 133d 9a1d be3c 343d 38bb
00000040: d027 47bd 9cdd 96bd 4129 c0bd 9254 ee3d
00000050: 4205 a83c 2a86 823d f74c 053e bcef 4cbc
00000060: 29ba 13bc ef08 803c 1d1d 75bc 1b7b a43d
00000070: 6dc6 abbd 5d35 443d 0f86 61bd 6f1f c73d
00000080: 204f 53bd 1773 b0bd 071a 463d 31ae f13c
00000090: 1952 e33d 213a c13c 8591 7f3d c4df 96bd
000000a0: 1b8f 97bc 3d47 213d ce8e bf3c da6b bb3d
000000b0: cede 4b3c a71d 573d ed2f ad3d c11e 923d
000000c0: ff1f 583a 2cdc eb3d fdae 563d db60 eabd
000000d0: d873 8abd 40ea 313d 7395 c23d 7c32 a53c
000000e0: 1762 1c3d 5817 e63c a579 58bd 7758 c7bd
000000f0: b217 f03d 1da4 00bd 6db5 a43d 37a7 44bd
00000100: 6fd0 293d 78d8 023e 3d23 d13c 5311 afbd
00000110: bfaa 25bd d612 40bd 2027 71bc ac54 a4bc
00000120: 503c 05be b85b d5bd 3907 1d3d 6a60 b4bd
00000130: 732f 56bd 512c 773d a93d 15bd fb81 99bb
00000140: 5b3b 37bc c943 ecbd 9df3 b83c f16b 373c
00000150: 9a34 19bd f748 5c3d 0b2c 29bc f034 c83d
00000160: fe12 47bc 21dc 4dbd f6c1 0abe 8354 19be
00000170: b4cc 93bd 4480 4fbc b1ae 563d 1b9d 6f3d
00000180: 68ad 66bb 6d06 06be 3b9f 98bd bb1d c6bd
00000190: ef5f 05bd fcf3 adbd 9037 97bd 317f 1cbd
000001a0: e993 793d bb3a 9abc f309 db3d abe5 b03d
000001b0: 534c 803c edcc ca3d c2f1 513d 84a1 e5bc
000001c0: c8f0 ccbd 0f6a 2cbd edc9 23bd 6564 0fbd
000001d0: 2253 383d 491d 813d 06a8 c0bd f8bd d73d
000001e0: 1fc5 ccbd 12c3 acbd 3c72 dc3d 6528 fabd
000001f0: bb78 253d 7e74 eabc 374b 77bd c9ba 2d3d
00000200: d993 f7bd f615 7cbd 7272 c0ba 6a6e 8c3c
00000210: e619 b23d 43e4 753d af82 d5bd 499c de3d
00000220: 0081 41bd ff25 ea3c 1ab6 973d b63f a33c
00000230: b300 c7bc 9b6f d73c e7c7 d1bc 6752 023e
00000240: a932 c6bd cf8e 903d 9e7c 2f3d a822 04be
00000250: 702c 833d 607e 023d 21d0 81bd 9dab 703d
00000260: e235 c7bd 7c47 d9bd 7af4 8cbd c9d4 86bd
00000270: be73 1dbe b0da a63d 9d5d 3b3d 4be1 3d3c
00000280: ba01 e6bd 5a42 0bbc adf7 dabd 541a febd
00000290: 91d2 983d efc4 df3d 3d86 d0bd 2117 45bd
000002a0: 0192 a03d b913 ddbc 22d7 e9bd 30c3 1fbe
000002b0: af35 40bd 651a a93d 6ef3 c93b ac3d 823d
000002c0: 62b9 95bd fa9f cfbc d277 ca3d 9057 013c
000002d0: 96e3 043e 2080 ddbd 77dd 763d fff9 103e
000002e0: d061 00be 308c 723d 2049 a13d 9e73 9c3d
000002f0: c654 4ebb 6913 193e 645d 723c a9f0 44bc
00000300: 2f55 8fbd 0084 fdbc d798 fb3c 02e4 b53b
00000310: 7376 c33d 8a04 af3d fb85 febd c159 90bc
00000320: 4eba 32bd 0e2e ce3c e998 ec3d 34af a83d
00000330: 6374 24bd d502 0dbe 54af 943d 4130 8ebd
00000340: 896e debb 71ab cc3d c351 08bc c2ea 47bd
00000350: 7d89 673d 4b28 d83d d838 be3c 9426 f3bc
00000360: 982d eeba 30c0 a13c 03f2 a7bd 1cf0 80bd
00000370: d582 c43d 3ef9 f8bd 6f86 ab3d b664 a9bd
00000380: f449 68bd 9416 8dbd 8364 e8bd e9f7 9f3d
00000390: c364 d63d 1c05 173d adde 20bd e893 303d
000003a0: 30b6 efbc 71ec dbbc bcc6 c1bd 44d2 9bbd
000003b0: 737d 5cbd 82a4 093d cc8c a53d 2071 ab3d
000003c0: c69c df3b 386b 823d 122a 083d 88bb de3a
000003d0: 4e83 053d 4dfa b8bd 41a9 833d e10b 00bd
000003e0: cdc9 783d cb94 e03d 1f5c cf3d fef4 7b3c
000003f0: 4b7d dfbd 5252 97bd 0cf0 e2ba 4f0e 45bd

encoder.1.0.bias f4 [16]
0.024862584 -0.027365858 0.01096116 -0.08304929 0.06640117 -0.117661804 -0.06835506 -0.06697935
-0.106515974 0.024284678 0.07327703 0.02480743 0.020854676 0.12365234 0.078947574 -0.11027102
00000000: 9eac cb3c 5d2e e0bc 7096 333c bf15 aabd
00000010: 56fd 873d acf8 f0bd bdfd 8bbd 782c 89bd
00000020: 0c25 dabd a9f0 c63c 4412 963d f438 cb3c
00000030: 6dd7 aa3c 703d fd3d 44af a13d c6d5 e1bd

encoder.1.1.weight f4 [16]
0.91564316 0.995127 1.1096982 1.0293314 0.99552953 1.0084221 0.9325901 0.96204007
0.995055 1.0755105 1.032895 1.0373831 0.95588017 0.96889305 0.94708717 0.9605853
00000000: 9767 6a3f a5c0 7e3f 970a 8e3f 22c1 833f
00000010: 06db 7e3f fa13 813f 3abe 6e3f 4248 763f
00000020: edbb 7e3f 54aa 893f e735 843f f8c8 843f
00000030: 90b4 743f 6009 783f 4e74 723f ebe8 753f

encoder.1.1.bias f4 [16]
-0.043302257 0.023835348 0.105550155 0.08010972 -0.015836062 -0.0061718468 0.013219047 -0.025350716
-0.01455922 0.061367057 0.07014305 0.0008786871 -0.0048216092 0.016285006 -0.053293448 -0.018139614
00000000: b55d 31bd 5942 c33c ae2a d83d 9110 a43d
00000010: a1ba 81bc 343d cabb b494 583c 4eac cfbc
00000020: cb89 6ebc 065c 7b3d 29a7 8f3d b157 663a
00000030: 97fe 9dbb 2268 853c 3b4a 5abd 8799 94bc

encoder.1.1.running_mean f4 [16]
0.4021868 -0.46388966 -0.058847368 -0.046548653 0.18442632 -0.2347434 0.09960516 0.12426274
-0.47480872 -0.32830432 0.4009128 0.14925571 0.01712427 0.17048931 -0.06120782 -0.49715504
00000000: 6eeb cd3e f282 edbe f009 71bd cda9 3ebd
00000010: 41da 3c3e 9360 70be cafd cb3d 777d fe3d
00000020: 211a f3be 8117 a8be 7144 cd3e 7dd6 183e
00000030: 3248 8c3c c094 2e3e 0db5 7abd 1b8b febe

encoder.1.1.running_var f4 [16]
0.3252103 0.17910393 0.2936934 0.27062985 0.4351831 0.20950156 0.2739698 0.617595
0.25661376 0.3157377 0.2056714 0.25348756 0.34294412 0.327152 0.29442286 0.3431751
00000000: f781 a63e 0567 373e fb5e 963e ff8f 8a3e
00000010: 52d0 de3e 9487 563e c545 8c3e b51a 1e3f
00000020: e162 833e 5fa8 a13e 869b 523e 1fc9 813e
00000030: 5f96 af3e 7880 a73e 98be 963e a6b4 af3e

encoder.2.0.weight f4 [8, 16]
-0.0432265 0.035629373 -0.27906168 0.08006553 0.005385045 0.06319175 0.111707784 -0.11840075
-0.22326285 0.04248624 0.11397911 -0.11143131 -0.18664694 0.22732939 -0.09132417 -0.15251651
0.13885902 0.22730462 0.13149348 0.13458923 0.08762356 0.18852066 0.15934855 0.10076705
0.081329726 -0.052761976 -0.12798642 -0.11720019 0.027085284 -0.21133202 -0.3001506 -0.222819
0.08796628 -0.06355977 -0.02714006 0.023769159 -0.28609166 0.031897873 -0.092547804 -0.26159292
-0.046890803 0.28694296 -0.30711 0.018983338 0.13093913 -0.111830056 0.13426332 0.020476252
0.061102893 0.13371873 0.21642174 0.11750165 -0.13329145 0.13474205 -0.26186758 0.15768264
0.0788539 0.084648415 -0.056697536 -0.10162267 -0.21407908 0.038329214 0.006662125 0.21484882
0.1347374 0.21808335 0.20558718 0.21319067 0.13205199 0.13132325 -0.21187083 -0.15089208
-0.011156117 0.015663859 -0.25086638 -0.14593707 0.19274461 0.0873451 -0.19441965 0.2231764
0.20256351 -0.06234774 0.1887487 -0.30659962 0.15959579 -0.21692564 -0.23028445 0.076527454
-0.16323456 -0.19262247 -0.25514877 -0.2591211 0.15561059 -0.14546895 -0.10738936 0.13469322
0.124849826 -0.0028296087 -0.28293607 0.21174134 -0.21516518 -0.31498224 0.13117531 0.19727625
0.09313844 0.12622708 0.069510415 -0.31012067 -0.087263845 0.13943772 -0.05747086 -0.08875248
0.17929769 0.015424786 -0.023040028 -0.019848617 -0.17566359 0.028073808 -0.0829179 0.21985367
-0.07735988 -0.2562256 -0.035535477 -0.060707286 0.053255778 0.0133046545 -0.14873818 0.0851001
00000000: 450e 31bd 1bf0 113d 2ce1 8ebe 66f9 a33d
00000010: 0875 b03b ad6a 813d 0dc7 e43d 187c f2bd
00000020: 049f 64be 0d06 2e3d e16d e93d 1936 e4bd
00000030: 6020 3fbe 09c9 683e 2b08 bbbd 4a2d 1cbe
00000040: 0f31 0e3e 8bc2 683e 3aa6 063e c2d1 093e
00000050: fb73 b33d 8f0b 413e 442c 233e f55e ce3d
00000060: 3390 a63d f11c 58bd df0e 03be a706 f0bd
00000070: f5e1 dd3c 6c67 58be 57ad 99be aa2a 64be
00000080: aa27 b43d a02b 82bd d554 debc 8ab7 c23c
00000090: 9b7a 92be 58a7 023d b489 bdbd 82ef 85be
000000a0: 9210 40bd 30ea 923e 863d 9dbe f282 9b3c
000000b0: e814 063e 2807 e5bd 537c 093e d0bd a73c
000000c0: 0747 7a3d 90ed 083e a99d 5d3e b4a4 f03d
000000d0: 8e7d 08be d2f9 093e 8213 86be 8f77 213e
000000e0: 277e a13d 265c ad3d ad3b 68bd 8c1f d0bd
000000f0: 8c37 5bbe 18ff 1c3d f44d da3b 5401 5c3e
00000100: 9af8 093e 3e51 5f3e 7285 523e a84e 5a3e
00000110: a338 073e 9a79 063e abf4 58be 7483 1abe
00000120: 25c8 36bc 7e51 803c 8f71 80be 8770 15be
00000130: d85e 453e fde1 b23d f215 47be 5b88 643e
00000140: cf6c 4f3e 5860 7fbd 5747 413e a0fa 9cbe
00000150: 146d 233e c121 5ebe b0cf 6bbe 6dba 9c3d
00000160: f626 27be d33e 45be dca2 82be 85ab 84be
00000170: 6258 1f3e d0f5 14be f4ee dbbd 05ed 093e
00000180: 44b1 ff3d f570 39bb ffdc 90be b9d2 583e
00000190: 4354 5cbe 5a45 a1be d252 063e c902 4a3e
000001a0: 5ebf be3d ac41 013e 7a5b 8e3d 23c8 9ebe
000001b0: 63b7 b2bd c3c8 0e3e 9166 6bbd dcc3 b5bd
000001c0: d099 373e 3eb8 7c3c 71be bcbc 9199 a2bc
000001d0: 28e1 33be 0bfb e53c dcd0 a9bd 5221 613e
000001e0: db6e 9ebd 0030 83be a68d 11bd 34a8 78bd
000001f0: bb22 5a3d c4fb 593c d24e 18be f648 ae3d

encoder.2.0.bias f4 [8]
-0.08790183 0.22511633 -0.22127563 -0.23400488 -0.08451903 -0.02551117 -0.22562696 0.24227291
00000000: e005 b4bd e584 663e 1496 62be fa9e 6fbe
00000010: 5018 adbd cdfc d0bc c10a 67be 6416 783e

encoder.2.1.weight f4 [8]
0.921571 0.925164 0.92431664 0.9055899 0.9138412 0.9169565 0.92992 0.93518215
00000000: 14ec 6b3f 8cd7 6c3f 04a0 6c3f bdd4 673f
00000010: 7ff1 693f a9bd 6a3f 3d0f 6e3f 1968 6f3f

encoder.2.1.bias f4 [8]
-0.0968781 -0.09945789 -0.089567386 -0.00045221887 0.09705518 -0.07605624 0.10413495 -0.070292175
00000000: 0668 c6bd 94b0 cbbd 1b6f b7bd ca17 edb9
00000010: dec4 c63d 60c3 9bbd b444 d53d 58f5 8fbd

encoder.2.1.running_mean f4 [8]
-0.2706528 0.3355401 -0.39555457 -0.04631979 0.15736955 -0.46376917 -0.34287506 0.10856544
00000000: 0193 8abe e9cb ab3e 2186 cabe d2b9 3dbd
00000010: 7c25 213e 2773 edbe 528d afbe 8f57 de3d

encoder.2.1.running_var f4 [8]
0.24054495 0.2553746 0.367518 0.16424015 0.20173807 0.33928046 0.3161173 0.15993315
00000000: 6a51 763e 76c0 823e 522b bc3e 922e 283e
00000010: 6d94 4e3e 2bb6 ad3e 20da a13e 84c5 233e

mu.weight f4 [5, 8]
-0.014400817 -0.0413821 0.06716603 0.022175796 -0.012785001 -0.058863852 -0.17842557 0.28639045
-0.16981523 -0.011671167 -0.1504309 0.11407345 -0.1520533 -0.08027369 0.061513826 -0.14494324
-0.14750323 0.11785754 -0.031832747 -0.033208482 -0.16676384 0.061396744 -0.18582353 0.0012597308
-0.13388439 0.058359623 0.12999648 -0.16093151 0.14805655 0.16447017 -0.01948799 0.13744754
0.052694082 -0.0680945 0.037159618 0.19091205 -0.052715164 -0.09761447 0.11556922 0.0363002
00000000: 68f1 6bbc 4780 29bd 588e 893d 04aa b53c
00000010: 2e78 51bc 391b 71bd 31b5 36be c5a1 923e
00000020: 0be4 2dbe 6c38 3fbc 8f0a 1abe 579f e93d
00000030: dcb3 1bbe 8866 a4bd ecf5 7b3d 006c 14be
00000040: 160b 17be 4b5f f13d 0e63 02bd 9e05 08bd
00000050: 24c4 2abe 277b 7b3d 8648 3ebe 8d1d a53a
00000060: fd18 09be 800a 6f3d cc1d 053e 3bcb 24be
00000070: 239c 173e de6a 283e 47a5 9fbc 0cbf 0c3e
00000080: c0d5 573d 2175 8bbd af34 183d 737e 433e
00000090: dbeb 57bd 18ea c7bd 8eaf ec3d 85af 143d

mu.bias f4 [5]
0.0129729 0.10373581 0.14244387 -0.08650819 -0.076330945
00000000: 498c 543c 7173 d43d cedc 113e 352b b1bd
00000010: 6653 9cbd

sigma.weight f4 [5, 8]
0.10180986 0.28356868 0.18482031 -0.1250037 -0.30005273 -0.112849705 -0.45251164 0.21318378
-0.0019794768 0.06596238 0.2034669 0.20918582 -0.22371581 -0.21786253 -0.07879699 0.3145537
-0.20315422 -0.22560485 -0.24243967 -0.25918555 0.13503729 -0.18960904 -0.21320692 -0.0059443787
0.3091073 -0.18188843 -0.24569038 0.21007052 -0.14504738 -0.0431672 -0.2008409 -0.06916559
-0.24532884 -0.13294667 -0.28337383 0.26186794 -0.24724965 -0.22356358 0.13410434 -0.25347087
00000000: b081 d03d ea2f 913e 8941 3d3e f800 00be
00000010: 83a0 99be bf1d e7bd 9baf e7be d94c 5a3e
00000020: 1cba 01bb 4917 873d a159 503e cf34 563e
00000030: c215 65be 5b17 5fbe 5160 a1bd 2f0d a13e
00000040: a907 50be f504 67be 1b42 78be f8b3 84be
00000050: 3747 0a3e df28 42be ea52 5abe 10c9 c2bb
00000060: 5043 9e3e f640 3abe 4296 7bbe ba1c 573e
00000070: 4d87 14be 17d0 30bd 3da9 4dbe b0a6 8dbd
00000080: 7c37 7bbe 2c23 08be 6016 91be 8e13 863e
00000090: 032f 7dbe daed 64be a652 093e efc6 81be

sigma.bias f4 [5]
0.23150209 -0.018687677 0.2828859 0.12964886 0.17998314
00000000: e20e 6d3e e616 99bc 6cd6 903e acc2 043e
00000010: 804d 383e

decoder.0.0.weight f4 [8, 5]
0.40013334 0.210946 0.27831772 -0.24488053 -0.01791556 -0.058613192 0.34929994 0.24507989
0.10007898 0.0007199811 0.28993368 -0.35397336 0.047448777 -0.17008428 0.29599956 0.27174398
-0.058482222 0.021049587 -0.1771587 -0.024014447 0.17610572 0.089990295 0.1376992 -0.1181448
0.012440677 0.22979277 -0.16281442 -0.2339704 0.21952057 -0.3995595 0.46344608 0.20281333
0.21143627 -0.16979094 -0.15531059 0.40038624 -0.27457267 -0.11133653 -0.26943803 -0.038911473
00000000: 47de cc3e 3a02 583e a97f 8e3e f6c1 7abe
00000010: a7c3 92bc 6314 70bd 71d7 b23e 39f6 7a3e
00000020: 35f6 cc3d 1dbd 3c3a 3072 943e ff3b b5be
00000030: a659 423d 932a 2ebe 418d 973e 0722 8b3e
00000040: 0e8b 6fbd 2f70 ac3c 1769 35be f2b9 c4bc
00000050: 0f55 343e d54c b83d 0501 0d3e e7f5 f1bd
00000060: fbd3 4b3c cc4e 6b3e d3b8 26be f095 6fbe
00000070: 00ca 603e 1093 ccbe ce48 ed3e 4cae 4f3e
00000080: c082 583e addd 2dbe bd09 1fbe 6dff cc3e
00000090: ca94 8cbe 6804 e4bd c8f3 89be a361 1fbd

decoder.0.0.bias f4 [8]
0.11278275 0.16618063 -0.047615204 -0.28836972 -0.31404194 -0.11502348 0.19232783 0.34766135
00000000: a4fa e63d 412b 2a3e 2908 43bd 32a5 93be
00000010: 1bca a0be 6e91 ebbd 96f1 443e ab00 b23e

decoder.0.1.weight f4 [8]
1.0642927 1.0523479 1.0122113 1.1243777 0.9560535 0.8573287 0.91539043 0.9803826
00000000: be3a 883f 56b3 863f 2490 813f 9ceb 8f3f
00000010: ecbf 743f e579 5b3f 0757 6a3f 5bfa 7a3f

decoder.0.1.bias f4 [8]
-0.045284383 -0.026742965 0.016189257 0.047975205 -0.07838403 -0.15609542 -0.07786136 -0.08855608
00000000: 1e7c 39bd 1014 dbbc 559f 843c a681 443d
00000010: ce87 a0bd 7ad7 1fbe c775 9fbd e45c b5bd

decoder.0.1.running_mean f4 [8]
0.10022769 0.16059497 -0.061955035 -0.290151 -0.31980798 -0.096392535 0.18732442 0.3454922
00000000: 2d44 cd3d 0273 243e 90c4 7dbd ac8e 94be
00000010: dfbd a3be 7369 c5bd f9d1 3f3e 5be4 b03e

decoder.0.1.running_var f4 [8]
0.34030247 0.18968982 0.332192 0.11294188 0.07158055 0.34396422 0.3554075 0.32903454
00000000: 203c ae3e 0c3e 423e 1215 aa3e 134e e73d
00000010: d398 923d 141c b03e f9f7 b53e 3777 a83e

decoder.1.0.weight f4 [16, 8]
0.29480848 -0.1638358 0.3104156 0.07664432 -0.19456002 0.19600493 -0.032269765 0.22341473
-0.1715315 -0.2275179 -0.38949293 -0.24406348 -0.3136625 -0.28783286 0.23455735 0.1053218
0.38139933 -0.18734571 0.26292852 0.32566586 0.026344612 0.0811644 0.12683864 0.060149107
0.21737504 0.0005755766 0.03766917 0.2643407 0.006516388 -0.073215365 0.0007572563 -0.24036111
0.16122913 -0.038596205 -0.15878206 -0.3257692 -0.40459982 0.06466654 -0.29662493 -0.20133606
-0.41187522 -0.22848317 -0.095292896 -0.12391706 0.0069728284 -0.09718521 0.14874537 -0.09227439
0.30137143 0.37284827 -0.10735154 -0.13575892 -0.19598046 -0.029688977 -0.25292537 0.07067085
0.22608167 0.35566416 0.17641315 0.31474367 0.19389129 0.108436264 0.005594298 -0.24392422
-0.1422986 -0.055367082 0.01721008 0.2420608 0.2786078 -0.018702073 0.10581661 0.25414988
0.28137687 0.2719141 -0.051390648 -0.07840926 -0.061199345 -0.02738714 -0.11926903 -0.1145865
0.28445294 -0.21035792 0.21724911 0.2544479 0.1279991 0.071262956 0.121327415 0.23720498
-0.30318832 0.06309777 -0.27462804 -0.15232028 0.18017201 -0.035056986 -0.18409824 -0.3933428
-0.2877968 0.21115585 -0.31875926 -0.23494725 0.072136864 -0.03010522 -0.20910724 -0.29693747
0.22302833 0.041109145 0.14048283 0.17387648 0.13561982 0.04045322 0.048737902 0.0894404
-0.26374984 0.21965383 -0.042335156 -0.28997308 0.005740489 -0.03121143 0.088637814 0.03836465
-0.011726495 -0.3433766 -0.234536 0.00804806 0.04820796 0.001006494 -0.25902152 -0.18690817
00000000: 23f1 963e 92c4 27be cbee 9e3e b2f7 9c3d
00000010: be3a 47be 84b5 483e 4d2d 04bd d5c6 643e
00000020: f4a5 2fbe 74fa 68be 9e6b c7be c7eb 79be
00000030: 5f98 a0be d45e 93be cd2f 703e f5b2 d73d
00000040: c646 c33e 8ed7 3fbe 919e 863e adbd a63e
00000050: a8d0 d73c 8539 a63d fde1 013e e95e 763d
00000060: 9097 5e3e 4be2 163a fd4a 1a3d aa57 873e
00000070: 6d87 d53b f0f1 95bd 9c82 463a 3921 76be
00000080: 4019 253e 0e17 1ebd c497 22be 38cb a6be
00000090: b527 cfbe e46f 843d 39df 97be 0a2b 4ebe
000000a0: 4fe1 d2be 7ef7 69be ec28 c3bd 3ac8 fdbd
000000b0: 537c e43b 0a09 c7bd b550 183e 5bfa bcbd
000000c0: 5b4d 9a3e f8e5 be3e 20db dbbd 6304 0bbe
000000d0: 1aaf 48be 4c36 f3bc 6f7f 81be e1bb 903d
000000e0: f481 673e 9d19 b63e a6a5 343e 1526 a13e
000000f0: 708b 463e d513 de3d 5f50 b73b 45c7 79be
00000100: b9b6 11be 98c8 62bd 27fc 8c3c c9de 773e
00000110: aea5 8e3e 1735 99bc 61b6 d83d ef1f 823e
00000120: a110 903e 5338 8b3e 007f 52bd 0995 a0bd
00000130: 2aac 7abd ff5a e0bc 5243 f4bd 54ac eabd
00000140: d1a3 913e 1168 57be 8d76 5e3e ff46 823e
00000150: 3212 033e 50f2 913d 827a f83d dde5 723e
00000160: 803b 9bbe 6739 813d 0c9c 8cbe d9f9 1bbe
00000170: 037f 383e ea97 0fbd 4084 3cbe 3a64 c9be
00000180: 1a5a 93be 3d39 583e 6a34 a3be 0396 70be
00000190: 7ebc 933d 399f f6bc 3520 56be 3008 98be
000001a0: 8a61 643e 1062 283d bbda 0f3e ad0c 323e
000001b0: ecdf 0a3e 47b2 253d 65a1 473d 872c b73d
000001c0: 380a 87be efec 603e a167 2dbd 5a77 94be
000001d0: b61a bc3b 1daf ffbc be87 b53d 4024 1d3d
000001e0: 7c20 40bc 0fcf afbe 352a 70be 03dc 033c
000001f0: b675 453d 56ec 833a 789e 84be db64 3fbe

decoder.1.0.bias f4 [16]
0.25379744 0.08223352 0.2938212 0.0074828975 0.3103792 -0.29501328 -0.29478374 0.1725833
-0.27246714 0.35073018 0.31874365 -0.29802847 -0.1361849 -0.24576916 0.065620385 -0.23436137
00000000: bdf1 813e 0c6a a83d bb6f 963e 1833 f53b
00000010: 06ea 9e3e fb0b 97be e5ed 96be adb9 303e
00000020: d080 8bbe e892 b33e 5e32 a33e 3097 98be
00000030: 0e74 0bbe e9aa 7bbe fb63 863d 6dfc 6fbe

decoder.1.1.weight f4 [16]
0.9130329 0.87349033 1.0832478 1.026489 0.9536806 0.9421802 1.0123445 1.0487636
0.97063726 0.9517638 1.0478634 0.9954524 1.0717605 1.0866555 0.94152004 0.8984791
00000000: 86bc 693f 109d 5f3f dda7 8a3f fe63 833f
00000010: 6924 743f b932 713f 8194 813f e33d 863f
00000020: af7b 783f cba6 733f 6320 863f f8d5 7e3f
00000030: 732f 893f 8717 8b3f 7507 713f ba02 663f

decoder.1.1.bias f4 [16]
-0.01991406 -0.15462692 0.2054206 -0.0007792766 0.18965824 0.09850864 0.08175498 0.06870875
0.036922425 -0.036019694 0.103898495 0.122226074 0.14950992 0.030744703 0.043644514 -0.07355088
00000000: d022 a3bc 8556 1ebe c759 523e 5e48 4cba
00000010: c535 423e e6be c93d 286f a73d 2cb7 8c3d
00000020: f83b 173d 6389 13bd bcc8 d43d aa51 fa3d
00000030: 2119 193e 51dc fb3c 97c4 323d d8a1 96bd

decoder.1.1.running_mean f4 [16]
0.51870054 -0.42125946 0.72110486 0.13195498 -0.14294188 -0.65626305 -0.26200992 0.63803774
-0.020347795 0.4115489 0.7383592 -0.71979976 -0.55819243 0.1026193 -0.067592055 -0.6005865
00000000: 8fc9 043f 52af d7be 549a 383f 351f 073e
00000010: 5b5f 12be db00 28bf 2a26 86be 7156 233f
00000020: 6bb0 a6bc 8ab6 d23e 1c05 3d3f cc44 38bf
00000030: b3e5 0ebf 112a d23d b46d 8abd 09c0 19bf

decoder.1.1.running_var f4 [16]
0.16935658 0.17326415 0.37792987 0.052042246 0.33073673 0.10863941 0.08439613 0.20428748
0.14672132 0.069170915 0.3968111 0.30487207 0.41663074 0.15952016 0.10356217 0.09044793
00000000: d06b 2d3e 286c 313e 0680 c13e 402a 553d
00000010: 5356 a93e 577e de3d e1d7 ac3d bd30 513e
00000020: 1d3e 163e 7ba9 8d3d d32a cb3e 3118 9c3e
00000030: a050 d53e 4159 233e 6718 d43d c43c b93d

decoder.2.0.weight f4 [64, 16]
0.09123538 -0.03981361 -0.024544703 0.093718246 0.014802563 0.18323623 0.009789457 0.26591617
0.19793546 0.07430152 0.1007174 -0.19757207 -0.09438366 0.08517955 -0.024770396 0.16761686
0.15638055 -0.16815746 -0.2506133 -0.20986238 0.006800243 0.14839263 0.0018465613 -0.22868302
-0.21991082 -0.15224554 0.07697186 0.031847626 0.17284249 -0.27518055 0.17896484 -0.0822947
-0.018896503 -0.13292193 0.05275154 -0.04659913 0.028390614 -0.2333037 0.037068617 0.011109505
-0.17999436 0.10375811 0.040741235 -0.24459805 -0.098345 0.21601796 -0.099811055 -0.21017121
-0.26069173 -0.1520292 0.12509859 -0.21134128 -0.011539829 -0.13085887 -0.21724962 -0.023115631
-0.29485577 0.13216394 -0.14897563 -0.002081239 -0.047582537 -0.12700446 -0.021252094 0.050136395
0.024512092 0.055715147 0.24850188 0.18644676 0.124390826 -0.013950377 -0.012506547 0.12199907
-0.021785343 0.12730786 -0.044403534 0.056646325 0.07856181 -0.009851813 0.17468736 -0.048242368
0.019542783 -0.19044901 -0.07361179 0.028438816 0.043820966 0.04942743 -0.14443181 -0.0093254335
-0.148117 -0.19376808 -0.1918962 -0.012039158 -0.009787614 -0.2678186 0.062565826 -0.09926893
0.11857104 -0.0017461427 -0.25145802 0.07621287 0.18217194 -0.09494352 -0.17815265 -0.2087971
-0.077243716 0.13876121 -0.07250665 -0.17011355 0.19918613 -0.025088051 0.17089894 0.13389157
-0.063752696 -0.0306175 0.011513519 -0.00827809 -0.09979417 -0.29657453 -0.0040108818 -0.032687567
0.22478038 0.0070927087 0.25192714 -0.036587946 -0.17867512 -0.19200002 0.08944164 0.0018718124
0.060085833 0.13464819 -0.11095981 0.15814866 -0.21483088 -0.031372502 0.023322284 0.21829835
0.14568119 -0.063639 0.044324826 0.089612186 0.06431137 0.19888416 -0.1897136 0.20849487
0.1305927 -0.24389552 0.21468145 0.18365395 -0.14636889 0.03487761 -0.15202537 -0.11519708
0.1892366 -0.10969092 -0.26545417 -0.11464274 -0.1360203 0.17374736 -0.12337007 0.10187889
0.16918497 0.059972465 -0.0010250709 -0.31280592 0.17921406 -0.0005169007 -0.0005860188 -0.042467263
0.073555216 -0.05096917 -0.1306978 0.16245234 0.15136231 -0.10976832 0.0559414 -0.0332476
0.13191521 0.059044555 0.0034835127 -0.044933215 -0.16980955 -0.004738016 -0.1954423 0.25536507
-0.08060331 -0.02520649 -0.030675652 -0.32146263 0.030156804 0.19540532 -0.062148504 -0.16002382
0.17347388 0.057846516 -0.29738024 0.09977951 0.02016263 -0.048021115 -0.18403202 -0.114297435
-0.10961158 0.093849905 -0.17988017 0.20364812 0.024382517 0.12665533 -0.0106786275 -0.036335584
0.10529516 -0.02471601 -0.097244434 -0.14732487 0.04718002 0.0055918703 0.05800937 -0.16337419
-0.083020076 0.15432616 -0.1773666 -0.09184976 -0.025299232 -0.13924742 -0.097662576 -0.099975646
0.12951334 -0.12158433 0.21205826 -0.12933046 -0.17688009 -0.053105913 0.24445619 0.16158985
0.18605351 0.121640496 0.19624186 0.08314061 0.14360769 0.16519956 0.16291517 -0.28526908
-0.023588384 0.10371312 -0.25351256 -0.10329907 -0.0013080147 0.008858939 0.1484173 -0.017348226
0.1677496 -0.009269269 -0.22962543 0.14210083 0.023343978 -0.25120544 0.021886528 0.1811963
00000000: 9dd9 ba3d 9913 23bd f911 c9bc 5aef bf3d
00000010: 7386 723c 47a2 3b3e f563 203c 2a26 883e
00000020: 98af 4a3e 652b 983d ed44 ce3d 5550 4abe
00000030: 384c c1bd 9e72 ae3d 49eb cabc c1a3 2b3e
00000040: 3922 203e 7831 2cbe 6350 80be 2ae6 56be
00000050: 93d4 de3b 3df4 173e 5108 f23a e22b 6abe
00000060: 4d30 61be 41e6 1bbe 6ca3 9d3d a872 023d
00000070: 9ffd 303e 77e4 8cbe 8f42 373e 208a a8bd
00000080: d7cc 9abc b01c 08be 0012 583d bbde 3ebd
00000090: 6f93 e83c 2ae7 6ebe 43d5 173d a404 363c
000000a0: 7150 38be 227f d43d 48e0 263d e977 7abe
000000b0: 1a69 c9bd d033 5d3e bd69 ccbd 1f37 57be
000000c0: 6379 85be 8bad 1bbe d819 003e d969 58be
000000d0: 8d11 3dbc deff 05be af76 5ebe fe5c bdbc
000000e0: 56f7 96be fc55 073e 118d 18be 6565 08bb
000000f0: e8e5 42bd 750d 02be df18 aebc d25b 4d3d
00000100: 95cd c83c 9135 643d 4777 7e3e e6eb 3e3e
00000110: 9ec0 fe3d 1f90 64bc 43e8 4cbc a6da f93d
00000120: 2d77 b2bc fe5c 023e 7be0 35bd fa05 683d
00000130: 04e5 a03d 8069 21bc 3ee1 323e ca99 45bd
00000140: 3018 a03c 1105 43be c7c1 96bd 85f8 e83c
00000150: 9d7d 333d 6b74 4a3d efe5 13be b4c9 18bc
00000160: fcab 17be 246b 46be 7080 44be e33f 45bc
00000170: 3b5c 20bc 851f 89be 8322 803d 824d cbbd
00000180: 60d5 f23d d4de e4ba 1bbf 80be 7e15 9c3d
00000190: 488b 3a3e c071 c2bd a66d 36be e8ce 55be
000001a0: f431 9ebd 6b17 0e3e 5e7e 94bd 3f32 2ebe
000001b0: 73f7 4b3e 7585 cdbc 2200 2f3e df1a 093e
000001c0: c690 82bd 8dd1 fabc 33a3 3c3c d3a0 07bc
000001d0: e360 ccbd 9ed8 97be b76d 83bb 66e3 05bd
000001e0: d42c 663e f469 e83b 98fc 803e 3edd 15bd
000001f0: 9cf6 36be a79b 44be 2e2d b73d 9a57 f53a
00000200: 901c 763d 37e1 093e e63e e3bd b9f1 213e
00000210: a0fc 5bbe 7480 00bd 600e bf3c 9a89 5f3e
00000220: 732d 153e 2a55 82bd f38d 353d 9886 b73d
00000230: aeb5 833d 4aa8 4b3e 4844 42be ae7f 553e
00000240: 18ba 053e bfbf 79be 74d5 5b3e c80f 3c3e
00000250: bae1 15be d3db 0e3d 8aac 1bbe 72ec ebbd
00000260: 3dc7 413e a2a5 e0bd 9ce9 87be d0c9 eabd
00000270: e848 0bbe d4ea 313e 72a9 fcbd e1a5 d03d
00000280: d33e 2d3e b0a5 753d ac5b 86ba 1928 a0be
00000290: e483 373e 9e80 07ba 0e9f 19ba 27f2 2dbd
000002a0: 1ea4 963d 0cc5 50bd a5d5 05be e859 263e
000002b0: b9fe 1a3e 37ce e0bd cf22 653d a32e 08bd
000002c0: c814 073e b4d8 713d a54b 643b e40b 38bd
000002d0: 8ee2 2dbe 5c41 9bbb 0722 48be 36bf 823e
000002e0: 5913 a5bd d77d cebc 814b fbbc c096 a4be
000002f0: 670b f73c 5518 483e 6e8f 7ebd 49dd 23be
00000300: 23a3 313e 78f0 6c3d 3942 98be 3359 cc3d
00000310: 1a2c a53c cab1 44bd e472 3cbe c614 eabd
00000320: 097c e0bd 6134 c03d 8232 38be 2289 503e
00000330: d8bd c73c efb1 013e 69f5 2ebc 9fd4 14bd
00000340: fda4 d73d 3b79 cabc 1728 c7bd 55dc 16be
00000350: d63f 413d 023c b73b 3c9b 6d3d 904b 27be
00000360: 6e06 aabd ad07 1e3e 979f 35be ba1b bcbd
00000370: 5640 cfbc e096 0ebe 5103 c8bd 08c0 ccbd
00000380: 259f 043e 3501 f9bd cd25 593e 346f 04be
00000390: 0e20 35be 9685 59bd b952 7a3e cf77 253e
000003a0: d084 3e3e a71e f93d a0f3 483e a045 aa3d
000003b0: e50d 133e 132a 293e 3cd3 263e ca0e 92be
000003c0: 6d3c c1bc 8b67 d43d 66cc 81be 768e d3bd
000003d0: b171 abba 1525 113c b4fa 173e de1d 8ebc
000003e0: 8dc6 2b3e 22de 17bc ee22 6bbe e182 113e
000003f0: df3b bf3c 009e 80be 604b b33c 868b 393e

decoder.2.0.bias f4 [64]
-0.2466665 -0.0367096 -0.15394327 0.119657785 0.1247381 -0.24307384 0.08886229 -0.0044928417
-0.20849635 0.17757243 0.10485172 0.012358167 0.06492144 -0.1841077 -0.09025208 0.031805027
-0.089662984 0.078646965 0.08904502 -0.1812047 -0.22057253 -0.045681674 -0.14589188 -0.04815757
0.2162254 -0.14486769 -0.08449694 -0.11038897 0.25155228 0.062223695 -0.24312098 0.058033563
-0.030895965 0.09900596 -0.09861416 0.21337828 0.18779896 0.18604563 0.056701034 0.21071054
0.15311152 -0.19260877 -0.10685682 0.07534386 0.19675511 0.054948654 0.110315695 0.10185305
-0.10029634 -0.04249529 -0.19267164 -0.15347521 -0.13908404 0.16287199 0.18964079 -0.076228075
-0.09672406 -0.02794064 -0.12407085 0.055058725 0.19343792 0.07839027 0.1310967 -0.12491753
00000000: 2596 7cbe ce5c 16bd 4ea3 1dbe 240f f53d
00000010: b076 ff3d 59e8 78be 6ffd b53d b038 93bb
00000020: 1180 55be 8cd5 353e 80bc d63d e979 4a3c
00000030: 88f5 843d bb86 3cbe 15d6 b8bd fd45 023d
00000040: 3aa1 b7bd a911 a13d 3c5d b63d ba8d 39be
00000050: c4dd 61be b51c 3bbd ae64 15be df40 45bd
00000060: 316a 5d3e 3258 14be bb0c adbd 9d13 e2bd
00000070: 76cb 803e 46de 7e3d b5f4 78be 9ab4 6d3d
00000080: 8919 fdbc a3c3 ca3d 39f6 c9bd d67f 5a3e
00000090: 5f4e 403e bf82 3e3e 583f 683d 81c4 573e
000000a0: 44c9 1c3e 3c3b 45be c0d7 dabd e24d 9a3d
000000b0: 2c7a 493e d711 613d 32ed e13d 5598 d03d
000000c0: 2b68 cdbd 8b0f 2ebd b74b 45be 9b28 1dbe
000000d0: 0c6c 0ebe eac7 263e 3231 423e 771d 9cbd
000000e0: 4417 c6bd c5e3 e4bc dc18 febd 4285 613d
000000f0: 9714 463e 148b a03d 373e 063e c3d4 ffbd

decoder.2.1.weight f4 [64]
0.9563671 1.0035543 0.9637784 0.8627268 0.9263365 0.94528484 0.9478604 0.9422496
0.9403888 0.95741034 0.9524085 0.9181132 0.9321157 0.9270433 0.9456557 0.9436374
0.9345505 0.9826273 0.91382337 0.9649563 0.9006738 0.9554364 0.9606797 0.92843074
0.97204477 0.87110555 0.95570886 0.9237433 0.91904026 0.90714216 0.95551276 0.94675726
0.8650853 0.9409664 0.9509285 0.9451975 0.92710674 0.9577068 0.94538337 0.9417883
0.9167831 0.9726919 0.9565797 0.9451351 0.9602277 0.95433605 0.957348 0.92965025
0.97800565 0.93932277 0.95539486 0.93726844 0.9437509 0.92937374 0.937557 0.93519646
0.94622105 0.9370666 0.9507548 0.94363046 0.92436635 0.93876475 0.876651 0.9121471
00000000: 79d4 743f 7874 803f 2eba 763f aadb 5c3f
00000010: 6424 6d3f 30fe 713f fba6 723f 4537 713f
00000020: 52bd 703f d818 753f 0bd1 733f 7709 6b3f
00000030: 229f 6e3f b652 6d3f 7e16 723f 3892 713f
00000040: b43e 6f3f 768d 7b3f 54f0 693f 6007 773f
00000050: 8f92 663f 7b97 743f 1bef 753f a3ad 6d3f
00000060: edd7 783f c600 5f3f 56a9 743f 717a 6c3f
00000070: 3946 6b3f 783a 683f 7c9c 743f af5e 723f
00000080: 3b76 5d3f 2de3 703f 0d70 733f 77f8 713f
00000090: de56 6d3f 462c 753f a504 723f 0a19 713f
000000a0: 4cb2 6a3f 5602 793f 68e2 743f 60f4 713f
000000b0: 7cd1 753f 5e4f 743f c214 753f 8ffd 6d3f
000000c0: 945e 7a3f 7577 703f c294 743f d3f0 6f3f
000000d0: a999 713f 70eb 6d3f bc03 703f 0969 6f3f
000000e0: 8b3b 723f 99e3 6f3f ab64 733f c491 713f
000000f0: 46a3 6c3f e352 703f 336c 603f 7982 693f

decoder.2.1.bias f4 [64]
-0.031193074 0.03669974 0.060839448 0.05206689 0.006486663 -0.027407376 -0.009363519 -0.02560389
-0.035536807 0.03878951 -0.017749134 0.06786235 -0.03734854 -0.047120005 0.028160544 -0.03831223
-0.03735662 0.06760616 -0.04468141 0.030655794 0.04747948 -0.0013136736 0.022299428 0.06750377
0.021151088 0.0032850592 -0.020012943 -0.055323437 0.082635954 -0.017331334 -0.022395607 -0.0289557
-0.02043633 -0.03469325 0.0069566728 0.022218166 0.015488467 -0.026432332 -0.026527692 -0.025338355
-0.047742907 -0.0012611783 -0.028944597 -0.03419938 -0.0016575184 -0.017228909 -0.027198814 0.0017260704
0.02972879 -0.020516958 -0.02120887 -0.005565236 -0.032805026 0.06576228 -0.011704075 -0.03693462
-0.018682871 -0.0074524106 -0.026926504 0.11324105 -0.030516041 -0.010280033 -0.06252105 0.031502258
00000000: 9e88 ffbc 7752 163d c932 793d 1744 553d
00000010: 138e d43b 6f85 e0bc 7269 19bc 40bf d1bc
00000020: 0b8f 11bd c0e1 1e3d a266 91bc 6afb 8a3d
00000030: c8fa 18bd e800 41bd f1b0 e63c 49ed 1cbd
00000040: 4103 19bd 1975 8a3d db03 37bd dc21 fb3c
00000050: d879 423d 922f acba 4aad b63c 6b3f 8a3d
00000060: 0c45 ad3c 264a 573b 2ff2 a3bc d49a 62bd
00000070: 0a3d a93d 71fa 8dbc fe76 b7bc 8134 edbc
00000080: 176a a7bc 821a 0ebd cdf4 e33b df02 b63c
00000090: 57c3 7d3c 9e88 d8bc 9a50 d9bc 6292 cfbc
000000a0: 118e 43bd 1f4e a5ba 381d edbc a614 0cbd
000000b0: 1741 d9ba a423 8dbc 0cd0 debc 503d e23a
000000c0: cb89 f33c 2e13 a8bc 39be adbc 955c b6bb
000000d0: 905e 06bd 60ae 863d 73c2 3fbc c248 17bd
000000e0: d20c 99bc 5a33 f4bb f994 dcbc ecea e73d
000000f0: c7fc f9bc 956d 28bc 090b 80bd 8308 013d

decoder.2.1.running_mean f4 [64]
0.092389606 -0.34113824 -0.44260308 -0.3988043 0.5805314 -0.67430466 0.025744976 -0.1785611
0.045012213 0.027285771 0.1939115 -0.17367116 -0.048285045 -0.5239673 0.39511445 -0.065725595
-0.10120026 -0.058479555 -0.2088891 -0.5391581 -0.22843902 0.5662608 -0.5766072 -0.430289
-0.19312498 -0.22031936 -0.36075488 -0.2724046 0.083461024 -0.017515771 -0.70116377 -0.110232696
-0.2731777 0.31589168 -0.39340955 -0.18224369 -0.022818515 0.40624145 -0.32187796 0.1595564
-0.25997335 -0.38975108 0.027815057 -0.11726046 -0.27222148 -0.14960054 0.6507754 -0.11441861
-0.36189136 -0.5643751 -0.32210383 -0.08663201 0.24943496 0.88090146 0.12897108 -0.41265565
-0.32914823 -0.060123336 0.14770268 -0.18102062 -0.029551378 0.4542946 0.1746315 -0.52674
00000000: c336 bd3d aca9 aebe df9c e2be 1430 ccbe
00000010: b59d 143f 3b9f 2cbf 21e7 d23c b9d8 36be
00000020: ba5e 383d 6986 df3c bc90 463e dad6 31be
00000030: 8ac6 45bd b922 06bf 714c ca3e 249b 86bd
00000040: 1542 cfbd 4288 6fbd 06e7 55be 4406 0abf
00000050: ebeb 69be 78f6 103f 889c 13bf d74e dcbe
00000060: 8ec2 45be 669b 61be ddb4 b8be 9e78 8bbe
00000070: 9ded aa3d 3c7d 8fbc 787f 33bf aec1 e1bd
00000080: f3dd 8bbe 8ebc a13e fa6c c9be 179e 3abe
00000090: e5ed babc e1fe cf3e 30cd a4be c162 233e
000000a0: 3a1b 85be 748d c7be 67dc e33c 4126 f0bd
000000b0: 9d60 8bbe e230 19be 3799 263f 4e54 eabd
000000c0: d349 b9be e37a 10bf cbea a4be 206c b1bd
000000d0: e16b 7f3e c282 613f ff10 043e 9a47 d3be
000000e0: 1e86 a8be e343 76bd 5f3f 173e 785d 39be
000000f0: bb15 f2bc 4d99 e83e 9ad2 323e 6fd8 06bf

decoder.2.1.running_var f4 [64]
0.32280153 0.7619764 0.16989176 0.28609574 0.123871535 0.263616 0.20727718 0.12861384
0.2544092 0.40644243 0.26458392 0.2627323 0.10721424 0.25988707 0.66561466 0.5156737
0.39406317 0.3042403 0.21568719 0.8665506 0.04093751 0.5902595 0.12077734 0.34397098
0.21780264 0.1046207 0.5264076 0.1635265 0.21996647 0.2366367 0.4962744 0.5141186
0.08257688 0.13917175 0.2498613 0.3210027 0.38875142 0.12277621 0.42420822 0.3283794
0.17719898 0.68164575 0.35512093 0.18883915 0.7364877 0.45716986 0.48361087 0.55018604
0.53124356 0.54511964 0.17368636 0.26491377 0.32248566 0.26706243 0.25113076 0.29059485
0.67631924 0.1955478 0.16573557 0.32971054 0.19007623 0.3062718 0.05090938 0.3560793
00000000: 3e46 a53e e310 433f 1bf8 2d3e 247b 923e
00000010: 5cb0 fd3d adf8 863e 7840 543e 59b3 033e
00000020: ec41 823e 3919 d03e 8b77 873e d984 863e
00000030: 2493 db3d eb0f 853e b965 2a3f 3103 043f
00000040: a6c2 c93e 62c5 9b3e 1add 5c3e 43d6 5d3f
00000050: 17ae 273d 3f1b 173f 1c5a f73d f71c b03e
00000060: a807 5f3e 6143 d63d a6c2 063f 7e73 273e
00000070: e43e 613e e450 723e ae17 fe3e 479d 033f
00000080: 111e a93d 0a83 0e3e a4db 7f3e 775a a43e
00000090: 6d0a c73e 1872 fb3d d231 d93e 5821 a83e
000000a0: a673 353e 5680 2e3f 69d2 b53e 0d5f 413e
000000b0: 758a 3c3f 2b12 ea3e d89b f73e fed8 0c3f
000000c0: 94ff 073f f68c 0b3f d6da 313e c7a2 873e
000000d0: d71c a53e 68bc 883e 3694 803e d9c8 943e
000000e0: 4223 2d3f af3d 483e 96b6 293e d2cf a83e
000000f0: 58a3 423e a8cf 9c3e 5b86 503d 0750 b63e
