experiments/data/vae/142_UCR_Anomaly_InternalBleeding6_1500_3474_3629.txt-.ckpt (torch, 620267 bytes, 102 tensors)

encoder.0.0.weight f4 [128, 148]
0	0xbdb46938	-0.088091314
1	0xbd244128	-0.0401012
2	0xbbebcd73	-0.0071961223
3	0xbd8baf01	-0.06820489
4	0xbd3ea561	-0.046544436
5	0x3c9e69aa	0.019337494
6	0xbcecc402	-0.028902058
7	0xbd865c01	-0.06560517
8	0x3ce7ca8f	0.02829483
9	0x3cdb5473	0.026773667
10	0x3d97bebf	0.07409429
11	0xbceb26e9	-0.028705077
12	0x3d8c1562	0.06840016
13	0xbc99a42c	-0.018755041
14	0x3c83e072	0.016098235
15	0xbd140299	-0.03613529
16	0xbd8e29d8	-0.06941575
17	0x3d6c9ff3	0.057769727
18	0x3d17f630	0.037100017
19	0x3d1c1afd	0.038111676
20	0x3d23c99a	0.039987184
21	0x3d586303	0.0528288
22	0xbd1cca15	-0.038278658
23	0x3c1597b6	0.009130409
24	0xbcf0aeb5	-0.029380182
25	0xbd55dfaa	-0.052215256
26	0x3d371f59	0.04470763
27	0x3d245d75	0.04012819
28	0xbda94c65	-0.08266524
29	0xbd0ce958	-0.03440222
30	0xbda96247	-0.08270698
31	0xbd8946f3	-0.067029856
32	0xbd610054	-0.054931954
33	0x3d93be61	0.07214046
34	0xbca16b3a	-0.01970445
35	0x3a9d45f7	0.0011999
36	0xbb4022bb	-0.0029317576
37	0xbd5303d8	-0.051517338
38	0xbd0ff82f	-0.035148796
39	0xbc5bc29a	-0.013413096
40	0x3d199bb2	0.037502
41	0xbd405a7f	-0.046961304
42	0xbd2dfeef	-0.04247945
43	0x3cb6ea64	0.022328563
44	0xbcf88d4f	-0.030340819
45	0xbd0f88d3	-0.035042595
46	0xbd94138d	-0.072302915
47	0xbbbcc3bd	-0.0057606385
48	0x3da0c3e1	0.07849861
49	0xbd0b1c50	-0.033962548
50	0xbd44664a	-0.047949113
51	0x3cdbe561	0.026842775
52	0x3d85f735	0.065412916
53	0x3d73e360	0.059543014
54	0x3c0275bb	0.007962639
55	0x3d453652	0.048147507
56	0x3d87267c	0.06599137
57	0xbba28807	-0.0049600634
58	0x3d3fc6fd	0.04682063
59	0x3d7c0cc0	0.061535597
60	0x3c8a49c1	0.016880872
61	0xbca02852	-0.019550476
62	0xbd617386	-0.055041812
63	0x3b0646e0	0.0020489022
64	0xbcec1140	-0.02881682
65	0xbce0bc31	-0.027433487
66	0xbdb57d34	-0.08861771
67	0x3d8e4fa3	0.06948783
68	0xbcc54170	-0.024079055
69	0xbd670138	-0.056397647
70	0x3d02d4e5	0.031941313
71	0xbda771fc	-0.08176038
72	0xbd4e79c0	-0.05040908
73	0xbd1bb1b4	-0.038011268
74	0xbd525357	-0.05134901
75	0xbce87743	-0.02837718
76	0x3d1608d2	0.036629505
77	0x3d79e27b	0.061007004
78	0x3c604a71	0.013689623
79	0x3a566b3c	0.00081794313
80	0x3c4b5bd4	0.01241203
81	0x3ced5991	0.028973373
82	0x3d4ecd82	0.050488956
83	0xbd2475c7	-0.040151384
84	0xbd0e15ac	-0.034688637
85	0xbcc978ea	-0.02459379
86	0xbd2782b2	-0.040896125
87	0x3c9dfca2	0.019285504
88	0x3d805157	0.06265514
89	0xbc0f3690	-0.008741036
90	0xbd38b00c	-0.045089766
91	0x3d7a19c0	0.061059713
92	0xbd0395b3	-0.032125186
93	0xbd868df6	-0.06570046
94	0x3ca6030b	0.020265123
95	0xbbf7f378	-0.0075668655
96	0x3d1373cc	0.035999104
97	0xbd8c0f22	-0.06838824
98	0xbc84c209	-0.016205804
99	0xbb50c17c	-0.0031853607
100	0x3d099d1d	0.0335971
101	0xbb9b9627	-0.004748124
102	0x3d3402c2	0.043947943
103	0xbc89e93d	-0.01683485
104	0xbd520349	-0.051272664
105	0xbc4be7b8	-0.012445383
106	0xbd2594d2	-0.04042513
107	0xbd3a6afd	-0.04551219
108	0x3d8a7dc0	0.06762266
109	0x3d3b9789	0.045798812
110	0x3dbbbae2	0.091665044
111	0xbc7af819	-0.01531794
112	0x3d0e8554	0.03479512
113	0x3d4c606a	0.049896635
114	0xbd416263	-0.04721297
115	0xbca4d092	-0.020118985
116	0x3d9f3871	0.07774437
117	0x3ce5038d	0.027955795
118	0x3c92b3b4	0.017907955
119	0x3c4a40e6	0.012344575
120	0x3d1c2064	0.038116828
121	0x3d1283b1	0.035770122
122	0x3cfcbcd8	0.030851766
123	0x3d15a0ab	0.036530178
124	0xbd04a7db	-0.032386642
125	0xbd8b90f0	-0.06814754
126	0x3b8302d4	0.00399814
127	0xba8a1562	-0.0010534937
128	0x3d6767d9	0.05649552
129	0x3d849358	0.06473416
130	0x3db50bd2	0.08840145
131	0xbd8b1e63	-0.06792905
132	0x3d10d175	0.035356004
133	0xbd035521	-0.032063607
134	0x3cd898f6	0.026440125
135	0xbd725c44	-0.059170023
136	0x3cabff32	0.02099571
137	0x3d5ad349	0.053424153
138	0xbbebf255	-0.007200519
139	0x3c001597	0.007817647
140	0xbcdced75	-0.026968697
141	0x3d3651d4	0.04451163
142	0x3d79e4f7	0.061009374
143	0xbd735af1	-0.0594129
144	0x3d2e25c0	0.04251647
145	0xbd533835	-0.051567275
146	0xbda335eb	-0.079692684
147	0x3cd2d95f	0.025738416
148	0x3d154c0b	0.036449473
149	0x3c1b0910	0.00946261
150	0xbcc8c26d	-0.024506772
151	0x3cd51c86	0.026014578
152	0xbc9d28dd	-0.019184524
153	0x3c93824e	0.01800647
154	0xbda0fff4	-0.07861319
155	0x3d0d7be6	0.034541987
156	0x3d01b3f7	0.03166577
157	0x3cb5440b	0.022127172
158	0xbdad2379	-0.084540315
159	0xbd0cfbc7	-0.0344198
160	0x3c44385c	0.011976328
161	0xbd2e1797	-0.042502966
162	0x3d1a4c70	0.037670553
163	0x3d41d38c	0.047320887
164	0xbd30765c	-0.043081626
165	0xbdb70dea	-0.08938201
166	0x3cc7ed19	0.02440505
167	0x3987869b	0.00025849495
168	0x3d6aaf4d	0.057296086
169	0xbda1ba60	-0.07896876
170	0xbd71e4c0	-0.059056044
171	0x3d85272c	0.06501612
172	0xbd434da4	-0.047681466
173	0xbc811505	-0.015757093
174	0xbd35f88c	-0.044426486
175	0xbda7de5b	-0.08196708
176	0xbd4b4e1c	-0.049635038
177	0x3d74c8ef	0.059761938
178	0x3d88d5f1	0.06681431
179	0x3b3f61d0	0.0029202588
180	0xbd71a512	-0.058995314
181	0xbc9dc12b	-0.019257149
182	0x3c60b3ee	0.013714774
183	0x3d29c4b6	0.041447364
184	0x3d6715de	0.05641734
185	0x3d725bc5	0.05916955
186	0xbb3aa20f	-0.0028477942
187	0x3d32574a	0.043540277
188	0x3d599231	0.053117935
189	0x3d3d6b28	0.04624477
190	0x3d7e8062	0.062134154
191	0xbbe2c4c2	-0.006920428
192	0x3d864bba	0.065574124
193	0xbda72b72	-0.081625834
194	0x3d15ae7a	0.036543347
195	0xbd157a74	-0.036493734
196	0xbd191ba8	-0.03737989
197	0x3bc0f84a	0.0058889734
198	0x3cf6139b	0.030038645
199	0xbd5ef749	-0.05443505
200	0x3cb67dc8	0.022276774
201	0x3c8ee752	0.017444286
202	0x3d9fdb9d	0.0780556
203	0xbd17ec01	-0.037090305
204	0xbd2f05fb	-0.042730313
205	0x38323061	4.2483563e-05
206	0x3cb8ea20	0.022572577
207	0xbb0640c5	-0.0020485383
208	0xbc4c83ce	-0.012482597
209	0x3d9a6747	0.0753923
210	0x3d094abd	0.03351854
211	0xbcf32ee9	-0.029685454
212	0x3d46e16b	0.04855482
213	0x3c002807	0.007822043
214	0xbb55fa39	-0.0032650365
215	0xbd31b9ff	-0.04339027
216	0x3cc50c6d	0.024053777
217	0x3d17eff4	0.03709407
218	0x3da8286e	0.08210836
219	0xbd050666	-0.032476805
220	0x3d370b7f	0.044688698
221	0x3d9c2171	0.07623566
222	0xbd8488a0	-0.06471372
223	0xbd25ff25	-0.040526528
224	0x3d665dfd	0.056241978
225	0xbd17b242	-0.037035234
226	0xbd2f4e44	-0.04279925
227	0x3d884acf	0.066548936
228	0x3dad73ae	0.0846933
229	0xbcf68ac2	-0.030095462
230	0xbc5c34a1	-0.013440282
231	0x3cd8ceb7	0.026465757
232	0x3d806005	0.06268314
233	0xbd0faa6b	-0.035074633
234	0x3c096bbb	0.008387501
235	0x3d51e99e	0.051248185
236	0x3cb7d332	0.022439573
237	0xbc5adb49	-0.013357946
238	0x3da47a2a	0.080311134
239	0x3d3e560c	0.04646878
240	0x3cb99529	0.022654133
241	0xbd2d5422	-0.042316563
242	0xbd318236	-0.04333707
243	0x3d91c26c	0.07117161
244	0x3b700c92	0.0036628586
245	0x3b2581dc	0.0025254404
246	0x3c5de9eb	0.01354454
247	0x3d94b5b0	0.07261217
248	0x3da251a3	0.07925727
249	0x3c71dc2b	0.014761965
250	0x3be1dfda	0.0068931403
251	0x3c8bcc6f	0.017065255
252	0xbc07bfce	-0.008285476
253	0x3d99e341	0.07514048
254	0xbd671363	-0.056414973
255	0x3d8e7660	0.06956172

encoder.0.0.bias f4 [128]
0	0x3c81eea3	0.015860861
1	0xbd892697	-0.066968136
2	0xbcfda4b6	-0.03096233
3	0xbb4a5410	-0.003087286
4	0x3ca222e1	0.019792022
5	0xbd2c1c9c	-0.04201947
6	0x3b1b1dc9	0.0023668876
7	0x3cbff34a	0.023431439
8	0x3d8f4106	0.06994824
9	0x3d92a7e1	0.071609266
10	0x3cc0e94b	0.023548743
11	0xbdaf1fcb	-0.08550986
12	0xbda1347b	-0.07871338
13	0xbb52022d	-0.0032044754
14	0x3d845893	0.06462207
15	0xbbe14b10	-0.006875403
16	0xbd2fa9ad	-0.042886425
17	0x3d340fc1	0.043960337
18	0x3d3f1fc9	0.046661172
19	0x3d981fee	0.07427965
20	0xbc3840ed	-0.011245948
21	0x3d97a081	0.074036606
22	0x3d7c7a3e	0.061640017
23	0xbd81425b	-0.063114844
24	0x3d45ddef	0.048307355
25	0xbd6b1285	-0.05739071
26	0xbcc4d084	-0.02402521
27	0x3c54e3d7	0.012993774
28	0xbd8e3fcf	-0.06945764
29	0x3cdee9ab	0.027211031
30	0x3ceb3865	0.028713414
31	0xbb88a371	-0.0041698744
32	0x3d78d965	0.0607542
33	0x3c86b590	0.016443998
34	0x3d940ded	0.07229219
35	0x3c4ae15e	0.012382833
36	0x3b6a4872	0.0035748747
37	0x3c9ce377	0.019151432
38	0x3c3ba263	0.01145229
39	0x3d9e0bb9	0.0771708
40	0xbc6923b3	-0.014229703
41	0x3d8ffc8e	0.07030593
42	0xbd26c7df	-0.040717956
43	0xbd2cda37	-0.042200293
44	0x3d06f42d	0.032947708
45	0xbc9fe1c7	-0.019516839
46	0x3ccf0be4	0.025274225
47	0xbca448cc	-0.020054244
48	0xbccdbecc	-0.025115393
49	0xbca91a40	-0.0206424
50	0xbd13b0e4	-0.036057368
51	0xbd42e9d9	-0.047586296
52	0x3d8f8353	0.0700747
53	0x3ba40f9b	0.005006743
54	0xbccb0b9a	-0.024785805
55	0x3c8b3f16	0.016997855
56	0xbce6e8e5	-0.028187225
57	0x3d8552c2	0.065099254
58	0xbc36a9c8	-0.011148877
59	0xbd7a101f	-0.06105053
60	0xbda103ab	-0.07862028
61	0x3b48aa2d	0.003061901
62	0x3cb70bd2	0.022344504
63	0xbd5a2694	-0.053259447
64	0xbdb1957b	-0.08671089
65	0x3d61c3d4	0.055118397
66	0x3d8d2ca2	0.06893279
67	0xbd8e3264	-0.06943205
68	0x3d2bf2ed	0.04197972
69	0x3da9ad43	0.08285
70	0xbcad927d	-0.021188015
71	0xbd88cd0d	-0.06679735
72	0x3ca4f083	0.020134216
73	0x3ba2eeee	0.0049723303
74	0x3d8a9369	0.067663975
75	0xbba40a0b	-0.00500608
76	0xbce41f6f	-0.02784702
77	0xbda3fd11	-0.08007253
78	0x3c6f2674	0.01459657
79	0x3c60aef7	0.01371359
80	0xbcb0858d	-0.021548057
81	0xbcae5e44	-0.021285184
82	0x3d08967d	0.03334664
83	0xbaed9013	-0.0018124603
84	0xbc117b35	-0.0088794725
85	0x3d1dde61	0.038542155
86	0x3cddedea	0.027090985
87	0x3c0c4eb6	0.008563688
88	0xbd82c122	-0.063844934
89	0x3c9aafb1	0.018882604
90	0x3d66695a	0.056252815
91	0x3cc02d1e	0.023459014
92	0xbd1496c0	-0.03627658
93	0xbd7b425f	-0.061342593
94	0x3cdd62d5	0.027024666
95	0x3d104c0f	0.035228785
96	0x3d9bc79b	0.07606431
97	0x3d8b4048	0.0679937
98	0xbd32e916	-0.04367932
99	0x3bae164a	0.0053127157
100	0xbd87ab39	-0.06624455
101	0xbd836eb7	-0.064176016
102	0xbd6fe9e3	-0.05857266
103	0xbd1a650c	-0.037694022
104	0x3a0eb91e	0.0005444455
105	0x3cfd396c	0.03091117
106	0x3da17a35	0.07884637
107	0x3d7dc8f6	0.06195923
108	0x3cdcd7ba	0.026958335
109	0xbc4e9b78	-0.012610309
110	0x3cb648e4	0.022251554
111	0x3d713d97	0.058896627
112	0x3d65e2a0	0.05612433
113	0xbda35eb2	-0.07977046
114	0xbccb55a1	-0.024821104
115	0xbd3e4b4e	-0.046458535
116	0x3bed1202	0.0072348127
117	0x3c84e57d	0.01622271
118	0xbd66a2cd	-0.056307603
119	0xbd850a61	-0.0649612
120	0x3d1a687a	0.037697293
121	0xbd2228d9	-0.039589737
122	0x3d7bdbf4	0.06148906
123	0x3d9c287a	0.07624908
124	0x3d9f8afc	0.07790181
125	0xbd6d63a8	-0.057956368
126	0xbd239f01	-0.03994656
127	0xbd836832	-0.06416358

encoder.0.1.weight f4 [128]
0	0x3f7e0386	0.99224126
1	0x3f7c4034	0.98535466
2	0x3f7fefbe	0.9997519
3	0x3f805f33	1.0029052
4	0x3f7e1d23	0.9926321
5	0x3f7fe2f8	0.999557
6	0x3f8040ab	1.0019735
7	0x3f7f9c76	0.99848115
8	0x3f7f1eb8	0.9965625
9	0x3f7df9a1	0.9920903
10	0x3f80a678	1.0050802
11	0x3f80df9a	1.0068238
12	0x3f809568	1.0045595
13	0x3f7bf91b	0.9842698
14	0x3f7f21d2	0.9966098
15	0x3f81459c	1.0099368
16	0x3f800c49	1.0003749
17	0x3f820281	1.0157014
18	0x3f81334b	1.0093778
19	0x3f8104f9	1.0079643
20	0x3f80e48c	1.0069747
21	0x3f7e67fc	0.9937742
22	0x3f80d977	1.0066365
23	0x3f7fb49d	0.9988497
24	0x3f7f6c68	0.9977479
25	0x3f80fbeb	1.0076879
26	0x3f80b4a6	1.005513
27	0x3f8070dc	1.0034442
28	0x3f80b32c	1.0054679
29	0x3f80faf9	1.0076591
30	0x3f7f1f02	0.9965669
31	0x3f810f02	1.0082705
32	0x3f808bbe	1.0042646
33	0x3f80d5c3	1.0065235
34	0x3f7f3eb1	0.99705034
35	0x3f7e97e1	0.994505
36	0x3f81bfe8	1.013669
37	0x3f80ad5c	1.0052905
38	0x3f7eb050	0.9948778
39	0x3f7e5a2a	0.9935633
40	0x3f7f5b13	0.99748343
41	0x3f809cd9	1.0047866
42	0x3f7fd6dd	0.9993723
43	0x3f7ee742	0.9957162
44	0x3f80c25f	1.0059317
45	0x3f802291	1.0010549
46	0x3f7e7146	0.9939159
47	0x3f80cff6	1.0063465
48	0x3f828f13	1.0199913
49	0x3f8188f8	1.0119925
50	0x3f7dea7b	0.99185914
51	0x3f7e8455	0.9942067
52	0x3f8139af	1.0095729
53	0x3f804eb2	1.0024016
54	0x3f804e99	1.0023986
55	0x3f7dfdc8	0.99215364
56	0x3f7eb29c	0.99491286
57	0x3f81635f	1.0108451
58	0x3f80a6bf	1.0050887
59	0x3f803361	1.001568
60	0x3f8014b2	1.0006316
61	0x3f7c6891	0.98597056
62	0x3f7e4e1b	0.9933793
63	0x3f7e7841	0.9940224
64	0x3f80303b	1.0014719
65	0x3f80fd90	1.0077381
66	0x3f7dae78	0.99094343
67	0x3f7eb538	0.9949527
68	0x3f80d41a	1.0064728
69	0x3f7e2dd2	0.99288666
70	0x3f80b2c1	1.0054551
71	0x3f7e07af	0.99230474
72	0x3f80b52d	1.005529
73	0x3f811b59	1.0086471
74	0x3f7f533e	0.9973639
75	0x3f7f4b94	0.997247
76	0x3f80218f	1.0010241
77	0x3f80d637	1.0065373
78	0x3f7db171	0.9909888
79	0x3f7dc221	0.9912434
80	0x3f81fd3f	1.015541
81	0x3f7e4579	0.99324757
82	0x3f7d4620	0.9893513
83	0x3f7f9579	0.9983745
84	0x3f7e86ab	0.99424237
85	0x3f809374	1.0044999
86	0x3f8003ed	1.0001198
87	0x3f7f1941	0.9964791
88	0x3f7e1579	0.99251515
89	0x3f7dfe98	0.99216604
90	0x3f7e8de7	0.99435276
91	0x3f7dd634	0.99154973
92	0x3f7daefc	0.9909513
93	0x3f813905	1.0095526
94	0x3f7f5cde	0.9975108
95	0x3f7f48ac	0.99720263
96	0x3f803e98	1.0019102
97	0x3f803f46	1.001931
98	0x3f7eff52	0.9960834
99	0x3f81839d	1.011829
100	0x3f7f2d80	0.996788
101	0x3f7f7170	0.99782467
102	0x3f7de17f	0.99172205
103	0x3f7fd1a0	0.9992924
104	0x3f7d3e18	0.9892287
105	0x3f803df9	1.0018913
106	0x3f7de620	0.9917927
107	0x3f7e45ec	0.9932544
108	0x3f7ece81	0.9953385
109	0x3f8010cf	1.000513
110	0x3f80258a	1.0011456
111	0x3f7f6404	0.99761987
112	0x3f7ee713	0.9957134
113	0x3f80704c	1.003427
114	0x3f800b6b	1.0003484
115	0x3f7f9e56	0.99850976
116	0x3f808ff8	1.0043936
117	0x3f7f2543	0.9966623
118	0x3f7eb7b4	0.9949906
119	0x3f80c159	1.0059005
120	0x3f80c077	1.0058736
121	0x3f81397d	1.0095669
122	0x3f7aa3ea	0.97906363
123	0x3f7ee17d	0.9956282
124	0x3f80a807	1.0051278
125	0x3f80a6b1	1.005087
126	0x3f7ea529	0.99470764
127	0x3f7f7c30	0.9979887

encoder.0.1.bias f4 [128]
0	0x3c08c221	0.008347065
1	0xbb03d115	-0.0020113636
2	0xbbca4d46	-0.0061737625
3	0x3a808496	0.0009805139
4	0xbbcc1a35	-0.00622871
5	0x3c8e29a8	0.017353848
6	0x3b0225ce	0.001985896
7	0xbbba83fd	-0.0056920038
8	0xbba20053	-0.0049438863
9	0x3b9f4651	0.0048606773
10	0x3bb560cf	0.005535222
11	0x3ab1e647	0.0013572656
12	0x3c019858	0.007909857
13	0xbc88d57c	-0.01670336
14	0xbb535492	-0.0032246453
15	0x3c7eec3f	0.015559255
16	0xbbe2d25f	-0.006922051
17	0x3bda69d5	0.006665448
18	0x3be054c9	0.0068460447
19	0x3c216f52	0.009853201
20	0x3b82798d	0.003981775
21	0xbbab54eb	-0.005228629
22	0x3c07a01c	0.008277919
23	0x3b200d69	0.0024422056
24	0xbb574f44	-0.0032853642
25	0x3c1ca216	0.009560129
26	0x3bb9716c	0.005659273
27	0x3bd6d2da	0.006555897
28	0x3b586440	0.0033018738
29	0x3c45c612	0.012071149
30	0x3c084f0e	0.008319629
31	0x3c870afb	0.016484728
32	0x3c2fe470	0.010735616
33	0x3b9420a8	0.0045204945
34	0xbb8a8550	-0.004227318
35	0xbb331050	-0.0027322955
36	0x3c89811c	0.016785197
37	0x3b6dc24e	0.0036279145
38	0xba647319	-0.00087146607
39	0xbb59e968	-0.0033250693
40	0x38bc204a	8.970553e-05
41	0x3bfe9d7c	0.0077702384
42	0x3bc00cf5	0.0058609196
43	0xbbfde76f	-0.0077485363
44	0x3b88ff9d	0.004180862
45	0xb98979a7	-0.00026221314
46	0xbc1441e6	-0.009048915
47	0x399adbdf	0.00029536986
48	0x3c8d8918	0.017277285
49	0x38e8666a	0.00011081698
50	0x3b117c45	0.0022199315
51	0xbbe9fdb2	-0.0071408385
52	0x3b9d70ab	0.004804691
53	0x3bbcee2b	0.0057656965
54	0x3c590c7e	0.013247607
55	0xbc5a6b7c	-0.01333129
56	0x3baa4454	0.0051961336
57	0xbb14c19f	-0.0022698415
58	0xbacac222	-0.0015469233
59	0x3ac86c82	0.0015291127
60	0xbbc34d49	-0.005960141
61	0xbb957d73	-0.004562074
62	0xbb7ceee3	-0.0038594536
63	0xbc03b43f	-0.0080385795
64	0x3b0c0fcc	0.002137172
65	0x3c0bc350	0.008530453
66	0xbb8ef6e7	-0.004362929
67	0xbb932f60	-0.0044917315
68	0x3c002bec	0.007822972
69	0x3c79e9cb	0.0152534945
70	0x3b38ac51	0.002817888
71	0xbc519a18	-0.0127930865
72	0x3c251ffb	0.0100784255
73	0x3c5afa95	0.0133654075
74	0xbb79bd8a	-0.003810736
75	0xbb671f47	-0.0035266445
76	0x3c16f7cb	0.009214352
77	0x3c1289e5	0.008944009
78	0xbc2c6614	-0.010522384
79	0x3af4eb5b	0.0018685864
80	0x3b3e3f80	0.0029029548
81	0x3baf92e7	0.0053580883
82	0xbbc811c3	-0.006105633
83	0xbc1a1539	-0.009404474
84	0xbb680d44	-0.0035408298
85	0xb94b6ea8	-0.00019400811
86	0xba2772cf	-0.0006387652
87	0x3abc5bf8	0.001437067
88	0xbc238ed3	-0.009982782
89	0xbbeb0309	-0.0071719927
90	0xbae635f8	-0.0017563691
91	0x3b4bce25	0.0031098214
92	0x3a82b25d	0.0009971369
93	0x3aaf57e7	0.0013377637
94	0xbb3973b3	-0.0028297722
95	0xbc6d0d5a	-0.014468515
96	0x3c2e950d	0.010655654
97	0x3c28f569	0.010312417
98	0xbc43241a	-0.011910463
99	0xbadb94eb	-0.0016752755
100	0xba50e64e	-0.00079688884
101	0x3c14599b	0.009054567
102	0xbbfea5b1	-0.007771217
103	0xbcc01151	-0.023445757
104	0xbb211eb1	-0.0024584944
105	0x3a223bd2	0.00061887235
106	0xbc2ca0ec	-0.010536414
107	0x3a40cf81	0.0007355139
108	0xbbc30489	-0.0059514684
109	0x3b5929a9	0.0033136404
110	0xb9f2f02a	-0.00046336773
111	0xbb59c536	-0.003322912
112	0x3c11f825	0.00890926
113	0xbaa6d9f0	-0.0012729745
114	0x3bda35c9	0.0066592437
115	0xbbe15731	-0.006876849
116	0x3b3cb95d	0.0028797009
117	0x3bd8d102	0.0066167125
118	0x3ba5e3b0	0.005062543
119	0x3b8d13ae	0.0043053245
120	0xbb1d75a2	-0.0024026413
121	0x3b7f5951	0.003896315
122	0xbc34f61d	-0.011045006
123	0xbbe5159b	-0.006991101
124	0x3c1a1e0f	0.009406581
125	0x3c2c8b7d	0.0105313035
126	0xbb3de9f8	-0.0028978568
127	0x3ba2008f	0.0049439142

encoder.0.1.running_mean f4 [128]
0	0xbd96bf5c	-0.07360718
1	0x3e805d6d	0.25071278
2	0xbd460947	-0.04834869
3	0xbebcb229	-0.36854675
4	0x3cb64783	0.022250896
5	0x3e8d48e4	0.27594674
6	0x3b3bd0fd	0.0028658502
7	0xbede560e	-0.4342503
8	0xbe490f3f	-0.19634722
9	0x3efe8079	0.49707392
10	0xbdec9ffa	-0.115539506
11	0xbd8769d0	-0.06611979
12	0x3e593dc1	0.21214963
13	0x3eba187b	0.36346802
14	0x3e675b65	0.22593458
15	0x3d261a4e	0.04055243
16	0xbe462545	-0.19350155
17	0x3e774421	0.24147083
18	0x3d9ebc8d	0.07750807
19	0xbe01958d	-0.12654705
20	0xbd8133d7	-0.06308716
21	0x3ce115a2	0.027476136
22	0x3edf4a49	0.43611363
23	0xbea2f6e1	-0.3182898
24	0xbd20fc85	-0.03930332
25	0xbe04c3d1	-0.12965323
26	0xbcad606e	-0.021164145
27	0x3e687707	0.22701655
28	0xbe6d9134	-0.23199922
29	0xbdb5b6ba	-0.08872743
30	0x3dc0f344	0.09421399
31	0xbe650080	-0.22363472
32	0x3e902413	0.28152522
33	0x3e3ef6db	0.18648855
34	0xbe24989d	-0.16073842
35	0x3ea3b233	0.31971893
36	0x3d9fc0fa	0.07800479
37	0xbd05e260	-0.03268659
38	0xbe4ab4e2	-0.19795564
39	0xbe0301ba	-0.12793627
40	0xbd8b5394	-0.06803051
41	0x3e48aa3a	0.19596186
42	0x3ce05514	0.027384318
43	0x3b0a988b	0.0021148052
44	0x3dbba099	0.09161491
45	0xbaa94322	-0.0012913684
46	0x3f27fbfe	0.65618885
47	0x3d150434	0.03638096
48	0xbdd43a8c	-0.103627294
49	0xbe2712d2	-0.16315773
50	0xbe197832	-0.14987257
51	0x3e01a013	0.1265872
52	0xbddbc5cc	-0.10731086
53	0xbb0835da	-0.002078405
54	0x3d9e25fc	0.07722089
55	0xbce86b52	-0.028371487
56	0x3ea55f3b	0.32299218
57	0x3ded988f	0.11601364
58	0xbe0d670a	-0.13808838
59	0xbda08808	-0.07838446
60	0x3e1b6f46	0.15179166
61	0x3ea2f647	0.3182852
62	0x3e4ab3be	0.19795129
63	0x3dde9de1	0.10869957
64	0x3d7794e5	0.06044473
65	0x3dd8e985	0.10591415
66	0x3dc6e08a	0.09710796
67	0xbe96c8ad	-0.29449978
68	0xbddae949	-0.10689027
69	0x3eaa5e41	0.33275035
70	0x3eecf65a	0.462817
71	0xbe815ec0	-0.252676
72	0x3e3427e7	0.17593347
73	0x3cd6e26b	0.026231011
74	0x3e1c0040	0.1523447
75	0x3f0cde09	0.550263
76	0xbe4198ba	-0.18905917
77	0xbdad5b29	-0.08464653
78	0x3d4428b6	0.047890387
79	0xbe292219	-0.16516913
80	0xbd2bac67	-0.041912463
81	0xbe3fea47	-0.18741713
82	0x3ee08ac3	0.43855867
83	0x3e5cee5a	0.21575299
84	0x3e26cda0	0.16289377
85	0x3e9842dd	0.29738513
86	0xbedbd27f	-0.42934033
87	0xbd9be880	-0.07612705
88	0xbd4c6e4a	-0.049909867
89	0xbcd878ae	-0.026424732
90	0x3eb5b041	0.35486034
91	0x3d70117a	0.058610417
92	0xbe3e2916	-0.1857036
93	0x3d8458c4	0.06462243
94	0xbd82419d	-0.06360171
95	0xbe9ddd9c	-0.30833137
96	0xbef8f4d7	-0.48624298
97	0x3c2fe869	0.010736563
98	0x3e26c2e8	0.16285288
99	0x3cef99aa	0.029248077
100	0xbdd4eeec	-0.10397133
101	0xbdf114ff	-0.11771583
102	0x3e0ea4b3	0.13930015
103	0x3e0d7423	0.13813834
104	0xbe10c171	-0.14136292
105	0xbe080680	-0.1328373
106	0x3e01a59c	0.12660831
107	0xbe9fd67f	-0.31218335
108	0x3e48bb7d	0.19602771
109	0x3e21dd79	0.15807141
110	0x3e688b59	0.22709407
111	0x3d8045b9	0.062632985
112	0xbb9b4797	-0.004738759
113	0x3c2ef522	0.010678561
114	0xbda97ae1	-0.082753904
115	0xbd3420ab	-0.043976467
116	0x3d09089b	0.033455472
117	0x3e21c7cf	0.15798877
118	0x3d859140	0.06521845
119	0x3e5b3ee4	0.2141071
120	0xbcb38823	-0.021915501
121	0xbd9b645b	-0.07587501
122	0x3ebb312c	0.36560953
123	0x3ea0ff9c	0.31445014
124	0x3bf5600f	0.0074882577
125	0xb8c5394a	-9.404363e-05
126	0x3c8fea79	0.01756786
127	0xbb46d333	-0.0030338287

encoder.0.1.running_var f4 [128]
0	0x3ce3884e	0.027774956
1	0x3d4017ee	0.04689782
2	0x3d048e72	0.03236241
3	0x3d0f9a3e	0.035059206
4	0x3cdb2a59	0.026753591
5	0x3d3ee1e3	0.04660214
6	0x3ce9fd76	0.028563242
7	0x3c7275a2	0.014798554
8	0x3d4240e5	0.04742517
9	0x3cf57786	0.02996422
10	0x3c99bd0e	0.018766906
11	0x3d175279	0.036943886
12	0x3cae9c09	0.021314638
13	0x3ca9e3c1	0.020738484
14	0x3cf4d932	0.029888723
15	0x3d901393	0.070349835
16	0x3ce06bff	0.027395247
17	0x3d03e66f	0.03220218
18	0x3c114988	0.008867629
19	0x3d4f4af6	0.050608598
20	0x3c955ab7	0.018231733
21	0x3d47f873	0.048820924
22	0x3da4fd91	0.080561765
23	0x3d1430c2	0.03617931
24	0x3d8d1f26	0.06890707
25	0x3d35c6da	0.044379093
26	0x3ccee4c4	0.025255568
27	0x3d16f226	0.036852024
28	0x3d01c2f0	0.031680048
29	0x3cc0ceea	0.023536164
30	0x3db493cb	0.08817252
31	0x3d3dfc22	0.04638303
32	0x3d5e528d	0.054277945
33	0x3ccdb7cf	0.02511206
34	0x3dc3708b	0.0954295
35	0x3d24ade6	0.040204905
36	0x3d2e7d43	0.042599928
37	0x3d7ea572	0.0621695
38	0x3d750bb1	0.059825603
39	0x3da14a57	0.07875507
40	0x3d9e96d1	0.0774361
41	0x3c93da88	0.01804854
42	0x3d44eec0	0.048079252
43	0x3d050259	0.032472942
44	0x3ca694d9	0.020334648
45	0x3d19784f	0.03746825
46	0x3d0909aa	0.033456482
47	0x3cf7a332	0.030229185
48	0x3d0b8c8b	0.03406958
49	0x3cd533a0	0.026025593
50	0x3d9b2969	0.07576258
51	0x3c3a983b	0.011388834
52	0x3d2d9720	0.042380452
53	0x3cebfbbb	0.028806558
54	0x3d8d614c	0.069033235
55	0x3cf3889a	0.029728223
56	0x3ce3e289	0.027817981
57	0x3c59780a	0.013273248
58	0x3ce38542	0.027773503
59	0x3d2c933d	0.042132605
60	0x3ded9b6a	0.116019085
61	0x3d954d7f	0.07290172
62	0x3d6430bd	0.055710543
63	0x3caa3b21	0.020780148
64	0x3d25b957	0.040459957
65	0x3d5c36f7	0.053763356
66	0x3ddd24ec	0.10798058
67	0x3d6448d5	0.05573352
68	0x3cd3892e	0.025822248
69	0x3db5b040	0.08871508
70	0x3d7e1092	0.06202752
71	0x3c866d93	0.016409671
72	0x3d5488fd	0.051888455
73	0x3d23a091	0.03994805
74	0x3cb82b15	0.02248148
75	0x3d193d70	0.037412107
76	0x3d4db5d2	0.050222225
77	0x3c968495	0.018373767
78	0x3d040e99	0.032240484
79	0x3cd357e4	0.025798745
80	0x3c48905b	0.012241448
81	0x3dd9bf2b	0.106321655
82	0x3d158f5d	0.036513675
83	0x3d421254	0.04738076
84	0x3ceb1a5f	0.028699098
85	0x3c683d7c	0.014174815
86	0x3d44586e	0.047935896
87	0x3d5501e0	0.05200374
88	0x3c6a9e1a	0.014319921
89	0x3d33f429	0.04393402
90	0x3d00711a	0.031357862
91	0x3d3c1aa1	0.045923833
92	0x3d7f93eb	0.062396925
93	0x3cb4b408	0.022058502
94	0x3d90416b	0.070437275
95	0x3d074fd5	0.033035118
96	0x3d5a9e77	0.05337378
97	0x3d68bf32	0.056822963
98	0x3d5351b5	0.051591594
99	0x3ca58f1f	0.020209847
100	0x3d62a70f	0.0553351
101	0x3d82f2b3	0.063939475
102	0x3c4f1437	0.012639097
103	0x3ca74f79	0.020423638
104	0x3da39c04	0.07988742
105	0x3c68dea9	0.014213243
106	0x3c513f64	0.012771461
107	0x3d45ea95	0.048319418
108	0x3c9163ea	0.017747838
109	0x3d1403fb	0.03613661
110	0x3d67f834	0.05663319
111	0x3d2420f9	0.040070508
112	0x3dc6da84	0.09709647
113	0x3d4b9b19	0.04970846
114	0x3d854f44	0.06509259
115	0x3ce1cbcc	0.027562998
116	0x3d283238	0.041063517
117	0x3d6b3cc4	0.057430997
118	0x3d0bc6f9	0.034125302
119	0x3d208b26	0.039195202
120	0x3ca98497	0.020693107
121	0x3d85a692	0.065259114
122	0x3d016aac	0.03159587
123	0x3d522070	0.051300466
124	0x3d263c68	0.04058495
125	0x3d246158	0.040131897
126	0x3d25d7c4	0.040488973
127	0x3d64e88b	0.055885833

encoder.1.0.weight f4 [32, 128]
0	0xbb82d6dd	-0.003992899
1	0xbc8cdbcd	-0.017194653
2	0xbbd8cffd	-0.006616591
3	0x3d221c88	0.03957799
4	0xbb8ede2a	-0.00435998
5	0x3d8ec2bf	0.069707386
6	0x3cd965c2	0.02653778
7	0x3d08d9ce	0.03341084
8	0x3cabfb0d	0.020993734
9	0x3ce24d1b	0.027624657
10	0x3bfdd1a5	0.007745939
11	0xbd5ae356	-0.05343946
12	0x3dc17bd1	0.09447444
13	0x3d9e5dc1	0.07732726
14	0x3d8c1da2	0.068415895
15	0x3d9d636a	0.07684977
16	0xbd187f27	-0.037230637
17	0x3d5ce608	0.053930312
18	0x3c58030a	0.013184318
19	0xbc15b1b3	-0.009136605
20	0x3da82908	0.08210951
21	0x3c79a0c0	0.01523608
22	0xbcb88049	-0.022522109
23	0xbd07d778	-0.03316447
24	0x3cafcb1f	0.02145916
25	0x3d1ff9c5	0.03905656
26	0xbd74aaa0	-0.059733033
27	0xbcc0202f	-0.023452846
28	0x3c5b5cf9	0.013388866
29	0xbce007c3	-0.027347451
30	0x3d64170d	0.055686045
31	0xbb040ffd	-0.0020151131
32	0x3d96483c	0.07337996
33	0xbd82d416	-0.063881084
34	0xbd88c80d	-0.06678782
35	0x3d7ca47d	0.061680306
36	0xbd16b2a3	-0.036791455
37	0xbd9d7edc	-0.07690212
38	0x3d668cdd	0.05628668
39	0xbd6ad661	-0.057333354
40	0xbd1c21c7	-0.03811815
41	0xbd943d02	-0.07238199
42	0x3cd7afd4	0.026328959
43	0xbd832839	-0.06404156
44	0xbd9d3609	-0.07676322
45	0xbd7faa93	-0.06241853
46	0x3da38512	0.079843655
47	0x3d12ff6f	0.03588813
48	0xba0522cf	-0.0005078734
49	0x3c3a0a65	0.011355017
50	0x3d3ae4b8	0.04562828
51	0x3c5a36d6	0.013318738
52	0xbace2940	-0.0015728846
53	0xbd95fc46	-0.07323508
54	0xbd9715db	-0.073772155
55	0xbd94b89f	-0.07261776
56	0x3d437ab4	0.04772444
57	0xbd4cc07b	-0.04998825
58	0x3d33a040	0.043854
59	0x3c5232c2	0.012829484
60	0xbc9cf5c7	-0.019160165
61	0xbcffafd2	-0.031211767
62	0x3d2f8ca0	0.04285872
63	0xbdb26add	-0.08711789
64	0x3ce94c33	0.028478717
65	0xbd485536	-0.04890939
66	0xbd78ce73	-0.06074376
67	0xbc880555	-0.016604105
68	0x3cc15fc0	0.023605227
69	0x3d928937	0.07155078
70	0x3d87db84	0.06633666
71	0x3d5a804c	0.05334501
72	0xbce6b4ac	-0.028162323
73	0x3d1422cc	0.036165997
74	0xbc87474a	-0.016513485
75	0x3da8c4cf	0.08240663
76	0x3cf72757	0.030170126
77	0xbd26e381	-0.04074431
78	0x3d2e0829	0.04248825
79	0x3d7e3740	0.06206441
80	0x3cbe5d6f	0.023237912
81	0xbb386e97	-0.0028142089
82	0xbd7c3d70	-0.06158203
83	0x3d264b9a	0.040599443
84	0xbd9b2a9f	-0.07576489
85	0xbb0a394b	-0.0021091278
86	0x3d94bf1e	0.07263015
87	0xbda9d7ce	-0.082931146
88	0x3ae799b1	0.0017669705
89	0xbd82c969	-0.06386072
90	0x3d8099e2	0.06279351
91	0xbd799df2	-0.060941644
92	0xbd1ed456	-0.038776718
93	0x3d947615	0.07249085
94	0xbd567b52	-0.0523637
95	0x3cf1723f	0.029473422
96	0xbd6d23c0	-0.057895422
97	0xbcac9e39	-0.02107154
98	0x3d0c34e9	0.034230147
99	0xbd726252	-0.059175797
100	0xbd9e1ca7	-0.07720309
101	0x3bff5467	0.007792044
102	0xbc0cf175	-0.00860249
103	0xbd121835	-0.035667617
104	0xbcdbf86a	-0.026851851
105	0xbda9ca15	-0.08290497
106	0x3ce4abd1	0.02791396
107	0xbd939749	-0.0720659
108	0x3c182104	0.009285215
109	0xbd4095a1	-0.047017697
110	0xbc82731b	-0.015924027
111	0x3dab017a	0.08349891
112	0x3cbed7ba	0.023296226
113	0xbcd5b940	-0.02608931
114	0xbd8b7777	-0.068098955
115	0xbd910d72	-0.070826426
116	0xbcc56adf	-0.024098812
117	0xbca36ec1	-0.019950273
118	0xbd901e5f	-0.07037043
119	0xbd2884fa	-0.04114244
120	0x3daf7922	0.08568026
121	0x3d9672da	0.07346125
122	0xbd7b53bf	-0.061359163
123	0xbd23af15	-0.039961893
124	0x3d65bca4	0.056088105
125	0xbd5e7db5	-0.054319102
126	0xbcc793d0	-0.024362475
127	0x3cec5104	0.028847225
128	0x3d8df8e9	0.069322415
129	0xbc6cefeb	-0.014461498
130	0x3d749710	0.059714377
131	0x3c6dafff	0.014507293
132	0x3c9839b8	0.01858221
133	0xbc852836	-0.016254526
134	0xbdb88dd8	-0.090114295
135	0xbd01bfef	-0.031677183
136	0xbb8b46da	-0.0042503895
137	0xbbaea285	-0.0053294324
138	0xbd9b8b69	-0.0759495
139	0xbd0396c9	-0.03212622
140	0x3d580be1	0.052745704
141	0x3caec1d1	0.021332653
142	0x3c31a310	0.0108421
143	0x3d083ad3	0.033259224
144	0x3bae84b4	0.005325878
145	0xbda3079a	-0.07960434
146	0xbd5f2dc6	-0.054487012
147	0xbda7f9ea	-0.08201964
148	0x3d580d5b	0.05274711
149	0xbd3e3a56	-0.046442352
150	0x3ca5b8d2	0.02022973
151	0x3d397de0	0.04528606
152	0xbd560719	-0.052252863
153	0x3d329bd7	0.04360565
154	0xbd2afcc0	-0.041744947
155	0xbdc87813	-0.09788527
156	0x3c98478f	0.01858881
157	0xbd4b9005	-0.049697895
158	0xbd9bb1ab	-0.07602247
159	0x3cea5b50	0.028607994
160	0xbd833919	-0.06407375
161	0xbcdf3dce	-0.02725115
162	0x3d8bd2a7	0.06827288
163	0xbd971c5a	-0.073784545
164	0xbd32a511	-0.04361445
165	0xbdac4d2c	-0.08413157
166	0x3c6cd41c	0.014454868
167	0x3d1a1b48	0.037623674
168	0xbcd6d01f	-0.026222287
169	0xbd084e4d	-0.0332778
170	0xbd072407	-0.032993343
171	0xbc54b755	-0.012983163
172	0x3cc9b9e9	0.024624782
173	0xbbd90d63	-0.0066239103
174	0x3d965cb3	0.073419
175	0xbd8abf5e	-0.06774782
176	0xbd804fa5	-0.06265191
177	0x3d509d12	0.050931044
178	0xbca19b14	-0.019727267
179	0xbd42f257	-0.047594395
180	0x3d94b91d	0.0726187
181	0x3da2e51b	0.07953855
182	0x3c072249	0.00824792
183	0xbd80e13e	-0.062929615
184	0xbc0aa2d2	-0.008461671
185	0xbd22be71	-0.0397324
186	0x3dc17010	0.09445202
187	0x3d9d2840	0.07673693
188	0xbd8435c0	-0.064555645
189	0xbda1bcbd	-0.07897327
190	0x3d6ebaf2	0.058283754
191	0xbd25a82e	-0.04044359
192	0xbc199a55	-0.0093751745
193	0xbc045652	-0.008077221
194	0xbda5a17a	-0.0808744
195	0xbcd6baa8	-0.026212052
196	0x3d638b63	0.05555285
197	0x3d8e738b	0.06955632
198	0xbd98d0df	-0.07461714
199	0x3d5e6db5	0.054303844
200	0xbd7206f1	-0.05908865
201	0x3d7cd483	0.061726104
202	0x3d6a0403	0.057132732
203	0xbdbaeb51	-0.09126914
204	0x3ce2d0e8	0.027687505
205	0x3cdaff76	0.026733141
206	0xbc84dea4	-0.016219445
207	0xbcffdf1a	-0.031234313
208	0x3d15ae93	0.03654344
209	0xbd76b8e2	-0.06023491
210	0x3c501d73	0.012702334
211	0xbd3ddf1f	-0.046355363
212	0x3caad107	0.020851625
213	0x3ce9b7e8	0.028530076
214	0xbd8ff2dd	-0.07028744
215	0xbdad9f4d	-0.0847765
216	0x3d8e8cc9	0.069604464
217	0x3d1c9fc4	0.038238302
218	0xbad74690	-0.0016424228
219	0x3db9bf91	0.090697415
220	0x3c8ae750	0.016956002
221	0xbd847402	-0.06467439
222	0x3d81e9d1	0.06343425
223	0x3d9faae6	0.07796268
224	0x3cdf6b5c	0.027272873
225	0xbd5ac157	-0.05340704
226	0x3c12ff7c	0.008972045
227	0xbd99c38b	-0.07508
228	0x3d0e4ecc	0.034743115
229	0x3c1a23b1	0.009407924
230	0x3d4e969e	0.05043661
231	0x3d5e9dfc	0.054349884
232	0x3d943794	0.07237163
233	0xbd383c86	-0.044979595
234	0xbd485687	-0.048910644
235	0xbd8418c0	-0.06450033
236	0xbdc225f8	-0.09479898
237	0xbd4c5d85	-0.049893875
238	0xbce2b495	-0.027673999
239	0xbd9195e6	-0.07108669
240	0xbd7bf351	-0.06151134
241	0xbd913973	-0.07091036
242	0xbcd078aa	-0.025448162
243	0x3d05e3fc	0.032688126
244	0x3d6e51c1	0.058183435
245	0x3d91fc00	0.07128143
246	0xbdb9ba47	-0.09068733
247	0xbc0d9c71	-0.008643256
248	0xbdb87f0f	-0.090086095
249	0x3d239192	0.03993375
250	0xbcf5ca00	-0.030003548
251	0xbda1fd61	-0.07909656
252	0xbc1c7f4b	-0.009551833
253	0x3cc44628	0.023959234
254	0x3d81ef5d	0.06344483
255	0xbd28f7e8	-0.041252047

encoder.1.0.bias f4 [32]
0	0x3cf92e5e	0.030417617
1	0xbcb3b4a6	-0.021936726
2	0x3d91d28f	0.07120239
3	0xbd2957b1	-0.041343395
4	0x3d6c7ea7	0.057737973
5	0x3ce00876	0.027347784
6	0x3b8fb785	0.004385891
7	0xbd47da64	-0.048792258
8	0xbd18b45a	-0.03728137
9	0xbd6b19f9	-0.057397816
10	0xbcd0a560	-0.025469482
11	0xbd2505e7	-0.040288832
12	0xbceb9e2b	-0.028761944
13	0x3da63308	0.08115202
14	0xbd855866	-0.06511001
15	0xbdb36b7c	-0.087607354
16	0xbab818da	-0.0014045492
17	0xbd2f949f	-0.042866345
18	0x3d72c985	0.059274215
19	0xbd1e7198	-0.03868255
20	0x3d503d89	0.050839934
21	0xbd1c9302	-0.038226135
22	0xbcb0769a	-0.021540929
23	0x3d57bb50	0.05266887
24	0x3da701cb	0.08154639
25	0xbd3dc3d4	-0.046329334
26	0xbda5f06e	-0.08102499
27	0xbc2f61e3	-0.01070449
28	0x3d878885	0.06617836
29	0xbd0ada37	-0.033899512
30	0xbd8dc791	-0.0692283
31	0xbdabd11c	-0.08389494

encoder.1.1.weight f4 [32]
0	0x3f802b87	1.0013283
1	0x3f7e5908	0.993546
2	0x3f8234af	1.0172328
3	0x3f7e6eb1	0.9938765
4	0x3f8024be	1.0011213
5	0x3f8047f6	1.0021961
6	0x3f7e1783	0.99254626
7	0x3f7d86de	0.99033916
8	0x3f81f0ec	1.0151649
9	0x3f807dab	1.0038351
10	0x3f7c9d05	0.9867709
11	0x3f808478	1.0040426
12	0x3f831940	1.0242081
13	0x3f7edd54	0.9955647
14	0x3f8118ed	1.0085732
15	0x3f8125c3	1.0089649
16	0x3f7f59f0	0.9974661
17	0x3f7ef391	0.995904
18	0x3f807189	1.0034648
19	0x3f7c393c	0.9852483
20	0x3f7e4db3	0.9933731
21	0x3f7d2b63	0.9889433
22	0x3f7f1a97	0.9964995
23	0x3f828017	1.019534
24	0x3f82b5cf	1.0211734
25	0x3f7bebdd	0.98406774
26	0x3f80603c	1.0029368
27	0x3f80ead4	1.0071664
28	0x3f7f2f1a	0.99681246
29	0x3f7f3a1c	0.9969804
30	0x3f805021	1.0024453
31	0x3f7feff7	0.9997553

encoder.1.1.bias f4 [32]
0	0xb9d4b719	-0.0004057221
1	0xba9ce403	-0.0011969808
2	0x3c2d115c	0.010563221
3	0x3b39dc40	0.002836004
4	0x3c171b2c	0.009222787
5	0x3c175318	0.00923612
6	0x3b9258f2	0.0044661695
7	0xbc77ceca	-0.015124986
8	0x3c32c7cc	0.010911893
9	0x3cb449c8	0.022007838
10	0xba5b0333	-0.0008354664
11	0x3bdc3de1	0.0067212437
12	0x3ca451f1	0.020058604
13	0xbb823be9	-0.003974427
14	0x3c583801	0.013196946
15	0xbb2dbc01	-0.0026509764
16	0x3a82b093	0.0009970836
17	0x3c22edc5	0.009944384
18	0x3b144360	0.0022623166
19	0xbbf205e8	-0.007385958
20	0xbba0426f	-0.004890732
21	0xbc3841c9	-0.011246153
22	0xbc0052f5	-0.0078322785
23	0x3c87e534	0.016588785
24	0x3c8845f2	0.016634915
25	0xbbf7b218	-0.007559072
26	0xbb826f34	-0.0039805416
27	0x3b3e3044	0.0029020468
28	0xbab3dd78	-0.0013722619
29	0xbc71b208	-0.014751919
30	0x3c15a990	0.009134665
31	0x3c33bb95	0.010970016

encoder.1.1.running_mean f4 [32]
0	0xbe0770fd	-0.13226695
1	0xbee6cd6a	-0.45078593
2	0x3f06a180	0.5259018
3	0xbd6158ac	-0.055016205
4	0xbf237219	-0.63845974
5	0x3cf6f0e2	0.030144159
6	0xbed8c548	-0.42338014
7	0xbf22d436	-0.6360506
8	0x3de00fec	0.10940537
9	0xbe7ca76f	-0.24673246
10	0x3e2ebe06	0.17064676
11	0x3ea325ff	0.31864926
12	0xbe0ee077	-0.13952814
13	0x3e02dbc4	0.12779146
14	0xbe04cec8	-0.12969506
15	0x3e87ca66	0.26521605
16	0xbec04288	-0.3755076
17	0xbe0fad5b	-0.14030974
18	0x3db43f50	0.088011384
19	0xbdba5e39	-0.09100003
20	0xbe90fc79	-0.2831762
21	0xbe669e7e	-0.22521397
22	0x3effc960	0.49958324
23	0xbea1830d	-0.31545296
24	0x3ee53911	0.447701
25	0xbb3edd66	-0.0029123663
26	0xbdcdc2e6	-0.100469396
27	0xbe6d32b1	-0.23163868
28	0xbe9de45f	-0.30838296
29	0x3e14df3c	0.14538282
30	0x3dc11533	0.094278716
31	0xbdb427ef	-0.08796679

encoder.1.1.running_var f4 [32]
0	0x3e0a05fe	0.13478848
1	0x3e308605	0.17238624
2	0x3e2eaa0d	0.17057057
3	0x3ee7838e	0.45217556
4	0x3e839b68	0.25704503
5	0x3ec886cf	0.3916535
6	0x3f23acd1	0.6393557
7	0x3dcec2e4	0.10095766
8	0x3e7c4009	0.24633802
9	0x3f0d2eb0	0.55149364
10	0x3ee0753c	0.43839443
11	0x3e69d678	0.2283572
12	0x3e1a2429	0.15052857
13	0x3ede4491	0.43411687
14	0x3e9f69ba	0.3113535
15	0x3df538f6	0.11973755
16	0x3ef352ff	0.47524258
17	0x3f23b0b4	0.639415
18	0x3e35eae1	0.1776538
19	0x3eb8a8a5	0.36066166
20	0x3f0f85b7	0.5606341
21	0x3edd8bdd	0.4327077
22	0x3dcdc9ae	0.10048233
23	0x3e984cf8	0.29746222
24	0x3d85c9cb	0.065326296
25	0x3e855dfe	0.26048273
26	0x3da4ea11	0.08052457
27	0x3e8eff40	0.27929115
28	0x3e418900	0.18899918
29	0x3e4384b5	0.19093592
30	0x3ef5e7c0	0.48028374
31	0x3ec1ee08	0.37876916

encoder.2.0.weight f4 [8, 32]
0	0xbd2b25e8	-0.041784197
1	0xbcc1202e	-0.023574915
2	0xbd4a7c58	-0.04943499
3	0x3de8ae26	0.11361341
4	0xbe1eb92b	-0.15500323
5	0x3e274597	0.1633514
6	0x3e2b06b8	0.16701782
7	0xbd0804f1	-0.033207837
8	0xbe13b5c3	-0.14424805
9	0xbd52d652	-0.051473923
10	0x3e20b01a	0.15692177
11	0xbd9ca810	-0.07649243
12	0xbdbe4473	-0.092903994
13	0xbd8d2603	-0.06892016
14	0xbdbfaa68	-0.09358674
15	0xbe074df6	-0.13213333
16	0xbd5661dc	-0.05233942
17	0x3e2c84c7	0.16847526
18	0xbd92fa74	-0.071766764
19	0x3e193ee0	0.14965391
20	0x3d9e87d0	0.07740748
21	0xbdc3c3ad	-0.095588066
22	0x3da495a0	0.08036351
23	0x3d085844	0.0332873
24	0x3da4a4c2	0.080392376
25	0xbbff81aa	-0.0077974396
26	0x3c94f90e	0.018185165
27	0x3e0c64a6	0.1371027
28	0x3e10c767	0.14138566
29	0xbd3a30c2	-0.045456655
30	0x3cacd355	0.021096865
31	0x3d13c8e9	0.036080275
32	0xbdc36613	-0.095409535
33	0xbd25bee1	-0.04046524
34	0xbca177ca	-0.01971044
35	0xbd80a81b	-0.062820636
36	0xbd9074f5	-0.07053558
37	0xbacb2f0d	-0.0015501693
38	0xbe172077	-0.14758478
39	0x3e2c9a5c	0.16855758
40	0xbe3c965b	-0.18416731
41	0xbdc2a1ee	-0.09503542
42	0x3dd47697	0.10374182
43	0xbe0f7ae0	-0.14011717
44	0xbdc6b12b	-0.09701761
45	0xbd3f6d35	-0.046735007
46	0xbe357483	-0.17720227
47	0xbe2ed4e1	-0.17073394
48	0x3deb5615	0.11491028
49	0xbaf566f8	-0.0018722704
50	0x3c5d33b7	0.013501099
51	0xbd161fae	-0.036651306
52	0x3dd0932f	0.10184323
53	0xbce30dc2	-0.027716521
54	0x3cc51c6e	0.024061408
55	0x3d8febea	0.07027419
56	0x3d42171c	0.04738532
57	0xbcc1a2a7	-0.023637129
58	0x3d3798c0	0.044823408
59	0x3d8e92d6	0.069616005
60	0x3daffbf7	0.0859298
61	0xbe128d95	-0.14311822
62	0x3d87108a	0.065949515
63	0x3d60afed	0.054855276
64	0xbe35bb9a	-0.17747346
65	0xbdacbcdc	-0.084344596
66	0x3baeda07	0.0053360495
67	0xbe1c3cbd	-0.15257545
68	0x3e1d4915	0.1535991
69	0xbe0a928d	-0.13532467
70	0x3e28ca33	0.16483383
71	0x3e0b4d48	0.13603699
72	0xbc8cd734	-0.01719246
73	0xbe07d1f8	-0.1326369
74	0x3d6704f4	0.056401208
75	0x3dbed865	0.09318618
76	0xbe266dcb	-0.1625282
77	0x3d3a1caa	0.045437492
78	0x3dd95c52	0.10613312
79	0xbdbc7016	-0.09201066
80	0x3df6283f	0.12019395
81	0xbd1a9b39	-0.037745688
82	0x3d815104	0.06314281
83	0x3cda37c2	0.026637916
84	0xbe1ddcca	-0.15416256
85	0x3e29ea9b	0.16593401
86	0xbe0d3ce6	-0.13792762
87	0xbd5c196c	-0.05373518
88	0x3de52ab4	0.111897856
89	0xbdb785a8	-0.0896104
90	0xbd098d3f	-0.03358197
91	0x3d9a689a	0.075394824
92	0x3d6cc3db	0.05780397
93	0x3e07808e	0.13232633
94	0x3de1985b	0.110153876
95	0xbd92beb9	-0.07165284
96	0xbd43f282	-0.047838695
97	0x3dad1f4c	0.08453235
98	0xbe0f9d3a	-0.14024821
99	0x3e20126e	0.1563203
100	0x3d0de543	0.03464247
101	0x3d3478d7	0.044060554
102	0xbd085ee2	-0.033293612
103	0xbe1cb281	-0.15302469
104	0xbe1fd453	-0.15608339
105	0x3d360e37	0.04444715
106	0xbd38335a	-0.044970848
107	0x3d9ce182	0.076602
108	0x3cc5a122	0.024124686
109	0x3a6b902f	0.00089860236
110	0x3df35fa5	0.11883477
111	0x3e224c29	0.15849365
112	0x3d4e261a	0.050329305
113	0x3d694b84	0.056956783
114	0x3e191a2a	0.14951387
115	0xbdd1f42a	-0.10251649
116	0xbe046b91	-0.12931658
117	0x3d43bab4	0.047785476
118	0xbdbdee8e	-0.09274016
119	0x3c45e3e4	0.012078259
120	0xbe2d878b	-0.16946237
121	0xbd86a5f3	-0.06574621
122	0xbdc4fc6d	-0.09618459
123	0x3db7b315	0.08969704
124	0xbdb0c343	-0.08630993
125	0x3c055439	0.008137756
126	0xbd476be3	-0.048686873
127	0xbdefdd04	-0.11712077
128	0x3de6c117	0.11267298
129	0xbb9aa744	-0.0047196466
130	0x3d255b1e	0.0403701
131	0x3bce62a0	0.006298378
132	0x3e3203d5	0.17384274
133	0xbdfebb2c	-0.12438044
134	0xbe148455	-0.14503606
135	0x3da059f9	0.07829661
136	0xbdbfb7ca	-0.09361227
137	0xbcaa2c61	-0.020773115
138	0xbdd79392	-0.10526194
139	0x3de4a1d8	0.11163682
140	0xbc3f1ea6	-0.011665022
141	0x3e011607	0.12606059
142	0xbd7afa63	-0.061273944
143	0xbe05bdf0	-0.13060737
144	0xbb91fc32	-0.004455113
145	0xbe13f9d3	-0.14450769
146	0x3c7e4d84	0.015521411
147	0x3e21c9a0	0.1579957
148	0x3a15452b	0.0005694206
149	0x3e25926c	0.16169137
150	0x3dbb1d8d	0.09136496
151	0x3d7ff869	0.06249276
152	0x3d7ce7af	0.06174439
153	0xbd5993ef	-0.053119596
154	0x3ad5679b	0.0016281487
155	0xbe47c9fc	-0.19510645
156	0xbcdb26dd	-0.02675193
157	0xbc9ad040	-0.01889813
158	0x3e1d41fe	0.15357205
159	0x3d7da289	0.061922584
160	0xbb80eb50	-0.0039343014
161	0xbddb1905	-0.106981315
162	0xbe490368	-0.19630206
163	0xbdb40b62	-0.087912336
164	0xbe0ce482	-0.13759044
165	0x3ba0c709	0.0049065393
166	0xbcef5ed2	-0.029220019
167	0x3d620d0f	0.055188235
168	0xbd1732ac	-0.03691356
169	0x3e1f23ef	0.15541051
170	0xbdd99825	-0.106247224
171	0x3dc4cc79	0.096093126
172	0xbd8d996c	-0.069140285
173	0xbc0af0e7	-0.008480287
174	0xbdd081bb	-0.10180994
175	0xbde04f32	-0.10952605
176	0xbe026b3c	-0.12736219
177	0xbccf909b	-0.025337508
178	0xbe1c500d	-0.15264912
179	0x3dd287b8	0.102797925
180	0x3e2fac14	0.17155486
181	0xbe1278aa	-0.14303842
182	0x3e2ca46f	0.16859601
183	0x3e0e7c81	0.13914682
184	0xbe4897b3	-0.19589119
185	0xbdc7c73b	-0.09754797
186	0x3dd72bef	0.105064265
187	0x3cff0247	0.031129016
188	0xbe174eaa	-0.14776102
189	0x3af6be34	0.0018824995
190	0x3ce28e3c	0.027655713
191	0x3e24afbf	0.16082667
192	0xbdef4649	-0.11683328
193	0x3cdcf455	0.026971975
194	0x3d7d22dd	0.061800826
195	0x3de7bcba	0.113152936
196	0x3c973ec3	0.018462544
197	0xbe363742	-0.17794517
198	0xbd5cf7e7	-0.053947356
199	0x3d296038	0.041351527
200	0xbdcdc071	-0.10046471
201	0x3d7a62d8	0.06112942
202	0x3e25255d	0.16127534
203	0x3d9f41ef	0.07776248
204	0x3e08d2d2	0.13361672
205	0x3d8cdaff	0.06877708
206	0x3b7251a2	0.0036974926
207	0xbddad3f3	-0.10684957
208	0xbd0a1abe	-0.03371691
209	0xbd986697	-0.074414425
210	0xbd92bff1	-0.07165516
211	0x3d5cd768	0.053916365
212	0x3c2ce89b	0.010553504
213	0xbdac23c0	-0.08405256
214	0xbceff545	-0.029291758
215	0xbe094dac	-0.13408536
216	0x3cbc116d	0.022957528
217	0x3e15aa2b	0.14615695
218	0x3dd96a90	0.10616028
219	0x3dec48d3	0.115373276
220	0x3d110bd0	0.035411656
221	0x3d8bace9	0.06820089
222	0xbdfa601f	-0.12225365
223	0xbe3cf997	-0.18454586
224	0xbe2c8702	-0.16848376
225	0x3e045a94	0.12925178
226	0x3dcd54da	0.1002595
227	0xbc3afbff	-0.01141262
228	0x3c547242	0.012966694
229	0x3da2edf6	0.07955544
230	0x3dd03803	0.101669334
231	0x3e1059e2	0.14096788
232	0x3c8920a0	0.01673919
233	0x3e2fb05c	0.1715712
234	0x3d5b72fa	0.053576447
235	0x3c1c9583	0.009557131
236	0xbe162268	-0.14661562
237	0x3e03b876	0.12863335
238	0xbd817076	-0.06320278
239	0x3ddd78ea	0.10814078
240	0xbd1d1325	-0.038348336
241	0x3d98a9e5	0.0745428
242	0x3d9d6e9b	0.07687112
243	0xbe2e4834	-0.17019731
244	0xbdfc6597	-0.12324064
245	0xbc9e954b	-0.019358298
246	0xb94d9421	-0.00019605506
247	0x3d9c754b	0.07639559
248	0xbe0a5586	-0.13509187
249	0x3d3d6d91	0.04624707
250	0x3d3ea3a4	0.04654278
251	0x3d0ca000	0.034332275
252	0x3d972aca	0.07381208
253	0xbe0c7d08	-0.1371957
254	0x3e12a53b	0.14320843
255	0x3e0956dd	0.13412042

encoder.2.0.bias f4 [8]
0	0xbdc4407b	-0.09582611
1	0x3e1305d1	0.14357688
2	0x3e0c31ad	0.13690825
3	0xbdaae0ae	-0.083436355
4	0xbde622b3	-0.11237087
5	0x3e33f8eb	0.17575423
6	0xbce0cc61	-0.027441205
7	0xbd888505	-0.066659965

encoder.2.1.weight f4 [8]
0	0x3f77a647	0.96738094
1	0x3f758bdb	0.9591653
2	0x3f77c697	0.967874
3	0x3f78781b	0.97058266
4	0x3f7688a3	0.9630224
5	0x3f787b2c	0.97062945
6	0x3f777067	0.9665589
7	0x3f76108a	0.96118987

encoder.2.1.bias f4 [8]
0	0xbd20eb54	-0.039286926
1	0xbd2d466a	-0.04230348
2	0xbd24e920	-0.040261388
3	0xbd0fe527	-0.035130646
4	0xbd2cc394	-0.042178705
5	0xbce65cf3	-0.028120494
6	0xbd2f9663	-0.04286803
7	0xbd3e3ecb	-0.046446603

encoder.2.1.running_mean f4 [8]
0	0x3d43d09a	0.04780636
1	0xbde24800	-0.11048889
2	0x3e44f0d1	0.19232489
3	0xbe634802	-0.22195438
4	0x3c3b06be	0.011415182
5	0xbdb0cd18	-0.086328685
6	0xbc1baeff	-0.009502172
7	0x3e873c1b	0.26413044

encoder.2.1.running_var f4 [8]
0	0x3ec2cc20	0.3804636
1	0x3e976ea2	0.29576594
2	0x3e2c8cd7	0.16850601
3	0x3de5743a	0.11203809
4	0x3dc414f7	0.09574311
5	0x3e020a3d	0.12699218
6	0x3e4dc32e	0.20093986
7	0x3e1377a0	0.14401102

mu.weight f4 [5, 8]
0	0x3e99be47	0.30027983
1	0xbd7f7ff5	-0.06237789
2	0xbe282801	-0.1642151
3	0xbe79dada	-0.24399891
4	0xbddb4f3e	-0.107084736
5	0x3ce6124b	0.028084895
6	0xbe773230	-0.24140239
7	0xbe7109ea	-0.23538938
8	0x3d82989a	0.06376763
9	0xbe114109	-0.14184965
10	0xbe51bcd3	-0.20482187
11	0xbe423ad8	-0.1896776
12	0x3d42e4cc	0.04758148
13	0x3e543c49	0.20726122
14	0xbe4f0ae6	-0.20219001
15	0x3e6368e6	0.22207984
16	0xbe0259e6	-0.12729606
17	0x3e70cfd3	0.23516779
18	0x3e993170	0.2992053
19	0x3d96bdb9	0.073604055
20	0x3e3d114d	0.18463631
21	0x3e87fbbf	0.26559255
22	0x3e71480c	0.2356264
23	0x3e9a6303	0.30153665
24	0xbea144ac	-0.31497705
25	0x3dd0d27d	0.101963975
26	0x3e6f7b4d	0.2338688
27	0x3e3366bc	0.17519659
28	0x3da9c6ae	0.08289848
29	0xbea9bf4d	-0.33153763
30	0xbea6eb11	-0.32601216
31	0x3e276079	0.16345395
32	0xbdef88f2	-0.11696042
33	0xbe9a075a	-0.30083734
34	0xbe113b4f	-0.1418278
35	0xbdd8ae73	-0.105801485
36	0x3e6367b5	0.2220753
37	0xbe3244c8	-0.1740905
38	0xbe39d852	-0.18148926
39	0x3df64ad2	0.120259896

mu.bias f4 [5]
0	0x3e67c797	0.22634731
1	0x3d7703f4	0.060306504
2	0xbe649326	-0.22321758
3	0x3dfb2b17	0.12264078
4	0x3e49e024	0.19714409

sigma.weight f4 [5, 8]
0	0xbea08169	-0.31348732
1	0xbe884a9d	-0.26619425
2	0x3e57dee1	0.21081115
3	0xbebda5b8	-0.37040496
4	0xbd9f41bf	-0.07776212
5	0x3e89ede2	0.26939303
6	0xbe5d8233	-0.21631698
7	0x3df9a51f	0.121896975
8	0xbdd0cc28	-0.1019519
9	0x3e08bbf5	0.1335295
10	0xbcd9825e	-0.026551422
11	0x3e599956	0.212499
12	0x3e22ba04	0.15891272
13	0xbc6048e9	-0.013689258
14	0xbdebc023	-0.115112565
15	0xbd5f6862	-0.054542907
16	0x3e7b6791	0.24551226
17	0x3d7c1665	0.061544795
18	0xb9b1da61	-0.00033922776
19	0x3bde1b99	0.0067781922
20	0x3e693e3c	0.22777647
21	0xbe0bba22	-0.13645223
22	0xbe336a0a	-0.1752092
23	0x3caaa060	0.020828426
24	0xbe8e1fd4	-0.27758658
25	0xbe87a865	-0.26495662
26	0x3cbdcf3f	0.023170112
27	0x3bcc5599	0.00623579
28	0xbde06142	-0.109560505
29	0x3ea70f34	0.32628787
30	0xbe9b0087	-0.3027384
31	0xbe966dbb	-0.29380593
32	0x3ea2e42f	0.31814715
33	0xbe9c7fe6	-0.3056633
34	0xbe9c3029	-0.30505493
35	0x3e722baf	0.23649476
36	0x3dbcbdec	0.09215912
37	0xbd423c9b	-0.04742108
38	0x3e99655d	0.29960147
39	0x3e890909	0.26764706

sigma.bias f4 [5]
0	0x3e8412ac	0.25795496
1	0xbde8e082	-0.113709465
2	0x3d13ac42	0.03605295
3	0x3b5d00a2	0.00337223
4	0xbdfb16a9	-0.122601815

decoder.0.0.weight f4 [8, 5]
0	0xbe8364cd	-0.25662842
1	0xbd4f57ef	-0.05062097
2	0x3d5f5476	0.054523908
3	0x3e593e33	0.21215133
4	0x3e902e61	0.28160384
5	0x3c8134da	0.015772272
6	0xbdac895e	-0.08424638
7	0x3e4dd941	0.20102407
8	0x3dcdc4e2	0.10047318
9	0x3ec84fc3	0.39123353
10	0xbdd0ee8b	-0.102017485
11	0xbec49913	-0.38398036
12	0xbe9ff633	-0.31242523
13	0x3ed3cd37	0.41367504
14	0xbec65673	-0.3873783
15	0xbeda961d	-0.42692652
16	0x3dadf3d6	0.08493774
17	0xbe12941b	-0.1431431
18	0xbe321051	-0.17389037
19	0x3ee2079c	0.4414643
20	0x3dcc06ed	0.099622585
21	0xbe154ade	-0.14579341
22	0x3e8eaceb	0.278663
23	0xbec0b256	-0.3763606
24	0x3e861af7	0.26192448
25	0x3d42fa90	0.047602236
26	0xbd367cc8	-0.044552594
27	0xbe09c794	-0.1345504
28	0xbe1d772c	-0.15377492
29	0xbed9783c	-0.42474544
30	0xbc4c91d1	-0.012485937
31	0x3ed15dbd	0.4089183
32	0xbe66b80f	-0.2253115
33	0xbed2ccdf	-0.4117193
34	0xba59ee4e	-0.0008313403
35	0xbeafc713	-0.3433157
36	0xbdb460af	-0.088075034
37	0x3e79a315	0.24378617
38	0x3d8c52db	0.06851741
39	0xbec0a976	-0.37629288

decoder.0.0.bias f4 [8]
0	0xbd6148a1	-0.055000905
1	0xbd1193d0	-0.035541356
2	0x3ebac3e0	0.36477566
3	0x3dbe5f2a	0.09295495
4	0xbec0a9fa	-0.37629682
5	0xbe9ca4fd	-0.30594626
6	0xbee600ad	-0.4492239
7	0x3ec3eeac	0.3826803

decoder.0.1.weight f4 [8]
0	0x3f76a99e	0.96352565
1	0x3f816859	1.0109969
2	0x3f82e772	1.0226882
3	0x3f808826	1.0041549
4	0x3f79177e	0.9730147
5	0x3f83c1bd	1.0293499
6	0x3f806051	1.0029393
7	0x3f808686	1.0041053

decoder.0.1.bias f4 [8]
0	0xbccca3a2	-0.02498037
1	0x3bfeb0f6	0.00777256
2	0xbc2fa976	-0.010721555
3	0xbc9f4b1a	-0.01944499
4	0xbd0208ea	-0.031746782
5	0x3caea943	0.021320945
6	0x3bb3c2bb	0.00548586
7	0xbd32defa	-0.04366968

decoder.0.1.running_mean f4 [8]
0	0xbd7f210a	-0.062287368
1	0xbb7f156c	-0.003892268
2	0x3e91746d	0.28409138
3	0x3cc3f2b3	0.023919439
4	0xbe9c5cfb	-0.30539688
5	0xbea0502c	-0.31311166
6	0xbf008219	-0.50198513
7	0x3ef3710a	0.4754718

decoder.0.1.running_var f4 [8]
0	0x3e68d00b	0.22735612
1	0x3e884377	0.26613972
2	0x3f0af45a	0.542791
3	0x3f05148d	0.51984483
4	0x3e92a48b	0.2864116
5	0x3e91fe25	0.2851421
6	0x3ea4daaa	0.32198077
7	0x3ed47c2d	0.4150099
