experiments/data/vae/146_UCR_Anomaly_Lab2Cmac011215EPG2_5000_27862_27932.txt-.ckpt (torch, 91435 bytes, 102 tensors)

encoder.0.0.weight f4 [32, 34]
000000 77 39 ff bc 40 ed 66 bc 3d 3e b8 3d 0c a5 b3 3d
       -0.031155331 -0.014094651 0.08996246 0.087717146
000010 5e 09 a8 3d 44 e7 e8 bc 20 37 e7 3c e2 94 37 be
       0.08204912 -0.028430589 0.028224528 -0.17927888
000020 d1 25 18 3d c1 ba fa bd 5c cc 04 3e c7 f5 82 bd
       0.03714544 -0.12242652 0.12968582 -0.063945346
000030 3a 99 95 3d 97 4b b5 3d 2c 16 31 bd e6 93 33 3e
       0.07304616 0.08852308 -0.043234035 0.17536888
000040 7f 5e 1b be aa 39 d1 bd 0b 5e 87 3d 03 4d fe bd
       -0.15172766 -0.10216077 0.06609734 -0.124170326
000050 eb f1 3a bd 53 51 93 bd 5b cb 8b 3d 4a 73 9d bc
       -0.045640867 -0.07193246 0.06825896 -0.019220013
000060 89 70 bc 3d aa c6 13 3e 9a a0 03 bd cc 4a a1 3d
       0.09201152 0.14431253 -0.032135583 0.078755945
000070 d6 82 b6 3d 56 27 5e bd 6c fa 83 bd 43 3c 7e 3d
       0.08911674 -0.054236732 -0.064442486 0.06206919
000080 31 e8 e2 3d cd e8 80 3d 47 ef c9 3d 47 f3 06 bc
       0.11079443 0.06294403 0.09860092 -0.008236713
000090 50 25 d6 3c ab 44 a4 3d ed 58 2b bd 5a 3f de bd
       0.026140839 0.0802091 -0.041832853 -0.10851927
0000a0 37 af 31 3d 18 8c b9 bd d5 22 3d be c0 f6 10 be
       0.04337999 -0.09059924 -0.18470319 -0.14156628
0000b0 9d 77 35 3e af 03 e5 bd 36 e5 07 3d 65 fd 07 3e
       0.1772141 -0.11182343 0.033177577 0.13280256
0000c0 ce 6e f2 3d c3 4f 37 3d c1 7c 8c 3d e2 3a 7d bc
       0.118375406 0.0447538 0.068597324 -0.015455933
0000d0 59 7a ba bd 64 cb d8 3d 6d 02 40 bd 8a 8d f7 3d
       -0.09105367 0.10585669 -0.046877313 0.12087543
0000e0 e5 25 0d 3e 58 b8 77 3d f5 89 0a be 79 85 95 3c
       0.13783987 0.06047854 -0.13529189 0.018252121
0000f0 b5 09 60 3d c5 05 a2 bc ef c7 7c bd 50 5f 0f bb
       0.054696757 -0.019778142 -0.06171411 -0.002187688
000100 9e 8d 1d 3e e1 5a 0f be 60 a9 93 3c d2 79 e4 bd
       0.15386054 -0.13999511 0.0180251 -0.11156048
000110 62 00 25 3d 49 91 ac ba e2 5c a5 bb 93 69 c4 3d
       0.04028357 -0.0013165857 -0.005046473 0.09590449
000120 8f 66 f2 3c 31 d5 1c be 21 65 37 be af 42 fc bd
       0.02958992 -0.15315701 -0.17909671 -0.123174064
000130 c2 7d bb bd 37 f1 88 bd 30 b4 55 3d 2c 6d 40 3e
       -0.09154846 -0.06686633 0.052173793 0.18791646
000140 cc 32 33 3e d2 15 35 bc 61 28 23 3c 01 7e 8b 3d
       0.17499846 -0.011052566 0.009958358 0.06811143
000150 a7 03 00 3e a6 e8 22 3e 41 a3 f6 bd c7 79 ef 3c
       0.12501393 0.15909061 -0.12042857 0.029232873
000160 aa a9 d7 3d d6 a0 0f 3e 5f fc 07 be 61 8a d7 3d
       0.10530408 0.14026198 -0.13279866 0.105244406
000170 60 20 d9 3d d1 e6 75 3c 9c 28 94 3d de b2 d8 3d
       0.10601878 0.015008644 0.07234308 0.10580991
000180 61 b7 fe bc 82 82 94 3d af 89 d5 bc d9 7d 04 bd
       -0.031093301 0.07251455 -0.02606663 -0.03234658
000190 30 02 8c 3d 48 6b b0 b9 6f 7f 9d 3d e9 76 cc 3d
       0.06836355 -0.00033649267 0.07690322 0.09983618
0001a0 08 71 ac bd 4d 56 06 be 3c 53 8c bc 97 76 86 3c
       -0.084199965 -0.13118859 -0.017129533 0.01641397
0001b0 ee 29 25 be b8 62 6e bd 0e 86 ec bc 54 e0 9d 3d
       -0.16129276 -0.058199614 -0.028872516 0.07708803
0001c0 71 e9 ca 3d 6e 75 f3 3d 49 7c 60 3d df c1 4b 3d
       0.09907807 0.11887632 0.054806028 0.049745437
0001d0 20 66 26 3e b9 24 3c 3c 3e 24 d7 3b a5 83 0b 3e
       0.16249895 0.011483365 0.0065655997 0.13624437
0001e0 15 14 e5 3d 2c 09 84 bd 28 7d 6f bb 84 7c a3 bd
       0.11185471 -0.06447062 -0.0036543105 -0.07982734
0001f0 40 3a a1 3d 4c 73 a3 3d db e2 48 3d 04 3f 23 be
       0.078724384 0.079809755 0.04904447 -0.15942007
000200 f9 40 84 3d 92 83 b3 3d 17 3a 49 bd a4 bb 33 bd
       0.06457705 0.087653294 -0.049127664 -0.04388012
000210 dc 9a a6 3d ae 62 23 bd 99 68 c6 bd ee 8a 09 3d
       0.08135006 -0.03988903 -0.09687919 0.03357976
000220 01 26 33 3d b0 5b eb 3d 99 5d b6 bd 35 16 a1 bd
       0.043737415 0.114920974 -0.08904571 -0.07865564
000230 bf bd 00 3d 75 9b a9 3d 7a bb 7a 3d 52 26 89 3d
       0.031430956 0.08281604 0.061213948 0.06696762
000240 d1 2b 47 3d a1 25 0b 3d d5 ad 1b 3e 7c 7b 02 bd
       0.04862577 0.033971433 0.1520303 -0.031856045
000250 d3 46 c5 3d 4f 7d 14 be 45 93 25 3e 51 4c a5 bc
       0.09632649 -0.14500926 0.1616946 -0.020177992
000260 ff 52 f9 3c b5 e7 e5 bd 92 76 80 3c d5 8c c6 3c
       0.030435083 -0.11225835 0.015681539 0.024237076
000270 5e 40 c6 bc c2 00 ff 3d 18 bc 38 be 2b 4a 3e 3d
       -0.024200615 0.124513164 -0.18040502 0.04645745
000280 b8 a4 e0 bc aa 8d 4c 3e c6 7d 00 3e 07 59 df 3c
       -0.027422294 0.19975916 0.12547979 0.027264131
000290 44 5e b7 bd 01 0e 00 3e 08 04 00 be 02 9a 13 3e
       -0.089535266 0.12505342 -0.12501538 0.14414218
0002a0 88 bc 01 bd c1 54 9d bd 38 a9 88 3c fc 08 1c 3e
       -0.031673938 -0.07682181 0.016682252 0.15237802
0002b0 c0 3b 12 be 9b af cd bd da d2 80 bd 77 25 5b 3d
       -0.14280605 -0.1004326 -0.06290217 0.053502526
0002c0 97 02 db 3d 02 24 a0 3c 2a 81 8d bd ba d8 fa bd
       0.10693853 0.01954842 -0.06909402 -0.122483686
0002d0 fe 3d 2d 3e bf 81 7a 3d a0 bb 41 bd 60 69 e6 bd
       0.1691818 0.06115889 -0.047298074 -0.112505674
0002e0 69 a9 16 be d2 8b c5 3b 59 3c 03 3e 9a d3 7e 3d
       -0.14713062 0.006028631 0.1281599 0.062213518
0002f0 a9 5a e8 bb 25 3b 30 be 26 5b 54 3d 2b 9d 24 be
       -0.0070908857 -0.17210062 0.05184474 -0.1607558
000300 e5 ad c3 3d b9 38 10 3d 39 46 32 bd 30 e5 32 3e
       0.09554652 0.035210345 -0.043524 0.1747024
000310 4b 00 17 3e cf 59 80 bd 82 c5 e3 bc 53 0b ff bd
       0.14746206 -0.0626713 -0.02780414 -0.12453332
000320 72 6e 94 3d ed 0b 45 3e a5 e6 59 bd 52 be ba 3d
       0.07247628 0.1924283 -0.053198475 0.09118332
000330 08 6c 06 be 09 bc 2d 3e ad 95 01 be 97 41 c8 bd
       -0.13127148 0.16966261 -0.12654753 -0.09778135
000340 d9 3c f0 3d 49 46 49 bd 77 fa 2c 3d 25 23 0f be
       0.11730356 -0.049139295 0.04223105 -0.1397825
000350 65 87 c5 3b 33 2d 03 be b7 99 de 3d 9e bb 05 bd
       0.006028103 -0.12810211 0.108691625 -0.03264963
000360 49 e5 4a 3d 6e aa 22 3e e8 a0 14 3c d7 ca 35 3e
       0.04953507 0.15885326 0.009071566 0.17753159
000370 b6 d7 95 bd 86 e5 31 bd 3a 23 d4 bd a7 46 11 3d
       -0.07316534 -0.04343178 -0.103582814 0.03546777
000380 84 70 d4 3d b5 c7 4b 3c 64 2e b3 bd 11 69 a3 bd
       0.10373023 0.012437751 -0.08749083 -0.07979024
000390 13 7e 66 bc 82 f4 53 3d a4 e0 e0 bc c5 af 10 3e
       -0.014068144 0.051746853 -0.027450867 0.14129551
0003a0 d0 b6 18 be 3f f1 2d be b6 6d 42 be cc b3 b3 3d
       -0.14913487 -0.1698656 -0.18987164 0.08774528
0003b0 33 4b 0c bd d4 50 14 3e e3 87 fe 3d cc 3a a5 bd
       -0.034251403 0.14483958 0.12428262 -0.08067855
0003c0 f8 ee 89 bd 35 34 05 bd 12 0b fd bd 02 38 ea 3d
       -0.06735033 -0.03252049 -0.12355627 0.11436464
0003d0 a5 98 94 bd 87 99 3f be c0 c0 fc bd bf 8c 8f bc
       -0.07255677 -0.1871091 -0.12341452 -0.017523168
0003e0 c0 86 51 3d 68 85 6e 3b cc ef 4a 3e 4b a4 17 bb
       0.0511539 0.0036395434 0.19818038 -0.0023138698
0003f0 8f 08 bf bd 8e e9 fc 3d 76 45 e8 bc 59 45 ea 3d
       -0.09327804 0.123492345 -0.028353434 0.11439008

encoder.0.0.bias f4 [32]
000000 f9 2d 1a be 08 1f 04 3e bf 91 73 3d a0 52 dd 3d
       -0.150566 0.12902462 0.059465166 0.10806775
000010 de 4e 40 3d 8d 5f 54 bd 8a e5 8a 3d b0 5a 7b 3d
       0.046950214 -0.051848937 0.06782062 0.061365783
000020 dc f5 29 3e 70 d5 09 be 65 b8 ae bd 68 c2 01 be
       0.16597694 -0.13460326 -0.08531264 -0.12671816
000030 75 c4 27 be 07 c3 22 3e 73 03 f8 3b 16 77 6e 3d
       -0.16383536 0.1589471 0.0075687706 0.058219038
000040 a3 5a 35 be 29 89 1c be 6d 7b 20 3e 16 db dc 3d
       -0.17710356 -0.15286697 0.15672083 0.10783975
000050 bb 50 3d 3e 9c 13 1d 3e a3 15 dc 3c bd 40 c4 bc
       0.18487827 0.15339512 0.026865786 -0.02395665
000060 28 31 15 3d 67 66 e4 bd 08 0b de bd 2d 55 0f be
       0.036423832 -0.11152344 -0.10841948 -0.13997336
000070 cb 9f 1c bd 1f 46 fa bd 62 45 24 be 71 9a 1f be
       -0.038238328 -0.12220406 -0.16042092 -0.15586258

encoder.0.1.weight f4 [32]
000000 3f 33 7e 3f c4 83 81 3f 60 fd 89 3f 7c bf 83 3f
       0.99296945 1.0118337 1.0780449 1.0292811
000010 db 02 77 3f 78 f2 7d 3f ac bd 78 3f 15 4f 81 3f
       0.9648873 0.991981 0.97164416 1.0102259
000020 a3 dc 78 3f 75 58 7b 3f b9 18 7a 3f 3f cb 7c 3f
       0.97211665 0.9818185 0.97693974 0.9874763
000030 73 e5 7c 3f a3 ae 80 3f 13 9a 82 3f 60 a3 80 3f
       0.9878761 1.0053295 1.020327 1.0049858
000040 29 c9 7d 3f 9b 41 84 3f 43 95 7c 3f 6a ef 74 3f
       0.9913507 1.0332521 0.98665255 0.95677817
000050 d8 24 7f 3f 04 d2 81 3f 8e 4f 82 3f 2a bf 73 3f
       0.99665594 1.0142217 1.0180528 0.9521357
000060 99 2c 7c 3f 94 19 7d 3f 82 00 75 3f 0c 31 82 3f
       0.9850555 0.98867154 0.957039 1.0171218
000070 86 b2 82 3f af ea 73 3f f4 cc 7a 3f 34 ea 7d 3f
       1.0210731 0.95279974 0.97968984 0.9918549

encoder.0.1.bias f4 [32]
000000 78 31 fb bb 81 9c cf bc 6b 92 b5 3c ca fe 4b bc
       -0.0076658092 -0.025343182 0.022164544 -0.012450883
000010 61 61 82 3c 9d a1 c0 3c f1 fa 09 b9 38 98 1a 3b
       0.015915575 0.023514563 -0.00013158821 0.0023589265
000020 8d f9 4f 3b 31 a3 a0 bc 95 15 83 3b f3 c5 ab bc
       0.0031734437 -0.019609066 0.0040003755 -0.020968413
000030 fa 35 d0 bc 17 3a 6c 3c 26 07 40 3c dd b6 a9 3b
       -0.025416363 0.014418147 0.011720454 0.0051792697
000040 f0 1a 04 3a f4 e4 cb 3c c8 c8 93 ba d1 a9 ae bc
       0.00050394144 0.024889447 -0.0011275047 -0.02132121
000050 66 9d 98 3c 73 19 39 3c 24 64 2e 3c a0 8f d9 bc
       0.01862974 0.0112975715 0.010643993 -0.026557744
000060 10 7d 87 3c 21 c6 ab 3c 46 e7 09 bd bf b1 55 3d
       0.016539127 0.020968499 -0.033667825 0.052171465
000070 ee 9a ec ba 77 7e 4e bc 77 62 be bb 2b e8 96 bc
       -0.0018051544 -0.012603394 -0.005810078 -0.018421253

encoder.0.1.running_mean f4 [32]
000000 c0 9c a0 3d c6 3b 6a 3e 42 7a fb 3e e0 c6 bb 3e
       0.07842398 0.22874364 0.49116713 0.36675167
000010 63 36 e1 3e 4c be 3c 3d e1 7e 9a bd d1 db bb 3e
       0.43986806 0.04607992 -0.075437315 0.36691144
000020 a1 f2 c6 3e 0e d0 18 3e bd 2b c4 bd e4 cb 3c bd
       0.38856986 0.14923117 -0.09578655 -0.046092883
000030 5f c6 af bd 38 4a cf 3e 6b 2b e1 b8 a8 c9 be 3e
       -0.08582758 0.40486312 -0.00010736923 0.37263227
000040 2b 64 9e be 8a e1 cb 3e 11 6c f0 3e 5b f0 09 3e
       -0.30935797 0.3982051 0.46957448 0.13470595
000050 b1 ad fc 3e 55 ee df 3e 98 ee ca bd e7 2c 81 3d
       0.49351266 0.4373652 -0.099087894 0.063073926
000060 37 1d 1e 3f e0 e5 2c be 4b 93 83 be a4 12 e5 bd
       0.6176333 -0.16884565 -0.25698313 -0.11185196
000070 a2 46 e5 be df 60 b7 be 71 54 74 bd ee 5c 2e be
       -0.4478045 -0.35816094 -0.059650842 -0.17027637

encoder.0.1.running_var f4 [32]
000000 09 17 bf 3b c5 d1 d8 3b 5f 31 2d 3c c5 21 d1 3b
       0.0058316034 0.0066168034 0.010570853 0.0063821995
000010 89 15 6d 3b f6 81 a5 3b bd 6e da 3b 7a fa 1d 3c
       0.0036176166 0.005050893 0.006666033 0.009642238
000020 4d 47 b5 3b 12 cb ed 3b b9 ed 03 3c 12 10 ad 3b
       0.0055321814 0.007256874 0.008052283 0.0052814567
000030 f2 81 99 3b f9 5d 34 3c 05 4b b9 3b 3d 3c f8 3b
       0.00468468 0.011008733 0.005654695 0.0075755403
000040 c2 d4 55 3b 53 bc f8 3b d9 89 cc 3b 6c cf cf 3b
       0.0032628034 0.0075908094 0.0062420187 0.0063418653
000050 8e 48 2d 3c ae 8e b0 3b a8 57 cb 3b 7f 73 93 3b
       0.01057638 0.0053881025 0.006205518 0.004499852
000060 97 3d 09 3c f6 04 db 3b d5 8f 68 3b 36 52 c8 3b
       0.008376501 0.006683941 0.0035486121 0.006113316
000070 de f7 e4 3b 71 34 15 3c 7c 9c 9c 3b c2 01 26 3c
       0.006987556 0.009106741 0.0047793966 0.010132255

encoder.1.0.weight f4 [16, 32]
000000 37 e4 ae 3d 5e ec 06 bd e8 fc 4e be a3 c6 07 be
       0.08539622 -0.03294026 -0.20213664 -0.13259368
000010 dc 32 63 ba fb 31 97 bd 1f 79 cb b9 ac 47 05 3e
       -0.00086669414 -0.0738258 -0.0003880942 0.13015622
000020 14 7c 88 3d 0b c1 ec 3d 76 e6 14 bd cd 5f d0 3d
       0.06664291 0.115602575 -0.036352597 0.101745225
000030 93 ec 2c be 9b bf 37 bd 67 e1 e1 bd fb 51 97 3c
       -0.16887121 -0.044860464 -0.1102932 0.018471709
000040 ba fc d4 3d 32 a7 fd bd b5 d2 04 3e b7 64 9e 3d
       0.10399766 -0.123854056 0.12971003 0.077340536
000050 12 43 3b be 8c 3b b8 3d 8f dc 2b be 17 3b ce 3d
       -0.18287304 0.08995733 -0.16783355 0.10069864
000060 52 f8 b9 3c b1 c2 a8 3d be 11 88 bc 29 a8 f4 3d
       0.022701416 0.082402594 -0.016610023 0.119461365
000070 08 f5 a2 bd 7c f5 ad 3d 6a 20 c4 3d 10 b8 e2 3c
       -0.07956892 0.08494088 0.09576495 0.027675658
000080 c1 b7 31 3e 29 7d 28 3e 2e 05 50 3d 73 ee 15 3d
       0.17355253 0.16453995 0.05078619 0.036604356
000090 14 d1 9d bc c4 3f b5 bd 96 6d ac bc eb e5 02 3e
       -0.019264735 -0.08850053 -0.021048348 0.12783019
0000a0 47 40 8b 3d dd 0e 6a 3d 84 fd 91 bc 7b dd ba bd
       0.06799369 0.05714308 -0.017821081 -0.09124275
0000b0 6f 7b 89 bd 71 c2 7b bd 70 6b 34 3e 26 f9 32 be
       -0.06712996 -0.06146473 0.17619109 -0.17477855
0000c0 61 13 34 bd 4e 34 12 bd 5e 3f c7 bd fd 5e 85 3d
       -0.043963794 -0.035694413 -0.09728883 0.06512258
0000d0 67 0d d6 bd 41 49 23 3e ee c0 4e 3d 41 d2 3a be
       -0.10451775 0.15945913 0.05047696 -0.18244268
0000e0 42 22 86 bd 9f f3 b0 bc 36 ef d7 3c b9 81 c8 3d
       -0.06549503 -0.021600543 0.026359182 0.09790368
0000f0 9d c9 a7 3d d4 29 ab 3d cc cc 0b 3c 59 ec 88 3d
       0.081927516 0.083575875 0.008532714 0.06685705
000100 ae af 03 3e 1e 29 a5 3d ac 38 bd 3d 26 9a 20 bd
       0.12859985 0.08064483 0.09239325 -0.039209507
000110 a7 0d 6c bd 35 50 eb bb 3b c7 67 3d e9 cd 88 3d
       -0.057630207 -0.0071811923 0.056586485 0.06679899
000120 8d 09 d2 bd 35 d6 06 3e 36 68 25 3e 75 69 12 3e
       -0.10255728 0.13167651 0.16153035 0.14298041
000130 00 4b f0 bc 38 f9 60 bd d7 b2 2f 3d cd 3a de bd
       -0.029332638 -0.054925174 0.042895164 -0.10851059
000140 49 e1 1d 3e c4 08 84 3d 96 ab fb bd bd f9 08 3e
       0.1541797 0.064469844 -0.12288587 0.13376518
000150 e5 5c 14 be a0 c3 fe ba b5 95 46 3e 9e cf c9 3c
       -0.14488561 -0.0019436963 0.19393046 0.024635132
000160 2f 09 78 bd 94 e2 a0 3c 7d c0 8f bd fe 36 d6 bd
       -0.060555633 0.01963929 -0.07019136 -0.10459708
000170 47 f5 bb 3b f3 0d c1 bc 76 e4 06 3e b6 d5 da bd
       0.0057360264 -0.023566222 0.13173088 -0.106852934
000180 de 00 1a 3d 22 71 43 3e 7c 5e 3d 3e 03 72 cc bd
       0.037598483 0.19086125 0.18493074 -0.099826835
000190 38 12 0d 3e 18 02 29 3d bc 5c 90 3d 5b 10 28 3e
       0.13776481 0.041261762 0.07048938 0.16412489
0001a0 d3 bb 5b 3d 5c 66 b1 3d 40 8f f9 bc 66 31 f8 3d
       0.05364592 0.086621016 -0.030463815 0.12118797
0001b0 a5 23 d6 3c 30 c5 31 be da 14 88 bd eb 51 15 be
       0.026140044 -0.17360377 -0.06644602 -0.1458203
0001c0 93 ef ad 3c 23 dc fb 3c 67 eb 2e be d4 de 56 3d
       0.021232402 0.030744618 -0.17081986 0.0524586
0001d0 fc 1b f6 3c c4 74 eb 3c 88 8a 0a be c4 33 93 bc
       0.03004264 0.028742202 -0.13529408 -0.01796902
0001e0 01 a3 7c bd bf ef a3 3c 32 95 c2 3d 96 10 04 be
       -0.06167889 0.02001178 0.09501113 -0.12896952
0001f0 8b b4 a7 3d 4a 32 2e be ac 16 51 bd d5 9b 0c bd
       0.08188733 -0.17011371 -0.051047012 -0.0343283
000200 b3 00 35 be f2 b8 24 bd ad 03 7d be ea 70 ad bd
       -0.17676048 -0.04021544 -0.24708433 -0.08468802
000210 b9 ca e7 bd 11 6d 04 be dd 22 75 bc b2 91 f0 bd
       -0.11317963 -0.1293223 -0.014961925 -0.11746539
000220 d5 81 fb bd 24 c4 11 bd b9 d1 f1 bd 1e a2 6a bc
       -0.12280623 -0.035587445 -0.118075795 -0.014320878
000230 bb 50 7a bc 2c 77 03 3e 32 ae c4 3d 4c dd 19 3e
       -0.015278037 0.12838429 0.096035376 0.15025824
000240 59 93 e3 bd 84 85 0d be ad 51 21 be 62 47 99 3d
       -0.11112089 -0.13820463 -0.15753813 0.07484318
000250 24 fd ae bd 27 7b 8a 3d 0a 33 d9 3d 5b f2 32 3a
       -0.085443765 0.06761771 0.10605438 0.0006826275
000260 1f 97 27 3d f2 98 af 3b be 05 8b 3c 6f c2 1e 3e
       0.040915605 0.0053588087 0.016970512 0.15503858
000270 14 05 01 3e d7 a3 bc bd b2 a5 95 bd 1b 70 c5 3d
       0.12599593 -0.092109375 -0.073069945 0.09640523
000280 f2 5d ec 3d 1d e7 13 3e 2c 0d 7f bd 59 1f e3 3d
       0.11541356 0.14443631 -0.06226842 0.110899635
000290 74 c6 2b 3c fa 24 7a bd 17 6d cc 3c 9f be 4a 3e
       0.010484327 -0.06107042 0.024954362 0.19799279
0002a0 a9 45 71 bd 53 97 49 bd bb 89 0e 3e 45 cb 06 3e
       -0.058904324 -0.04921658 0.13919728 0.13163479
0002b0 5b 40 22 3e 7b 8e 29 3e 4a 84 cc 3d 43 b5 ad 3b
       0.15844862 0.16558258 0.0998617 0.005301149
0002c0 62 03 44 3d 0f 37 10 be ef 43 f2 bc 93 8f c7 3d
       0.04785479 -0.14083503 -0.029573409 0.097441815
0002d0 62 b1 a6 3d 23 30 03 3e 73 db e6 3d 5d 1a 75 3d
       0.08139302 0.12811331 0.11272325 0.059839595
0002e0 fb ab d7 bd 62 b2 27 bd 4e 40 0f bc 7f 0d aa 3d
       -0.105308495 -0.040941603 -0.008743359 0.083033554
0002f0 da 61 3a bd 74 c6 35 be 13 c8 75 3d ab 4b 73 bc
       -0.045503475 -0.17751485 0.06000526 -0.014849584
000300 e1 3e 0e be 77 a6 eb ba 78 a7 af bd cb b8 03 be
       -0.13891174 -0.0017978688 -0.08576864 -0.12863462
000310 4f a2 32 be 39 79 fa bc a4 1b b0 3d e2 e3 65 bd
       -0.17444728 -0.030575382 0.08599022 -0.05612553
000320 14 ba 35 be e1 31 05 3d 36 c3 2f 3d 84 86 80 bd
       -0.17746764 0.03251827 0.042910777 -0.06275657
000330 7f b2 c7 bd 91 f2 cf bd db 0e 3c 3e 5d b3 83 3c
       -0.09750842 -0.10153688 0.18365042 0.016076738
000340 93 39 6b bb bc 3f 2d 3e 22 df db 3d fb 8b 0b 3e
       -0.0035892471 0.16918844 0.107359186 0.13627617
000350 d4 b9 18 3e 24 76 9e 3d dc a9 cf bd 69 6e bc 3b
       0.14914638 0.07737377 -0.1013982 0.0057504666
000360 c0 c7 4a bd a5 14 bd bd d9 43 c9 3d 03 a3 11 be
       -0.049506903 -0.09232453 0.09827394 -0.1422234
000370 00 69 f1 3d be f5 29 be d4 1b 16 3e 40 90 c8 3d
       0.11787605 -0.1659765 0.14659053 0.097931385
000380 8e c8 5b bd c8 35 19 3e b5 a4 3e 3e fa d9 35 3e
       -0.05365806 0.14961922 0.18617518 0.17758933
000390 df a0 24 be 56 6e 26 3d 19 66 f7 bd b9 21 0f 3e
       -0.16076992 0.04063257 -0.120800205 0.13977708
0003a0 2b 01 43 3d cc 20 9b bb 91 53 30 bd 9e a9 7a 3c
       0.047608536 -0.0047341343 -0.043048445 0.015299229
0003b0 2a dd e0 3d 03 ec 00 be c8 60 88 bd de 73 0e be
       0.10979684 -0.12590031 -0.066590846 -0.13911387
0003c0 40 1b a4 bc 7e e0 85 bd 3a a8 3d bd c3 c4 f1 bb
       -0.020032525 -0.06536959 -0.04630301 -0.007378192
0003d0 96 1b 2b 3e 6d a2 b6 bd a8 a8 19 bd 6c eb 2a be
       0.16709742 -0.08917699 -0.03751436 -0.16691369
0003e0 a5 c7 50 3d ae 0b 13 be 85 70 56 bc d3 a8 e1 3d
       0.050971646 -0.14359924 -0.01308835 0.11018529
0003f0 a7 cf 7c bd 7a b5 2a be 14 95 b4 bc 1f 33 a4 bd
       -0.06172147 -0.1667079 -0.022043742 -0.08017563

encoder.1.0.bias f4 [16]
000000 2f 28 16 be 92 e4 41 bd 5e dc 04 3e 02 5e a9 bb
       -0.14663766 -0.047337122 0.12974688 -0.0051686773
000010 c4 25 23 3d a8 57 21 3e 5c 13 21 3e ae 48 e6 bd
       0.039830938 0.15756094 0.15730041 -0.11244331
000020 29 cb e7 3c 27 8b 08 3e 98 5e 64 bd fa 20 10 3c
       0.028295116 0.13334332 -0.055754274 0.008796925
000030 6f ba be bd 2c cf e9 3d 81 81 87 3d 99 d5 17 3b
       -0.09312903 0.11416468 0.06616498 0.0023168086

encoder.1.1.weight f4 [16]
000000 b7 5e 6f 3f 99 55 7e 3f e5 9a 7b 3f 4d 74 80 3f
       0.935039 0.9934936 0.98283225 1.0035492
000010 08 db 68 3f 79 da 78 3f aa ce 85 3f 7f 83 76 3f
       0.90959215 0.9720836 1.0453694 0.962944
000020 89 3a 72 3f b8 9e 6c 3f 2e 5e 8c 3f b7 d9 77 3f
       0.9462057 0.92429686 1.0966241 0.9681658
000030 19 27 7c 3f 79 9b 8c 3f 0f df 81 3f 02 f1 7c 3f
       0.9849716 1.0984946 1.0146197 0.9880525

encoder.1.1.bias f4 [16]
000000 30 7b 7e bd 61 ec da 3b 52 65 1b bd ff ee 48 3b
       -0.0621292 0.0066810106 -0.037938423 0.003066003
000010 19 b4 42 bd 0b 13 96 bd af a9 08 3d 7f a4 d9 bc
       -0.047535036 -0.07327851 0.033364948 -0.026567696
000020 99 bf 16 bd d7 79 77 bd 95 a1 2d 3d 38 48 44 bc
       -0.036803816 -0.06041893 0.042390425 -0.011980109
000030 d4 d2 13 bd a9 f7 bb 3d 05 d4 6e bc 57 9a 73 3b
       -0.036089733 0.09178097 -0.014576917 0.003717085

encoder.1.1.running_mean f4 [16]
000000 bf 86 05 be 50 4f df 3d 2c 90 ae 3e 2a b1 3e 3d
       -0.13039683 0.109037995 0.3409437 0.046555676
000010 85 20 8b be 63 46 20 3f 27 97 d2 3d 45 7a 91 be
       -0.27173248 0.626074 0.10282736 -0.28413597
000020 c3 72 c3 3c 76 88 0e be 90 83 d0 3d 3f 85 55 be
       0.023858434 -0.13919243 0.101813436 -0.2085161
000030 db dc 69 3e a9 46 8a be 09 c1 89 3e ed f6 06 3f
       0.22838156 -0.27007034 0.26905087 0.5272053

encoder.1.1.running_var f4 [16]
000000 e9 d3 3c 3e ca 9a 43 3e c5 a2 65 3e 20 f0 97 3e
       0.18440212 0.19102016 0.22425373 0.29675388
000010 dd b2 62 3e cb b1 32 3e de 4b 3d 3e 49 a2 37 3e
       0.22138543 0.17450635 0.18485972 0.17933
000020 ec e8 56 3e 00 09 99 3e 3a 12 4b 3e 0c dd 41 3e
       0.2098729 0.2988968 0.19831172 0.18931979
000030 2c 7b be 3e 21 ae 6d 3e fb 05 30 3e 95 fb 13 3e
       0.37203348 0.23210956 0.17189781 0.1445144

encoder.2.0.weight f4 [8, 16]
000000 4e 28 85 3d b7 40 c3 3d 3a fe 06 3e c7 db 48 be
       0.06501828 0.09533828 0.13182917 -0.19615088
000010 1e d7 1d bd 6b 69 5d 3d 8f 0a a3 be b7 0d f0 3d
       -0.03853523 0.054055613 -0.31843993 0.11721366
000020 b1 8c cb 3c 1c 70 90 be c7 78 2e 3e 04 f3 3b bd
       0.02484736 -0.28210533 0.1703826 -0.045886055
000030 d9 96 4b bd 30 01 56 be a8 65 d0 bd 1c 25 93 bc
       -0.049704406 -0.2089889 -0.101756394 -0.017962031
000040 28 ee 36 3d 31 08 87 be 26 2b a5 3b 0a ef 3e 3e
       0.044660717 -0.26373437 0.005040544 0.18645874
000050 49 05 66 3e 35 2b 76 bd ef 38 bc 3c 17 b5 82 3d
       0.22462954 -0.0600998 0.022976367 0.063821964
000060 c9 51 a3 bd 9e 33 4a 3e 51 b1 a0 be 41 18 6d 3d
       -0.07974584 0.19746253 -0.31385282 0.05788446
000070 d8 4a d7 3d 04 a1 00 be b2 82 32 3d 07 0d 7d bd
       0.10512322 -0.12561423 0.043581672 -0.061780002
000080 cc f4 b5 bc a9 fc 8b be 80 ab ed 3d 84 fc 25 bd
       -0.022211455 -0.27341202 0.11604977 -0.04052402
000090 f9 39 5e bd d7 8e d3 3d ed 8f ef bd 0d da a7 bd
       -0.054254506 0.10329979 -0.116973735 -0.08195887
0000a0 2a bf 29 3e f1 1d 5d be d0 bb 6e 3e 32 d7 ba bd
       0.1657683 -0.21593453 0.23313832 -0.091230765
0000b0 3b 6c a9 bd d8 b0 80 be dc 5d 2a be aa 36 8e 3c
       -0.082725964 -0.2513492 -0.16637367 0.01736005
0000c0 5f 0b 12 3d 35 49 3c be 1f fa b5 3d 6b 4e 4b 3d
       0.035655376 -0.18387301 0.088855974 0.049635332
0000d0 ee c7 1d 3e 8d 3a bb 3d 5d 73 8c be 9c 49 fb bc
       0.15408298 0.09142027 -0.27431765 -0.030674748
0000e0 10 fb c7 3c f5 91 06 3e 27 03 78 3e 6c f9 85 bd
       0.024411708 0.13141616 0.24219953 -0.06541714
0000f0 2f 9a 9d 3c 94 3b 5d be b2 d6 ec 3d c6 17 88 bc
       0.01923856 -0.21604759 0.115643874 -0.016612899
000100 05 3f 2b 3c 98 96 84 3d 39 36 01 bd 40 04 8b bd
       0.010452037 0.06474036 -0.03154585 -0.0678792
000110 fc 94 a3 3d ea 5c 76 3d 86 06 6b bd 8a 46 71 bd
       0.07987401 0.060147204 -0.057379268 -0.058905162
000120 14 c4 86 bd 08 51 25 3e 9f bc c7 3d 96 08 e7 bd
       -0.06580368 0.16144192 0.097527735 -0.112809345
000130 f2 c2 2a 3e 1b 7d 7f be 23 0d 72 be ab 6a d4 3d
       0.16675928 -0.24950068 -0.23637824 0.10371908
000140 13 c7 15 3e c5 07 e5 bd 84 d8 08 be 18 3d 38 be
       0.14626722 -0.111831225 -0.13363844 -0.17992055
000150 3b 1b aa 3d c1 f1 8c be 52 d9 be bd c5 69 25 be
       0.08305975 -0.27528194 -0.09318794 -0.16153629
000160 c6 03 e6 bd 8f bd 73 3d 8d c6 18 3e 0e 91 2a 3e
       -0.112311885 0.05950695 0.14919491 0.16656896
000170 45 69 26 be 88 cf 0e 3e 31 22 31 bd eb 68 b6 bd
       -0.16251095 0.13946354 -0.043245498 -0.0890673
000180 e2 7b 34 3d 99 7b 4d be 25 8d 96 be 21 2b 22 be
       0.044063456 -0.2006668 -0.2940456 -0.15836765
000190 ac 02 f5 bb 96 e0 e4 3c 26 f0 b5 3d 8a 3d a0 3c
       -0.007477125 0.027939122 0.08883695 0.019560594
0001a0 6e 91 c0 3c 29 60 fe 3c 84 87 c5 3c c0 a2 3d 3e
       0.023506846 0.031051712 0.02411247 0.18519115
0001b0 77 61 e7 bd e6 a6 55 bd 80 8b 90 3d 0c 20 65 be
       -0.11297887 -0.05216112 0.070578575 -0.22375506
0001c0 b3 ed 9e bd 54 ba 94 bd de 54 b9 bc a4 f4 0b be
       -0.07760181 -0.07262102 -0.022623476 -0.13667542
0001d0 dc f0 96 3c d1 07 b0 bd 10 07 1d 3e e0 59 3b be
       0.018425398 -0.08595241 0.15334725 -0.18296003
0001e0 5b 66 02 3e b8 39 31 be 07 01 cc 3d 9f e7 f7 3c
       0.12734358 -0.17307174 0.099611335 0.030261813
0001f0 77 24 19 be 52 e8 41 be 9f f0 53 be 0d ff ca 3d
       -0.14955316 -0.1893628 -0.20697258 0.09911928

encoder.2.0.bias f4 [8]
000000 de 08 fc 3d bd cb 8a bd 5f 11 b3 bd 7d 7e 4d bc
       0.12306379 -0.06777141 -0.08743548 -0.012542364
000010 e0 0b 6d 3e 31 d5 74 be 87 92 cd 3c 4d 61 17 3e
       0.23149061 -0.23909451 0.025094284 0.14783211

encoder.2.1.weight f4 [8]
000000 20 3e 6f 3f 1d 7c 67 3f 84 6b 80 3f 4d 2e 66 3f
       0.9345417 0.90423757 1.0032811 0.899144
000010 95 39 64 3f 3f 77 62 3f 20 ce 77 3f ab 3a 7f 3f
       0.89150363 0.88463205 0.96798897 0.99698895

encoder.2.1.bias f4 [8]
000000 7a 23 6d bd a2 45 c1 bd 77 21 d8 3d e7 2d e3 bd
       -0.05789516 -0.094371095 0.10553258 -0.110927396
000010 86 f3 02 be 4f eb 0a be ab ef fb ba 20 d7 df 3d
       -0.1278821 -0.13566326 -0.0019221207 0.10929704

encoder.2.1.running_mean f4 [8]
000000 94 d7 f1 bd 86 2f bb bd 6b 96 c6 be 94 dc c3 bb
       -0.118086964 -0.09139924 -0.38786635 -0.0059772227
000010 80 f1 18 3e 27 a7 dc be f0 41 36 be 09 55 ee bd
       0.14935875 -0.43096277 -0.1779859 -0.11637313

encoder.2.1.running_var f4 [8]
000000 05 5c 91 3e ad 9b 61 3e 94 20 c8 3e c8 67 0b 3e
       0.28390518 0.22032042 0.39087355 0.13613808
000010 e7 05 dc 3d 34 95 28 3f 72 ba cc 3e e5 7d de 3e
       0.10743313 0.65852666 0.39985996 0.43455425

mu.weight f4 [5, 8]
000000 02 42 89 be ec 69 93 be bd 00 63 be eb e0 6c 3e
       -0.26808172 -0.2879175 -0.2216825 0.23132674
000010 8d b3 31 3d bf 97 de 3c f0 b6 48 3d ad c7 8b 3e
       0.043384124 0.027171968 0.049002588 0.27300778
000020 01 8e 18 3d 84 a3 44 3e e9 c0 71 3e 8e db 88 be
       0.0372448 0.19203001 0.23608746 -0.26730007
000030 8f 90 cf 3d 59 50 80 3e 50 be 66 be 83 c5 01 be
       0.10134994 0.250613 -0.22533536 -0.12673001
000040 23 7f 49 bd c8 ea 54 3e 9f 3b 1a bd 54 c0 11 3e
       -0.049193513 0.20792687 -0.037654515 0.14233524
000050 fe 5c 39 3e 91 0b 47 3e 28 93 4d be 54 51 c8 be
       0.1810188 0.19438006 -0.20075667 -0.39124548
000060 eb 5d 38 be 9d 67 0d be a3 04 cf bc a6 46 c0 3b
       -0.18004577 -0.13809057 -0.025270766 0.005867797
000070 42 b0 24 3d d0 4d 07 3e a8 23 c4 bd 26 07 83 3e
       0.040207155 0.13213277 -0.095771134 0.2559139
000080 19 bf 93 3e e3 a6 aa bb 67 9d b8 3d 1c bb 77 be
       0.28856733 -0.0052078827 0.09014397 -0.2419247
000090 c1 d5 3e be af 36 14 be d1 9d 3c be f3 1b 70 be
       -0.18636228 -0.14473985 -0.18419577 -0.23448162

mu.bias f4 [5]
000000 c3 d4 a2 3d 06 3e 1d bd dc d0 3a 3e b2 f6 1c 3a
       0.07950737 -0.03838923 0.18243736 0.0005987688
000010 30 42 36 3e
       0.17798686

sigma.weight f4 [5, 8]
000000 fb b2 30 bc d9 a5 28 be ed 4e 24 3c 1e ab 0c be
       -0.01078486 -0.16469516 0.010028583 -0.13737151
000010 e1 ae 90 3d 12 a1 8b bd be eb 5f 3e ee ea 3a 3e
       0.070646055 -0.06817831 0.21867272 0.18253681
000020 4e 24 0f be dd 9a d3 bd 27 a6 2a 3e b1 e2 b4 bc
       -0.13978693 -0.10332272 0.16664945 -0.022080751
000030 cc ba 2c bd 65 f5 24 3e c2 bf bd ba 3c d1 0d bc
       -0.04217033 0.16109236 -0.0014476704 -0.008655842
000040 ee 07 a4 bd f4 70 1c 3e fa 49 15 bd 29 a8 03 bc
       -0.08009325 0.15277463 -0.036447503 -0.008035698
000050 ac 3c d4 bd 06 a0 eb 3c d7 13 6d be b8 bd 95 3e
       -0.10363135 0.028762829 -0.231521 0.29246306
000060 00 b4 db bb f4 06 fc 3a 69 26 89 bd af 4f bc 3d
       -0.0067048073 0.0019228146 -0.06696779 0.09194886
000070 06 21 9b bd 38 6b 17 be b7 6f 2a 3e e4 a9 da 3d
       -0.07574658 -0.14786994 0.16644178 0.10676935
000080 bd c9 13 bc 53 a2 1a 3e 16 bc ac 3e d4 50 6c be
       -0.009020266 0.15100984 0.33737248 -0.23077708
000090 13 93 3b be ef d0 69 be 3f c9 53 3e f4 d6 d6 3d
       -0.18317823 -0.22833608 0.20682238 0.10490218

sigma.bias f4 [5]
000000 c6 e8 bf bd 07 c8 76 bc cd e8 97 bc 10 54 5e bd
       -0.0937057 -0.015062339 -0.018543625 -0.054279387
000010 12 ae 34 be
       -0.17644528

decoder.0.0.weight f4 [8, 5]
000000 f5 48 6c bd 69 86 d1 3d 8d 36 be bd 54 d6 72 be
       -0.057686765 0.10230715 -0.092877485 -0.23714572
000010 45 3f c5 3e 0d e6 d9 3d c6 7e f9 bb ac 44 44 be
       0.38524833 0.10639582 -0.0076139895 -0.19166821
000020 e7 70 90 3e 93 f8 28 be da 51 f3 3c ff 61 13 3e
       0.28211138 -0.16501074 0.029702116 0.14392851
000030 94 58 4e 3e af 42 48 be e6 b9 28 3e 08 63 bf 3d
       0.20150977 -0.19556688 0.16477165 0.093450606
000040 e0 0d 96 3e 36 73 8f 3e c9 d4 19 be 0c 45 27 be
       0.2930746 0.28017586 -0.15022577 -0.16334933
000050 30 a5 9a 3e cb 11 25 be 1b 72 d9 be 6c 0a f4 3e
       0.30204153 -0.16120069 -0.42469868 0.476642
000060 51 2d bd be aa 0c 64 3e f6 e1 86 be ba 41 e2 be
       -0.36948636 0.22270456 -0.2634427 -0.4419077
000070 35 5f da 3e 16 5a c3 3d 5f da 8f be c5 03 a7 3e
       0.42650762 0.09538667 -0.2809629 0.32620063
000080 2a e4 97 3e 26 4a d8 3d 15 24 b3 3e ad 6f 28 3d
       0.29666263 0.10561018 0.34988466 0.041122127
000090 af d7 a0 3e ad fc 15 3e a2 9f e3 3c 97 49 b6 be
       0.31414554 0.1464717 0.02778608 -0.3560302

decoder.0.0.bias f4 [8]
000000 04 cd 7b 3d 03 a4 98 bd c1 2e d8 3e 19 1b 22 be
       0.061474815 -0.07453158 0.4222317 -0.1583065
000010 94 5c 4a be 05 7b b9 be 1f cc b6 be 0e fc 90 3e
       -0.19761878 -0.3622667 -0.35702607 0.28317302

decoder.0.1.weight f4 [8]
000000 fa cb 60 3f 86 68 82 3f 9b c3 8b 3f be b5 6c 3f
       0.87811244 1.0188148 1.0919069 0.92464817
000010 ed 1f 8b 3f fa c4 68 3f 58 45 76 3f 69 50 80 3f
       1.0869118 0.9092556 0.9619956 1.0024539

decoder.0.1.bias f4 [8]
000000 41 61 03 be cb d2 1d bd b0 33 29 bc a8 b7 c3 bd
       -0.12830068 -0.038531106 -0.010327265 -0.09556514
000010 01 64 ad 3d 79 fc ae bd d4 5e dc bd 95 9e 89 bd
       0.0846634 -0.08544249 -0.107602745 -0.067197

decoder.0.1.running_mean f4 [8]
000000 85 b5 88 3d 8a 33 cb bd 38 85 e6 3e 66 35 07 be
       0.06675247 -0.0992194 0.45023513 -0.13203964
000010 28 bc 7d be 65 72 ce be 2d 02 a8 be d3 98 93 3e
       -0.24778807 -0.4032165 -0.3281416 0.28827533

decoder.0.1.running_var f4 [8]
000000 83 81 65 3e c7 50 20 3e e6 c0 02 3e c3 ec 65 3e
       0.22412686 0.15655814 0.12768897 0.22453599
000010 ac fa 2a 3f 50 5d 03 3f 15 41 d3 3e 71 f8 80 3e
       0.66788745 0.5131426 0.4126059 0.25189546

decoder.1.0.weight f4 [16, 8]
000000 25 54 0f be 36 4f 5e be bd 51 8f be 6e f2 91 bd
       -0.13996942 -0.21709904 -0.2799205 -0.07126318
000010 35 fc 30 3e 3a 64 0d be 4e 36 2a be d0 fa 01 bd
       0.1728371 -0.13807765 -0.16622278 -0.031733334
000020 6a 87 83 bd 5d 7b 3e 3e 94 bc 79 3e b2 cd 84 be
       -0.064223126 0.18601747 0.24388343 -0.25938183
000030 3f 35 7e 3e 64 f8 fd 3d 55 6e 65 be 76 a1 0d 3e
       0.24825 0.124008924 -0.2240537 0.13831124
000040 b0 5e 48 3d e0 38 60 3d 0d 16 bf 3e f8 89 46 3e
       0.048918426 0.05474174 0.3732151 0.19388568
000050 6b ea 9e be 78 ce 5a 3e c0 53 58 be 33 a8 98 bd
       -0.31038222 0.21367824 -0.21125698 -0.074539565
000060 79 d4 9b be 0b ac f3 3c 9d 78 52 3e a1 7f 8f be
       -0.3043554 0.029745122 0.20553823 -0.2802706
000070 3f a0 ab 3e f3 8f 66 3e b2 af 2f be 53 9f 33 3e
       0.33520696 0.2251585 -0.17156866 0.17541246
000080 6d 05 0d be c4 13 09 3e 73 16 f5 bc 76 4c df 3d
       -0.13771601 0.13386446 -0.029917931 0.10903256
000090 42 25 a6 bd cd a6 a5 3d c7 af 6e be 2d 77 a8 be
       -0.08112575 0.08088455 -0.23309241 -0.32903424
0000a0 94 92 eb bd e8 c0 cc bb 20 90 88 3e f3 e8 73 3e
       -0.11502567 -0.006248582 0.2667246 0.23819332
0000b0 f2 b3 87 be 40 94 b6 be c2 38 88 be c9 2a c6 be
       -0.26504475 -0.3565998 -0.26605803 -0.38704517
0000c0 87 b0 99 3d 02 1f 74 3e 31 86 81 3d c8 c1 9e 3c
       0.07504373 0.23839954 0.06324423 0.019379511
0000d0 88 5b b2 be a6 7a 03 be 7d aa 1c 3e 91 c1 ce 3c
       -0.34835458 -0.12839755 0.15299411 0.025238784
0000e0 42 77 95 be f8 cf e9 3d 36 b7 80 be 40 be 69 3e
       -0.2919255 0.1141662 -0.2513978 0.22826481
0000f0 43 03 8d 3c 9e 2d 9f be ca 57 68 3c 7b 3d c8 3d
       0.01721347 -0.3108949 0.014181087 0.097773515
000100 51 38 97 3e a0 c1 f9 3d 98 11 dd 3d 17 82 e7 bd
       0.29535154 0.12195134 0.10794371 -0.113041095
000110 de cd 95 3d 95 38 ce 3a 42 bc c9 3e cd 4d ad 3d
       0.07314657 0.0015733415 0.39401442 0.08462105
000120 33 a5 96 bd 9c 61 99 3d ec af 9e be 4b 4f 65 3d
       -0.07355728 0.07489321 -0.30993593 0.055983823
000130 86 2f 03 3e 7b 6a 4c 3d d0 8c 31 3e aa 43 89 3e
       0.12811098 0.049906235 0.17338872 0.26809436
000140 ca 6e 16 be 3d be 6e 3e 52 d9 56 3e 09 3b 81 bd
       -0.146907 0.23314758 0.20981339 -0.06310088
000150 9a e1 bb 3e 6c 2c 88 3e 3b ce 09 bd ae cb 5c be
       0.36695558 0.2659639 -0.033643942 -0.21562073
000160 97 89 64 3e 46 52 4a ba 11 6a a5 3e 57 4c 34 3e
       0.22318111 -0.0007717948 0.32307485 0.17607246
000170 77 c7 3d 3e 32 0e 86 bd 31 d8 32 3e ce 08 37 3e
       0.18533121 -0.06545676 0.17465283 0.17874452
000180 4d a1 43 bb 8e b2 1c be 80 b5 e8 3e 22 56 78 3e
       -0.0029850781 -0.15302488 0.45450974 0.24251607
000190 9c 8b 44 3e 86 8f a0 3b 75 82 3d be 6e cf 81 3e
       0.19193882 0.004899922 -0.18506797 0.2535357
0001a0 e6 0b 81 3e 49 e9 71 bd e8 72 a6 3e b5 50 36 3e
       0.2520439 -0.05906037 0.32509542 0.17804225
0001b0 87 f5 43 be e6 76 39 3d 7a 98 29 3e 33 3a 19 3e
       -0.1913663 0.045279406 0.16562071 0.14963607
0001c0 97 0a 11 bd c6 e9 28 be ed 3b 95 bd c8 fa 30 be
       -0.03541049 -0.16495427 -0.072868206 -0.17283165
0001d0 81 47 90 be 3a 62 b1 bd 15 32 06 3e c7 b8 75 3e
       -0.28179553 -0.08661313 0.13105042 0.23996268
0001e0 d5 26 40 be 41 50 c8 be e6 78 5f 3e a8 2e 68 bd
       -0.18764813 -0.3912373 0.21823463 -0.05668512
0001f0 77 90 9e be 14 4f 04 3d 97 b4 17 be dd 1a 9a be
       -0.30969593 0.032301977 -0.14814983 -0.3009862

decoder.1.0.bias f4 [16]
000000 83 73 84 3c 0b 45 93 be d7 ca 9a bd 9d 70 75 be
       0.016168362 -0.28763613 -0.0755822 -0.2396874
000010 9d 04 82 be 4f 39 40 3e f3 92 17 3e e0 f8 1e be
       -0.25394145 0.18771861 0.1480215 -0.15524626
000020 69 4a 35 be bf 4d 9b 3e cd 86 35 3d 6b 38 ab be
       -0.17704166 0.30332753 0.04431801 -0.3344148
000030 f4 15 ab be 35 18 1c 3e 9b 72 80 3e 87 af 57 3b
       -0.33415186 0.15243609 0.25087437 0.003291102

decoder.1.1.weight f4 [16]
000000 3b 05 88 3f c2 66 87 3f e2 5b 6f 3f 4b e5 80 3f
       1.0626596 1.0578234 0.9349958 1.0069975
000010 48 bb 72 3f 3c 63 7a 3f 32 9f 80 3f 8d ad 7f 3f
       0.9481702 0.9780767 1.0048583 0.9987419
000020 38 a1 86 3f f8 5a 87 3f 65 5b 84 3f c5 ff 83 3f
       1.051795 1.0574636 1.0340391 1.031243
000030 67 b8 61 3f fc 80 7d 3f 0a 4b 72 3f 65 38 86 3f
       0.88172 0.9902494 0.9464575 1.048596

decoder.1.1.bias f4 [16]
000000 65 c7 04 3e da fb ed bd 3a fd 80 3d 1d db ca 3d
       0.12966688 -0.116203025 0.06298299 0.09905074
000010 6f e4 e9 3d 2d 93 36 3d a7 0e e0 bc 09 04 cb 3d
       0.114205234 0.04457395 -0.027350737 0.09912879
000020 da d9 f2 3c 13 a8 54 3c 41 a4 8a 3d b1 05 b2 3d
       0.029644895 0.012979525 0.0676961 0.08692492
000030 3a 8a 30 bd 0d 03 f0 3a 8d 7e cd 3d 94 97 a3 3d
       -0.043100573 0.0018311456 0.10033903 0.079878956

decoder.1.1.running_mean f4 [16]
000000 ae 46 8d be 49 2a a1 bd 6d f1 90 3b 49 9b a3 bd
       -0.27592987 -0.078693934 0.0044233114 -0.07988603
000010 f6 77 dc be 8a 2c 01 be 24 3e 18 3e 13 0d 90 be
       -0.43060273 -0.12614647 0.14867455 -0.28134975
000020 41 3d 24 3e 21 f7 db 3e 67 87 a9 3e 39 85 e5 3d
       0.16038992 0.42961982 0.33111116 0.11207051
000030 72 90 48 ba 62 27 dc 3e 28 0d 7c 3d 8c 15 d7 be
       -0.00076509186 0.42998797 0.061535984 -0.42008626

decoder.1.1.running_var f4 [16]
000000 41 8d 9e 3d 64 1d fc 3d 75 b9 cf 3d 56 71 2d 3e
       0.07741786 0.12310293 0.10142795 0.16937765
000010 89 5d 56 3d 71 29 42 3e 51 70 84 3d ce c9 cf 3d
       0.052335296 0.18961121 0.06466735 0.10145913
000020 f4 85 b1 3d 17 55 d5 3d cc f7 67 3e 7d 74 0d 3e
       0.08668128 0.1041662 0.22653121 0.13813968
000030 1f e3 1e 3e cc e3 6f 3e 4c a8 b9 3d 81 28 6c 3e
       0.15516327 0.23426741 0.09065303 0.23062326

decoder.2.0.weight f4 [32, 16]
000000 78 5e 46 bd ad 12 8e be cb 44 08 3d 8a eb aa bd
       -0.048429936 -0.27748623 0.03326873 -0.08345707
000010 b0 1e b3 3d 74 00 1f be c9 4d 20 3e 2b 24 9c 3d
       0.087460876 -0.15527517 0.15654673 0.07624086
000020 c0 46 11 3d 7e 50 2a 3e d3 a4 77 be aa b8 76 be
       0.035467863 0.16632268 -0.24183969 -0.24093881
000030 11 b4 02 3e 29 e0 11 3e e4 1e 30 3b b2 2c 35 bd
       0.12764002 0.14245667 0.002687388 -0.044232078
000040 d2 99 2e bd e6 53 50 bd ff 89 2d be b8 17 f5 3c
       -0.042627163 -0.05086126 -0.16947173 0.029918537
000050 5e 3c 47 bc 0f 8b ee bd 71 43 b4 bd 34 3b 93 3d
       -0.012160389 -0.11647617 -0.08801926 0.071890265
000060 e7 60 83 be 8f f9 7f be bc 41 07 3e 93 50 2e bd
       -0.25659868 -0.24997543 0.1320867 -0.04255731
000070 a8 4c 5e 3e 74 ea fb 3c f7 45 40 be 5c e2 e7 bd
       0.2170893 0.030751444 -0.1877669 -0.113224715
000080 59 15 16 bc e1 7d 2b 3c b1 93 6a be 22 dd 03 bc
       -0.009160363 0.010467024 -0.22907902 -0.008048328
000090 d0 31 fb 3c a1 32 1d bc e3 d1 a5 be 2a e4 5d 3e
       0.0306634 -0.00959459 -0.32386693 0.21669069
0000a0 98 19 6e bc dd 3a 23 3c 54 2a 3a 3c b5 1c 7f be
       -0.014532469 0.009962765 0.011362631 -0.24913295
0000b0 4d 20 9b 3c 15 dc 4b be 44 f5 b0 bc 5c 8e 0e 3e
       0.0189363 -0.19908173 -0.021601327 0.13921493
0000c0 76 a9 bb bd 1e 0b 73 be 7f d4 f1 3d 39 47 26 be
       -0.091631815 -0.2373471 0.118081085 -0.16238107
0000d0 0d b9 dd bc 4a 9c db 3c d5 76 0a be e0 8e 41 be
       -0.027065778 0.026807923 -0.13521893 -0.18902159
0000e0 c7 ac 21 3c b7 d8 4c be a2 04 47 be 26 6a 9c 3d
       0.0098678535 -0.20004545 -0.19435361 0.07637434
0000f0 de 7c eb bc f4 6a 44 be da 16 d2 3d 7b a4 11 bd
       -0.028746065 -0.19181424 0.10258265 -0.03555725
000100 e3 65 0a bd 48 0d 44 be 12 f8 39 3d ad 60 4d be
       -0.033788573 -0.19145691 0.045402594 -0.2005641
000110 b5 0b 9c be 7e 24 0f 3c 80 07 e2 3d 46 04 0d 3e
       -0.30477682 0.008736728 0.11036587 0.13771161
000120 4c dd c6 bd 7f 0a 17 3d 6f 66 2a be ff f0 89 3d
       -0.09710178 0.036875244 -0.16640638 0.067354195
000130 4c 6d bb bd 2f 8b 8c bd ba 54 c1 3d 14 d1 06 3d
       -0.09151706 -0.06862485 0.094399884 0.032914236
000140 5e 83 9f be 27 44 10 3e 96 7d bc 3b f5 ec ea bd
       -0.31154913 0.14088498 0.0057522757 -0.11470977
000150 ce bb 01 3e a4 b4 37 be a9 4a 4b 3e 39 3e 07 bd
       0.12669298 -0.17940003 0.198527 -0.033018325
000160 16 36 2e 3e 85 64 b3 bd 68 e3 eb bd ed 61 33 be
       0.1701282 -0.08759407 -0.11517984 -0.17517824
000170 16 9d 4b 3e 83 24 32 3e 8b b1 c6 bd c9 a9 b7 bc
       0.19884142 0.1739674 -0.097018324 -0.022419827
000180 f3 1d 50 3e 10 83 5a 3d 23 ed be bc eb d6 71 be
       0.20323925 0.053347647 -0.023306435 -0.23617141
000190 63 1a 60 be b6 c2 eb 3d 6a a6 df bd 79 fb 2b be
       -0.21885066 0.115117475 -0.10920413 -0.16795148
0001a0 b3 56 0f 3e 0e 7d 7a be d9 a7 36 be 89 90 9d bd
       0.13997917 -0.24461767 -0.17837466 -0.076935835
0001b0 d8 de 2d 3e 7c 0b 95 bc 11 c1 00 3e 76 e1 6b 3e
       0.1697954 -0.018193953 0.12573649 0.23035225
0001c0 3c 6f 85 bd 38 80 e9 3d 5b 64 1a be 64 83 9d 3d
       -0.06515357 0.11401409 -0.15077345 0.076910764
0001d0 8d 4e 7a bd 10 d5 45 be a5 0d dd 3c 35 dd 42 3e
       -0.061110068 -0.19319558 0.026984045 0.19029696
0001e0 31 ed 3f be f3 48 d7 bd 8c 55 b8 3d 0e c0 15 be
       -0.18742825 -0.10511961 0.09000692 -0.14624044
0001f0 fc 20 3a 3e 1b 0b 88 bd 05 56 d7 bc 8b 42 3a bd
       0.18176645 -0.06642743 -0.026286134 -0.045473617
000200 ed b2 8e 3e c2 6d 80 be 9d 35 b9 3d 28 95 69 3c
       0.27870885 -0.2508374 0.09043429 0.014256753
000210 01 f5 31 3b b6 d0 79 3d bb bb 3a 3e c7 37 2e be
       0.002715409 0.060990058 0.18235676 -0.17013465
000220 ef 6e 5c 3e 58 e0 dc 3d 8c 1a 7e be d1 88 06 bd
       0.21526693 0.10784978 -0.24814814 -0.032845322
000230 32 8a 49 3d c7 23 2c be 55 88 f6 bd e0 fe 14 bd
       0.04920406 -0.16810523 -0.12037722 -0.03637588
000240 30 1c cf 3d 3a e0 53 be fd 80 29 bd 69 64 03 3e
       0.10112798 -0.20691004 -0.04138278 0.12831272
000250 b3 da 88 3b c6 58 6e bd f3 e6 7b 3e 70 ad 24 be
       0.0041764616 -0.05819013 0.24599819 -0.16081786
000260 7d 73 64 3e 6c 7f 09 3e 3f 3e 16 3d 84 c5 2e 3e
       0.2230968 0.13427514 0.036680456 0.17067534
000270 73 21 d1 bd 4e c9 c8 bd 96 51 6e be c9 06 58 be
       -0.10211458 -0.09804021 -0.2327331 -0.21096338
000280 98 04 d1 bd b8 83 0e 3e 8d 66 62 3d 66 31 c7 bd
       -0.10205954 0.13917434 0.05527358 -0.09726219
000290 60 84 84 bd ab a4 57 3d d5 96 48 3e e5 36 1d 3d
       -0.06470561 0.052647274 0.19588788 0.03838243
0002a0 97 ff b8 bd f4 f6 b2 be 32 7f 2c be 44 97 a1 bd
       -0.09033125 -0.34954035 -0.16845396 -0.0789018
0002b0 d7 9a 78 bd 13 0f 92 bd a7 e3 91 bd 64 86 61 3d
       -0.06069454 -0.071317814 -0.07123499 0.055059806
0002c0 3d be 39 3e f0 1c 50 3d 45 94 e2 3a 89 d7 bf 3c
       0.18138976 0.050808847 0.0017286619 0.023418205
0002d0 fd 0a 4b bd f0 24 b2 3c 19 92 96 bc 28 e4 16 be
       -0.049571026 0.021746129 -0.018380212 -0.14735472
0002e0 b0 67 02 be d0 0d 2e be c1 c8 81 be c0 b9 2c 3e
       -0.12734866 -0.16997457 -0.25348476 0.16867733
0002f0 d6 90 eb 3c 2c f9 bb 3d 55 81 29 3e 7a 7a 28 3e
       0.028755587 0.09178385 0.16553243 0.16452971
000300 7e dc 67 bc 11 d6 db 3d 46 6b 1a be c2 5b 16 3e
       -0.0141516905 0.10734189 -0.15079984 0.1468344
000310 d9 27 05 bd ef 4f 16 3e 7d 28 d1 3d 37 dd 2f 3d
       -0.032508705 0.1467893 0.10212801 0.042935576
000320 68 2d 99 be e8 91 36 be 0b 1a 19 be a7 c3 d9 3c
       -0.29917455 -0.17829096 -0.14951341 0.026582552
000330 e3 6d ab 3d b3 d1 88 be f9 99 47 be aa b0 16 3d
       0.083705686 -0.26722488 -0.1949233 0.036789574
000340 6a f3 30 be 9a b0 db bb 67 f5 45 be 42 4a bf 3d
       -0.17280355 -0.006704402 -0.19331895 0.093403354
000350 4f 93 73 3c 1d de 76 be 64 a0 4f bd 13 c4 83 3e
       0.014866664 -0.24108167 -0.05069007 0.2573553
000360 9c 94 f9 3d 74 97 d2 bd 20 3a 28 bd 32 a2 2c be
       0.12186548 -0.10282794 -0.041071057 -0.16858748
000370 0d 93 d6 bd 9b ac 88 bc c9 6c 06 3e 58 a9 23 3d
       -0.104772665 -0.016683867 0.13127436 0.03995642
000380 2c d7 fc bb ff 60 cf bd e3 1e 8b be 51 0f ef bd
       -0.00771608 -0.101259224 -0.27172002 -0.11672843
000390 bb 25 83 bd 98 f3 9e be 7f 5a 93 3d a0 92 e8 3d
       -0.06403681 -0.31045222 0.07194995 0.113560915
0003a0 d8 cd b0 3b d4 4c ef 3d 82 7a 3d 3e 4e 42 46 be
       0.0053956322 0.11684576 0.18503764 -0.1936123
0003b0 fc 8f 9d be 63 59 2e bd 4f 24 42 be 8c e7 b2 3d
       -0.30773914 -0.042565715 -0.18959163 0.0873557
0003c0 10 66 2d 3e 7a c6 30 be 12 68 0b 3e 78 bb 83 3c
       0.16933465 -0.17263213 0.13613918 0.016080603
0003d0 20 43 b8 bc 0a cc e2 3d 6f a4 3a 3e 43 fd 5e 3d
       -0.022492945 0.110740736 0.18226789 0.054440748
0003e0 77 c1 86 be 18 01 01 3d 58 9f 90 be 1c f3 06 be
       -0.26319477 0.031495184 -0.2824657 -0.13178676
0003f0 f5 e3 0d be 71 0b 49 3e 85 af 9f 3d 7b ad 17 be
       -0.1385649 0.19633271 0.077971496 -0.14812271

decoder.2.0.bias f4 [32]
000000 b9 7c 09 be ff c2 de 3d e6 65 48 be 49 83 31 3d
       -0.13426484 0.10877036 -0.19570121 0.043338094
000010 e0 1e 6c bd 13 d5 73 bd 99 37 0f be 94 13 86 3b
       -0.057646632 -0.059529375 -0.13986053 0.0040916894
000020 34 41 56 3e 48 0b 54 3e e9 a0 f7 3c f4 15 39 3e
       0.2092331 0.20707428 0.030228095 0.1807478
000030 db b4 4e 3e 2c cd 59 3e 9c 76 38 be 03 c8 e9 3c
       0.20186178 0.21269673 -0.18013996 0.028537756
000040 5d 0e 79 3e ac 6e a3 3d 85 27 50 be 7f 39 96 3a
       0.24321885 0.07980093 -0.20327576 0.0011461227
000050 2f 70 f4 bd 9e 35 0d 3e 09 ff 5d 3e ef 7b 0c bd
       -0.1193546 0.13789985 0.2167932 -0.03429788
000060 5d c0 8c 3d cf d5 58 be b1 f8 7d 3e e9 22 65 be
       0.06872628 -0.21175312 0.248019 -0.22376598
000070 8f 5d c0 3d 8e 8d f2 bd 9d ff 2d 3e 9c c7 d4 3c
       0.09392845 -0.11843406 0.1699204 0.025974087

decoder.2.1.weight f4 [32]
000000 b9 6d 71 3f 06 5f 75 3f 72 13 86 3f 1b d3 87 3f
       0.9430805 0.9584812 1.0474684 1.0611299
000010 50 fc 86 3f f0 33 71 3f f3 33 76 3f 05 ea 71 3f
       1.054575 0.94219875 0.9617302 0.9449771
000020 58 1c 71 3f c9 69 7b 3f 2d 91 86 3f 40 de 6f 3f
       0.94183874 0.9820829 1.0513054 0.936985
000030 d4 92 74 3f a5 1e 73 3f 5d d3 81 3f 63 57 6d 3f
       0.9553654 0.94968635 1.0142628 0.92711467
000040 25 03 79 3f 4e 44 6c 3f e4 aa 78 3f d1 80 6b 3f
       0.97270423 0.92291725 0.9713576 0.91993433
000050 a3 13 78 3f 6c b3 6d 3f 46 92 83 3f d8 c1 8a 3f
       0.96904963 0.928519 1.0279014 1.0840406
000060 20 19 74 3f 2f 5f 7b 3f 96 eb 6a 3f 79 86 72 3f
       0.9535084 0.98192114 0.91765726 0.9473644
000070 68 48 74 3f 20 24 75 3f af f3 6b 3f 61 6a 74 3f
       0.95422983 0.9575825 0.92168707 0.9547482

decoder.2.1.bias f4 [32]
000000 a6 06 56 bd ab 26 eb 3c 1f d3 b6 3d 87 c0 bb 3d
       -0.052252434 0.028704962 0.08926987 0.09167581
000010 1d 75 b0 3d c4 46 15 bd 4b c7 11 3c de 4f c8 bc
       0.086160876 -0.03644444 0.008897613 -0.024452146
000020 26 4c 64 bd 3a 77 c1 3d 47 36 b8 3d bd a9 df 3d
       -0.055736683 0.09446569 0.089947276 0.10921047
000030 3b 17 2a 3d dc aa e9 bc ca 91 85 3d 50 d9 71 bd
       0.04152606 -0.028523855 0.06521948 -0.059045136
000040 42 13 92 3d ac a5 be bc e7 8a 91 3d 10 a1 60 bd
       0.071325794 -0.023272358 0.07106572 -0.0548411
000050 77 7d 6b 3c 2f a1 87 bd 60 4b a0 3d 64 bc da 3d
       0.014373175 -0.0662254 0.07826877 0.10680464
000060 85 d1 9a 3c 90 26 1d 3d 6d 97 11 3d c4 ab 30 bd
       0.018898735 0.038366854 0.0355448 -0.04313256
000070 df d2 a3 3d 78 bf 85 bc b3 30 57 bc 17 03 cc bc
       0.07999205 -0.016326651 -0.013134169 -0.024903817

decoder.2.1.running_mean f4 [32]
000000 ab 22 82 be 90 02 82 be e4 55 db be 4e 38 dc be
       -0.25417075 -0.2539258 -0.42838967 -0.43011707
000010 a3 2f 9c be ca da 2f be 14 c2 74 be e6 a9 26 be
       -0.30505094 -0.17173305 -0.2390216 -0.16275749
000020 53 07 5b 3e a3 1b 46 3e 66 f9 79 be 4a c2 83 3e
       0.21389513 0.1934648 -0.24411544 0.25734168
000030 8d 62 33 bd c6 b2 3e 3d c3 89 11 bf b8 f3 fa bc
       -0.043795157 0.04655721 -0.5685083 -0.030633792
000040 e2 db 26 be 9f fa b3 be 73 23 46 be 59 53 7a be
       -0.16294816 -0.35152146 -0.1934946 -0.24445857
000050 8f 30 c1 be 55 3e ea bd 73 fa b8 3c ed 3b e0 be
       -0.3773236 -0.1143767 0.022580361 -0.4379572
000060 12 cb a9 be 76 8e 0a bf bc 20 b1 3d 4a d4 77 be
       -0.33162743 -0.5412363 0.08648822 -0.24202076
000070 4b 97 2c be ee 47 32 be b0 51 56 3e 91 66 4c 3b
       -0.16854589 -0.17410251 0.20929599 0.0031189064

decoder.2.1.running_var f4 [32]
000000 48 4e 28 3e ac fb e2 3d 9b 1d c6 3e 90 97 9d 3e
       0.16436112 0.11083159 0.38694462 0.30779696
000010 24 6a aa 3e 98 87 02 3e d7 83 ac 3e 94 90 38 3e
       0.33284104 0.12747037 0.33694336 0.18023902
000020 77 9a 0e 3e a8 0d d6 3d 88 6e ee 3d 49 bb 1d 3e
       0.13926111 0.104518235 0.11642176 0.15403475
000030 84 99 05 3e 2d fa 0a 3e 2e be bb 3e ae cf 25 3e
       0.13046843 0.13571997 0.36668533 0.16192505
000040 3f 78 f7 3d 44 1e 1c 3e 32 a9 3b 3e 5c 22 95 3e
       0.12083482 0.1524592 0.18326262 0.29127777
000050 f6 78 5e 3e f7 43 58 3e 21 62 dc 3e 39 4e 50 3e
       0.2172583 0.21119677 0.43043616 0.2034234
000060 ed 73 d3 3d 5c 7d 8b 3e c8 5d ca 3d d3 e0 0a 3e
       0.103248455 0.2724408 0.098811686 0.13562326
000070 36 0f e3 3d 8a 26 e6 3d d7 d1 b7 3e fa 90 14 3e
       0.11086886 0.112378195 0.35902283 0.14508429
