experiments/data/vae/166_UCR_Anomaly_apneaecg_10000_12240_12308.txt-.ckpt (torch, 271851 bytes, 102 tensors)

encoder.0.0.weight f4 [64, 124]
000000 20 3a 4b 3d f4 aa 77 bd 92 fd 2c bc 5e e8 26 3b
       0.04961598 -0.060465768 -0.010558503 0.0025468091
000010 f3 4b c2 3b 05 13 1c 3d a1 a2 9b bc d0 15 6c bd
       0.005929464 0.038104076 -0.018998446 -0.05763799
000020 80 f9 85 bd 53 f2 9f bc dd 56 33 3d 27 c3 e0 bc
       -0.06541729 -0.019524729 0.04378401 -0.027436806
000030 7b b6 db bc bf dd 71 bd 66 68 89 3d 69 47 9b 3c
       -0.026820412 -0.059049364 0.067093655 0.01895495
000040 c9 8b 82 3c e9 45 9f bc a9 27 e8 bd b2 47 be bc
       0.015935795 -0.019442515 -0.113356896 -0.023227546
000050 7a 18 9a bc 13 63 c6 3d 17 63 c6 3c a6 79 a8 3c
       -0.0188105 0.09686866 0.024217172 0.020565819
000060 b8 33 b7 3d 8b f0 37 3d 4d 0b d9 3b d4 f5 fe 3c
       0.089454114 0.044907134 0.0066236616 0.03112308
000070 cb 34 0f 3c 3c df 5d 3d ab 79 a0 3d 85 57 d8 bc
       0.008740614 0.05416797 0.07835706 -0.02640892
000080 b4 45 5c bc 0c a2 2b bd 31 5c 9e 3d a5 84 8e 3d
       -0.013444353 -0.041902587 0.07732428 0.06958894
000090 15 b9 ef bc 19 cc 18 bd 23 f2 26 3d cb 0f 0b 3d
       -0.029263059 -0.037304018 0.040758263 0.03395061
0000a0 0b 2e 25 3d 2a 9c 25 3d 1e d2 b1 3d e2 c9 21 bc
       0.040327113 0.040432133 0.08682655 -0.009874793
0000b0 66 cf 4e bd a2 0d 67 bd dd 9e 5d 3c cd 8f 46 bd
       -0.05049076 -0.056409486 0.0135266455 -0.048476983
0000c0 52 bf 4c 3d cd b9 8c bd 5a 74 26 3d 93 22 f2 bd
       0.049987145 -0.06871376 0.040638305 -0.11823001
0000d0 43 bd 16 bd 64 cb b5 bc 21 9b 85 bd b6 26 8c bc
       -0.036801588 -0.02219171 -0.06523729 -0.017108303
0000e0 20 83 df 3c 3f d3 a3 3d 2a 42 d3 3c b5 ab bb bc
       0.027284205 0.07999276 0.025788385 -0.022909025
0000f0 8d eb 01 3d 30 05 98 bd 6a cb 8c 3d 95 bb 3a 3d
       0.03171878 -0.074228644 0.06874736 0.04558905
000100 dc e0 7b 3d 8d 45 32 3c 8b c9 ec 3b c4 53 59 3d
       0.06149374 0.01088084 0.007226174 0.0530584
000110 38 a6 67 3d a2 31 d2 bb c8 e7 94 bd f5 45 a0 3d
       0.056555003 -0.006414608 -0.07270771 0.07825843
000120 85 48 c5 3c e6 83 42 bd e9 9a a2 bc bb 74 93 bd
       0.024082432 -0.04748907 -0.019849258 -0.07199999
000130 1d ab 3c bd db d0 94 3d c1 3f 45 3d 30 c8 a7 3c
       -0.046061624 0.072663985 0.048156504 0.020481199
000140 62 cc a0 3d 87 ee 8c bd 61 7e 4c bd 93 9a fa 3c
       0.07851483 -0.06881433 -0.04992521 0.030591285
000150 3f 13 4d 3d 47 af 64 3d 3a 42 ca 3c 2e d6 97 3d
       0.050067183 0.05583122 0.024689782 0.074138984
000160 1b 02 c7 bd 17 b6 4e 3d a4 ab dc bc 63 45 1c 3d
       -0.097171985 0.050466623 -0.026937313 0.03815211
000170 94 3a 4d bd c5 f4 8f 3d 24 0c 63 3d ef 3e be bd
       -0.050104693 0.07029108 0.0554315 -0.092893474
000180 a6 e3 b6 3c 38 e5 2c bd 78 a3 fa 3c 42 3e 34 3d
       0.022325348 -0.042210788 0.030595526 0.044004686
000190 5b 8b b5 3c a0 48 a0 3d d5 68 ba bd 5b 21 3d 3d
       0.022161176 0.07826352 -0.091020264 0.04617439
0001a0 be 8f 42 3d 71 31 9a 3c 03 fe b9 3b 2d f1 08 bc
       0.047500364 0.018822404 0.0056760325 -0.008358282
0001b0 ad 4c 80 bd a9 db 0b bd 38 12 ef 3c 48 e0 c5 bd
       -0.06264625 -0.03414503 0.029183492 -0.09661919
0001c0 7e 7b 4a 3c 44 c7 40 3b a0 49 b2 bd f9 10 8b bc
       0.012358544 0.0029415647 -0.08705449 -0.016975867
0001d0 3b ba da 3b d9 b5 79 3d ef 43 8a bd 7b ef 83 bd
       0.0066750324 0.06096444 -0.067512386 -0.06442162
0001e0 74 e0 93 3d bd 68 c9 3d e6 ac 58 3b d4 59 8f 3c
       0.072205454 0.0983443 0.003306204 0.017498888
0001f0 81 fd 5c bd b9 06 41 3d a7 d9 44 bc b6 ad 76 3c
       -0.053952698 0.04712555 -0.012014783 0.015056064
000200 46 67 07 3a bb a9 50 3c 7a 92 80 bd 8a 0f 05 3d
       0.000516523 0.012735779 -0.06277938 0.032485522
000210 eb 85 53 3b 88 e6 a4 3d 54 43 33 3d 24 29 85 bd
       0.0032275866 0.08051783 0.04376538 -0.065019876
000220 42 ff 60 3c 66 b7 2c 3c a9 ff 87 bd 78 79 53 bd
       0.013732733 0.0105417725 -0.0664056 -0.051629514
000230 86 be 3a 3b f1 ef 83 bd 70 5f 01 3c bd 4a 59 3d
       0.0028494908 -0.064422496 0.007896289 0.05304979
000240 05 4e 1b 3b 82 22 5b 3b 96 ae 83 bd b3 7c 0f bc
       0.0023697626 0.0033437316 -0.06429784 -0.008757758
000250 f0 da 99 3d 1f 5b d7 bb c1 5d b8 bd 2e 92 31 bd
       0.07512462 -0.006572142 -0.09002257 -0.0433523
000260 2c aa 27 3d f5 7a e5 bc 8a 23 c6 3c 58 e1 03 3d
       0.040933773 -0.028012732 0.024186868 0.032197326
000270 23 79 43 bd cb 62 e8 bc 79 e1 97 3d bc 05 63 bd
       -0.047722947 -0.02836742 0.07416052 -0.05542539
000280 96 da 07 3d 96 d9 42 bd 56 07 db 3b c0 52 b4 bd
       0.033167444 -0.047570787 0.006684224 -0.08804846
000290 4b 13 91 bc 06 38 3a 3d 09 da 80 bc 9e 23 3b 3d
       -0.017709395 0.045463584 -0.015728967 0.045688264
0002a0 d3 35 0c bd cd e3 c3 bc 1a 86 36 bd 4a 26 e9 3b
       -0.03423102 -0.023912335 -0.044561483 0.00711516
0002b0 b8 88 ba ba 83 79 a1 bc 9d 8b cb 3b 7b 76 cf 3c
       -0.0014231419 -0.019711262 0.0062117116 0.02532505
0002c0 66 09 88 3d 31 9f 65 bd c8 58 87 bd 23 8d 95 3d
       0.066424176 -0.05606002 -0.066087306 0.0730231
0002d0 f7 fe 0d 3d b0 e2 12 bd 5b ce 54 3b 35 db 9a 3d
       0.03466698 -0.035860717 0.003247163 0.07561342
0002e0 32 05 fa bc 96 d0 74 bd 6e ea 81 3c c9 eb a4 3d
       -0.030520055 -0.059769236 0.015858855 0.08052785
0002f0 7d fa 5b 3b ff 1d 19 bd fe bf d1 3c 31 cc d7 3d
       0.003356605 -0.037382122 0.025604244 0.10536993
000300 c0 2f 94 bd 9b 05 c7 3c c7 80 bb bc a8 58 9e bd
       -0.0723567 0.024294665 -0.022888554 -0.077317536
000310 ae 36 c0 bc 08 e1 29 3d aa ef 69 3c ef 3a e9 bc
       -0.023463573 0.041474372 0.014278332 -0.028470485
000320 73 ae 7c bd 33 19 4e 3a 50 1b b8 bd 9b 4e 98 3d
       -0.061689805 0.00078620313 -0.089895844 0.07436868
000330 9f 72 98 bd fe 6f ba bd ea 1f a2 ba 89 44 c5 bd
       -0.07443737 -0.09103392 -0.001236913 -0.09632213
000340 67 e4 99 3c de b8 a7 bd 3e 90 56 3c 9f be 56 bd
       0.018785669 -0.081895575 0.013095913 -0.052427884
000350 ea bf be bd ef a1 8b 3d 63 39 06 bc 1e f7 46 bd
       -0.093139485 0.06817996 -0.008192393 -0.048575513
000360 41 17 a2 3d 09 45 2f 3d 44 d2 0e bd 93 02 9e 3d
       0.079145916 0.042790446 -0.034868494 0.07715335
000370 ac f4 76 3c 2e e5 e4 3c 99 e6 17 bc 70 37 50 3d
       0.015072983 0.027941313 -0.009271287 0.05083412
000380 b0 f6 58 3b f6 ac 8c 3c 38 6d b3 3d bd 92 7f 3d
       0.0033106022 0.017172318 0.08761066 0.0623958
000390 8a 0f 9b 3d 70 14 6b bd f3 e6 39 bd 5f d2 69 3d
       0.07571323 -0.057392538 -0.045386266 0.05708539
0003a0 4e ce 82 bd 97 03 30 bd ce 51 c9 3b 68 81 ff 3c
       -0.06387006 -0.042972174 0.006143785 0.031189635
0003b0 d0 08 a4 bd 66 ce 02 3c 20 be c4 bd 8b 7f 2c bd
       -0.08009493 0.00798378 -0.09606576 -0.042113822
0003c0 e5 2f ae ba 9b 4f af bd 0d 28 40 3c 10 24 4a bc
       -0.001328942 -0.085601054 0.011728299 -0.0123376995
0003d0 a5 a0 2c bd 77 8e cf bd 5a 3d f2 bc 3a 17 9d bd
       -0.04214539 -0.10134595 -0.02957027 -0.07670446
0003e0 21 23 83 3d 9d b9 84 bd 65 23 2a bd c0 2f 6e 3c
       0.06403185 -0.064807154 -0.04153766 0.014537752
0003f0 1b be 1a 3d ab 6d 5b bd e9 9f 22 bd 1f a8 8c bd
       0.037778955 -0.053571384 -0.039703283 -0.06868004

encoder.0.0.bias f4 [64]
000000 06 7c 63 3d ae 45 4f bd 4c 5f a7 bd 6f 73 3d 3d
       0.0555382 -0.05060356 -0.08172473 0.046252664
000010 f8 0a 61 bc d1 b6 25 3c e5 d4 e6 3c bc 2a 77 3d
       -0.013735525 0.010114388 0.028177688 0.06034349
000020 6b 79 5c bd d0 70 a9 3d bd b7 41 3d 5c 3e 18 3d
       -0.05382673 0.082734704 0.047294367 0.037168846
000030 e3 fb 67 bd b4 ed 98 bd 9d 28 7f bc 83 4a aa 3b
       -0.056636702 -0.07467213 -0.015573648 0.005196871
000040 7d 8b 54 bd 0d dc ad bd 92 73 9d bd c3 44 77 bd
       -0.05189084 -0.08489237 -0.07688059 -0.06036831
000050 9b a5 99 3d b9 67 06 bd a0 d5 a7 3d 7f 77 ba bc
       0.0750229 -0.03281376 0.081950426 -0.022762058
000060 d7 61 8a bd 71 2d ba bd 73 6d d8 3c 04 0a e8 bc
       -0.06756943 -0.090906985 0.026419377 -0.028325088
000070 25 23 b1 3d 6c b9 53 bd 6f c6 2b 3d b5 a4 68 bc
       0.086492814 -0.051690504 0.041937288 -0.0141994255
000080 64 3c 8e 3d bd 8a 9e 3d 4b 45 be 3d 2b 0f 12 3d
       0.06945112 0.07741306 0.0929056 0.035658997
000090 83 66 31 3d 3c c3 18 3d c8 0b 06 bd 0f ae 37 3d
       0.043310653 0.037295565 -0.03272608 0.04484373
0000a0 72 cd d3 3a e1 9f a6 bd 88 88 80 bd 20 0f 6e bd
       0.001615925 -0.08135963 -0.06276041 -0.058119893
0000b0 7d 34 b6 bd 64 4d 63 bd a0 18 d0 3b 22 27 1d bd
       -0.0889673 -0.055493727 0.006350592 -0.038367398
0000c0 d6 60 b1 bd 21 6b bf bc b1 4d 6a bd 10 b7 8f bc
       -0.08661048 -0.023366513 -0.057203 -0.017543346
0000d0 0e e8 2a 3d d4 cb 93 3d fb b2 30 3a d4 67 b3 bc
       0.04172521 0.072166115 0.00067405374 -0.021900095
0000e0 8a bc 0a b9 36 7d 08 bd e4 ca 83 3c 9c 2a 98 bd
       -0.00013230942 -0.033322535 0.016087957 -0.07430002
0000f0 5b a2 cc bc eb 71 29 3d d6 a1 9c 3c c4 96 2a 3d
       -0.02497976 0.041368406 0.019120138 0.041647688

encoder.0.1.weight f4 [64]
000000 33 7e 7f 3f 87 6b 77 3f 61 d8 81 3f 45 e1 78 3f
       0.9980194 0.9664845 1.0144159 0.97218734
000010 6f 59 82 3f be 79 83 3f 5c 58 7e 3f 3d 5b 7e 3f
       1.0183543 1.0271528 0.99353576 0.9935797
000020 b1 dc 80 3f d1 79 80 3f 55 8e 7a 3f c4 bb 76 3f
       1.006735 1.0037175 0.9787343 0.9638026
000030 d6 61 80 3f ed 67 7a 3f 96 3b 81 3f 4b d9 76 3f
       1.0029857 0.9781483 1.0096309 0.9642531
000040 a2 32 84 3f 24 59 79 3f f4 01 74 3f 2f 58 80 3f
       1.0327952 0.9740164 0.9531548 1.0026911
000050 0b e5 7a 3f 72 39 83 3f 5c e5 80 3f 8b c4 7d 3f
       0.9800574 1.0251906 1.0069995 0.99128026
000060 2a 9f 7a 3f 42 22 7a 3f 08 c6 80 3f ff 07 80 3f
       0.97899115 0.97708523 1.0060434 1.000244
000070 ce 01 79 3f 70 23 81 3f 56 db 74 3f 39 9f 7c 3f
       0.9726838 1.008894 0.9564718 0.98680454
000080 0e 0a 7e 3f ac 87 78 3f af ab 7f 3f a5 0d 80 3f
       0.9923409 0.9708202 0.99871343 1.0004164
000090 29 dc 7f 3f 85 1f 81 3f 68 a2 80 3f 7f 53 77 3f
       0.9994531 1.0087744 1.0049562 0.9661178
0000a0 e1 40 7f 3f 14 c2 7c 3f 90 0d 7f 3f 79 3e 89 3f
       0.9970837 0.9873364 0.9963007 1.072219
0000b0 5e 7f 7d 3f 5f a2 7e 3f 29 99 7b 3f 42 e3 7e 3f
       0.9902247 0.9946651 0.9828058 0.9956552
0000c0 45 ad 7b 3f 4c 37 81 3f 5a 31 7e 3f 1b cd 83 3f
       0.98311263 1.0095 0.99294055 1.0296968
0000d0 55 69 7c 3f be 4e 7e 3f 3d 21 7b 3f 88 0c 7f 3f
       0.98598224 0.993389 0.9809759 0.99628496
0000e0 68 99 80 3f 0d ea 81 3f 6c 3f 7f 3f 21 1d 7f 3f
       1.0046816 1.0149552 0.9970615 0.9965382
0000f0 b8 01 84 3f ce 23 7a 3f f4 b2 7e 3f e0 25 80 3f
       1.0313025 0.97710884 0.9949181 1.0011559

encoder.0.1.bias f4 [64]
000000 5d 41 53 bc a6 2c 80 bc 05 07 ce 3c bc 65 e3 bc
       -0.012894002 -0.01564629 0.025149832 -0.027758472
000010 2a 96 a8 ba 57 77 0a 3d 73 2f e8 3b 1f e0 4d 3c
       -0.0012862135 0.033805218 0.0070857345 0.012565642
000020 e9 73 ce 3b bf 9d da 3c c4 a2 92 3a 32 fb bc bc
       0.0063004387 0.026686547 0.0011187424 -0.023068998
000030 14 ea 22 3c 62 72 0e bc f6 e3 de 3c 98 24 64 bc
       0.009943504 -0.008694263 0.02720831 -0.01392474
000040 24 f6 4f bc 12 18 5e bc d0 e7 eb bc 38 37 73 3a
       -0.012692962 -0.0135555435 -0.02879706 0.00092779426
000050 f5 04 90 bc dc 2d 28 3c 2a 04 d5 3a 3f 55 07 bc
       -0.017580489 0.01026484 0.0016251851 -0.00826007
000060 f8 64 91 3c b3 a1 d7 3b 2f ee 84 3b 26 41 07 3c
       0.017748341 0.0065805553 0.004056714 0.008255279
000070 ba 7e 52 bc 10 47 33 3a 66 70 64 bc 20 b1 2b bb
       -0.012847597 0.0006838897 -0.0139428135 -0.0026198104
000080 ad d8 8d bc 5a 79 94 bc 1d 50 4e bc 7a 5e 43 3c
       -0.017315233 -0.018124271 -0.012592343 0.01192438
000090 7a df 0e 3b 0b d4 e5 bc 01 86 8b 3c f8 df 38 bc
       0.0021800683 -0.028055212 0.017031671 -0.011283867
0000a0 9d 24 02 3c 66 16 35 ba 9b 29 4d 3b 62 18 57 3c
       0.0079433 -0.00069079397 0.0031305316 0.013128372
0000b0 77 d2 f9 bb 7e 26 41 3c 56 ba 16 bd b9 4e 83 3c
       -0.0076239663 0.011788962 -0.036798798 0.016028749
0000c0 8a 2a 03 bc 67 68 1e 3b d5 50 09 bc bb e2 05 3b
       -0.008005748 0.0024171115 -0.008381088 0.0020429331
0000d0 c0 ae 98 bc 54 82 2b 3c 42 10 b5 bc 31 1a 3e 3c
       -0.018638015 0.010468084 -0.022102479 0.011602924
0000e0 aa 65 ce 3c 6f 5f de 3c 14 bb ec 3a 8d bf a0 bc
       0.025194962 0.027145116 0.0018061125 -0.019622589
0000f0 22 a8 de bc 50 af 68 bc 35 9b 5f 3c 0b 9b 5e 3c
       -0.027179781 -0.014201954 0.013647844 0.01358677

encoder.0.1.running_mean f4 [64]
000000 47 4a dc 3e b4 9a 28 bf 30 a0 4c bb 89 a2 24 be
       0.4302542 -0.6586106 -0.003122341 -0.16077627
000010 f3 ef 10 3d fd 3b 6b 3e ca e4 43 3f 23 6c dd 3e
       0.035385083 0.22972102 0.7652098 0.43246564
000020 80 db e6 3d b8 a1 83 be f0 86 83 3e 7f be 88 bd
       0.11272335 -0.2570932 0.25688887 -0.06676959
000030 26 6e ac be 17 0f 26 bd e2 c1 b5 3e 17 0f fa be
       -0.33677787 -0.040541735 0.35499483 -0.48839638
000040 85 10 8a 3e d1 0b 1e 3d 6a 81 3b bc 6b 00 c2 be
       0.26965728 0.038585488 -0.011444429 -0.37890944
000050 4d f0 bf 3e 17 fa a0 be 40 a1 de 3e 04 42 c2 3e
       0.37488022 -0.31440803 0.434824 0.3794099
000060 b2 22 3e be 6e d0 ab 3e ac 90 b3 be a7 69 17 bf
       -0.18567923 0.33557457 -0.35071313 -0.5914559
000070 8d 5b 0d bf 91 67 42 bc ec 06 e4 3e b9 ad 58 bd
       -0.5521782 -0.0118655125 0.4453653 -0.05290005
000080 78 f0 d7 bd f0 54 52 3e 93 fe 49 bd 9b c2 09 be
       -0.10543913 0.20540214 -0.049315047 -0.13453142
000090 59 d1 43 3e 70 d9 17 bd e1 b7 f6 3d e1 f7 aa be
       0.19122829 -0.0370726 0.12046791 -0.33392242
0000a0 28 1a 13 3e 25 fd db 3e aa 2c 85 be d8 11 1b bd
       0.14365447 0.4296657 -0.26010638 -0.037858814
0000b0 a0 20 ad be b4 f8 8f bd b0 6e d8 bc b8 64 54 3e
       -0.33813953 -0.07029858 -0.026419967 0.20741546
0000c0 a6 27 4d be 86 12 f1 bd d6 a8 06 3e 86 73 9a 3e
       -0.20034656 -0.11771111 0.13150343 0.30166262
0000d0 85 73 36 3f 54 ae 9e 3e e2 a9 fd bc b9 dd b4 3c
       0.7127002 0.30992377 -0.030964796 0.022078382
0000e0 5b b7 f8 3d 2a 88 f3 be ea e2 77 3e a4 35 73 3d
       0.12144347 -0.47564822 0.24207655 0.059377328
0000f0 79 ca 1e 3e 1b c6 f7 bd b1 4e e5 3a b1 be e5 3e
       0.15506925 -0.120983325 0.0017494765 0.44872048

encoder.0.1.running_var f4 [64]
000000 e8 dd 0c 3b dc 92 49 3b 11 6f 32 3b 6b 76 d4 3a
       0.002149457 0.00307577 0.0027226845 0.0016209608
000010 95 9f c2 3a 1e 37 cf 3a 37 f3 1e 3b fc ee f0 3a
       0.0014848585 0.0015809273 0.0024253854 0.001838177
000020 20 be 27 3b e7 d6 5b 3b d5 6a f0 3a cc 89 26 3b
       0.00255955 0.003354484 0.0018342385 0.0025411723
000030 77 46 18 3b 8a 54 45 3b 7c 74 ee 3a df c9 5a 3b
       0.002323536 0.0030110204 0.0018192674 0.0033384485
000040 dc a5 2e 3b df 8b 05 3b 73 d9 3e 3b 42 2a c0 3b
       0.0026649153 0.002037756 0.002912131 0.0058644125
000050 5a ea 0f 3b ac 49 f3 3a 19 93 2c 3b 68 52 21 3b
       0.0021959753 0.0018561385 0.0026332794 0.0024615768
000060 56 84 c5 3a 1d 7f 03 3b 88 b9 43 3b 5c f9 27 3b
       0.0015069346 0.002006478 0.0029865224 0.0025630808
000070 16 cf 23 3b 0e b9 20 3b ed b8 5d 3a 6d d0 22 3b
       0.002499526 0.0024524364 0.0008458037 0.002484347
000080 38 62 1d 3b 53 c3 e8 3a ec eb 8e 3a 15 4c 24 3b
       0.0024014842 0.0017758406 0.001090405 0.0025069762
000090 cc c2 29 3b fb ac 8f 3b da 34 1a 3b 3f 61 d8 3a
       0.0025903462 0.0043846346 0.0023530037 0.0016508474
0000a0 f9 3b a9 3a 5e a4 4b 3b 7c 26 3e 3b a9 5d 52 3b
       0.001291155 0.0031073312 0.0029014638 0.0032099283
0000b0 5e a6 af 3a 90 84 24 3b 6e 30 2b 3b fd 37 02 3b
       0.0013401022 0.0025103427 0.0026121396 0.0019869797
0000c0 18 10 3f 3b 32 17 67 3b c0 0a 17 3b 52 6a e4 3a
       0.002915388 0.0035261628 0.002304718 0.0017426705
0000d0 0c 7f 42 3b e9 36 2b 3b a3 30 ef 3a c4 4a fc 3a
       0.0029677777 0.0026125258 0.0018248748 0.0019248356
0000e0 e4 89 45 3b 7a 43 45 3b 14 cf 1c 3b 4e f7 e2 3a
       0.0030142004 0.0030100034 0.002392714 0.0017316134
0000f0 72 e3 0f 3b a7 74 26 3b 73 7b 1b 3b fb 6f 44 3b
       0.0021955636 0.002539912 0.0023724705 0.0029973972

encoder.1.0.weight f4 [16, 64]
000000 fe e9 9b bd 93 01 88 3d 4f 78 9b bd 04 54 e5 3d
       -0.0761299 0.06640925 -0.075913064 0.11197665
000010 cc 7f 03 be 0d 3d ab bb 15 37 1f bd 13 16 05 3d
       -0.1284172 -0.0052257837 -0.03887089 0.032491755
000020 68 85 7f 3d a8 23 a5 bd eb ab 79 3d 37 a0 13 3d
       0.062383085 -0.080634415 0.06095497 0.036041465
000030 5b ba 64 bc a5 d4 08 bd 5f e6 df 3d 16 c6 1f 3d
       -0.013960446 -0.03340592 0.10932612 0.03900727
000040 de 0b 60 bd 27 d9 90 bb 5f 3e b7 bb 99 b8 be bc
       -0.054698817 -0.004420418 -0.005592152 -0.023281382
000050 5e 44 3c 3d 2d b7 73 bc b4 e6 90 bd 91 82 9d 3c
       0.045963638 -0.0148752155 -0.07075253 0.019227298
000060 f4 5c a7 3d 4e e4 9c 3d ef cb 6d bc f5 23 5b bc
       0.08172026 0.07660733 -0.014513954 -0.013375272
000070 e3 09 81 bc ef 41 da 3d 1a 0b ca 3d b7 da 98 3d
       -0.015751785 0.10657107 0.09865399 0.074635915
000080 65 bc ab 3c b3 9b ef 3c 55 66 a0 3c d1 d9 d3 bd
       0.020963857 0.029249048 0.019580046 -0.103442796
000090 13 94 ee bd 46 fb 94 bd c5 4e d1 3d 67 b1 4f bc
       -0.11649337 -0.07274489 0.10220102 -0.012676573
0000a0 ee f4 10 bb d2 ea 81 bd c6 b6 c0 bd 16 f9 d5 3d
       -0.0022118646 -0.063436165 -0.09409861 0.104479
0000b0 15 c5 dc 3d e6 a6 e9 3d 7d 1b 97 bd ff 58 31 3d
       0.10779778 0.114087865 -0.0737829 0.043297764
0000c0 7a d5 1b bd 89 fa 44 bd 96 23 e4 3c 90 64 c8 bd
       -0.038045384 -0.04809049 0.027849 -0.09784806
0000d0 30 77 b3 bd 85 a9 3a bd d6 27 cd bd 86 9d 03 be
       -0.087629676 -0.045571823 -0.10017364 -0.12853059
0000e0 2b 0f fc bd 8b 26 73 3c 9f c1 95 3d bf 97 28 bd
       -0.123075806 0.014840732 0.07312321 -0.04116034
0000f0 c1 41 12 3c f4 e7 bc bd 1f 77 05 be e8 69 8d 3c
       0.00892681 -0.09223929 -0.13033722 0.017262414
000100 81 60 cc bd 5e 18 79 3c 09 0c 28 bc fa 2d a9 bd
       -0.09979344 0.0152035635 -0.010256776 -0.082607225
000110 c7 ec 49 3d 78 59 21 bd 72 a3 14 be e1 28 83 bd
       0.049298074 -0.039391965 -0.14515474 -0.064042814
000120 a7 5c 09 bd 4c 90 90 3d 88 80 11 bd 91 e1 58 3d
       -0.033535626 0.070587724 -0.035522968 0.052949492
000130 b6 47 dc 3b 43 09 90 bd 7f 10 cc bd 68 c7 33 3b
       0.006722416 -0.070330165 -0.09964084 0.0027432088
000140 72 29 68 3b c4 69 b0 bd e4 62 bc bc 82 cc 8c 3c
       0.0035425094 -0.08613923 -0.022996373 0.01718736
000150 0f a4 3a bd e2 c5 13 3c c7 0f 31 3d 59 3c 1d 3d
       -0.045566615 0.009019347 0.043227937 0.03838763
000160 69 99 86 3d ad d2 af bd 3a 11 04 3b 3f 39 be 3d
       0.065722294 -0.08585105 0.002015187 0.092882626
000170 4e 3e cf bc 36 67 5b 3c c6 9a 43 3d 73 7e d2 3d
       -0.025298264 0.013391307 0.047755025 0.102780245
000180 88 96 08 bd 75 0c b3 bc 1c 23 e8 bd ad 16 21 bd
       -0.033346683 -0.021856526 -0.113348216 -0.039328266
000190 7c 97 0a 3e 13 62 b3 bd c1 95 1c 3d 92 95 8a 3d
       0.13534349 -0.087589405 0.038228754 0.067668095
0001a0 94 eb 90 bd d9 d6 53 3d 10 fb cd bd e6 3e dd bd
       -0.07076183 0.051718567 -0.10057652 -0.108030125
0001b0 42 d9 0f bd 6f e7 a8 3d 36 20 1c 3d 7b 27 90 bd
       -0.035119303 0.082472675 0.038116656 -0.0703878
0001c0 3a cc 08 be 7e 88 93 bd ce 61 6c bd 15 d5 f4 bd
       -0.13359156 -0.07203768 -0.05771046 -0.11954705
0001d0 32 08 d4 3d 36 c0 58 3d d8 97 83 bd e9 62 04 be
       0.10353126 0.05291768 -0.06425446 -0.12928356
0001e0 8b 34 b0 bd a8 7c 5c bb fc f3 d4 3b c5 63 96 bd
       -0.08603772 -0.0033643637 0.0064988118 -0.07343248
0001f0 0f dc 20 ba dd 74 be bd 6d 4b 73 bd ab c9 3e 3d
       -0.0006136307 -0.09299634 -0.059398104 0.046579044
000200 99 3b b5 3d 4c 7e 83 bc 0e e0 40 bd aa b2 87 bd
       0.08849258 -0.016051434 -0.047088675 -0.06625874
000210 20 27 b6 bc f5 a9 97 bd f1 56 e7 bd 76 73 95 3c
       -0.022235453 -0.074054636 -0.1129588 0.018243533
000220 bf b8 e5 ba 50 b0 9c bd 2a 22 94 3c 86 50 87 bc
       -0.0017526372 -0.076508164 0.018082697 -0.016517889
000230 c9 2e 8d bd 36 80 c7 bd 0d 14 ce 3d 06 53 d1 3d
       -0.06893689 -0.09741251 0.10062418 0.102209136
000240 79 ce d8 3d ff b0 85 3b 91 a0 12 bd 9e 71 9e 3b
       0.105862565 0.0040799375 -0.03579766 0.0048353216
000250 9c c1 0b 3e 84 70 05 3e 5b c0 d4 3d 6a 56 5f 3c
       0.13648075 0.13031203 0.103882514 0.013631443
000260 20 ae 8e 3d ef 95 1f 3d e5 64 56 3d 69 e5 d8 bd
       0.069668055 0.038961347 0.052342314 -0.105906315
000270 cf 44 b5 bc 9d 15 bf 3b af fd e3 bd 82 3e 1d 3d
       -0.022127537 0.005831434 -0.11132371 0.03838969
000280 d9 34 01 bc c8 1d 90 3d 16 15 a2 bd 48 73 05 3e
       -0.007886135 0.0703693 -0.07914178 0.13032258
000290 26 67 90 bc ca 9f 0b 3d a4 71 c6 bd a5 af cc bd
       -0.01762731 0.034087934 -0.09689644 -0.09994439
0002a0 b3 90 ad 3d 9d 7a 15 3d f0 f0 40 bd c2 88 09 3e
       0.08474865 0.036493886 -0.047104776 0.13431075
0002b0 d1 8c 80 bd 6a f6 fd bd bb b2 37 bd 54 e0 86 bd
       -0.062768586 -0.124005154 -0.044848185 -0.06585756
0002c0 6c 66 64 bd ea 0a dd 3d 3d 90 a3 3d f8 96 a6 3d
       -0.05576174 0.10793097 0.07986496 0.08134264
0002d0 f3 e8 c0 bd 7d 5f 57 bd bb e0 cb 3d 69 90 7a 3d
       -0.094194315 -0.0525813 0.09954973 0.061172877
0002e0 fc 88 13 3d d2 18 0f 3e d3 81 9c bd a8 e4 2c bc
       0.03601931 0.13974312 -0.076419495 -0.010552563
0002f0 7f 0f 70 3d 8f 6a 8a 3d f2 c5 3a 3d cc da 88 bd
       0.05860853 0.06758606 0.04559893 -0.06682357
000300 39 cc c7 bc 1e 95 74 bd 65 ef ac bd c8 bf c5 bc
       -0.024389373 -0.05971252 -0.084440984 -0.0241393
000310 e2 20 0c be ca 95 dd bd 7a d1 8d bd 51 e8 41 bd
       -0.13684419 -0.108195856 -0.0692472 -0.047340695
000320 d1 f1 83 bd e0 4b 5b 3d d7 bb a4 bd 2f 38 46 bd
       -0.06442607 0.053539157 -0.0804364 -0.048393425
000330 ae 06 b0 3d 9b cc 6c 3d de f4 47 bc 7b 2e 33 bc
       0.08595024 0.057812314 -0.012204377 -0.010936375
000340 f3 e0 ab bd 1a 80 c5 bd ce d0 cd bd 1f f1 20 3d
       -0.08392515 -0.09643574 -0.10049592 0.03929245
000350 64 ae 0b bc 74 2e ab 3d d3 7b cc bd 46 49 a9 bd
       -0.008525465 0.083584696 -0.09984555 -0.08265929
000360 5b 8e c7 bc ad b7 63 3d 3b 12 35 3d 02 b7 85 bd
       -0.024359873 0.05559509 0.04420684 -0.065290466
000370 f2 75 e9 bd b2 e3 1a 3d e2 ea 48 bd 0b 7f e8 bd
       -0.113994494 0.037814803 -0.049052127 -0.113523565
000380 ff 3c e8 b9 da dc c8 bd 02 e3 09 bd fb 18 14 be
       -0.00044295934 -0.09807749 -0.033663757 -0.14462654
000390 60 97 d1 3d 58 c7 35 3d 7c 37 af bd 83 a4 b0 bd
       0.102339506 0.044379562 -0.08555505 -0.08625128
0003a0 be ef 07 3c 74 da 31 bd 69 9a 04 be dd 3c c3 bc
       0.008296905 -0.043421224 -0.12949528 -0.023832733
0003b0 34 15 a5 3d 2c d5 88 bd ab 8e 98 bd 86 c3 a3 3c
       0.08060685 -0.06681284 -0.07449087 0.019990694
0003c0 35 88 12 bd b0 7a 35 3d 40 91 ba 3d 93 ac b8 bd
       -0.03577443 0.044306457 0.091097355 -0.09017291
0003d0 05 a8 8c 3c 3b 63 24 bd 8a 3e 11 be 07 9d 5d 3d
       0.017169962 -0.040133696 -0.14184013 0.05410483
0003e0 21 fb e2 bb 80 17 3b 3b b9 6b 0b be f5 ae f2 3c
       -0.0069269096 0.0028547943 -0.13615312 0.029624442
0003f0 25 cd a2 3b 96 f8 11 3b 5d ca a2 3d b5 0b bb 3c
       0.004968303 0.0022273413 0.07948754 0.02283273

encoder.1.0.bias f4 [16]
000000 fd 92 46 3d ac 0f 90 3d 76 9b 68 bc af 4b fc bc
       0.048480023 0.07034239 -0.014197221 -0.030797807
000010 cd c6 a8 3d 4d 9a 18 bd 34 21 39 3d 22 d8 82 bd
       0.08241043 -0.037256528 0.04519768 -0.0638888
000020 0e 59 cd 3d c5 4d d6 bd db ae a8 bd ad 41 7d ba
       0.100267515 -0.10464052 -0.08236476 -0.00096609705
000030 59 a3 82 3d 34 e7 ad bd 16 70 89 bd 21 a9 a6 3c
       0.06378812 -0.08491364 -0.06710832 0.020344319

encoder.1.1.weight f4 [16]
000000 54 d6 6c 3f 8c 1b 78 3f 24 9a 85 3f 6e de 82 3f
       0.9251454 0.96917033 1.0437665 1.022413
000010 11 11 6e 3f 96 aa 73 3f e6 b6 74 3f fa fd 7c 3f
       0.9299479 0.9518217 0.9559158 0.9882504
000020 6c 2a 7b 3f be 11 87 3f ba 7b 90 3f ae f9 71 3f
       0.98111606 1.055229 1.1287758 0.94521606
000030 97 2a 81 3f 41 f5 80 3f cb 8e 89 3f aa 99 73 3f
       1.0091122 1.0074846 1.0746702 0.9515635

encoder.1.1.bias f4 [16]
000000 50 7d 80 bd de 42 a7 3c 2f 3d 9a 3c 81 66 57 3d
       -0.062739015 0.020417627 0.018828003 0.05258799
000010 8d 79 d7 bc 8c ed 85 bc 08 06 74 3c 83 6a 47 bc
       -0.026303077 -0.016348623 0.014894016 -0.0121713905
000020 5e 2c 1e bd 91 b7 41 3c 25 a6 b3 3d 67 77 18 bd
       -0.03861653 0.011823551 0.08771924 -0.037223246
000030 54 35 4e 3c de d5 26 bd be fc 42 bc 9c a9 58 bc
       0.012585957 -0.040731303 -0.011901079 -0.013224032

encoder.1.1.running_mean f4 [16]
000000 12 25 e3 bd 34 27 cb be c4 e5 0e 3e 62 97 2d bf
       -0.11091055 -0.39678347 0.13954836 -0.67809117
000010 db fe 55 be 81 1d bc be 03 59 af bd 10 35 7f bd
       -0.20898001 -0.3674126 -0.085618995 -0.062306464
000020 5c 09 ae 3c 0d df 08 3e 71 8a c8 3d 67 9f 11 bd
       0.021244697 0.13366337 0.097920306 -0.03555241
000030 e0 99 22 3e 69 bb 88 3b 85 a9 22 3e c0 3e 94 3b
       0.15879011 0.0041727317 0.15884979 0.004524082

encoder.1.1.running_var f4 [16]
000000 c7 1a 51 3e e7 05 76 3e 83 ec 89 3e 2e 16 84 3e
       0.20420371 0.24025689 0.26938257 0.25798172
000010 11 58 92 3e d0 c3 8a 3e 98 d5 a8 3e 95 02 8d 3e
       0.28582814 0.27102518 0.3297546 0.27541032
000020 9f ef 26 3e 72 26 47 3e 7b 74 b0 3e 5d ec 47 3e
       0.16302346 0.1944826 0.34463868 0.19523759
000030 50 af 99 3e 40 72 3d 3e 45 f7 8f 3e 2c 51 5d 3e
       0.30016565 0.18500614 0.2811834 0.21612996

encoder.2.0.weight f4 [8, 16]
000000 50 d1 3e 3e c9 9d e7 3d 1e 6e 2f be b0 8a 77 3e
       0.18634534 0.11309392 -0.1713185 0.24173999
000010 02 95 01 3d a6 3a a5 bd 16 65 4e 3e b5 75 86 3b
       0.031636246 -0.08067827 0.20155749 0.0041033872
000020 78 c8 54 be f4 b5 6c 3d a5 b6 52 be 4b 1c 29 3e
       -0.20779598 0.05779071 -0.20577486 0.16514699
000030 ed 60 9e 3c ac a5 15 bd 39 72 ac be d7 04 26 bd
       0.019333327 -0.03653495 -0.33680895 -0.04053196
000040 88 aa d2 bc 39 14 32 be ef dc 85 be 37 1c 34 bd
       -0.025716081 -0.17390527 -0.2614512 -0.04397222
000050 25 02 20 3e 26 2a 38 3e 84 90 17 3d 11 d0 1a 3d
       0.15625818 0.17984828 0.037003055 0.037796084
000060 42 71 28 bd 9d 3b 11 be 01 a4 77 be 19 af 6c be
       -0.041123636 -0.14182897 -0.24183656 -0.2311367
000070 fa 56 48 bd d7 3c 5b 3c 5d ba 0f be 14 f3 26 be
       -0.048911072 0.013381205 -0.14035936 -0.16303664
000080 bc b5 30 be da 94 3d 3c cf f8 3b bd 8b f2 00 3d
       -0.17256826 0.0115711335 -0.04589158 0.031481307
000090 43 2f 62 3d 13 d6 1c 3e 51 a9 08 3e ad 0c d0 3d
       0.055220854 0.15316038 0.13345839 0.10158668
0000a0 f5 7d 17 be 9e ac d9 3c 51 e2 9f be 69 9e 8c 3d
       -0.14794143 0.026571568 -0.31227353 0.06866152
0000b0 67 49 40 be 82 9f 25 be db 2e 96 bd 91 cd 7b be
       -0.18778001 -0.16174129 -0.07333156 -0.24590136
0000c0 b1 f9 f1 3d cb a5 11 3e 5c 44 0e 3e ca 64 a9 3d
       0.11815203 0.14223401 0.13893265 0.08271177
0000d0 6f 8b 7f bd 33 0f 9c be 0a 97 4f be e0 c3 67 3e
       -0.062388834 -0.30480346 -0.2027246 0.22633314
0000e0 2f 54 91 be bf 10 7f be aa 6f 28 3e 34 7b 37 bd
       -0.2838454 -0.24908732 0.16448846 -0.04479523
0000f0 8f a4 c0 3d 0f ca 11 3d 36 7e fd bd 73 a7 32 3e
       0.09406387 0.03559309 -0.123775885 0.1744669
000100 d2 86 36 bd cb f5 b6 3d 4e 96 b7 bd b1 63 c1 3d
       -0.04456217 0.089336 -0.08964215 0.09442843
000110 79 02 8d 3d 82 f8 df 3d 02 fb a9 3d de 63 1b be
       0.06885237 0.10936071 0.08299829 -0.15174815
000120 05 d0 b4 3b 8c 0b 98 be 91 89 dd bd 57 f7 40 3e
       0.005517962 -0.2969631 -0.10817254 0.18844353
000130 85 5c 5f bd 01 a2 38 3e fa bb 13 3e 09 72 49 3e
       -0.054531593 0.1803055 0.14427176 0.19672407
000140 20 35 05 3e 27 00 ac bd c0 4f 26 3e 01 56 39 bd
       0.13008547 -0.083984666 0.1624136 -0.045248035
000150 d3 42 31 be 3a 8b fb bd 44 cd 59 be 6b 43 93 be
       -0.17310648 -0.12282415 -0.21269709 -0.28762373
000160 8b 96 e4 3d d0 27 40 bd 0b 54 18 be 90 86 f6 bd
       0.11161526 -0.04691297 -0.1487581 -0.120373845
000170 97 5c dc 3d eb bf 96 be 16 c2 c3 bd a4 57 98 bc
       0.107598476 -0.29443297 -0.09558503 -0.018596478
000180 6a bc ce 3c 4e 32 e3 bd a5 e6 8e 3c ad 10 60 3e
       0.025236327 -0.11093579 0.017443964 0.21881361
000190 e1 11 3a bc 46 5d 76 bd cd e9 7a bd 6d be 29 3e
       -0.011356802 -0.060147546 -0.061258126 0.16576548
0001a0 87 07 79 be b3 93 36 bd 76 5e 66 be 04 1c b5 3d
       -0.24319278 -0.04457445 -0.22496971 0.08843234
0001b0 6d 96 8f be 3f 90 89 3e 1b 42 86 be 60 4a f4 bd
       -0.28044453 0.26867864 -0.2622231 -0.119282484
0001c0 76 4e 3e 3e c8 11 36 3d 10 c7 0a be 04 2e e0 3d
       0.18584618 0.04445055 -0.13552499 0.10946277
0001d0 ae 73 42 3e 9b 90 96 3d 35 52 31 3e ff 44 2b bc
       0.18989441 0.073518 0.17316516 -0.010453462
0001e0 42 d3 a4 3d f8 52 00 be 38 53 30 be 10 d8 03 3e
       0.08048107 -0.1253165 -0.17219245 0.1287539
0001f0 ed 78 86 bd e7 ea 21 be e2 ec 24 be 3a 15 01 3e
       -0.065660335 -0.15812264 -0.16105989 0.12605754

encoder.2.0.bias f4 [8]
000000 3b 7b e4 bd e4 aa c6 bd 04 f7 82 be b5 2e f0 3d
       -0.11156317 -0.097005635 -0.25579083 0.11727659
000010 2c 43 3d bc be 21 5e 3d 93 f2 a3 3d 6f 31 b1 bd
       -0.01155166 0.054231398 0.08005252 -0.08652007

encoder.2.1.weight f4 [8]
000000 e3 14 61 3f 30 53 6e 3f 2e 3e 65 3f 50 7b 68 3f
       0.87922496 0.93095684 0.89548004 0.9081316
000010 c5 60 6d 3f 9c 6c 5a 3f 01 fa 6a 3f c8 c6 68 3f
       0.92725784 0.85321975 0.91787726 0.90928316

encoder.2.1.bias f4 [8]
000000 45 a1 06 be e4 cb d2 3d fb 55 aa bd 93 9a 9d 3d
       -0.13147457 0.10292795 -0.08317181 0.07695498
000010 61 4d c8 bd 5c 48 2d be e4 a2 03 3c c3 5a 11 bd
       -0.09780384 -0.16922134 0.008034442 -0.035486948

encoder.2.1.running_mean f4 [8]
000000 41 3f 05 be dd 21 fe be 82 ec 08 bf be da c7 3d
       -0.1301241 -0.4963521 -0.5348588 0.09758519
000010 07 32 09 3e ab 77 a8 be f4 c7 21 be 16 4a 91 3b
       0.1339799 -0.329038 -0.15798932 0.0044338806

encoder.2.1.running_var f4 [8]
000000 3e d2 db 3e d3 ad 00 3f 98 69 ba 3e 5b 5c 6e 3e
       0.4293384 0.50265235 0.36408687 0.23277418
000010 89 41 57 3e 33 c4 de 3e 03 41 0f 3f aa 36 b3 3e
       0.21021093 0.43509063 0.55958575 0.35002643

mu.weight f4 [5, 8]
000000 48 13 35 3d fd 62 2d 3e ad 5f 54 be b6 76 48 bd
       0.04420784 0.16932292 -0.20739622 -0.048941337
000010 60 78 44 3e 91 7b 59 be db 0a ac bd e1 3a a2 bd
       0.19186544 -0.21238543 -0.08400508 -0.079213865
000020 31 49 ec 3d 8a ce a5 3c 79 31 dd bc 5e a1 00 be
       0.11537398 0.020240087 -0.02700113 -0.12561557
000030 08 1f 66 3e 40 38 38 3e f6 f6 89 bd 76 b0 98 be
       0.22472775 0.17990208 -0.06736557 -0.2982213
000040 99 14 55 3e 92 b7 5d bd 12 b1 18 be 23 1e 16 be
       0.20808639 -0.054130144 -0.14911297 -0.14659934
000050 c0 99 03 3e 3b 13 65 be f0 fd e7 bd 6f d5 02 be
       0.1285162 -0.22370617 -0.113277316 -0.12776731
000060 d7 24 0c 3d e0 ff eb 3d 80 4e f2 3d f7 6f 0a 3e
       0.03421482 0.11523414 0.11831379 0.13519274
000070 a0 a9 e0 ba b4 d7 7a 3e 6f 58 4d bd 72 46 a6 bd
       -0.0017140396 0.24496347 -0.050133165 -0.08118905
000080 08 3e 34 3e e1 46 7c 3e fa 4f 65 3c 65 49 68 3e
       0.17601788 0.24636413 0.013996119 0.22684248
000090 7e 40 bf 3d 82 3a 56 be 66 55 ac be 5b c8 c8 3d
       0.09338473 -0.20920756 -0.33658904 0.0980384

mu.bias f4 [5]
000000 fe af ae 3c 9a 2f 5d 3d 11 6e 07 3e e4 07 fb bd
       0.021324154 0.054000475 0.13225581 -0.122573644
000010 00 55 16 be
       -0.14680862

sigma.weight f4 [5, 8]
000000 bb 9f d7 bb 08 63 18 be 59 93 cd 3d 94 73 c6 bd
       -0.0065803207 -0.14881527 0.1003787 -0.096900135
000010 a7 51 66 3e 56 b5 2c be 0f 70 62 be 49 97 d4 3d
       0.22492085 -0.16866049 -0.2211306 0.10380418
000020 85 35 0b be fc 4f d6 3d ae c2 5e 3d 06 84 36 3e
       -0.13594635 0.104644746 0.05438488 0.178238
000030 e6 30 49 be 22 3d 24 be 46 74 e6 3d 52 c1 b4 3d
       -0.1964756 -0.16038945 0.11252646 0.088259354
000040 a5 2c 1b 3d 40 1f 80 3e 6f eb 1d be 63 91 5b 3e
       0.037884373 0.25023842 -0.15421842 0.2144218
000050 4c 17 e9 bd e9 34 85 bd 8e 8f 86 bd db fe 71 3e
       -0.11381397 -0.065042324 -0.0657035 0.23632376
000060 9b 56 9d 3d e9 05 5e 3e 97 c5 83 be 16 05 ff bb
       0.07682534 0.21681942 -0.25736687 -0.0077825887
000070 b3 41 8f bc b1 01 7c bd e4 a0 65 3d 1f ec 00 3e
       -0.017487383 -0.06152505 0.05606164 0.12590073
000080 00 3a 41 3e cf c5 28 3e 2b e3 75 be 87 41 39 bd
       0.18869781 0.16481708 -0.24012439 -0.045228507
000090 22 4c a0 3d d1 44 c2 bc 91 ba cd bc c4 43 3a be
       0.07827021 -0.023714455 -0.025113376 -0.18189913

sigma.bias f4 [5]
000000 3b f8 ac 3d d2 dd cc bd 42 c7 21 be de 9f ad bd
       0.08445784 -0.10003246 -0.15798667 -0.08477758
000010 0d 9e 73 3c
       0.014869225

decoder.0.0.weight f4 [8, 5]
000000 9b 94 a6 3e 0e 7d 93 3e 87 d8 ca 3e 4e 75 e0 3e
       0.32535252 0.28806347 0.39618322 0.43839496
000010 26 35 70 3e 2f 48 02 3f a9 22 97 3c 2d 24 48 be
       0.23457775 0.50891393 0.018449144 -0.1954505
000020 a9 dd 38 be 73 2e 43 3e 70 b2 91 3e 1f 91 1e 3e
       -0.18053307 0.19060688 0.2845645 0.15485047
000030 7c 73 fd bd 79 f5 93 bd 0a 6c cf 3d 91 31 ec 3e
       -0.123755425 -0.072245546 0.10128029 0.46131566
000040 53 1f c5 be bd 23 88 3e 25 5f 06 3e 4b a2 52 3e
       -0.3850046 0.26589766 0.13122232 0.20569722
000050 89 97 ba be a1 37 3d be 16 ce aa 3e 64 e1 d6 3e
       -0.36443737 -0.18478252 0.33360356 0.41968834
000060 ac a3 a9 be 0c e5 a0 3e 41 9f af be 46 36 34 3e
       -0.33132684 0.3142475 -0.3430119 0.17598829
000070 73 2f 6c 3d c8 f0 4c 3e 3e d5 ac 3e 69 31 b7 be
       0.05766244 0.20013726 0.3375644 -0.35779884
000080 6b 0a d9 3d 1b 39 9c bc ac 52 54 3e 96 fd ac be
       0.1059769 -0.019070199 0.20734662 -0.3378722
000090 04 c8 9b 3e 9e a8 e2 bd f3 9b 36 3d 55 63 0d be
       0.30426037 -0.110673174 0.04458232 -0.13807423

decoder.0.0.bias f4 [8]
000000 cf 3f 8e 3e 86 84 d4 be a5 7c 83 be 5d 84 55 be
       0.27783057 -0.41507357 -0.25681034 -0.20851274
000010 81 99 71 3e f3 cf 94 3e 21 17 72 3e 14 1b 31 be
       0.23593713 0.29064903 0.23641635 -0.17295486

decoder.0.1.weight f4 [8]
000000 e9 5c 59 3f 2f 5a 7e 3f 2a 3e 5f 3f c7 66 94 3f
       0.84907395 0.9935636 0.8720423 1.1593865
000010 1e 12 72 3f 62 0b 7c 3f 07 51 76 3f 91 3b 8e 3f
       0.94558895 0.9845487 0.9621739 1.1111928

decoder.0.1.bias f4 [8]
000000 13 01 31 be 11 1f 87 bc fc 36 fc bd 6d 82 6e 3d
       -0.17285566 -0.016494306 -0.12315175 0.058229852
000010 1d f4 91 bc f2 fd 19 bd 73 d6 5b 3d a5 b6 5d 3d
       -0.017816598 -0.037595697 0.05367131 0.05412926

decoder.0.1.running_mean f4 [8]
000000 6a 80 8e 3e 11 37 d3 be 8e 87 83 be 26 32 50 be
       0.27832347 -0.4125295 -0.25689358 -0.2033163
000010 e1 9d 6d 3e d9 b4 97 3e bd cc 77 3e d9 81 36 be
       0.23204757 0.29630163 0.24199195 -0.1782297

decoder.0.1.running_var f4 [8]
000000 c8 aa 18 3f c8 f7 bb 3e 27 fa 0b 3e 04 50 fb 3e
       0.5963559 0.3671248 0.13669644 0.49084485
000010 df 5e 11 3f 5e 11 94 3e 61 7d 96 3e 89 2b 74 3e
       0.56785387 0.289195 0.29392532 0.23844732

decoder.1.0.weight f4 [16, 8]
000000 ca 21 0c be 7c 9e 05 be 71 93 49 3d 5f 8f ce be
       -0.13684765 -0.13048738 0.049212877 -0.40343758
000010 06 41 5c be bd 04 69 3d 09 a2 c1 be f6 b6 ce 3d
       -0.2150918 0.056889284 -0.37818936 0.10093491
000020 f1 ef 09 be 07 3b 55 be 67 47 b4 be 3c 9a 63 bb
       -0.13470437 -0.20823298 -0.35210726 -0.0034729382
000030 d0 81 17 3e f0 f6 ca 3b 8e 87 d2 bd c9 ca a3 be
       0.14795613 0.006193988 -0.10279761 -0.3199065
000040 32 0a bc bd e2 16 07 be 3a bf 04 3e 28 09 b3 3e
       -0.09181632 -0.13192323 0.12963572 0.34967923
000050 db 53 93 3e dc 0e 8b 3e 74 88 07 be 95 83 66 3d
       0.28774914 0.27159774 -0.13235646 0.05627783
000060 08 9b 79 3d 26 15 2c 3d d0 d3 f6 bd ab 0a cc 3e
       0.060938865 0.042012356 -0.12052119 0.3985189
000070 bf 70 f9 3c 74 8d 13 3e d2 98 34 be cb 9e bc be
       0.03044927 0.14409429 -0.17636421 -0.368399
000080 ea 23 aa 3d 4a 59 14 be 96 8a 94 bd 51 49 26 be
       0.08307631 -0.14487186 -0.07252996 -0.16238905
000090 a8 fa 7d 3e 8a fb 64 be 23 57 93 3e 6d 22 e0 3e
       0.24802649 -0.2236158 0.28777418 0.43776265
0000a0 46 d5 b2 ba 2f d8 1e be ed f5 c5 3c 14 bf 9c 3e
       -0.0013643883 -0.15512155 0.024165118 0.3061453
0000b0 f6 55 b7 bd 0e 80 31 bc d3 64 da 3e 14 d1 96 be
       -0.089519426 -0.010833753 0.42655048 -0.2945639
0000c0 40 46 01 be 21 82 48 be 50 b9 ec bc 13 42 e9 bd
       -0.12624454 -0.1958089 -0.028896958 -0.11389556
0000d0 6c ab 16 3d 25 d1 14 bc 55 ca 34 bd 54 99 bc 3d
       0.036784574 -0.009083067 -0.04413827 0.092089325
0000e0 61 84 a1 bc 51 64 8c bd fe 6c cd bc 3b e0 94 be
       -0.019716443 -0.06855071 -0.025076386 -0.29077324
0000f0 b7 02 59 3e b0 6f 8a 3e c4 1d ba be fb bb 32 be
       0.21192442 0.27038336 -0.36350834 -0.17454521
000100 8d ed 01 be cd 46 c3 be dc 31 af bd f1 4e ca be
       -0.12688275 -0.38139954 -0.08554432 -0.39513353
000110 fe ba 08 be d9 76 77 be 9d d6 4c 3e 47 62 95 bd
       -0.13352582 -0.2416643 0.20003743 -0.072941355
000120 40 a8 d9 3d dc a9 65 3e c9 61 1e be 35 9b d6 bd
       0.10627794 0.22428077 -0.1546699 -0.10478822
000130 d2 29 95 be 72 34 f1 bd d6 38 d6 bd df 1b be 3e
       -0.2913347 -0.11777581 -0.10460059 0.3713064
000140 ea 4f 8e bd 76 1d 2e be 74 73 c9 bc d3 f5 61 3c
       -0.06948836 -0.17003426 -0.024591185 0.013791519
000150 55 89 ad 3d c1 82 05 3c a6 cf 35 be 2a be 64 3e
       0.0847346 0.00814885 -0.17754993 0.22338167
000160 ba c2 86 3d 71 e3 93 3e 45 ac 48 bd fa b7 9b bd
       0.0658011 0.28884462 -0.048992414 -0.0760345
000170 f4 2d 91 be b2 25 89 3e 7d 6d 4b be a5 95 90 3e
       -0.28355372 0.26786572 -0.19865985 0.2823917
000180 21 5b 6b bd ea 0d 97 bc 2f e8 7c 3d 02 2c 95 be
       -0.057459954 -0.018439252 0.061744865 -0.29135138
000190 a2 8e 07 3e 1b cd 99 be df ba a8 be 56 51 a6 bd
       0.13238004 -0.30039296 -0.3295507 -0.08120982
0001a0 d9 e9 37 3d a6 d9 97 3e 67 d3 86 bd 15 23 81 3e
       0.04490075 0.2965824 -0.065832905 0.25222078
0001b0 81 b0 79 be 6a 61 a5 3e c7 6e ca 3c 28 2d 73 3e
       -0.24383737 0.32300884 0.024711026 0.23747694
0001c0 12 c0 5b 3e be de 8f bc 5d 5a 05 3e e6 23 7a 3e
       0.21459988 -0.017562266 0.13022752 0.24427757
0001d0 c7 9b bb 3d 1d 81 46 be 4c 87 ca 3e 27 78 c0 be
       0.091605715 -0.1938519 0.39556348 -0.3759167
0001e0 9e 78 21 3e a8 d2 9e 3e c8 41 21 3e ec af a3 3e
       0.15768668 0.31020093 0.1574775 0.31970155
0001f0 32 5f 4e be 5c 0c df 3d 84 8e b2 3d c6 2b 88 be
       -0.20153502 0.10891029 0.08718589 -0.26595896

decoder.1.0.bias f4 [16]
000000 da 6a 72 3e 4c ed 6f 3e 3c 1d 81 be 32 d4 bf 3d
       0.23673573 0.23430365 -0.25217617 0.09366645
000010 4b d9 a8 be 78 6d 7a bd 35 d1 5e be c1 bc a0 3e
       -0.3297828 -0.061139554 -0.21759494 0.31394008
000020 2c 62 a8 3e 47 91 35 be 1e 84 6f 3d 18 e9 9e bd
       0.328874 -0.177312 0.058475606 -0.07759303
000030 44 95 7b be 49 dc c8 bd 94 88 52 3d bd 9f d2 bd
       -0.24568659 -0.09807641 0.051399782 -0.10284374

decoder.1.1.weight f4 [16]
000000 df eb 8f 3f bd d4 64 3f 39 90 6a 3f 64 fe 80 3f
       1.1243857 0.8938711 0.91626316 1.0077634
000010 8e 5c 74 3f 41 8f 8d 3f 6c f8 8c 3f 8f 72 60 3f
       0.9545373 1.1059343 1.1013312 0.876748
000020 3f cc 7d 3f 45 c7 81 3f 77 dc 80 3f 6a 6c 66 3f
       0.9913978 1.0138937 1.006728 0.90009177
000030 b5 58 5f 3f 4b b2 86 3f ae 95 6d 3f 73 29 7b 3f
       0.8724473 1.0523161 0.9280652 0.9811012

decoder.1.1.bias f4 [16]
000000 1f ec 2b 3e 10 4d 9c 3c ec 01 f8 3c 7b a9 89 3d
       0.16789292 0.019079715 0.030274354 0.06721779
000010 d0 bc 0c 3d 05 08 11 3e 51 7b 29 3e a5 e2 db 3c
       0.034359753 0.14163215 0.16550948 0.026841471
000020 1e da c9 3d 69 47 0e 3d a8 8d 02 3e 29 0d f9 3d
       0.09856056 0.03473607 0.1274935 0.12160713
000030 d1 d8 3e 3d 1f ba 0e 3e 51 e8 40 3d 68 3b 39 3e
       0.04659349 0.13938187 0.047096554 0.18089068

decoder.1.1.running_mean f4 [16]
000000 8e 3c 49 be d8 3c ed bd 6b 53 70 3d 19 ac d9 3d
       -0.19652006 -0.11583871 0.058673304 0.10628528
000010 03 ca 08 be 24 03 11 3d 2f ca b5 be 75 57 a8 3d
       -0.13358311 0.035403386 -0.35505816 0.08219806
000020 b3 04 22 be ff b1 36 be c3 73 29 3d 73 d6 36 3d
       -0.15822105 -0.17841338 0.041370165 0.04463811
000030 58 2c 20 bf 08 11 90 3e 68 42 51 3e c9 f7 0c 3e
       -0.62567663 0.28137994 0.20435488 0.13766398

decoder.1.1.running_var f4 [16]
000000 da b8 9c 3e 64 59 ee 3d ba 40 de 3d 49 36 50 3e
       0.3060978 0.11638144 0.10852189 0.20333208
000010 bb d9 40 3e 2f 86 9a 3e 9e d9 89 3d 9b 3c 9e 3d
       0.18833058 0.301805 0.0673096 0.07726403
000020 2b 33 48 3e cf bb 03 3e d3 c9 ba 3d d1 83 7f 3d
       0.19550769 0.12864612 0.09120526 0.06238157
000030 f4 d0 9b 3e a0 80 3e 3e fd 67 84 3e e0 39 d9 3e
       0.30432856 0.18603754 0.25860587 0.42426968

decoder.2.0.weight f4 [64, 16]
000000 d6 6e d5 bd 1d 32 c4 3c c2 07 41 bc b2 8a 38 be
       -0.10421531 0.023949677 -0.011781635 -0.18021658
000010 41 70 f9 3d 99 63 65 bd 38 cb 23 3e 10 f7 12 bc
       0.12179614 -0.056003187 0.1599549 -0.008970037
000020 87 b4 2e 3e 2e d6 0d be 5d 0e 1c 3e db 0f 54 bd
       0.17061053 -0.13851234 0.15239854 -0.051772933
000030 9e 30 1e be 7d ae 12 be d2 b7 9b be 9b ca 28 be
       -0.15448233 -0.14324374 -0.3041368 -0.16483538
000040 8b 1f d2 bd 18 7e 3d bc 22 8c 13 3e 2f 82 a8 bd
       -0.102599226 -0.011565708 0.14408925 -0.082279555
000050 cc 10 14 be c1 94 80 be 67 d8 23 3e d2 f7 ae bd
       -0.14459532 -0.2511349 0.1600052 -0.08543362
000060 e4 47 53 3e 5f bd 66 bd 40 fd 0e 3e 92 67 25 3d
       0.20632893 -0.056332942 0.13963795 0.040381975
000070 11 57 fa 3d 5d 82 8a be c2 88 14 3d 9f e9 90 bc
       0.12223638 -0.27052584 0.036263235 -0.017689524
000080 df bc b8 bc 02 dc ae 3c cd 72 e9 bd 41 95 f6 3d
       -0.022550998 0.021345142 -0.1139885 0.12040187
000090 e4 a4 90 be 89 d1 90 3d d7 b8 49 bd 69 b1 cc 3d
       -0.28250802 0.07071216 -0.049248543 0.09994776
0000a0 67 aa b5 ba 0f fb bc bd 02 ed 2c be f4 e6 d8 3d
       -0.0013859988 -0.09227573 -0.16887286 0.10590926
0000b0 96 54 59 be 04 59 48 bd 00 aa ac bd 05 39 bd bc
       -0.21223673 -0.048913017 -0.084308624 -0.023098478
0000c0 9f 32 ca bb f3 f3 10 be d5 7a 7a be 46 d4 f1 bd
       -0.0061705853 -0.14155559 -0.24460919 -0.11808066
0000d0 bb 29 cb 3d f7 01 9f be 1a d3 e5 3d 13 ca e1 3d
       0.09920069 -0.31056187 0.11221905 0.11024871
0000e0 90 99 32 3e 5d b4 4a 3d bb c1 6b be d3 94 e4 3d
       0.17441392 0.049488414 -0.23023121 0.111611985
0000f0 40 66 d7 bd 65 67 6d 3d 89 ac 1d be 64 04 73 be
       -0.105175495 0.057959933 -0.15397848 -0.23732144
000100 49 1f fb bd 04 e7 a7 bd 97 e7 2d be d7 cb 64 be
       -0.122618265 -0.081983596 -0.16982876 -0.22343384
000110 55 ee 1d 3e 0b a5 3f 3d c1 89 a7 bd bc be c4 3d
       0.15422948 0.046788257 -0.08180571 0.09606692
000120 7a ee 33 be cc 74 59 3e 71 e1 4e bd 44 1c 8c 3d
       -0.1757144 0.2123596 -0.050507966 0.06841329
000130 40 62 93 3e 24 b5 8b 3d 51 a5 74 bd 10 3a 9f bd
       0.28785896 0.06821659 -0.05972797 -0.077747464
000140 8b c8 0c be f1 dc 8b 3d 60 1a 06 3e f5 9f 55 3d
       -0.13748376 0.068292506 0.13095999 0.0521545
000150 3b e5 d7 3c 38 91 33 be bc 1d 22 3e 9d 57 1a 3e
       0.026354423 -0.17535865 0.15831655 0.15072484
000160 89 a3 77 3d 48 89 13 3e d5 d3 1a be df 2f 67 be
       0.060458694 0.14407837 -0.1511987 -0.22576855
000170 29 ae 25 3e a3 68 d4 bd 98 e6 d2 bc e1 be 57 be
       0.16179718 -0.1037152 -0.025744721 -0.21068908
000180 4c f6 af 3b 13 9f d9 3d 30 06 df 3b 42 5c c0 3d
       0.005369937 0.10626044 0.0068061575 0.09392597
000190 d0 08 99 be 0a 91 5b be b5 5b 65 be 30 ac 24 3d
       -0.29889536 -0.21442047 -0.22398265 0.040203273
0001a0 db d5 bc bd 5e 12 3d 3d 0a e7 1a be 60 48 47 3d
       -0.09220477 0.046160094 -0.15127197 0.048653007
0001b0 a8 31 93 bc 38 b6 d4 bd c8 33 02 3e 1f f5 54 3e
       -0.017968014 -0.10386318 0.12715065 0.20796631
0001c0 f2 bf 4e 3c 93 02 7b bd 04 03 39 be 91 5e e2 3d
       0.0126190055 -0.06128175 -0.18067557 0.11053193
0001d0 2a 19 4f be 24 f7 53 3e 13 5b 36 be ca 3e f6 3d
       -0.20224443 0.20699745 -0.1780818 0.12023695
0001e0 1d 92 d5 3d b6 8d 31 3e d0 0b 57 be bf 9b fb 3d
       0.104282595 0.17339215 -0.210006 0.122855656
0001f0 8b fd 49 be 7b b1 10 be 4c 4a 3b be c8 97 88 3d
       -0.19725625 -0.14130203 -0.18290061 0.06669575
000200 a1 f7 71 3d 78 39 8e be 03 43 43 be 2b 33 4c be
       0.059074048 -0.2777822 -0.19068532 -0.19941394
000210 2a bf fd 3d 4e c8 a3 be 26 7a e8 3d 9c 93 8e bd
       0.12389977 -0.31988758 0.11351423 -0.06961748
000220 37 6f 27 be dd f8 c0 bd 7f dc 3b bd 0f 03 f0 bd
       -0.16351019 -0.09422467 -0.04586458 -0.117193334
000230 4f ef 40 3d 75 9f 21 3e b1 26 e4 3d 60 17 5b bd
       0.047103222 0.15783484 0.11140192 -0.05348909
000240 0a ec c3 3d 2b f4 31 bd 45 c1 1b be d3 27 60 be
       0.09566505 -0.043445747 -0.15210445 -0.21890192
000250 aa c6 fc bc 82 2f 9a be 78 d4 37 3e 20 f2 66 bc
       -0.03085645 -0.3011437 0.17952144 -0.014095813
000260 da 13 71 bc 68 9a 83 bd cc de 25 3d cd e7 2a bc
       -0.014714206 -0.06425935 0.04049568 -0.010431242
000270 df b0 12 be 4c 6c 89 be 22 b6 4a bd 66 ab 8f bd
       -0.14325283 -0.26840436 -0.0494901 -0.070151135
000280 71 be 44 3d 79 12 bf bd d1 af 5a be a0 ca 2e be
       0.04803318 -0.09329695 -0.21356131 -0.17069483
000290 3a a2 ec bd 96 e4 78 bd 80 51 49 be 40 d7 a0 3d
       -0.1155438 -0.06076487 -0.19659996 0.07853556
0002a0 6e cc 12 3e 2c 2e 3c 3e ba 68 2e 3d 15 c3 7d bd
       0.14335796 0.18376988 0.042580344 -0.061953623
0002b0 b5 6a fb 3d c3 ba 03 3d c0 38 d1 3d db 86 0e bd
       0.12276212 0.03216053 0.10215902 -0.034796577
0002c0 75 c3 a1 bd 96 d1 5f be 73 0a 84 be 84 ba d5 3d
       -0.078986086 -0.21857294 -0.25789222 0.10435966
0002d0 79 2b 46 be 7c 10 ee bb 13 a2 37 be ef e7 9c bd
       -0.19352521 -0.0072651487 -0.1793292 -0.07661425
0002e0 2e a5 77 3e e4 f2 13 3e 32 6e 7d 3d 00 fe bc bc
       0.24184105 0.14448124 0.06187267 -0.023070335
0002f0 c3 a3 d3 3d fd ef 70 3e 03 5d 82 be fe be f9 bd
       0.103339694 0.23529048 -0.25461587 -0.12194632
000300 c5 9e 88 be d2 62 22 3d f0 15 50 be 15 13 37 3e
       -0.26683632 0.039645024 -0.20320868 0.17878373
000310 d6 5d 94 be 69 c9 0f be 6d ad 51 be 52 0d 36 bd
       -0.2897784 -0.14041676 -0.20476313 -0.044446297
000320 b1 4e 59 bd 5e 54 e7 bd a5 48 01 be 90 e7 75 3b
       -0.05305356 -0.11295389 -0.12625368 0.0037522055
000330 8b bb 96 bd 8b b6 07 3d 1b 9a b6 3c 15 6c 1c 3d
       -0.0735999 0.03313307 0.02229028 0.038189013
000340 73 e2 2f bc 9e 2e 24 3e 78 23 fc 3c 22 b3 04 3e
       -0.010735142 0.16033408 0.030778632 0.12958959
000350 54 34 ad bc 7a c4 2d bd ae 8d ca 3c 90 36 9a 3d
       -0.021143116 -0.042423703 0.024725761 0.07529938
000360 7e 20 da 3d 69 a4 d4 3d 9d f9 f1 3c 75 d1 a2 be
       0.10650729 0.10382921 0.02953797 -0.31800428
000370 3b 2f 24 be 51 d2 0e 3e 86 49 9c bd de d0 b3 be
       -0.16033642 0.13947417 -0.07631211 -0.3512029
000380 8e c8 79 be f2 e2 ca 3d c0 47 15 3e 00 2f ab 3c
       -0.24392912 0.09906568 0.14578152 0.020896435
000390 9a eb 94 be 57 9b 51 be 6f 33 c8 bd 12 dc ec bc
       -0.29086 -0.20469414 -0.09775435 -0.028913531
0003a0 f6 5b f3 bd 6f ea 0a b8 ea 0e 3c be c9 84 9a bd
       -0.118827745 -3.3120097e-05 -0.18365064 -0.07544858
0003b0 14 8f 35 3d c4 1a 35 bd c2 16 2c 3e a9 dc 46 3d
       0.044325903 -0.04421498 0.16805556 0.04855028
0003c0 b8 7c c3 bd fe 06 8b 3c c8 c8 84 3c 4d bd f1 bd
       -0.095452726 0.016971108 0.016209021 -0.118036844
0003d0 6a d2 87 3d db fa bc 3d e7 82 8d bc 09 01 c1 bd
       0.0663193 0.092275344 -0.017274333 -0.094240256
0003e0 d6 28 e8 3d 18 c1 2e be ec 1d a7 3d 1c 2f 72 be
       0.11335914 -0.17065847 0.08160004 -0.23650783
0003f0 ce a7 88 be bc 2e 09 3d 37 fb 2b be 27 89 01 3e
       -0.26690525 0.033491835 -0.1679505 0.12649976

decoder.2.0.bias f4 [64]
000000 0c 8e 89 bd 57 b5 2f bd d3 cd ea bd 4c 59 56 3e
       -0.067165464 -0.04289755 -0.11465039 0.20932502
000010 aa ed b4 bd fb 56 0b be f3 cb 4a be 83 7a b2 bc
       -0.08834393 -0.13607399 -0.19804363 -0.021786934
000020 ee a6 51 be 4f 46 3a bd ef 46 6a 3d 32 86 9f bd
       -0.20473835 -0.045477208 0.057196554 -0.077892676
000030 e9 4f fe bd c8 9e 3d 3e c0 d6 5a be 0a 32 07 3e
       -0.124175854 0.18517601 -0.21370983 0.13202682
000040 bd 8e 63 be 68 52 0c be 94 ec 57 be 6d 7d 25 be
       -0.22222419 -0.1370331 -0.21086341 -0.16161127
000050 af d5 47 3e 04 25 76 bc 27 d6 2a 3e 47 d1 88 bd
       0.19515108 -0.015023474 0.16683255 -0.066805415
000060 73 77 54 bd e3 f7 47 3e 2a 26 4b 3d 9b b0 82 3e
       -0.05187173 0.19528155 0.049596943 0.25525364
000070 18 11 d7 bd 5e 60 90 bb 31 5b 3e 3e cc 30 14 be
       -0.10501307 -0.004406019 0.18589474 -0.1447174
000080 2e 2b 1c be ed a9 ad bd 46 77 c3 bd b8 8f 21 be
       -0.15250847 -0.084796764 -0.09544234 -0.1577748
000090 d4 0f 86 bd 49 4a 37 3e 9e b8 42 be 0b 6b 37 be
       -0.06545988 0.17899431 -0.19015738 -0.17911927
0000a0 9a c0 62 3e 4d 7c 76 be 2a 0f 92 bd e5 85 17 be
       0.22143784 -0.24070854 -0.071317986 -0.1479717
0000b0 fd 9e 54 3e 6c a9 f5 3d d4 5c 43 3e 3f 02 2a be
       0.20763774 0.11995205 0.1907838 -0.1660242
0000c0 cc 38 69 be 21 4f f3 bd 80 33 fa bd f5 69 77 3d
       -0.22775573 -0.11880327 -0.12216854 0.060403783
0000d0 6d 3e 4c be dc b9 bb 3d 5d 9b 93 bd 4a 22 3c 3e
       -0.19945689 0.09166309 -0.072073676 0.18372455
0000e0 d0 ac 54 bd 07 ec 1c bd 00 a3 d0 3d 96 3a cd 3c
       -0.05192262 -0.03831103 0.1018734 0.02505235
0000f0 7f 7c a5 3d b8 7b a9 3d 3e 19 77 be 56 ab 2b bd
       0.08080386 0.082755506 -0.24130723 -0.041911446
