experiments/data/vae/176_UCR_Anomaly_insectEPG4_1300_6508_6558.txt-.ckpt (torch, 61611 bytes, 102 tensors)

encoder.0.0.weight f4 [16, 26]
0	0xbd82cc5e	-0.06386636
1	0xbc0687dd	-0.008211103
2	0xbdf58345	-0.11987928
3	0x3dd0b579	0.10190863
4	0x3da12d98	0.078700244
5	0xbdb80f77	-0.08987325
6	0xbe19e388	-0.15028203
7	0x3e20ce6f	0.15703748
8	0xbdb74cc9	-0.089501925
9	0x3dbbba38	0.09166378
10	0xbccf9a61	-0.025342168
11	0xbe239aa3	-0.15976958
12	0xbde73397	-0.11289137
13	0x3e10661e	0.14101455
14	0xbd0eddd6	-0.034879528
15	0x3d93ebc0	0.072227
16	0x3e018679	0.12648953
17	0x3e61dc11	0.22056605
18	0x3e2f5390	0.1712172
19	0xbe433b9c	-0.19065708
20	0x3e223dca	0.15843883
21	0x3e137fcf	0.14404224
22	0xbe533b46	-0.2062808
23	0xbdbca0df	-0.09210371
24	0x3d938693	0.07203402
25	0xbe558671	-0.20852067
26	0x3b3eb7da	0.0029101283
27	0x3e0e95ac	0.13924283
28	0x3e01baa1	0.1266885
29	0xbe1a17eb	-0.15048186
30	0x3e26486a	0.16238561
31	0x3d64be6f	0.055845674
32	0xbdd7f4de	-0.105447516
33	0x3e0a1fa2	0.1348863
34	0xbe40b2b4	-0.1881817
35	0x3dae8f3c	0.085234135
36	0xbd668cd0	-0.056286633
37	0x3d6bfd43	0.057614576
38	0x3d8b8283	0.068120025
39	0x3ddc62a2	0.10761
40	0xbe3b8956	-0.18314108
41	0x3dffc8bb	0.12489458
42	0xbe02af32	-0.12762144
43	0x3e047439	0.1293496
44	0x3d7b41f4	0.061342195
45	0x3dacdedf	0.08440947
46	0xbdf27770	-0.11839187
47	0xbe2d8a21	-0.16947223
48	0x3dd819d0	0.10551798
49	0x3cd4b41b	0.025964787
50	0x3e0d63c8	0.13807595
51	0x3e0873ac	0.13325375
52	0xbdad600e	-0.084655866
53	0xba87fb8a	-0.0010374647
54	0xbdd0700a	-0.1017762
55	0xbe4b1a59	-0.1983427
56	0x3d654414	0.055973127
57	0xbe2fa7fb	-0.17153923
58	0x3caf5566	0.021403026
59	0x3e47536e	0.1946542
60	0xbe32155c	-0.1739096
61	0xbdd246e4	-0.102674276
62	0xbdb36b42	-0.08760692
63	0x3df13e9f	0.11779522
64	0x3cddf1d6	0.027092855
65	0xbe21af5c	-0.1578955
66	0x3cd9b5f2	0.026576016
67	0x3e4e7291	0.20160891
68	0x3c99597d	0.01871943
69	0x3e00e016	0.12585482
70	0xbce55655	-0.027995268
71	0x3dae6325	0.08515004
72	0x3d7e92fb	0.06215189
73	0xbe23fdd1	-0.16014792
74	0xbd311e8c	-0.043242022
75	0x3db3e910	0.087846875
76	0x3e262c6b	0.16227882
77	0xbd7bc2af	-0.06146496
78	0x3d3ec37e	0.046573155
79	0xbe2562c8	-0.16150963
80	0xbdd9a490	-0.10627091
81	0x3d340cbc	0.043957457
82	0xbd446efd	-0.04795741
83	0xbdd309cf	-0.10304605
84	0xbe41a3c0	-0.18910122
85	0xbe391c3a	-0.18077174
86	0xbe06c277	-0.1316012
87	0xbe0faed0	-0.1403153
88	0x3d130634	0.035894588
89	0x3de2361a	0.11045475
90	0xbe18f7e0	-0.14938307
91	0x3e315b6a	0.17320028
92	0x3df1c89d	0.11805842
93	0xbd8231a6	-0.06357126
94	0xbd60da9c	-0.054895982
95	0x3db9d41d	0.090736605
96	0x3d6636ca	0.056204595
97	0xbe174aa7	-0.14774571
98	0x3b3e7e7d	0.0029067092
99	0xbdf1015e	-0.11767839
100	0x3e3bc83e	0.18338105
101	0xbe04a600	-0.12953949
102	0xbc3d0007	-0.011535651
103	0xbcf04afa	-0.029332627
104	0xbd84b8c1	-0.064805515
105	0xbdba6d45	-0.09102873
106	0x3d3f354c	0.046681687
107	0x3d02ddd5	0.031949837
108	0xbe0808fd	-0.13284679
109	0xbd52223a	-0.051302172
110	0xbe42c33a	-0.19019786
111	0x3d0cc7ac	0.03437011
112	0xbe50509e	-0.20343253
113	0x3d9a123e	0.07523011
114	0x3e1f686e	0.1556718
115	0xbd4af797	-0.049552526
116	0x3ca2a3fa	0.01985358
117	0x3e166a04	0.14688879
118	0x3cc15104	0.023598202
119	0x3da0f3ce	0.07859002
120	0x3d4f8ba8	0.050670296
121	0x3aa9fe24	0.0012969417
122	0x3cd88ab1	0.02643332
123	0x3e1a7ce4	0.15086704
124	0x3e162520	0.146626
125	0xbe041e5e	-0.12902209
126	0xbc2ca5c5	-0.010537569
127	0xbd14cd3a	-0.03632853
128	0x3e32b6c4	0.17452532
129	0x3d50584d	0.05086546
130	0x3ca46e3d	0.020072097
131	0x3dfb5cfd	0.122735955
132	0x3e252c94	0.16130286
133	0xbe3d210a	-0.18469635
134	0x3d04de23	0.03243841
135	0x3d91bd8b	0.071162306
136	0x3c89b307	0.016809
137	0x3cb14433	0.021638965
138	0xbe3b4efa	-0.18291846
139	0xbe151ebe	-0.14562508
140	0xbe1715b1	-0.14754368
141	0xbcb50333	-0.022096252
142	0xbe03ebaa	-0.12882867
143	0x3db122f3	0.08649244
144	0xbd605285	-0.054766197
145	0x3e0f07c3	0.13967805
146	0xbdea641e	-0.11444877
147	0x3dc53693	0.0962955
148	0x3d0a9326	0.033831738
149	0xbd4adc6c	-0.049526617
150	0x3e24e622	0.16103414
151	0xbe3b1300	-0.18268967
152	0x3e2ed609	0.17073835
153	0xbe361e8a	-0.17785087
154	0xbe2933d0	-0.16523671
155	0x3d93b371	0.0721196
156	0x3d4f2a45	0.05057742
157	0x3be169d2	0.00687907
158	0xbccb3fb2	-0.024810646
159	0xbdad78e8	-0.08470327
160	0x3e1153e9	0.14192165
161	0x3d9b8122	0.075929895
162	0x3e387191	0.18012072
163	0x3e3c0a20	0.18363237
164	0x3e2fc816	0.1716617
165	0x3e352926	0.17691478
166	0xbe190251	-0.1494229
167	0xbd8f719f	-0.070040934
168	0x3c60cc11	0.013720528
169	0x3cfed995	0.03110961
170	0x3bb7f12e	0.0056134677
171	0xbe238299	-0.15967788
172	0x3e1e323b	0.15448849
173	0x3e1ecc18	0.15507543
174	0x3e01b2fc	0.12665933
175	0x3df4c15e	0.11950944
176	0x3d004706	0.031317733
177	0xbe0e82d7	-0.13917099
178	0xbdf3f6fd	-0.11912344
179	0xbdcf8268	-0.10132295
180	0xbe41a0df	-0.18909024
181	0xbddfdc2b	-0.109306656
182	0xbd602601	-0.054723743
183	0x3df4d04e	0.119537935
184	0x3cc6b447	0.024255885
185	0x3e3aaeea	0.18230787
186	0x3d952e32	0.07284202
187	0x3cbf3560	0.02334088
188	0xbe2aa1e5	-0.1666332
189	0x3dc6c01b	0.0970461
190	0x3cfdf2b9	0.030999528
191	0xbc494b3a	-0.012286002
192	0xbd3a370e	-0.04546266
193	0x3ddab230	0.10678518
194	0x3e27bb09	0.16379942
195	0x3d11f690	0.03563553
196	0x3d2af35c	0.04173599
197	0x3e00f18c	0.12592143
198	0xbe4eb11d	-0.20184751
199	0xbd0a9c21	-0.033840302
200	0x3df6332a	0.120214775
201	0x3dfe696d	0.12422452
202	0xbd998765	-0.074965276
203	0x3e0b28db	0.13589804
204	0x3a2d1a55	0.000660335
205	0xbe3f684e	-0.18692133
206	0xbd2da2ba	-0.042391516
207	0x3ddc9281	0.10770131
208	0x3d3a6fb9	0.045516703
209	0xbe145745	-0.14486416
210	0x3da7c500	0.08191872
211	0xbd443154	-0.047898605
212	0x3dc78278	0.09741682
213	0xbdf892d3	-0.121373795
214	0x3e5b89a0	0.21439219
215	0x3ce81bd6	0.028333586
216	0x3d4cf704	0.05004026
217	0x3dcedd09	0.10100753
218	0x3da5f70f	0.08103763
219	0xbdc2a659	-0.095043845
220	0x3db1e87e	0.086869225
221	0xbe087b76	-0.13328347
222	0x3dd6811f	0.10473847
223	0x3e2ef954	0.17087299
224	0xbd1c8f45	-0.03822257
225	0x3d25d032	0.040481754
226	0xbe285573	-0.16438846
227	0x3e3be11f	0.18347596
228	0xbd5a8799	-0.053351972
229	0xbd8f7096	-0.07003896
230	0x3d16f350	0.036853135
231	0x3df50bab	0.11965116
232	0x3e05f89d	0.1308312
233	0xbdc1768d	-0.0944644
234	0xbe1e56e7	-0.15462838
235	0xbc76502d	-0.015033764
236	0xbe314892	-0.1731284
237	0xbdcb94ec	-0.09940514
238	0x3e38b8c3	0.18039231
239	0x3e212203	0.1573563
240	0x3e1bcac8	0.15214074
241	0x3d88883a	0.06666608
242	0x3e119924	0.14218575
243	0x3ddc01d4	0.10742536
244	0xbe1484ad	-0.14503737
245	0x3d87cd0e	0.06630908
246	0x3d9735ae	0.073832855
247	0x3de8584c	0.11344966
248	0x3dc68a33	0.09694328
249	0xbe4d9703	-0.20077138
250	0x3ce1dc8f	0.02757099
251	0xbe0f95ab	-0.14021938
252	0xbd490686	-0.049078487
253	0x3e293f4c	0.16528052
254	0xbd9ec2f6	-0.077520296
255	0x3e03fb7d	0.12888904

encoder.0.0.bias f4 [16]
0	0x3a08214e	0.0005192951
1	0xbe18915d	-0.14899202
2	0xbe1f791c	-0.15573543
3	0xbe2d26b0	-0.1690929
4	0xbe0c2a64	-0.13688046
5	0xbe04a963	-0.12955241
6	0xbe1a55db	-0.15071814
7	0xbe237f06	-0.15966424
8	0xbd8b973f	-0.06815957
9	0xbe14b439	-0.14521874
10	0xbe2f9add	-0.1714892
11	0x3d8a1412	0.06742109
12	0xbd700d31	-0.05860633
13	0x3c235ecf	0.009971335
14	0x3e179545	0.14803036
15	0x3cc266cd	0.02373066

encoder.0.1.weight f4 [16]
0	0x3f7a8bc2	0.97869503
1	0x3f795aa8	0.97403955
2	0x3f82ee5c	1.0228992
3	0x3f815294	1.0103326
4	0x3f7e7b90	0.9940729
5	0x3f7d5af2	0.98966897
6	0x3f839941	1.0281144
7	0x3f7dd7ba	0.991573
8	0x3f7a1a75	0.9769662
9	0x3f7b88b7	0.98255485
10	0x3f807817	1.0036649
11	0x3f83653f	1.0265273
12	0x3f7f967f	0.99839014
13	0x3f77db96	0.96819437
14	0x3f847667	1.0348634
15	0x3f80784b	1.003671

encoder.0.1.bias f4 [16]
0	0xbbd8781b	-0.0066061146
1	0xbc800231	-0.015626045
2	0x3c992ed5	0.018699089
3	0x3c90db75	0.01768277
4	0xbb6b7cee	-0.0035932618
5	0xbc64c9ba	-0.013964111
6	0x3c83a862	0.016071502
7	0xbca2070e	-0.019778755
8	0xbc05e99b	-0.008173372
9	0xbc9fd060	-0.01950854
10	0x3c038875	0.008028139
11	0x3b5fe33f	0.003416255
12	0xbbe3e2c6	-0.0069545237
13	0xbcbbb863	-0.02291507
14	0x3c2e2eba	0.010631258
15	0x3c11411d	0.008865622

encoder.0.1.running_mean f4 [16]
0	0xbbcc601c	-0.006237043
1	0x3e324bea	0.17411771
2	0xbe81693d	-0.25275603
3	0xbf1fc1db	-0.62405175
4	0xbc397ed8	-0.011321746
5	0xbe99b9b5	-0.30024496
6	0x3dad5ba8	0.08464748
7	0x3e420dc5	0.18950565
8	0x3e734206	0.23755655
9	0x3e841303	0.25795755
10	0xbf116a7d	-0.56803113
11	0x3e454a12	0.19266537
12	0x3eb075a5	0.34464756
13	0xbd001745	-0.03127219
14	0xbe5aacf1	-0.21355034
15	0xbe3ffba4	-0.18748337

encoder.0.1.running_var f4 [16]
0	0x3d344604	0.044012085
1	0x3c6698d0	0.014074519
2	0x3d2e8ddd	0.04261576
3	0x3d4375d0	0.047719777
4	0x3d51cecd	0.05122261
5	0x3ca7cbde	0.020482954
6	0x3d890850	0.066910386
7	0x3c134a31	0.008989857
8	0x3c01ab01	0.007914306
9	0x3ca3ef10	0.020011455
10	0x3c92077e	0.017825838
11	0x3d000178	0.0312514
12	0x3d6a189e	0.057152383
13	0x3c12fffa	0.008972162
14	0x3d8afdcd	0.0678669
15	0x3c903d77	0.017607434

encoder.1.0.weight f4 [8, 16]
0	0x3e4544b2	0.19264486
1	0xbd0dd980	-0.034631252
2	0x3cee0f13	0.029059922
3	0x3e30f113	0.17279463
4	0x3d94b56a	0.072611645
5	0x3e12e39e	0.14344642
6	0xbc687e98	-0.014190339
7	0xbd518d5a	-0.051160194
8	0x3d359bc5	0.044338007
9	0xbe3e08d1	-0.1855805
10	0xbe82f369	-0.25576332
11	0xbe2b3ca8	-0.16722357
12	0xbe2406cd	-0.1601822
13	0xbe5253c1	-0.20539762
14	0xbe23d040	-0.1599741
15	0x3e46b106	0.19403467
16	0x3c35c126	0.011093413
17	0xbe3d1238	-0.18463981
18	0xbe451b7a	-0.19248763
19	0xbe2ce834	-0.16885453
20	0xbd693b9d	-0.056941617
21	0xbe0d7566	-0.13814315
22	0x3ce82fa0	0.028343022
23	0x3e62ac19	0.22135963
24	0xbdcb968d	-0.09940825
25	0x3d16a7a1	0.036780957
26	0x3e2a2c7b	0.1661853
27	0xbdcbd82b	-0.0995334
28	0xbe08bcf2	-0.13353327
29	0xbe5dd126	-0.21661815
30	0xbe15eb8f	-0.1464064
31	0xbe154daa	-0.14580408
32	0xbe58e714	-0.211819
33	0x3d60cdc3	0.05488373
34	0x3ca8e1cf	0.020615486
35	0xbe6d7c52	-0.23191956
36	0xbe1afa4c	-0.15134543
37	0xbe4a27d2	-0.19741753
38	0x3dda79c3	0.106677555
39	0xbd5da290	-0.05411011
40	0xbe4651b2	-0.19367102
41	0xbe1bbb8c	-0.15208262
42	0xbb658aec	-0.003502543
43	0x3e561b14	0.20908767
44	0xbcd089e7	-0.025456382
45	0x3df9b2a0	0.12192273
46	0x3dc0a5f0	0.0940665
47	0xbe322739	-0.17397775
48	0x3cd29e38	0.02571021
49	0x3bbe4dbb	0.005807606
50	0x3df9bc23	0.12194087
51	0xbca57fdb	-0.020202568
52	0xbd30adc7	-0.043134477
53	0x3de1aa64	0.110188276
54	0x3d35f573	0.04442353
55	0xbe47e588	-0.19521153
56	0xbc6a1d82	-0.014289262
57	0x3d9b616f	0.07586943
58	0xbe741447	-0.2383586
59	0x3e8449d6	0.25837582
60	0xbdc37ac5	-0.09544901
61	0x3e33cf65	0.17559583
62	0x3e3659f7	0.17807756
63	0x3e1988d0	0.14993596
64	0xbe223462	-0.15840295
65	0x3e38a756	0.18032584
66	0x3e81bfbb	0.2534159
67	0x3e543e2a	0.20726839
68	0x3de8bea2	0.11364485
69	0xbd5bcdc8	-0.053663045
70	0xbe7f30cc	-0.24920958
71	0x3e497953	0.19675188
72	0xbe186f83	-0.14886288
73	0x3dd989a7	0.10621958
74	0x3e5cb090	0.21551728
75	0x3d0e6fd5	0.03477462
76	0x3e10fa0e	0.14157888
77	0x3dfca6f0	0.12336528
78	0x3d7960fd	0.06088351
79	0xbd2171c9	-0.039415155
80	0xbe559293	-0.20856695
81	0x3df58ebd	0.11990116
82	0xbdfacaee	-0.12245737
83	0xbe040a40	-0.12894535
84	0xbdee2dd1	-0.116298325
85	0x3d6c8538	0.057744235
86	0xbe3eb4ca	-0.18623653
87	0x3e7c9895	0.2466758
88	0x3dce3f88	0.100707114
89	0x3e30435c	0.17213196
90	0xbe040fa0	-0.12896585
91	0x3e0434d3	0.12910776
92	0x3defafc0	0.117034435
93	0xbe057f25	-0.13036783
94	0x3d6d3538	0.05791208
95	0xbd8ab2e6	-0.067724034
96	0x3e520d5e	0.20512912
97	0x3da0aeff	0.07845878
98	0xbe7b63b5	-0.24549754
99	0x3db1d884	0.08683875
100	0x3d5a8550	0.053349793
101	0xbd98a5d4	-0.07453504
102	0xbe4f9d0e	-0.20274755
103	0xbbe2997c	-0.0069152694
104	0x3d5cb196	0.053880297
105	0x3d941d69	0.07232172
106	0xbe5a7c34	-0.21336442
107	0x3e0cf411	0.13764979
108	0xbcc3e1fb	-0.023911467
109	0xbdb1a6bc	-0.0867438
110	0xbd8c89af	-0.068621986
111	0x3e4a2ee3	0.19744448
112	0xbd354c6f	-0.044262346
113	0xbd39e84b	-0.045387547
114	0xbc7ddd5b	-0.01549467
115	0xbc2290fd	-0.009922263
116	0x3e54f6f9	0.20797338
117	0x3e60664d	0.21914025
118	0xbe258df5	-0.16167434
119	0xbca8852a	-0.02057131
120	0xbdca9cea	-0.0989321
121	0x3c167daf	0.009185239
122	0xbd18e71b	-0.037329774
123	0x3e835a80	0.25654984
124	0xbe389c38	-0.18028343
125	0x3ddde999	0.10835571
126	0xbe5c7f98	-0.21533048
127	0xbe34e942	-0.17667106

encoder.1.0.bias f4 [8]
0	0x3e58861a	0.21144906
1	0xbd0d1faf	-0.034454044
2	0xbe193f00	-0.14965439
3	0xbe2b917c	-0.16754717
4	0x3e5fa0c7	0.21838675
5	0xbdf2c706	-0.11854367
6	0xbde9ffdd	-0.11425755
7	0x3d91df6d	0.07122693

encoder.1.1.weight f4 [8]
0	0x3f815a9c	1.0105777
1	0x3f849df6	1.0360706
2	0x3f8222f4	1.0166917
3	0x3f7c658d	0.98592454
4	0x3f7b69dc	0.98208404
5	0x3f7ef552	0.9959308
6	0x3f784e78	0.96994734
7	0x3f82c9ea	1.0217869

encoder.1.1.bias f4 [8]
0	0xbc685d9f	-0.014182477
1	0x3cfbb4b4	0.030725814
2	0x3cc1af6f	0.023643224
3	0xbcfaea1e	-0.030629214
4	0x3c5ed7b7	0.013601235
5	0xbc35833d	-0.011078653
6	0xbcd02474	-0.025408007
7	0x3cfcf4da	0.030878473

encoder.1.1.running_mean f4 [8]
0	0x3d83013e	0.06396721
1	0xbf053368	-0.52031565
2	0xbef5269b	-0.47881016
3	0x3d834f0d	0.06411562
4	0x3f216786	0.6304859
5	0xbe53a11d	-0.20666929
6	0xbe196e3b	-0.14983456
7	0xbccdb32c	-0.02510985

encoder.1.1.running_var f4 [8]
0	0x3e07f952	0.13278702
1	0x3db3c9e8	0.08778745
2	0x3e14e33b	0.14539807
3	0x3d654a13	0.055978846
4	0x3e3723d5	0.17884763
5	0x3e885cc1	0.26633266
6	0x3d480830	0.048835933
7	0x3dc27f4a	0.09496935

encoder.2.0.weight f4 [8, 8]
0	0x3eb0f6fe	0.3456344
1	0xbea395f3	-0.3195034
2	0xbe89349a	-0.26797944
3	0x3dfc805d	0.12329171
4	0x3d905a1e	0.070484385
5	0x3e8fde42	0.28099257
6	0x3d643708	0.055716544
7	0x3ea89a9b	0.32930455
8	0x3e20aae3	0.15690188
9	0xbd8406e9	-0.064466305
10	0xbe549670	-0.20760512
11	0xbdc64d1c	-0.09682676
12	0x3ead7014	0.3387457
13	0xbdd9d831	-0.10636938
14	0x3e8eaf54	0.2786814
15	0x3e8468c0	0.25861168
16	0xbd9c51a2	-0.07632758
17	0xbe98eb43	-0.2986699
18	0xbe52071e	-0.20510527
19	0xbe2d7cf0	-0.16942191
20	0x3e61dcbf	0.22056864
21	0xbeb2dd32	-0.34934384
22	0x3eadd74c	0.3395332
23	0xbe3f28b5	-0.18667872
24	0xbe9797c0	-0.29607964
25	0x3d13d67e	0.036093228
26	0x3e1d1fdc	0.15344185
27	0xbe014b23	-0.12626319
28	0xbe56ca35	-0.20975573
29	0xbd8794d6	-0.06620185
30	0x3e046c35	0.12931903
31	0xbebd2575	-0.3694264
32	0xbe77a7b1	-0.24185063
33	0xbe0c3d35	-0.13695224
34	0x3e760dc4	0.24028689
35	0x3d00327f	0.031298157
36	0xbe200d21	-0.15630008
37	0x3de160f8	0.110048234
38	0xbe25e77c	-0.16201586
39	0xbebf0c60	-0.3731413
40	0xbd9a97da	-0.07548495
41	0x3df5cce4	0.120019704
42	0x3ea2933a	0.3175295
43	0xbe6d0a70	-0.23148513
44	0x3ea3b42a	0.31973392
45	0xbde9dd19	-0.11419124
46	0x3d8c3c5e	0.068474516
47	0x3e8d0e59	0.2755001
48	0xbdb9098f	-0.09035026
49	0xbd209513	-0.03920467
50	0xbdd9305c	-0.10604927
51	0x3db4555e	0.08805345
52	0x3e8eecf1	0.27915147
53	0xbebc333a	-0.36757833
54	0xbe7a0275	-0.24415
55	0x3de530e4	0.11190966
56	0xbdb27027	-0.087127976
57	0x3e327cd2	0.17430428
58	0x3ae8d455	0.0017763475
59	0x3e851646	0.25993556
60	0xbe5d138b	-0.21589486
61	0x3e7c8258	0.24659097
62	0x3e8fdd60	0.28098583
63	0xbea90209	-0.33009365

encoder.2.0.bias f4 [8]
0	0xbe0b4575	-0.13600715
1	0x3eb69a66	0.35664672
2	0x3e9ae93b	0.30256066
3	0xbe094071	-0.13403489
4	0x3e65611b	0.22400324
5	0xbde28bb3	-0.11061802
6	0x3e94d876	0.29071397
7	0xbe8fc13c	-0.28077114

encoder.2.1.weight f4 [8]
0	0x3f7b3000	0.9812012
1	0x3f781035	0.9689973
2	0x3f77af2e	0.9675168
3	0x3f770c87	0.9650349
4	0x3f731a10	0.94961643
5	0x3f7708a7	0.9649758
6	0x3f7b2ba4	0.98113465
7	0x3f85ebcd	1.0462586

encoder.2.1.bias f4 [8]
0	0xbc230e18	-0.009952091
1	0xbd0c9fad	-0.034331966
2	0xbd17c484	-0.037052646
3	0xbd0b24d5	-0.033970673
4	0xbd52aead	-0.051436115
5	0xbd1f17d9	-0.038841102
6	0x3b2d3bc8	0.0026433337
7	0x3d4875ae	0.048940353

encoder.2.1.running_mean f4 [8]
0	0x3dfc11c3	0.12308075
1	0x3f1398af	0.5765485
2	0xbcc43f34	-0.023955919
3	0xbee25b71	-0.4421039
4	0xbd657789	-0.0560222
5	0x3e3a71b5	0.18207438
6	0x3e0c8c38	0.13725364
7	0xbe23bc6d	-0.15989847

encoder.2.1.running_var f4 [8]
0	0x3e7902a5	0.24317415
1	0x3e68910b	0.2271158
2	0x3e84c6b5	0.2593285
3	0x3e6e41a2	0.23267224
4	0x3e3b2e7a	0.18279448
5	0x3dc47737	0.09593051
6	0x3e431eee	0.19054767
7	0x3eaeca65	0.3413879

mu.weight f4 [5, 8]
0	0x3db0aeee	0.08627115
1	0x3e5b22fa	0.21400061
2	0x3e44734a	0.19184604
3	0xbeb29e11	-0.3488622
4	0xbdb7856b	-0.08960994
5	0x3dd8faaa	0.105946854
6	0xbeac056a	-0.3359788
7	0xbe0f27e7	-0.13980065
8	0xbead2635	-0.33818212
9	0x3e3f4c72	0.18681505
10	0x3e74f449	0.23921312
11	0xbe4f661c	-0.20253795
12	0x3e255092	0.16144016
13	0x3dbd36af	0.09238946
14	0xbda9503d	-0.08267257
15	0xbe090cbb	-0.13383763
16	0xbe235992	-0.15952137
17	0xbe5eb955	-0.21750386
18	0x3da7adbc	0.08187434
19	0x3cf4601c	0.029830985
20	0x3e988ff0	0.29797316
21	0x3e48e470	0.19618392
22	0x3e122018	0.14270055
23	0xbdb7526b	-0.08951267
24	0x3e495a88	0.19663441
25	0xbeadd7fd	-0.33953848
26	0x3e5714b2	0.21003988
27	0xbe33d61c	-0.17562145
28	0x3d8a0874	0.067398936
29	0x3e268830	0.16262889
30	0x3e093a86	0.13401231
31	0x3c931707	0.017955316
32	0xbe2900b9	-0.16504182
33	0xbdbb0031	-0.09130896
34	0x3e3adfaa	0.18249384
35	0xbe824e17	-0.25450203
36	0x3e435da9	0.19078697
37	0x3e490783	0.19631772
38	0xbe94e73b	-0.29082665
39	0xbe85e3a9	-0.26150253

mu.bias f4 [5]
0	0x3e97187f	0.29510877
1	0x3e4bacd8	0.19890153
2	0x3e8ccadb	0.27498516
3	0x3d04b4df	0.032399055
4	0x3e794941	0.2434435

sigma.weight f4 [5, 8]
0	0x3db069d7	0.08613937
1	0xbe44fa8a	-0.19236198
2	0xbcb4f98b	-0.022091648
3	0xbe2e66ca	-0.17031398
4	0xbde9183c	-0.113815755
5	0xbd86dacc	-0.06584701
6	0xbe01660f	-0.12636589
7	0x3dc34c5c	0.09536049
8	0xbdda927a	-0.106724694
9	0x3d3f5554	0.046712235
10	0xbd9b058b	-0.075694166
11	0xbeaa7cb3	-0.33298263
12	0x3d3eaf69	0.046554003
13	0xbd89d997	-0.06730955
14	0xbe5520c8	-0.20813286
15	0xbd1b213d	-0.037873495
16	0xbe6061e6	-0.21912345
17	0x3d518d21	0.05115998
18	0x3e97ee52	0.2967401
19	0xbe416be6	-0.18888816
20	0x3c5e24fe	0.013558624
21	0x3e334246	0.1750575
22	0x3e9ec3f2	0.3100887
23	0x3e695b96	0.22788844
24	0x3d3a476d	0.045478273
25	0x3b86fd58	0.0041195564
26	0xbde6d4a7	-0.11271029
27	0x3e997295	0.29970232
28	0x3df1912e	0.11795269
29	0x3c5d441a	0.013505006
30	0xbe534bfb	-0.20634453
31	0xbe511b3e	-0.20420548
32	0xbcc042d3	-0.023469364
33	0x3e510be4	0.20414692
34	0x3e78c66b	0.2429444
35	0xbdc93b29	-0.09825737
36	0x3eaa11ba	0.3321665
37	0x3e426878	0.18985164
38	0xbe32657d	-0.17421527
39	0xbd265128	-0.04060474

sigma.bias f4 [5]
0	0xbd285e48	-0.04110554
1	0x3e956ecc	0.29186094
2	0xbe975cea	-0.29563075
3	0x3e1998a2	0.14999631
4	0xbe749ee4	-0.23888737

decoder.0.0.weight f4 [8, 5]
0	0x3b667c83	0.003516943
1	0x3bca86d5	0.006180624
2	0x3dcee11d	0.10101531
3	0x3ea7d0fb	0.32776627
4	0xbd124b3e	-0.035716288
5	0xbe61c671	-0.22048356
6	0xbcacd8d9	-0.021099495
7	0xbe885093	-0.26623973
8	0xbc1f0e28	-0.009707965
9	0x3d39c93c	0.045357928
10	0xbe85a4de	-0.26102346
11	0xbeb34653	-0.3501459
12	0xbd818a39	-0.06325192
13	0xbe001c59	-0.12510814
14	0x3ea0c48c	0.31399953
15	0x3ec7d7c3	0.390318
16	0xbd29cbd9	-0.04145417
17	0xbe24915f	-0.1607108
18	0xbe651ddc	-0.22374672
19	0xbe6e027d	-0.23243137
20	0x3df28122	0.118410364
21	0xbec5ec63	-0.3865691
22	0x3ea89489	0.32925823
23	0x3ebf2c10	0.37338305
24	0x3e90094b	0.2813209
25	0xbedceb35	-0.431482
26	0x3e99a7b6	0.30010766
27	0x3d191902	0.037377365
28	0x3d925623	0.071453355
29	0xbe352612	-0.17690304
30	0x3e8424fa	0.2580946
31	0x3db9fb9b	0.09081193
32	0xbdb4cfae	-0.08828674
33	0xbeb9c5d6	-0.3628375
34	0xbecf6e31	-0.40513757
35	0x3d5b36a4	0.053518906
36	0xbe9adc51	-0.30246213
37	0xbed3f0ae	-0.41394562
38	0x3ec9cae3	0.39412603
39	0xbea7894f	-0.32721946

decoder.0.0.bias f4 [8]
0	0xbdd4a3be	-0.10382794
1	0xbeb4ddb8	-0.35325408
2	0x3d8739b0	0.066028
3	0xbddc42df	-0.10754942
4	0xbe147aa3	-0.14499907
5	0x3e91b121	0.2845545
6	0xbee1b81f	-0.44085786
7	0xbe421e49	-0.18956865

decoder.0.1.weight f4 [8]
0	0x3f858758	1.0431929
1	0x3f777195	0.9665769
2	0x3f7986e0	0.9747143
3	0x3f856579	1.0421592
4	0x3f83d61b	1.0299715
5	0x3f7175ce	0.9432038
6	0x3f75f9f7	0.9608454
7	0x3f858656	1.0431621

decoder.0.1.bias f4 [8]
0	0xbbd7132c	-0.0065635648
1	0xbcfcc291	-0.030854495
2	0x3d463e09	0.048399005
3	0x3c8c1ae9	0.017102676
4	0x3d3bb79f	0.04582941
5	0xbd21ec66	-0.039532088
6	0xbbae8b45	-0.005326661
7	0xbcf0ff74	-0.029418685

decoder.0.1.running_mean f4 [8]
0	0xbc39a404	-0.011330608
1	0xbeff15ad	-0.49821225
2	0xbd9ba6db	-0.076001845
3	0xbe21e3b6	-0.15809521
4	0xbb36b2d8	-0.0027877595
5	0x3e9664df	0.29373834
6	0xbef5f011	-0.4803472
7	0xbeb006bf	-0.34380147

decoder.0.1.running_var f4 [8]
0	0x3e18d3be	0.14924523
1	0x3dd84417	0.10559862
2	0x3e97e7e1	0.29669097
3	0x3e8c7b34	0.27437747
4	0x3f09129c	0.5354402
5	0x3e87b8a3	0.26508054
6	0x3ed66724	0.41875565
7	0x3f1fce19	0.62423855

decoder.1.0.weight f4 [8, 8]
0	0xbd85c5b6	-0.06531851
1	0xbd1c240b	-0.03812031
2	0x3ea4afa5	0.32165256
3	0xbe82a29a	-0.2551468
4	0x3e0240a3	0.1271997
5	0x3e36e479	0.17860593
6	0x3ba7bd53	0.0051190048
7	0xb7de3fca	-2.6494166e-05
8	0xbd90ac2b	-0.070640884
9	0x3e917d45	0.28415886
10	0x3e9e81e1	0.30958465
11	0xbe639d87	-0.2222806
12	0xbe0237cb	-0.12716596
13	0x3e40eb94	0.18839866
14	0xbb9e07e9	-0.0048227203
15	0x3e16ed1c	0.14738888
16	0x3e9d6aa0	0.3074541
17	0xbe984cc2	-0.29746062
18	0x3e0448f3	0.12918453
19	0xbe6ed923	-0.23325019
20	0x3d962f55	0.073332466
21	0x3d5be6f1	0.05368704
22	0xbe63284b	-0.2218334
23	0xbe07ea0d	-0.13272877
24	0xbd08170c	-0.033225104
25	0x3d84accf	0.06478273
26	0x3e9a96bc	0.30193126
27	0xbce7bc5c	-0.028288059
28	0x3e8cbc86	0.27487582
29	0x3de6da05	0.11272053
30	0xbe85ba96	-0.26118916
31	0xbe0b9b3f	-0.1363344
32	0x3e9b9482	0.3038674
33	0x3e8e4032	0.27783352
34	0x3ea98102	0.33106238
35	0xbea3f601	-0.32023624
36	0xbd616df6	-0.055036508
37	0x3e6b6107	0.22986232
38	0xbe24006d	-0.16015787
39	0x3e87f137	0.2655122
40	0xbe292483	-0.16517834
41	0xbea63049	-0.32458714
42	0x3d643401	0.055713657
43	0xbd1a1b63	-0.037623774
44	0xbd8b1cff	-0.0679264
45	0x3e160cb3	0.14653282
46	0x3c8e7bf7	0.017393095
47	0xbe0d3d9b	-0.13793032
48	0xbda65e18	-0.08123416
49	0xbe78e7fa	-0.24307242
50	0xbe8a70ce	-0.27039188
51	0xbe9a190e	-0.3009724
52	0xbc958916	-0.018253844
53	0xbe92067c	-0.28520572
54	0x3e8526c6	0.26006144
55	0xbe461fd6	-0.19348082
56	0xbe9b5f0b	-0.3034595
57	0xbe33759d	-0.17525335
58	0xbe82c0a8	-0.2553761
59	0xbe5e2e0c	-0.21697253
60	0xbe8b9386	-0.2726099
61	0x3e772777	0.24136148
62	0xbca347a7	-0.019931627
63	0xbd31c5c5	-0.0434015

decoder.1.0.bias f4 [8]
0	0xbde766f5	-0.11298934
1	0x3eb8d774	0.36101878
2	0x3e8adb96	0.27120656
3	0xbd3e0b49	-0.04639748
4	0xbd862b42	-0.065512195
5	0xbdce8a61	-0.100849874
6	0xbe8c0c3b	-0.2735308
7	0xbd9864b7	-0.07441085

decoder.1.1.weight f4 [8]
0	0x3f726d0d	0.9469765
1	0x3f73b94d	0.9520462
2	0x3f863564	1.0485044
3	0x3f722b47	0.94597286
4	0x3f8701f4	1.0547471
5	0x3f844783	1.0334324
6	0x3f87e5d4	1.0617013
7	0x3f85d520	1.0455666

decoder.1.1.bias f4 [8]
0	0xbd5ac0b8	-0.053406447
1	0xbcf2978b	-0.029613277
2	0x3d665de2	0.056241877
3	0xbd06cef4	-0.03291221
4	0x3d78628e	0.060640864
5	0x3d592ab0	0.053019226
6	0x3d83c107	0.064333014
7	0x3d5d987c	0.0541005

decoder.1.1.running_mean f4 [8]
0	0xbc47ba90	-0.012190476
1	0x3f0928b8	0.53577757
2	0x3e1934b0	0.14961505
3	0x3dbdac5a	0.09261389
4	0x3e843935	0.25824896
5	0xbe958b16	-0.29207677
6	0xbf36939f	-0.71319
7	0xbf0097ed	-0.5023182

decoder.1.1.running_var f4 [8]
0	0x3dc098e3	0.09404161
1	0x3e107d4f	0.14110301
2	0x3e4fc7ba	0.20291033
3	0x3e13705e	0.14398333
4	0x3e993b3d	0.29928008
5	0x3d6b02e2	0.057375796
6	0x3dd0b8cc	0.10191497
7	0x3e12a435	0.14320453

decoder.2.0.weight f4 [16, 8]
0	0x3da1d172	0.07901277
1	0x3e7a395b	0.24435942
2	0xbe93c932	-0.28864437
3	0xbdd5a1e0	-0.10431266
4	0xbe8081f8	-0.25099158
5	0xbe4d842e	-0.20069954
6	0x3e46994f	0.1939442
7	0xbc05e259	-0.008171641
8	0x3db9b8e0	0.09068465
9	0xbe086e4c	-0.13323325
10	0x3e89bfc6	0.26904124
11	0x3d0c79ea	0.034295954
12	0x3e83318b	0.25623736
13	0xbea28e9b	-0.31749424
14	0xbe956438	-0.29178023
15	0xbd80d4ee	-0.06290613
16	0xbe5da927	-0.21646558
17	0xbe067dc1	-0.13133909
18	0xbe36f630	-0.1786735
19	0xbe614c16	-0.2200168
20	0x3e299e8a	0.16564384
21	0x3db0db36	0.08635561
22	0x3e3fd0a6	0.18731937
23	0x3e49e1ab	0.19714992
24	0x3e89f292	0.2694288
25	0xbe90a711	-0.28252462
26	0x3e843575	0.25822034
27	0xbca9e060	-0.020736873
28	0xbecc8261	-0.3994322
29	0x3dab0be2	0.08351876
30	0x3e90c34e	0.28274006
31	0x3cc6c4d5	0.024263779
32	0xbdc86352	-0.09784569
33	0xbd4950dc	-0.04914938
34	0xbea2a409	-0.31765774
35	0xbdefc358	-0.11707181
36	0x3d2d7185	0.04234459
37	0xbe173dab	-0.14769618
38	0xbd987ba0	-0.074454546
39	0x3d92b079	0.07162566
40	0xbdff336b	-0.12460979
41	0x3e808f94	0.2510954
42	0x3d58888d	0.0528646
43	0xbe46068b	-0.19338433
44	0x3ca928bd	0.020649308
45	0x3e92a097	0.28638145
46	0x3e7c1b74	0.24619848
47	0xbd77f042	-0.060531862
48	0xbe9c6856	-0.30548352
49	0x3e71cb77	0.23612772
50	0x3e85929c	0.26088417
51	0x3ea5ed91	0.3240781
52	0x3dc78cc0	0.09743643
53	0xbe7361f8	-0.23767841
54	0x3d061473	0.032734346
55	0xbd50880d	-0.050910998
56	0xbe2d099f	-0.16898201
57	0x3dcb3525	0.09922246
58	0xbe471247	-0.19440566
59	0x3deb8a41	0.11500979
60	0x3e95eae4	0.2928077
61	0xbe33bfb2	-0.17553595
62	0xbeb6e223	-0.35719404
63	0x3e2ce008	0.16882336
64	0xbd5985e1	-0.053106192
65	0xbd4f62f8	-0.050631493
66	0xbecaba42	-0.39595228
67	0x3e8e9cb0	0.27853918
68	0xbcc7a497	-0.024370475
69	0x3e6ffabf	0.23435496
70	0xbd1ca43c	-0.038242564
71	0x3cc0bbbc	0.023527019
72	0xbe309406	-0.17243966
73	0xbec2fdd2	-0.38084275
74	0x3e239ac4	0.15977007
75	0xbd36fab3	-0.04467268
76	0xbd9bb3d6	-0.0760266
77	0xbe31306f	-0.17303632
78	0xbe45d81e	-0.19320723
79	0x3e08939a	0.13337556
80	0x3e3e3bba	0.18577471
81	0xbdfb550a	-0.12272079
82	0x3e0e9f5b	0.13927977
83	0x3e8367d1	0.25665143
84	0xbe253381	-0.16132928
85	0xbd8aa916	-0.06770532
86	0x3dfeb9ad	0.124377586
87	0x3e91783b	0.2841204
88	0xbe18f7ca	-0.14938274
89	0xbdaaa6d8	-0.08332604
90	0x3e986745	0.29766288
91	0x3e5b8072	0.21435717
92	0xbd5946a6	-0.05304589
93	0xbe428782	-0.18997005
94	0xbdd3662d	-0.10322223
95	0xbeb9dd4a	-0.36301643
96	0x3e8a2a0c	0.26985204
97	0x3cf5e10c	0.030014537
98	0x3e8c0709	0.27349117
99	0xbd09e9d2	-0.033670254
100	0xbe722e96	-0.23650584
101	0x3dd4913c	0.10379264
102	0x3e211fd3	0.15734796
103	0x3e27fe8c	0.16405696
104	0xbda861ae	-0.08221756
105	0x3e42a01c	0.1900639
106	0x3e8c8da6	0.2745182
107	0x3dab08e7	0.08351307
108	0x3e0f50ba	0.13995638
109	0x3df828f6	0.12117188
110	0x3d2c70da	0.04209981
111	0xbe9e823a	-0.3095873
112	0xbe8d39e0	-0.27583218
113	0x3dbfd6e6	0.093671605
114	0x3d003e59	0.03130946
115	0x3d4b66d1	0.0496586
116	0xbe2d8549	-0.16945376
117	0xbe10df27	-0.14147626
118	0x3e65b53c	0.22432417
119	0x3d679ff1	0.056549016
120	0x3c43ed57	0.011958442
121	0xbeb4f156	-0.35340375
122	0xbc49cd10	-0.012316957
123	0x3e19550e	0.14973852
124	0xbddfd665	-0.109295644
125	0x3e9d78b7	0.3075616
126	0x3e809398	0.25112605
127	0xbc0faccc	-0.008769225

decoder.2.0.bias f4 [16]
0	0x3e040307	0.1289178
1	0xbe4ecdd4	-0.20195705
2	0xbdc3be1e	-0.09557746
3	0xbd7c4297	-0.061586943
4	0x3ea1fe9e	0.3163957
5	0xbd04c589	-0.032414947
6	0xbe927505	-0.28604904
7	0x3e8f6ab2	0.2801109
8	0xbde35a9a	-0.11101265
9	0xbde2ef4d	-0.11080799
10	0x3ea9a76f	0.33135554
11	0xbd81fd14	-0.06347099
12	0xbe9a0615	-0.30082765
13	0xbe9ef840	-0.31048775
14	0xbd4ec65e	-0.050482146
15	0xbe1dd188	-0.15411961

decoder.2.1.weight f4 [16]
0	0x3f77eae7	0.9684281
1	0x3f74566b	0.95444363
2	0x3f742c27	0.9537987
3	0x3f75d37a	0.9602581
4	0x3f76d9f4	0.9642632
5	0x3f73fbcb	0.9530608
6	0x3f7c667f	0.98593897
7	0x3f7bb050	0.98315907
8	0x3f778202	0.9668275
9	0x3f744243	0.9541361
10	0x3f743149	0.95387703
11	0x3f76fac3	0.9647638
12	0x3f876449	1.057748
13	0x3f743ba0	0.9540348
14	0x3f777fec	0.9667957
15	0x3f888b0b	1.0667433

decoder.2.1.bias f4 [16]
0	0xbcae7ecd	-0.021300698
1	0xbd2400b6	-0.04003974
2	0xbd37d696	-0.04488238
3	0xbd077ad2	-0.033076115
4	0xbceb74ff	-0.028742312
5	0xbd1c3c60	-0.038143516
6	0x3d5e7800	0.05431366
7	0x3d795dc0	0.060880423
8	0x3d48cb23	0.04902185
9	0xbd37be18	-0.044859022
10	0xbd2e288b	-0.042519134
11	0xbd053a9d	-0.0325266
12	0x3d66a83f	0.056312796
13	0xbcf5a1c0	-0.029984355
14	0xbcdc956b	-0.026926717
15	0x3d8789d4	0.066180855

decoder.2.1.running_mean f4 [16]
0	0xbbc61dae	-0.0060460186
1	0xbe816f9b	-0.2528046
2	0xbdda7c6c	-0.10668263
3	0x3d2985e4	0.041387454
4	0x3d1bfa6c	0.038080618
5	0x3e458f7f	0.1929302
6	0xbe0ac01d	-0.13549848
7	0x3e546fba	0.20745745
8	0xbdfa39d5	-0.12218062
9	0xbec5cb90	-0.38631868
10	0x3f150558	0.5821128
11	0xbe80804d	-0.25097886
12	0xbb2b14bc	-0.0026104888
13	0xbde1eedf	-0.11031889
14	0xbd927726	-0.07151632
15	0xbcd313c5	-0.025766263

decoder.2.1.running_var f4 [16]
0	0x3da5a66b	0.08088382
1	0x3e54a5a9	0.2076632
2	0x3e1ed497	0.15510784
3	0x3e6d0a43	0.23148446
4	0x3d7f36af	0.06230801
5	0x3d66415a	0.056214668
6	0x3de32207	0.110904746
7	0x3e267304	0.16254812
8	0x3d71d41e	0.05904018
9	0x3de93130	0.11386335
10	0x3d9caa00	0.076496124
11	0x3e23985f	0.15976094
12	0x3d9d5188	0.076815665
13	0x3db02332	0.08600463
14	0x3d522b81	0.05131102
15	0x3e2fff37	0.171872

decoder.3.weight f4 [26, 16]
0	0x3d90b8d4	0.07066503
1	0xbdc68127	-0.096926026
2	0x3b836139	0.0040093926
3	0xbc2db0a5	-0.010601197
4	0x3df611a9	0.12015087
5	0x3d1af3c7	0.03783014
6	0x3df6f26d	0.12057958
7	0x3d9ff478	0.078103006
8	0xbb3485ea	-0.002754564
9	0xbdc00926	-0.09376745
10	0x3d603612	0.054739065
11	0x3e8dfe30	0.27732992
12	0x3de79384	0.11307433
13	0xbe1e2105	-0.15442283
14	0x3d478209	0.048707996
15	0xbd7fefbc	-0.062484488
16	0x3e25439e	0.16139075
17	0xbe3ce286	-0.18445787
18	0xbcf58056	-0.029968422
19	0xbde5f1be	-0.11227749
20	0xbdaf2416	-0.08551805
21	0x3e075262	0.1321502
22	0xbe272aa0	-0.16324854
23	0x3d4309f3	0.04761691
24	0x3e209e6d	0.15685435
25	0xbdde191e	-0.108446345
26	0x3e64a422	0.22328237
27	0x3e588bf3	0.21147136
28	0x39815fc4	0.00024676148
29	0x3e7931cf	0.24335407
30	0x3e7e0c8b	0.24809472
31	0xbd8610d5	-0.06546179
32	0x3da73717	0.081648044
33	0x3b715246	0.003682272
34	0x3b882cae	0.004155717
35	0x3e2fe0b6	0.17175564
36	0x3a18c90a	0.0005828297
37	0x3dacc8e9	0.08436758
38	0x3e19f381	0.15034296
39	0x3e145b2a	0.14487901
40	0xbe3e6c92	-0.18596104
41	0x3b88df56	0.0041770143
42	0x3df28e4a	0.11843546
43	0x3e0aab4a	0.13541904
44	0x3e701ca3	0.23448424
45	0xbce75911	-0.028240712
46	0x3d51446f	0.051090654
47	0xbddf5918	-0.10905665
48	0x3d87480f	0.06605541
49	0xbd0c711c	-0.034287557
50	0xbd1dba4e	-0.038507752
51	0xbc9aa920	-0.018879473
52	0xbe441d03	-0.19151692
53	0x3e2a4d38	0.16631019
54	0x3ccd02a4	0.025025673
55	0x3e4cbcb7	0.19993864
56	0x3dcb707f	0.09933566
57	0xbba34afa	-0.004983303
58	0x3d85e810	0.06538403
59	0x3d946286	0.07245354
60	0x3dc2a709	0.09504516
61	0xbe0596f3	-0.13045864
62	0x3d418298	0.047243685
63	0x3d1f4d95	0.038892347
64	0x3e3943bc	0.18092245
65	0xbdb8af70	-0.09017837
66	0x3dee8844	0.11647084
67	0x3da97b14	0.082754284
68	0xbe132799	-0.14370574
69	0x3e85ba5b	0.2611874
70	0x3deeca84	0.116597205
71	0x3aea846e	0.001789225
72	0x3de314b0	0.1108793
73	0x3e807423	0.25088605
74	0xbd8f5a15	-0.06999604
75	0xbd94d53d	-0.072672345
76	0xbb4d0a42	-0.0031286632
77	0x3e501eaf	0.20324205
78	0xbdcdc3d2	-0.100471154
79	0xbd642a8c	-0.05570464
80	0x3d031c5c	0.032009467
81	0x3ddc3099	0.10751457
82	0x3e394172	0.18091372
83	0xbd8d2c6a	-0.06893237
84	0x3b13fa64	0.0022579664
85	0xbe2c00c0	-0.16797161
86	0x3e9653be	0.29360765
87	0x3dcc4a43	0.09975102
88	0x3e7b3742	0.24532798
89	0xbd33db89	-0.043910537
90	0xbe32dc16	-0.17466769
91	0xbd1f697a	-0.03891895
92	0x3d3a08ed	0.04541867
93	0x3c3f6e4e	0.0116840135
94	0x3c55a6ba	0.013040239
95	0x3e939cfb	0.28830704
96	0xbe09f553	-0.1347249
97	0xbe35592d	-0.17709799
98	0x3e047d6a	0.12938467
99	0xbe42e56d	-0.19032831
100	0x3e329bf1	0.174423
101	0xbdcca614	-0.099926144
102	0x3e4e270d	0.20132084
103	0x3e06daa4	0.13169342
104	0x3e0a796e	0.13522884
105	0x3e520666	0.20510253
106	0x3e355675	0.17708762
107	0x3c9dfa5e	0.019284423
108	0xbe18f3bb	-0.14936726
109	0x3d26fb82	0.0407672
110	0x3da44566	0.08021049
111	0x3e0452d2	0.12922218
112	0x3dcb3008	0.099212706
113	0x3ddbe561	0.1073711
114	0x3ae5cda0	0.0017532595
115	0xbe39f270	-0.18158889
116	0xbc94129b	-0.018075278
117	0x3e87eec0	0.2654934
118	0x3e586ac4	0.21134478
119	0xbcedff2c	-0.02905234
120	0x3e2dbb66	0.16966018
121	0xbdf9928d	-0.121861555
122	0xbe0239b6	-0.12717327
123	0xbe213542	-0.15742972
124	0x3e841558	0.25797534
125	0x3e1aa1ed	0.15100832
126	0xbd7937f5	-0.06084438
127	0x3de81e8f	0.113339536
128	0x3d9c28bc	0.07624957
129	0x3e48d357	0.1961187
130	0x3d4d4041	0.050110105
131	0x3ceb300e	0.028709438
132	0x3db0d533	0.086344145
133	0xbe22ebbd	-0.1591024
134	0x3c923ca2	0.017851178
135	0xbd426e2f	-0.04746836
136	0xbd68d822	-0.056846745
137	0x3dc25704	0.09489253
138	0xbd016361	-0.031588916
139	0x3c7b918f	0.015354528
140	0x3dd42ab9	0.10359711
141	0x3d3f92b5	0.04677077
142	0xbe47a173	-0.19495182
143	0x3e8ac281	0.2710152
144	0xbdcc5ded	-0.099788524
145	0x3d7b1a3e	0.061304323
146	0x3dc40bbe	0.09572552
147	0xbdc5e7fe	-0.096633896
148	0x3dc093c6	0.094031855
149	0x3e045c10	0.12925744
150	0xbe40979f	-0.18807839
151	0x3e2b81a8	0.16748679
152	0x3e499f93	0.19689779
153	0x3cb121d5	0.021622578
154	0x3e21ec0c	0.15812701
155	0x3e3a5d74	0.18199712
156	0x3dba954c	0.09110507
157	0x3dfec521	0.12439943
158	0x3e3dc450	0.18531919
159	0xbd79c170	-0.060975492
160	0xbdb1923c	-0.0867047
161	0xbe1f5b82	-0.15562251
162	0x3d86b41b	0.06577321
163	0x3d018e07	0.03162959
164	0xbd8a80fc	-0.06762883
165	0x3cdc5db9	0.02690016
166	0x3e375d8a	0.17906776
167	0x3e100d15	0.1406749
168	0xbdbf0fb2	-0.093291655
169	0x3e6a8723	0.22903113
170	0xbe2fdbd1	-0.17173697
171	0xbd11cc9b	-0.035595518
172	0x3e7459ac	0.23862332
173	0x3df2f6f7	0.11863511
174	0x3ca95fe4	0.020675607
175	0x3e0f0ad1	0.1396897
176	0x3cdf4e7f	0.02725911
177	0x3e32075e	0.17385623
178	0xbdf6f921	-0.12059236
179	0x3d87b2b2	0.0662588
180	0x3b3dee77	0.0028981247
181	0xbcb221c5	-0.021744618
182	0x3e06a7a4	0.13149887
183	0x3d38942a	0.045063175
184	0x3e499297	0.19684826
185	0xbe25db63	-0.1619697
186	0x3e422f31	0.18963315
187	0xbd33a19e	-0.043855302
188	0x3e508b41	0.20365621
189	0xbe3e15d4	-0.18563014
190	0x3e6a8713	0.22903089
191	0xbdecde48	-0.11565834
192	0xbdba7ebb	-0.09106203
193	0xbe10dff9	-0.14147939
194	0x3c9f787d	0.019466633
195	0x3e4e86a0	0.20168543
196	0xbda6f822	-0.08152796
197	0x3e7f58a3	0.24936156
198	0xbdba58c6	-0.090989634
199	0x3e265391	0.16242816
200	0x3de29471	0.11063469
201	0x3d74a88d	0.059731055
202	0xbd200a7d	-0.039072502
203	0x3e72a168	0.23694384
204	0xbdf27b7d	-0.1183996
205	0x3e08cf1e	0.13360259
206	0xbd3da210	-0.046297133
207	0x3d0e1d6a	0.03469602
208	0x3d054cb2	0.032543845
209	0xbe1b9522	-0.15193608
210	0xbdaa38de	-0.08311628
211	0xbd6df8ec	-0.05809872
212	0x3e0e9568	0.13924181
213	0xbd995c57	-0.074883156
214	0xbe09719d	-0.13422246
215	0x3e80d41d	0.2516183
216	0x3e4b31dd	0.1984324
217	0x3d6c4858	0.05768618
218	0xbd6e94b0	-0.05824727
219	0x3e44cf0a	0.19219604
220	0x3e3fec5a	0.18742505
221	0x3e401796	0.18758997
222	0x3e041c2a	0.12901369
223	0x3e6c4737	0.23074041
224	0xbd8aad65	-0.06771354
225	0x3dac118b	0.084017836
226	0x3a8b7c88	0.0010641972
227	0x3e1aa1f5	0.15100844
228	0x3e79565a	0.24349347
229	0x3e29d94f	0.16586803
230	0x3d36194e	0.044457726
231	0xbe1a24d9	-0.15053119
232	0x3d259057	0.040420856
233	0x3e0a00f5	0.13476928
234	0x3daa4583	0.083140396
235	0xbdf9f44a	-0.122047976
236	0xbc65422c	-0.013992827
237	0xbaeb4076	-0.0017948288
238	0xbdc61ca5	-0.09673432
239	0xbd22979b	-0.039695363
240	0x3d0692e4	0.03285493
241	0xbe32af83	-0.17449765
242	0x3e5b8823	0.21438651
243	0x3e0ef75b	0.13961546
244	0x3e09bbb5	0.13450511
245	0xbe24959f	-0.16072701
246	0x3af699d5	0.0018814156
247	0x3e094a24	0.13407189
248	0xbe42528f	-0.18976806
249	0x3dcd3255	0.10019366
250	0xbe2205d0	-0.1582253
251	0x3db552cb	0.08853682
252	0x3e0a88cd	0.13528748
253	0x3e1a986b	0.15097205
254	0xbe189075	-0.14898856
255	0x3e56cae7	0.20975839

decoder.3.bias f4 [26]
0	0x3e348894	0.17630225
1	0x3de1d026	0.11026029
2	0x3b3273dc	0.0027229702
3	0x3e535e2c	0.20641392
4	0x3da702a2	0.08154799
5	0xbe0361a8	-0.12830222
6	0x3e688370	0.2270639
7	0x3cda797b	0.026669255
8	0x3e3c0640	0.18361759
9	0x3b0d8516	0.0021594218
10	0x3e39657f	0.18105124
11	0xbdcf92bd	-0.1013541
12	0xbe420585	-0.18947418
13	0x3beb9089	0.007188861
14	0x3e95138c	0.29116476
15	0x3e8b639d	0.27224436
16	0xbde49630	-0.111614585
17	0x3dd6663c	0.104687184
18	0x3e346ea4	0.17620331
19	0x3e7ea2c7	0.24866782
20	0x3d810e4c	0.06301555
21	0x3cc24d68	0.02371855
22	0x3db39fd7	0.087707214
23	0x3db01dde	0.08599447
24	0x3e332d8f	0.17497848
25	0x3e5cf126	0.21576366

exp_avg f4 [16, 26]
0	0x38e842f0	0.0001107509
1	0x38c79376	9.516526e-05
2	0xb85d89b4	-5.2818752e-05
3	0xb9380734	-0.00017550291
4	0xb9401315	-0.00018317655
5	0x35c60f45	1.4756594e-06
6	0x392d2e97	0.00016515922
7	0x392ef012	0.00016683366
8	0x39c8225e	0.00038172578
9	0x39fb677a	0.00047951547
10	0x39650ab9	0.00021843136
11	0x38d34538	0.00010074157
12	0x39389475	0.00017602912
13	0x398a6632	0.00026397553
14	0x39cf4668	0.00039534573
15	0x39c8bd77	0.00038288135
16	0x38d5ca26	0.000101942846
17	0xb9187616	-0.0001453984
18	0xb91f67fb	-0.00015202157
19	0xb95994b0	-0.00020750123
20	0xb969aa8d	-0.00022284147
21	0xb96ab74b	-0.00022384261
22	0xb94bc1b3	-0.00019431747
23	0xb9205a9e	-0.00015292547
24	0xb9830539	-0.00024990158
25	0xb93cc9d7	-0.00018004268
26	0xb940819e	-0.00018358833
27	0x3746ab55	1.1841611e-05
28	0x39b60f7e	0.00034725288
29	0x3a0c0d64	0.00053425715
30	0x3a21f8c4	0.00061787316
31	0x39e3937a	0.00043406693
32	0x399c00f1	0.0002975534
33	0x393fa8aa	0.00018278012
34	0x398f3cde	0.00027320435
35	0x39fffd57	0.00048826143
36	0x3992e350	0.0002801665
37	0x3909f521	0.00013156656
38	0xb8d7fed9	-0.00010299468
39	0xb98ee7e1	-0.00027257114
40	0xba1738a7	-0.0005768635
41	0xba4202d3	-0.00074009335
42	0xba060942	-0.0005113074
43	0xb9967ae4	-0.0002870179
44	0xb80ea3e3	-3.400807e-05
45	0xb862a3d1	-5.4035165e-05
46	0xb9511cdb	-0.00019942543
47	0xb80bcca0	-3.3330754e-05
48	0xb6edb5ca	-7.0843134e-06
49	0xb93294ca	-0.00017030831
50	0xb9d28d06	-0.00040159392
51	0xb9b5c40a	-0.0003466907
52	0xb95d712e	-0.00021118365
53	0xb8abc587	-8.190708e-05
54	0x3899c11e	7.3315794e-05
55	0x39791262	0.00023753339
56	0x3980f7dd	0.00024598735
57	0x3873dcd3	5.8141373e-05
58	0xb8100f7d	-3.43467e-05
59	0xb86375e7	-5.4230823e-05
60	0xb92421a5	-0.00015652792
61	0xb9487584	-0.00019117264
62	0xb869be23	-5.5728608e-05
63	0xb81e23ae	-3.7703365e-05
64	0xb9604c5b	-0.0002139075
65	0xb9ae9a1d	-0.0003330269
66	0xb9df1367	-0.0004254833
67	0xb9ae672a	-0.0003326473
68	0xb8144b58	-3.535612e-05
69	0x390770a9	0.00012916572
70	0x393ebfa4	0.00018191204
71	0x39267cfc	0.00015877554
72	0x39327173	0.00017017666
73	0x38ebdd22	0.000112468624
74	0x38a67367	7.936992e-05
75	0x379899e6	1.8191477e-05
76	0x370f662a	8.547251e-06
77	0xb85e37a5	-5.2980748e-05
78	0xb9efc222	-0.00045730273
79	0xb999b624	-0.0002931814
80	0xb90f59f4	-0.00013671053
81	0xb8b1cb5f	-8.4778985e-05
82	0xb8c1d60a	-9.242825e-05
83	0xb8f8cd52	-0.000118638054
84	0x38fae857	0.000119642056
85	0x39847e20	0.00025270972
86	0x39acacb0	0.0003293506
87	0x39c1ad91	0.00036941146
88	0x3a06ac3a	0.0005137358
89	0x3a112cd6	0.0005537992
90	0x39c1b513	0.0003694674
91	0x395915b1	0.00020702813
92	0x38b86366	8.792318e-05
93	0x38c06914	9.174846e-05
94	0x38de689e	0.000106052714
95	0xb8623e4a	-5.394061e-05
96	0xb90686fa	-0.00012829519
97	0xb92dfaa3	-0.00016591935
98	0xb93df93e	-0.00018117295
99	0xb96c9844	-0.00022563437
100	0xb9818896	-0.00024706562
101	0xb98350c8	-0.00025046454
102	0xb98eef2c	-0.00027262548
103	0xb9adccd1	-0.00033149731
104	0xb9c5f467	-0.00037756862
105	0xb94baac9	-0.00019423211
106	0xb84198ca	-4.615708e-05
107	0x35d90b6a	1.6171082e-06
108	0xb7444f6a	-1.1701e-05
109	0xb8c2401b	-9.2625814e-05
110	0x37ec46a5	2.8166289e-05
111	0x39544ce3	0.00020246538
112	0x39c0648c	0.00036696007
113	0x39e069af	0.0004280335
114	0x3a0a94ef	0.0005286475
115	0x3a07d5b3	0.0005181685
116	0x39908321	0.0002756352
117	0x38a1be47	7.71252e-05
118	0xb83b62c4	-4.4676257e-05
119	0xb893d0b5	-7.048381e-05
120	0xb7bb7015	-2.234433e-05
121	0xb8cfe294	-9.912733e-05
122	0xb906c53e	-0.00012852714
123	0xb90667b6	-0.00012817871
124	0xb8caca66	-9.66981e-05
125	0xb8ba30a2	-8.87823e-05
126	0xb909e24a	-0.00013149637
127	0xb983ce9a	-0.00025140197
128	0xb9ac6dee	-0.000328883
129	0xb9b71cb6	-0.0003492587
130	0x39a3f22e	0.0003127022
131	0x396688a6	0.00021985415
132	0x388d37c4	6.733791e-05
133	0xb8f60f59	-0.00011733053
134	0xb9b53c72	-0.00034568046
135	0xb9eac83b	-0.0004478114
136	0xb98a6615	-0.00026397468
137	0x38ab8f1a	8.18057e-05
138	0x3987c6aa	0.00025897223
139	0x38431980	4.651537e-05
140	0xb9322e1e	-0.00016992583
141	0xb95ed7dd	-0.00021251985
142	0xb965bcc3	-0.00021909461
143	0xb916d842	-0.00014385677
144	0x3825fcc2	3.9574465e-05
145	0x399e4b52	0.00030192226
146	0x39e775d8	0.00044147554
147	0x395947eb	0.00020721524
148	0xb971504e	-0.00023013467
149	0xb9bf1fd2	-0.00036454067
150	0xb9232495	-0.00015558519
151	0x36e565dc	6.83659e-06
152	0x38f6daef	0.00011770974
153	0x39381702	0.00017556178
154	0x3967e4c5	0.000221151
155	0x39810111	0.00024605592
156	0x38cea36e	9.8532866e-05
157	0xb8889176	-6.5120796e-05
158	0xb92452e4	-0.00015671138
159	0xb89ef637	-7.579888e-05
160	0xb84b9611	-4.853873e-05
161	0xb82b70d4	-4.0874656e-05
162	0xb87baf8b	-6.000655e-05
163	0xb90ab7d6	-0.0001322919
164	0xb90e7ed2	-0.0001358942
165	0xb91b3484	-0.00014801515
166	0xb9205578	-0.00015290629
167	0xb9092e1d	-0.00013082517
168	0xb8c71fa3	-9.494952e-05
169	0xb799a56c	-1.8316052e-05
170	0xb851f3f5	-5.0056686e-05
171	0xb858493f	-5.156663e-05
172	0x379acd1b	1.845374e-05
173	0x3953e88e	0.00020209161
174	0x38f063a3	0.000114626506
175	0x3789cb03	1.6426207e-05
176	0x37d89d86	2.582256e-05
177	0x386fdfdf	5.7190537e-05
178	0x38eac31a	0.0001119433
179	0x38ed22be	0.00011307512
180	0xb81115b4	-3.4590907e-05
181	0xb8537917	-5.0419094e-05
182	0xb5a03385	-1.1935923e-06
183	0xb7db4351	-2.6138181e-05
184	0x3902bcf3	0.00012468155
185	0x3854f668	5.0774222e-05
186	0x38bb3049	8.925849e-05
187	0x390babd0	0.00013320078
188	0x39989582	0.0002910309
189	0x39f2e6ee	0.00046329893
190	0x399f5099	0.00030386893
191	0x39757f8d	0.00023412537
192	0x3962845c	0.00021602347
193	0x392ea8a1	0.00016656752
194	0x385798a8	5.1402167e-05
195	0xb95069c7	-0.00019875831
196	0xb94b09ed	-0.00019363286
197	0xb87e86ec	-6.0683975e-05
198	0x38df5bcf	0.00010650569
199	0xb95f3e18	-0.00021290069
200	0xb9a539f9	-0.00031514445
201	0xb972ccd7	-0.00023155227
202	0xb9b0f7af	-0.00033753875
203	0xb9b75dd6	-0.00034974393
204	0xb9bced5a	-0.00036034995
205	0xb9057452	-0.00012727201
206	0x3a0889a1	0.00052084966
207	0x3a1bb69e	0.0005939993
208	0xb8fe0c01	-0.000121139
209	0x3a07a8c1	0.00051749876
210	0x3a55f190	0.0008161301
211	0x3a4bad9e	0.00077697064
212	0x3a326a63	0.0006806014
213	0x39dc9fb0	0.00042080646
214	0x38f7335f	0.000117874464
215	0xb98d8f64	-0.0002700045
216	0xb9912b95	-0.00027689026
217	0xb8afc3f5	-8.38115e-05
218	0x394c23b6	0.0001946826
219	0x39fe02b7	0.00048448678
220	0x3a2c8806	0.00065815484
221	0x3a182603	0.0005804004
222	0x3a03c9ff	0.0005027353
223	0x399193b0	0.0002776659
224	0x3798d2ff	1.8218065e-05
225	0xb9d03d56	-0.0003971855
226	0xb98626ae	-0.0002558729
227	0xb91525d3	-0.00014223838
228	0xb9858877	-0.0002546941
229	0xba173d9e	-0.00057693745
230	0xba0b17e6	-0.00053059903
231	0xba030ff1	-0.0004999629
232	0xba1b5e0c	-0.0005926795
233	0xba1ff3f2	-0.00061017193
234	0xb9895421	-0.00026193357
235	0x384cf7c6	4.8868147e-05
236	0x3986f5c4	0.0002574158
237	0x39904d86	0.0002752358
238	0x39a38685	0.00031190008
239	0x399b202c	0.00029587874
240	0x39841eb0	0.00025199866
241	0x394d19e6	0.00019559971
242	0x399cca46	0.00029905344
243	0x3a030f55	0.0004999538
244	0x3a20a22d	0.00061276817
245	0x3a370a81	0.0006982461
246	0x3a203683	0.00061116385
247	0x39ea4ca7	0.00044689068
248	0x39fe45bf	0.0004849862
249	0x39be11af	0.000362528
250	0x394ec61c	0.00019719492
251	0xb94cba92	-0.00019524459
252	0xb9ad5db8	-0.00033066957
253	0xba07cf98	-0.0005180775
254	0xba6e4537	-0.00090892933
255	0xba8b09cf	-0.0010607782

exp_avg_sq f4 [16, 26]
0	0x34834774	2.445264e-07
1	0x345bd019	2.047167e-07
2	0x34043413	1.2312402e-07
3	0x33ff8ad4	1.18996155e-07
4	0x341d883d	1.4671328e-07
5	0x3400eecd	1.2007804e-07
6	0x33fbc87b	1.17245655e-07
7	0x340b17c3	1.2954028e-07
8	0x34095fd7	1.2793986e-07
9	0x3407169e	1.2581083e-07
10	0x34456701	1.8384527e-07
11	0x348a906f	2.5809592e-07
12	0x348bf552	2.6069262e-07
13	0x344729bf	1.8548506e-07
14	0x34077004	1.2613606e-07
15	0x33700a84	5.588892e-08
16	0x320e2d12	8.275736e-09
17	0x3244515d	1.1427201e-08
18	0x3302b982	3.0436702e-08
19	0x336114d0	5.2405824e-08
20	0x339d6894	7.329905e-08
21	0x33c97040	9.38021e-08
22	0x33e34203	1.0582519e-07
23	0x34055959	1.2419095e-07
24	0x340a1ba9	1.2862314e-07
25	0x3418c394	1.4227254e-07
26	0x34f1c845	4.5035463e-07
27	0x34cf2a48	3.8587518e-07
28	0x348bce42	2.604084e-07
29	0x345d8c36	2.0633237e-07
30	0x344b43bf	1.8930494e-07
31	0x34732389	2.2644066e-07
32	0x349f443c	2.9665705e-07
33	0x34cc1817	3.801549e-07
34	0x34f32bf6	4.5294263e-07
35	0x3507e4cf	5.062438e-07
36	0x3558593a	8.059611e-07
37	0x35859d4c	9.955052e-07
38	0x3552a6bc	7.8473727e-07
39	0x350bfe07	5.2151194e-07
40	0x34b02d3f	3.2815475e-07
41	0x344511d5	1.8353542e-07
42	0x345bed12	2.048221e-07
43	0x34b23027	3.319012e-07
44	0x34f9fde4	4.6564594e-07
45	0x350a8293	5.1599017e-07
46	0x35073d23	5.0380385e-07
47	0x34f4e9be	4.5618611e-07
48	0x34bd2655	3.5231884e-07
49	0x34784c3b	2.3124532e-07
50	0x34479a3c	1.858943e-07
51	0x340f8dbc	1.3369475e-07
52	0x3487cfe4	2.529697e-07
53	0x346134d8	2.0973982e-07
54	0x340a2cd8	1.2868566e-07
55	0x33bdba80	8.8349225e-08
56	0x33b0bd74	8.2301e-08
57	0x335f291d	5.1958626e-08
58	0x33a573e8	7.7044945e-08
59	0x33d69dcb	9.993854e-08
60	0x33fc2bc4	1.17426254e-07
61	0x3445adbf	1.8410263e-07
62	0x34992a85	2.8529408e-07
63	0x34c61ec4	3.690276e-07
64	0x34c049d0	3.5816493e-07
65	0x349f2f1c	2.9650334e-07
66	0x348bd961	2.6048932e-07
67	0x34074773	1.2598848e-07
68	0x3262b614	1.3196331e-08
69	0x332f59d9	4.082708e-08
70	0x33d47c74	9.894657e-08
71	0x33fe57de	1.184378e-07
72	0x33deaec2	1.0369469e-07
73	0x33ba7d17	8.684054e-08
74	0x339d64d0	7.32922e-08
75	0x33a78ccf	7.8021564e-08
76	0x33db9a6b	1.0226071e-07
77	0x3424f14d	1.5361475e-07
78	0x3433acc4	1.6733526e-07
79	0x3396af20	7.0167744e-08
80	0x332b15c8	3.983385e-08
81	0x33f5a54c	1.1438769e-07
82	0x34378feb	1.709556e-07
83	0x340fcff5	1.3393567e-07
84	0x339af542	7.215796e-08
85	0x334b2a1c	4.730292e-08
86	0x3390f02c	6.7492095e-08
87	0x33d5d969	9.958132e-08
88	0x343def34	1.7689018e-07
89	0x3489f190	2.5693998e-07
90	0x34220935	1.5090775e-07
91	0x335ffc28	5.215057e-08
92	0x33ce24eb	9.599338e-08
93	0x341d9292	1.4675086e-07
94	0x340a1d65	1.2862945e-07
95	0x33bd4620	8.813754e-08
96	0x33a347ee	7.603363e-08
97	0x33953ec1	6.949768e-08
98	0x337b224a	5.8471677e-08
99	0x33326365	4.1534253e-08
100	0x32fb8241	2.9279478e-08
101	0x33319660	4.134779e-08
102	0x336b4f01	5.4787055e-08
103	0x3387fe63	6.3327e-08
104	0x34065823	1.2511786e-07
105	0x3384a69e	6.1770365e-08
106	0x32e0b72c	2.6160329e-08
107	0x330de912	3.3041097e-08
108	0x332d248b	4.0312937e-08
109	0x336056c2	5.223297e-08
110	0x33b354be	8.3507516e-08
111	0x33fb90a8	1.1714411e-07
112	0x340ece10	1.3299746e-07
113	0x34206c73	1.4940615e-07
114	0x343f4e6d	1.7816792e-07
115	0x343a7337	1.7364515e-07
116	0x33ce40f8	9.60444e-08
117	0x334b8e3d	4.7393986e-08
118	0x335a8630	5.0879123e-08
119	0x3331d6ad	4.140627e-08
120	0x32f6ede0	2.8746342e-08
121	0x3304934c	3.086761e-08
122	0x330863da	3.1755782e-08
123	0x33038b9d	3.0627792e-08
124	0x3311dc15	3.3960607e-08
125	0x33491af2	4.6823466e-08
126	0x3395aa6c	6.969353e-08
127	0x33b5f0ec	8.472293e-08
128	0x33a40617	7.637953e-08
129	0x33c33a9f	9.091058e-08
130	0x33ba8514	8.685507e-08
131	0x33a541b7	7.695365e-08
132	0x33e88811	1.0828092e-07
133	0x3418a31a	1.4215439e-07
134	0x342488bd	1.5323435e-07
135	0x343377e1	1.6714286e-07
136	0x3424793e	1.5317798e-07
137	0x33ef2b27	1.1137154e-07
138	0x339972f2	7.145526e-08
139	0x336aea54	5.469549e-08
140	0x33535b23	4.9210154e-08
141	0x33877c40	6.309028e-08
142	0x3415dcb5	1.3956999e-07
143	0x34954806	2.7805817e-07
144	0x34ad2065	3.224733e-07
145	0x34989625	2.842145e-07
146	0x349d7025	2.9325125e-07
147	0x348ab205	2.583403e-07
148	0x345015bb	1.9379415e-07
149	0x3430782a	1.6434993e-07
150	0x340bde82	1.3026332e-07
151	0x33f71849	1.1506251e-07
152	0x340a7320	1.2894134e-07
153	0x344c5527	1.9029959e-07
154	0x346e7ac0	2.2210133e-07
155	0x343ce45c	1.7591941e-07
156	0x341e1c22	1.4725131e-07
157	0x341a0889	1.4345473e-07
158	0x34010dbc	1.2019058e-07
159	0x33ca976b	9.433901e-08
160	0x33a4ba1e	7.6706996e-08
161	0x3389d434	6.418159e-08
162	0x333384c3	4.179743e-08
163	0x32bc768a	2.1939986e-08
164	0x329a756d	1.7981359e-08
165	0x32e3d86b	2.6524694e-08
166	0x33053a1a	3.101932e-08
167	0x32f44559	2.8436874e-08
168	0x32a7cd9d	1.953486e-08
169	0x32ca6fa6	2.3566667e-08
170	0x33b5f2a8	8.472608e-08
171	0x3416e5d0	1.4053444e-07
172	0x341391f0	1.3743534e-07
173	0x33f42fcc	1.13708296e-07
174	0x33cc8fc4	9.525641e-08
175	0x33aab2be	7.948755e-08
176	0x33954f84	6.952817e-08
177	0x3370856e	5.6000708e-08
178	0x33279347	3.9016665e-08
179	0x33026cf9	3.0367094e-08
180	0x32e59187	2.6725287e-08
181	0x33ab8ccd	7.9884195e-08
182	0x36717aa3	3.5983182e-06
183	0x36869f01	4.0120217e-06
184	0x36529ff9	3.1385555e-06
185	0x361393d2	2.199075e-06
186	0x35dd37bf	1.6482007e-06
187	0x35a4775a	1.2253688e-06
188	0x358da9bb	1.0554717e-06
189	0x3577ac70	9.22656e-07
190	0x3579190a	9.2796165e-07
191	0x353e7928	7.095682e-07
192	0x3495600d	2.78233e-07
193	0x353e3f7a	7.0872886e-07
194	0x35940d5b	1.1030746e-06
195	0x35e00465	1.669058e-06
196	0x36175a99	2.2553488e-06
197	0x362ee2e2	2.6060084e-06
198	0x36290cb1	2.519035e-06
199	0x3604aa86	1.976879e-06
200	0x35adacb2	1.2939765e-06
201	0x35675497	8.61773e-07
202	0x352bcc87	6.400009e-07
203	0x350289d2	4.862933e-07
204	0x3501e200	4.838512e-07
205	0x34dab202	4.0735182e-07
206	0x34d23883	3.9156666e-07
207	0x355117b4	7.789306e-07
208	0x35047182	4.933901e-07
209	0x35356f48	6.758969e-07
210	0x35315eb5	6.6075455e-07
211	0x350c0a79	5.2169304e-07
212	0x34a9a132	3.1595988e-07
213	0x342ebc5b	1.6273536e-07
214	0x33f71c5f	1.15069945e-07
215	0x341b8491	1.4483727e-07
216	0x343a2152	1.7334722e-07
217	0x341e7a82	1.4759465e-07
218	0x342a3076	1.5850114e-07
219	0x344d5cb7	1.9125842e-07
220	0x34584f14	2.0145336e-07
221	0x347f5735	2.3780451e-07
222	0x348f2434	2.6662167e-07
223	0x34bfb97e	3.5711486e-07
224	0x3502d945	4.874494e-07
225	0x35045c48	4.930812e-07
226	0x34aca613	3.2158331e-07
227	0x34880413	2.5334938e-07
228	0x3479f151	2.3277723e-07
229	0x34834927	2.4453877e-07
230	0x349b1266	2.8884386e-07
231	0x349172a9	2.709178e-07
232	0x34971803	2.8143413e-07
233	0x34b06c12	3.2861186e-07
234	0x354f572a	7.724035e-07
235	0x354c6849	7.6147677e-07
236	0x35599883	8.1060733e-07
237	0x35892e28	1.0220729e-06
238	0x35ae0e9d	1.2968263e-06
239	0x35c73f65	1.4845106e-06
240	0x35cae881	1.511784e-06
241	0x35d1700a	1.5604321e-06
242	0x35caf5c1	1.5121697e-06
243	0x356f1195	8.9060023e-07
244	0x3404c850	1.2366331e-07
245	0x34cbbdd4	3.7949815e-07
246	0x35210a35	5.9992027e-07
247	0x35405b20	7.165818e-07
248	0x35693fdd	8.68922e-07
249	0x357fb246	9.5254325e-07
250	0x3578b218	9.264636e-07
251	0x3570d3b1	8.971502e-07
252	0x358a8156	1.0319443e-06
253	0x3592f2c4	1.0948502e-06
254	0x3580eab0	9.605046e-07
255	0x352fd6a1	6.5504906e-07
