experiments/data/ae/020_UCR_Anomaly_DISTORTEDGP711MarkerLFM5z2_5000_7175_7388.txt-.ckpt (torch, 800418 bytes, 48 tensors)

encoder.0.0.weight f4 [128, 217]
000000 8e 19 e8 3d 29 0b 17 3d 96 de dc 3d eb f6 da 3d
       0.11332999 0.036875878 0.107846424 0.10691627
000010 8b 12 fc 3d 5a ff 0f 3e 46 3f 89 3d 63 b9 09 3e
       0.12308224 0.14062253 0.067015216 0.13449626
000020 47 fc e4 3d 04 d4 8a 3d de 69 a3 3d 83 99 c6 3d
       0.111809306 0.0677872 0.07979177 0.09697249
000030 0f fc b1 3c 28 80 0f 3d 45 2b e2 3d d7 93 f2 3d
       0.021726636 0.03503433 0.11043409 0.118446045
000040 33 b8 4c 3d d3 62 06 3d df 26 b1 3d 64 d2 0d 3e
       0.049980354 0.03280909 0.08649992 0.13849789
000050 3a d3 9f 3d 38 c1 e4 3d df 97 64 3c 15 1d 7b 3d
       0.0780396 0.11169666 0.0139522245 0.06130703
000060 b1 72 c2 3d 31 8b f8 3d 93 2b a0 3d 8c 39 f8 3d
       0.09494532 0.12135924 0.07820811 0.12120351
000070 70 6b 01 3e 7c d4 0e 3d 93 94 c6 3d 18 8c 87 3d
       0.1263864 0.03487061 0.09696307 0.06618518
000080 d6 26 b2 3d ff 85 53 3b e9 28 71 3d 82 13 45 3d
       0.086988136 0.0032275913 0.058876906 0.048114307
000090 12 99 3b 3d a8 60 f6 3c 9c 37 c8 3d ec 61 45 3d
       0.045800276 0.030075386 0.09776232 0.04818909
0000a0 a6 4e b7 3d 00 47 a3 3c 26 13 6c 3d 59 b8 21 b9
       0.08950548 0.019931316 0.05763545 -0.00015422831
0000b0 9a 75 15 bc 5f ed 72 bb f9 c8 50 3d 62 b4 94 ba
       -0.009122277 -0.0037067754 0.050972912 -0.0011345262
0000c0 66 61 82 bb 78 6c 80 3d 53 b6 85 3d e6 af 0b 3d
       -0.003978896 0.06270689 0.06528916 0.034103297
0000d0 ab 2a 15 3d 60 0b 91 3d 83 2f 0a bc a0 33 ab 3c
       0.036417644 0.07082248 -0.008434179 0.02089864
0000e0 e9 70 66 3d bb 1e 00 3d d7 b7 af 3d 86 14 3d 3d
       0.056260023 0.031279307 0.085799865 0.04616215
0000f0 3b 85 a0 3c 49 a1 5f 3d d7 ce 9b 3d f9 f7 f8 3b
       0.01959478 0.054597173 0.07607811 0.00759792
000100 da ed bf bc 86 26 93 3d 97 bd e2 bc 62 55 6e 3d
       -0.023428846 0.07185082 -0.027678294 0.058186896
000110 8b ed ce bc 87 79 03 3d ed b9 dc 3c b6 a1 c0 3c
       -0.025259754 0.03209832 0.026944125 0.02351461
000120 a7 1d e8 3c fd 38 3a 3d c9 90 fb 3c 91 fc 4b 3d
       0.028334452 0.045464505 0.030708687 0.049801413
000130 bb 6f ab ba 79 e7 40 bd 18 a1 6b 3d 3f b3 9c 3c
       -0.0013079563 -0.04709575 0.057526678 0.01912844
000140 03 22 9c 3c 6a 2e 7d 3d 40 4a 1d 3c 6e 38 80 3b
       0.019059187 0.061811842 0.009600222 0.003912977
000150 b0 52 28 3d 2a 4f 80 bd 1b ad d1 bc 3b f4 1c 3d
       0.041094482 -0.06265099 -0.025595238 0.038318854
000160 ee 43 4f 3d 52 30 46 bc 19 dd 72 3c 73 2b 81 3d
       0.050601892 -0.012096481 0.014823222 0.063071154
000170 77 6b 32 bd 79 24 48 3c 97 f2 fc 3c 16 6a a0 bc
       -0.043559518 0.012215727 0.030877395 -0.019581836
000180 66 9f 59 3c 52 1c 39 bd c0 d6 77 3d ff a9 fb bc
       0.013282632 -0.045193024 0.060507536 -0.030720709
000190 0d b5 8b 3d 4c e5 5c 3d 54 e9 29 3d 96 1f b0 bc
       0.06821642 0.053929612 0.041482285 -0.021499436
0001a0 44 39 1d bb 9b 0c 03 3d d6 bb ac 3c 0a 12 48 3d
       -0.0023990432 0.031994443 0.02108566 0.04884533
0001b0 c3 6b 80 3d c0 ce 87 3b 87 b5 22 3c e6 b0 27 3d
       0.06270554 0.0041445196 0.009930975 0.040940188
0001c0 e1 76 0b bc 8f ee 5f 3d 5b a7 79 3d 1a 0c f2 bb
       -0.00851223 0.054670867 0.06095062 -0.0073866965
0001d0 ac c5 4d 3d 2f 81 0a bc 43 53 08 bd bd 32 99 3d
       0.050237343 -0.008453651 -0.03328253 0.07480381
0001e0 18 d9 86 3b 8f 6f c5 bc 0a ab e9 bc 37 a3 55 3d
       0.004115235 -0.024101047 -0.02852394 0.052157607
0001f0 ec 40 7f 3d b0 5f b5 3d 0c 32 b5 3d db f9 fc 3c
       0.062317774 0.088561416 0.08847436 0.03088086
000200 b0 79 03 3c b9 98 74 3d 9c c5 a5 3d 79 31 11 3d
       0.008024618 0.05971596 0.080943316 0.03544757
000210 5d a8 79 3d ed 28 44 3d 2f f1 fe b9 c6 ce 70 3d
       0.06095158 0.047890592 -0.0004862635 0.058790945
000220 15 0e ac 3d 46 1a b7 3d 30 39 93 3d d0 55 a5 3d
       0.084011234 0.08940558 0.07188642 0.08073008
000230 b4 6f 59 3d f4 d4 17 3d 6a 6d bb bc f5 0f af 3d
       0.053085044 0.037068322 -0.022879321 0.085479654
000240 b7 60 61 3d 42 4c 0f 3b 34 ff 8c 3d ae 8b a6 3d
       0.055023875 0.0021865522 0.06884614 0.081321105
000250 db 03 34 bd 2e 25 9a 3d a6 5a a4 3d d9 1e 1e 39
       -0.04394899 0.07526623 0.08025102 0.00015079546
000260 6d 7a 0e 3d 49 15 3e bd a3 b6 f3 bc 9b 1f 4a bd
       0.034784723 -0.046407018 -0.029750174 -0.049346548
000270 8f 4d 54 3d 5e 72 34 bd 0e 6a dc bc d8 f0 2c 3d
       0.05183178 -0.04405438 -0.02690604 0.042221874
000280 aa 3f e7 3c e6 90 00 bd 55 e6 19 bc dd bf 94 3c
       0.0282286 -0.031388186 -0.009393294 0.018157894
000290 fe 8c d2 3c 50 6d 19 bc 98 aa be 3b 43 cc 1a 3d
       0.025701996 -0.009364441 0.005818676 0.037792455
0002a0 bc c4 a3 3d 56 f7 fc 3c 03 e1 a1 bc 02 14 30 bd
       0.079965085 0.030879658 -0.019760614 -0.04298783
0002b0 27 23 96 3d 68 bf 5d 3d 4a 35 b2 3d ee 4a 16 3d
       0.073309235 0.054137617 0.0870157 0.036692552
0002c0 3c 36 24 bd 1d 1e b7 bc 8c f3 1b 3c e8 e5 6b bc
       -0.040090784 -0.022353226 0.009518515 -0.014398076
0002d0 de 42 83 3d 92 d7 a0 3d 9c 39 c2 3d 9e f8 de bb
       0.06409238 0.07853617 0.09483644 -0.00680454
0002e0 53 fa 0c 3d 55 6b 4b 3d 30 2c 7e 3d ab 44 b1 3c
       0.034418415 0.049662907 0.06205386 0.021639189
0002f0 2d e0 b8 3d 2d dc 8a 3c fc 94 1c 3d 55 49 7b 3d
       0.09027133 0.016950691 0.03822802 0.06134923
000300 ac 51 5b 3d aa e6 05 bb 69 39 3c 3c d2 b9 3d 3d
       0.053544685 -0.0020431676 0.011488297 0.04631979
000310 d8 6f 09 3d c0 d4 6c 3d d6 d5 a4 3d 59 83 9c 3d
       0.033553928 0.05782008 0.080485985 0.0764224
000320 78 15 af 3d 68 09 29 bc b4 e2 4f 3d b4 8c a3 bc
       0.08549017 -0.010317184 0.05075331 -0.019964553
000330 f2 6d da bb a8 a8 5c 3d ea 32 cc 3d 25 2d 92 3d
       -0.0066659385 0.05387178 0.099706486 0.07137517
000340 6a 80 aa bb f6 42 ac 3c ea 54 77 3d 79 fd 92 3d
       -0.0052032964 0.021028023 0.060383715 0.07177252
000350 a5 69 82 3d eb e6 32 3d c6 fe 9a 3d 31 80 d0 3d
       0.06367806 0.04367725 0.075681254 0.101807006
000360 11 dd f8 3d a6 1e e1 bc b6 35 b9 3d 5b 23 d9 3d
       0.1215154 -0.027480435 0.09043448 0.10602447
000370 88 84 d8 3d 26 94 ce 3d c4 cb 60 bc e3 4a a5 3d
       0.10572153 0.10086851 -0.0137204565 0.08070924
000380 34 b8 0d 3c 5e 1a 41 3d 41 ec 18 3c 77 fc a3 3d
       0.0086498745 0.047144286 0.009333671 0.08007138
000390 5f f9 5f 3d 43 5a 77 3d b6 89 ea 3d c9 ed ac ba
       0.05468118 0.060388815 0.114520475 -0.0013193424
0003a0 8b f6 73 bc 82 e4 0d 3d bf 7d b6 3d d8 97 34 3b
       -0.014890323 0.03464175 0.08910703 0.0027556326
0003b0 a2 ef ab 3d 7e c1 8e 3c 8a f6 31 3a aa 40 f1 3c
       0.08395316 0.017426249 0.00067887513 0.02944978
0003c0 43 25 63 3d 10 86 39 3c cb 4c 3d 3d 4a ad cf 3d
       0.055455457 0.011323467 0.046215814 0.10140474
0003d0 5a e9 85 3d 32 eb f5 3d 1a 8b 3a bc b1 7c a1 3d
       0.06538649 0.120077506 -0.011385703 0.07885111
0003e0 ac d4 15 bc e6 87 53 3d e5 52 c9 3d 03 6e 48 bc
       -0.009144943 0.051643275 0.09830264 -0.01223326
0003f0 5b 51 0e 3d 01 29 62 bc 0b 92 66 3d c7 45 e5 3b
       0.034745555 -0.013803721 0.05629162 0.0069968435

encoder.0.0.bias f4 [128]
000000 08 ce 85 3b c6 88 60 bc 41 01 b9 bd 8f 30 74 3d
       0.0040833987 -0.013704484 -0.09033442 0.05961662
000010 9a 7b 94 bd 54 6c 37 3c 5e e0 65 3d 9a 6b 91 3c
       -0.072501376 0.011195261 0.056122176 0.017751504
000020 d1 e2 ae bd ef 33 7f bb 0c 92 a1 3d bf c4 c5 3d
       -0.085393555 -0.0038940867 0.07889184 0.09656667
000030 76 a0 5f 3c 75 9e f7 bc d4 1c 34 3d 57 a9 44 bd
       0.013649097 -0.030226925 0.043972805 -0.048013058
000040 87 a8 6f ba ca 16 59 bd 5f 49 4f 3c f4 62 f7 3b
       -0.0009142239 -0.05300025 0.01265177 0.007549638
000050 3c 30 89 3d d5 ea c3 3c 6f 31 a9 3c 58 11 d5 bc
       0.06698653 0.023915688 0.020653455 -0.026009247
000060 3a 36 21 bd c8 21 fe 3c ce f4 bb bd c4 81 be 3d
       -0.039358355 0.031021968 -0.09177552 0.093020946
000070 9e 9c 4c bd e5 66 84 3c 58 3a 81 bd a8 2b 97 3c
       -0.04995405 0.016162345 -0.06309956 0.018453434
000080 b9 92 56 3d 9d 80 21 3d 2e a3 d5 3c 4d be 9c bc
       0.05238602 0.039429296 0.026078787 -0.019133711
000090 dc 74 7c bd 7d b3 ca 3c 71 c1 76 bc c8 bb b4 3c
       -0.061634883 0.02474379 -0.015060768 0.022062197
0000a0 bd e5 9b 3c 77 77 44 3d ec ff be bd 1b 18 b0 bc
       0.019030446 0.047965493 -0.09326157 -0.02149587
0000b0 56 6f c8 3c e6 c2 85 bd d8 17 aa bd ec 6e 3d 3d
       0.024467152 -0.065313146 -0.08305329 0.04624836
0000c0 bb b0 23 bd 71 8c 93 3c 1a 59 9e bb e1 9a b7 bd
       -0.039963465 0.018011304 -0.004832399 -0.08965088
0000d0 d9 fe 4e bd ca 25 66 3d 5a 98 92 39 91 1b 25 3e
       -0.05053601 0.056188382 0.000279608 0.16123797
0000e0 b0 b5 30 bd 59 e0 84 3d c3 88 8f 3d 11 66 a4 3c
       -0.04314202 0.064881034 0.07008507 0.0200682
0000f0 ae b9 9c bd 56 23 72 bd 12 34 57 3c 5f d0 3d 3d
       -0.07652603 -0.05911573 0.013134973 0.046341296
000100 f9 ea a2 3c 37 01 ab 3b 14 47 a5 3c 7a fc 8e 3d
       0.019887434 0.0052186507 0.020175494 0.0698175
000110 87 85 81 3d ee bd 94 bd cf c5 82 3d f9 6d 7f bc
       0.063242964 -0.07262789 0.06385385 -0.015590184
000120 26 36 9f 3d 87 16 d0 3d 8a 8a 85 bd 82 70 ff 3c
       0.07774 0.10160547 -0.06520565 0.031181578
000130 b6 fa 38 3d f2 87 8a 3d 3a fe 59 bd b4 a4 83 3d
       0.04516097 0.06764211 -0.053220965 0.06427899
000140 ab 0f 53 bd 3f 71 7a 3c 8c c7 ac 3a ca 46 26 bd
       -0.051528614 0.015285789 0.0013182028 -0.040594853
000150 eb cb 1c bd 83 84 c2 3c 31 12 1d bd 27 4c bf bc
       -0.03828041 0.023744827 -0.038347427 -0.023351742
000160 cf 4a 72 3b 2c 2c bd 3d b8 3f b7 3d 95 b4 49 bd
       0.003697086 0.09236941 0.089477 -0.049244482
000170 d4 f3 de bb d8 b6 b0 3c 0a 1d 2a 3d 6a 0c 31 3d
       -0.006803969 0.021571562 0.0415316 0.04322473
000180 3a 8c 49 bd e5 19 5e bd 3d a4 65 3d 8a 17 4e 3d
       -0.049205996 -0.054223914 0.056064833 0.050315417
000190 4b 26 d7 3b 25 e7 23 bd 05 c4 9c bc 8d 4d 03 3d
       0.006565844 -0.04001536 -0.019136438 0.03205638
0001a0 d6 26 cb 3d 38 05 c1 3d c4 3f b6 3d 67 6c c7 3c
       0.09919517 0.094248235 0.08898881 0.024343682
0001b0 ab 6d 40 3d 66 44 1a bd 05 3a 00 3d 69 86 21 bd
       0.046979588 -0.037662886 0.03130533 -0.039434824
0001c0 aa 41 fb bc c3 a3 19 3d 4e 96 b3 bb 1a 15 1b bd
       -0.03067096 0.03750969 -0.005480564 -0.03786192
0001d0 e2 13 d8 3d 9f 41 b8 3c 31 de 11 3d 38 18 48 3c
       0.10550667 0.022492228 0.03561229 0.012212805
0001e0 8f fb 25 3b 2c 84 ac 3d 57 f2 57 bd 45 47 1e bd
       0.0025326943 0.08423647 -0.052721348 -0.038642187
0001f0 7a 24 a0 bc 7f 02 e2 bb 24 5a b8 3d 98 a9 7a 3d
       -0.019548643 -0.00689727 0.09001568 0.061196893

encoder.1.0.weight f4 [32, 128]
000000 3b e5 18 bd c3 82 b3 3d 5e d8 b0 3d 88 88 06 3e
       -0.037327986 0.08765175 0.08635019 0.1313802
000010 cf f4 ff bb ba 5a 28 bc 1d 72 2a 3d 8b 84 9a 3c
       -0.007811166 -0.010275537 0.041612733 0.01886203
000020 44 72 04 3d c4 d9 10 3d 18 2a 8d 3d 0a d9 64 3c
       0.032335535 0.035363927 0.06892794 0.013967762
000030 60 5b 34 bd 5f a7 e1 bc 10 32 25 3d 77 1f cc 3d
       -0.044032454 -0.02754563 0.040330946 0.09966939
000040 fc 18 55 bd 68 09 7d 3d 58 97 ff bc bf 7a 3b 3d
       -0.05202578 0.06177655 -0.031200096 0.045771357
000050 11 36 3f bc d7 d3 5e bc c9 d6 e1 3c 2b c1 ea 3c
       -0.011670605 -0.013600311 0.027568238 0.028656563
000060 69 17 6a 3d b0 56 8e bd b0 06 a5 3d cf 99 0c 3d
       0.057151232 -0.06950128 0.08057916 0.03432637
000070 1c 3a 4a 3c 03 20 3c 3d 6f 61 20 3d 54 5f 31 bd
       0.012342956 0.045928966 0.03915542 -0.043303803
000080 a2 bf 97 3d e9 97 1a bc 87 ba 34 3d 36 36 41 bd
       0.07409598 -0.009435632 0.0441232 -0.04717084
000090 33 b9 49 bd 72 b9 9e 3d 96 a5 a0 bd a2 62 89 3d
       -0.049248885 0.07750215 -0.07844083 0.06708266
0000a0 69 82 75 3d 5f d4 aa bc 1f b7 90 ba b1 82 57 3d
       0.059938822 -0.02085322 -0.0011040902 0.05261487
0000b0 0c bc d0 bb c8 de 0d bc a0 71 4f 3d e8 59 30 bd
       -0.006370073 -0.008659072 0.05064547 -0.04305449
0000c0 72 1e a7 3d a9 67 c9 3c 64 9a 02 bd 0f 5b b4 bd
       0.08160104 0.024585562 -0.03188552 -0.088064305
0000d0 48 fe 81 bd e7 23 a9 3b 63 87 f3 3c 71 a6 13 3c
       -0.063473284 0.0051617506 0.029727643 0.009011851
0000e0 60 64 1f 3d f1 33 24 3d a9 b9 50 3b 32 f5 a0 3d
       0.038914084 0.040088598 0.0031848943 0.07859267
0000f0 f9 d2 2b 3d 89 1f 5b 3d f9 85 74 bd e1 4f 09 bd
       0.041949246 0.05349687 -0.05969808 -0.033523444
000100 06 b6 08 3d f3 c2 a5 3c 90 f0 48 3c 4a b5 9c bd
       0.033376716 0.02023456 0.012264386 -0.07651766
000110 32 87 07 3e 20 33 05 bd 87 3e 90 3c 3e e0 cf 3a
       0.13235167 -0.03251946 0.01760794 0.0015859676
000120 b5 da d1 3c 04 52 2b 3e ee 72 6b bb ee cf 79 bb
       0.025616983 0.16730505 -0.0035926658 -0.003811832
000130 93 71 16 3d b3 1b 33 3b 61 f7 32 3d 8d 62 2f bd
       0.036729407 0.0027329742 0.04369295 -0.042818595
000140 11 e5 4e bd 1e 57 f2 bc d5 7e 7a bd c4 43 7d 3d
       -0.050511423 -0.029582556 -0.061156113 0.061832204
000150 a3 0e 06 3c 91 33 30 3d 1c 2e 3d bc c9 c1 8e 3d
       0.008182201 0.043017928 -0.011546638 0.06970555
000160 61 22 96 3d 51 fd c2 3b e1 4c 8c bd 46 a4 3b 3d
       0.07330776 0.005950608 -0.06850601 0.04581096
000170 a9 a4 be 3b 0a 1c 35 bd 9d 8f c1 bc b0 95 de bc
       0.005817969 -0.044216193 -0.02362805 -0.027170986
000180 13 a8 de 3d 77 cb b4 bd 2e d9 88 bc 38 b3 10 bd
       0.10871901 -0.0882787 -0.016705122 -0.035327166
000190 23 53 00 3d 2d 74 ff 3d 09 f7 1d 3d 0a 7c 6c 3d
       0.031329285 0.12473331 0.03856567 0.05773548
0001a0 a8 b3 80 bc 61 f7 6e 3d 97 c9 a7 bd a5 47 2f 3d
       -0.015710667 0.058341388 -0.08192747 0.042792935
0001b0 d5 f4 80 3d 75 45 a6 3d bb e6 95 3d aa 17 52 bd
       0.06296698 0.081187166 0.07319399 -0.0512921
0001c0 5d 51 05 3d d2 87 8f 3d 43 7d e0 3a 5a a1 ec 3c
       0.032548297 0.070083275 0.0017127175 0.028885532
0001d0 bb db 9a 3d a8 fc c1 bc b4 72 56 3c aa c8 5b 3d
       0.075614415 -0.023680046 0.013088871 0.053658165
0001e0 e2 0d 4e 3d a4 22 07 bd d0 34 64 bd 72 ac 8f 3d
       0.05030621 -0.03299202 -0.05571443 0.07015313
0001f0 70 67 95 3d 4f 3f 92 bd 89 6d 07 bd 76 c8 34 3d
       0.0729512 -0.071409814 -0.033063445 0.044136487
000200 f4 6f 06 3e f3 6e da 3d 42 92 8b bc ba 5a 45 be
       0.13128644 0.10665693 -0.017037515 -0.1927289
000210 ba bb 13 3d 5c 71 c3 bd 78 58 15 3e d8 78 49 3e
       0.036067702 -0.09543106 0.1458453 0.19675004
000220 cf 39 9e bd 4a ad 21 be 1d f6 54 39 33 62 d0 3d
       -0.0772587 -0.15788761 0.0002030958 0.1017498
000230 ec 09 14 3e 1a 30 c1 3d 2e f4 6a bd 4c ce d2 bd
       0.1445691 0.09433003 -0.057361774 -0.10293254
000240 72 e0 eb bc 71 b1 d5 bd e7 b8 c5 bc 23 3b 5e 3d
       -0.028793547 -0.10434235 -0.02413602 0.054255616
000250 b3 fe d6 3d 89 9b e8 bd 3e ae f4 3a f3 33 86 3c
       0.10497799 -0.11357791 0.0018667651 0.016382193
000260 54 9b dd bd 93 62 81 3d 6b 8c 0b 3c 71 82 d8 bb
       -0.10820642 0.0631763 0.008517365 -0.0066073467
000270 17 87 44 3d c2 e4 2e 3d 2d d1 58 bd 60 67 5c bd
       0.047980394 0.04269863 -0.05293386 -0.053809524
000280 a2 b6 05 3e e1 ff 0f bd ee 7b dd bd be 56 8a 3d
       0.1305795 -0.035156135 -0.10814653 0.06754826
000290 8a 1f 80 bd 8d 80 89 bd b9 41 95 3d a1 da 30 39
       -0.062560156 -0.06713972 0.07287926 0.00016866114
0002a0 c1 ed 8d 3d 7f f0 d1 3b 95 b9 ef bc 77 ef 69 3d
       0.069301136 0.006406843 -0.029263297 0.057113137
0002b0 a0 44 22 bd 4f 0c 82 3d 7b ea 0b bd 01 12 1e 3d
       -0.039616227 0.06350004 -0.034159165 0.03859139
0002c0 e6 98 3c bd 29 c0 4d 3d 46 fc ad bc c0 51 79 bd
       -0.046044253 0.050232086 -0.021238457 -0.06086898
0002d0 74 28 a7 3c 1d af 5a 3d 7e 0a 29 bd cb f0 50 3e
       0.020405032 0.053389657 -0.04126977 0.20404355
0002e0 ec 0b 46 3d d0 26 64 bc 6e e2 03 3d c3 2c 38 3e
       0.048351213 -0.013925269 0.032198362 0.17985825
0002f0 56 11 9a bd 12 de 89 bd 3f 54 37 3d d5 bc 13 3d
       -0.07522838 -0.0673181 0.044758078 0.036068756
000300 7d 61 0f 3d 1e e0 ef bb fb 18 bf 3c bd aa 72 3d
       0.03500508 -0.007320418 0.023327341 0.05924486
000310 9a 76 e9 bd 3c c1 86 bd 1d f2 1b be ac 41 5e 3d
       -0.113995746 -0.06579825 -0.15229078 0.05426185
000320 9f d6 bd 3d 34 20 41 be b3 58 a1 bc 22 3d 18 3e
       0.09269451 -0.18859941 -0.019695615 0.1486707
000330 e3 c6 ed bd cc 78 cd 3d 43 ac 1b 3d e1 d0 12 3c
       -0.116102 0.10032806 0.03800608 0.008960933
000340 2c 76 af 3d 3b e1 58 3d 9c 16 08 bd 86 05 84 bc
       0.08567461 0.05294917 -0.033224687 -0.016115915
000350 fe 91 61 bd f0 01 cd 3d b7 a7 97 bd 06 51 b7 bd
       -0.05507087 0.10010135 -0.07405036 -0.08951001
000360 23 04 cd bd 33 a4 04 3e 6d 17 85 3d f9 3d 46 bd
       -0.10010555 0.12953262 0.06498609 -0.048398945
000370 66 01 c3 3d 82 02 cb 3d 1b c5 a8 bd a5 6a 83 3d
       0.09521751 0.09912588 -0.0824072 0.06416825
000380 eb 40 60 3d 0c f7 0a be c3 10 82 3d cd cb 1e bd
       0.05474941 -0.13570803 0.06350853 -0.03876858
000390 8f d8 5a bd ef 7f 7d bd ae 99 41 bd da e1 bd 3d
       -0.053429183 -0.061889585 -0.0472657 0.092715934
0003a0 53 8f 15 be 49 ca c3 bc b2 6e 1c 3e 12 13 83 bd
       -0.14605455 -0.023900168 0.15276602 -0.06400122
0003b0 46 3a ad 3c 9a fd db bc 55 d2 26 bd 11 78 9b bc
       0.021145951 -0.026854325 -0.040727932 -0.01897815
0003c0 22 3f 19 3c ca 32 77 3d 69 94 09 bd e3 6f fb bc
       0.009353431 0.06035117 -0.0335888 -0.030693
0003d0 a7 75 58 3e 09 41 1c bd f0 b8 de bd 35 dd 21 bd
       0.21138631 -0.03814796 -0.10875118 -0.0395176
0003e0 5d 43 0a 3d 8d 87 a8 bc 91 86 81 3c e6 bf a5 bd
       0.03375565 -0.020572448 0.015811237 -0.08093242
0003f0 a3 2a 2e 3d 8f 61 f0 3d b8 ad 51 bc b3 5f 23 bc
       0.04252113 0.11737358 -0.012797765 -0.009971547

encoder.1.0.bias f4 [32]
000000 a2 19 ba bd 1d 39 07 3e f8 fb d0 3d b8 fa ce 3c
       -0.0908692 0.1320538 0.10204309 0.025266036
000010 f6 35 80 3d 42 d0 c8 bc 2f 1c 88 3d 92 60 64 3d
       0.06260292 -0.024513368 0.066460006 0.05575616
000020 4d 75 c4 3d 4a 43 8b 3b 52 a2 dd bd 3e ef c3 bd
       0.09592686 0.004249965 -0.10821976 -0.09567116
000030 77 63 e1 3d 03 fb cf bc 7c a6 21 b9 98 5e 1c bd
       0.110052995 -0.025388246 -0.00015416177 -0.03817615
000040 09 0c 6e bc 54 24 31 bd 7b 99 a2 3d fa 0a 5f 3c
       -0.014529237 -0.043247536 0.0793943 0.013613457
000050 ef cb 5f 3d 6c 01 58 3d 1e c5 bf 3c 1a 49 2f 3d
       0.054637846 0.05273573 0.023409422 0.042794324
000060 26 fb a4 3d f2 75 91 3d 29 c8 ed 3d 65 59 c9 3d
       0.08055715 0.071025744 0.11610443 0.09831504
000070 96 a2 cd 3d ea b5 ae bc 1c 1d 8a bd 62 49 b0 3d
       0.100407764 -0.021326978 -0.067438334 0.08607747

encoder.2.0.weight f4 [8, 32]
000000 46 05 21 bd 22 5c fd bd 4d 5b f0 3d c3 89 de bd
       -0.03931167 -0.123710886 0.11736164 -0.1086612
000010 69 73 5c 3c bf 54 1e be 67 8f 56 3c 60 a3 46 3e
       0.01345525 -0.15462016 0.013095713 0.1939826
000020 03 bb c8 bd eb 15 dc 3b 40 41 87 bd f7 40 33 be
       -0.09801295 0.00671648 -0.06604242 -0.17505251
000030 14 25 2a bc a6 c9 34 3d 6a f6 2a 3c cf 20 3b bd
       -0.010384817 0.04413762 0.010434726 -0.045685586
000040 ab 55 5a 3e 75 77 8f bd ab a2 2c 3d e6 be e6 3c
       0.21321742 -0.070052065 0.04214732 0.0281672
000050 cd 4a 46 3e a6 41 08 be 68 8e 0b be 8b fa 85 3b
       0.19364472 -0.13306293 -0.13628542 0.004088705
000060 3e 5b 14 3e 1e 6c 17 be c6 91 aa bd 53 ad 60 3e
       0.14487931 -0.14787337 -0.08328585 0.21941118
000070 fa 18 29 3d ef 34 55 3c 5d 3b 9c 3d aa 5d 27 3e
       0.041283585 0.013013109 0.0762851 0.16344324
000080 7e 0f 8a bc ea 67 23 be 49 cf 69 bd ce ae 1f 3e
       -0.01685309 -0.15957609 -0.05708245 0.15594026
000090 44 a9 9c 3c 7d 61 5d bd 2d 5a 81 bd 3c a9 cd bc
       0.01912368 -0.05404805 -0.06316028 -0.025105111
0000a0 e5 10 d1 bb 31 01 31 3d 9d 57 2d bd 8a 01 d1 bd
       -0.006380188 0.043214027 -0.042319883 -0.10205372
0000b0 ea 91 7d bd de 93 90 3d a1 4f 3c be 24 4a 93 bd
       -0.061906733 0.070594534 -0.18389751 -0.071918756
0000c0 ad a3 5d 3d c8 4b b5 3d 80 7b 9d 3d fd af 11 be
       0.05411117 0.08852345 0.076895714 -0.1422729
0000d0 2c 17 a2 bd 9f 28 d2 bb 42 4c 80 bd 68 35 ca bd
       -0.07914576 -0.006413534 -0.06264545 -0.09873468
0000e0 8c c4 cd 3d 99 39 89 bc ad 27 b3 3d 0d 5b 30 be
       0.10047254 -0.016751098 0.08747802 -0.17222233
0000f0 bf 34 0f 3d 11 c8 30 be 11 06 ba 3d e6 84 29 bd
       0.034962412 -0.1726382 0.09083188 -0.041386507
000100 a9 74 bf 3d 37 23 00 be 34 7f 5e 3d c7 be 22 3e
       0.09348423 -0.12513433 0.05432053 0.15893088
000110 db b8 42 3d 84 0b 66 3e f0 5e b7 bd 57 e5 ef 3d
       0.047539573 0.2246533 -0.08953655 0.11713665
000120 19 00 d6 3d 01 00 55 bd 13 40 ee bd e8 02 0d be
       0.104492374 -0.052001957 -0.11633315 -0.1377064
000130 0b c5 4e 3e 0e bc 89 bd 85 10 3c 3c 0d b7 9d bc
       0.20192353 -0.06725322 0.011478548 -0.019252324
000140 72 5e 5f 3c 82 95 3e 3e f6 0e 58 3e 14 86 34 bd
       0.013633357 0.1861172 0.21099457 -0.04407318
000150 dd 7a f7 3d 74 84 88 3d 95 6f 45 3c 7f 4c 2f bd
       0.12083981 0.066658884 0.012050529 -0.04279756
000160 44 1a 03 3e 69 53 b3 bd bc 41 cf bd 7a e6 e3 bd
       0.12802988 -0.087561436 -0.1011996 -0.11127944
000170 0f 57 48 be b6 b4 97 3d 32 0f 38 be 72 34 d5 b9
       -0.1956446 0.07407515 -0.17974547 -0.000406656
000180 8e 7c b3 3d 8e cf c7 bb 4a 66 87 bd 63 83 16 3e
       0.08763991 -0.0060977405 -0.06611307 0.14698558
000190 ad 93 03 3e e5 6a 2d 3b 50 cb 26 3e 76 27 0d be
       0.12849303 0.002646142 0.16288495 -0.13784584
0001a0 be 4d 73 bd d7 ea 5d 3d bc 02 91 bd 74 67 29 3e
       -0.059400313 0.05417904 -0.070806 0.1654337
0001b0 be ab 0b 3d 00 fb a3 bd 73 e4 86 3d fb 24 8e 3d
       0.034099333 -0.08006859 0.06586542 0.06940647
0001c0 2a de ef bd 48 d0 0d 3e b2 d7 04 3c cd cf 23 3e
       -0.11712296 0.13848984 0.008108066 0.15997238
0001d0 bc 93 10 3e 78 0f 76 bc 19 66 b8 3d 7d f0 d8 bd
       0.14118856 -0.0150183365 0.090038486 -0.105927445
0001e0 bd 17 21 be 81 e6 c5 bd e1 72 fa bd 8b 25 1f 3e
       -0.15731712 -0.09663106 -0.12228943 0.15541665
0001f0 c9 74 d9 3d 3b 53 2b be a3 88 32 bd f6 7b 0b 3e
       0.10617978 -0.16730969 -0.04358734 0.13621506
000200 bd 47 be bc 66 29 51 3e b8 34 0b 3d 46 23 e3 bc
       -0.023227567 0.20425949 0.033985823 -0.02772678
000210 c3 ce 85 3d 1d 8b 1f bb a0 00 e6 bd df f8 33 be
       0.06533577 -0.0024344393 -0.11230588 -0.17575406
000220 2f 81 f5 bd 56 e4 46 3e f4 e3 ae bc f9 02 4e be
       -0.119875304 0.19423041 -0.02134893 -0.20118321
000230 36 37 20 3e b3 df 10 3e ba 49 8e 3d da c2 25 be
       0.15646061 0.14147834 0.06947656 -0.16187611
000240 cd c5 56 3d 32 b8 00 3c 38 9d 16 3e ac 78 9b 3d
       0.05243473 0.007856416 0.14708412 0.07591376
000250 bc 38 34 3e 94 27 8c 3d 00 9b d0 3d ff 78 8f 3d
       0.17599767 0.068434864 0.10185814 0.070055
000260 57 60 fd bd 9c 11 30 3e 5b 35 18 3e 6d 9a 58 3e
       -0.12371891 0.17194217 0.14864103 0.21152659
000270 15 c3 04 3e 63 ea d4 bd 4d de f3 3d e3 5a e8 3d
       0.12965043 -0.10396268 0.11907635 0.1134546
000280 ec 09 32 bd 02 8b 37 be 95 ea d4 bd a7 c4 bd 3d
       -0.043466493 -0.17924121 -0.103963055 0.09266024
000290 28 f6 e6 bd 8a 5a 56 bd 6d 61 db 3d 49 1b 34 3d
       -0.11277419 -0.05233244 0.10711942 0.043971334
0002a0 88 44 bd 3c 1d 2b e4 3b 02 3d fa 3d c0 36 15 3e
       0.023103967 0.0069631473 0.122186676 0.14571667
0002b0 a1 f2 0a be d6 49 cf 3c 09 db a2 3c 45 f1 00 3d
       -0.13569118 0.025303762 0.019879835 0.031480093
0002c0 09 74 88 bd 8e 56 25 3e af c2 01 be 13 48 2c 3d
       -0.06662757 0.16146299 -0.12671922 0.042060923
0002d0 6f 1f 01 be ac 31 92 bd e0 1d 2c 3e a1 f1 de 3d
       -0.12609647 -0.071383804 0.16808271 0.10885931
0002e0 3f 02 4b 3d ce 65 de bd 21 4e 2c be 8b 42 b2 3d
       0.04956269 -0.108592615 -0.16826679 0.08704098
0002f0 44 8b 70 3d 8f 38 a2 bd b5 af e7 bc ec 07 10 be
       0.058726564 -0.07920944 -0.028282026 -0.14065522
000300 5b 05 88 bd 86 d0 f6 3d ac fd 90 bc 21 d5 df bd
       -0.066416465 0.120514914 -0.017699085 -0.10929323
000310 eb 94 01 be b8 46 35 bd f5 97 db 3c 91 8c 1a 3e
       -0.12654464 -0.044256896 0.026805857 0.15092684
000320 39 04 0b be 82 f6 b8 bd cd 69 fd 3d 81 88 4c 3d
       -0.1357583 -0.09031393 0.123736955 0.049934868
000330 02 91 fe bd 15 52 00 3e 89 a2 07 be 45 d4 75 bc
       -0.12430002 0.12531312 -0.13245596 -0.015004222
000340 4d 17 33 bd 30 1a a5 3c 16 db 00 be 89 3b ca 3d
       -0.043723393 0.020154089 -0.12583575 0.09874637
000350 35 0c 29 3e df 14 2a be 48 c0 d8 3d f8 66 3d bd
       0.16508563 -0.16609524 0.1058355 -0.046240777
000360 90 e1 21 3e f7 7f e0 bb 24 a1 3d be 2f 54 36 be
       0.15808702 -0.006851192 -0.18518502 -0.17805551
000370 e9 9d d9 3d 09 73 ca 3c 23 e5 b4 3d 45 e9 b4 bc
       0.10625822 0.024713056 0.08832767 -0.022083888
000380 f7 85 1b be 5f b4 3a bd 2d d3 8f bd 24 7d 93 bb
       -0.15187822 -0.04558217 -0.070227005 -0.004501002
000390 e8 c8 ba 3d bb 4e 5e 3c ea 42 0f be a2 c2 ee bd
       0.09120351 0.0135685755 -0.1399037 -0.11658217
0003a0 94 bd fa 3d a4 70 7a bd 66 71 ff bd d8 4e bd 3c
       0.122431904 -0.06114258 -0.12472801 0.023108885
0003b0 31 f5 a5 bd 5d 2a b7 3d ed ea ab 3d ab 21 05 3e
       -0.08103407 0.08943627 0.08394418 0.13001125
0003c0 ea 22 51 be f1 02 15 be bc b5 0a be 8c d7 9b bd
       -0.20423475 -0.14551903 -0.13545889 -0.07609472
0003d0 4c 1b 36 bd d5 8c 35 be 17 7a 6b bd 69 6a 37 3d
       -0.044459626 -0.17729504 -0.05748948 0.044779215
0003e0 ce 01 e9 3c 99 84 8d bd a1 13 e0 3d 06 8d a6 3d
       0.028443243 -0.069100566 0.10941244 0.08132367
0003f0 fa da 54 3d 32 bf 2d be a9 23 3c 3d dc 69 b3 3b
       0.051966645 -0.16967466 0.045932446 0.005475266

encoder.2.0.bias f4 [8]
000000 df d8 96 3d 33 a4 78 3b 53 62 ec 3d 07 e5 48 be
       0.07365584 0.0037939667 0.11542191 -0.19618617
000010 2c 4c b9 bd 8a 1b bc 3d 7d 6e 22 be b6 76 12 be
       -0.09047732 0.0918494 -0.1586246 -0.14303097

encoder.3.weight f4 [5, 8]
000000 bc b1 6b 3e c8 e5 26 be fc a5 94 3c f4 d5 c7 bd
       0.23017019 -0.16298592 0.018145554 -0.09757605
000010 a2 d6 69 be 36 4d 6e be fd 95 38 3e fc b1 da bd
       -0.22835782 -0.23271641 0.18025966 -0.10678479
000020 7e 65 90 bd 98 31 79 3e cd 64 cc bd 5e 18 75 3c
       -0.07050608 0.24335325 -0.09980164 0.014959423
000030 34 1d 4f be f5 a1 3b 3e 52 29 10 3e d3 58 84 3e
       -0.20225984 0.183235 0.14078262 0.25849018
000040 37 ea 3d 3c ff 40 bf be 5a 8c 36 bc 69 2e 93 3e
       0.011591486 -0.37354276 -0.011141861 0.28746346
000050 27 04 16 be f4 20 76 3e 80 ce 8b be c5 79 ff bd
       -0.14650021 0.24036008 -0.27305984 -0.124743976
000060 99 bd 41 3e a6 48 0a be 3f 82 c7 be 6d 97 83 3e
       0.18919982 -0.13504276 -0.38966557 0.25701466
000070 00 e8 62 3e 19 ff 75 bd 6a 85 9d bd 64 b0 14 3d
       0.22158813 -0.060057733 -0.07691462 0.03630103
000080 9c 70 ae 3e 6a 8e c6 3d b7 51 39 3e f0 b1 ab bd
       0.3407029 0.09695132 0.18097578 -0.08383548
000090 35 1c a5 be 7a 50 83 bd 2b c0 12 3d 3f 44 d1 bc
       -0.32248083 -0.06411834 0.035827797 -0.025545238

encoder.3.bias f4 [5]
000000 6c 8f f7 bd bb 70 bf 3d 01 eb 34 be e5 b3 0c 3e
       -0.120879024 0.093476735 -0.17667772 0.137405
000010 dc 1e af be
       -0.3420323

decoder.0.0.weight f4 [8, 5]
000000 45 56 98 be 16 5f ac be f8 d6 a6 be 35 a7 a2 3e
       -0.29753318 -0.33666295 -0.32585883 0.31768194
000010 f0 eb 88 be d4 14 ba be b4 f6 a2 bb 8b 45 98 3d
       -0.26742506 -0.36344016 -0.004973257 0.07435139
000020 01 77 04 bf 74 a2 36 3e 9d e9 47 3e f5 6f 58 be
       -0.51744086 0.17835408 0.1952271 -0.21136458
000030 dd bf 85 be 2a b2 58 be 91 43 7c bc 34 9e 1f be
       -0.26122943 -0.21161714 -0.015396968 -0.15587693
000040 43 d1 65 3e e4 75 cf be fd 7a 66 bd 39 b2 12 3e
       0.22443108 -0.4051963 -0.056269635 0.14325799
000050 c9 50 94 bd bc 67 46 3e 92 cf 91 3e df 60 e5 be
       -0.07241971 0.19375509 0.28478676 -0.4480047
000060 02 6b b7 3e 62 a1 e3 be eb 59 8d 3e 7a e6 4d 3e
       0.35823828 -0.44459063 0.27607664 0.20107451
000070 74 a1 40 bd e8 7a af 3e bd 29 6d 3e 09 9e bd be
       -0.047028974 0.34273458 0.23160453 -0.37034634
000080 12 a5 11 be d6 b0 89 3d 62 25 b8 bd 88 70 ba 3c
       -0.14223126 0.06723182 -0.08991505 0.022758737
000090 47 84 a6 be bf 3a d9 3e b6 7a 82 3e 74 cd 9d 3e
       -0.32522795 0.42427632 0.25484246 0.3082081

decoder.0.0.bias f4 [8]
000000 89 b0 c6 3d 36 b8 41 3d 2d 86 aa 3e 91 4f 8b be
       0.0970164 0.047294818 0.33305493 -0.27209142
000010 9e 29 e3 be 5a e0 ca be 45 18 b8 3e b6 2f 1b be
       -0.4436769 -0.39624292 0.35956016 -0.15154919

decoder.1.0.weight f4 [32, 8]
000000 74 ae 73 3e 0e cf 6b bd 94 35 01 3e 69 44 94 be
       0.23797017 -0.05757051 0.12618095 -0.28958443
000010 c6 cd af 3d e8 43 c4 3d aa 35 14 be 6c 4b 31 3e
       0.0858417 0.095832646 -0.14473596 0.17313927
000020 fc 8c 2d be b5 b9 3b 3e 29 32 88 3c 05 48 a3 3e
       -0.16948313 0.1833256 0.01662548 0.31890884
000030 83 53 ba be 84 d5 f2 3c 3e 04 72 be c7 f3 ae bd
       -0.3639184 0.029642828 -0.23634431 -0.085425906
000040 6b 06 49 3d db 31 6a 3e 8c 1c 09 3e d1 f0 39 be
       0.049078386 0.22870581 0.13389796 -0.1815827
000050 d1 53 1c be cd e5 5c 3e 3a 3e 86 be 5a 88 21 3e
       -0.15266348 0.21572037 -0.2621935 0.1577467
000060 d8 6e a5 3e e4 1b 73 be e2 eb 93 be bc a5 b1 be
       0.3231113 -0.23741108 -0.28890902 -0.34696758
000070 8d a4 2d 3c 1a 5a 78 bd 27 b9 a0 be a9 14 9d be
       0.010598314 -0.060632803 -0.3139126 -0.30679825
000080 de c0 dd be ae d4 b0 3e 9f 2d 39 be 60 a6 ab 3d
       -0.43311208 0.34537262 -0.1808381 0.08381343
000090 b0 7a a5 3e e0 60 23 3d f8 ba 1e 3d c7 c2 14 3d
       0.32320166 0.03988731 0.038752526 0.036318567
0000a0 f4 5c 2c 3d fb 14 ca be 6b a5 93 3e c0 a1 03 3e
       0.042080835 -0.39469132 0.2883714 0.12854671
0000b0 b0 6f 9b be 59 22 54 3c dc 16 85 3e b5 87 85 3e
       -0.30358648 0.012947642 0.25994003 0.260801
0000c0 ee b9 ee 3d 04 c1 a9 bc 38 48 f0 3d e7 87 43 be
       0.11656557 -0.02072192 0.11732525 -0.19094811
0000d0 57 9b 76 3e 34 57 a5 3d 14 5e 63 be 2a b0 12 be
       0.24082695 0.08073273 -0.22203857 -0.14325014
0000e0 4b 04 9c bd c7 fb bd be f5 a6 a1 be 9d 8e 18 bd
       -0.07618006 -0.37106153 -0.3157269 -0.03724538
0000f0 b1 03 97 3e 7c 91 6b 3e c9 0c e2 bb 72 17 77 bd
       0.29495004 0.23004717 -0.0068984968 -0.060325094
000100 c5 40 a8 3e 2d ab 1b 3e f8 d2 c9 bd 78 3c 0f 3e
       0.32861915 0.15202017 -0.09854692 0.13987911
000110 07 bc a6 be 30 a2 82 3e 5e 6b a0 3e 4a 2e bd 3d
       -0.32565328 0.25514364 0.31331915 0.092373446
000120 2f 91 7d 3d aa a5 bd 3e 9e 6e ab be a5 0c 95 3e
       0.061906036 0.37040454 -0.33482832 0.2911121
000130 f2 14 06 3e 77 41 9e be 48 4f 1f 3e f5 8c 1b bd
       0.13093928 -0.3090932 0.15557587 -0.037976224
000140 00 50 63 3d 02 b1 bd bc 3e dd 02 3d 12 7f 26 3e
       0.055496216 -0.023155693 0.031949274 0.16259411
000150 c6 c5 8d 3d e7 e1 67 3d 4a f2 a6 3e 8c 42 81 be
       0.06922488 0.05661192 0.32606727 -0.25246084
000160 8b 3c 59 3e 83 4f c4 bc b5 76 2b be de d7 86 bd
       0.21214502 -0.023963695 -0.16744502 -0.06584142
000170 a8 43 be 3d 61 eb d1 3d 49 d3 bd bd 23 f1 3d bd
       0.09290248 0.10249973 -0.09268815 -0.046372544
000180 a6 e1 7b 3c 7e 39 b4 be e4 4f 87 3c e1 d0 a2 be
       0.015373623 -0.35200113 0.016517587 -0.31799987
000190 ae 41 8d bd 31 ee 4c 3e 4b 04 b3 3e 1f 6a 85 be
       -0.06897293 0.20012738 0.34964213 -0.26057526
0001a0 7c 9f 1f be 88 db ba 3d c2 06 75 3d 23 b5 97 3e
       -0.15588182 0.091239035 0.059820898 0.29630384
0001b0 01 28 c3 bc 65 d5 a5 be 25 47 49 3e 3a 49 57 be
       -0.023822786 -0.3238937 0.19656046 -0.21024027
0001c0 e7 3e f1 bd 4e 83 af bc 17 49 e2 bd 6e 4f 71 3c
       -0.11779576 -0.021424916 -0.11049097 0.01472841
0001d0 02 09 10 be 89 e2 8b be ba 2b 18 bd d1 b5 9b be
       -0.14065936 -0.2732127 -0.037151076 -0.30412152
0001e0 f2 73 21 3d e2 84 2e bc 70 0a 74 3e 7f 7f 30 3d
       0.039417215 -0.010651799 0.23832107 0.04309034
0001f0 5f 13 4a 3d 9b 10 8e bc b9 12 3e be 70 ce 3b 3e
       0.04933488 -0.017341902 -0.1856183 0.18340468
000200 77 00 9d be f6 09 65 3e 56 4e b6 3d 5e 89 35 3e
       -0.30664417 0.22367081 0.0890166 0.17728183
000210 ad c9 8f bd 1a 70 a9 be 69 63 9f 3e c2 17 af 3c
       -0.070208885 -0.3309334 0.3113053 0.021373633
000220 de 6d 57 3b 12 ec ca bd 52 96 a6 be e9 ad 06 be
       0.0032871882 -0.09908308 -0.3253656 -0.13152279
000230 73 b8 04 3e 0d c9 12 be cd 91 09 3e 02 a1 99 be
       0.12960987 -0.14334507 0.13434525 -0.30005652
000240 c8 d4 0e bd 0c db 92 be 60 c3 a9 3e 19 f5 8a 3d
       -0.034870893 -0.28682745 0.33156872 0.0678503
000250 e4 af 3d bd c4 ef 40 be 98 66 88 3e 3f 1b 92 be
       -0.04631032 -0.18841463 0.26640773 -0.28536412
000260 e5 24 7e 3e b2 7f 83 3e c6 e9 45 be 6b 52 5d be
       0.24818762 0.2568336 -0.19327459 -0.21613471
000270 77 c8 51 3e f9 be 8d be c0 63 32 bd 2f 9d 4f 3e
       0.20486628 -0.27684763 -0.04355216 0.20274805
000280 0d 67 d3 bc 30 c2 e4 3d 6b f2 40 be fb 0d 80 be
       -0.025805974 0.11169851 -0.18842475 -0.25010666
000290 8d aa ac 3e 66 c9 98 bd 3e 7c a3 3e 5a a5 97 3e
       0.3372387 -0.07460289 0.31930727 0.2961834
0002a0 c4 39 e3 3d 25 5b 17 3e 2c 5f 9a 3e 51 9b 8c 3e
       0.11095002 0.14780863 0.30150735 0.27462247
0002b0 93 f0 88 bd 2e d4 58 3b 94 d9 a3 3d f8 3e 9d be
       -0.06686511 0.0033085453 0.08000484 -0.30712104
0002c0 b5 2a 9e be 73 9f 38 3e b4 0d 63 bd 0b 0d 35 bd
       -0.30891958 0.18029575 -0.05543299 -0.044201892
0002d0 02 ae 2a 3e d9 29 86 be e0 4c 61 3e e6 35 5b be
       0.16667941 -0.26203802 0.22001982 -0.2140728
0002e0 57 ef 6a be d2 37 af be 1f 9a 23 be fb c7 a3 3d
       -0.22942863 -0.34222275 -0.15976761 0.079971276
0002f0 b6 e7 8a 3e 9b 72 aa 3e fa 96 4e be 76 49 6d be
       0.27129906 0.33290562 -0.2017478 -0.23172554
000300 39 e8 a6 bd 2e 27 7b 3e bd fc be 3c ba 55 77 3d
       -0.08149762 0.24526665 0.023313874 0.06038449
000310 ed 4b b3 be 23 35 f8 3c bb f8 d2 3d f5 df 66 3e
       -0.35018864 0.030298775 0.10301348 0.2254637
000320 84 49 c8 be 64 d2 ef bd c2 af aa 3e 42 50 24 3e
       -0.39118588 -0.11710051 0.33337218 0.16046241
000330 f8 40 99 be 6e d9 a8 bc 4f 08 88 be c2 80 30 be
       -0.2993238 -0.020611491 -0.2656884 -0.17236617
000340 9a f1 ab be e9 39 19 3e 5b c9 ae be 43 06 f0 3d
       -0.33582765 0.14963497 -0.34137997 0.11719944
000350 b4 41 82 3e 98 9c 95 be 83 f3 15 3e f7 8f 38 3e
       0.25440753 -0.29221034 0.14643674 0.18023668
000360 a7 fb 90 be 8d 23 ba 3c cc df f9 bd 18 ff a4 3e
       -0.28316996 0.02272203 -0.12200889 0.3222587
000370 7e 7e 11 bd 81 b4 b0 be 65 a5 cc 3e 1e 28 b6 3e
       -0.035521023 -0.34512714 0.39969936 0.35577482
000380 6a 1a a2 3e 04 1b bd bc 24 de 8e be 21 da d8 3d
       0.31660777 -0.023084171 -0.27903855 0.1058848
000390 bc 55 88 be 5b c4 cb bd 01 77 6c bc 82 51 81 3d
       -0.2662791 -0.09949561 -0.01443267 0.063143745
0003a0 2a 6b 93 be 31 b7 1d 3e eb 07 cc 3d 7b 9c 9e 3e
       -0.28792697 0.15401913 0.09962448 0.3097876
0003b0 d6 3c 90 bb 80 33 62 be dc 5e 9e 3e b6 34 92 be
       -0.0044017835 -0.22089958 0.30931747 -0.2855584
0003c0 e3 59 ac be 4a 6f ce 3e e9 ef 4a be 36 5f a6 3e
       -0.33662328 0.40319282 -0.19818081 0.32494515
0003d0 a5 cf cc bd 0d 8f b1 3d 34 6f 57 be 7d 10 2e 3e
       -0.100005426 0.08669863 -0.21038514 0.16998477
0003e0 03 d4 03 3e ef f7 89 3e ba 61 95 be fa 1a 20 be
       0.12873845 0.2694697 -0.29176122 -0.1563529
0003f0 2a 7d 91 3e 22 04 86 bd 25 75 b6 3d 48 4f 5e 3e
       0.28415805 -0.06543757 0.08909062 0.21709931

decoder.1.0.bias f4 [32]
000000 ff 6f 7d 3e f4 9a 7c be 93 3c 31 3e fe 83 9d be
       0.24749754 -0.24668485 0.17308263 -0.30764765
000010 e8 51 27 bd 18 ad 09 be 3e 44 1a 3e d7 cb 12 be
       -0.040849596 -0.13444936 0.15065095 -0.14335571
000020 dd 3b f8 3d d5 7d b4 3c 63 c0 84 3e 16 73 6a be
       0.12120793 0.022032658 0.2592803 -0.22895464
000030 ad 6a 84 3e d9 3e ae 3e a2 e3 29 be 0e a4 b5 be
       0.25862637 0.34032324 -0.16590741 -0.35476726
000040 7e 58 a7 3e 13 60 97 be 85 53 9e 3e bc 37 29 be
       0.32684702 -0.29565486 0.30923095 -0.16525167
000050 3a b7 5b 3e b4 c9 9d 3d 96 5e ad bd 2b 9c 80 3d
       0.21456614 0.077044874 -0.084653065 0.06279787
000060 3a 3c 89 bc 10 b4 5e be 08 68 a8 b9 96 64 c0 3c
       -0.016752351 -0.21748376 -0.00032120966 0.023485463
000070 49 d3 9e 3c 0d 05 be 3e 4a 8d 95 3e 07 6d b2 be
       0.019387858 0.37113228 0.29209358 -0.34848806

decoder.2.0.weight f4 [128, 32]
000000 df ba 3e 3c b7 07 9d 3d 27 75 eb 3b dd 75 8c bc
       0.011641233 0.07667487 0.0071855965 -0.017146045
000010 40 fe b8 3d 90 fb 83 bd 40 54 20 3d 9d 6a e9 3d
       0.09032869 -0.06444466 0.039142847 0.11397288
000020 87 1d 14 be bb 74 04 3d 9f 79 e2 bd 9e 14 ee 3b
       -0.14464389 0.032337885 -0.11058354 0.0072656414
000030 1c 79 00 3d 8b c8 00 3e 2a b5 29 bd ac 8a 9d bd
       0.0313655 0.12576501 -0.041432537 -0.07692465
000040 a4 ba b5 bd 44 6c 4a bc fc 15 01 be 5d bb dc 3b
       -0.088734895 -0.012354914 -0.12606043 0.0067362026
000050 a6 5f cb bb e6 c0 41 bd 2f 8a 28 3d b5 6c f5 bd
       -0.0062064705 -0.047303103 0.041147407 -0.11983625
000060 22 4d 65 3e 04 51 22 bd 03 c8 2c bd 64 26 92 3d
       0.22392705 -0.039628044 -0.042182934 0.07136229
000070 89 ff c5 bd 61 40 ab bc a0 13 7f bd ff 2f ea 3d
       -0.0966788 -0.020904722 -0.062274575 0.11434936
000080 2c 08 91 bd 44 90 17 3e 60 8f 0f be d1 12 8f 3e
       -0.07081637 0.14801127 -0.14019537 0.27944043
000090 a5 05 00 bd 36 62 af 3d 7d 0c 13 be 44 31 06 bd
       -0.031255383 0.08563654 -0.14360233 -0.032761827
0000a0 3d 65 56 3d 7b ef 62 3e ad f3 a8 bd 4c f9 74 3e
       0.052342642 0.22161667 -0.082496025 0.23923224
0000b0 c8 6a ac 3d f2 de 64 be e2 51 cf bd 38 56 74 bd
       0.084188044 -0.22350672 -0.1012304 -0.059652537
0000c0 65 bc 36 be 6b 39 b2 3d fa 9d 88 3d 7e f2 2e 3c
       -0.17845304 0.08702358 0.06670757 0.010677932
0000d0 85 8c ee 3c 4c 31 51 3b f8 96 21 be e1 5c 05 be
       0.02911974 0.0031920252 -0.15780246 -0.13023712
0000e0 4f f3 ea bd 8b 23 8f bb d5 c4 9f 3d 67 16 79 3c
       -0.11472189 -0.0043682507 0.078012146 0.015203095
0000f0 ae 63 cb bd b4 cb 82 be ad 88 5a be 7c 90 20 3e
       -0.09931122 -0.25546038 -0.213412 0.15680116
000100 52 6c 16 be 63 06 06 3d 53 06 27 be d5 e7 1b 3e
       -0.14689758 0.032720935 -0.16311006 0.15225156
000110 a0 f5 aa 3d 09 a7 76 3d f9 14 0e 3e 34 2d 84 3d
       0.083476305 0.06021789 0.13875188 0.06453934
000120 26 65 19 be 8c 00 6a 3d 81 e6 0a bd 9f 94 65 3e
       -0.14979991 0.057129428 -0.033911232 0.22419976
000130 09 a3 00 3e c8 a9 43 be 3d c6 be bd 2d 4f 2a 3e
       0.12562193 -0.19107735 -0.09315155 0.16631766
000140 01 d9 c1 bc 3e bb 1c be e8 6f d1 bc 41 b3 94 3d
       -0.023663046 -0.15305802 -0.025566056 0.072607525
000150 22 bf f1 3d 61 d4 f5 bd 7e 25 c0 3d d1 80 2c be
       0.11804034 -0.12003399 0.09382151 -0.16846015
000160 b7 0e fa 3d 2c 1f 93 3c d4 d2 b5 bc b1 7a 10 3e
       0.12209838 0.0179592 -0.022195257 0.14109303
000170 93 7b 9d 3d e4 cd f3 bc 06 e5 a7 bd a1 86 ac 3d
       0.076895855 -0.029761262 -0.0819798 0.08424116
000180 93 13 0c be 64 2d b7 3d 56 c0 13 3e bd 6b 86 bd
       -0.13679342 0.089442044 0.14428839 -0.06563518
000190 43 7d c4 bd 93 85 b4 3b a8 12 33 be 5e aa 09 be
       -0.09594204 0.0055090874 -0.17487586 -0.13443896
0001a0 de 44 eb 3d dd e3 19 3e e3 65 33 be bd c4 93 bd
       0.11487745 0.15028329 -0.17519335 -0.07215259
0001b0 60 fe e1 bc f4 e8 b5 bd fe 86 4d bc 5e 77 9e bb
       -0.027587116 -0.08882323 -0.012544392 -0.004836007
0001c0 f6 e5 b0 3d 4d 84 2b 3e c2 84 5e bd 7b 66 f3 3d
       0.086376116 0.16749687 -0.054325826 0.11884781
0001d0 01 8e 0e 3e 9f f6 25 3e 6f 14 34 3d 19 7c 6c bd
       0.13921358 0.1620736 0.0439648 -0.057735536
0001e0 98 9f d4 3c 41 66 98 bd c3 77 e8 bd 9f 7d 55 bc
       0.025955006 -0.074413784 -0.11350968 -0.013030439
0001f0 95 10 b0 3c 9c 13 d9 3d 8e 95 d6 bd b0 2f 4e be
       0.021492282 0.10599443 -0.10477744 -0.20135379
000200 ff b8 02 3e f9 b0 86 ba 69 f9 7b 3d 23 74 a0 bd
       0.12765883 -0.0010276131 0.061517153 -0.07834651
000210 02 98 61 3e c6 f3 a3 bd bb 53 56 3e 9f d0 d2 bd
       0.22030643 -0.080054805 0.20930378 -0.102936976
000220 ed 03 4f be 50 0b b7 3d cc e3 b2 3d 37 4b 09 3e
       -0.20216341 0.089377046 0.08734855 0.13407598
000230 d2 c3 95 be 12 f0 62 bd 56 f3 c0 bd 50 f1 af bd
       -0.29250962 -0.05540473 -0.09421413 -0.085909486
000240 b7 47 00 3b 7e 7e 1c 3e 2d 36 79 bd 7e 88 eb 3d
       0.0019573995 0.15282628 -0.06084268 0.11500643
000250 72 e7 e1 3c aa 4f b6 bd 8c 68 46 3e 44 6c eb 3d
       0.027576182 -0.089019135 0.19375819 0.114952594
000260 69 fb 07 be b2 78 b9 3d 92 0b ff 3a 46 d5 7a be
       -0.13279499 0.09056224 0.0019458404 -0.2449542
000270 84 78 fb 3d 66 b4 21 3e 69 6d 92 3d 14 6a 10 bc
       0.12278846 0.15791473 0.071497746 -0.0088143535
000280 36 7b 35 be 3a 7c b4 3d c6 d5 9f bd 7b 74 03 3d
       -0.17722782 0.08812757 -0.07804446 0.032093506
000290 ed 67 9f 3d 15 dc 10 3c 77 e2 3c be ea 2c dc bd
       0.07783494 0.008841534 -0.18445764 -0.10750754
0002a0 33 e3 26 bd ee 60 03 3e 73 93 59 3c 8f 8b 3b bc
       -0.040744018 0.12829944 0.013279784 -0.011446848
0002b0 d3 14 f5 3d b1 20 41 be d5 cc 6e bd e9 77 74 bd
       0.119668625 -0.18860127 -0.05830081 -0.059684668
0002c0 60 40 d7 bd ae 26 08 bd 1d cc d8 bd 2e dd 25 be
       -0.105103254 -0.033240013 -0.105858065 -0.16197655
0002d0 d7 02 74 3d eb 22 1d 3e d1 d0 da bd da af 04 3c
       0.05957302 0.15345351 -0.1068436 0.008098567
0002e0 21 98 03 3e 84 7d 05 3e 8d 91 6f 3c a7 de dc 3c
       0.12851001 0.13036162 0.014622104 0.026961638
0002f0 a3 39 45 bd 6b bc fa 3d b4 9a 40 be 13 85 a0 bc
       -0.04815067 0.12242969 -0.18809015 -0.019594705
000300 a6 e0 15 3e fb a6 3c 3e 07 84 37 be 5d bf d6 3d
       0.14636478 0.18423073 -0.17921458 0.104857184
000310 e9 a5 8e bd 54 c2 d8 bc 23 87 a5 bd f5 7d 6c bd
       -0.069652386 -0.02645985 -0.08082416 -0.05773731
000320 76 0b 11 3d fd f6 78 3d 03 0d 0f be 62 d2 61 3e
       0.03541132 0.06078242 -0.13969807 0.22052911
000330 7e bd a0 bd 8e 16 71 3d fc c5 41 bd b9 10 c7 bd
       -0.07848643 0.0588594 -0.047307953 -0.097199865
000340 aa c1 04 be d5 ca 34 bc 6b 9d 4c bd 40 e7 0e 3e
       -0.12964502 -0.011034687 -0.049954813 0.13955402
000350 b7 a5 72 bd 0c 19 23 3d ea 01 94 bc 1c 2a b5 bb
       -0.05924007 0.03981881 -0.018067319 -0.0055287015
000360 4e 60 fd 3c a0 3f 1d be 9e 71 09 3e dd 9f 58 bd
       0.03092971 -0.15356302 0.13422248 -0.052886833
000370 ff d4 f6 3d b4 17 e4 3d 1a b3 ff bd fc 5b d0 bd
       0.120523445 0.111373335 -0.12485333 -0.101737946
000380 2c ee af 3d fd d9 ec bd cd a7 09 3e bc e0 3c bc
       0.085903496 -0.115650155 0.13442917 -0.01152819
000390 c0 18 09 be 60 cf 20 3c 32 c3 06 3e 2c f2 0c 3e
       -0.13388348 0.009815067 0.13160399 0.13764256
0003a0 6d 72 21 bd ba c2 e6 bd 7c a3 16 be 62 a3 f5 bc
       -0.039415766 -0.1126761 -0.14710802 -0.029985134
0003b0 c2 30 3f be 29 56 c7 bd ea bd 85 3b 6e c3 de 3c
       -0.18670943 -0.097332306 0.0040814774 0.027192798
0003c0 73 b7 ba bd b3 29 13 3e 03 8d 71 bd c1 01 cb 3c
       -0.091170214 0.14371376 -0.05897237 0.02478111
0003d0 6a 3f d0 3d c5 fc 19 3e 63 9f 23 be 53 a5 6d 3d
       0.10168345 0.1503783 -0.1597877 0.058018994
0003e0 d0 81 e3 3d 01 dd b2 3d a9 cf a7 3d d7 8f 9d 3d
       0.11108744 0.087335594 0.08193905 0.07693451
0003f0 21 72 73 3d 49 d8 20 bc 51 e0 38 be e6 ed 4a 3d
       0.059435014 -0.009817191 -0.1805432 0.049543284

decoder.2.0.bias f4 [128]
000000 24 c2 c4 bd 60 92 1f 3d c6 5a 18 be a1 3b 31 bd
       -0.09607342 0.038957953 -0.14878377 -0.043269757
000010 b4 87 43 bd 98 3d ac bc 10 a4 5e 3d 27 64 b4 bc
       -0.04773684 -0.021025464 0.05435568 -0.022020413
000020 05 8f 05 be 0a da 15 3e e8 eb ee bc 1f 5c 7f 3c
       -0.13042839 0.14633957 -0.029165223 0.015585928
000030 f4 58 da 3c c5 34 bb 3d 4f aa 97 3d da ae 49 3e
       0.026653744 0.09140924 0.07405531 0.19695607
000040 f2 01 e2 bd 07 0f c3 3d 88 f2 cf bc 40 e5 57 bd
       -0.11035527 0.095243506 -0.025384203 -0.052708864
000050 33 5f 10 be 5a 2a fc bc 6e b1 31 3e ad ca 2d 3e
       -0.14098816 -0.030781914 0.1735284 0.16971846
000060 67 02 f7 3b 25 47 3a 3e af 3e 3f be 31 79 fb bd
       0.007538128 0.18191202 -0.18676256 -0.12278975
000070 6b a4 10 3e af fc 10 be 60 6d 40 be b6 20 9d 3c
       0.1412522 -0.14158891 -0.18791723 0.019180637
000080 44 00 10 3e 18 3a 0f be da e3 f8 3d d4 46 d4 bd
       0.14062601 -0.13987005 0.12152834 -0.10365072
000090 c5 9b c0 3d 13 f7 4c 3c a0 60 2e be e7 08 24 bd
       0.09404711 0.012510079 -0.17029047 -0.040047552
0000a0 b7 ab f6 bd 93 44 65 bd 96 26 ce 3c 9c 39 76 3b
       -0.12044471 -0.0559736 0.025164884 0.003757096
0000b0 0b 00 23 be bc 2b 27 3e b6 9c b2 bd f1 d9 1d 3e
       -0.15917985 0.16325277 -0.087212965 0.1541517
0000c0 04 f5 b7 3c 43 82 d6 bd 01 c9 e7 bd 05 22 54 3d
       0.0224557 -0.10474064 -0.11317635 0.051790256
0000d0 77 b1 41 be 71 93 b3 bd 53 a1 86 3c 0e 00 bd bc
       -0.18915354 -0.087683566 0.016434347 -0.023071315
0000e0 6c 2a 1f be 79 a7 b5 bd 37 06 29 be 5b c3 2d 3e
       -0.15543526 -0.088698335 -0.16506277 0.16969053
0000f0 f2 a4 80 bc fe bb c0 3d 75 23 12 3d b6 9a 2c 3e
       -0.015703652 0.09410857 0.035678346 0.16855893
000100 17 48 2d bd 52 c5 13 3e fd 36 78 3c 6a 0a 0c 3e
       -0.04230508 0.1443074 0.015149829 0.13675848
000110 4e 4c 0b 3e 5d 65 44 be e1 74 18 3d 25 2e 1f bd
       0.13603327 -0.19179292 0.03722084 -0.038862366
000120 25 5b ed 3d 5d f9 cb 3d 92 a9 89 bd f3 26 cd bd
       0.1158965 0.09959672 -0.06721796 -0.100171946
000130 70 fd 30 be 41 d8 f5 3d 31 86 96 3c a1 15 08 be
       -0.17284179 0.12004138 0.018374534 -0.13289501
000140 30 25 e1 bd 19 f9 0e bc 23 3e 1d be 10 57 1d bd
       -0.10993421 -0.008726382 -0.15355735 -0.038413107
000150 2d d8 be bd 4b 80 9f bd d1 7e 20 3d d0 9a 09 3e
       -0.09318576 -0.07788142 0.03918344 0.13437963
000160 89 a9 0f 3c f0 9b 20 3e ab d5 06 be 54 4b 17 3e
       0.008768448 0.15684485 -0.13167445 0.14774829
000170 99 23 fa 3d b0 b7 00 be ae 8a e0 bd 4a d9 1b be
       0.12213821 -0.12570071 -0.10963951 -0.15219608
000180 d6 f2 26 bd 29 b8 b8 bb 27 cb 32 bd 39 ba b0 bd
       -0.04075893 -0.005637188 -0.043650772 -0.08629269
000190 a2 97 74 bd 6a b3 d1 bd b7 51 f5 bc 70 af 07 be
       -0.05971492 -0.10239299 -0.029946191 -0.13250518
0001a0 f4 b3 85 bd d8 43 c0 3d 06 15 74 3d 40 d6 49 bd
       -0.06528464 0.0938794 0.059590362 -0.04927659
0001b0 a6 8a 14 3e fc fd 5b 3c 7e b6 a3 3b b0 eb 14 3e
       0.14506015 0.013427254 0.00499612 0.14543033
0001c0 82 dc 92 bc 15 ce ee 3b 64 e5 b9 bd 4e 4d 8f bd
       -0.017927412 0.0072877505 -0.09076956 -0.069971666
0001d0 01 fb 21 be 50 74 66 3d f9 4f 20 3d 25 b8 8c 3d
       -0.15818407 0.056263268 0.039138768 0.0687106
0001e0 e5 30 c6 bd 46 70 00 be cd 1c d3 bd 03 07 a4 bd
       -0.09677295 -0.12542829 -0.10308228 -0.0800915
0001f0 f2 e6 2d be 52 14 39 3d 8f 68 d8 3d 2e 04 3e be
       -0.1698263 0.045185395 0.10566818 -0.18556282
