experiments/data/ae/021_UCR_Anomaly_DISTORTEDGP711MarkerLFM5z3_5000_5948_5993.txt-.ckpt (torch, 800418 bytes, 48 tensors)

encoder.0.0.weight f4 [128, 217]
0	0xbcefd972	-0.02927849
1	0xbd9bd948	-0.076098025
2	0xbdcefbe9	-0.10106642
3	0x3cab1a0a	0.02088644
4	0x3ce2ab2b	0.02766951
5	0xbd8c6ef5	-0.06857101
6	0x3cd3b4e6	0.025843095
7	0xbc600702	-0.013673546
8	0x3c7dd3a9	0.015492358
9	0xbdc51167	-0.0962246
10	0xbdbfa90f	-0.09358417
11	0xbdb5f29c	-0.08884165
12	0xbd1f0a1d	-0.038828004
13	0xbc290faa	-0.010318676
14	0xbd01ff42	-0.031737573
15	0xbdad8a18	-0.08473605
16	0x3b9cc39f	0.004784062
17	0x3d01d69b	0.031698804
18	0xbcd8228c	-0.02638366
19	0x3c62d24e	0.013844086
20	0xbcbfb0ae	-0.023399677
21	0x3cb05a6a	0.021527488
22	0x3d5060ea	0.050873674
23	0xbd276218	-0.040865034
24	0xbd5b4c76	-0.053539716
25	0xbb20026a	-0.0024415501
26	0xbd79aa43	-0.06095339
27	0xbd184b47	-0.037181165
28	0x3cec89b4	0.028874256
29	0x3cc62e30	0.024191946
30	0xbc332414	-0.010933895
31	0x3d2ea7bf	0.042640444
32	0x3c157271	0.009121523
33	0x3cb5d411	0.022195848
34	0x3d7702c2	0.060305364
35	0x3d2c3bf8	0.04204938
36	0x3d3644f6	0.04449936
37	0x3d52d8a5	0.05147614
38	0xbd36413d	-0.04449581
39	0xbd72b43f	-0.059253927
40	0xbc404f74	-0.011737693
41	0x3c0bedc7	0.008540577
42	0xbd56acf6	-0.052411042
43	0x3b9a68cf	0.004712201
44	0x3d81bc1f	0.063347094
45	0x3d7d09b8	0.061776847
46	0xbc86be63	-0.016448205
47	0x3d0ce547	0.034398343
48	0x3d40d2b0	0.047075927
49	0xbc54af92	-0.012981312
50	0x3ca1e8b9	0.019764291
51	0xbd02f4fb	-0.031971913
52	0xbd7fbbea	-0.06243507
53	0xbd0a3362	-0.03374041
54	0xbc2e1839	-0.010625892
55	0xbd0ccf0b	-0.03437714
56	0x3c4c43b1	0.012467311
57	0x3d607dc5	0.054807443
58	0x3c19e5ef	0.009393199
59	0x3ae06c54	0.0017122128
60	0xbd3b28d9	-0.045693252
61	0xbd619b85	-0.055079956
62	0x3c7669ed	0.015039903
63	0xbc9b20ab	-0.018936476
64	0xbd83330b	-0.0640622
65	0xbd8c38b7	-0.06846755
66	0x3c81763e	0.015803453
67	0x3cc91a0d	0.024548555
68	0xbcd7e44e	-0.026353981
69	0xbd9330f8	-0.071870744
70	0xbcb4c310	-0.02206567
71	0x3d294e2c	0.041334316
72	0xbd970551	-0.07374061
73	0x3c9d3c35	0.019193748
74	0xbcc85bf4	-0.02445791
75	0x3d434472	0.047672696
76	0x3beec179	0.0072862473
77	0x3d44b913	0.048028063
78	0x3ccc53de	0.024942335
79	0x3d310ee9	0.04322711
80	0xbbf587a3	-0.007492976
81	0x3c7ff0fc	0.01562142
82	0xbcd31c66	-0.025770377
83	0x3b4b6861	0.0031037556
84	0xbd9b01dd	-0.07568715
85	0xbd3d6ced	-0.046246458
86	0xbd663ecc	-0.05621223
87	0x3cc97529	0.024592
88	0xbc6e6bbe	-0.014552055
89	0xbd893069	-0.06698687
90	0xbd6890d9	-0.056778762
91	0xbd3a9beb	-0.04555885
92	0xbd8975e2	-0.067119375
93	0xbd81b0d6	-0.06332557
94	0xbd0f291d	-0.034951318
95	0x3befd7f6	0.0073194457
96	0xbda7fa06	-0.08201985
97	0xbbf1df5f	-0.0073813642
98	0x3cf55387	0.029947056
99	0x3c18336c	0.009289604
100	0xbc9182b3	-0.017762518
101	0x3d473be9	0.04864112
102	0xbd401f91	-0.046905104
103	0xbc5de4d4	-0.013543326
104	0xbd332457	-0.04373583
105	0x3cee6180	0.029099226
106	0xbdaa394e	-0.08311711
107	0xbc9ef2b3	-0.019402837
108	0xbda774bc	-0.08176562
109	0x3cf61855	0.0300409
110	0x3d08a0bf	0.033356424
111	0xbd678d20	-0.05653107
112	0xbd5d11cd	-0.053972054
113	0xbc99e452	-0.01878563
114	0x3cb94cbd	0.0226196
115	0xbd7cfe9f	-0.061766263
116	0xbc79df7f	-0.0152510395
117	0xbd9cf4aa	-0.076638535
118	0xbaecb857	-0.0018060309
119	0xbd42962c	-0.047506496
120	0xbd853f05	-0.06506161
121	0x3a0fc408	0.0005484228
122	0xbcb747f0	-0.02237317
123	0xbdd0fa8f	-0.1020404
124	0xbd865b87	-0.06560426
125	0xbdd7ddf9	-0.10540385
126	0xbc88f8ff	-0.016720293
127	0x3b2d2371	0.002641883
128	0xbc989d46	-0.018629681
129	0xbb460b96	-0.0030219308
130	0x3c2ac6a2	0.010423334
131	0xbcbda7de	-0.023151334
132	0xbdd6f117	-0.10495203
133	0xbd172d2f	-0.036908325
134	0xbd8d9db4	-0.06914845
135	0xbdbec37b	-0.09314629
136	0xbdda3059	-0.10653753
137	0xbd044d06	-0.032300018
138	0xbda6f04b	-0.08151301
139	0xbd606339	-0.054782126
140	0x3c257de5	0.010100816
141	0xbd5d0f13	-0.053969454
142	0xbdb908a5	-0.09034852
143	0xbcccab24	-0.02498395
144	0xbce6bfc2	-0.02816761
145	0xbd9be04c	-0.076111406
146	0xbd3a3013	-0.045456003
147	0xbd0ba21b	-0.034090143
148	0xbd7c65e6	-0.061620615
149	0xbd2f9b89	-0.04287294
150	0xbb656aa9	-0.0035006201
151	0xbca3dcb6	-0.020002704
152	0xbcbf43c3	-0.023347741
153	0xbc8e6a55	-0.017384687
154	0x3cbcb37c	0.023034804
155	0xbdba44f6	-0.090951845
156	0xbd7edb66	-0.062220953
157	0xbdb36295	-0.087590374
158	0xbdd902f5	-0.10596267
159	0xbd591c33	-0.05300541
160	0x3c492867	0.012277699
161	0xbd84b974	-0.06480685
162	0x3cc79286	0.02436186
163	0x3c3700b3	0.0111696
164	0xbd7ac432	-0.061222263
165	0xbd5e90cf	-0.05433732
166	0xbd84cf6c	-0.06484875
167	0xbd6a5c7a	-0.0572171
168	0xbd4ec87c	-0.050484166
169	0xbdac1c78	-0.084038675
170	0xbd76c9ee	-0.06025117
171	0x3c6a620d	0.014305604
172	0xbd3ed3b4	-0.046588615
173	0xbd256120	-0.04037583
174	0xba30dada	-0.00067464786
175	0xbd05b64a	-0.032644548
176	0x3ce3aa32	0.027791116
177	0xbdce9f73	-0.10089006
178	0x3d09ee4c	0.033674523
179	0xbca128d9	-0.019672798
180	0xbc316a5f	-0.0108285835
181	0xbdb07153	-0.08615365
182	0x3d07e294	0.033175066
183	0xbd4022ff	-0.046908375
184	0xbbe67e8f	-0.00703413
185	0xbd1addbe	-0.037809126
186	0x3c85a61f	0.016314564
187	0xbc9d9888	-0.019237772
188	0xbd940a30	-0.072285056
189	0xbdb1bdc4	-0.08678773
190	0xbc801115	-0.015633145
191	0x3cf7a3b3	0.030229425
192	0xbd84134e	-0.064489946
193	0xbb113812	-0.0022158665
194	0xbda86770	-0.08222854
195	0x3c944b60	0.018102348
196	0xbcd25e9a	-0.025679875
197	0xbda07e14	-0.078365475
198	0x3c5433f2	0.012951838
199	0xbc197b70	-0.009367809
200	0xbcbe5b88	-0.023237005
201	0xbd501123	-0.050797593
202	0xbd5de6cf	-0.054175194
203	0xbcb30e84	-0.021857508
204	0x3d0c868a	0.034307994
205	0xbcfea629	-0.03108509
206	0xbdbc869f	-0.092053644
207	0xbd9390d5	-0.07205359
208	0xbc1e1c48	-0.009650297
209	0xbd487cfe	-0.048947327
210	0xbd6378c3	-0.05553509
211	0xbd1cf494	-0.038319185
212	0x3b62d2b0	0.0034610443
213	0xbd72377d	-0.05913495
214	0x3c10bebb	0.008834536
215	0x3b3fe7b9	0.0029282405
216	0xbcb738f8	-0.022366032
217	0x3c9a44e5	0.01883168
218	0x3d8e5b85	0.0695105
219	0x3d475ad0	0.04867059
220	0xbd272f9a	-0.04081688
221	0x3bef49fe	0.0073025217
222	0xbc587391	-0.013211147
223	0x3d4286c7	0.047491815
224	0xbd39f39a	-0.045398332
225	0x3ccd086f	0.025028436
226	0x3d3e6451	0.046482388
227	0xbcb6236b	-0.022233685
228	0x3d3abc23	0.045589577
229	0xbc323964	-0.010877941
230	0xbd0329f9	-0.03202245
231	0xbd00d4d4	-0.03145297
232	0xbd5de28e	-0.054171138
233	0xbd6630fa	-0.05619905
234	0x3d534192	0.051576205
235	0xbc48defd	-0.012260196
236	0x3cdaeaf3	0.02672336
237	0xbd8dc094	-0.06921497
238	0xbd79b95e	-0.060967796
239	0x3d16fe5f	0.03686368
240	0x3d3305f0	0.043706834
241	0x3be537cd	0.0069951774
242	0xbcb3f3a2	-0.02196676
243	0x3cd94c09	0.026525514
244	0xbda5285b	-0.08064338
245	0x3c0a0de8	0.008426167
246	0x3ca95fdc	0.020675592
247	0xbda746c3	-0.081677936
248	0xbd861024	-0.06546047
249	0x3d4085ae	0.047002487
250	0xbc9b76de	-0.018977579
251	0xbbf4c39a	-0.0074696066
252	0x3bce7d96	0.006301592
253	0x3c99b2a2	0.018761937
254	0xbb617a79	-0.0034405275
255	0xbb569c7f	-0.0032747088

encoder.0.0.bias f4 [128]
0	0xbd8ff47d	-0.07029054
1	0x3d00ecfb	0.031476002
2	0x3cb0d9a0	0.021588147
3	0x3da704c2	0.08155204
4	0xbd1df66b	-0.03856508
5	0x3bb4b6a0	0.0055149347
6	0xbd2ab722	-0.041678555
7	0x3dd375c0	0.103251934
8	0x3cee9fb3	0.029128885
9	0x3ce53a29	0.027981834
10	0x3d4f9a10	0.050684035
11	0xbb982691	-0.0046432693
12	0x3d5c6fd9	0.053817604
13	0xbd123603	-0.03569604
14	0x3cba5cee	0.02274939
15	0x3d4b40bb	0.04962228
16	0x3d24120e	0.04005628
17	0xbb709249	-0.0036708286
18	0xbd04bb92	-0.032405443
19	0xbd0bfe6e	-0.03417819
20	0x3db6e788	0.0893088
21	0x3c72c083	0.014816406
22	0x3c31abe2	0.010844203
23	0x3d0ad55f	0.033894893
24	0x3dbca9d9	0.09212083
25	0x3dc35653	0.095379494
26	0x3d8718c0	0.065965176
27	0x3db8d63c	0.09025237
28	0x3c4d4c1b	0.012530352
29	0xbb0ed242	-0.0021792804
30	0x3d4cd158	0.050004333
31	0x3d6cd70c	0.057822272
32	0xbc5dc6fe	-0.013536213
33	0x3c93315d	0.017967874
34	0xbc450512	-0.012025135
35	0xbcde1f48	-0.027114525
36	0x3cffab30	0.031209558
37	0x3d8e8fff	0.06961059
38	0x3b3da375	0.002893654
39	0x3c5b2a08	0.01337672
40	0xbdbb3303	-0.09140589
41	0x3d9fda8d	0.07805357
42	0x3d14383e	0.03618645
43	0x3d02efb9	0.0319669
44	0x3cfe442c	0.031038366
45	0x3bf398c3	0.007433982
46	0x3c482843	0.01221663
47	0xbd4e2d41	-0.050336126
48	0x3d813201	0.063083656
49	0xbcd49f64	-0.02595491
50	0x3c641893	0.013921875
51	0x3d3de842	0.046364076
52	0x3d5c7a0f	0.05382734
53	0xbc7526d2	-0.014962869
54	0xbc3764de	-0.011193482
55	0x3c7948e1	0.01521513
56	0xbd4cffbb	-0.05004857
57	0x3d3c31cb	0.045945924
58	0xba80925b	-0.0009809242
59	0xbd0076c9	-0.031363282
60	0xbd85bdd4	-0.065303475
61	0xbc95826b	-0.018250665
62	0x3d1ef590	0.038808405
63	0x3d1179f5	0.035516698
64	0xbbf0aeaa	-0.0073450403
65	0xbc612eaf	-0.01374404
66	0x3d234f8f	0.039870795
67	0xbd92a046	-0.07159476
68	0x3d91d601	0.07120896
69	0x3d36d430	0.04463595
70	0x3d4afef0	0.049559534
71	0xbd346aa6	-0.04404702
72	0x3b104ec3	0.0022019602
73	0xbd967948	-0.07347351
74	0x3bf80f25	0.0075701647
75	0x3cbf4a06	0.023350727
76	0xbd90dbee	-0.07073198
77	0x3d426913	0.047463488
78	0x3d89874e	0.067152604
79	0x3d1e9c92	0.038723536
80	0xbd713e44	-0.05889727
81	0x3cf134a4	0.029444046
82	0xbd629610	-0.055318892
83	0x3d9d0ef9	0.076688714
84	0x3d878d01	0.06618691
85	0x3c93b597	0.018030925
86	0x3d52e56a	0.051488318
87	0x3d833918	0.06407374
88	0xbc6801bb	-0.014160569
89	0x3bab8cae	0.005235276
90	0x3b8e89af	0.0043499093
91	0xbd046df1	-0.03233141
92	0xbd9a8468	-0.07544786
93	0x3c3b6b1d	0.011439112
94	0xbbe461b3	-0.0069696545
95	0x3ce14503	0.027498728
96	0x3c159657	0.009130082
97	0xbc79fd04	-0.0152580775
98	0xbcc8e74e	-0.024524357
99	0x3dadfc5e	0.08495401
100	0x3c24c837	0.010057501
101	0x3c99b6b6	0.018763881
102	0xbd0a3b99	-0.033748243
103	0x394531b1	0.00018805896
104	0xbd75412d	-0.05987661
105	0x3d8c7535	0.06858293
106	0x3b852e40	0.0040643513
107	0xbccd32b5	-0.025048593
108	0xbda14b95	-0.07875744
109	0x3d417ef1	0.0472402
110	0xbdaead83	-0.085291885
111	0x3db392d2	0.08768238
112	0x3d2aa89f	0.041664716
113	0x3c0b4906	0.008501297
114	0x3bce3de4	0.006293999
115	0xbb0feaad	-0.0021959946
116	0x3cd95908	0.026531711
117	0x3d0cb72a	0.034354366
118	0xbd5c975c	-0.053855285
119	0x3c78b626	0.015180146
120	0xbd360326	-0.044436596
121	0xbcda9fff	-0.02668762
122	0x3d9a0400	0.07520294
123	0x3d834b5c	0.06410858
124	0xbd1c80b2	-0.03820867
125	0x3d3243ef	0.043521818
126	0xbc3132e0	-0.010815352
127	0xbd2e49b0	-0.042550743

encoder.1.0.weight f4 [32, 128]
0	0xbc622660	-0.013803095
1	0x3ddd3707	0.10801511
2	0xbda04bc1	-0.07826949
3	0x3de9a913	0.114092015
4	0x3d22de2b	0.039762657
5	0x3c8b79ef	0.017025916
6	0xbdbd1e89	-0.0923434
7	0xbcb6931e	-0.022286948
8	0xbd260549	-0.040532384
9	0xbdd57b3a	-0.10423894
10	0xbd9467ff	-0.07246398
11	0xbbd38384	-0.006454887
12	0xbb8ceaf9	-0.004300472
13	0x3d87882d	0.0661777
14	0xbd5b65fa	-0.05356405
15	0x3c14bdc1	0.009078444
16	0x3bcff546	0.0063463775
17	0x3c5fe544	0.013665501
18	0xbd558114	-0.05212505
19	0xbc106287	-0.008812553
20	0xbdb265bc	-0.087108105
21	0xbd3d22f4	-0.046175912
22	0x3c5fa6d0	0.013650611
23	0x3ce088da	0.027409006
24	0x3daf852b	0.08570322
25	0x3d65800d	0.056030322
26	0xbdb6530a	-0.08902557
27	0x3d0b00d4	0.033936337
28	0x3c9812b4	0.018563606
29	0xbd0d85d7	-0.034551468
30	0x3c92145c	0.017831974
31	0xbb46a09e	-0.0030308138
32	0x3ba40c4e	0.0050063496
33	0x3b3046bc	0.002689763
34	0x3dd73c96	0.10509603
35	0xbdccfc80	-0.10009098
36	0xbb41744e	-0.0029518786
37	0x3d60941b	0.054828744
38	0x3df97067	0.12179642
39	0xbd3221d7	-0.043489303
40	0xbe001d23	-0.12511115
41	0xbd5689ee	-0.052377634
42	0x3e0127d3	0.12612848
43	0xbd7e565b	-0.062094074
44	0xbc84ed34	-0.016226389
45	0xbd7ea6c6	-0.062170766
46	0xbbe7753e	-0.007063537
47	0xbcf52d23	-0.02992875
48	0xbd65983d	-0.05605339
49	0x3daa9a45	0.08330206
50	0xbd5d94ef	-0.054097112
51	0x3d824c33	0.0636219
52	0x3d91fdc9	0.07128484
53	0x3d3f8101	0.046753887
54	0xbd364551	-0.0444997
55	0xbd015b99	-0.031581495
56	0xbce956e1	-0.02848381
57	0x3cc7a625	0.024371216
58	0x3d5121c4	0.051057592
59	0xbd3ddcf3	-0.04635329
60	0xbd8a5588	-0.06754595
61	0x3d015290	0.03157288
62	0xbd39bb76	-0.045344792
63	0xbda096f4	-0.07841292
64	0xbda7c51b	-0.08191892
65	0x3cfa64d0	0.03056565
66	0xbdeda247	-0.116032176
67	0x3a8cac3a	0.001073248
68	0x3d69bd44	0.057065263
69	0x3d864e7c	0.065579385
70	0xbccad46c	-0.024759494
71	0x3a336ded	0.00068446883
72	0x3d4edf59	0.05050597
73	0xbd3db6a5	-0.04631676
74	0x3de33812	0.11094679
75	0xbd81652b	-0.063181244
76	0x3bde982b	0.006793042
77	0xbd0050bb	-0.03132699
78	0xbd02ae39	-0.031904433
79	0x3dd06ed6	0.1017739
80	0xbdfbaad0	-0.12288439
81	0x3ccf58a3	0.02531082
82	0xbda679cf	-0.08128702
83	0xbcd87dd3	-0.026427185
84	0xbd1b8b8e	-0.037974887
85	0x3de511e1	0.11185051
86	0x3d9b0198	0.07568663
87	0x3d4b7b08	0.04967788
88	0x3d060d1a	0.03272734
89	0x3ccfcc0b	0.02536585
90	0xbd5a696f	-0.053323206
91	0xbc02acfb	-0.007975812
92	0xbd393d83	-0.045224678
93	0x3bf093c6	0.0073418347
94	0xbe2f2af8	-0.17106235
95	0x3dd0100a	0.10159309
96	0x3d3d072b	0.046149414
97	0xbdbcdb56	-0.092215225
98	0x3d14a3a2	0.036288865
99	0xbbedfd83	-0.007262887
100	0x3dcbe009	0.09954841
101	0xbc952d5b	-0.018210104
102	0x3d32d932	0.043664165
103	0x3d0fd234	0.035112575
104	0xbb6d244d	-0.0036184967
105	0xbdada4ef	-0.08478724
106	0x3d8f8f89	0.07009799
107	0x3ca052a6	0.01957066
108	0xbdb7b85a	-0.08970709
109	0x3dee240b	0.116279684
110	0xbddc8d95	-0.10769192
111	0x3dd97049	0.1061712
112	0x3d2803c3	0.041019212
113	0xbd72d96c	-0.05928938
114	0x3db8b756	0.090193436
115	0x3c7e06d7	0.01550456
116	0x3db911ec	0.090366215
117	0xbd9c5c97	-0.076348476
118	0xbc47a2d9	-0.012184822
119	0xbced07ba	-0.028934348
120	0xbd15372a	-0.03642956
121	0xbdc0f9f4	-0.09422675
122	0x3da54e34	0.08071557
123	0xbd255a35	-0.04036923
124	0x3b98c5a7	0.004662234
125	0xbd063a28	-0.032770306
126	0x3b536a96	0.0032259575
127	0xbb23693a	-0.0024934546
128	0x3d1d1150	0.03834659
129	0xbc102ca2	-0.008799704
130	0x3d80b963	0.0628536
131	0x3dba5ab2	0.0909933
132	0xbdc46532	-0.09589614
133	0x3d8e118b	0.0693694
134	0x3de6c877	0.112687044
135	0xbd48712a	-0.048936047
136	0x3d51c5c7	0.051214006
137	0x3d3929ad	0.04520576
138	0xbdcd3b83	-0.100211166
139	0x3c989cf9	0.018629538
140	0xbcf18113	-0.029480493
141	0xbcd38d47	-0.025824202
142	0x3dbd6ed9	0.09249658
143	0x3db48bd0	0.088157296
144	0x3d96924c	0.07352123
145	0xbce5e659	-0.02806394
146	0x3dbd60af	0.092469566
147	0x3cd9e2e1	0.026597442
148	0x3d92b0a7	0.071626
149	0xbc582afc	-0.013193842
150	0x3c770880	0.01507771
151	0xbd646901	-0.055764202
152	0x3e097f2f	0.13427423
153	0xbd1bde0b	-0.038053554
154	0xbcfbc788	-0.030734792
155	0xbce5effc	-0.028068535
156	0x3c650f76	0.013980737
157	0x3c71a4c4	0.014748756
158	0xbdb1eb73	-0.086874865
159	0x3c257bc2	0.010100307
160	0x3a7f484d	0.00097382517
161	0x3c7f10a0	0.015567929
162	0xbcee37dd	-0.029079372
163	0x3d7c0a4b	0.061533254
164	0x3c4f36f5	0.01264738
165	0xbdace0d1	-0.08441318
166	0xbb99316b	-0.0046750805
167	0x3d1fb458	0.03899035
168	0xbd8c7be8	-0.06859571
169	0xbade3c7d	-0.0016955283
170	0x3a55c76e	0.00081550225
171	0x3ca75537	0.020426376
172	0x3c0caa35	0.008585502
173	0x3c0eba64	0.008711431
174	0x3cb45dd0	0.02201739
175	0xbcb33922	-0.021877829
176	0x3db9c96f	0.090716235
177	0x3d3bf95e	0.045892112
178	0x3ce5ddba	0.028059829
179	0xbd89d362	-0.06729771
180	0x3d85fdc6	0.06542544
181	0xbb84ed70	-0.004056625
182	0x3bd0ab27	0.006368059
183	0xbba45e29	-0.0050161076
184	0x3d8f4aa2	0.06996657
185	0x3dc8cfcf	0.09805261
186	0x3c9b26b0	0.018939346
187	0xbd96968c	-0.07352933
188	0xbd37cdd0	-0.044874012
189	0xbd1992a2	-0.037493356
190	0xbd2a975f	-0.041648265
191	0xbd83ea22	-0.06441142
192	0x3d823e33	0.0635952
193	0x3c44dee4	0.012016032
194	0xbd918aff	-0.071065895
195	0xbdc59af3	-0.09648695
196	0xbd4dfbee	-0.050289087
197	0xbd81e1e8	-0.06341916
198	0x3db11bb2	0.086478606
199	0xbdb7168c	-0.08939847
200	0x3d8b4f2a	0.06802209
201	0xbd799c2e	-0.06093996
202	0x3c3cecb9	0.011531048
203	0xbcb6e819	-0.02232747
204	0xbcb6fc3f	-0.022337077
205	0x3d4cf678	0.05003974
206	0xbdbe4939	-0.0929131
207	0x3d9669bc	0.07344386
208	0x3cd6d667	0.026225282
209	0xbd8b993d	-0.06816337
210	0x3c1b9106	0.0094950255
211	0x3c90eb9b	0.01769047
212	0xbd0c7003	-0.03428651
213	0x3d8bf181	0.068331726
214	0xbd2176d8	-0.03941998
215	0x3cbfa440	0.02339375
216	0xbcdcb0da	-0.026939798
217	0x3cd5575c	0.026042633
218	0x3d993445	0.07480673
219	0xbce43f45	-0.0278622
220	0x3be17a19	0.0068810103
221	0x3d1a5637	0.037679877
222	0x3d6ae017	0.057342615
223	0xbd500dec	-0.050794527
224	0x3d907795	0.070540585
225	0x3d293b7f	0.041316506
226	0x3dcc5f9d	0.09979174
227	0xbc400358	-0.011719547
228	0x3d045285	0.03230526
229	0x3bc54f2e	0.006021402
230	0xbd3e5de7	-0.04647627
231	0xbd2a6a03	-0.041605007
232	0x3d92c59a	0.07166596
233	0x3bedc22c	0.007255813
234	0xbdd49c8c	-0.103814214
235	0xbc9b9ad3	-0.018994724
236	0xbbbabfa3	-0.0056991144
237	0x3dfa9637	0.122356825
238	0xbda8a8c9	-0.08235318
239	0x3dde5694	0.10856357
240	0xbd1ca116	-0.03823956
241	0xbc24134e	-0.010014368
242	0xbc1fc6a7	-0.009751952
243	0xbc136cf3	-0.0089981435
244	0x3c75a0af	0.014991923
245	0x3d182a4e	0.03714972
246	0x3dbfec1f	0.093712084
247	0xbd9a82a7	-0.07544451
248	0x3d9ba1b7	0.07599204
249	0xbc6cd8a7	-0.014455951
250	0x3ca6dd3c	0.020369165
251	0x3c645e25	0.013938461
252	0x3d469622	0.04848302
253	0xbd85bbaa	-0.06529935
254	0x3dc7b60e	0.09751521
255	0xbcbec35a	-0.02328651

encoder.1.0.bias f4 [32]
0	0x3cf80de2	0.030280057
1	0x3da88ad2	0.08229603
2	0x3d9bd475	0.07608882
3	0xbc38a8c3	-0.011270705
4	0xbc906682	-0.017627005
5	0x3da92759	0.08259458
6	0xbb8bf8d0	-0.004271604
7	0x3c06aad0	0.008219436
8	0xbda180c2	-0.07885887
9	0x3d3348f5	0.04377075
10	0xbd325b6c	-0.043544218
11	0xbd090ff8	-0.033462495
12	0xbdb22c9f	-0.08699917
13	0xbd845ea3	-0.06463363
14	0x3c8d99a2	0.017285172
15	0x3d5ca733	0.05387039
16	0x3cb05a2c	0.021527372
17	0xbbf54cf2	-0.0074859792
18	0x3d51c922	0.051217206
19	0x3d5bb12b	0.053635757
20	0x3afae3eb	0.0019141411
21	0xbd3fcd2a	-0.04682652
22	0x3df05200	0.1173439
23	0xbc861ba2	-0.016370598
24	0xbc4ca5a3	-0.012490663
25	0x3d0a9c1d	0.033840287
26	0x3d40a077	0.04702803
27	0x3d491b55	0.04909833
28	0xbd94d5d3	-0.07267346
29	0x3c83b9dc	0.016079836
30	0x3d5826de	0.05277144
31	0x3d98e1b3	0.07464924

encoder.2.0.weight f4 [8, 32]
0	0x3e294183	0.16528897
1	0x3e146eed	0.1449544
2	0x3e3438a9	0.17599739
3	0x3e566f1f	0.20940827
4	0x3c99f98b	0.01879575
5	0x3b0c377a	0.0021395371
6	0xbd48393f	-0.04888272
7	0xbe44256b	-0.19154899
8	0x3c412c39	0.011790329
9	0xbd6dcec5	-0.05805852
10	0x3d4867c0	0.04892707
11	0xbd3e3f26	-0.04644694
12	0xbd893afb	-0.06700703
13	0x3d8131c7	0.063083224
14	0x3b364b69	0.0027815944
15	0x3e0513cc	0.12995833
16	0xbe2bc385	-0.16773804
17	0xbdb4d001	-0.08828736
18	0xbdfd46c9	-0.12367017
19	0x3e200bfd	0.15629573
20	0x3d5dee6e	0.054182462
21	0x3dce1582	0.10062696
22	0x3c3ea306	0.0116355475
23	0x3e71c5b1	0.2361057
24	0x3e292a45	0.16520031
25	0xbda30aa3	-0.07961013
26	0xbbd039f4	-0.006354565
27	0x3e3729d1	0.17887045
28	0x3db286c3	0.0871711
29	0xbdc3d757	-0.09562557
30	0x3c07a558	0.008279167
31	0x3e1cead3	0.15323953
32	0xbc848b45	-0.01617969
33	0xbe1ad0f5	-0.15118773
34	0xbd988101	-0.074464805
35	0x3cc1cb34	0.023656465
36	0x3d85b654	0.06528917
37	0x3dcda1a2	0.10040595
38	0xbd413aaf	-0.047175106
39	0x3ded4706	0.11585812
40	0xbd18677b	-0.03720806
41	0x3e1637d6	0.14669737
42	0x3e482814	0.19546539
43	0x3df83e31	0.12121237
44	0x3b16b011	0.0022993127
45	0x3e45fdc4	0.19335085
46	0xbd27ad25	-0.040936608
47	0xbd9ab132	-0.075533286
48	0x3e292396	0.16517481
49	0xbe1978a5	-0.14987428
50	0x3dc528ba	0.096269086
51	0x3e2ba9f7	0.16764055
52	0xbe34b514	-0.17647201
53	0x3cd1f51c	0.025629573
54	0x3e1c842d	0.15284796
55	0xbdc004d4	-0.09375921
56	0x3de9348a	0.11386974
57	0xbe1df524	-0.15425545
58	0x3cec6ae8	0.02885957
59	0x3e0211dd	0.12702127
60	0x3e176712	0.14785412
61	0xbdc848d9	-0.097795196
62	0xbda2416c	-0.079226345
63	0xbe51c4b7	-0.20485197
64	0x3de56e4f	0.1120268
65	0xbd9a1a83	-0.07524588
66	0xbc349d28	-0.011023797
67	0x3d213a3f	0.03936219
68	0x3e0d6ace	0.13810274
69	0x3e62390e	0.22092077
70	0x3e236427	0.15956174
71	0xbe0242c2	-0.12720779
72	0x3ddf2ccb	0.108972155
73	0xbd9dd89a	-0.07707329
74	0x3d9c225b	0.0762374
75	0x3df7c300	0.1209774
76	0xbe741db8	-0.23839462
77	0xbd91be67	-0.071163945
78	0x3e264efa	0.16241065
79	0x3dd0462a	0.10169633
80	0x3df58903	0.119890235
81	0x3d84623e	0.06464051
82	0x3e5c9fe3	0.21545367
83	0xbd5271ee	-0.051378183
84	0xbdf315b3	-0.11869373
85	0xbdd16034	-0.102234274
86	0xbde430b6	-0.111421034
87	0x3d6561fc	0.05600165
88	0xbcff6985	-0.031178245
89	0x3e427c9d	0.18992849
90	0x3d891de3	0.066951536
91	0x3e3d654d	0.18495674
92	0x3dabdd8c	0.08391866
93	0xbe0051b8	-0.12531173
94	0xbdf543a1	-0.1197579
95	0x3e202d08	0.15642178
96	0xbcd61b87	-0.026136173
97	0x3c0cdf0d	0.008598101
98	0xbcc70539	-0.024294483
99	0x3d835402	0.064125076
100	0x3e2d29d8	0.16910493
101	0xbc8a10ef	-0.016853778
102	0x3e0c6f01	0.1371422
103	0xbd88548f	-0.06656753
104	0xbe276638	-0.16347587
105	0x3e182230	0.14856791
106	0x3df74a63	0.12074735
107	0x3d683158	0.056687683
108	0xbc4da08d	-0.012550485
109	0x3e2163d1	0.15760733
110	0x3e02d8a4	0.12777954
111	0xbd2b26c7	-0.041785028
112	0xbe2f19fd	-0.17099757
113	0xbda3c231	-0.079960234
114	0x3e4fefbc	0.20306295
115	0x3bdf0717	0.006806265
116	0xbe2ac3e3	-0.16676287
117	0xbe187d81	-0.14891626
118	0xbe24cfdb	-0.16094916
119	0x3dd92b6b	0.106039844
120	0x3e22aabd	0.15885444
121	0x3e3ada59	0.18247356
122	0x3e2c1c3f	0.1680765
123	0x3dba0893	0.09083667
124	0xbe20c620	-0.15700579
125	0x3e33f63f	0.17574404
126	0x3b119d27	0.0022218914
127	0x3bb39982	0.005480946
128	0xbd5ead9a	-0.054364778
129	0xbc739f81	-0.014869572
130	0xbde39a68	-0.11113435
131	0xbdd8963a	-0.105755284
132	0xbcbd3e78	-0.023101076
133	0x3dcfee08	0.10152823
134	0x3d218570	0.039433897
135	0x3cacf163	0.021111196
136	0x3e056f08	0.13030636
137	0xbd303c6e	-0.04302638
138	0x3dc3bb3a	0.09557195
139	0x3dfe3c3a	0.12413831
140	0x3e10bf03	0.14135365
141	0x3e659fee	0.2242429
142	0xbdce776a	-0.1008137
143	0xbc10531e	-0.008808879
144	0x3dc3b716	0.09556405
145	0x3d6ccdf1	0.05781359
146	0xbce730e9	-0.028221564
147	0xbd6a5992	-0.057214327
148	0x3d172fb7	0.03691074
149	0xbc3af4d7	-0.011410913
150	0xbd0123df	-0.03152835
151	0xbcdc298f	-0.026875285
152	0x3c2d884c	0.010591578
153	0xbdc9f9d3	-0.09862103
154	0xbd4b49ba	-0.049630858
155	0x3d19b2ad	0.037523914
156	0xbd65adf9	-0.056074116
157	0xbc721760	-0.014776081
158	0xbda2532d	-0.07926021
159	0xbda48891	-0.080338605
160	0x3e3f01f5	0.1865309
161	0x3e301164	0.17194134
162	0xbe435297	-0.19074474
163	0xbd3c23b8	-0.0459325
164	0x3d810d0b	0.06301316
165	0xbb747c15	-0.0037305404
166	0x3db09439	0.08622021
167	0xbdd741fa	-0.10510631
168	0xbe23e60c	-0.16005725
169	0xbdef873d	-0.116957165
170	0x3d0a96f0	0.03383535
171	0x3e06788b	0.13131921
172	0xbda9826d	-0.0827683
173	0xbde06c8a	-0.10958202
174	0x3daa9b96	0.08330457
175	0x3dacae43	0.08431675
176	0xbe18319e	-0.14862677
177	0xbc0d555e	-0.00862631
178	0x3e2acb41	0.16679098
179	0x3db916d0	0.09037554
180	0xbca45df5	-0.020064333
181	0xbe18c288	-0.14917958
182	0xbe0e257a	-0.13881484
183	0xbd8f12b6	-0.06985991
184	0xbcb18a33	-0.021672344
185	0xbb50041b	-0.0031740728
186	0x3e10e642	0.14150336
187	0x3e056c99	0.13029708
188	0x3ddfc789	0.1092673
189	0xbd3f6a56	-0.04673227
190	0x3e0e74b9	0.13911714
191	0xbd25db58	-0.040492386
192	0x3d2eac18	0.04264459
193	0x3e38e3a5	0.1805559
194	0x3e4e454c	0.20143622
195	0x3c9f1469	0.019418912
196	0x3d887a72	0.066639796
197	0x3e2611ad	0.1621768
198	0x3bdddedb	0.006770951
199	0x3e5b1ea9	0.21398415
200	0xbd208e7b	-0.03919838
201	0xbd878b6c	-0.066183895
202	0xbd8a2303	-0.06744959
203	0xbcf0a9f2	-0.029377911
204	0x3e10c636	0.14138111
205	0xbdc011ef	-0.093784206
206	0x3e1cf3a9	0.15327324
207	0xbd831555	-0.06400553
208	0x3d2c624e	0.04208594
209	0x3e3526d9	0.176906
210	0x3de49933	0.11162033
211	0xbd252f9e	-0.040328614
212	0xbde61c11	-0.11235822
213	0x3d258ae2	0.040415652
214	0x3da393a5	0.07987145
215	0xbd9f2251	-0.07770217
216	0xbcf3e008	-0.029769912
217	0xbd116d18	-0.03550443
218	0xbe28d849	-0.16488756
219	0x3d753910	0.059868872
220	0x3df597b6	0.11991827
221	0xbd6a4884	-0.057198063
222	0x3cd86db8	0.026419505
223	0xbde4d0d8	-0.11172646
224	0x3e169322	0.14704564
225	0x3d894bf1	0.06703938
226	0xbcd742e4	-0.026277013
227	0xbbbded2c	-0.0057960954
228	0x3d2cc44f	0.042179402
229	0xbd408f1d	-0.047011483
230	0x3df82f5d	0.12118409
231	0x3d904aa7	0.07045489
232	0xbd612e28	-0.05497566
233	0x3dceaa59	0.10091085
234	0x3d1d0a5d	0.03833996
235	0xbd127ceb	-0.035763662
236	0xbe0ed856	-0.13949713
237	0x3e3c5917	0.1839336
238	0xbd3fb663	-0.046804797
239	0xbcc3fe16	-0.023924869
240	0xbda319bd	-0.079638936
241	0x3d43e050	0.047821343
242	0xbd83c8fe	-0.064348206
243	0x3e13b261	0.14423515
244	0xbd4a6bf7	-0.04941937
245	0xbe39e996	-0.18155512
246	0x3d4493cf	0.047992524
247	0x3d21f281	0.03953791
248	0xbe2eac04	-0.17057806
249	0xbd0c3505	-0.03423025
250	0x3db26319	0.08710308
251	0x3d1a38ee	0.03765195
252	0x3ddf0c59	0.10891027
253	0xb9e8b92d	-0.00044388455
254	0x3d410de9	0.047132406
255	0xbd0fbb43	-0.035090696

encoder.2.0.bias f4 [8]
0	0x3cc5983d	0.024120444
1	0xbdbf6036	-0.09344523
2	0x3da59257	0.08084553
3	0x3d878db9	0.06618828
4	0xbbc46e58	-0.0059945993
5	0x3cd7e238	0.026352987
6	0xbe2ef783	-0.17086606
7	0x3d54bc3c	0.051937327

encoder.3.weight f4 [5, 8]
0	0x3e96afd4	0.2943102
1	0xbeae48a7	-0.34039804
2	0x3e854a68	0.2603333
3	0x3e62c5da	0.22145787
4	0xbe80cf13	-0.25157985
5	0x3df8adcb	0.121425234
6	0xbdc6e87c	-0.097123116
7	0xbd2156ec	-0.039389536
8	0x3e95dc95	0.29269853
9	0xbd920413	-0.07129683
10	0x3e66ecba	0.22551242
11	0x3e5fede9	0.218681
12	0x3e77d259	0.24201335
13	0xbe4cffb9	-0.20019425
14	0x3e5f16cb	0.21786039
15	0x3e782157	0.24231468
16	0x3ec2f47c	0.38077152
17	0xbe92f4a8	-0.28702283
18	0xbeb8cf2c	-0.3609556
19	0xbe16f071	-0.14740159
20	0x3ce731e3	0.02822203
21	0xbe564ecf	-0.209285
22	0xbe1dcd91	-0.15410449
23	0xbe40016d	-0.18750544
24	0xbdf75b4f	-0.120779626
25	0x3d930106	0.071779296
26	0x3e6bcd32	0.23027495
27	0x3e823db0	0.2543769
28	0x3e73b3e8	0.23799098
29	0x3eca5b39	0.39522722
30	0x3df9c8ed	0.12196527
31	0x3e2ebae5	0.17063482
32	0x3e52de62	0.20592645
33	0xbe3e7a29	-0.18601288
34	0x3da89b76	0.08232777
35	0xbdcea015	-0.10089127
36	0xbe307f84	-0.17236143
37	0x3eaed887	0.34149572
38	0xbea3c8a9	-0.3198903
39	0xbc8fd605	-0.017558107

encoder.3.bias f4 [5]
0	0xbd97eaa4	-0.07417801
1	0x3d2f5cc1	0.042813066
2	0xbe92c8e6	-0.28668898
3	0xbea6af21	-0.32555488
4	0xbde985e8	-0.11402494

decoder.0.0.weight f4 [8, 5]
0	0xbe92524f	-0.2857842
1	0xbe8f9071	-0.28039888
2	0xbd6ec47e	-0.05829286
3	0x3eb289f0	0.34870863
4	0xbed1c8ea	-0.40973598
5	0xbe2e32c6	-0.17011556
6	0x3d1abe64	0.037779227
7	0x3d193a75	0.037409265
8	0xbe759472	-0.23982409
9	0x3eb3fedd	0.35155383
10	0xbd96bb51	-0.073599465
11	0x3e0ecde8	0.13945735
12	0x3e363d2e	0.17796776
13	0x3dbea67b	0.093090974
14	0xbeddeb67	-0.4334366
15	0x3ecad310	0.39614153
16	0x3b7c1c98	0.0038469192
17	0x3dd2e5be	0.10297726
18	0xbe97c759	-0.29644278
19	0xbe088768	-0.13332903
20	0x3e91d2dd	0.28481188
21	0x3e5dc17e	0.21655843
22	0x3e95f725	0.2929012
23	0xbe30852e	-0.17238304
24	0x3eda6fc3	0.42663392
25	0xbea35859	-0.3190334
26	0x3ebe2dfa	0.37144452
27	0xbdd47fb6	-0.103759214
28	0x3d35f23c	0.044420466
29	0xbec20d83	-0.37900934
30	0xbea692b2	-0.32533795
31	0x3e8efcac	0.27927148
32	0xbd44a8bd	-0.048012484
33	0x3e081945	0.1329089
34	0xbecfb6ca	-0.40569144
35	0x3ede63ec	0.4343561
36	0xbd14457d	-0.03619908
37	0xbe951e3f	-0.29124638
38	0x3ee2d77e	0.44305032
39	0x3ddf72e2	0.10910584

decoder.0.0.bias f4 [8]
0	0xbed4bdd8	-0.4155109
1	0xbe03a29a	-0.12854996
2	0xbe969be2	-0.29415804
3	0x3ecbc28c	0.39796865
4	0x3ed5ad38	0.41733718
5	0x3edab4ca	0.42716056
6	0x3ec33681	0.3812752
7	0x3e5da969	0.21646656

decoder.1.0.weight f4 [32, 8]
0	0x3e3d3590	0.18477464
1	0xbdc738ef	-0.09727656
2	0x3de78057	0.11303776
3	0xbe05c284	-0.13062483
4	0x3ece1f53	0.40258273
5	0x3eaba2b2	0.33522564
6	0xbe94b66f	-0.29045436
7	0xbe42ffa8	-0.19042838
8	0xbe5ad69b	-0.21370928
9	0x3e477f82	0.19482234
10	0xbe80be9e	-0.2514543
11	0xbeaed7a8	-0.34148908
12	0x3dd10d51	0.10207618
13	0xbea58837	-0.32330486
14	0xbcd8fb87	-0.026487125
15	0xbdfba764	-0.122877866
16	0xbe8782bf	-0.2646694
17	0xbe7f7cbd	-0.24949928
18	0xbc17c137	-0.009262375
19	0xbda62d4c	-0.081141084
20	0x3e66f838	0.22555625
21	0xbee0d7b1	-0.4391456
22	0x3d96c96f	0.07362639
23	0x3e9d9ec4	0.3078519
24	0x3ec613c4	0.38686955
25	0xbe9d9d32	-0.30783993
26	0x3d84e29c	0.06488535
27	0x3e24dbcf	0.16099475
28	0xbeeb656f	-0.45975825
29	0xbe147d0a	-0.14500824
30	0x3e8493fd	0.25894156
31	0xbe45cc4b	-0.19316213
32	0x3e535218	0.20636785
33	0xbe479090	-0.1948874
34	0xbde3c86a	-0.1112221
35	0xbeae4520	-0.34037113
36	0xbe698b1d	-0.22806974
37	0xbe938602	-0.28813177
38	0xbe23bdd5	-0.15990384
39	0xbd99bb92	-0.07506479
40	0x3e13de00	0.14440155
41	0xbe5b74b0	-0.21431231
42	0x3cb7b42a	0.022424776
43	0x3df66936	0.12031786
44	0xbe856821	-0.26056007
45	0xbe9fbef7	-0.31200382
46	0xbb863011	-0.0040950854
47	0xbe5c1cc1	-0.21495344
48	0xbdca1348	-0.09866959
49	0xbe133f85	-0.143797
50	0xbe67c41b	-0.22633402
51	0xbe83584f	-0.25653312
52	0xbe124bb8	-0.14286697
53	0x3d644d70	0.055737913
54	0x3ea10b95	0.3145415
55	0x3ea68bc7	0.32528517
56	0xbeb2fa31	-0.34956506
57	0x3da73452	0.08164276
58	0xbd4f1dd4	-0.050565556
59	0xbcd37e2e	-0.025817003
60	0x3e0ed6e7	0.13949166
61	0xbe53cca3	-0.20683531
62	0xbecd32f4	-0.40077937
63	0x3eba4b8e	0.3638577
64	0xbd4e50d5	-0.050370056
65	0x3db666c8	0.08906323
66	0xbe3309a8	-0.17484152
67	0x394ac806	0.00019338736
68	0x3ee15096	0.44006795
69	0xbe180ca8	-0.14848578
70	0xbda50197	-0.08056944
71	0x3d5b27ba	0.053504683
72	0xbd7eeb65	-0.06223621
73	0x3d43e1c8	0.047822744
74	0x3e5af711	0.21383311
75	0xbe9a5584	-0.30143368
76	0x3e6f9907	0.23398219
77	0xbe908248	-0.28224397
78	0xbe6feca9	-0.23430122
79	0x3e34f4e9	0.17671551
80	0x3e66b181	0.2252865
81	0x3da22175	0.07916538
82	0x3db13ff3	0.086547755
83	0xbef6a9a0	-0.4817629
84	0xbe33853d	-0.17531295
85	0x3eb6df04	0.35717022
86	0xbd9b0860	-0.07569957
87	0xbe4b7725	-0.19869669
88	0xbc77fb98	-0.015135668
89	0xbe1d4ff0	-0.15362525
90	0xbeb4323b	-0.35194573
91	0x3e76427a	0.24048796
92	0x3d9efe03	0.07763293
93	0xbdd4b2fb	-0.103857
94	0x3e7371fb	0.23773949
95	0x3e64fa39	0.22361077
96	0xbeb2287e	-0.34796518
97	0x3e043386	0.1291028
98	0xbe615211	-0.22003962
99	0x3dd55e39	0.10418362
100	0x3e4a2c56	0.19743475
101	0x3da7fa7b	0.08202072
102	0xbdb0dc29	-0.08635742
103	0xbe0bc023	-0.13647513
104	0xbdab8c67	-0.08376389
105	0x3e9185a3	0.2842227
106	0xbc951e9c	-0.018203072
107	0x3eb6b43a	0.35684377
108	0x3d9ba5a4	0.07599953
109	0xbd94ea30	-0.0727123
110	0x3d19fea9	0.03759638
111	0x3ddb9b0f	0.107229345
112	0x3e4be23e	0.19910523
113	0x3e783a0f	0.24240898
114	0xbe3e75fa	-0.18599692
115	0xbdda9065	-0.10672072
116	0xbda78b9f	-0.081809275
117	0x3e93212b	0.28736243
118	0x3e6209f5	0.22074111
119	0xbe4c11ea	-0.19928709
120	0xbe827bd2	-0.25485092
121	0xbdea2108	-0.114320815
122	0xbded501d	-0.11587546
123	0xbe920619	-0.28520277
124	0xbe5d3f1d	-0.21606107
125	0x3e3d5b57	0.18491875
126	0xbe08ee00	-0.1337204
127	0x3eba1775	0.3634602
128	0xbe88eeff	-0.2674484
129	0x3e92b3ef	0.28652903
130	0xbe87b78a	-0.26507217
131	0xbe894ffb	-0.26818833
132	0x3e10853c	0.14113325
133	0xbd8fd551	-0.07023109
134	0xbdf503d1	-0.119636185
135	0x3e64995a	0.22324124
136	0xbe0b389b	-0.13595812
137	0xbe78c02b	-0.24292056
138	0x3e044f22	0.12920812
139	0xbe724cf4	-0.23662168
140	0xbd5dbcfa	-0.0541353
141	0x3d86dc43	0.0658498
142	0xbe963b64	-0.29342186
143	0x3dc3910b	0.09549149
144	0x3d9bd01b	0.07608052
145	0xb88af361	-6.625686e-05
146	0x3caa93d6	0.020822447
147	0xbeb4795d	-0.35248843
148	0xbd0213ee	-0.031757288
149	0xbe39b22e	-0.18134376
150	0xbe9b8b87	-0.30379888
151	0x3dd678f5	0.104722895
152	0x3cfb9fb6	0.030715805
153	0xbdda2b49	-0.10652787
154	0x3e70e4aa	0.23524728
155	0xbe5ea82c	-0.2174384
156	0x3eb08cc2	0.3448239
157	0x3ea39d25	0.3195583
158	0x3e971896	0.29510945
159	0x3d8a8155	0.067629494
160	0x3e311c1e	0.17295882
161	0x3ec18526	0.37796897
162	0x3e7909bc	0.2432012
163	0x3ec2112f	0.37903735
164	0xbe2a1d7f	-0.16612814
165	0xbe8c24ae	-0.27371734
166	0xbe779ef1	-0.24181725
167	0xbd7d917c	-0.061906323
168	0x3ebe798f	0.37202117
169	0xbe61f109	-0.22064604
170	0x3ebe0a44	0.37117207
171	0x3d661901	0.05617619
172	0xbe9419ae	-0.28925842
173	0x3e45b299	0.19306411
174	0x3e9328dd	0.28742114
175	0x3e7a596e	0.24448177
176	0xbddfb1bd	-0.10922573
177	0x3e14eeb0	0.14544177
178	0xbea11eae	-0.3146872
179	0xbe33a7c4	-0.17544466
180	0x3d9f9e6d	0.07793889
181	0x3d539476	0.051655255
182	0xbe24eb2f	-0.1610534
183	0x3e5239c4	0.20529848
184	0x3d43f697	0.04784259
185	0xbde991ab	-0.11404737
186	0xbada8c30	-0.0016673859
187	0x3cff9605	0.031199465
188	0xbec02437	-0.3752763
189	0x3e6edd26	0.23326549
190	0xbdcb2dba	-0.09920831
191	0x3e4324cf	0.1905701
192	0xbd9d99fc	-0.07695386
193	0x3e6a5129	0.22882523
194	0x3e700a9f	0.23441552
195	0x3e64d8fb	0.22348396
196	0xbdf2df6e	-0.11859022
197	0x3df52713	0.119703434
198	0xbe3504f6	-0.17677674
199	0x3dfca0c2	0.123353496
200	0xbeb27447	-0.34854338
201	0x3e01ca15	0.12674744
202	0xbe345625	-0.17610987
203	0x3eb4ebbb	0.35336098
204	0xbcf88c6c	-0.030340396
205	0x3c22594c	0.009908985
206	0x3e8611fb	0.26185593
207	0xbe9dd540	-0.3082676
208	0xbebccc89	-0.36874798
209	0x3e14f667	0.1454712
210	0xbe3d115e	-0.18463656
211	0xbdf1b60a	-0.11802299
212	0x3da2dfb6	0.07952826
213	0xbe7e181a	-0.24813882
214	0xbe38d24b	-0.1804897
215	0xbe51338b	-0.20429818
216	0xbdfad0af	-0.122468345
217	0x3e823ae3	0.25435552
218	0xbe72900c	-0.23687762
219	0x3e13f710	0.14449716
220	0xbd874501	-0.06604958
221	0x3dcd942b	0.100380264
222	0x3e3b126d	0.18268748
223	0x3e43fb85	0.19138916
224	0xbd94070c	-0.072279066
225	0xbe80e27c	-0.25172794
226	0xbe9bbfc0	-0.3041973
227	0x3ed12b1e	0.40853208
228	0x3d304972	0.043038793
229	0x3e5673a9	0.20942558
230	0x3e93b986	0.2885248
231	0xbe5f6ee9	-0.21819653
232	0xbea1b37b	-0.31582245
233	0x3e0db757	0.1383947
234	0xbe1b77d5	-0.15182431
235	0x3bc5d943	0.0060378625
236	0x3ecd2415	0.4006659
237	0x3ce54805	0.027988443
238	0xbe467088	-0.19378865
239	0x3e9ed4eb	0.3102182
240	0xbcd44eab	-0.025916418
241	0xbe726ea4	-0.23675019
242	0xbdffa9a9	-0.12483532
243	0xbc004bd6	-0.007830581
244	0xbe6078d3	-0.21921091
245	0x3d2d1459	0.042255733
246	0xbe758427	-0.23976193
247	0xbcf4d4a1	-0.029886546
248	0xbe1a69d1	-0.15079428
249	0xbe76aea6	-0.2409006
250	0xbdd4e43c	-0.10395095
251	0xbd524b94	-0.05134161
252	0xbe36dce6	-0.17857704
253	0x3e5da04d	0.21643181
254	0x3eaa72de	0.33290762
255	0x3c23121f	0.009953051

decoder.1.0.bias f4 [32]
0	0x3e9adf9a	0.3024872
1	0xbc768ca2	-0.015048178
2	0xbe8ecade	-0.2788915
3	0xbd370975	-0.044686753
4	0xbea810dc	-0.32825363
5	0xbe86c53e	-0.2632236
6	0xbe4e6134	-0.20154268
7	0x3db4375e	0.08799623
8	0x3e3b4b11	0.18290354
9	0xbd28d269	-0.041216288
10	0xbe613621	-0.21993305
11	0x3ea9b77c	0.331478
12	0xbc750653	-0.014955121
13	0x3e2dbba0	0.16966105
14	0x3ea0a753	0.31377658
15	0x3bbd6989	0.005780403
16	0x3ebabdf0	0.36473036
17	0x3eb2a93f	0.3489475
18	0x3e5c3f48	0.21508515
19	0xbe09185c	-0.13388199
20	0xbe696fbc	-0.2279653
21	0xbebae047	-0.36499235
22	0x3e23f361	0.1601081
23	0xbd81d3a6	-0.06339197
24	0xbe0862f0	-0.13318992
25	0x3e5946c0	0.21218395
26	0x3e6346ed	0.22195025
27	0x3e538c57	0.20659004
28	0x3ba2f4a5	0.0049730116
29	0x3e427c17	0.18992649
30	0xbe9fbe5f	-0.3119993
31	0x3e807457	0.2508876

decoder.2.0.weight f4 [128, 32]
0	0x3d9ff124	0.07809666
1	0x3d0afae4	0.033930674
2	0xbdf77be9	-0.12084181
3	0x3cc63e0e	0.024199512
4	0xbce080f8	-0.027405247
5	0xbde03266	-0.10947113
6	0xbde72111	-0.11285604
7	0xbe435ea0	-0.19079065
8	0xb907c653	-0.00012948485
9	0x3d4a942b	0.04945771
10	0xbe89ca2a	-0.2691205
11	0xbdd0683a	-0.1017613
12	0x3e425ebf	0.18981455
13	0x3db6201b	0.088928424
14	0x3d2484e5	0.0401658
15	0xba8ca205	-0.0010729438
16	0xbc3b30b9	-0.011425191
17	0xbdd2c840	-0.10292101
18	0x3e3c1b4c	0.18369788
19	0xbe10c4e5	-0.1413761
20	0xbddadc58	-0.106865585
21	0xbe009156	-0.12555441
22	0x3de5e085	0.11224464
23	0xbdddc168	-0.10827905
24	0xbb51067f	-0.003189474
25	0x3e08d658	0.13363016
26	0xbdaea6fc	-0.085279435
27	0xbd88ce3e	-0.066799626
28	0x3e2ed226	0.17072353
29	0x3c52a2e2	0.012856217
30	0xbe2495fc	-0.1607284
31	0x3e42e2a0	0.19031763
32	0xbe0cea52	-0.13761261
33	0x3bdb28b9	0.006688204
34	0x3e51cd9f	0.20488594
35	0xbe1a7fbe	-0.15087792
36	0xbc2f84f2	-0.010712849
37	0xbe0b4c53	-0.13603334
38	0xbd54782c	-0.051872417
39	0x3d662ea3	0.05619682
40	0xbe1ffd78	-0.15624034
41	0x3df26318	0.11835307
42	0xbde666a9	-0.112500496
43	0xbe21a925	-0.1578718
44	0xbe35f868	-0.1777054
45	0xbc3374f9	-0.010953181
46	0xbe3ec689	-0.18630423
47	0xbcd2429a	-0.025666524
48	0xbd57c910	-0.052681983
49	0x3d761866	0.060081862
50	0x3ce88db1	0.028387876
51	0xbe26212a	-0.16223589
52	0xbd116c56	-0.035503708
53	0xbd83320c	-0.0640603
54	0x3df60507	0.12012678
55	0x3e109b55	0.14121754
56	0xbd32fa32	-0.043695636
57	0x3deae82b	0.11470064
58	0xbe04da81	-0.12973978
59	0xbd3f2c29	-0.046672974
60	0x3c17b5f2	0.009259688
61	0xbb3bd8a1	-0.0028663056
62	0xbe0fb311	-0.14033152
63	0x3d720f75	0.059096772
64	0xbe421fe3	-0.18957476
65	0xbde0db8d	-0.10979376
66	0x3dee89fb	0.116474114
67	0x3e4e24c1	0.20131208
68	0xbd7b8fd8	-0.061416477
69	0xbe0d854f	-0.13820384
70	0x3d1f7545	0.038930196
71	0x3e27585b	0.16342299
72	0xbded22b5	-0.115788855
73	0xbde5c185	-0.112185515
74	0xbc934b7e	-0.017980333
75	0xbde5104f	-0.11184751
76	0x3e018dce	0.1265175
77	0x3db38768	0.08766061
78	0x3d3b5a07	0.045740154
79	0x3cbf08ef	0.02331969
80	0xbd85f74a	-0.06541307
81	0xbd362ab8	-0.044474334
82	0xbe2e8aea	-0.17045179
83	0xbb992aee	-0.004674307
84	0x3dbfde03	0.09368517
85	0x3e0418fe	0.12900159
86	0x3e11b519	0.1422924
87	0xbe0f0dce	-0.1397011
88	0xbdd0de04	-0.10198596
89	0xbe48a05b	-0.19592421
90	0x3d86a393	0.06574168
91	0xbc9a391a	-0.018826056
92	0xbdc895e6	-0.09794216
93	0xbdebb5d8	-0.11509293
94	0x3e299fb4	0.16564828
95	0xbe26eb86	-0.16300783
96	0x3dca6cb1	0.098840125
97	0xbdff6aaf	-0.1247152
98	0xbde9dcd7	-0.11419075
99	0xbe7a45bd	-0.24440666
100	0x3dc51a64	0.09624174
101	0x3e278b77	0.16361795
102	0x3e006efa	0.12542334
103	0xbd3fa932	-0.046792217
104	0x3df766ba	0.120801404
105	0x3da5649e	0.08075832
106	0x3d9806c0	0.074231625
107	0x3d9d48fe	0.07679938
108	0xbe02ad92	-0.12761524
109	0x3e403044	0.18768412
110	0x3e250e4d	0.16118737
111	0xbd63cf5f	-0.055617686
112	0xbe134de5	-0.14385183
113	0x3c0d1ba7	0.00861255
114	0xbe371e64	-0.17882687
115	0x3dd528a9	0.10408146
116	0xbcade919	-0.021229314
117	0x3d688abc	0.056772932
118	0x3dc5511a	0.096346095
119	0x3dd1ba65	0.1024063
120	0xbe22ab9d	-0.15885778
121	0x3e3a6634	0.1820305
122	0xbdcb8711	-0.09937871
123	0x3c9eb715	0.01937441
124	0xbd29cacd	-0.04145317
125	0x3db47e5d	0.088131644
126	0x3cc843ed	0.024446452
127	0x3d54bee8	0.051939875
128	0xbdcdc5d7	-0.100475006
129	0x3c025a9e	0.007956175
130	0xbd04095a	-0.03223548
131	0xbc79d830	-0.015249297
132	0x3bd661b9	0.006542411
133	0xbddca967	-0.107744984
134	0xbdaffd8c	-0.08593282
135	0xbdaff642	-0.08591892
136	0x3c3ce918	0.011530183
137	0x3d500dcb	0.050794404
138	0xbe339702	-0.17538074
139	0xbe2d05aa	-0.16896692
140	0x3bce0931	0.006287717
141	0xbd127e0c	-0.03576474
142	0x3e2f46ff	0.17116927
143	0x3d9180ec	0.07104668
144	0x3c2414fc	0.010014769
145	0x3dfd02fd	0.123540856
146	0x3cc2f307	0.023797525
147	0xbd865d5b	-0.06560775
148	0xbcad672f	-0.021167366
149	0x3b04d5c7	0.0020269023
150	0xbd3a053c	-0.04541515
151	0xbcef10f3	-0.029182887
152	0xbe074211	-0.13208796
153	0xbe332dc4	-0.17497927
154	0x3aba240c	0.0014201417
155	0x3e075a09	0.1321794
156	0x3df6ab23	0.120443605
157	0x3ccb6456	0.024828117
158	0x3d868256	0.06567828
159	0xbe241f8a	-0.16027656
160	0x3e1e0816	0.15432772
161	0xbd916adb	-0.07100459
162	0xbc412368	-0.011788227
163	0xbe27bc7a	-0.16380492
164	0x3dbaf009	0.09127814
165	0x3d96d081	0.07363988
166	0xbdcb762f	-0.09934651
167	0x3e37cd44	0.17949396
168	0x3e3ef75f	0.18649052
169	0x3d956efe	0.07296561
170	0xbc2f6e1e	-0.010707406
171	0xbc3c2f0d	-0.011485827
172	0xbd6dc20b	-0.058046382
173	0xbd909fb9	-0.07061715
174	0xbe50b45e	-0.20381305
175	0x3e28a9ce	0.16471025
176	0x3df595c5	0.11991457
177	0xbc44caf3	-0.0120112775
178	0x3d88022b	0.066410385
179	0x3df70d16	0.12063043
180	0x3da0aeed	0.078458644
181	0x3d99df3a	0.0751328
182	0x3ded8e2c	0.11599383
183	0xbe04fa4b	-0.12986104
184	0x3dbf2f2e	0.09335171
185	0xbc5527c8	-0.013009973
186	0x3e29fc31	0.1660011
187	0xbb97a5c4	-0.004627915
188	0xbddefc2d	-0.108879425
189	0xbdf386fe	-0.11890982
190	0xbde28eb7	-0.11062377
191	0x3cab0163	0.020874685
192	0x3e2fb5fc	0.17159265
193	0x3e068e2b	0.1314017
194	0xbdc9813d	-0.09839103
195	0xbdccf22c	-0.10007128
196	0xbd135e6d	-0.035978723
197	0xbe0ba876	-0.13638481
198	0x3da3feee	0.08007608
199	0xbe4d0bdc	-0.20024055
200	0xbe406c27	-0.18791257
201	0xbd5c35b7	-0.053762164
202	0xbd91ddfc	-0.07122418
203	0xbd1feee6	-0.03904619
204	0xbd9c24c0	-0.07624197
205	0xbd4bb6e8	-0.04973498
206	0xbcb6b1e3	-0.02230162
207	0xbd26b87e	-0.04070329
208	0x3c3be4e1	0.011468143
209	0xbda4b7fa	-0.08042903
210	0x3da0df74	0.0785512
211	0xbe0d86ab	-0.13820903
212	0xbe03ffe4	-0.12890583
213	0x3cc3975e	0.023875888
214	0x3c5c72d4	0.0134551115
215	0xbe1862b7	-0.14881407
216	0xbde1b08d	-0.110200025
217	0xbd8ae8be	-0.06782673
218	0xbe1735f8	-0.14766681
219	0xbda512a0	-0.08060193
220	0xbd8b8ebe	-0.06814335
221	0x3dbdafb1	0.09262026
222	0x3e1773e2	0.147903
223	0x3db2e205	0.08734516
224	0xbe07ee07	-0.13274394
225	0x3e114170	0.14185119
226	0x3db22304	0.08698085
227	0x3da4b1c7	0.08041721
228	0x3e07ef2e	0.13274834
229	0xbdd0d50b	-0.10196885
230	0xbd424186	-0.04742577
231	0x3dfbee33	0.12301292
232	0x3e2bc307	0.16773616
233	0x3d3a7519	0.04552183
234	0x3dc9b504	0.09848979
235	0xbd8980c4	-0.06714013
236	0xbc727fb5	-0.014800956
237	0x3ca9d61b	0.020731976
238	0x3d3708c0	0.04468608
239	0x3e2a33c7	0.16621314
240	0xbd874e91	-0.06606782
241	0xbd11c0b1	-0.035584155
242	0x3e1b390d	0.15158482
243	0xbe02c6d3	-0.12771158
244	0xbd5486e4	-0.051886454
245	0x3dccc7ce	0.09999047
246	0x3e15b308	0.14619076
247	0x3c6389b2	0.01388781
248	0xbc03e431	-0.008050011
249	0xbdb7e8e7	-0.089799695
250	0xbe27c817	-0.16384922
251	0xbe3fe3ad	-0.18739195
252	0xbe4c8922	-0.19974187
253	0x3d72db9e	0.059291475
254	0xbda2ac0a	-0.0794297
255	0xbe9fe07b	-0.31225953

decoder.2.0.bias f4 [128]
0	0xbcea3bfb	-0.028593054
1	0xbe0c77ac	-0.13717526
2	0xbd225ded	-0.039640356
3	0x3da8b205	0.082370795
4	0xbe2a2b08	-0.16617978
5	0xbe404aa9	-0.1877848
6	0xbdf0dd15	-0.11760918
7	0xbda1e52b	-0.079050384
8	0x3d5d929c	0.054094896
9	0xbe4c3a47	-0.19944106
10	0x3d7fa8c5	0.06241681
11	0x3df38267	0.11890107
12	0xbcccdc9d	-0.02500754
13	0xbe46f3de	-0.19428965
14	0x3df74dd5	0.12075392
15	0x3d970930	0.07374799
16	0x3d045389	0.032306228
17	0x3dec81e1	0.1154821
18	0xbdc6a4eb	-0.09699424
19	0x3e3227a0	0.17397928
20	0xbe0e25dd	-0.13881631
21	0x3cbdefad	0.023185575
22	0x3c835719	0.016032742
23	0x3e01366c	0.12618417
24	0xbe3890ec	-0.18024033
25	0xbe0d5d54	-0.13805133
26	0x3e2d5c26	0.16929683
27	0x3e3b1ce1	0.18272735
28	0xbd9c2382	-0.0762396
29	0x3ca06955	0.019581476
30	0x3c68a7b3	0.014200139
31	0x3de6f525	0.11277226
32	0xbdc2884f	-0.09498655
33	0x3e378b82	0.17924312
34	0x3d97d4a5	0.074136056
35	0x3d8cd25c	0.0687606
36	0xbc4d06d8	-0.012513839
37	0x3e3914aa	0.18074289
38	0xbdf5c560	-0.12000537
39	0x3b30b3d3	0.0026962652
40	0x3dc1680b	0.09443673
41	0x3e3eb5b6	0.18624005
42	0x3ca3e081	0.020004513
43	0x3da95115	0.08267418
44	0x3e245d69	0.16051258
45	0x3d6926bf	0.056921717
46	0x3d2942e0	0.041323543
47	0xbd992210	-0.074772
48	0xbe444b35	-0.19169314
49	0x3e42fec0	0.19042492
50	0x3c35672c	0.011071961
51	0xbcbb7654	-0.022883572
52	0x3e317ac6	0.1733199
53	0xbd8cdabf	-0.0687766
54	0x3d519d86	0.051175617
55	0x3da86120	0.0822165
56	0xbe2d48ac	-0.16922253
57	0xbd137707	-0.036002185
58	0xbe614494	-0.21998817
59	0x3dfea66d	0.12434087
60	0x3dd5acf9	0.104333825
61	0x3e375b0b	0.17905824
62	0x3e24a305	0.16077812
63	0xbd04b1bf	-0.032396074
64	0xbe053993	-0.13010244
65	0xbe4dcf0a	-0.2009851
66	0x3ccc2fc6	0.024925124
67	0x3cd0b7a5	0.025478194
68	0xbcafcc13	-0.021459615
69	0xbe36bd3f	-0.17845629
70	0xbe0bdddb	-0.1365885
71	0xbe09fe47	-0.13475905
72	0x3e3ca883	0.18423657
73	0x3da1e30a	0.079046324
74	0xbcf6369a	-0.030055333
75	0xbd604ce6	-0.054760836
76	0x3d9dca30	0.0770458
77	0xbe321b71	-0.1739328
78	0xbdb4dc5d	-0.088310935
79	0x3df14308	0.11780363
80	0x3dfd3d60	0.12365222
81	0xbe2cc127	-0.16870557
82	0xbe106350	-0.14100385
83	0x3d3da8bd	0.0463035
84	0xbdb58760	-0.08863711
85	0xbe29bf7b	-0.1657695
86	0x3dfb5e09	0.12273795
87	0xbe08aecb	-0.13347928
88	0xbd4904e5	-0.049076933
89	0x3e33210b	0.17493074
90	0xbbe21f4c	-0.0069007035
91	0x3de72046	0.112854525
92	0x3e22570e	0.15853521
93	0x3dd73288	0.10507685
94	0x3e0644d1	0.13112189
95	0x3e070880	0.13186836
96	0x3dc5ea55	0.09663836
97	0xbd8bad0f	-0.06820118
98	0x3c5c8729	0.013459959
99	0x3c036f55	0.008022149
100	0x3e19ec3f	0.15031527
101	0xbdd589ad	-0.1042665
102	0x3df0f3aa	0.11765225
103	0xbe53cc1b	-0.20683329
104	0x3e36ced2	0.17852333
105	0x3d88b510	0.0667516
106	0xbda00118	-0.078127086
107	0xbd1d3db2	-0.038388915
108	0xbdb36d20	-0.08761048
109	0xbdef4778	-0.116835535
110	0xbe227260	-0.15863943
111	0xbcac9ad7	-0.021069927
112	0xbd97a3ce	-0.0740429
113	0x3e0b12ca	0.13581386
114	0xbd880bae	-0.06642853
115	0x3e25eaae	0.16202804
116	0x3c1be074	0.009513963
117	0xbe3f3174	-0.18671209
118	0x3b513f3f	0.0031928567
119	0xbd747f9b	-0.059692007
120	0xbd0b567f	-0.034018036
121	0xbca392b3	-0.019967413
122	0x3e3aca42	0.18241218
123	0xbdaf61bf	-0.085635655
124	0xbda1e02e	-0.07904087
125	0xbe2c9328	-0.1685301
126	0x3e172e61	0.14763786
127	0xbdfe889d	-0.12428401
