experiments/data/ae/031_UCR_Anomaly_DISTORTEDInternalBleeding20_2700_5759_5919.txt-.ckpt (torch, 683298 bytes, 48 tensors)

encoder.0.0.weight f4 [128, 179]
0.017962992 0.03761089 0.053688787 -0.046208337 0.018154807 0.042965174 0.029525554 0.04089523
0.07542297 0.017665619 -0.032741763 0.0444958 -0.033301745 0.016073288 -0.06115464 0.007713021
-0.044584528 -0.037951387 -0.05525494 -0.026281543 0.01713943 -0.0035531018 0.062453605 0.078807086
0.00048724588 -0.030255817 -0.030269694 0.018240571 -0.060242984 -0.0013322582 0.04350383 0.04563153
-0.04566314 -0.00041451963 -0.0018000525 0.030096587 0.008358436 0.01338681 -0.04531752 0.03991342
-0.018035311 0.008269807 -0.026401086 0.08779923 0.08623178 -0.004210278 -0.004508861 0.04731066
-0.022620542 0.077114895 0.10051417 0.04358915 -0.012022326 0.059410203 0.06448496 0.011433285
-0.0069036824 0.062167883 -0.0068552857 0.036587022 0.079576164 0.076616675 0.0051075397 0.0135715585
-0.0061904155 -0.0007731008 -0.015808668 -0.028778458 0.098719895 0.0580422 -0.027963491 0.048439812
-0.008539187 -0.0054234015 0.035756312 -0.03238224 0.07854807 0.03743033 -0.028338103 -0.0014089483
0.07292607 0.10495956 -0.020346487 0.09873635 0.062896885 -0.038359582 -0.021797447 0.09463509
0.09666112 0.05961973 0.08025384 0.084314175 0.0019338108 -0.04075526 0.08930872 0.088084675
-0.027230324 0.03285705 0.01685583 0.07842163 0.032795865 0.050759897 0.028067252 0.09129947
0.020168401 0.09529255 -0.017765969 0.049642928 0.07192796 0.06437136 0.006303163 -0.0061337845
0.03353229 -0.0058023236 -0.031912286 0.007562293 0.02194675 0.0010360116 0.07615012 -0.025165321
0.02954314 0.05554252 0.06887781 -0.005790557 -0.04669493 0.04121703 0.029751197 0.025504103
0.012296166 0.010116097 -0.025778081 0.009062854 -0.05082643 -0.0064600916 0.031351965 -0.026808575
-0.057232205 0.078924544 -0.041647974 -0.026977576 -0.005042367 0.07338863 0.009322281 -0.044219952
0.062185388 0.0044276468 0.08020503 0.067479126 -0.011040918 0.04006999 -0.06363947 -0.026104039
0.0209888 -0.018196518 -0.019230805 -0.019630365 -0.064841665 -0.01705434 0.03622051 0.053887755
-0.019384753 0.011092899 0.02253924 -0.046268266 -0.06726162 0.0732233 0.0550136 -0.06052738
-0.015936963 0.021760803 -0.014933774 -0.049254663 -0.035384405 0.03294866 0.03475595 0.020787545
-0.043646563 0.07235267 -0.0002731968 0.020476112 -0.05488499 -0.012355156 -0.057108838 -0.04384774
-0.040140253 -0.048027832 0.036327798 0.0047239503 0.017452931 -0.0031169509 -0.02865989 -0.0071247113
0.0057350416 -0.06055676 -0.052794777 0.05165056 -0.002325601 -0.07676014 0.047585975 0.021459328
-0.05407035 0.0129009485 0.015647095 -0.027736096 -0.01329516 -0.028693832 0.043857064 0.0001706668
0.054773998 -0.0036333043 0.042398077 -0.06128685 0.030508574 -0.083538525 0.044003166 -0.08430135
0.028384874 0.016770555 -0.06009601 0.02370966 -0.02881302 -0.021811837 -0.04080232 -0.037448
-0.047253344 0.021844767 0.015700378 0.027317014 0.04653483 -0.0041638967 -0.029528527 0.0644515
0.053840235 0.067855336 -0.00914709 0.07116582 0.0066479 -0.037779838 0.049415417 -0.05837324
-0.036091577 0.04509753 -0.06696597 0.03767012 -0.025745096 -0.037529968 0.014286918 -0.0014211612
0.058797333 -0.013560345 0.05112979 -0.012322253 -0.018439094 0.00900535 -0.054860324 0.073370844
00000000: 2027 933c e00d 1a3d c6e8 5b3d f444 3dbd
00000010: 64b9 943c 40fc 2f3d 93df f13c c281 273d
00000020: 5c77 9a3d 7db7 903c 3a1c 06bd 3a41 363d
00000030: 6967 08bd 21ac 833c 4a7d 7abd 82bd fc3b
00000040: 449e 36bd ea72 1bbd 0153 62bd 644c d7bc
00000050: fd67 8c3c 28db 68bb 5acf 7f3d 9c65 a13d
00000060: 0975 ff39 0cdb f7bc 26f8 f7bc 406d 953c
00000070: 59c1 76bd 2b9f aeba 1231 323d 21e8 3a3d
00000080: 4609 3bbd e253 d9b9 bdef ebba 1e8d f63c
00000090: d2f1 083c 5a54 5b3c dd9e 39bd 417c 233d
000000a0: cabe 93bc 167e 073c 1747 d8bc 15d0 b33d
000000b0: 4a9a b03d 5ff6 89bb 11bf 93bb d3c8 413d
000000c0: b74e b9bc 6aee 9d3d 60da cd3d 898a 323d
000000d0: 4af9 44bc 1d58 733d b110 843d ac52 3b3c
000000e0: 4938 e2bb c0a3 7e3d 4ea2 e0bb 46dc 153d
000000f0: d4f8 a23d 34e9 9c3d 265d a73b 3e5b 5e3c
00000100: f8d8 cabb eba9 4aba 2e81 81bc cdc0 ebbc
00000110: a82d ca3d a8bd 6d3d b113 e5bc d368 463d
00000120: f2e7 0bbc cab6 b1bb 3675 123d 3da3 04bd
00000130: cfdd a03d 8c50 193d 4f25 e8bc 76ac b8ba
00000140: 435a 953d 0af5 d63d adad a6bc 4936 ca3d
00000150: 15d0 803d f01e 1dbd 8f90 b2bc 0bd0 c13d
00000160: 44f6 c53d d133 743d 205c a43d e9ac ac3d
00000170: ec77 fd3a fdee 26bd 7de7 b63d bd65 b43d
00000180: 2112 dfbc 1d95 063d 3d15 8a3c 859b a03d
00000190: f554 063d 9ce9 4f3d 4bed e53c 37fb ba3d
000001a0: 3438 a53c be28 c33d f089 91bc 6256 4b3d
000001b0: f74e 933d 22d5 833d c38a ce3b eafd c8bb
000001c0: 2859 093d 6b21 bebb 75b6 02bd 1dcd f73b
000001d0: acc9 b33c c8ca 873a 98f4 9b3d 8127 cebc
000001e0: 7504 f23c 8e80 633d cf0f 8d3d b6be bdbb
000001f0: 2f43 3fbd 30d3 283d c8b8 f33c fbed d03c
00000200: dc75 493c fcbd 253c 8e2c d3bc 5d7c 143c
00000210: 602f 50bd 2daf d3bb eb6a 003d a89d dbbc
00000220: 516c 6abd 31a3 a13d 1197 2abd 1400 ddbc
00000230: 713a a5bb c74c 963d 7bbc 183c fb1f 35bd
00000240: 1bb6 7e3d cb15 913b 8942 a43d 7f32 8a3d
00000250: f7e4 34bc 6e20 243d 6955 82bd 23d8 d5bc
00000260: b4f0 ab3c dd10 95bc ec89 9dbc dccf a0bc
00000270: b5cb 84bd 8bb5 8bbc f55b 143d 68b9 5c3d
00000280: c6cc 9ebc febe 353c 36a4 b83c cb83 3dbd
00000290: 76c0 89bd 19f6 953d f155 613d 8feb 77bd
000002a0: 3c8e 82bc b643 b23c caac 74bc 42bf 49bd
000002b0: 3def 10bd 2df5 063d 415c 0e3d a44a aa3c
000002c0: bdc6 32bd a32d 943d db3b 8fb9 85bd a73c
000002d0: 15cf 60bd 486d 4abc f5ea 69bd b099 33bd
000002e0: 1b6a 24bd d5b8 44bd 75cc 143d 5ecb 9a3b
000002f0: 73f9 8e3c c245 4cbb 25c8 eabc 6976 e9bb
00000300: 04ed bb3b 5d0a 78bd 563f 58bd 8a8f 533d
00000310: 1c69 18bb 6c34 9dbd 83e9 423d 79cb af3c
00000320: df78 5dbd 805e 533c 562e 803c cf36 e3bc
00000330: f1d3 59bc 540f ebbc 77a3 333d 05f5 3239
00000340: b35a 603d bb1c 6ebb 9ba9 2d3d ec07 7bbd
00000350: 1eed f93c 3f16 abbd aa3c 343d 30a6 acbd
00000360: 6587 e83c 6762 893c 3c27 76bd c33a c23c
00000370: 4809 ecbc bdae b2bc 5520 27bd 1363 19bd
00000380: b98c 41bd ccf3 b23c 149e 803c eec7 df3c
00000390: 4e9b 3e3d 4c71 88bb cfe5 f1bc 26ff 833d
000003a0: 9487 5c3d bdf7 8a3d addd 15bc 63bf 913d
000003b0: a1d6 d93b 08bf 1abd d267 4a3d c718 6fbd
000003c0: c3d4 13bd 30b8 383d 7425 89bd fc4b 1a3d
000003d0: 61e7 d2bc 06b9 19bd ad13 6a3c 4246 baba
000003e0: 79d5 703d 362c 5ebc 786d 513d 46e3 49bc
000003f0: 950d 97bc 2d8b 133c 38b5 60bd 7443 963d

encoder.0.0.bias f4 [128]
0.0367441 -0.046978172 -0.0043697506 0.02186042 0.0401772 -0.0810935 0.008263484 -0.05246808
-0.054647185 -0.037192434 0.031408213 0.06444548 -0.0025732534 -0.021871313 0.02274532 0.016868906
-0.045147173 -0.048361015 0.033194505 0.003106072 -0.0056611774 0.058098283 0.039995734 0.04873494
0.0077475407 -0.04415049 0.045480363 0.08025471 0.048047066 0.07581751 -0.04728582 0.047542218
-0.061741997 0.04256846 -0.061567284 0.0725843 0.01457842 -0.03905006 0.0794988 -0.08236285
0.06298569 0.04831463 0.075096555 -0.040605087 0.06840283 0.015398338 0.061852217 -0.07199167
0.010665361 -0.02522257 -0.05119817 -0.07444708 0.08029576 0.069881804 0.022988798 0.04114759
0.00090645475 0.057170786 -0.058558222 0.010653285 0.05958756 -0.06913789 0.077519685 0.040198933
0.029182041 0.08289843 0.07103923 -0.011874763 -0.07068714 0.0685697 -0.06665956 0.07291017
0.005288813 0.07626489 0.024977904 -0.061373178 0.029714659 0.05073517 0.02437175 -0.061591715
0.013676105 0.012752894 0.058401622 0.05708294 -0.036384773 -0.061033286 0.033507194 0.015813464
0.001910575 0.03250399 0.004013189 0.023318626 -0.07546819 -0.025245162 0.05467503 0.038316265
0.03206826 0.08118938 0.032225136 0.060950898 -0.06823904 -0.0072515816 -0.04391592 0.027139224
-0.03825928 0.017999785 0.05058059 -0.060901027 -0.014945467 -0.021013843 0.042752724 -0.05774488
-0.020660575 0.024431357 -0.04222374 0.020285593 0.019302974 -0.014149432 0.041295476 0.042444028
-0.021950163 -0.066810936 -0.02358719 0.036697187 0.035330415 -0.02989578 0.011941558 -0.005679726
00000000: fb80 163d 2f6c 40bd 2030 8fbb a014 b33c
00000010: d990 243d 5914 a6bd 9063 073c c5e8 56bd
00000020: bad5 5fbd 1857 18bd e6a5 003d fefb 833d
00000030: 07a4 28bb 782b b3bc 6554 ba3c a930 8a3c
00000040: 3eec 38bd 3316 46bd f6f6 073d 3e8f 4b3b
00000050: 6681 b9bb 77f8 6d3d 91d2 233d 4a9e 473d
00000060: 15df fd3b 25d7 34bd 9e49 3a3d 955c a43d
00000070: 00cd 443d 3646 9b3d c7ae 41bd a1bb 423d
00000080: 2de5 7cbd 445c 2e3d fa2d 7cbd 14a7 943d
00000090: 53da 6e3c f5f2 1fbd 44d0 a23d dbad a8bd
000000a0: a4fe 803d 90e5 453d 39cc 993d 8551 26bd
000000b0: c816 8c3d 5049 7c3c c058 7d3d 5e70 93bd
000000c0: c4bd 2e3c 909f cebc 2cb5 51bd b677 98bd
000000d0: 1a72 a43d 311e 8f3d 0153 bc3c 608a 283d
000000e0: 269f 6d3a ea2b 6a3d bfda 6fbd 1e8b 2e3c
000000f0: 1612 743d 2b98 8dbd a4c2 9e3d a3a7 243d
00000100: 2d0f ef3c a7c6 a93d 047d 913d 5e8e 42bc
00000110: 6bc4 90bd 456e 8c3d cf84 88bd ed51 953d
00000120: c74d ad3b c430 9c3d 769e cc3c 7162 7bbd
00000130: 286c f33c aecf 4f3d 44a7 c73c 9847 7cbd
00000140: be11 603c 84f1 503c 8a36 6f3d cdcf 693d
00000150: 3308 15bd 0afe 79bd d73e 093d 3d8b 813c
00000160: 426c fa3a e722 053d 1281 833b b406 bf3c
00000170: 118f 9abd f1ce cebc edf2 5f3d 84f1 1c3d
00000180: 025a 033d 9e46 a63d 81fe 033d a6a7 793d
00000190: e9c0 8bbd ad9e edbb 2ee1 33bd 1453 de3c
000001a0: c3b5 1cbd 4974 933c 982d 4f3d 5b73 79bd
000001b0: d5dd 74bc 3925 acbc 7b1d 2f3d e585 6cbd
000001c0: 5e40 a9bc 4524 c83c cdf2 2cbd f92d a63c
000001d0: 4521 9e3c 05d3 67bc 7225 293d cad9 2d3d
000001e0: d4d0 b3bc 2cd4 88bd ec39 c1bc ca4f 163d
000001f0: a0b6 103d ffe7 f4bc 86a6 433c ff1c babb

encoder.1.0.weight f4 [32, 128]
0.101528555 0.0017166701 -0.049790815 -0.07083321 0.0060914136 -0.052978028 -0.025666023 -0.05492508
-0.022632124 0.030445887 0.02072136 0.034998383 -0.078611776 0.026821366 0.013000657 -0.04264625
0.06902599 -0.049544595 0.013650661 -0.09969902 -0.007069838 0.02814145 -0.10152198 0.033802576
-0.07477745 -0.040908042 -0.06514095 0.025871275 -0.039869938 -0.005278251 0.115379564 -0.082738906
-0.033869967 -0.1289147 -0.033287883 0.10369363 0.042428013 0.05884346 -0.013112159 -0.05034546
-0.037570566 0.07024007 0.03336751 -0.07141501 0.12430241 -0.00097640173 0.106942095 -0.048538897
-0.05908319 0.17258784 0.0018953546 0.071329996 -0.03592472 0.012605695 -0.025857449 -0.12201365
-0.025059057 0.06580289 -0.08303733 0.019382192 0.091074266 0.022671552 0.042623702 -0.04269879
-0.05987715 -0.12441967 0.007202831 -0.09742973 0.057861935 -0.024119299 0.09174297 0.08480311
0.07180261 0.055446014 0.15465197 0.05123803 -0.087298356 0.014662778 0.041179705 -0.075633965
0.0033526348 0.05225175 -0.04735501 -0.076261654 0.023692138 0.1159342 0.07236988 -0.12988248
0.17028028 -0.0496292 0.096765265 0.02483081 -0.007865512 0.06529974 -0.06126329 -0.070996046
-0.024517793 0.010266843 -0.023192007 -0.07703048 -0.03266881 -0.009205846 0.010328788 0.09952839
0.10722911 0.021635907 0.06075873 -0.08453797 -0.12750587 0.08905361 -0.109294 -0.024060387
0.02031792 -0.038166802 0.03564045 -0.050292596 0.0024950437 -0.104604445 0.0038776344 -0.024001876
-0.06722992 0.06952277 0.16510911 0.15435727 0.009819336 0.0032551128 0.044545587 0.04436131
-0.05781487 -0.070695184 0.026149517 -0.028797237 -0.004836192 0.005877748 -0.011907922 -0.022788301
0.022333149 -0.030150177 0.08600716 0.025651306 -0.05543358 -0.055210408 0.058460925 0.007981431
-0.019205417 -0.026776846 0.038491264 0.042703137 0.04983548 -0.0135295885 -0.0659168 0.02787245
0.032585204 -0.011792571 0.04882854 0.0931583 0.10565133 0.007756869 -0.05062666 -0.03334756
0.03929916 -0.016648626 -0.07924684 0.09431873 0.09411544 -0.016846998 -0.041990466 -0.10901032
-0.06965378 0.041544367 0.05141894 -0.0017153763 0.10914458 -0.040271837 0.051397465 -0.043123983
-0.06093322 0.06134407 0.031566393 0.038268894 0.07231565 0.054848697 -0.06283307 -0.00935342
-0.068848625 -0.082369216 -0.07449753 0.09500892 0.010429132 -0.069843814 -0.06852302 0.0018600449
-0.046597943 -0.05497558 0.021066187 0.07237234 -0.049283378 0.017866813 -0.073441334 0.07056863
-0.05266422 -0.040254623 0.12338062 0.10019123 -0.026990702 -0.03487416 -0.04907084 0.00071595167
0.069185235 0.020916732 -0.03303362 -0.08960691 0.03985013 0.04073504 -0.003321608 -0.014761532
0.07865694 -0.061444666 0.0724286 -0.017415661 -0.0965966 0.059078373 -0.054244157 -0.045459956
-0.0006831815 -0.02851387 -0.08632551 0.037033506 -0.06364075 0.07950552 -0.0578162 -0.051272046
0.04265872 0.036200665 -0.0065673273 -0.005402727 -0.08161226 0.06268555 -0.030111393 -0.0844509
0.08262854 -0.091572516 0.06370701 0.0037312382 -0.053190198 -0.107221276 -0.09162761 0.0050685573
-0.03031428 0.0792801 -0.025730385 0.031956453 0.104497835 -0.06815991 0.022588098 -0.036523752
00000000: 34ee cf3d e401 e13a 74f1 4bbd 0111 91bd
00000010: 7b9a c73b 7dff 58bd 8d41 d2bc 1ff9 60bd
00000020: 0167 b9bc a769 f93c d7bf a93c 775a 0f3d
00000030: 36ff a0bd 7bb8 db3c b500 553c d6ad 2ebd
00000040: 805d 8d3d 46ef 4abd 06a7 5f3c 002f ccbd
00000050: 19aa e7bb e688 e63c c1ea cfbd 9274 0a3d
00000060: eb24 99bd 318f 27bd 9e68 85bd ffef d33c
00000070: a94e 23bd 2ef5 acbb 1f4c ec3d 0473 a9bd
00000080: 3cbb 0abd 3702 04be e058 08bd 535d d43d
00000090: ffc8 2d3d d705 713d 62d4 56bc 0b37 4ebd
000000a0: 98e3 19bd 07da 8f3d 5fac 083d 0842 92bd
000000b0: 4392 fe3d 36f5 7fba 7504 db3d b9d0 46bd
000000c0: 3701 72bd deba 303e 8c6d f83a 7615 923d
000000d0: cd25 13bd 1e88 4e3c 00d3 d3bc 4be2 f9bd
000000e0: a748 cdbc aac3 863d 7a0f aabd 67c7 9e3c
000000f0: 2585 ba3d b1b9 b93c 3196 2e3d ede4 2ebd
00000100: be41 75bd bdcf febd ba05 ec3b 3d89 c7bd
00000110: a300 6d3d d695 c5bc bde3 bb3d 41ad ad3d
00000120: 3f0d 933d 5c1b 633d 165d 1e3e f8de 513d
00000130: 7bc9 b2bd 263c 703c 0dac 283d fbe5 9abd
00000140: e1b7 5b3b ee05 563d 54f7 41bd 122f 9cbd
00000150: 0416 c23c e96e ed3d a936 943d eaff 04be
00000160: f45d 2e3e fd47 4bbd de2c c63d fc69 cb3c
00000170: 59de 00bc dfbb 853d 37ef 7abd 6066 91bd
00000180: 8ad9 c8bc 4336 283c 2afd bdbc 28c2 9dbd
00000190: bbcf 05bd 1ed4 16bc 143a 293c 8ad5 cb3d
000001a0: f09a db3d c93d b13c 25de 783d 3e22 adbd
000001b0: e690 02be bd61 b63d 88d5 dfbd 4a1a c5bc
000001c0: c471 a63c cb54 1cbd b8fb 113d 9cff 4dbd
000001d0: e383 233b db3a d6bd e91f 7e3b 959f c4bc
000001e0: d7af 89bd f461 8e3d 5d12 293e d50f 1e3e
000001f0: 48e1 203c bb53 553b 6f75 363d 34b4 353d
00000200: 49cf 6cbd a3c8 90bd 8337 d63c 2fe8 ebbc
00000210: eb78 9ebb 209a c03b 7219 43bc 88ae babc
00000220: 02f4 b63c 81fd f6bc 8624 b03d b022 d23c
00000230: 520e 63bd 4f24 62bd b974 6f3d 8cc4 023c
00000240: ae54 9dbc 1e5b dbbc 04a9 1d3d 7ce9 2e3d
00000250: 4a20 4c3d 35ab 5dbc 63ff 86bd c454 e43c
00000260: 1078 053d a135 41bc 6f00 483d c7c9 be3d
00000270: b95f d83d 552d fe3b e75d 4fbd 7397 08bd
00000280: 28f8 203d b362 88bc 2b4c a2bd 2e2a c13d
00000290: 99bf c03d b702 8abc 32fe 2bbd cd40 dfbd
000002a0: a4a6 8ebd 6d2a 2a3d ab9c 523d 7ad6 e0ba
000002b0: 3287 df3d 15f4 24bd 2686 523d c6a2 30bd
000002c0: 1d95 79bd eb43 7b3d c34b 013d d8bf 1c3d
000002d0: 3a1a 943d 07a9 603d a0ae 80bd 163f 19bc
000002e0: 8200 8dbd 31b1 a8bd 2992 98bd 0994 c23d
000002f0: f3de 2a3c 460a 8fbd cc55 8cbd c0cc f33a
00000300: 7cdd 3ebd 132e 61bd ff92 ac3c f337 943d
00000310: 5edd 49bd 6c5d 923c 6968 96bd 4986 903d
00000320: 70b6 57bd 08e2 24bd faae fc3d 0f31 cd3d
00000330: 9b1b ddbc 35d8 0ebd 81fe 48bd b4ae 3b3a
00000340: fdb0 8d3d 9159 ab3c 434e 07bd d483 b7bd
00000350: e439 233d c9d9 263d 56af 59bb 5ada 71bc
00000360: e416 a13d 67ad 7bbd 7255 943d 4aab 8ebc
00000370: 70d4 c5bd 2afc 713d 1f2f 5ebd 3834 3abd
00000380: 8917 33ba eb95 e9bc 6ecb b0bd 72b0 173d
00000390: 1556 82bd cad3 a23d aed0 6cbd a302 52bd
000003a0: e9ba 2e3d 2647 143d bc32 d7bb 5c09 b1bb
000003b0: 5424 a7bd 4861 803d 2bac f6bc 98f4 acbd
000003c0: 2739 a93d 5f8a bbbd d278 823d ca87 743b
000003d0: f7dd 59bd d496 dbbd 42a7 bbbd 2416 a63b
000003e0: a755 f8bc 9b5d a23d 87c8 d2bc c5e4 023d
000003f0: f602 d63d 6c97 8bbd ad0a b93c ee99 15bd

encoder.1.0.bias f4 [32]
0.054981705 0.027841393 -0.091314666 0.0066141603 0.053314283 -0.046753347 -0.044860993 0.04394981
-0.0365554 0.035876617 -0.028996976 0.04318029 -0.052448496 0.012940398 -0.07049955 0.012244345
-0.018563226 0.1054353 0.094510585 -0.051219657 -0.062145796 -0.009581467 0.0735177 -0.06972301
-0.03479251 -0.04084591 0.041359175 -0.0915126 -0.0044540875 0.013921484 -0.011225772 0.035538457
00000000: 7f34 613d a213 e43c 2f03 bbbd 99bb d83b
00000010: 1460 5a3d 7080 3fbd 29c0 37bd b704 343d
00000020: 1dbb 15bd 5cf3 123d 118b edbc d1dd 303d
00000030: 3cd4 56bd f703 543c 1162 90bd 819c 483c
00000040: e811 98bc 76ee d73d c48e c13d b4cb 51bd
00000050: 978c 7ebd 96fb 1cbc 7390 963d f0ca 8ebd
00000060: 9782 0ebd 0a4e 27bd 3d68 293d f56a bbbd
00000070: 98f3 91bb f016 643c 4dec 37bc c690 113d

encoder.2.0.weight f4 [8, 32]
-0.042368215 0.00919818 -0.044236753 0.013098566 -0.11343523 -0.16215363 0.17569436 0.033101436
-0.033085857 0.07208112 0.046757843 -0.1274186 -0.10838783 -0.12345978 -0.22002348 -0.057683457
0.10474506 -0.1390127 -0.028838214 0.1333101 -0.09114014 0.064617746 0.046501823 -0.03908298
0.04875444 0.041363567 -0.16393776 0.15026107 0.022467699 0.05388298 -0.1712724 -0.06620703
-0.022692809 -0.08946758 0.0702639 0.024932386 -0.0863199 0.07110016 -0.04580483 -0.13610011
-0.15555246 0.08388551 -0.11324006 0.014923042 0.109081864 -0.032636806 0.18991317 -0.06114524
0.010553665 -0.1535946 -0.1885377 0.09836156 0.013594118 -0.07929774 -0.14382109 0.08901389
0.110030085 0.12416808 0.11084294 -0.05145169 0.092891976 0.07912201 0.057983335 0.1066417
0.0034721466 0.025096478 -0.16840781 0.04986807 0.050464958 0.0012226899 0.095878854 -0.07714121
0.07716919 0.1771368 0.046330504 0.17014506 0.038231473 0.14826168 -0.0077333776 0.036601227
-0.03747067 -0.13151284 0.18003434 -0.11977953 0.061059818 0.08338704 -0.014520105 0.054594666
-0.16440128 -0.084443115 0.03747105 -0.018099656 0.013987443 0.13517098 0.11336315 0.18461095
-0.18194912 -0.197883 -0.023045039 0.12826103 -0.045833062 0.042278886 -0.16578746 -0.031669494
-0.06310821 -0.08462239 0.18706757 -0.013271473 -0.195205 0.20018318 0.096941836 0.1377391
-0.04930289 0.20022896 -0.018247662 0.09309357 0.09052345 0.12617771 0.16175807 0.03132254
0.14044343 0.09861638 0.1448576 -0.07891075 -0.13576406 -0.20773976 0.17992619 0.0437513
-0.025008392 -0.16072801 0.02506288 -0.12062568 -0.15542103 0.050213825 -0.050836723 0.15805106
-0.09263407 -0.062136125 -0.09119424 0.14576648 -0.06333892 -0.09655674 0.15341632 0.07402945
-0.1446772 -0.14381294 -0.022880904 -0.04659312 -0.024920836 0.06036402 0.1368889 0.055550214
-0.105890244 -0.108400986 -0.124302045 -0.17460558 -0.14771494 0.11282934 0.12497563 -0.11062092
0.21884781 0.06417226 -0.11277956 -0.034986544 0.106529 0.11960274 -0.048976414 0.07005631
-0.10673737 0.11432309 -0.16848207 0.116774134 0.18507408 -0.15393762 -0.038987048 -0.12816837
0.015674707 -0.18745527 0.0791063 0.010553685 0.12123262 0.014877124 -0.071350574 -0.13132128
0.14222595 -0.13864246 0.09475549 -0.12894675 -0.049742002 0.13767119 0.0959152 0.118537694
-0.064745404 -0.23271282 -0.027024928 0.041283134 -0.17192921 -0.075713046 -0.0893508 0.07691444
-0.09877126 0.073061265 0.08925273 -0.016859002 -0.13796782 0.1033972 0.11642432 0.006924653
-0.08581766 -0.0031244447 0.13957876 -0.09202441 -0.049540866 -0.14196727 0.088939756 -0.055223353
-0.08268319 0.048791435 -0.08119167 -0.06537058 0.11690294 -0.21175376 0.11037405 -0.010758756
-0.008530497 0.092543416 -0.06624991 -0.09726985 -0.023106052 0.09736157 -0.057345014 0.058147114
0.16749495 0.109353825 -0.018052485 0.12010523 -0.15907498 -0.057487994 -0.051586006 -0.043639053
0.019340402 0.17141764 0.1463953 0.057008438 0.004674163 -0.1539687 -0.14579876 0.14590465
-0.13016155 -0.09687307 0.1801765 -0.12129591 0.033901524 -0.20586541 0.021374896 -0.11396047
00000000: 4b8a 2dbd f7b3 163c 9931 35bd 5e9b 563c
00000010: bb50 e8bd 9a0b 26be 39e9 333e 5f95 073d
00000020: 0985 07bd 449f 933d 2785 3f3d 057a 02be
00000030: 70fa ddbd 7bd8 fcbd d64d 61be 7d45 6cbd
00000040: 9484 d63d 5859 0ebe 1e3e ecbc 7182 083e
00000050: afa7 babd 4f56 843d b278 3e3d 7a15 20bd
00000060: bcb2 473d d86c 293d 4ddf 27be 0ade 193e
00000070: 2e0e b83c 66b4 5c3d 0862 2fbe 8d97 87bd
00000080: 45e6 b9bc c73a b7bd 85e6 8f3d 013f cc3c
00000090: 7dc8 b0bd f69c 913d d89d 3bbd d45d 0bbe
000000a0: 2549 1fbe 2bcc ab3d 68ea e7bd c67f 743c
000000b0: 5066 df3d 2cae 05bd 9978 423e 6e73 7abd
000000c0: 48e9 2c3c e747 1dbe 0710 41be c971 c93d
000000d0: ddb9 5e3c da66 a2bd d645 13be ea4c b63d
000000e0: 7457 e13d d64b fe3d a001 e33d 02bf 52bd
000000f0: 263e be3d b80a a23d ef7f 6d3d f766 da3d
00000100: f48c 633b 2197 cd3c 1973 2cbe 7642 4c3d
00000110: 58b4 4e3d aa42 a03a 225c c43d 36fc 9dbd
00000120: e10a 9e3d 5963 353e 0ec5 3d3d 823a 2e3e
00000130: 9b98 1c3d e9d1 173e 4668 fdbb 2beb 153d
00000140: d87a 19bd 4dab 06be ec5a 383e f84e f5bd
00000150: dc19 7a3d d3c6 aa3d bce5 6dbc a89e 5f3d
00000160: cf58 28be 83f0 acbd 3e7b 193d bb45 94bc
00000170: 972b 653c 436a 0a3e f02a e83d a70a 3d3e
00000180: df50 3abe d7a1 4abe f3c8 bcbc dc56 033e
00000190: 73bb 3bbd a02c 2d3d 30c4 29be dfb7 01bd
000001a0: e13e 81bd 814e adbd a48e 3f3e 9870 59bc
000001b0: d2e3 47be d2fc 4c3e 7189 c63d 7b0b 0d3e
000001c0: d4f1 49bd d208 4d3e 1f7c 95bc d7a7 be3d
000001d0: 5c64 b93d bb34 013e e8a3 253e 104c 003d
000001e0: 67d0 0f3e 62f7 c93d 8d55 143e f69b a1bd
000001f0: bc05 0bbe bbb9 54be 923e 383e 9034 333d
00000200: 66de ccbc e295 24be ab50 cd3c 990a f7bd
00000210: b126 1fbe 03ad 4d3d 2b3a 50bd 23d8 213e
00000220: eeb6 bdbd 7382 7ebd 0cc4 babd cf43 153e
00000230: d6b7 81bd 8abf c5bd 2b19 1d3e c19c 973d
00000240: 4326 14be b343 13be bc70 bbbc 6dd8 3ebd
00000250: c826 ccbc 4340 773d 9b2c 0c3e 9f88 633d
00000260: fcdc d8bd 5601 debd 1292 febd cecb 32be
00000270: 9642 17be 1213 e73d 39f3 ff3d 398d e2bd
00000280: a419 603e bf6c 833d f8f8 e6bd 0d4e 0fbd
00000290: e02b da3d 48f2 f43d 7e9b 48bd af79 8f3d
000002a0: 1f99 dabd 3922 ea3d 9086 2cbe 4727 ef3d
000002b0: 0f84 3d3e d3a1 1dbe e2b0 1fbd 923e 03be
000002c0: 3e68 803c 46f4 3fbe 7c02 a23d 5de9 2c3c
000002d0: cf48 f83d 2ebf 733c 4020 92bd 1679 06be
000002e0: aea3 113e 4af8 0dbe 2b0f c23d 9e0a 04be
000002f0: 45be 4bbd adf9 0c3e 306f c43d e4c3 f23d
00000300: 3d99 84bd 454c 6ebe 6263 ddbc 8118 293d
00000310: 360e 30be 710f 9bbd 8dfd b6bd 5185 9d3d
00000320: 9648 cabd 25a1 953d 23ca b63d e41b 8abc
00000330: 7047 0dbe e9c1 d33d e06f ee3d 33e8 e23b
00000340: 2bc1 afbd 7cc3 4cbb bced 0e3e 4b77 bcbd
00000350: 5deb 4abd de5f 11be 0c26 b63d e231 62bd
00000360: ce55 a9bd 87d9 473d d147 a6bd 03e1 85bd
00000370: cf6a ef3d fad5 58be ca0b e23d 7e45 30bc
00000380: 7fc3 0bbc 6787 bd3d 08ae 87bd 6a35 c7bd
00000390: e748 bdbc 8165 c73d 9be2 6abd ab2b 6e3d
000003a0: cc83 2b3e e6f4 df3d cee2 93bc bbf9 f53d
000003b0: 8de4 22be 8878 6bbd d94b 53bd ddbe 32bd
000003c0: c36f 9e3c 1b88 2f3e a6e8 153e ae81 693d
000003d0: b929 993b f9a9 1dbe 454c 15be 0768 153e
000003e0: 1249 05be 6365 c6bd 3080 383e fd69 f8bd
000003f0: 53dc 0a3d 62ce 52be 681a af3c 1b64 e9bd

encoder.2.0.bias f4 [8]
0.15955374 -0.18529548 0.14661364 0.17038974 0.10264407 -0.13139161 -0.03746224 -0.05795704
00000000: 0e62 233e 19be 3dbe e321 163e a67a 2e3e
00000010: 0e37 d23d 868b 06be 0172 19bd 5c64 6dbd

encoder.3.weight f4 [5, 8]
0.1720119 -0.30653903 -0.14990614 -0.15006064 -0.15235208 0.3750143 0.20947759 -0.23832126
-0.082053244 -0.12187189 0.338004 -0.12780501 0.19674817 -0.37683114 0.025478087 0.06771965
0.22994074 0.1664691 0.027453784 0.084748045 -0.1617712 -0.36055365 0.007810032 0.2799315
-0.30846176 -0.09449841 -0.16069004 0.3832603 -0.27206272 0.051090457 0.2268248 -0.24307929
0.31198567 -0.13270982 0.02884637 0.30813196 0.28911656 -0.008637249 0.18949671 0.33487847
00000000: e323 303e aff2 9cbe ff80 19be 7fa9 19be
00000010: 2f02 1cbe e001 c03e 4b81 563e 7d0a 74be
00000020: 880b a8bd f897 f9bd dc0e ad3e 51df 02be
00000030: 5a78 493e 03f0 c0be 6cb7 d03c 9ab0 8a3d
00000040: 9675 6b3e e076 2a3e c2e6 e03c 6290 ad3d
00000050: 59a7 25be 7d9a b8be 4ceb ff3b 2e53 8f3e
00000060: b3ee 9dbe 6288 c1bd ee8b 24be b23a c43e
00000070: ce4b 8bbe 3a44 513d c344 683e c7e9 78be
00000080: 96bc 9f3e 15e5 07be 394f ec3c 79c3 9d3e
00000090: 1607 943e 3f83 0dbc 6d0b 423e 3175 ab3e

encoder.3.bias f4 [5]
-0.25499302 -0.20739473 -0.07316627 -0.3572506 0.11524531
00000000: 728e 82be 495f 54be 33d8 95bd 8de9 b6be
00000010: bc05 ec3d

decoder.0.0.weight f4 [8, 5]
0.007201083 0.0725608 -0.31789035 -0.32934788 0.21879056 0.04248061 0.37825498 -0.06446959
-0.36611634 0.28693327 0.001971543 0.3290892 0.32069477 0.10546509 0.44064045 0.21543446
-0.33481428 -0.04590241 -0.41491213 -0.076107755 -0.2180191 0.010190689 0.06060825 0.123839326
0.26710975 -0.2443575 0.37791672 -0.096428216 0.078640655 0.25644267 -0.1453711 -0.050991673
-0.07801334 0.169208 -0.30103928 0.37605888 0.40224358 -0.10957396 -0.24942274 0.29859853
00000000: 10f7 eb3b c29a 943d 86c2 a2be 49a0 a8be
00000010: a20a 603e 2600 2e3d a3aa c13e a208 84bd
00000020: 9a73 bbbe ebe8 923e 0135 013b 617e a83e
00000030: 1b32 a43e 15fe d73d a09b e13e da9a 5c3e
00000040: c76c abbe 2a04 3cbd 5d6f d4be 62de 9bbd
00000050: 6640 5fbe d9f6 263c 5b40 783d 799f fd3d
00000060: 9cc2 883e da38 7abe 4d7e c13e 287c c5bd
00000070: 5a0e a13d 744c 833e 29dc 14be a5dc 50bd
00000080: 75c5 9fbd dd44 2d3e d221 9abe ca8a c03e
00000090: dff2 cd3e 5068 e0bd ad68 7fbe e8e1 983e

decoder.0.0.bias f4 [8]
0.08665268 -0.057608172 0.41744867 0.25137928 -0.004867024 0.2811346 0.27993855 -0.25484988
00000000: f676 b13d 8cf6 6bbd d5bb d53e c9b4 803e
00000010: 8e7b 9fbb e0f0 8f3e 1b54 8f3e af7b 82be

decoder.1.0.weight f4 [32, 8]
-0.13767233 -0.012019129 0.14270617 0.11506754 -0.34853524 -0.1884362 0.023672098 0.26353604
0.10950561 0.3302051 -0.20889626 -0.10832234 -0.2539262 -0.0037818283 -0.093593314 0.2248375
-0.1214609 -0.062620655 0.11909412 0.37326366 -0.21955727 -0.14298505 -0.22480108 0.26315033
0.101373196 -0.020322667 0.11969379 0.16559458 -0.1494538 -0.1064384 0.23275775 -0.06439551
-0.037136946 -0.21804379 0.3557116 -0.13192771 0.28880516 0.022261374 0.00813392 -0.14655322
0.36910263 0.11105085 -0.0986666 0.0882117 -0.30658096 0.02564711 0.25126678 -0.19802654
-0.19502059 0.17560875 -0.21112148 0.11917101 0.32185364 0.30680093 0.012066236 -0.02617045
0.21598363 -0.28533214 -0.0014221941 -0.21739174 0.25352243 -0.2812979 0.25659782 0.27474508
-0.17684928 -0.3326954 -0.10200107 0.16539049 0.19416282 0.34239027 -0.039637994 0.21508382
-0.1898098 -0.3140957 0.09882262 0.40158367 -0.19559063 0.14988647 -0.0047324523 0.18476811
0.20537952 -0.046724126 0.28400502 0.18525137 0.26328465 0.23398933 -0.014842762 -0.31741542
-0.07689121 -0.24912786 0.041841455 0.0882929 0.1338915 0.095782906 -0.3614317 -0.12011267
0.1715797 -0.19049035 -0.25894013 0.23697235 -0.16672833 0.23933518 0.2577514 -0.34458268
-0.046092633 -0.03547683 0.1322418 0.38445964 -0.15260518 0.037752565 -0.08649661 -0.29344654
0.2921817 -0.2771047 -0.14122148 0.08943865 -0.33026057 -0.19597498 -0.011938138 -0.12518032
-0.0057495236 0.048836753 -0.046242405 -0.20427461 0.28369692 0.17083505 0.0934579 0.17056967
-0.20966448 -0.12557471 -0.1192768 -0.26719162 0.20585714 0.2156431 -0.23861335 -0.28555351
-0.18942887 -0.33686957 -0.0903007 -0.18253718 0.29375035 -0.23315561 -0.17087325 -0.13176636
-0.20629804 -0.087918654 0.010942453 -0.04755307 -0.018720688 0.29651916 -0.37719882 -0.12926726
-0.08595512 0.12240537 0.048591416 0.17926686 -0.2824358 -0.35952893 -0.3030174 0.011235182
-0.35908604 -0.29705325 -0.33544296 -0.34220418 0.0041143573 0.29983 -0.010395687 0.21803851
-0.0021421437 0.23483011 -0.019453347 -0.32013285 -0.3190431 0.24935788 -0.25334123 0.13897052
0.032196708 0.15042755 0.07999843 0.21811502 0.24791293 -0.016462242 -0.19341795 -0.060933296
-0.26321194 -0.07969579 -0.18950912 -0.20229538 0.04113137 -0.34484026 -0.14958835 -0.26907915
0.104208164 0.113549404 0.1287357 -0.11888444 -0.24398462 0.1315858 0.10086938 -0.26908657
0.03836206 -0.027551824 -0.08553527 0.28231454 -0.123047136 -0.3864738 -0.32191825 0.32832453
-0.10415093 -0.052856196 -0.277173 -0.32770804 0.33304864 0.16738935 0.11995877 -0.022873906
-0.24028488 -0.21638629 -0.34906605 -0.034073524 0.062065642 -0.2896051 0.13368903 0.11015587
0.2596718 -0.16364 -0.392824 -0.29236126 -0.3928466 -0.3483549 -0.33292723 0.28957945
-0.02325297 -0.017087191 0.2671042 0.36989117 -0.1748455 -0.31750154 0.3072786 0.066820994
-0.23182689 -0.20085582 -0.1787673 -0.19672158 -0.116971806 0.32674757 -0.12416505 0.22524413
0.27646947 -0.15747732 0.009860733 -0.079101294 0.050389834 0.16421051 0.21300241 0.18384247
00000000: faf9 0cbe e1eb 44bc 9121 123e 88a8 eb3d
00000010: 3673 b2be 6bf5 40be fdeb c13c 32ee 863e
00000020: 7a44 e03d a510 a93e e7e8 55be 1ad8 ddbd
00000030: 9d02 82be 8dd8 77bb daad bfbd cd3b 663e
00000040: 7ec0 f8bd 423f 80bd 9ee7 f33d 6a1c bf3e
00000050: 9fd3 60be ac6a 12be 4132 66be a4bb 863e
00000060: c09c cf3d b97b a6bc 0522 f53d a091 293e
00000070: 6b0a 19be 60fc d9bd 0c58 6e3e cbe1 83bd
00000080: e91c 18bd df46 5fbe d51f b63e 0f18 07be
00000090: 45de 933e 7c5d b63c 2244 053c 0c12 16be
000000a0: 05fb bc3e a16e e33d b711 cabd 56a8 b43d
000000b0: 2ef8 9cbe e319 d23c 0aa6 803e 78c7 4abe
000000c0: 7ab3 47be c8d2 333e 3b30 58be ee0f f43d
000000d0: 00ca a43e 0315 9d3e 76b1 453c 6963 d6bc
000000e0: d02a 5d3e 0e17 92be ea68 baba f19b 5ebe
000000f0: b1cd 813e 4706 90be ca60 833e 63ab 8c3e
00000100: fa17 35be 0d57 aabe f0e5 d0bd 205c 293e
00000110: 9ed2 463e c74d af3e 735b 22bd ef3e 5c3e
00000120: 805d 42be 27d1 a0be 8463 ca3d 609c cd3e
00000130: e948 48be d77b 193e b012 9bbb da33 3d3e
00000140: 024f 523e cc61 3fbd 1b69 913e 89b2 3d3e
00000150: 3fcd 863e e69a 6f3e 0e2f 73bc 4684 a2be
00000160: 2479 9dbd 601b 7fbe f261 2b3d e8d2 b43d
00000170: da1a 093e d429 c43d 930d b9be a2fd f5bd
00000180: 97b2 2f3e e70f 43be cd93 84be e1a8 723e
00000190: d5ba 2abe 4814 753e fef7 833e 246d b0be
000001a0: a1cb 3cbd 2750 11bd 656a 073e e5d7 c43e
000001b0: 8844 1cbe 6fa2 1a3d 2225 b1bd a03e 96be
000001c0: d798 953e abe0 8dbe 5d9c 10be 9c2b b73d
000001d0: ea17 a9be aaad 48be 2e98 43bc 452f 00be
000001e0: 8066 bcbb 0c09 483d ad68 3dbd 5d2d 51be
000001f0: b940 913e 62ef 2e3e db66 bf3d d1a9 2e3e
00000200: 49b2 56be a896 00be 6547 f4bd 57cd 88be
00000210: 37cc 523e 8bd1 5c3e 0f57 74be 1234 92be
00000220: a4f9 41be 2b7a acbe 93ef b8bd 07eb 3abe
00000230: 7266 963e 58c0 6ebe 66f9 2ebe c3ed 06be
00000240: cb3f 53be b20e b4bd f947 333c 02c7 42bd
00000250: 215c 99bc 5cd1 973e 3420 c1be a35e 04be
00000260: 3d09 b0bd abaf fa3d cb07 473d bb91 373e
00000270: 6d9b 90be 2d14 b8be 1925 9bbe c513 383c
00000280: 20da b7be 5d17 98be 2ebf abbe 6335 afbe
00000290: bbd1 863b 5183 993e ac52 2abc 7d45 5f3e
000002a0: 3563 0cbb 4e77 703e a05c 9fbc 74e8 a3be
000002b0: 9e59 a3be ac57 7f3e f1b5 81be 4a4e 0e3e
000002c0: b2e0 033d ae09 1a3e 38d6 a33d 8b59 5f3e
000002d0: e3dc 7d3e d3db 86bc 5b0f 46be 3195 79bd
000002e0: b7c3 86be 8c37 a3bd ae0e 42be 8526 4fbe
000002f0: 5e79 283d e78e b0be b02d 19be bec4 89be
00000300: 176b d53d 978c e83d 4bd3 033e af79 f3bd
00000310: 1bd7 79be 6ebe 063e 9b94 ce3d b7c5 89be
00000320: 8921 1d3d 5db4 e1bc 1e2d afbd 888b 903e
00000330: 2300 fcbd e5df c5be 78d2 a4be 271a a83e
00000340: 154d d5bd bd7f 58bd 9fe9 8dbe 59c9 a7be
00000350: 5a85 aa3e 1d68 2b3e f2ac f53d 0f62 bbbc
00000360: 3d0d 76be 5e94 5dbe c9b8 b2be ae90 0bbd
00000370: 8b38 7e3d 1f47 94be c7e5 083e 6799 e13d
00000380: b4f3 843e 3f91 27be 3a20 c9be 60b0 95be
00000390: 3123 c9be 935b b2be 7075 aabe c243 943e
000003a0: 037d bebc 70fa 8bbc e2c1 883e 6062 bd3e
000003b0: b30a 33be 908f a2be 9f53 9d3e 72d9 883d
000003c0: 0764 6dbe 26ad 4dbe c60e 37be 6271 49be
000003d0: ea8e efbd 754b a73e 3f4a febd 66a6 663e
000003e0: 688d 8d3e bc41 21be e98e 213c dcff a1bd
000003f0: 9265 4e3d cd26 283e 4e1d 5a3e 3341 3c3e

decoder.1.0.bias f4 [32]
-0.27854446 -0.12585083 -0.19001885 -0.198013 -0.0017694392 0.23489189 0.27989614 -0.181844
0.06596433 -0.1911047 0.24749745 -0.05140789 0.2976274 0.08952458 0.058965832 0.25673985
0.27009082 0.014695648 -0.077351674 -0.29095864 -0.0899935 -0.19802436 0.1884058 -0.23783925
0.3647105 -0.24111962 0.3594911 -0.15957783 -0.3606345 0.0822609 -0.28962293 -0.022232426
00000000: 619d 8ebe 0adf 00be 4d94 42be ebc3 4abe
00000010: 87ec e7ba 8087 703e 8c4e 8f3e 5035 3abe
00000020: 4f18 873d f3b0 43be f96f 7d3e 1491 52bd
00000030: 9e62 983e aa58 b73d 2886 713d 6873 833e
00000040: 5849 8a3e 04c6 703c 8e6a 9ebd 88f8 94be
00000050: 834e b8bd e6c6 4abe 73ed 403e 228c 73be
00000060: 56bb ba3e 10e8 76be 380f b83e 5f68 23be
00000070: 16a5 b8be 6778 a83d 7549 94be c720 b6bc

decoder.2.0.weight f4 [128, 32]
-0.18381017 -0.12559617 -0.1565787 0.049548537 -0.09362436 0.04654951 0.03328423 -0.06538479
-0.0009469617 -0.0001295905 -0.042322718 0.0529466 0.026521198 0.060859494 -0.002380679 -0.12972105
-0.050603062 -0.11053195 -0.16412455 -0.005510736 -0.057139132 -0.10234584 0.10849556 -0.043142337
0.15687896 -0.0761696 -0.14007059 -0.0020868287 0.10180713 0.22852708 -0.1267251 -0.11540355
0.124689266 0.015859038 -0.0144304 0.03949001 0.038694136 0.03214156 -0.13077348 -0.14749105
0.053010378 -0.16803141 0.016909515 0.14501524 0.1140945 0.03504929 0.0075133573 -0.037514225
-0.103743374 0.12145299 0.114167124 -0.050974745 -0.0017983866 -0.10499757 -0.08677628 -0.11290559
0.16957098 -0.06843029 0.04857706 -0.10919004 0.10767894 0.113927275 -0.15359503 0.020449989
0.07030133 -0.15362166 0.19004945 0.005773181 -0.15049781 0.19339776 0.12480652 0.108547196
0.0064250594 0.07167702 -0.0686756 -0.061858814 0.085762955 -0.11208671 0.080490425 0.04667235
-0.03237971 0.03244416 0.09342532 0.050583165 0.07470719 -0.004629979 -0.12388816 0.06093427
0.124096885 -0.12531556 -0.115536444 0.016555151 -0.086787075 -0.056850992 0.1604926 0.11279241
0.14207457 0.13712111 -0.07578706 0.16509707 0.051762816 -0.11547934 -0.1551197 0.17904843
-0.015903449 0.05721752 0.1410013 0.059605643 0.059423804 0.111819126 -0.13374336 0.08124639
-0.019629175 -0.14990138 -0.12822747 -0.102400474 -0.064517185 0.0037975197 0.045732893 0.1851714
-0.14533074 0.13729352 0.09499282 0.03500992 -0.11932241 -0.022408212 -0.12467056 -0.16590239
-0.0052702874 0.08921879 0.13204832 0.05217458 0.009692696 0.010181382 -0.101289056 -0.14479202
0.005818711 -0.08551873 -0.094193146 -0.11133659 0.0007250372 0.10827811 0.09584528 -0.11289501
-0.100994386 -0.014804432 -0.104967594 0.10559559 0.124898024 -0.11221295 -0.14823343 0.17431806
-0.1868809 0.11914602 -0.0816109 0.19760962 0.10624169 0.08226127 0.19170468 -0.17160775
0.14263734 -0.11255378 -0.021052726 -0.015642872 -0.15394996 0.019521547 -0.137349 -0.07022115
-0.027574498 0.17201369 -0.16869584 -0.058549568 -0.08688142 -0.008359056 0.027043166 -0.04523721
0.049980897 0.18131882 -0.1251747 -0.0013192253 0.10676314 -0.038637444 0.033386897 0.052680813
-0.1132853 -0.05002396 0.054943826 -0.11060517 0.062171485 0.09363021 0.09284504 -0.11528735
-0.018613605 0.12196136 -0.1366881 0.14514722 0.10238735 0.034036033 -0.050600596 0.13853471
0.14995341 -0.0743985 -0.01419449 -0.046433162 -0.05137596 0.15019922 -0.10856011 -0.15350148
0.15654373 -0.026499946 -0.15467489 -0.04967158 -0.027957901 -0.08843946 -0.049598463 0.110039435
0.18772662 -0.16029817 0.116776146 -0.06391428 0.07751984 0.06998069 0.09857959 -0.1439089
-0.12589593 0.0016617015 0.003009972 -0.1422165 0.15114132 -0.00014119265 0.091081575 -0.011944296
-0.09955866 -0.12844025 -0.052006964 0.07242145 0.10043133 -0.085540436 -0.06209478 0.09650172
0.07568048 -0.11022115 -0.06485065 0.15430982 -0.17316782 -0.07848656 0.123929575 0.14009702
0.1153588 -0.09803928 -0.14810999 -0.036977135 -0.14233965 -0.0660428 0.12500878 0.17314185
00000000: bc38 3cbe 489c 00be 2b56 20be 68f3 4a3d
00000010: 21be bfbd b3aa 3e3d 0b55 083d 76e8 85bd
00000020: 863d 78ba afe2 07b9 965a 2dbd 89de 583d
00000030: fc42 d93c ce47 793d 2a05 1cbb 98d5 04be
00000040: 2845 4fbd 935e e2bd 4410 28be 6793 b4bb
00000050: b90a 6abd b29a d1bd ec32 de3d 05b6 30bd
00000060: e1a4 203e cffe 9bbd aa6e 0fbe 2dc3 08bb
00000070: 4280 d03d 0103 6a3e 3ac4 01be b258 ecbd
00000080: 165d ff3d d0ea 813c 7c6d 6cbc 47c0 213d
00000090: be7d 1e3d dea6 033d 7ce9 05be e507 17be
000000a0: 6921 593d 6d10 2cbe d385 8a3c e07e 143e
000000b0: 61aa e93d d88f 0f3d 9c32 f63b 84a8 19bd
000000c0: 6877 d4bd 58bc f83d 74d0 e93d e5ca 50bd
000000d0: d7b7 ebba f708 d7bd c3b7 b1bd 0c3b e7bd
000000e0: 04a4 2d3e 2e25 8cbd bdf8 463d 079f dfbd
000000f0: c786 dc3d b452 e93d 0448 1dbe bc86 a73c
00000100: 25fa 8f3d ff4e 1dbe 539c 423e f42c bd3b
00000110: 191c 1abe 100a 463e 909a ff3d fe4d de3d
00000120: 4e89 d23b 67cb 923d cba5 8cbd ab5f 7dbd
00000130: 7da4 af3d b88d e5bd 2ad8 a43d 822b 3f3d
00000140: 96a0 04bd 2be4 043d c655 bf3d 4b30 4f3d
00000150: 1500 993d 14b7 97bb 13b9 fdbd 3796 793d
00000160: 8226 fe3d b952 00be 5f9e ecbd ab9e 873c
00000170: 6cbd b1bd 96dc 68bd 2c58 243e b5ff e63d
00000180: ff7b 113e 7a69 0c3e 3f36 9bbd 350f 293e
00000190: 3f05 543d 6f80 ecbd b3d7 1ebe 7958 373e
000001a0: f347 82bc eb5c 6a3d a562 103e 0c25 743d
000001b0: 6066 733d 6d01 e53d 05f4 08be 8264 a63d
000001c0: 5dcd a0bc bf7f 19be 104e 03be 57b7 d1bd
000001d0: 9621 84bd cfdf 783b 6a52 3b3d 929d 3d3e
000001e0: 95d1 14be ac96 0c3e 988b c23d 9066 0f3d
000001f0: 4f5f f4bd 6d91 b7bc 4753 ffbd 51e2 29be
00000200: 60b2 acbb 57b8 b63d ad37 073e 03b5 553d
00000210: 1dce 1e3c d0cf 263c a370 cfbd 5c44 14be
00000220: e3aa be3b 7224 afbd 56e8 c0bd 7004 e4bd
00000230: 6c10 3e3a eac0 dd3d 884a c43d 8035 e7bd
00000240: 25d6 cebd 4a8e 72bc 40f9 d6bd 8042 d83d
00000250: 89ca ff3d e7cf e5bd 81ca 17be 6f80 323e
00000260: b55d 3fbe d402 f43d 9e23 a7bd 2d5a 4a3e
00000270: 3e95 d93d 9978 a83d 3b4e 443e f1b9 2fbe
00000280: 860f 123e 9982 e6bd c476 acbc 7b25 80bc
00000290: 0fa5 1dbe a7eb 9f3c 37a5 0cbe 1bd0 8fbd
000002a0: eae3 e1bc 5b24 303e 9abe 2cbe acd1 6fbd
000002b0: e3ee b1bd 6cf4 08bc a189 dd3c a74a 39bd
000002c0: c5b8 4c3d a4ab 393e cc2d 00be dbe9 acba
000002d0: a2a6 da3d 4c42 1ebd b3c0 083d d6c7 573d
000002e0: 2002 e8bd ede5 4cbd c70c 613d f784 e2bd
000002f0: 87a7 7e3d 32c1 bf3d 8a25 be3d c61b ecbd
00000300: 8f7b 98bc e1c6 f93d f7f7 0bbe 79a1 143e
00000310: 75b0 d13d 5e69 0b3d 9242 4fbd 0bdc 0d3e
00000320: 638d 193e 3e5e 98bd 0290 68bc b330 3ebd
00000330: 996f 52bd d3cd 193e c354 debd 7e2f 1dbe
00000340: 004d 203e 6a16 d9bc 1863 1ebe 6d74 4bbd
00000350: f807 e5bc bf1f b5bd c227 4bbd 5b5c e13d
00000360: 683b 403e 3425 24be 5528 ef3d 7de5 82bd
00000370: b9c2 9e3d 0952 8f3d 19e4 c93d db5c 13be
00000380: ddea 00be 73cd d93a f342 453b 34a1 11be
00000390: cac4 1a3e 1d0d 14b9 fa88 ba3d 02b2 43bc
000003a0: 69e5 cbbd d785 03be 4105 55bd b251 943d
000003b0: f1ae cd3d d32f afbd 1957 7ebd b2a2 c53d
000003c0: 5efe 9a3d a0bb e1bd 6bd0 84bd 6503 1e3e
000003d0: e852 31be 90bd a0bd cace fd3d 9875 0f3e
000003e0: 3c41 ec3d d1c8 c8bd 25aa 17be 5675 17bd
000003f0: 7cc1 11be 7341 87bd 4d02 003e 194c 313e

decoder.2.0.bias f4 [128]
0.18735686 0.16292602 0.120460436 -0.18348922 -0.033807214 -0.082679585 0.19214007 0.13123289
-0.1816956 -0.17151856 -0.07821532 0.10714831 -0.049313895 0.1119903 -0.06383518 0.17948323
-0.06318076 -0.10843867 -0.098607965 -0.18978123 0.06612391 0.15688863 -0.10853763 0.05499696
-0.023097485 -0.12018459 -0.06200552 0.09496325 0.18926166 -0.025778856 0.11247481 -0.18738869
-0.05157328 -0.037324883 0.021356493 -0.09856038 -0.097073406 -0.09956606 0.06805904 0.026058713
0.19527043 0.06509808 0.12337979 0.14203334 0.05802973 0.13754283 0.045339964 0.10352341
0.05506268 0.030334903 0.111349426 -0.09725624 -0.10260048 -0.043058082 -0.13860919 -0.05643139
-0.03348657 0.03423948 -0.034035236 0.04619943 0.0058937776 -0.0505078 0.08847043 0.13097554
0.16171174 0.0026581872 -0.08699577 -0.12069468 0.04103395 -0.13924606 -0.13473116 0.12873724
-0.16721341 -0.15481861 0.08221671 0.008136541 -0.048362102 -0.09087223 0.052942164 0.043721016
0.0781277 -0.00052365067 0.010489614 0.030315664 0.11056414 0.020281313 -0.062071748 0.19758059
-0.028081765 -0.16851895 0.04651873 0.081941605 -0.035950813 0.19137321 -0.09099506 -0.10256038
0.03265823 0.17336269 -0.05535487 -0.19924268 -0.077428855 0.13144924 -0.0825298 0.13426937
0.037232738 0.050668817 0.0840989 -0.15339074 0.09959609 -0.015462434 -0.091785006 0.11010684
-0.079539545 -0.1643388 0.157307 0.13349628 -0.085786924 -0.13404885 -0.10626679 -0.09368543
-0.031139322 -0.11509726 0.18143663 0.16529527 0.20161504 -0.09689162 0.048619926 0.14278951
00000000: 7ada 3f3e 14d6 263e f6b3 f63d 99e4 3bbe
00000010: 6f79 0abd ea53 a9bd 5ec0 443e ea61 063e
00000020: 690e 3abe 90a2 2fbe 5b2f a0bd 9370 db3d
00000030: 5efd 49bd 2c5b e53d 05bc 82bd 74ca 373e
00000040: ea64 81bd 1815 debd f9f2 c9bd 0356 42be
00000050: f96b 873d 6aa7 203e fa48 debd 7e44 613d
00000060: f036 bdbc 5723 f6bd 80f9 7dbd 187c c23d
00000070: cfcd 413e 2e2e d3bc 3159 e63d d2e2 3fbe
00000080: 813e 53bd fae1 18bd d0f3 ae3c 06da c9bd
00000090: 6cce c6bd 4ae9 cbbd 8a62 8b3d 1579 d53c
000000a0: f9f4 473e 2452 853d 8bae fc3d 3071 113e
000000b0: 95b0 6d3d 07d8 0c3e 66b6 393d 1504 d43d
000000c0: 6889 613d e780 f83c 2b0b e43d 482e c7bd
000000d0: 3320 d2bd ac5d 30bd 91ef 0dbe 9a24 67bd
000000e0: 3729 09bd b23e 0c3d 8868 0bbd 9d3b 3d3d
000000f0: 9720 c13b 44e1 4ebd fc2f b53d 741e 063e
00000100: c397 253e fb34 2e3b d72a b2bd c62e f7bd
00000110: 3713 283d 8596 0ebe f7f6 09be b2d3 033e
00000120: fe39 2bbe c588 1ebe 3c61 a83d 204f 053c
00000130: 5717 46bd 381b babd e2d9 583d cf14 333d
00000140: 6a01 a03d 9a45 09ba a1dc 2b3c 8e58 f83c
00000150: 746f e23d ff24 a63c f23e 7ebd 9152 4a3e
00000160: bb0b e6bc 3b90 2cbe 6d8a 3e3d 00d1 a73d
00000170: 2941 13bd 57f7 433e 9e5b babd 2d0b d2bd
00000180: a3c4 053d fd85 313e cabb 62bd 4606 4cbe
00000190: 0593 9ebd a19a 063e 6205 a9bd e97d 093e
000001a0: 5b81 183d 1b8a 4f3d 0b3c ac3d 7612 1dbe
000001b0: 09f9 cb3d 2656 7dbc c7f9 bbbd b27f e13d
000001c0: a1e5 a2bd 6e48 28be 1615 213e 40b3 083e
000001d0: 0eb1 afbd 1a44 09be 67a2 d9bd 26de bfbd
000001e0: e417 ffbc 1db8 ebbd 86ca 393e 2a43 293e
000001f0: 2c74 4e3e 1d6f c6bd b025 473d 6a37 123e

decoder.3.weight f4 [179, 128]
0.042328555 -0.013109503 0.081880294 0.053588577 0.06603183 0.06676374 0.1076318 0.010574745
-0.016593117 0.060370892 -0.034281194 -0.0007711991 -0.008760739 0.023624156 -0.04921637 0.047516856
0.012194861 0.08667688 -0.040339377 -0.054970767 0.0074908724 -0.051537856 0.080451496 0.07012177
0.0724542 0.01922833 -0.048391152 0.0498315 0.105519034 -0.004723501 0.072088294 -0.09466808
-0.078159064 0.011721555 0.0475768 -0.033258174 -0.048609 0.026955064 0.054986723 -0.07106884
0.04854596 -0.0043761753 0.0073056975 0.10366829 -0.09234937 0.08466496 -0.025063418 0.070910536
0.0076720766 0.1275242 0.038163003 0.13624276 0.010423361 -0.0055661546 0.018890204 -0.04798725
0.048569273 0.09274113 0.028649148 -0.0076725893 -0.08845357 -0.06758092 0.014635491 -0.066107966
-0.031126106 -0.07956847 -0.051307835 0.011391729 -0.003801022 -0.042502142 -0.09213909 0.03985316
-0.013214682 0.006858172 -0.053246975 -0.035846323 -0.17250733 -0.120214015 0.07369867 0.054860607
-0.007070494 -0.03129548 0.026278265 0.02201789 0.01265166 -0.0074492497 -0.055171676 0.00430736
0.050408233 -0.029575573 0.037995216 0.038640786 -0.07584093 0.027520863 -0.015091146 -0.0012677787
0.021213047 0.042374887 -0.032948878 -0.018107262 -0.0505574 0.02038448 -0.04308848 0.08365279
0.05599546 -0.13224265 0.04489578 -0.013963192 0.04111866 0.027151762 -0.07173382 0.036597308
-0.027280223 -0.012832427 0.09428918 -0.003553984 0.0071696816 0.07577887 -0.06781946 -0.08338979
0.10786903 -0.043349296 0.040316213 0.059053842 0.019779263 -0.035904177 -0.06800181 -0.011837747
0.0040340414 -0.0033154949 -0.030841801 -0.04852887 0.030757722 0.06903104 -0.03354853 0.021921052
-0.089401715 0.040789947 0.019931426 -0.0937712 -0.10381204 0.041803323 0.088091224 0.08238707
-0.08433013 0.037172157 0.033011395 -0.1017642 0.09576501 -0.045164533 0.08622399 0.061820883
-0.0043164925 -0.04073956 0.033747416 0.06258281 0.0062920493 -0.066600025 0.08804633 0.024655981
-0.08954364 -0.046692666 0.00064685504 -0.015772475 -0.081168294 -0.0004954639 0.023510028 0.06945111
0.050408512 0.022393946 -0.032406982 0.011207465 0.07704605 0.080014914 0.015166511 0.011255477
-0.01673792 0.026617566 0.13980427 0.12801254 -0.07065079 0.05780906 -0.10789474 -0.083506145
0.062441025 0.10121833 0.119332254 0.06502689 -0.028643854 0.014833172 0.118092515 -0.05358481
-0.05490853 -0.014105879 -0.05586474 0.027032206 0.03286536 -0.033983216 -0.10392216 0.072336435
-0.023307107 0.023004916 0.09838059 -0.08435699 -0.17504534 -0.018455 0.066589385 0.085616924
0.07730812 -0.07045401 -0.07227955 -0.034119368 0.08261999 -0.004848135 -0.111280404 0.12319895
-0.062249895 0.020593753 0.071363404 -0.014635364 -0.05582888 0.06879527 -0.056292247 -0.04308163
0.10035395 -0.01083842 -0.0026930873 -0.091446675 0.027144823 0.08373312 -0.08987151 -0.03122214
-0.070377566 -0.033988692 -0.023888607 -0.06294613 0.07704244 0.0999162 -0.09407207 0.010541448
0.036095567 0.030927634 -0.025486818 -0.06678892 -0.068547845 0.0711243 -0.07876116 -0.029337708
-0.041187897 0.0507647 -0.010968656 0.0861318 0.11811424 -0.038238496 -0.01631441 0.06906842
00000000: b560 2d3d 3ec9 56bc dbb0 a73d b27f 5b3d
00000010: b23b 873d 6dbb 883d 106e dc3d b241 2d3c
00000020: 4aee 87bc 7847 773d 706a 0cbd 4c2a 4aba
00000030: 3489 0fbc 7287 c13c 1b97 49bd 09a1 423d
00000040: f4cc 473c a683 b13d e73a 25bd 0729 61bd
00000050: fe75 f53b 5c19 53bd c1c3 a43d 019c 8f3d
00000060: de62 943d bb84 9d3c cd35 46bd 1d1c 4c3d
00000070: 5d1a d83d 99c7 9abb 07a3 933d 57e1 c1bd
00000080: dc11 a0bd c40b 403c e4df 423d b939 08bd
00000090: 3b1a 47bd ded0 dc3c c239 613d 8a8c 91bd
000000a0: 21d8 463d 0566 8fbb a264 ef3b 0a50 d43d
000000b0: ab21 bdbd d364 ad3d cc51 cdbc 8b39 913d
000000c0: 0b66 fb3b b495 023e cf50 1c3d 3983 0b3e
000000d0: bfc6 2a3c 4a64 b6bb a1bf 9a3c 478e 44bd
000000e0: 93f0 463d 10ef bd3d 9eb1 ea3c 586a fbbb
000000f0: 2527 b5bd de67 8abd b3c9 6f3c 9d63 87bd
00000100: 2dfc febc cbf4 a2bd 2a28 52bd 60a4 3a3c
00000110: 911a 79bb ba16 2ebd 6bb3 bcbd 113d 233d
00000120: 6582 58bc 84ba e03b 8019 5abd 98d3 12bd
00000130: c3a5 30be c432 f6bd 54ef 963d 84b5 603d
00000140: 9aaf e7bb b02f 00bd 8445 d73c dd5e b43c
00000150: e848 4f3c d618 f4bb b2fb 61bd c124 8d3b
00000160: dd78 4e3d 7948 f2bc dfa0 1b3d cd45 1e3d
00000170: 7d52 9bbd 6f73 e13c db40 77bc 982b a6ba
00000180: fcc6 ad3c 4a91 2d3d 67f5 06bd ae55 94bc
00000190: 4715 4fbd 5afd a63c 8c7d 30bd 2752 ab3d
000001a0: 7f5b 653d 9e6a 07be a3e4 373d dfc5 64bc
000001b0: 0a6c 283d 5f6d de3c 2ee9 92bd 0fe7 153d
000001c0: c67a dfbc 1a3f 52bc b01a c13d f5e9 68bb
000001d0: a6ef ea3b f431 9b3d eee4 8abd 44c8 aabd
000001e0: 70ea dc3d 088f 31bd 9d22 253d 71e2 713d
000001f0: 1f08 a23c 4210 13bd 8844 8bbd 1cf3 41bc
00000200: fe2f 843b c648 59bb f2a7 fcbc 35c6 46bd
00000210: 9ef7 fb3c 2560 8d3d 2f6a 09bd c793 b33c
00000220: 3f18 b7bd 5c13 273d 3b47 a33c 1d0b c0bd
00000230: 689b d4bd f639 2b3d 2c69 b43d 8dba a83d
00000240: 46b5 acbd d541 183d f536 073d c069 d0bd
00000250: 7220 c43d 72fe 38bd 3496 b03d e537 7d3d
00000260: 5d71 8dbb 86de 26bd bb3a 0a3d 6b2b 803d
00000270: 892d ce3b 9865 88bd a251 b43d 57fb c93c
00000280: a862 b7bd cf40 3fbd b591 293a 4735 81bc
00000290: 903b a6bd 05e2 01ba 1a98 c03c 623c 8e3d
000002a0: 2879 4e3d 8273 b73c 2fbd 04bd 849f 373c
000002b0: 52ca 9d3d dcde a33d f57c 783c e468 383c
000002c0: f61d 89bc 150d da3c da28 0f3e b815 033e
000002d0: 5db1 90bd 31c9 6c3d ebf7 dcbd 4505 abbd
000002e0: 29c2 7f3d 8e4b cf3d 7864 f43d d12c 853d
000002f0: 84a6 eabc d506 733c 7dda f13d bf7b 5bbd
00000300: c4e7 60bd 581c 67bc 6dd2 64bd a572 dd3c
00000310: d49d 063d fc31 0bbd 24d5 d4bd 2025 943d
00000320: 8cee bebc ce74 bc3c c37b c93d 5cc3 acbd
00000330: 163f 33be f12e 97bc 0460 883d ed57 af3d
00000340: b853 9e3d 314a 90bd 4d07 94bd c0c0 0bbd
00000350: ab34 a93d 1bdd 9ebb fbe6 e3bd bb4f fc3d
00000360: bff9 7ebd 3bb4 a83c fa26 923d 2ac9 6fbc
00000370: d3ac 64bd 89e4 8c3d b392 66bd 5d76 30bd
00000380: 5f86 cd3d a193 31bc 827e 30bb 6548 bbbd
00000390: d25e de3c 457c ab3d 8e0e b8bd 93c5 ffbc
000003a0: 1d22 90bd ba37 0bbd 0ab2 c3bc e7e9 80bd
000003b0: 6dc8 9d3d dda0 cc3d dca8 c0bd 0ab6 2c3c
000003c0: f2d8 133d f35b fd3c bbc9 d0bc a1c8 88bd
000003d0: d062 8cbd 9ea9 913d 884d a1bd a255 f0bc
000003e0: a4b4 28bd a5ee 4f3d e1b5 33bc df65 b03d
000003f0: e1e5 f13d f89f 1cbd cca5 85bc be73 8d3d
