experiments/data/ae/034_UCR_Anomaly_DISTORTEDInternalBleeding6_1500_3474_3629.txt-.ckpt (torch, 587682 bytes, 48 tensors)

encoder.0.0.weight f4 [128, 148]
00000000: 656a 6abc 9795 363b b833 3ebc 67a4 053d
00000010: a113 a13d f72a 8ebd 6d9f 2bbd 115c 173d
00000020: c75d 88bb 8009 443d fe05 013c 8595 973d
00000030: 2e0f 00bd 21eb 8b3d 9d40 aa3d 52e1 76bd
00000040: d4cd a8bc f8ca c13d 9fdc aa3d e0d0 aebc
00000050: 10f9 813d 346d 59bc 50f6 a33d 5454 63bd
00000060: d7c1 353d addf 963d f9d7 8c3d 469b 77bd
00000070: 3eba e9bb 8fab 3f3d 1109 61bd 5718 5cbc
00000080: 4318 66bd 14a8 853d b200 a23d 4e57 c3bc
00000090: bd29 813d 6eba 2c3d 85ff 963b c099 43bc
000000a0: 3533 45bc 56f4 d0bc a35d 353d 577a 043d
000000b0: 2153 c33d 3292 903d 5e89 713d f08a bd3b
000000c0: a1db 8e3d 21c4 5bbd 4683 983d c07e 98bc
000000d0: ade0 ab3c 1e32 7f3d 00c3 633d 7569 da3c
000000e0: dfe2 07bd cc93 72bc 54e4 613d e2bf 2fbd
000000f0: 400c 853d ed2b 703d 6a09 7dbd 3892 46bd
00000100: 96e0 bf3d b4b1 913d 4f00 b73d 10dc 033d
00000110: 3eda 953d 83b2 9a3c 7ce6 3abd 02de 9ebb
00000120: 9484 1fbd c8a1 c9bc 79a5 7dbc a12f f6bc
00000130: db9f b43c 4787 9bbc 0d3e 713c 2f5b 3abc
00000140: 04d6 89bd d675 073d 1904 4cbc 975b 15bd
00000150: c243 853b 87ac 1cbd 1f57 d43c d26b ad3d
00000160: 4928 1fbd 2f9b e23b 0d9a 643d 3052 b13d
00000170: ae22 6e3d 46c3 063d 34e8 be3c f407 5ebb
00000180: ad7b b73d 3b2b 3d3d 253e c53c 1de3 d2bc
00000190: 9dbb e3bc 7466 323c d99b 813d c5c3 923d
000001a0: 3050 32bc 54c7 ad3d 8a82 753d f19a ddbc
000001b0: 338a 883b 4608 46bc 6fb8 af3d a1f6 6cbd
000001c0: 2e70 643d 671d 26bd f564 8c3c c8a2 a53c
000001d0: c601 153d 9a80 803d 66c7 d13b 54a8 edbc
000001e0: 14ed e53b b201 07bd 48ff ce38 3a59 d43c
000001f0: 3ac5 1dbd e6e8 4bbd d32c cbbb 6e2a 8dbc
00000200: 9efe 853d e5f8 ae3d fe42 993b 91a8 bfbc
00000210: ff2e c4bc 90e2 ebbc 3c5d 0e3d 271f 88bd
00000220: 5436 883d 30bc a03d c26c 7f3d 02b7 85bd
00000230: df32 853d fac7 3d3c 2d76 fb3c 18cb 9cbc
00000240: 7ddb 663d 4011 ae3c 920a ad3a 2402 84bd
00000250: 81f9 57bd 9ead 023d d7ed 39bd 04c9 4cbd
00000260: 0809 be3d 1546 3dbd 7653 97bb 49cb 40bd
00000270: d3c2 e93c e402 27bb 0a9b 3fbc 4a08 893d
00000280: 74cd 83bd 918a 9fbc 7cd0 d4bb 714e 28bb
00000290: c14b c83d d58a 06bd 2bdb 503d 0184 4e3d
000002a0: 8e00 df3c 95fc b83c 5a40 3cbc 194e a23d
000002b0: 1db6 be3d 842e eebc 3e0d 7dbc c0a3 733d
000002c0: a2b2 d13c 6788 1d3d 2577 9c3d 5c3b 87bd
000002d0: 95f4 293d 9e4d 3dbd a526 d93c 86f9 1b3d
000002e0: 237b eebc 75e2 bcbc caf2 0c3a f5b2 2e3d
000002f0: f14b c13d 8097 af3c ec70 8f3d a5ef 553d
00000300: c161 04bd c09b 72bb a962 bc3d f40b 9d3d
00000310: a82f ba3d 0fdd 83bd 1597 cbb9 4f40 953d
00000320: aec6 e3bc 8c93 8b3d 974e 58bc b9ba 81bd
00000330: 532c 033d 0977 e33a d753 433c 35c6 563d
00000340: 1622 853c 4e60 6ebc c7da 81bc 712c f9bc
00000350: 229b 0dbd 7622 41bd 7ce7 0f3c e0dd 64bd
00000360: b71d b33d 79c8 d1bc 265d 34bd 57af 4dbc
00000370: 6b41 16bd f605 02bd f168 68bd 1e11 af3d
00000380: 3fab 26bb b877 943c 3362 60bc e2ee c33d
00000390: 255a a53d 23c9 a63b 0021 6fba 5862 2fbc
000003a0: 3835 50bd a536 aabb 9d69 3a3d e060 ad3d
000003b0: b1d5 26bd e71b 2b3b 14ea 00bd 78ca a0bc
000003c0: 62f2 6e3d 4fe6 a23c 65d2 3f3d a5a6 9abc
000003d0: c9a7 a53d ebd1 083d 3634 a93d 59b1 3abd
000003e0: a05c 2cbd 0dc0 403c a3f5 08bd 2984 d3bc
000003f0: b08b 16bd 7e6b f1bc 9b92 6c3d 1ae0 be3c
-0.014307593 0.0027860159 -0.01160901 0.03262749 0.07865072 -0.06941789 -0.041900087 0.036953036
-0.0041615698 0.047860622 0.007874964 0.074015655 -0.031264476 0.06831957 0.08313105 -0.060273476
-0.020605959 0.09462541 0.083428614 -0.021339834 0.06346333 -0.013270665 0.08005965 -0.055500343
0.044374313 0.073668815 0.06877131 -0.060450815 -0.0071327975 0.04679447 -0.054940287 -0.013433537
-0.05617548 0.06526199 0.07910289 -0.023845341 0.06306789 0.04216998 0.004608097 -0.011938512
-0.0120361345 -0.025507133 0.044278752 0.032343235 0.0953734 0.070591345 0.058968894 0.005784385
0.06975485 -0.05365384 0.074469134 -0.018615127 0.020981157 0.062303655 0.05560589 0.026661614
-0.033175346 -0.014805745 0.05514939 -0.042907603 0.06496477 0.05863564 -0.061776556 -0.04847929
0.09369008 0.07113972 0.08935606 0.03219229 0.07317017 0.01888395 -0.045629963 -0.0048482427
-0.038944796 -0.024613276 -0.015481346 -0.030052008 0.022048881 -0.018985404 0.014724267 -0.011374279
-0.06730273 0.03307136 -0.012452149 -0.0364643 0.0040669153 -0.038250472 0.025920449 0.08467831
-0.03885678 0.006915472 0.055810977 0.08658254 0.058138542 0.03290107 0.023304082 -0.0033879252
0.08959136 0.046183806 0.024077484 -0.025743062 -0.027799422 0.010888685 0.06328554 0.07166246
-0.010883376 0.084852844 0.059938945 -0.02705142 0.0041668653 -0.0120869335 0.085801 -0.05785239
0.055771045 -0.040555384 0.017137984 0.020219222 0.036378644 0.06274529 0.006401944 -0.02901093
0.0070167873 -0.0329606 9.870395e-05 0.025921453 -0.038518168 -0.049782656 -0.006200412 -0.017232146
0.06542705 0.085435666 0.0046771755 -0.023395808 -0.02394819 -0.028794557 0.034756884 -0.06646567
0.06650987 0.07848394 0.06235958 -0.065290466 0.065038435 0.011583323 0.030695999 -0.019139811
0.056361664 0.02124846 0.0013202003 -0.06445721 -0.05272818 0.031903856 -0.045392837 -0.04999639
0.09279066 -0.046209414 -0.0046181036 -0.047068868 0.028535282 -0.00254839 -0.011694679 0.06691034
-0.064356714 -0.019475253 -0.00649458 -0.002568152 0.09780074 -0.032847244 0.050990265 0.050418857
0.027221944 0.022581378 -0.011489952 0.07925052 0.09312079 -0.029074915 -0.015445052 0.059482336
0.025597874 0.03846016 0.076399125 -0.06603119 0.041493017 -0.0462166 0.026507685 0.03807976
-0.02911145 -0.023057202 0.00053767546 0.042651135 0.09438313 0.021434546 0.0700396 0.052230496
-0.032319788 -0.0037019104 0.091985054 0.076682955 0.09091121 -0.06438648 -0.00038831742 0.072876565
-0.027804699 0.06815252 -0.013202331 -0.06334443 0.032024693 0.0017354201 0.011921844 0.05243512
0.016251605 -0.014549328 -0.015851391 -0.0304167 -0.034571774 -0.047152005 0.0087832175 -0.05587566
0.08745902 -0.025608288 -0.044034146 -0.012554011 -0.03668348 -0.031743966 -0.056740705 0.08548187
-0.002543166 0.018123493 -0.0136952875 0.09567048 0.08073834 0.0050898953 -0.0009122044 -0.010704599
-0.050832003 -0.0051945024 0.045510877 0.08465743 -0.040731136 0.002610916 -0.031473234 -0.019627795
0.058336623 0.01988521 0.046831507 -0.01887829 0.08088643 0.03340332 0.082619116 -0.04557929
-0.04208052 0.0117645385 -0.033437382 -0.025819855 -0.03675431 -0.029470202 0.057757 0.02330022

encoder.0.0.bias f4 [128]
00000000: 4385 32bd 640b af3d f00a 383d 82ff e63b
00000010: ac06 54bc 2826 f83c 7b8c ecbc 96fa 423d
00000020: f3ec bfbc c34c 543d 3d8b 333c da72 a5bd
00000030: 9bfe b4bc 4500 0f3d 38c9 3c3d 25f1 41bd
00000040: 7920 c1bc 5504 2cbc b7a0 5dbd 42b1 103d
00000050: 57b9 9aba 2afc a3bc 07a3 973c fc4c 8abd
00000060: 46d1 a5bd 9468 a0bc e73e e5bc c612 1c3c
00000070: a234 a73d f0c2 e9bb 9611 24bd e642 9a3d
00000080: 3fc6 49bd 373a 103d be50 b9ba d281 5a3d
00000090: c804 8f3d 2699 383d 82e3 2fbd 4286 70bd
000000a0: bb37 e53c 1393 643d 3194 aebc c9cd 98bc
000000b0: 2aad 93bd 96f4 6cbd d938 c13c a870 babd
000000c0: 94ad 6b3d 7500 7fbc 902e 1a3c dad9 95bd
000000d0: ce48 863d 2e2a 58bd e2a8 70bb 333a 903c
000000e0: 90ea 02bd 5cd5 4d3d 96b2 9cbc c8a8 5abd
000000f0: 9c9f adbd 00b0 c0bc 6bc8 afbd afff 86bc
00000100: 67b7 f63b c016 563d 05f5 8c3d 5a9b 1abc
00000110: 3105 a83d c289 62bc 1e01 b23d 5e69 17bc
00000120: b2b7 503d 12f7 9c3d ee54 a43c 52b7 9b3d
00000130: 7641 6abc a784 16bd 24cd 2b3d 45ec 9c3b
00000140: ab92 c3bc 78ad 533d 11d5 563d f1f3 6fbd
00000150: 736c 203d 1058 903d b866 573d ba7f 56bd
00000160: 4992 313d 0d9b 62bc 05a7 d83c cda4 b639
00000170: e851 2dbd 6a37 2b3d 08eb 2eba ed2b 25bd
00000180: 35d7 163d 0226 a3ba eb27 0a3c 5e8e db3c
00000190: 2685 283d da65 473d 564f 0b3d d696 593d
000001a0: 8792 e43c 3422 be3b afbd ab3d 6e0c 72bd
000001b0: c1d0 063d 0d51 a9bc d45a 11bd 4fda 55bc
000001c0: 0af7 953d 87eb 8e3c a2e8 e73c ef6f adbb
000001d0: 9791 89bb 8d9d ab3c 6241 2bbd eec6 513d
000001e0: 459c 60bd 6b24 be3d 35fe b43c 5138 583d
000001f0: 4e3d 2b3b b07d 383d 33a0 19bd 5fa5 4fbd
-0.04358412 0.085470945 0.044932306 0.007049502 -0.012941044 0.030291632 -0.02887558 0.04760226
-0.023428416 0.05183102 0.01095849 -0.08078547 -0.022094062 0.034912366 0.046090335 -0.047349114
-0.023575054 -0.01049908 -0.054108348 0.035325296 -0.0011804503 -0.020017702 0.018510355 -0.06752965
-0.08096556 -0.019581117 -0.027984096 0.00952596 0.08164336 -0.007133834 -0.040055834 0.07532291
-0.049261328 0.035211768 -0.0014138443 0.053346463 0.06983334 0.04506793 -0.042941578 -0.05872179
0.027980676 0.055804323 -0.021310898 -0.018652814 -0.07210763 -0.057850443 0.023586677 -0.09103519
0.057538584 -0.015564074 0.009410515 -0.073169425 0.06556855 -0.0527746 -0.0036721756 0.017605877
-0.031961977 0.050252303 -0.019128125 -0.05338362 -0.08477709 -0.023521423 -0.085831486 -0.016479341
0.0075291875 0.05226779 0.06882671 -0.009436453 0.08204115 -0.013826789 0.08691619 -0.00924143
0.050956436 0.076643124 0.020060029 0.07603325 -0.014297834 -0.0367476 0.041943684 0.0047889077
-0.023873648 0.051679105 0.05244929 -0.05858225 0.039165925 0.070480466 0.052588195 -0.052367903
0.0433524 -0.013830912 0.026446829 0.0003483653 -0.04231444 0.041800894 -0.00066725956 -0.040325094
0.03682633 -0.001244724 0.008432369 0.026801284 0.041142605 0.048681118 0.034011208 0.053122364
0.027901901 0.005802417 0.08385789 -0.059093885 0.032913927 -0.02066853 -0.03548701 -0.013052537
0.073225096 0.017446293 0.02830917 -0.0052928845 -0.004198264 0.02094915 -0.0418104 0.051215105
-0.05483653 0.0928429 0.022093872 0.052788083 0.002612907 0.04504174 -0.037506294 -0.05069482

encoder.1.0.weight f4 [32, 128]
00000000: ea23 cc3d c60a ae3d f227 a73d c978 a53b
00000010: e701 e13c bf2e 83bd c152 04bd 0da4 a23d
00000020: 5b77 763d be85 c53c 8b0d 013d 47e4 7dbd
00000030: 2db3 83bd b6ef 82bb 6210 c5bc 06ae 633b
00000040: b10e 87bd 733a 1e3d eb5c 84bd 1cb8 3fbd
00000050: 14ae 0dbd b85e 083d e729 36bb fa6d e9bb
00000060: 959d a6bc 96c9 8a3c bdd9 2f3d 93df cbbc
00000070: 6d96 59bd 899a 223b 112a 19bd f414 80bd
00000080: 4c2b 7ebd 2ae4 b8bd cf89 d9bc 0508 bebd
00000090: ff93 703d ec06 fbbc dd75 7d3d d371 38bd
000000a0: 884d 413d 1f83 bf3c 384c bb3b 8fd2 0f3c
000000b0: 3d99 1cbd 7354 8f3c 5659 943d 9ffa debc
000000c0: ffe0 1dbc b99e 323d cc07 a8bc 3fe8 a5bc
000000d0: 37d3 c03d ca61 97bd 80e5 3f3d 5094 0dbd
000000e0: c76f ae3b c672 913d 9a7d debc 1632 033d
000000f0: 8af0 cfbd 8587 96bd ad6c e23b ca15 43bc
00000100: f4a5 593c 48c3 5fbd 23b8 8bbd 5285 61bd
00000110: 80ac 223d 7adc 7fbd 8b2c 8ebd eb74 08bd
00000120: 4879 4ebc c189 3dbd 25c2 44bd 8348 0d3d
00000130: 342b 1a3a 8668 20bd bcfa 58bd 821f 3e3d
00000140: 284e c93d b93d 40bb a76c 0d3d 5c21 9e3d
00000150: 94f8 89bd 9e5d 903d e4bf 81bc f294 1d3d
00000160: 7950 74bd 7928 14bd dd44 c4bb bdbb e2ba
00000170: 1bf7 503d ac73 13bd d8a5 14bd 9c24 a73d
00000180: 636e 883c 7bdb c5bc a285 4e3c 2138 883d
00000190: 1616 c83d 3414 f4bb 0a58 a33d 2a9f 803d
000001a0: 1f1e 1f3c 5be5 6a3d b8c0 1b3d 8960 133c
000001b0: a995 653d 3701 903d bd9c 93bd eb65 743d
000001c0: b768 f23c 4a4b 213d 3921 0e3d e74f 3bbd
000001d0: 2c34 a73d 7301 663d d828 47bd 145d b03d
000001e0: fa35 333d 5d56 4b3d e7db 9fbc 4ce5 863d
000001f0: 2705 113d 5f04 d13c c643 153d f582 9d3d
00000200: cb2b 4e3d befb d03c 2deb 8d3d 79eb 8d3d
00000210: 50d7 2c3d c5b6 693c 26b9 723c 0939 a1bd
00000220: 7ef0 43bd 4919 70bc 8aeb ca3d 59b4 b33d
00000230: 1225 80bc b687 213d 9653 90bc 76cc 2e3d
00000240: ad78 213d a828 aa3d c6a7 41bd 8ab0 cf3d
00000250: 780f a8bc 90da c13d c513 d93c 150a b43c
00000260: 858d c03a 41dd 893d 584c c23d 5f75 5dbc
00000270: b7b4 5c3d 1b04 7cbd 74b7 95bd fa7c 043d
00000280: 996e c9bd 352b 51bd 199e 68bd 0a8b 073d
00000290: effe e43c 4001 323d 5e42 c43c 46a2 4a3d
000002a0: 2409 333c a019 a23d 11e8 9b3d d0f1 253d
000002b0: 4175 823d 9797 a4bc dbbd 8abd 4b67 6ebd
000002c0: e842 a1bd 9713 7c3c 1378 f43c 7023 9abd
000002d0: 043d c0bc 50fc 263d 2c08 2b3c 242f 91bd
000002e0: 3475 c0bd 80ce a4bd f42c 46bd c12e 393d
000002f0: 7fd7 743b 3a9d 9bbd 2d10 ddbc c0c3 6d3d
00000300: e4a5 cabd a28e 6dbc 8eb0 5f3d c9a6 eb3c
00000310: 318e ad3d d2a9 b8ba 1e3f c8bc 7374 383d
00000320: d344 9dbd 48ca 213c 6c22 673d e3b9 3fbd
00000330: 1331 a03d 9971 45bc b5b4 0e3d 200c 2d3c
00000340: 9520 f83c bc83 fbbc 2c14 c83c 0722 1ebd
00000350: 8cfd 0dbd 5a72 a63d 4ccf 48bd 9801 e1bb
00000360: 6d61 86bd 8c4b c5bd 3c7b 88bd c769 d13b
00000370: ab55 653d 3764 473d 0cf5 963c 8b63 623d
00000380: ec68 983c 0621 08bd 6b14 c0bb d86c 223d
00000390: 6225 b6bb 7674 79bc cf9a 20bd 6a88 17bc
000003a0: 9914 5ebc 06ac ab3d 0b45 0dbd 1fac 10bd
000003b0: 9466 7ebd 3d94 68bd 7f7e 19bd 1167 803d
000003c0: 3b52 7ebd 7b36 223d 0934 8f3d 29d1 d3bb
000003d0: dd2a 9a3d a519 6bbd defc 11bd 791b 04bd
000003e0: 4c6b 9f3d 76b6 4bbc 64ad 9d3d a296 a43c
000003f0: 2d41 bbbc 8561 7abd 56d1 77bd 6f1a 79bd
0.099677876 0.084981486 0.08161916 0.005049799 0.027466727 -0.064054005 -0.032305483 0.079414465
0.06017242 0.024111625 0.031507056 -0.06198528 -0.064306594 -0.003995861 -0.024055663 0.0034741177
-0.06594599 0.03862996 -0.06463035 -0.04680644 -0.034589842 0.033293456 -0.0027795972 -0.007123706
-0.020338813 0.016941827 0.04293226 -0.024886882 -0.053121973 0.0024811348 -0.037393633 -0.062539965
-0.06205301 -0.09027894 -0.02655497 -0.09278873 0.05873489 -0.030642949 0.06187998 -0.045030426
0.04719308 0.023377953 0.005715873 0.008778228 -0.038232077 0.017496323 0.07243602 -0.027219115
-0.009636163 0.0436084 -0.02051153 -0.020252345 0.09415286 -0.07391699 0.046849728 -0.03456527
0.0053233835 0.071019694 -0.0271595 0.032030188 -0.10153301 -0.07350067 0.006909928 -0.01190705
0.013284195 -0.054629594 -0.06822231 -0.055058785 0.03971529 -0.062466122 -0.0694209 -0.033314627
-0.012602158 -0.04627395 -0.048036713 0.03449298 0.00058810716 -0.03916218 -0.052973494 0.046416767
0.0982936 -0.0029333665 0.034527447 0.077212065 -0.06736866 0.07049106 -0.01583857 0.038472123
-0.059647057 -0.03617141 -0.0059896545 -0.0017298382 0.05101691 -0.035998985 -0.036290973 0.081612796
0.016654199 -0.024152508 0.012605103 0.06651331 0.097698376 -0.0074486975 0.079757765 0.06280358
0.009711771 0.057347637 0.038025588 0.008995184 0.05605093 0.07031482 -0.0720763 0.05966751
0.029590948 0.039378442 0.034699652 -0.045730498 0.08164248 0.056153726 -0.048622936 0.08611503
0.043752648 0.04964291 -0.019514037 0.06586704 0.035405304 0.02551478 0.036441587 0.07690994
0.050334733 0.025510665 0.06929622 0.069296785 0.042197526 0.014264767 0.014814651 -0.07872207
-0.047836773 -0.014654466 0.09908207 0.08774633 -0.015642677 0.039436065 -0.017617982 0.042675458
0.039421726 0.08308536 -0.04727914 0.10141094 -0.020515189 0.094655156 0.026498685 0.021977464
0.0014690614 0.06731654 0.09487218 -0.013516753 0.05388328 -0.061527353 -0.073103815 0.03234575
-0.09835548 -0.051066596 -0.0567914 0.033091582 0.027953593 0.043458223 0.023957428 0.049471162
0.010927472 0.07915044 0.076126225 0.040513813 0.06370021 -0.020091815 -0.06774493 -0.058203977
-0.078740895 0.01538553 0.029842412 -0.075262904 -0.023466595 0.040767968 0.01043896 -0.070890695
-0.09397355 -0.08047199 -0.048382714 0.045210604 0.003735989 -0.07598348 -0.026985252 0.05804801
-0.098949224 -0.014499338 0.054611735 0.028766053 0.084743865 -0.0014088696 -0.02444416 0.04503293
-0.07679143 0.009874888 0.05642931 -0.046808135 0.0782186 -0.01205101 0.034840304 0.010561973
0.030288974 -0.030702464 0.024423681 -0.03860667 -0.03466563 0.081272796 -0.04902582 -0.006866645
-0.06561551 -0.0963355 -0.0666413 0.0063907835 0.055989902 0.048679557 0.018427394 0.055270713
0.018604718 -0.03323462 -0.005861809 0.039654583 -0.0055586556 -0.01522552 -0.039210137 -0.009248832
-0.013554716 0.0838242 -0.034489673 -0.035320397 -0.062109545 -0.056781996 -0.03747415 0.06269658
-0.06209014 0.039602738 0.06992347 -0.006464143 0.07527707 -0.057397503 -0.035641544 -0.032252762
0.07784137 -0.012433639 0.07699087 0.020091359 -0.022858227 -0.061128158 -0.060502373 -0.060816225

encoder.1.0.bias f4 [32]
00000000: e135 c6bc 88a7 783d c25c 95b9 ca10 7dbc
00000010: 6bcd c93c fb43 c6bd 5b77 1f3b 6841 983d
00000020: 5217 423d 994c 8d3c c203 893d 6ffb 9f3d
00000030: 673d 82bd 9bd7 683d 9586 9cbc 301d a9bc
00000040: 0aa2 38bd a7fa 46bd d050 13bc 64d7 93bd
00000050: 382d 83bc a318 a13d 61dc 603d 75da 86bd
00000060: 2916 eb3b 2a09 3ebd cdaa ffbb 883a fa3c
00000070: 5f18 4abd 438b dc3c f1e3 ed3c c191 853d
-0.024195613 0.060706645 -0.00028488605 -0.015445897 0.024634084 -0.09680935 0.0024332616 0.0743435
0.04738552 0.017248439 0.0669017 0.07811629 -0.06359368 0.056846242 -0.019107142 -0.0206438
-0.045076407 -0.048578884 -0.008991435 -0.07218817 -0.016012773 0.07866027 0.05489767 -0.06584636
0.0071742726 -0.04639546 -0.0078023435 0.030545488 -0.04933965 0.026921874 0.029039355 0.06521941

encoder.2.0.weight f4 [8, 32]
00000000: 49e5 c43d fa54 f4bd 1e66 2b3e 7d4b 03be
00000010: 390d 383d 63d6 d73d 3dee 313e 3d8d 7e3d
00000020: 6d6c efbd 2d13 0c3e b439 f3bd a89d c23d
00000030: 8146 07bc 52a7 1cbe 1299 03be d312 1bbd
00000040: 3c2f 14be 6795 0e3e c034 1e3e 3f3a 24bd
00000050: 873e aebd a31b 20be eb3d 603c 5dc5 96bc
00000060: 1cd4 373e 6d91 293d fb59 333b 75d5 0b3d
00000070: 8546 163e 719f e63d c1bb 22be ad35 893d
00000080: 560c cf3c 0377 03be c25f 95bd 4c87 d03a
00000090: 4353 1a3d 6348 0b3e 86e9 c8bd 3ac4 b53d
000000a0: 7175 413d 68e5 21bd 74c7 353d 720b 303e
000000b0: a38a 43be a781 913d 7cf2 5ebd 2564 cdbd
000000c0: dccb 1c3e 5c97 26be 412d dbbd 70ad 003d
000000d0: fbbe 39bd bb56 233e 7ea2 b23d 035c 063e
000000e0: ca48 13be 7efd 9bbd fa18 9fbd da94 233d
000000f0: bf9a 633d be77 cb3d 1c74 513d fd32 b03d
00000100: 0cf2 b83d c22e a5bd cebc 8fbd 68bc b83d
00000110: 1b91 f5bd eb41 15be cdae c8bd 3d8b 543d
00000120: a4f2 22be 1604 b5bd 84d0 01be 06f1 053e
00000130: fbb3 38b9 ffdc 04be 6b1a edbc a55e 013e
00000140: 4dc0 adbd 6d2f c5bd 0501 a6bd 9b0c 153e
00000150: 2e45 2abd 0268 e53d d095 e5bd 5382 2dbc
00000160: 4c12 19be c726 933d 31c4 9a3b 5ba3 34bd
00000170: d3db 073e b8da 07be 6f78 19be fd58 4f3c
00000180: 025e 66bd cdf3 223e 40b2 9ebd 93ba 2ebe
00000190: a6eb f53d 0076 043e 4401 7abc ab43 d43d
000001a0: 0563 a53d 0941 6dbd 0acf e6bd 4130 e43d
000001b0: e012 fc3d 48ce b43d 133c 543d 2d15 123e
000001c0: 7250 28bd 03cc 36be 41cf cd3d 840c d43d
000001d0: e20f 9f3c f066 fe3d 59f3 0dbe c8b8 2f3e
000001e0: 3790 1abe 5d08 68bd a99d af3c 9af6 5a3d
000001f0: 9be5 2d3e 746a eabd e406 823d 26cb 343e
00000200: c656 1e3d f283 ae3d b438 8f3d ba5e 6c3d
00000210: 23fb fdbc a813 1d3d a260 1dbd 5cf8 d13d
00000220: 8582 3b3d cc6d 363e 9043 3d3d 7039 023e
00000230: 8343 0e3e 1f18 153e cb76 0fbd 74c9 8abd
00000240: 5630 3dbe 8264 27be 1650 5b3d 5311 263e
00000250: 132b 9f3d 03d1 f9bd c20b 58bd d2b0 4fbd
00000260: ac43 673d 6777 733d f576 aabd 5a5a 03be
00000270: c0c3 2a3c 4b7a d8bd b90e 51bd b14b 36be
00000280: bb96 a2bd ee5b 02bb 8d8d a8ba 46c9 d93c
00000290: b44c 43bd d4c5 a03b 577c 733c 5025 00be
000002a0: b988 16bd dd64 4d3c f04a 3cbd e388 0ebe
000002b0: 020a e43d e08d 94bd 58c9 9fbd b867 c9bc
000002c0: b948 f13d 86b8 a63d 8092 25be 3c65 383e
000002d0: c8f5 72bd fdbc 243d cf25 3d3e 75d8 253d
000002e0: b615 16be 4579 23be 34e2 ecbd a1ba e63d
000002f0: 722a 193e 0662 9cbd 8ee7 09be 92ae 123e
00000300: bb4f 353e c1fe ce3d 7b6b 77bd f9fe b13c
00000310: 5264 ff3d a839 e9bd 7213 213e 49e7 b7bd
00000320: bf2a 9f3d d42e 133e 3550 26bd 27dc 2fbd
00000330: 814c b5bc 8c55 87bd 831f babc 0f2a 493d
00000340: 6f45 27be 5bf3 c63d ff66 f5bd 74d2 88bd
00000350: c257 08be fe35 db3d 93e7 403e 9572 40be
00000360: 3e3b b4bd d605 b4bd c26c 01be 1b7f e03d
00000370: df08 86bd 52a6 113e 1cef 2cbe 013b 8cbc
00000380: 9a90 32be a458 083c 4654 483d f44d d03d
00000390: 68ae c93d c25c cebd 173c 583d d048 c6bc
000003a0: 6352 d6bc f354 a7bc 70ae 07bd 67bb 153e
000003b0: 20e3 34be 5991 823d 439a 8d3d 6888 01be
000003c0: b170 0bbe 43de 543d a425 44be f42e 2cbe
000003d0: 57b4 2fbe 4077 8cbd 0c43 873d 98ad 143d
000003e0: f3f2 223d 3979 e1bc 50a4 223e 8e4b 25bd
000003f0: cf5c 1a3e 1075 153d f47c a93d be9e 113e
0.09614045 -0.119302705 0.16738173 -0.12821765 0.044934485 0.10538938 0.17376037 0.062146414
-0.116906025 0.1367919 -0.118762404 0.09502727 -0.008256556 -0.15298203 -0.1285136 -0.03785975
-0.14471143 0.1392418 0.1544981 -0.04009461 -0.0850802 -0.15635543 0.013686637 -0.018404657
0.17952007 0.041398454 0.0027366865 0.034139115 0.14675339 0.1126088 -0.15891935 0.06699691
0.025274437 -0.12838368 -0.07293655 0.0015909462 0.03767706 0.13601832 -0.09810166 0.08875318
0.04723114 -0.03952542 0.044379666 0.17191866 -0.19095854 0.07104807 -0.05443047 -0.10028867
0.15312141 -0.16268677 -0.10701991 0.031415403 -0.04534815 0.15951054 0.08722399 0.13121037
-0.14383236 -0.07616709 -0.07768436 0.039936878 0.0555675 0.099349484 0.05113612 0.08603475
0.09030542 -0.08065559 -0.070184335 0.09020311 -0.11990567 -0.14575927 -0.097989656 0.0518906
-0.15912873 -0.0883867 -0.12677199 0.13080224 -0.00017614655 -0.12974928 -0.028943261 0.1263376
-0.08483944 -0.096281864 -0.08105663 0.1455559 -0.04156988 0.112014785 -0.11210215 -0.010590154
-0.14948386 0.071851306 0.004723095 -0.0441011 0.1326745 -0.13267028 -0.14987348 0.012655494
-0.056241997 0.15913315 -0.07748842 -0.1706336 0.12007837 0.12935638 -0.015259091 0.10364469
0.08075527 -0.05792335 -0.11269958 0.11142016 0.123082876 0.088284075 0.051815104 0.1426589
-0.041092344 -0.17851262 0.10049296 0.1035395 0.019416753 0.124219775 -0.13862361 0.17160332
-0.15094076 -0.0566486 0.021437483 0.053457834 0.16982119 -0.114460856 0.063489705 0.1765562
0.038656972 0.0852126 0.06993237 0.057707526 -0.03100354 0.038348824 -0.038422234 0.10252449
0.04577877 0.17815322 0.04620701 0.12717223 0.13892941 0.14559983 -0.0350254 -0.067767054
-0.1847547 -0.16346934 0.053543173 0.16217546 0.07771888 -0.12198069 -0.052745588 -0.05070574
0.05646102 0.059440043 -0.083234705 -0.12827435 0.010422647 -0.105702005 -0.05103943 -0.17802311
-0.07938906 -0.001989122 -0.0012859568 0.026585232 -0.04768057 0.0049063955 0.014861188 -0.12514234
-0.036751483 0.012536255 -0.045969903 -0.13919406 0.11134721 -0.07253623 -0.07802075 -0.02458559
0.11781449 0.08140664 -0.16169167 0.18007368 -0.059316427 0.040219296 0.18471454 0.040489633
-0.1465672 -0.1596423 -0.11566582 0.112660654 0.14957598 -0.07635884 -0.13467237 0.14324406
0.17706196 0.10107184 -0.060405236 0.021728026 0.124703065 -0.1138795 0.15730074 -0.08979661
0.07771825 0.14373332 -0.040603835 -0.042934563 -0.022131206 -0.06608114 -0.022720104 0.049112376
-0.1633508 0.09714385 -0.119825356 -0.06680766 -0.13314727 0.107036576 0.18838339 -0.1879371
-0.08800362 -0.087901756 -0.12639144 0.109617434 -0.06544661 0.14223602 -0.16888088 -0.017117979
-0.17437974 0.008321915 0.048908494 0.101711184 0.098477185 -0.10076286 0.05279168 -0.024204642
-0.026162332 -0.02042625 -0.03312534 0.1462227 -0.17664766 0.06375379 0.06914189 -0.12649691
-0.13617207 0.051969778 -0.19154984 -0.16814786 -0.17158638 -0.06858683 0.06604585 0.036298364
0.039782476 -0.027523624 0.15882993 -0.040355258 0.15074466 0.036488593 0.08275786 0.14220712

encoder.2.0.bias f4 [8]
00000000: 560a cdbd cc29 043e cd38 273e 325f a93c
00000010: f522 d73d 3c37 b23c 79ce 353e 73b5 9e3d
-0.10011737 0.12906569 0.16330262 0.020675275 0.105047144 0.021754853 0.17754544 0.077494524

encoder.3.weight f4 [5, 8]
00000000: 0e92 8ebe 633d 643d 9efb 1cbd 2eda 9e3e
00000010: a48e 1f3e 9bf0 bdbd d633 03be 7ece 273e
00000020: 94b8 3cbe 4196 31be 94f9 d53d b6b2 4bbe
00000030: a5e3 7cbe 7aef 3e3e ca51 ae3e 5cd5 a23d
00000040: 59e0 e83d b69f 70be e04a 9b3e 7894 9d3d
00000050: 893f 973e 8564 77bd 00e6 a23e d54d c1bd
00000060: 61c4 9d3e 4a48 213c c1c6 84be 9f2e 79be
00000070: dec4 923e f962 b63d 79c2 363e 25ba 963d
00000080: 5598 8cbe 71b3 e2bc 032e f73d e1b7 f3bd
00000090: a12e b5be 561b 4cbe ff56 74be 33af 993e
-0.27845806 0.055722605 -0.0383259 0.31025833 0.15581757 -0.092744075 -0.12812743 0.16387364
-0.18429786 -0.17342474 0.10447994 -0.19892392 -0.24696214 0.1864604 0.34046775 0.07950851
0.11370916 -0.23498425 0.30330563 0.07694334 0.2954066 -0.060398597 0.318161 -0.094386734
0.30813888 0.009843895 -0.25932887 -0.24334191 0.28665823 0.08905596 0.17847623 0.07359723
-0.2745997 -0.027673455 0.12069323 -0.119003065 -0.35387138 -0.19932303 -0.23861311 0.3001648

encoder.3.bias f4 [5]
00000000: 4378 11be 6567 1c3e cb84 0abd 93f2 3e3e
00000010: ac05 353c
-0.14206032 0.15273817 -0.033818047 0.18647222 0.011048716

decoder.0.0.weight f4 [8, 5]
00000000: 3a0a cabe 82b3 80bc fdc6 8bbd 948d ac3e
00000010: f875 fb3d ce2b aabe 6c48 dc3e bb2a e83e
00000020: b7c1 a13e 7769 abbc fc6a 6bbe 95d8 8fbe
00000030: b3b3 72be b9a5 9bbe b41a a03e 8a12 213e
00000040: 7c6f 2f3e a97c 82be c41f 9abd fddc 423d
00000050: 3169 77be cc67 82bc 5f03 813e d2db c93e
00000060: 1702 e5be e73d a6be 4f42 58be 2b67 bcbe
00000070: 5f2b 98be 7600 dcbe 9992 2b3e 5200 103e
00000080: 5080 09be f2c2 c43d 8cb6 d6be 1325 743e
00000090: 449d b1be 9d00 563e a2ac 69be 66e9 54be
-0.39460927 -0.015710596 -0.068250634 0.33701766 0.1227836 -0.33236545 0.43024004 0.453451
0.31593105 -0.020924313 -0.2299003 -0.28094926 -0.23701362 -0.30399874 0.31270373 0.15729728
0.17132372 -0.25485733 -0.0752559 0.047574032 -0.24161221 -0.015918635 0.25197884 0.39425522
-0.44728157 -0.32469103 -0.21119045 -0.3679746 -0.2972059 -0.42969102 0.16755141 0.14062622
-0.13427854 0.09607495 -0.41936147 0.23842268 -0.34690297 0.20898671 -0.2281976 -0.2079216

decoder.0.0.bias f4 [8]
00000000: 721a 8d3d 018b 1dbe 9560 5dbe b86d aa3d
00000010: bbbb 8d3e d3fd 8ebe 685c 82be a688 a1be
0.0688981 -0.15385057 -0.21618874 0.083217084 0.2768229 -0.27928028 -0.25461125 -0.31549567

decoder.1.0.weight f4 [32, 8]
00000000: fc96 5b3d c763 c4bc aca1 a9be 64c3 f5bd
00000010: ff83 eebd cf20 b8be c4d3 dbbd 60d6 243e
00000020: bd9e 793e 10f7 9c3e 1159 c23d 5991 05be
00000030: f983 a63d b5b9 95be d335 65be 4ee2 4a3d
00000040: 09ef 863e e835 303d 0754 043e b991 9f3a
00000050: 622e bd3d ad85 2a3e 3682 943e 8f49 b0bd
00000060: 321f 9cbe ff89 8fbd 2f8d 183e d2bc a53d
00000070: cc42 27bd b4f2 013e ed89 69be cd42 a3be
00000080: 6bc8 c83d 4f5e 3ebe e38d a8be da47 67be
00000090: fca2 643e 5128 a6be 8108 aebd f4ba 523e
000000a0: 4942 1a3e 6e74 803d ed14 ad3e ed96 753e
000000b0: 2eeb 203e 5452 8dbc 5a3b 16bd 0900 573e
000000c0: 89b7 13be 9417 b4be 5e27 253d 9627 203d
000000d0: 9de2 463d 37a4 a23e f021 8a3e 79e8 94bc
000000e0: b446 95be 6511 74bd 4a41 a83e c5af a7bd
000000f0: 3892 97be 32b9 723e f59e a73e c91c 98bb
00000100: 86e0 413e 3014 b53e 5605 463e cc21 843e
00000110: 6357 c53d e0e7 c33d 8f17 a0be f77f 61ba
00000120: b11c 413d 7437 90be 8905 02be 6f0a 96be
00000130: 046c 71be 567d a3be cd55 8d3e b253 2f3e
00000140: 7d3d 8dbd 0f47 04be 2903 9cbe 3d73 ec3d
00000150: 92c7 6d3e b2a6 8fbe a55d ffbd 9b01 9ebe
00000160: 6dca 86be 5eca 8bbd 1ab7 0dbe e375 a63e
00000170: 6728 80be 1812 383e 74d9 8c3e 131b 853e
00000180: 5f68 843e 71eb 0b3e 556f b33e 67e7 62be
00000190: e3f1 a3bd f5ad aabe 32ec 90bd 93ca 293d
000001a0: 87f3 043e 19c8 1bbe 75de bbbe 3da6 a33e
000001b0: ec4e a53e 56b8 85be 961b fb3c 7aa9 83be
000001c0: f6d3 053d bfe0 05be cc98 a4bd 9812 73be
000001d0: ce0a 883e 4d92 a53e 8406 16be 6051 2cbe
000001e0: 012e f03d b04d 65be 7f9c 313e 1090 9dbe
000001f0: a3c9 3a3e 1e93 3bbe 888a 51be f8d8 8dbe
00000200: 1ae9 9e3e e5a3 4ebe fb28 a53e a9dd 9a3e
00000210: da4f 043e 3719 05be d616 163c 166e 52be
00000220: 5d86 35bd 9975 da3d 7f98 7abe 6e78 8fbe
00000230: 8269 593e da84 bb3e 17db 3a3e 63ad 073d
00000240: 865d 6f3e abb5 d4bc cbff 40be 7e69 b73d
00000250: 002d 103d 7cb8 4dbd f5e2 3ebe 8b43 fd3d
00000260: deb1 b1bd 1241 a83e bf2e 9cbe 0d0f 143d
00000270: bfca 3abe a579 5cbe 9c97 263d 6128 183e
00000280: 90d8 953b d0eb 013e a73a a7bd 2664 2c3d
00000290: 834b 0dbe 9f34 fdbd d376 9ebd d843 92be
000002a0: 638c a43b 55b4 a23e 19a2 f4bd b2d3 8cbd
000002b0: 21d1 36be 6ee8 b23e f4ed 03be 84d5 debd
000002c0: e940 893e 1029 42bc e734 88be a42c 5f3e
000002d0: 5cfc 2c3e badd 893e ee40 0b3e 089a 4f3d
000002e0: a917 4abe 1ab4 b03e 6b1e 9b3e 35e1 abbe
000002f0: 8187 233e c3ea 613d 4e1a b1be ded2 e3bc
00000300: 982d a73e 9916 b23e c83f 883e 7adb 223b
00000310: bbcc 20be 6629 943c d527 213e 09c5 83be
00000320: 8908 3c3e ac28 613e eb5f 4bbe b711 e5bd
00000330: 86f1 363e fc57 b63e 5aa8 b1be c5c6 963e
00000340: c9c2 6bbe ce60 6ebe 8355 6c3d 5e2d 63be
00000350: e56c 933e 912e 663e dbb5 62be 65ba 16be
00000360: f966 663e 042a 1ebe 6998 9d3e 7568 0b3e
00000370: d25b a0bd b1a7 5cbe 295f 2abe 2795 a0be
00000380: 07f2 5d3d 140a e33d d326 8a3e 4396 183d
00000390: d27a 91be 1e98 83bd 309b 8abe 4dff 1e3e
000003a0: 4a7b ab3d 4606 19be 7e39 fbbd c135 66be
000003b0: d860 5e3e e848 8cbd 4c49 afbd 4443 273d
000003c0: e1d3 bbbd bd48 2abe ffe6 dc3d 9301 92be
000003d0: e716 57be 96f0 97be f2a7 6b3e 25b4 703c
000003e0: 1c30 bc3e 3e7f b23e b10e 06bc 56ea de3c
000003f0: a71c 9a3e 8e43 0cbd 9080 63be a83e 933d
0.053610787 -0.023973359 -0.33131158 -0.120001584 -0.1164627 -0.3596253 -0.107337505 0.16097403
0.2437696 0.30657244 0.09489644 -0.13043727 0.081306405 -0.29243246 -0.22383814 0.049532227
0.26354244 0.04302016 0.12922679 0.0012174166 0.092373624 0.16652556 0.29005593 -0.0860778
-0.3049255 -0.070087425 0.14897607 0.08092655 -0.040835187 0.1269024 -0.22806521 -0.31886902
0.09803852 -0.18590663 -0.3292075 -0.22586003 0.22327799 -0.32452634 -0.08497716 0.2057913
0.15064348 0.06272207 0.33805028 0.23983355 0.15714714 -0.017251171 -0.036677696 0.20996107
-0.14425482 -0.3517424 0.040320747 0.039100252 0.04855596 0.3176591 0.26979017 -0.018177258
-0.29155505 -0.0595869 0.32862312 -0.08187822 -0.29603744 0.23703459 0.32738462 -0.0046421033
0.18933305 0.35366964 0.19337973 0.25807035 0.09635808 0.09565711 -0.31267974 -0.0008602137
0.047146503 -0.28167307 -0.12697424 -0.29304835 -0.23576361 -0.3193156 0.27604523 0.17121771
-0.068964936 -0.12917732 -0.3047116 0.115454175 0.23220661 -0.28056866 -0.12469033 -0.308606
-0.26326314 -0.06825708 -0.13839379 0.32511815 -0.25030825 0.17975652 0.27509654 0.25997218
0.2586088 0.13664033 0.35045877 -0.22158585 -0.080051206 -0.33335844 -0.07076301 0.041452955
0.12983523 -0.1521305 -0.3669316 0.31962767 0.32286775 -0.261172 0.030652802 -0.25715238
0.032672845 -0.13074015 -0.08036956 -0.23737562 0.26570743 0.3233818 -0.14650923 -0.16827917
0.117275245 -0.22392917 0.17344855 -0.30773973 0.18240981 -0.1831784 -0.20463002 -0.27704597
0.31037217 -0.20179708 0.32257828 0.30247238 0.12921086 -0.129979 0.009160718 -0.20549807
-0.044317592 0.10666961 -0.24472235 -0.28021568 0.21231654 0.36624795 0.18247639 0.03312434
0.2337552 -0.025965532 -0.18847577 0.08955668 0.035199165 -0.050224766 -0.18641265 0.123663984
-0.086765036 0.32862145 -0.30504414 0.036147166 -0.18241404 -0.21530779 0.04067193 0.14859153
0.0045729354 0.12687612 -0.08165484 0.042087696 -0.13798337 -0.12363552 -0.07737508 -0.28567386
0.005021618 0.31778207 -0.1194498 -0.06876315 -0.17853214 0.34942955 -0.1288374 -0.108805686
0.26807335 -0.01185061 -0.2660286 0.21794373 0.16893142 0.26926976 0.13598987 0.050684005
-0.19735588 0.34512407 0.30296645 -0.33570257 0.1596966 0.055155527 -0.3459038 -0.02781051
0.32651973 0.34782866 0.2661116 0.0024850057 -0.15703098 0.018086147 0.15737851 -0.25736263
0.18362631 0.21988171 -0.19860809 -0.111850195 0.17865571 0.35614002 -0.34698755 0.29448524
-0.23023523 -0.23279116 0.057698738 -0.22185275 0.28794017 0.22478701 -0.22139685 -0.14719541
0.22500218 -0.15445715 0.30780342 0.13614066 -0.07830013 -0.21548344 -0.16637863 -0.31363794
0.054185893 0.110859066 0.26982746 0.037252676 -0.28414017 -0.064254984 -0.27071524 0.15527077
0.08373125 -0.149438 -0.12266825 -0.22481443 0.2171663 -0.06849843 -0.08558902 0.040835634
-0.09171272 -0.1662931 0.107862465 -0.28516826 -0.2100483 -0.2967574 0.23013285 0.014691387
0.36755455 0.34862703 -0.008182214 0.02721135 0.30099985 -0.034244113 -0.22217011 0.07189685

decoder.1.0.bias f4 [32]
00000000: 948c 7d3e 6480 813e 870f 5dbe e2e1 21be
00000010: e934 49bd 51dd 4cbe f0b4 21be 767e 38be
00000020: 0132 4c3e d832 9ebe a5cb 923e d5bf bc3e
00000030: 8584 9d3e fcdf 983d c74b e03d 2508 fc3d
00000040: da0e 163e 2331 a6be a0a8 1cbe 6fa3 113e
00000050: 79a2 a6be f56e 5ebe 1d6e 77be 3c73 763e
00000060: 44f1 743e 4cd2 87bc f094 5e3d d4d8 653d
00000070: a65c 97bd 1238 9bbe d304 e43d 2a56 fcbd
0.24760658 0.25293267 -0.21587954 -0.15808824 -0.049122725 -0.200063 -0.15791678 -0.18016991
0.1994095 -0.30898166 0.28670993 0.36865106 0.30765167 0.07464597 0.109519534 0.12306241
0.14654103 -0.32459363 -0.152987 0.14222501 -0.32545832 -0.21722014 -0.24163099 0.24067396
0.2392016 -0.01657977 0.054341257 0.056114987 -0.07390718 -0.30316216 0.11133733 -0.12321122

decoder.2.0.weight f4 [128, 32]
00000000: 2480 983d 1da9 c6bd 5b11 113d 81ae e5bd
00000010: b186 273e 0fa3 b3bd 3945 f9bd 32c6 12be
00000020: 60c6 333e 430a b4bc 4482 163e 521f ab3d
00000030: 57b2 473d 7ab1 aabd de56 f0bc 9769 373d
00000040: 47e1 b13d 85a6 ccbd dc1c e6bd 7786 08bd
00000050: 5e72 b83d 1a31 073e 9bc3 01be 0c71 e73d
00000060: f42f bd3d 1715 20bd 2c21 5d3c 4580 6abd
00000070: 27f0 803d 5c29 08bc 3649 d83d f5f4 3abd
00000080: 3c86 0dbe 8d54 b13c ab38 adbc 70ba 0ebe
00000090: 8a91 503d a09a 27be 33f4 00be 7d23 c43d
000000a0: a70d 1fbd 06db 21be a31b dc3c 7628 e4bc
000000b0: dd77 a03b b06f 2abd 39ad 063e b537 353d
000000c0: 5c21 093e 972d 92bd 1b00 033e cb07 f9bd
000000d0: 57d0 123d e40a 123e 6ab1 febc 2fbd 043e
000000e0: cf4a a43d da7d 14be e9ac 283e 845d 31b9
000000f0: 41dc 073e 9f56 e9bd 9c1f dfb9 3dad cfbb
00000100: 8460 4abc cb30 f63d 61a4 f43d 1a64 9cbd
00000110: bf7c 43bc 74ed a0bc 7733 e2bc b9a6 62bc
00000120: 6bca 93bd df1d 8e3c b4c8 b83d 7171 0a3e
00000130: b7c5 20bc bc96 1e3e 54c0 073e 4f2a 62bc
00000140: ecf0 6cbd 4b9b c3bc f678 023e b509 f33d
00000150: c54b 863d 1152 1fbe d898 22be 7307 7cbc
00000160: 6d9a bc3d 50b3 acbd 51b1 233e 56da 533d
00000170: dc46 743d 2e27 2cbe 76fd 05be 0c4d 193d
00000180: 7771 f13d 43d7 fe3c acca 1a3a 5b65 41be
00000190: edac 923d 447e 7ebd f2a6 69bc 5581 05be
000001a0: eb60 113d b9c7 4ebd 0183 433d bfa5 103e
000001b0: e9bb f6bd 6bba febd 9241 8abd 50fa 643c
000001c0: aa1d 44bd 2a19 233e 4d06 82bb 0385 99bd
000001d0: 81bc 123d 0dff 3f3d 28c7 993b d230 313d
000001e0: 69a0 353e 881d 003e d7ff c7bd a668 b23d
000001f0: a401 123e cf23 953d 0cdd 10be 66c0 fe3d
00000200: 2960 05bd c8a2 08be c3eb f93d e69b 16be
00000210: 28f0 70bc 695e 1fbe a1a2 2e3d fdb3 3a3e
00000220: 1e90 15bd 97bd 843c c9cb 42bd 6aee 24bd
00000230: 6a44 193e 63da 4cbd 8daa 1d3e c049 5a3d
00000240: 3af8 353c 3b18 6d3d 6ff6 803d d8a4 76bd
00000250: 6643 dd3c bb39 383e e031 8f3d 5706 f5bc
00000260: 22f9 1d3e c6a4 423d 5c90 1ebe 6a52 fbbc
00000270: 0430 2b3e a45e d5bd 3c3c db3d f5b4 6fbc
00000280: f017 0fbe d152 30bd 2756 3eba 1d76 063e
00000290: 1fc9 a03d d0fd 103e 7eff 0bbe a51a 863d
000002a0: 1994 b63d a675 05be 228f 3cbe 8506 39be
000002b0: 2ced 39be 3ad0 b4bd 6f41 42be d7a2 b4bd
000002c0: 608f 923d 2acd b5bc 7e76 253e 7c95 bb3d
000002d0: d504 f43d 04c6 0fbc 5004 013e 62dd 09be
000002e0: 9efc 0c3e 6708 25be 87e7 473d d857 22be
000002f0: 9e91 07be 4570 d8bd f2b1 c9bd bca2 1a3e
00000300: e7db e9bd 1ed0 c5bd 0601 bd3c 08a1 9cbb
00000310: bfcb 10be 1a0b 10be 6a95 38bd 44f5 483d
00000320: b5f7 013e ce66 abbd 8953 febd 24a3 09be
00000330: d020 50bd ee24 23be 6f6c b8bd b2b1 c3bd
00000340: c3c9 cbbd 4fc6 3f3d dee2 1cbe 9b15 55bd
00000350: 92b8 0e3e 61aa 4cbd 77c7 5e3d ae41 7c3d
00000360: 2a03 bb3c cb21 0fbe b2dc d13d d340 193e
00000370: 3652 b0bc bcf2 b0bd e2bf 213d 8b09 2fbe
00000380: 9d82 34bc 2238 edbd 3704 07be f672 09be
00000390: bf20 433d b027 bf3d 87a4 a7bd 303a 863d
000003a0: a9ec 00be 9153 0abb b7f7 d73c 125f cf3b
000003b0: eb4b 233e 2616 913d 39a0 9bbc f971 0fbe
000003c0: 3502 013d fd93 01be 4500 a83d 702b 3cbe
000003d0: 68ad f93d c449 c63d 9415 ce3d a933 053e
000003e0: 4abf 8abd fa6d d0bc 55b7 863d e11d aebd
000003f0: 4d37 e0bd 44ab d2bc 4e8c 05be a308 92bd
0.07446316 -0.097002245 0.035416942 -0.112149246 0.16359974 -0.08771335 -0.12171406 -0.14333418
0.17556143 -0.02197755 0.1469813 0.08355583 0.048754063 -0.08334632 -0.029338297 0.044778433
0.08685546 -0.099926986 -0.11235973 -0.03333136 0.09006189 0.13202325 -0.12672274 0.11300859
0.09237662 -0.039082613 0.013496678 -0.057251234 0.062958054 -0.008310642 0.10560839 -0.045643765
-0.13820738 0.021646762 -0.021145185 -0.13938308 0.050920047 -0.16367579 -0.12593155 0.09577081
-0.03883138 -0.15806207 0.026868647 -0.027851325 0.0048971013 -0.04161042 0.13152017 0.04424258
0.13391632 -0.07137602 0.12793009 -0.121596895 0.03584322 0.14261967 -0.031090457 0.12962793
0.08022081 -0.14501134 0.1647221 -0.00016914873 0.13267614 -0.11393475 -0.00042557425 -0.0063377903
-0.012352113 0.12021025 0.11945415 -0.0763628 -0.011931597 -0.019644476 -0.027612431 -0.013833695
-0.072163425 0.017348228 0.09022656 0.13519837 -0.009812764 0.15487188 0.13256961 -0.0138040325
-0.05784695 -0.02387776 0.12741455 0.11867086 0.06557421 -0.1555865 -0.15878618 -0.015382635
0.09209142 -0.08432639 0.1598561 0.051721893 0.05963789 -0.16811821 -0.13084969 0.037426993
0.1178922 0.031108504 0.0005904834 -0.1888632 0.07161889 -0.062132135 -0.014260994 -0.13037618
0.03549282 -0.05048344 0.047732357 0.14125727 -0.1204756 -0.124379 -0.06750788 0.013975695
-0.047879852 0.15927568 -0.0039680363 -0.07496073 0.035824303 0.046874095 0.0046929307 0.04325945
0.17736973 0.12511265 -0.097655945 0.08711366 0.14258438 0.072822206 -0.14146823 0.12439041
-0.03256241 -0.13343346 0.12203171 -0.14707908 -0.014705695 -0.15563358 0.042635564 0.18232723
-0.036514394 0.016203685 -0.047557626 -0.040266432 0.14967504 -0.050012957 0.15397091 0.05329299
0.011106545 0.057884436 0.062970035 -0.0602158 0.027009677 0.17990772 0.06991935 -0.02991025
0.15427068 0.04752042 -0.15484756 -0.030678947 0.16717535 -0.10418442 0.10704848 -0.014630546
-0.13973975 -0.04304773 -0.00072607625 0.13130994 0.07850861 0.14159322 -0.13671681 0.06548051
0.08914966 -0.1303316 -0.18413976 -0.18068893 -0.1815688 -0.088287786 -0.18970273 -0.08820122
0.07156253 -0.022192556 0.16158482 0.09159371 0.11914984 -0.008775238 0.12599301 -0.13463357
0.13768241 -0.16116486 0.048804786 -0.15853822 -0.13239142 -0.10568289 -0.098483935 0.1510114
-0.11418896 -0.09658836 0.023071777 -0.0047799386 -0.14140223 -0.14066735 -0.045064367 0.04906203
0.12692149 -0.08369218 -0.12418277 -0.1344114 -0.050812542 -0.15932056 -0.09005057 -0.09555377
-0.09950592 0.04681998 -0.15320918 -0.052022558 0.13937595 -0.049967173 0.054389443 0.061586075
0.022828657 -0.13977735 0.102471724 0.14966135 -0.021523576 -0.08640048 0.039489634 -0.17093484
-0.011017469 -0.11582972 -0.13185202 -0.1342276 0.04763865 0.09333742 -0.08185678 0.06554067
-0.12590279 -0.0021106938 0.026363237 0.006328472 0.15946929 0.070843026 -0.018997299 -0.14008321
0.031496245 -0.1265411 0.082031764 -0.18375945 0.12191278 0.096820384 0.100627095 0.13007988
-0.06774767 -0.025443066 0.065779366 -0.08501793 -0.10948048 -0.025716431 -0.13041803 -0.071305536

decoder.2.0.bias f4 [128]
00000000: cbf6 343b 8715 92bd 016b d93d b0ec 6a3d
00000010: cf9f d03d 1f9f 1a3e 7328 243e af69 22bc
00000020: de42 fdbd 18d1 243d 09d0 903d bc4e c23d
00000030: 8c36 20be 345c 9cbd f8be 03be a780 363c
00000040: 708c 20be b123 51bd 496d 93bd 6b67 86bd
00000050: 0683 273e 8ea9 203e ffe5 02be 288c 14be
00000060: 9e63 203e 2701 16be 214e a739 e3c6 1d3e
00000070: f405 2c3e e4d8 80bd 2940 25be c8e2 66bd
00000080: ec11 0f3e 6461 bdbd cf8a 0dbe 3f98 2d3e
00000090: 68b5 d9bd b3d6 2fbe cae7 893d 03f3 27be
000000a0: 3558 383d b275 a03c fa18 aa3d 9a6c adbd
000000b0: c459 ce3c 5a3e 3bbe 5b34 6abd 77e5 8a3c
000000c0: 1124 153e e29a ba3d 31da 263e a08f 01be
000000d0: 727a 963d 1e5d c0bd cbc7 a73b 9786 26be
000000e0: a9df f13d 8f24 e7bd b608 29be 6db3 01be
000000f0: c0b5 0a3e cab6 27bd ac98 18be 8353 d3bd
00000100: 9541 a8bc b18a 2d3d 64cd e0bd f125 09be
00000110: 120d 1f3e 9b44 013e df89 fb3d fcd5 0b3e
00000120: 59dd 19be f395 f23d 1ae9 be3d 61b1 9f3d
00000130: 90dc 38bc 926f 903d 53c7 2c3e 3948 4dbd
00000140: ee1b 093e 5ae3 e13d bca2 163e c700 2dbd
00000150: ae04 e93c a3e0 3b3e b000 3c3d 84a9 f63d
00000160: 5174 0a3d 9aac d53d 89f1 373e f7bc 0dbe
00000170: 4c31 8abd e5a1 1fbe c6b6 0cbe e5e3 ecbd
00000180: 3c88 243e 6e0d 153e 06da 17bd 78f1 2dbe
00000190: 30d7 093e 6721 9cbd 8a29 f2bd cedc 553d
000001a0: 633a b23d 89c2 d1bc a857 293e d214 843d
000001b0: ab05 163e bc48 46bb 9583 4c3e 3be6 29be
000001c0: 8913 383e f855 8bbc 6cd7 b0bd 6702 debc
000001d0: c7c7 d4bd fdfe 8dbd 4920 2e3e 91e6 b93d
000001e0: c136 f63b 3243 16be b36d 833d 5cce 8bbd
000001f0: 5f32 14bc b494 ccbd 7240 11be 75dc 42be
0.002761292 -0.07133012 0.106161125 0.05735463 0.10186731 0.15099762 0.16031055 -0.009912892
-0.123662695 0.04023847 0.070709296 0.09487674 -0.15645808 -0.07634774 -0.12865818 0.011139072
-0.15678573 -0.05105943 -0.07198579 -0.06562694 0.16358575 0.1568968 -0.12783049 -0.1450659
0.15663001 -0.14648877 0.00031910933 0.154079 0.16799146 -0.062913686 -0.16137756 -0.05636862
0.1397168 -0.092470914 -0.13822483 0.16952609 -0.106303036 -0.17171745 0.067336634 -0.16401295
0.045005996 0.019587371 0.08305545 -0.0846798 0.025189288 -0.18285504 -0.057178836 0.01695512
0.1456454 0.09111573 0.16294171 -0.12652445 0.07347573 -0.09392761 0.0051202527 -0.1626228
0.11810238 -0.1128627 -0.16507229 -0.12666102 0.13545895 -0.040945806 -0.1490199 -0.10318663
-0.020539084 0.042368595 -0.10976675 -0.1339338 0.1553233 0.12623827 0.12282156 0.13655847
-0.15025844 0.11845007 0.09321804 0.07797504 -0.011283055 0.0705253 0.16872911 -0.050117705
0.1338956 0.11029692 0.14710516 -0.04223707 0.028444614 0.18347411 0.045899093 0.12044051
0.033802334 0.10433312 0.17963232 -0.13841616 -0.06747684 -0.15589102 -0.13741598 -0.11566905
0.16067594 0.14555904 -0.037073158 -0.16986644 0.13460994 -0.076235585 -0.11824329 0.05221253
0.08702543 -0.025605457 0.16537344 0.06449284 0.146506 -0.0030255755 0.1997207 -0.16591732
0.17976202 -0.017008767 -0.086348385 -0.027100755 -0.10389667 -0.06933401 0.17004503 0.0907718
0.0075138514 -0.1467407 0.06417408 -0.06826469 -0.0090452125 -0.099893 -0.1418474 -0.1902941

decoder.3.weight f4 [148, 128]
00000000: 7759 85bc c136 443c 6d5a 7dbc aaa6 bd3d
00000010: ede7 4abd 6832 9ebc cb99 9f3d 9734 6f3c
00000020: 0913 57bd 431c 913d c6a5 67bd c16e c73c
00000030: d44a 8e3d ddf9 2a3d 4206 babd aa6f 21bc
00000040: 8a40 b5bd e40e 80bd a827 9d3d a2fd 663d
00000050: 8e4f bb3d 607f 363d 4798 d6bb ff52 8d3d
00000060: df2f 5abd 7515 8c3d ee52 8bbd 67ee 0f3c
00000070: 6acd c43d aac8 c1bd 7702 0f3b 62ad 553d
00000080: eb80 57bd b54c b93c f4ed 2fbd f391 cf3c
00000090: f800 6fbd 4f25 913d 5e16 913d c35c 033d
000000a0: fa5f 86bd 6029 30bc bcf3 db3c 4133 1bbd
000000b0: a2b4 60bc 7236 b9bd 9f95 82bd 8903 8d3d
000000c0: b95c bc3d 71db 1dbc 5e40 9c3d 5bcb 083d
000000d0: 9de6 8f3d def5 bc3d 62fc cc3d 66c4 1e3d
000000e0: 569a 873a 1506 283c 8ca4 d6bc c68b 04bd
000000f0: 65f2 263d 04e1 393d beda 63bd 5dce f0bb
00000100: 3716 9c3d 3d6f 83bd e736 033d 5586 18bc
00000110: e719 37bd b90a 3e3d fdb8 fa3c eaea 1c3d
00000120: 2347 273d 5179 a53d b2fc 513d d73c 4bbd
00000130: 18ef efba 608e 1cbd 37c2 ad3d 2e55 a9bb
00000140: 24f7 35bd 572e 243d a8ce d23d 091f 29bc
00000150: 8e19 c4bd 71f7 093d e33e 63bd 7316 b43d
00000160: 84ef 88bd a7c4 a33d baac 15bd d8cf 3cbd
00000170: 17df 9cbc ecca adb9 e801 3e3d b542 e4bc
00000180: 703a 58bd 231e 2e3c c857 bebd 8933 a1bd
00000190: 2615 c33d ab78 773a d43a 64bd b61c 27bb
000001a0: 3511 353b 0aba 143d a6a5 473d 733f 07bd
000001b0: 2aeb 503d ae51 313d 8545 85bd c506 3ebd
000001c0: 7fd9 6dbd f232 e53c 6058 383d 3773 283d
000001d0: c6f8 033d e7b4 c1bc 746d 85bd 933f a83d
000001e0: e618 a53c 03a8 7e3b 8618 173b c66b 9a3d
000001f0: 6622 9d3d 4a32 913d 5cfd 0f3d 09ca 59bb
00000200: a907 0e3d 934a 00bd 614d f03a 22df 99bc
00000210: 5c0b 803c e5c0 a2bd 938d d6bb c0f3 c53d
00000220: 55d4 e7bd e47a c9bc cb15 233d bfc4 aabc
00000230: 8074 babd 2e3b 9ebd cbf3 bc3d 43b6 a93d
00000240: 77c8 c9bc f908 8b3d 649d 813d 9919 473d
00000250: 2b4a b63c 5f0b 7ebd d88d d0bd 434b b4bd
00000260: 8f7e 133d 0e02 4fbd 4781 c23d 1199 8dbd
00000270: 1f48 81bc 908b 7abd 9ac2 9b3b 2ae2 36bd
00000280: b50d 803d 1f57 f33c 3e02 323d 55ed 7a3d
00000290: 6a85 adbd c983 82bd 778f a43c 407b 64bd
000002a0: 2cfd fdbd 5d5d 61bd fd99 3d3d d239 d43c
000002b0: 0375 443d d243 b9bd 5efe 4e3d 8357 a13c
000002c0: 5a26 a53d b56a a8bd 1ad8 34bc be5b febc
000002d0: 1113 a53c 492e fb3d 0d6f 4f3c 6b60 d8bd
000002e0: 140d 89bc 89cb 5cbc 5447 e6bc 3463 b33c
000002f0: 6254 5e3d 2653 72bd 4d32 3cbd bbb6 32bc
00000300: a4c1 8d3d ce80 9dbc 7920 1d3d d20d 083d
00000310: e777 eb3c da7b dcbd 62a2 70bc 3702 b53c
00000320: 4f0d 6d3c dc0b bbbc b8dd 413c 5a21 b6bc
00000330: 773b 38bd 5c2b 21bd 02d6 a33d 9cc8 54bd
00000340: 2106 ca3c f334 8f3d be17 6fbc b5ea 9bbd
00000350: 7416 85bc 25cb 49bd dd67 17bd 3cbe 193d
00000360: 6cb3 8b3c e6b6 5a3d 5805 94bc 479a bfbc
00000370: cf54 e4bd 59f6 d73c e41b 7ebd f122 21bd
00000380: 81b7 df3d 0af9 623d b6ff 993a a079 21bd
00000390: db71 6b3d 88af ca3d cecc 1abd b522 08bd
000003a0: f092 ccbd 52d2 b8bd 7493 703d c175 8cbd
000003b0: 7bc0 933d 9af0 8e3d 1905 613d 75c7 c5bd
000003c0: 721d de3b 3ec8 c13d 02c9 1abd 1617 bcbc
000003d0: bc51 b3bd e4ad 5ebd 87be 463d 56e8 883d
000003e0: 1e54 ee3d cab4 eb3b b462 003c fc0d 42bc
000003f0: bf02 36bd 9dbe 8bbc e033 dcbd c014 f03a
-0.016278012 0.011975945 -0.015463454 0.09260304 -0.049537588 -0.019311145 0.077930056 0.014599941
-0.052508388 0.070854686 -0.05655458 0.024344804 0.06947866 0.041742194 -0.09083225 -0.009853283
-0.088502005 -0.0625284 0.076735795 0.056394227 0.09146033 0.044555068 -0.0065489146 0.06900596
-0.05326831 0.0684003 -0.06802927 0.008784867 0.09609492 -0.09462102 0.0021821538 0.052167304
-0.05261318 0.022619585 -0.04295154 0.025338149 -0.058350533 0.07087194 0.07084344 0.032070886
-0.06561275 -0.010752052 0.02684962 -0.037890676 -0.013714941 -0.09043588 -0.06376194 0.0688544
0.09197373 -0.009634838 0.076294646 0.03339706 0.07026408 0.09226583 0.10009076 0.03876152
0.0010345678 0.010255356 -0.026201509 -0.03235986 0.04075851 0.045380607 -0.05562853 -0.007348819
0.07621425 -0.064177014 0.03203478 -0.009309371 -0.044702437 0.046396945 0.030605787 0.03830997
0.040839326 0.0807978 0.05126638 -0.04961857 -0.0018305508 -0.038221717 0.08484309 -0.005167625
-0.044425145 0.040083256 0.10293323 -0.010322341 -0.09575187 0.033683244 -0.055479895 0.08793344
-0.06686309 0.07996493 -0.036541678 -0.046096653 -0.019149346 -0.0003314832 0.046388537 -0.02786384
-0.052790105 0.010627302 -0.09294087 -0.07871158 0.09525518 0.0009440283 -0.055720165 -0.002549929
0.0027628664 0.036310233 0.04874196 -0.033019494 0.05100552 0.043290786 -0.065074004 -0.046393175
-0.05806875 0.027978394 0.045006156 0.041125502 0.03221967 -0.023645831 -0.06515017 0.08215251
0.020153474 0.0038857467 0.0023055389 0.075400874 0.076725766 0.0708967 0.03515373 -0.0033231995
0.034675274 -0.03132112 0.0018333608 -0.018783156 0.015630417 -0.07946948 -0.0065476387 0.09665632
-0.11319796 -0.024594732 0.039815705 -0.020845769 -0.09104252 -0.077261314 0.09226187 0.08286717
-0.024631722 0.06788821 0.06328848 0.048608396 0.022252163 -0.062022563 -0.101833045 -0.088034175
0.036009368 -0.05053907 0.09497314 -0.06913961 -0.01578146 -0.061168253 0.004753423 -0.04464928
0.062526144 0.029704629 0.04345917 0.061261494 -0.08472712 -0.06372792 0.02008794 -0.055781603
-0.12401804 -0.05502068 0.046289433 0.025906477 0.047963154 -0.09046139 0.050535552 0.01969505
0.080639556 -0.08223478 -0.011037851 -0.031049605 0.020150693 0.122646876 0.012660754 -0.10565265
-0.016729869 -0.013476261 -0.028110184 0.02189789 0.054279692 -0.059161328 -0.045946408 -0.010907824
0.069217 -0.019226458 0.038361046 0.033216305 0.028743697 -0.1076581 -0.014687153 0.022095783
0.014468505 -0.022832803 0.011832647 -0.0222327 -0.044978585 -0.03934799 0.07999803 -0.05194913
0.024661126 0.06992521 -0.014593063 -0.07613126 -0.016246058 -0.049266 -0.036964286 0.037534937
0.017053328 0.05339708 -0.018068954 -0.023388995 -0.111489885 0.026362585 -0.062038317 -0.039339963
0.109236725 0.055413283 0.0011749181 -0.03942263 0.057481628 0.09896761 -0.037792973 -0.033236224
-0.099889636 -0.090244904 0.058734372 -0.06858397 0.07214447 0.06979485 0.054936502 -0.09657184
0.0067784125 0.09462021 -0.037789352 -0.022960227 -0.08755824 -0.054365054 0.048521545 0.066849396
0.11637138 0.0071931826 0.007836033 -0.011844154 -0.044436213 -0.017058665 -0.10752082 0.0018316731
