experiments/data/ae/037_UCR_Anomaly_DISTORTEDLab2Cmac011215EPG1_5000_17210_17260.txt-.ckpt (torch, 66018 bytes, 48 tensors)

encoder.0.0.weight f4 [32, 34]
000000 b0 e7 a4 3d f7 f2 77 3d 1b e9 41 3e 41 40 41 3e
       0.080520034 0.060534444 0.18936579 0.18872167
000010 1f 1f 43 3e 61 89 9f 3c e3 19 11 3e 72 c7 33 3d
       0.1905484 0.019474687 0.14170031 0.043891378
000020 31 f3 4f 3e 75 01 b1 bd a4 80 b6 3d 13 df c1 bd
       0.20307614 -0.08642856 0.08911255 -0.09466376
000030 72 22 53 bd cf d8 2d 3e cf 1c 17 3e fb b7 18 3e
       -0.05154652 0.16977237 0.14757083 0.14913933
000040 96 74 12 bd 76 7b 42 bd 25 71 3b bd 57 3d d3 3d
       -0.035755716 -0.047481023 -0.0457622 0.10314434
000050 b6 ea cb bd 97 c0 1b 3d ff 62 61 3d 84 9e 4d 3d
       -0.09956877 0.038025465 0.05502605 0.0502
000060 88 1b dc bc d4 e9 4e 3e 9a b1 36 3e 2b 40 24 bd
       -0.026868597 0.20206386 0.17841187 -0.040100258
000070 23 0c 01 3d e1 4a 9f bd 33 99 25 3e f7 68 ef bc
       0.031505715 -0.07777954 0.16171722 -0.029224856
000080 b6 dc 28 3e 94 21 a8 3d 2c 39 ae 3d be 0c 3b be
       0.16490445 0.082095295 0.085069984 -0.1826658
000090 46 a2 b9 bd 9c ba 1f be f1 e0 05 3e 61 fe 0d 3c
       -0.09064154 -0.1559853 0.1307409 0.008666606
0000a0 a8 31 dc 3d a7 67 b4 3d 13 b1 3d 3c c7 06 af bd
       0.10751659 0.088088326 0.011577862 -0.085462146
0000b0 aa c6 e4 3d b8 d0 fd bc 8d f5 99 bd c6 f7 ab 3d
       0.11170705 -0.030983314 -0.07517538 0.083968684
0000c0 b4 5c 0e be 6d 2b c2 bd 56 b3 39 bc 1f 43 44 be
       -0.13902551 -0.09480939 -0.011334261 -0.1916623
0000d0 aa 21 e8 bd 5e 05 be 3c ec e5 95 bc 1c 64 12 be
       -0.11334546 0.023195919 -0.018298112 -0.14296001
0000e0 6d 2b df 3d 9a 0e 39 be 69 98 26 3d 56 10 48 be
       0.10896955 -0.18071976 0.040672693 -0.19537482
0000f0 00 6f f2 bd 37 ef e6 3d 6a 4e ff bc 26 b0 a1 3d
       -0.11837578 0.11276095 -0.03116532 0.07894926
000100 e6 9d 49 bd ba f1 3a 3c f5 d4 0a 3d 8d 07 87 3d
       -0.04922285 0.011410171 0.033894498 0.06593237
000110 87 5e bc 3c dd bc d9 3d 3d 70 ec 3d cd be 82 3d
       0.022994293 0.10631726 0.11544845 0.063840486
000120 e5 87 b0 bd 91 4b 51 3e 3e d1 42 3e 75 5b 51 3e
       -0.0861967 0.20438983 0.19025132 0.20445044
000130 35 66 cc 3d 2a 28 d7 bd 1f ca 8d bd f4 80 16 3d
       0.09980432 -0.105057076 -0.06923317 0.036744073
000140 9b 2b 30 bd 95 bb 1c 3d dd 52 60 bb f5 78 94 bd
       -0.043010335 0.03826483 -0.0034229078 -0.07249633
000150 d9 87 26 3e 92 01 39 3e 61 d2 69 3e d0 5a 31 3c
       0.1626276 0.18067005 0.2283416 0.010824874
000160 d5 17 f4 bc fc d8 1a 3e 20 50 b0 3d 28 dc 33 3d
       -0.02979652 0.15121835 0.08609033 0.04391113
000170 90 93 3d 3e d8 20 2d 3e 30 2f 41 3e a4 5c ef bc
       0.18513322 0.1690706 0.18865657 -0.02921898
000180 47 7b 67 3e 6b 98 6a 3e f2 f3 f5 3d 01 85 b1 bd
       0.2260562 0.22909705 0.120094195 -0.086679466
000190 ae ff 22 3e ea 1e 1b 3c dc c5 c7 bd 0f 3e 2d 3e
       0.15917847 0.00946782 -0.097545356 0.16918205
0001a0 bb 4a 75 bd f7 1f c2 bd f6 ca 01 bd 00 b5 6c 3e
       -0.05988572 -0.09478753 -0.0316877 0.23115921
0001b0 1e 96 5d 3d 26 6a 47 bc da 84 4d 3d de 2a 41 3e
       0.05409824 -0.012171304 0.050175525 0.18864009
0001c0 1e 8f 75 3e c2 0c a1 bd 74 12 ac bd f4 f8 0a 3d
       0.23980376 -0.078637615 -0.08401957 0.033928826
0001d0 8f 78 f5 3c e1 36 2b 3d 16 84 51 3d 4f c5 d6 3d
       0.029964713 0.041800383 0.051151358 0.104868524
0001e0 ad 94 0f 3e 5f f1 cf bd 6e 79 10 3e 35 74 64 3c
       0.14021559 -0.1015346 0.14108822 0.013943722
0001f0 ef 40 82 3c 2f 73 ed 3d 1f 6f 02 bc c3 fe 9b bd
       0.015900103 0.11594235 -0.007961064 -0.07616951
000200 83 e6 60 3e 42 67 de 3d c3 86 7f bd 81 5f 4a 3e
       0.21962933 0.108595386 -0.06238438 0.19762994
000210 ca 39 67 3e 47 3d 9a 3d c5 c0 70 3d 38 76 d9 3d
       0.22580639 0.07531219 0.05877759 0.106182516
000220 91 a3 19 3d 25 80 81 3b 3b e7 fc bd 33 7c fd 3d
       0.037509505 0.0039520436 -0.12348791 0.12377205
000230 93 e4 b9 bd c1 c0 22 3e 0e 7c b8 bb 26 47 6b bc
       -0.090768 0.15893842 -0.005630023 -0.014360225
000240 c2 c4 8c bd a0 08 09 be 96 d2 96 3b 2f 79 58 bd
       -0.06873466 -0.13382196 0.0046027405 -0.052849945
000250 e1 d8 be 3d 67 8a b7 3d 39 64 6d bc d8 1e fc 3d
       0.0931871 0.08961945 -0.014489227 0.123105705
000260 bf 7f e3 bd c3 eb 32 be 7f 8a 04 3e e6 29 ff 3d
       -0.1110835 -0.17472748 0.12943457 0.12459163
000270 4c ff f9 bd b3 a0 33 be 7a 38 61 3d 36 13 95 bd
       -0.12206897 -0.1754177 0.0549855 -0.07279055
000280 88 e6 0f bd 05 2b 0c be 30 fd 83 bc ef 03 51 3d
       -0.03513196 -0.13688286 -0.01611194 0.051029142
000290 e6 fa 9e 3d e9 f5 97 3d a4 f2 2a bc ee 46 ba bd
       0.07762699 0.074199505 -0.010433827 -0.0909556
0002a0 89 c9 19 be a2 bc 2f bd f7 4c 27 be a4 30 7f 3d
       -0.15018286 -0.042904504 -0.16337954 0.062302247
0002b0 2c 5c e1 3d 34 b1 4b be 5c bc 0c bd f8 ed 4a be
       0.110039085 -0.19891816 -0.03435932 -0.1981734
0002c0 b4 81 fa 3d 56 f1 8c 3d 54 42 1d ba 0f 6c 18 be
       0.1223177 0.06881969 -0.00059989584 -0.14884971
0002d0 d2 d4 c8 3d 7e a6 42 3d 02 91 83 3d 0c bd c2 3d
       0.09806217 0.04752206 0.064241424 0.09508714
0002e0 e9 76 12 be c0 30 bc bc 10 e4 7a bd ca 38 ae 3d
       -0.14303173 -0.022972465 -0.061252654 0.085069254
0002f0 d1 3f 7d bd 0e 75 38 be 41 51 51 3d 11 aa c0 3d
       -0.06182844 -0.18013403 0.05110288 0.094074376
000300 55 a9 81 3d 8f 78 b3 3c 2f a6 0d be d4 a2 d8 bd
       0.06331126 0.021908073 -0.13832925 -0.10577932
000310 5c 0e 0f be 5b 1a e9 3d d4 df 3f be 88 fe d0 3d
       -0.13970321 0.1138198 -0.18737727 0.10204798
000320 ba 27 51 be 50 ba d5 bc 8d 7d 95 3d 55 57 86 3d
       -0.2042531 -0.026089817 0.072993375 0.06559626
000330 22 76 df 3d 1c 29 bd 3d 03 df 19 bc 2f 25 95 bd
       0.10911204 0.092363566 -0.009391549 -0.07282483
000340 43 32 c5 3d b4 16 0b be d0 8c 9c bc 13 f6 06 be
       0.09628727 -0.1358288 -0.019110113 -0.13179807
000350 19 90 31 3e d7 b3 4d bd d1 76 f8 bd e3 63 d5 3d
       0.17340125 -0.050220337 -0.121320374 0.104194425
000360 8b 4a d8 3c 53 ba 91 3c 7b 48 29 3e 22 5a 19 be
       0.026402732 0.017789042 0.16531555 -0.14975789
000370 94 b6 a5 3d 4d 4f e5 3c 65 a0 13 be 00 df 84 bd
       0.08091465 0.027991915 -0.14416654 -0.064878464
000380 6f 2d 5a bd a2 18 32 3e ff 3d 8d bd 4f 99 a2 3d
       -0.053265985 0.17392209 -0.068965904 0.079393975
000390 62 25 c3 3d 05 1c 4a 3c 86 18 60 bb fd a3 92 bc
       0.095286146 0.012335782 -0.0034194305 -0.017900461
0003a0 4c 58 af 3c 76 cc f4 3c 3c 71 27 3e 5a 24 41 3d
       0.021404408 0.02988265 0.16351789 0.04715381
0003b0 c9 91 05 3e 03 66 ee bd 1f fe 34 be 5d f7 63 bc
       0.13043894 -0.11640551 -0.17675065 -0.0139139565
0003c0 c9 ec 06 3d 7e 0d 3b be 7c 27 66 bd 85 83 38 bd
       0.03294066 -0.18266866 -0.05619 -0.0450473
0003d0 87 1d e0 bd 08 b8 e0 3d 28 ad 10 3e 4e 09 4e bd
       -0.10943132 0.10972601 0.14128554 -0.050301842
0003e0 45 d0 29 be 62 f4 b6 3c 46 0c a8 bd a0 aa 8b bd
       -0.16583355 0.022333328 -0.08205466 -0.068196535
0003f0 50 25 56 bd bd 6f 10 be 98 cd a6 bd 13 5c 2d be
       -0.052281678 -0.14105125 -0.08144683 -0.16929655

encoder.0.0.bias f4 [32]
000000 1f 39 b0 3d 9d 5f d0 bc 8e 36 b2 3d b7 84 af 3d
       0.08604645 -0.025436217 0.08701812 0.08570235
000010 35 fb 78 3b da c6 49 3d b6 89 17 3e 34 74 a7 3d
       0.0037991528 0.049261905 0.14798626 0.08176461
000020 f1 53 b8 bc 8f 55 0d bd 40 89 a5 bc 7e 70 14 3e
       -0.022500964 -0.034505423 -0.020207047 0.14496037
000030 1f f6 11 be 91 f2 7e 3d 77 05 35 be bf b0 0f 3e
       -0.14254044 0.062243048 -0.17677866 0.14032267
000040 00 f1 a2 bc f6 ac 46 3d fe a0 0d 3c 95 27 67 bd
       -0.019890308 0.048504792 0.008644341 -0.056434233
000050 e3 94 e3 3d db fc f0 3d 4a c4 2b 3e d6 c6 e3 bd
       0.11112382 0.11766978 0.16774097 -0.11121909
000060 3f 4c 4f 3d 22 f2 6a bd ae 7e b3 3d 6d 1e 29 bd
       0.050609823 -0.057359822 0.087643966 -0.041288782
000070 07 d5 16 be ba 43 0d 3e a1 40 1e 3e fb 78 09 3d
       -0.14729701 0.13795367 0.15454341 0.03356264

encoder.1.0.weight f4 [16, 32]
000000 36 56 a3 3d e3 0b 0a 3e 14 57 9a bd 26 54 c5 bd
       0.07975428 0.13481097 -0.0753614 -0.09635191
000010 a1 5e 0d be b1 93 29 be 9c 94 27 3e 54 57 f3 bd
       -0.1380563 -0.16560246 0.16365284 -0.11881891
000020 52 e0 c4 bd a8 63 1e be ed fe bf bd a9 12 a4 bd
       -0.09613098 -0.15467703 -0.09374795 -0.08011372
000030 56 0b 6a bd a2 1f ba 3c dd a9 0c be e1 b8 2a 3d
       -0.057139717 0.022720162 -0.13736673 0.04168022
000040 57 b7 34 bd b3 be d3 bc e1 24 b0 bd 2b bf df 39
       -0.04412016 -0.025847768 -0.08600784 0.00042676306
000050 26 6c d8 3d b1 95 32 be 9a fc 03 3e b1 d1 c9 bd
       0.10567503 -0.17439915 0.12889329 -0.098544486
000060 22 c9 3d be e1 45 2b 3e 2e 0a 5b 3d c4 5a 7f 3d
       -0.18533757 0.16725875 0.053476505 0.06234242
000070 85 1f 42 3e 6e 83 15 3d ac 18 a6 bd 7e 45 1b bd
       0.18957336 0.036502294 -0.081101745 -0.03790807
000080 2c 94 36 3d f0 10 ea 3c a3 cd 0e bd 1d 36 51 bd
       0.0445749 0.02857253 -0.03486408 -0.051076997
000090 b6 f5 a6 39 bb d9 3d bb 7e 26 0d 3e dd bf a6 3d
       0.00031845056 -0.0028968889 0.13784215 0.08142064
0000a0 57 21 23 be a6 d1 98 3d d0 c3 21 be 67 ef a0 3d
       -0.15930687 0.07461862 -0.15797353 0.078581624
0000b0 c9 f0 32 3e 68 ba 19 be bf 46 b7 3d 27 62 e0 3d
       0.17474665 -0.15012515 0.089490406 0.10956221
0000c0 33 12 14 be de 44 2d be cf 58 00 3e 41 95 14 be
       -0.14460067 -0.16920802 0.12533878 -0.14510061
0000d0 1b 65 2a bb 32 e2 d0 3d 50 e7 ec bd 2f 57 2d 3e
       -0.0026000205 0.10199393 -0.11567557 0.16927789
0000e0 05 ed e8 bd 8c fa d3 bd 69 c0 a5 3d 3a 42 ff bd
       -0.11373333 -0.103505224 0.0809334 -0.124638036
0000f0 e7 04 2c bd a4 7d 0b be 5c 17 5c 3d 87 48 15 3e
       -0.041996863 -0.13622147 0.053733215 0.14578448
000100 51 b9 08 3e 0d 3c 1f be df 71 37 3e d9 7b 9b 3d
       0.13351943 -0.15550251 0.17914532 0.075919814
000110 7f bc a7 bd 59 dc 72 3c 1d 0e e7 bd 17 7f 1d 3d
       -0.0819025 0.014823043 -0.11281989 0.03845128
000120 e9 aa 9f 3d 8a ab 29 3d 4c 84 17 3e 29 ce 70 bd
       0.077962704 0.041423358 0.14796561 -0.05879036
000130 29 3e d7 3d 7d ac 5d bd ae ab c4 bc 39 0c f1 bc
       0.10509903 -0.054119576 -0.024007645 -0.029424774
000140 28 20 e0 3d 9b fd 0b 3e 6a 27 b2 3d 38 ed 06 be
       0.10943633 0.13670962 0.08698924 -0.1317643
000150 db 7b c3 3c 44 84 9b 3d 47 53 9d bd 72 13 14 3d
       0.02386277 0.07593587 -0.076818995 0.036151357
000160 64 5e 8c bd 8a 4c 90 bd 4c eb be 3d 14 9e 0b 3e
       -0.06853941 -0.07045849 0.09322223 0.13634521
000170 e0 a5 42 be 17 12 99 3d cf dc 08 be 6c 93 11 be
       -0.19008589 0.074741535 -0.13365482 -0.14216393
000180 6b f6 76 3e 32 87 37 be 48 23 69 3e 48 61 ac 3d
       0.24117438 -0.17922667 0.22767365 0.084169924
000190 dc b8 22 3d 14 b2 87 3b 69 f9 89 bc 82 dc e5 bd
       0.039727077 0.0041411016 -0.01684256 -0.11223699
0001a0 49 e6 15 bd 48 78 a8 3d a6 e9 11 3d 8e ee 9b 3c
       -0.03659657 0.08226067 0.035623215 0.01903465
0001b0 d0 70 47 bd 41 06 a7 bd 0f 08 1e 3c 9a 88 a9 3c
       -0.04869157 -0.0815549 0.009645476 0.02069502
0001c0 3b aa 0f 3e 61 ef fb 3d 30 c0 2b be ec 6c 40 bd
       0.14029782 0.12301517 -0.16772532 -0.046978876
0001d0 3b 24 2a 3e 39 f6 71 3e 17 7a 53 bd 93 73 f9 bd
       0.16615383 0.23629083 -0.051630106 -0.12180247
0001e0 a1 9e 6d 3e 1e a8 27 be 2d 6f b4 3d 35 24 6c 3e
       0.23205043 -0.16372725 0.088102676 0.23060687
0001f0 62 a4 ac bd ea 3c 78 3e 0d 83 41 3d 14 59 70 3e
       -0.08429791 0.24241987 0.04724412 0.2347148
000200 80 1d cb 3d 96 20 97 bd 08 3e 72 3e 4c a8 2d 3d
       0.09917736 -0.07379262 0.23656476 0.04239683
000210 98 b0 22 3c 4e ea 56 3c 3c 9b b2 3d 47 b2 49 3d
       0.009929799 0.013117386 0.08721015 0.049242284
000220 67 51 57 bd 31 90 fc bd a1 ec 8f bd 88 af 07 3e
       -0.052567866 -0.1233219 -0.07027555 0.13250554
000230 b3 49 3a be 0f 4a 37 3d 3b 62 0e bd 48 d9 82 bd
       -0.18192177 0.044748362 -0.03476165 -0.06389099
000240 c1 87 d5 3b 1d da 15 3e d0 cc ef 3c 45 2b 3c 3e
       0.0065164273 0.14633985 0.029272467 0.18375881
000250 13 8b 14 3e 59 27 04 bc 79 65 1e 3e d9 39 87 bd
       0.14506178 -0.008066022 0.15468396 -0.066028304
000260 30 e5 d4 3d 98 67 d4 3d 27 bc 1d 3d d4 cf 13 3e
       0.103952765 0.103713214 0.038509514 0.14434749
000270 06 77 a5 bd a7 a9 b1 3c 17 72 e4 3d 8f 31 91 bd
       -0.080793425 0.021687342 0.111545734 -0.07089531
000280 26 ea 15 be 77 05 0d be 4f be 03 bd 41 e1 d3 bd
       -0.14640102 -0.13771616 -0.032163914 -0.10345698
000290 a1 5a d5 3d 70 81 29 3d a7 4e b1 3c e2 fb de bb
       0.10417677 0.041383207 0.02164395 -0.006804929
0002a0 e3 b9 f5 3c 91 d5 6c bd ad 52 bf bc e2 29 f8 3d
       0.029995864 -0.05782086 -0.023354853 0.121173635
0002b0 d7 cb e0 bd 28 0e 98 3d 7d 9d 83 bd 5d eb ed 3c
       -0.10976379 0.07424575 -0.06426523 0.029042894
0002c0 4e 1a e9 bd 7c 91 a3 3d c0 63 0e 3e cc 8f f2 3d
       -0.1138197 0.07986733 0.13905239 0.11843833
0002d0 42 59 4d bd 66 96 b7 3d b7 08 00 be a2 40 1d 3e
       -0.05013395 0.08964233 -0.12503324 0.15356687
0002e0 cf 01 e6 bb e0 32 d2 bd 9d bb 08 bc 70 f7 80 bd
       -0.0070192586 -0.1026361 -0.008345512 -0.06297195
0002f0 3c 6b 4f 3d 44 a2 0a bd 08 b5 8d bd 3a 5b fb 3d
       0.050639376 -0.033846155 -0.069192946 0.122732595
000300 af 88 48 3d 06 a2 d7 bd 7a c4 88 bd 36 3f ea 3b
       0.048958477 -0.105289504 -0.066781 0.0071486486
000310 da cc 1c bd 23 d3 c1 bd ec 7f 88 3d 49 9e e3 bd
       -0.0382813 -0.09464099 0.06665024 -0.11114175
000320 3a 84 a4 bd 32 68 e3 bc a2 11 c7 3d cb 08 14 bc
       -0.08033033 -0.027759645 0.0972016 -0.0090352995
000330 b5 57 01 3e 3f 2b 05 be 05 58 1f 3d a2 29 32 3e
       0.12631114 -0.13004778 0.0389023 0.17398694
000340 b1 33 26 3e 41 4f c1 3d b9 6a fd 3d bd 52 af 3c
       0.16230656 0.094389446 0.12373871 0.021401757
000350 c6 d2 81 3b da 33 0c be 43 0a 03 be b7 41 5c 3d
       0.0039618937 -0.13691655 -0.12796883 0.053773608
000360 5f 7a f1 bd 25 46 e3 3d 85 a8 2f 3d c3 64 2c bd
       -0.117909186 0.110973634 0.042885322 -0.04208828
000370 22 4b 45 bd bf 54 54 3e e3 22 25 3e d9 a1 38 3e
       -0.048167355 0.20735453 0.1612659 0.1803049
000380 36 eb 03 bb 83 c5 11 be 86 60 be 3d 0d 4e e0 bd
       -0.002012921 -0.14235501 0.09295754 -0.10952387
000390 8c 8a f2 bd 66 1c 1e be 24 69 5f bc c9 ca a1 bd
       -0.11842832 -0.1544052 -0.013635907 -0.07900006
0003a0 8a 0d a8 bd 43 0c a1 3d 21 56 9b bd df 01 aa 3b
       -0.08205707 0.07863667 -0.07584787 0.0051882113
0003b0 80 0f 18 3d 6d 8f 0f be 80 ec 54 3d fd 92 fb 3d
       0.037124157 -0.14019556 0.051983356 0.12283895
0003c0 0e 38 51 3c db 95 14 be 52 ed 08 3e 04 3c 2c bc
       0.012769712 -0.1451029 0.1337178 -0.010512356
0003d0 76 62 08 3e 57 1f 07 3e 10 06 33 3c ef fc 13 be
       0.1331881 0.13195549 0.010926738 -0.14451955
0003e0 12 2b 66 3c 99 82 eb 3d ce 04 15 3e 41 b4 8f bd
       0.014048355 0.11499519 0.14552614 -0.070168026
0003f0 0b b9 90 bd db fc 85 3d 5c 0d 0f 3e d6 c6 2f 3e
       -0.07066544 0.06542369 0.1396994 0.17165694

encoder.1.0.bias f4 [16]
000000 a4 7d 84 3b d8 f6 2f 3d 06 24 15 be c6 93 81 3e
       0.004043298 0.042960018 -0.14564523 0.25308055
000010 d1 16 10 bd a6 a7 14 be b1 5f a4 3d 6c 59 16 3e
       -0.03517801 -0.14517078 0.08026064 0.14682549
000020 15 93 1a be 77 7e 39 3e c6 fe 8e 3c 5f 47 fd bc
       -0.1509517 0.18114649 0.01745547 -0.030917821
000030 34 72 e6 3d 14 9f 3a be 01 df 30 3c 0e b1 ae 3d
       0.11252251 -0.18224746 0.010795356 0.08529864

encoder.2.0.weight f4 [8, 16]
000000 14 a0 ad bd 99 6d da 3c 9f c6 0a bd 28 36 24 3d
       -0.08477798 0.026663588 -0.033880826 0.04009071
000010 a2 15 8c 3e f4 55 16 be db 17 79 be be ec 68 3e
       0.27360255 -0.14681226 -0.24325506 0.2274656
000020 27 c8 11 bd 7c 5f 93 bd 3d 62 80 3d de 71 ca 3c
       -0.03559127 -0.071959466 0.062687375 0.0247125
000030 ba c0 14 3e c1 6a c7 3d f2 44 b6 bd c3 24 bb 3d
       0.14526644 0.097371586 -0.08899869 0.09137871
000040 a9 fa f6 bd e2 ef 05 bd f4 e3 e0 3c 2a cc 6a 3e
       -0.120595284 -0.032699473 0.027452447 0.22929445
000050 72 36 99 3e ab c6 28 3e bf 37 14 3e cf c7 9b 3d
       0.2992435 0.16482036 0.1447439 0.0760647
000060 74 6b e4 bc aa 3d f3 3d d4 b5 41 bd a4 31 75 bd
       -0.027883269 0.11876996 -0.047292545 -0.059861794
000070 24 9f 27 be a4 c1 3a be 99 e1 35 3e 00 0b 0f 3e
       -0.16369301 -0.1823793 0.1776184 0.1396904
000080 09 50 ee 3d e2 34 40 3d f1 35 da 3d 39 51 75 3d
       0.11636359 0.046925433 0.1065482 0.059891913
000090 85 47 32 3e bd af 8b bb e5 7a 20 3c 12 c5 f4 3c
       0.17410095 -0.004262893 0.009794925 0.029879127
0000a0 cd 4e ea ba 34 c9 67 bd e5 ba 37 be 9e 08 2c 3e
       -0.0017876268 -0.056588367 -0.17942388 0.16800162
0000b0 1f 2d 5c 3e 1c de 82 3d 0a 40 91 3d 09 67 86 bc
       0.21501587 0.0639002 0.070922926 -0.016406553
0000c0 ed e0 91 bd 6f 20 4e be 4f 07 bf bd a3 90 af 3c
       -0.07122979 -0.2012956 -0.09327566 0.021431273
0000d0 cf 61 51 be 3d c5 60 bd 77 2f 0d 3e c7 f4 68 3e
       -0.20447467 -0.0548756 0.13787638 0.22749625
0000e0 b8 6b a9 3d ee bc 60 bd bd d7 36 3d 3f 97 58 3e
       0.08272499 -0.054867677 0.044639338 0.21151446
0000f0 dc e5 11 be 5b 29 fa 3d 75 be 5e be f0 16 5b bd
       -0.1424784 0.12214919 -0.21752341 -0.05348867
000100 53 01 0d be 48 d5 e7 bd fc d2 bc 3c 43 a9 77 be
       -0.13770036 -0.11319977 0.023049824 -0.24185662
000110 e4 f1 15 be 68 9d 8f bd 97 bb 5d be 79 b9 60 be
       -0.14643055 -0.07012445 -0.21653591 -0.21945752
000120 2d b8 b6 bd 74 32 0f 3e 22 e4 ef 3c 4a b6 09 3d
       -0.089218475 0.1398409 0.029283587 0.03362111
000130 e8 5c c4 bd 5c 65 d0 3d 14 f6 65 bd 7a c5 1c 3d
       -0.09588033 0.10175583 -0.05614288 0.038274266
000140 73 37 54 be f6 07 ce bd 34 64 9d bb 38 37 97 bd
       -0.20724277 -0.10060112 -0.004803205 -0.07383579
000150 87 7f e5 3d 18 a8 5a be 6d a1 c0 3d 4d 25 42 3e
       0.112059645 -0.21353185 0.094057895 0.18959542
000160 44 c7 81 3d c5 ec e2 3d 42 23 ba 3c 67 2a 4f 39
       0.06336835 0.110803165 0.02272189 0.00019756854
000170 f6 1a 44 3e fe 47 24 be 23 35 6f 3e 68 81 53 3e
       0.1915091 -0.16043088 0.23360114 0.20654833
000180 77 3a 09 be 3c 96 56 be 54 50 69 be 83 9f a4 3d
       -0.13401209 -0.20955747 -0.22784549 0.08038237
000190 5a 98 42 be 0d 38 f0 bd 1e 36 e0 3d b2 73 3b be
       -0.1900343 -0.11729441 0.10947822 -0.18305853
0001a0 41 e3 90 bd 10 ac 6b 3e 04 ca 1d bd 10 00 21 3e
       -0.07074595 0.23014855 -0.038522735 0.1572268
0001b0 c3 d2 0f bd 2d 9a b4 bd a5 74 e0 3d 3d f7 82 bd
       -0.035113107 -0.08818469 0.10959748 -0.06394813
0001c0 96 a3 88 3d 98 7f 4b bb fd 0c 70 3e 54 ac 90 3e
       0.066718265 -0.0031051394 0.23442455 0.28256476
0001d0 28 40 63 3e 6c 45 39 be d3 08 33 3e 4d 5d 24 be
       0.22192442 -0.18092889 0.17483835 -0.16051216
0001e0 d8 15 3b be e5 83 90 3d e8 2a 60 be b1 bd 93 3d
       -0.18270051 0.07056407 -0.21891367 0.07213915
0001f0 d9 b3 62 be 0e d6 5c bd d9 53 6b be 44 c1 8f be
       -0.22138919 -0.053915076 -0.22981204 -0.28077137

encoder.2.0.bias f4 [8]
000000 f6 97 08 bd bf e7 0a 3e 82 e6 0d bc 07 cb 07 be
       -0.033348046 0.13564967 -0.008660914 -0.13261043
000010 4e 93 d2 bd c2 19 4c bc c7 e7 83 be b9 9f ff bd
       -0.102820024 -0.012457313 -0.2576277 -0.124816366

encoder.3.weight f4 [5, 8]
000000 77 f7 1c bb 31 c3 56 3e b1 c3 c6 3c 76 81 c7 bd
       -0.0023951211 0.20972897 0.024263235 -0.097414896
000010 63 a3 83 be d9 0e d7 bc 36 6d f9 bd cb b0 bb 3e
       -0.25710592 -0.026252197 -0.121790335 0.3665832
000020 a5 71 41 be 66 ee ac be d0 82 6b 3e 47 6e 6d 3e
       -0.18891008 -0.33775634 0.2299912 0.23186599
000030 c4 b2 bd bd 4f 00 3d be 15 a3 a1 3e 10 67 95 be
       -0.092626125 -0.18457149 0.31569734 -0.29180193
000040 8c 6d 8f be 6a 95 09 bd 95 68 89 be 9e 8a db bd
       -0.28013265 -0.033589758 -0.26837602 -0.107197985
000050 55 84 f3 bd f9 0f 26 3e 9b 07 63 3e 40 83 c7 be
       -0.11890475 0.1621703 0.2217087 -0.38967323
000060 f1 33 9d 3c 65 a9 60 be 68 dd a8 3e 74 68 76 be
       0.019189807 -0.21939619 0.3298142 -0.24063283
000070 f4 ff 43 3c c1 ae 06 be e5 24 97 be de 6e 98 3d
       0.011962879 -0.13152601 -0.29520336 0.07443021
000080 0c d7 99 be 72 86 71 be 74 9d 68 bd 80 7c 89 be
       -0.3004688 -0.23586443 -0.056790784 -0.26852798
000090 89 79 94 3e 4f fd aa 3e cd 41 3c be 05 a7 98 3e
       0.28998974 0.33396384 -0.18384476 0.29814926

encoder.3.bias f4 [5]
000000 90 69 a2 3e a0 df af be 21 7e 87 be 58 67 69 be
       0.31721163 -0.343503 -0.26463416 -0.22793329
000010 32 d9 34 bd
       -0.044152446

decoder.0.0.weight f4 [8, 5]
000000 77 09 66 3e 07 c0 ae be f5 3b e7 3e 01 f7 b6 be
       0.22464548 -0.3413088 0.4516293 -0.35735324
000010 f0 f9 2f be 50 fd 95 3e 5f 16 dd 3e 22 d1 4e bd
       -0.17185187 0.29294825 0.4318113 -0.050492413
000020 7b d5 a0 3d 7b 34 39 be ac ed ba 3e e2 6c c0 be
       0.07853218 -0.18086426 0.36509454 -0.3758307
000030 2b ac 4f be e5 49 58 be 23 ab 5f be 71 6a 89 bd
       -0.2028052 -0.21121939 -0.21842627 -0.06709755
000040 88 2c 3c be 44 f0 88 bd f9 33 b6 3c a2 d8 bb bd
       -0.18376362 -0.06686452 0.02224158 -0.09172179
000050 a4 ed 57 be 9a f4 94 bd cc 8f 16 bc 09 b7 c4 3e
       -0.21086746 -0.072732165 -0.009189557 0.38420895
000060 f1 41 bd be 2b 00 a4 3e 3d de 83 be 37 de f1 3b
       -0.36964372 0.32031378 -0.25755492 0.0073812264
000070 12 72 7d be c0 20 b7 be 5c 3a 42 bb aa d0 9e be
       -0.24750546 -0.35767174 -0.0029636836 -0.31018573
000080 4c 9b 02 3e 8b e1 0d bd e6 ed b8 3e d0 9f 9a be
       0.12754554 -0.034638923 0.36119002 -0.30200052
000090 99 a4 bf bd d1 19 7b be 5c ce 5a bd 16 e8 b0 3e
       -0.093575664 -0.24521567 -0.053419456 0.34552068

decoder.0.0.bias f4 [8]
000000 ea d2 64 3e fe 1e f8 be ae c2 bc 3e 1a bf ec 3e
       0.22346082 -0.48461145 0.3686728 0.4623955
000010 5e 8f bb be 84 27 e6 bd fc fe 6b 3e aa 85 54 ba
       -0.36632818 -0.11238006 0.23046488 -0.00081070757

decoder.1.0.weight f4 [16, 8]
000000 2a 18 0a 3e 47 c8 82 bd 59 3f 53 be 85 24 9f bd
       0.1348578 -0.06385856 -0.20629634 -0.077706374
000010 84 07 85 be e3 01 b2 3e 68 77 2f 3d da e2 12 3e
       -0.25982296 0.34767064 0.042838484 0.1434435
000020 e4 77 92 be 0b 06 a6 bd 9c a3 c8 be 09 d6 8d be
       -0.28607094 -0.08106621 -0.39187324 -0.27702358
000030 8a 4a 38 3d 51 34 b8 3b d6 81 82 3e 7d fd 81 bd
       0.04499296 0.005621471 0.25489682 -0.06347177
000040 c7 bd 10 3e b9 46 93 be 83 dc 5c 3e 52 2a ad bd
       0.14134894 -0.28764895 0.21568494 -0.084553376
000050 0a c1 43 be e6 f6 e0 bc a5 52 c0 3e 36 37 34 bd
       -0.19116607 -0.02746148 0.37563053 -0.043997966
000060 69 e5 d7 be c4 27 94 bd 71 9d 31 be 64 ad d6 3b
       -0.42167214 -0.07234147 -0.17345215 0.0065514315
000070 d1 06 37 3e 5b 7d 79 be 2d 52 64 be 75 24 a7 bd
       0.17873694 -0.24364226 -0.22296973 -0.081612505
000080 7b bc 8f be ef fe 98 bd 30 90 2f 3e b0 b1 23 be
       -0.28073487 -0.074705 0.17144847 -0.15985751
000090 4d f7 3a 3e de 32 af 3d 53 77 8e bd f3 2c 40 be
       0.182584 0.08554624 -0.06956353 -0.18767147
0000a0 cd d4 a6 be 2a a2 29 be 99 b1 10 3e a1 33 a7 be
       -0.3258423 -0.16565767 0.14130248 -0.32656577
0000b0 79 b1 ac 3e 11 88 80 be 00 15 80 be 5d 01 9e be
       0.3372915 -0.2510381 -0.25016022 -0.30860415
0000c0 ac 9f a3 bd c2 85 63 be 6f 36 15 3e 51 e9 30 3d
       -0.07989439 -0.22218993 0.14571546 0.043191258
0000d0 48 03 72 3e 8a 01 31 3e 08 9f f0 3d f8 2f d3 bc
       0.23634064 0.17285743 0.11749083 -0.02577971
0000e0 4c 59 f6 bd 99 53 7d 3e 47 b0 9b bd 95 3c d2 bd
       -0.12028751 0.24738921 -0.076019816 -0.10265461
0000f0 f0 58 c1 3e 31 3b eb 3d ab 43 4c be 58 f1 99 bb
       0.37763166 0.11485899 -0.19947688 -0.00469796
000100 70 dc 94 3e c3 e9 91 3e d7 d0 9d bd 8d 18 c0 3e
       0.2907443 0.2849866 -0.07705849 0.3751873
000110 54 8d 8b be 24 7d 17 3e 93 fa cd bd b1 46 24 3d
       -0.27256262 0.14793831 -0.10057559 0.04010648
000120 20 5f a6 3e 91 76 be bd ca 7e 60 be 18 05 b8 3d
       0.3249445 -0.092999585 -0.21923366 0.089853466
000130 80 0f cd 3d ac c2 78 3e 21 2e 63 3e 9c b2 98 bd
       0.10012722 0.24293011 0.22185566 -0.07455942
000140 7f 57 2b be a8 4c 9f be 42 39 7a 3e d8 a0 44 3e
       -0.16732596 -0.31113172 0.24435905 0.19201982
000150 e6 67 05 be 96 77 18 be 50 a0 80 be d7 21 58 3d
       -0.13027915 -0.14889368 -0.2512231 0.052766647
000160 e3 cd 93 3e 57 98 bf 3c 33 a5 bf 3e 04 4c e0 3c
       0.28868017 0.023388071 0.37430725 0.027379997
000170 dd 1b 08 be 9a df 50 3e 45 0c bb b9 bf b2 22 3e
       -0.13291879 0.20397797 -0.0003567656 0.15888499
000180 4c f3 7a be d1 31 b9 bd 7a 0f 61 3e 1e ee 4d 3e
       -0.24506873 -0.09042705 0.2197856 0.20110366
000190 d2 dd ef bd b3 fc 6b 3d 53 71 ed 3d 2d 19 75 bd
       -0.11712231 0.05761404 0.115938805 -0.059838463
0001a0 c8 9d c3 be b7 6c ac 3e 9d c7 a1 be fe 4c c1 3d
       -0.38206315 0.33676693 -0.31597605 0.09438513
0001b0 96 4e 5d be 4a 41 d6 bd ae 01 86 bd 07 d3 cd 3d
       -0.2161201 -0.10461672 -0.06543289 0.10050016
0001c0 19 8e 18 be 26 fe 33 bd a6 07 68 bd df c4 a0 be
       -0.14897956 -0.043943547 -0.05664792 -0.314002
0001d0 fa ca 3b be 33 84 1b bd 8c e3 2f be 20 e7 c6 3d
       -0.18339148 -0.037967872 -0.17176646 0.09712052
0001e0 e0 41 c2 bc 0f 60 f4 3d bb 68 19 3e c1 fa bf be
       -0.023713052 0.11932384 0.14981358 -0.37495998
0001f0 8c 2c 96 3d 5d df 33 3e b4 46 a4 be a7 be b9 3d
       0.073327154 0.17565675 -0.32085192 0.09069567

decoder.1.0.bias f4 [16]
000000 9a 55 ad bd 54 99 d0 be 59 e1 b1 bc 19 9f 81 be
       -0.08463593 -0.4074198 -0.0217139 -0.25316694
000010 30 0a 0d be 72 0f 0b bd e9 fa 9a 3d 23 89 35 3e
       -0.13773417 -0.033950277 0.075673886 0.17728095
000020 97 cf 99 3e f4 0e 86 3e 9c b5 aa 3e 70 07 88 3e
       0.3004119 0.26183283 0.33341682 0.26568174
000030 de ee 47 3d c4 8d bc bc aa 11 7e 3d 38 1e 28 be
       0.048811786 -0.023016818 0.062028565 -0.16417778

decoder.2.0.weight f4 [32, 16]
000000 94 60 e7 bd d0 27 77 3d 70 14 6d bd 86 a7 03 be
       -0.11297718 0.060340703 -0.05788082 -0.12856874
000010 61 4c ca bd 22 fd 7e 3e 61 ad 2f be 54 fb 34 3e
       -0.09877849 0.2490125 -0.17155983 0.17673999
000020 00 50 6e be 2a 95 7a be 0d 5c c2 bd 67 fb 82 3d
       -0.23272705 -0.24470964 -0.094902135 0.063956074
000030 69 aa 6d 3c c8 a1 24 be 29 4a 37 be 7d c5 e5 3c
       0.014505961 -0.1607734 -0.17899384 0.028048271
000040 6d 0f 76 be 38 eb 87 be 5d 0f 76 3e a9 0d 6b bd
       -0.24029322 -0.26546645 0.24029298 -0.057386074
000050 a6 cd 13 bc d5 e6 4c be 65 1d 8e bc 54 e1 f7 bd
       -0.009021198 -0.2000993 -0.017348 -0.12103525
000060 2f fb e7 bc d5 e8 b0 3d 95 15 a4 3d c2 b3 11 be
       -0.028318016 0.08638159 0.08011929 -0.14228728
000070 fc b7 11 be 3f 55 91 be d8 9f 8a be 16 90 30 3e
       -0.1423034 -0.2838535 -0.27075076 0.17242464
000080 f4 50 6f be 41 48 67 3d 36 48 38 3e 54 26 4e 3e
       -0.23370725 0.05646539 0.17996296 0.20131809
000090 99 1d 36 be 6b 8e 50 3e a6 1c 7e 3e 60 db 58 be
       -0.17784728 0.20366828 0.24815616 -0.21177435
0000a0 30 52 09 3e 7b c4 55 3e 40 25 18 3e 43 42 01 bd
       0.13410258 0.20875733 0.1485796 -0.031557333
0000b0 21 e8 8a bb 4f bc 1b 3e 3b e6 4b 3e ae 1c c7 3d
       -0.0042390977 0.15208553 0.19912045 0.09722267
0000c0 30 b0 76 bd 4f f8 d1 3d 6c 94 ec bd 48 07 27 bd
       -0.06022662 0.10252439 -0.11551747 -0.04077843
0000d0 2b f4 48 3e 57 c3 5d bd 51 c4 65 3d ee a1 69 bd
       0.19624393 -0.05414137 0.056095425 -0.057039194
0000e0 ad 1b 13 3d f9 b1 91 bd 6e fe 93 3b d9 69 a0 3d
       0.035915066 -0.07114024 0.0045164144 0.07832689
0000f0 cb f8 28 be e3 e9 3c 3e b8 18 cb 3d 68 10 07 be
       -0.16501157 0.18448596 0.09916824 -0.13189852
000100 8e 88 1a be fd 51 82 bc 00 eb 13 be 06 92 d2 3d
       -0.15091154 -0.015908236 -0.14445114 0.10281758
000110 f3 c8 e7 bd 2f 02 4b 3d 8e aa 69 3d 30 c4 09 3d
       -0.11317625 0.04956263 0.05704742 0.033634365
000120 77 2b cc bd bb c3 03 3d 2e 0b 27 3e ab 25 a5 be
       -0.09969228 0.032169085 0.16312858 -0.322553
000130 2a ba 43 bd 1a df 19 be d2 a1 97 3d c4 39 b7 3d
       -0.04778496 -0.15026513 0.07403912 0.08946565
000140 23 2a 09 3e 43 ef 25 3d ab a1 48 be 0b cb 69 be
       0.1339498 0.04051138 -0.19592921 -0.22831361
000150 f5 45 e7 bd d7 7a 57 be 92 82 ee 3c e4 18 0d be
       -0.1129264 -0.21042953 0.029114995 -0.13779026
000160 b0 0a 70 3e 0d e9 d2 3c 0c 5f 86 3e ae 9f 4b 3e
       0.23441577 0.025745893 0.2624439 0.19885132
000170 d7 56 86 3e b6 dc 18 3e c9 1a b1 bd 09 d3 8a be
       0.2623813 0.14927945 -0.08647687 -0.27114132
000180 98 27 1f 3e 64 e2 0d be 1d 9c f9 bd 11 bf eb 3c
       0.15542448 -0.13855892 -0.12187979 0.028777631
000190 5a 4c fd bd 76 4e aa 3d 83 86 19 3e 7d e8 d0 bd
       -0.123680785 0.083157465 0.14992718 -0.102005936
0001a0 ed fb 39 3e 24 c1 6f 3e ab 98 64 3e 9a f3 80 bd
       0.18162508 0.23413521 0.22323863 -0.06296463
0001b0 18 15 0c 3e 26 53 8c be 7e a5 e1 3c 7c 6f 1c 3d
       0.13679922 -0.27407187 0.027544733 0.038192257
0001c0 29 b8 4f be 1d ad 4f bd ec 8d b6 b7 e9 2f 07 bd
       -0.20285095 -0.050702203 -2.1762178e-05 -0.033004675
0001d0 f7 2b 09 bd f3 8a 80 3e d9 dd 92 be 00 43 3e 3d
       -0.033489194 0.2510601 -0.2868488 0.046450615
0001e0 4a f2 8c be 5b 2a ac 3d db 4d ca 3c 5c 2e a5 be
       -0.27528602 0.08406516 0.024695328 -0.32261932
0001f0 40 73 0b be c5 8e 84 39 95 79 eb bd 48 f6 17 bd
       -0.13618183 0.00025283374 -0.11497799 -0.037100106
000200 77 ff b9 3c 4e 15 24 3e 01 10 42 be 5c 8c f7 bd
       0.022704823 0.16023752 -0.18951418 -0.12087318
000210 d7 11 85 be d8 bd e4 bd e2 83 91 3e 1d b6 1d 3d
       -0.25990173 -0.11169022 0.2842093 0.038503755
000220 9b 6c df 3c 7e ac 6b 3e fa 06 09 3d 85 8e 84 3e
       0.027273467 0.2301502 0.03345392 0.25889984
000230 ba 37 00 3c 55 1e 23 3e d5 5a a8 bd 2e eb 7f be
       0.007825786 0.1592954 -0.0822045 -0.24992058
000240 62 55 47 3e 1e 35 53 3e ed 23 d5 bd 5d 05 4e 3e
       0.19466165 0.20625731 -0.10407243 0.20119233
000250 76 6d ba 3b 5d d9 af 3d f6 aa cc bd 35 d2 18 3e
       0.0056893183 0.08586381 -0.09993546 0.14923938
000260 59 2e d3 bd ae 92 a8 3d 50 d1 a2 be 67 03 0c be
       -0.103115745 0.08231102 -0.31800318 -0.13673173
000270 ce a0 d3 3c 2e a4 4a bd 88 d7 83 3e 3d 9b 60 3d
       0.025833514 -0.04947298 0.25750375 0.054835547
000280 3a 26 33 3e a7 df 41 3e 3a 30 29 3e af b9 f3 bd
       0.17495051 0.18932973 0.16522303 -0.11900651
000290 e9 93 10 be 7e b8 8e bd e1 78 e6 bd 88 01 1a be
       -0.14118923 -0.06968783 -0.112535246 -0.15039647
0002a0 06 4d a1 3d 5c 3e ec bc 5d f5 15 be 75 6e c8 3d
       0.07876019 -0.028838329 -0.1464438 0.09786693
0002b0 9f 05 f9 3d 43 5f 03 be 38 b3 ad bd 28 51 2c 3e
       0.12159275 -0.12829308 -0.08481449 0.16827834
0002c0 cf ed 4e 3e 61 c1 b8 bd 06 83 84 3e 28 4c 32 be
       0.20207904 -0.09021259 0.25881213 -0.17411864
0002d0 5d 0e 4c be 6e ea 55 bd 12 0e e6 3d ab c0 34 3e
       -0.19927354 -0.052225523 0.112331524 0.17651622
0002e0 a1 ab e7 3d d9 0e b3 3d cd 05 7a 3d 94 e6 36 3e
       0.113120325 0.08743066 0.06104069 0.17861396
0002f0 04 af 97 3e f3 9d 77 be 40 ea a0 bd 86 62 49 3d
       0.29625714 -0.24181347 -0.0785718 0.049166225
000300 53 f6 2f bd cf 92 76 bc b4 0f ac be 39 8c 91 3e
       -0.042959522 -0.01504965 -0.3360573 0.28427294
000310 fe d9 ad 3d 87 62 8a 3d 1e 46 09 3d 34 b6 35 3e
       0.08488844 0.06757074 0.033514135 0.17745286
000320 12 66 c8 3d 3d 86 eb 3d 81 a5 94 be 78 e1 6e be
       0.09785093 0.11500213 -0.2903252 -0.23328197
000330 04 2b 52 be 80 ee 67 3e 27 1c 0f be 38 6f 05 3e
       -0.20524222 0.22649574 -0.13975583 0.13030708
000340 b6 bb a4 bb 7d 47 09 3e ee de 7f be 2f cf ea bd
       -0.0050272597 0.13406177 -0.24987385 -0.114652984
000350 33 d1 a5 bd 7d 7a 0a 3d ae 88 f5 ba f9 a5 3d bc
       -0.08096542 0.03380822 -0.001873275 -0.0115752155
000360 91 d3 c9 bd 4c 33 99 be bf c7 c2 bd 9e 94 f9 bc
       -0.09854806 -0.2992195 -0.09510755 -0.030466374
000370 9b 96 35 bd 43 98 d1 3d 33 dc 22 bd 59 11 6f 3e
       -0.04433308 0.1023412 -0.03976078 0.23346461
000380 7e 2d 5a 3e c1 1b e8 3d 88 7a 76 3b 22 c7 11 bd
       0.21306416 0.11333419 0.0037609655 -0.0355903
000390 3f da f4 3d 53 f6 aa 3e 4e f0 6a be 4b a1 31 3b
       0.1195569 0.33391055 -0.22943231 0.0027104195
0003a0 d2 cc 99 bd 43 5b 19 3e 6a 2f 5c bd 26 aa b6 bd
       -0.075097695 0.1497622 -0.053756155 -0.08919172
0003b0 3f 92 14 3d 9e e1 a5 3e 80 8c 89 3e a8 17 71 3d
       0.036272284 0.32398695 0.26865005 0.05886045
0003c0 5f 7b c6 bd ce 2a 3e 3d 63 b7 f7 ba dd 96 7d be
       -0.096915 0.04642754 -0.0018899258 -0.24764581
0003d0 99 6f ba bd fd 9c 39 be 5e 06 3b be 0f f0 b7 bd
       -0.09103317 -0.18126293 -0.18264148 -0.089813344
0003e0 67 d8 da 3d 32 e4 1d 3e cd 9e 2d 3e 46 0a 6b bc
       0.10685807 0.15419081 0.16955109 -0.014345711
0003f0 52 82 93 3d 4d 67 0a 3d 58 ab 5d be cb 45 1f be
       0.07202591 0.03378992 -0.21647394 -0.15553968

decoder.2.0.bias f4 [32]
000000 95 46 5f 3d 64 0a 9f bc 32 87 e0 3d 9d 40 23 3e
       0.05451067 -0.019414134 0.109632865 0.15942617
000010 ee 59 8e be 35 ca e8 3c 85 4d 2e 3e 3c 5c 87 be
       -0.27802986 0.028416732 0.17021759 -0.26437557
000020 7d 88 16 3e 8e 82 5e be ac fc 6d 3e 7a e4 55 3e
       0.14700504 -0.2172949 0.23240918 0.20887938
000030 38 c1 19 be 59 44 09 be ec 4d 85 be e5 23 73 3e
       -0.15015113 -0.13404979 -0.26036012 0.23744161
000040 20 68 1b be 70 9c ac 3c 22 4b 04 be 0f 2e 7b be
       -0.1517644 0.021070689 -0.12919286 -0.24529289
000050 1f 27 d5 3d 42 11 61 be 43 b9 68 be aa 7a 34 be
       0.104078524 -0.2197924 -0.22726922 -0.17624918
000060 6d 5f 0a be e3 ba 4a be 1d 82 56 3e 80 2e 96 3d
       -0.13512965 -0.19797854 0.20948072 0.07333088
000070 88 a6 9d 3e 95 d0 15 be 90 9a 55 3e e9 ee d2 bd
       0.30791116 -0.14630349 0.20859742 -0.10299475

decoder.3.weight f4 [34, 32]
000000 bd 81 05 be cf 08 4a be 9d f6 20 3e 33 71 4c bd
       -0.13037772 -0.19729923 0.15719076 -0.049912643
000010 b5 f8 a2 3d 61 eb c7 3d 12 66 24 3e 02 83 0f 3e
       0.07957593 0.09761692 0.16054562 0.1401482
000020 eb 13 cf 3c c8 73 9d bd a2 16 b8 3d c6 10 21 3e
       0.025278052 -0.07688099 0.08988692 0.15729055
000030 1e 61 90 bd 79 86 f4 bd 6b 5c 49 3d c0 a7 39 bd
       -0.07049774 -0.11939711 0.049160402 -0.045325994
000040 86 be 31 be ce c9 03 3e 73 18 1c be 07 a4 e0 3d
       -0.17357835 0.12869951 -0.15243702 0.10968786
000050 68 54 13 bc 7b ef 8e bd 8a 14 4a bb 13 74 e8 3d
       -0.008992292 -0.06979271 -0.0030834996 0.113502644
000060 65 cb 0f 3d fa 77 43 be 80 28 a9 3d 7a c0 13 3e
       0.03510608 -0.19088736 0.08259678 0.14428893
000070 ec fc d7 3d 5f 6c 00 3e bc 37 e3 bd e7 cc 1c 3b
       0.10546288 0.1254134 -0.11094615 0.0023925842
000080 2f 34 13 bd 94 5b 49 be 42 c9 9c 3d 64 76 96 3d
       -0.035938438 -0.1966384 0.076555744 0.073468
000090 6f c0 5a be b7 bf 69 3e ad 7b 78 3e 2f 1c 0b be
       -0.2136247 0.2282704 0.24265929 -0.1358497
0000a0 ab 49 b4 3d d2 21 de bd 44 0f bc bd 99 42 cc 3d
       0.088031135 -0.108462945 -0.09182599 0.0997364
0000b0 c7 e3 8a 3d 01 e7 46 bc 16 7a 53 be 17 02 71 3e
       0.06781726 -0.012140037 -0.20652041 0.23535953
0000c0 52 7a 2f be 46 4c 8a bd f2 a1 73 be 71 fc 1f be
       -0.17136505 -0.06752829 -0.23792246 -0.15623643
0000d0 51 0a e0 bd ef f0 db bd 08 02 91 3d 71 22 df bd
       -0.10939468 -0.10739314 0.070804656 -0.10895241
0000e0 c8 6a 37 be 44 45 6f bd b3 b8 28 bd 45 dd 00 3d
       -0.17911828 -0.058415666 -0.041191768 0.03146102
0000f0 6d 4b 61 bd ac 8d 97 bd fb 32 04 3e 82 85 67 be
       -0.055003572 -0.07400069 0.12910073 -0.22609523
000100 8b b0 d6 bd 1a bd 4a 3d a3 04 4a 3d 0b 52 2c 3d
       -0.10482892 0.049496748 0.04932083 0.04207043
000110 2e 4a e8 bd 64 eb 9e bd e3 e7 0e 3e f7 04 cd 3c
       -0.11342274 -0.07759741 0.13955645 0.025026781
000120 37 df 13 3e 0b a4 f1 bd ba d0 36 bd 58 8d 30 3d
       0.14440618 -0.11798867 -0.04463265 0.043103546
000130 9f 8f f3 3c 1d 36 84 be 36 86 d2 bd 86 0b 9f bd
       0.02973157 -0.25822535 -0.10279505 -0.0776587
000140 7b 9f 44 be 03 64 5a 3d 87 0d 43 3c a4 84 96 bd
       -0.19201462 0.053318035 0.011905081 -0.07349518
000150 12 03 0f 3e 19 2f 6f be 61 c2 b1 3c 17 9e 5e 3d
       0.13966015 -0.2335781 0.021699132 0.054349985
000160 81 cb 1e 39 28 2c 69 3b ff a0 42 3e 39 3b aa bc
       0.00015143865 0.0035579298 0.19006728 -0.020780193
000170 9a da 0c 3e 2b 62 3b bc 2d 48 7c 3d 92 55 82 be
       0.13755265 -0.011436979 0.06159227 -0.2545591
000180 e2 e3 02 3e 7d 0b 85 bd 58 e2 3e 3e b7 dc 8d bd
       0.12782243 -0.06496332 0.18641031 -0.06926864
000190 d1 fa 3e bc 83 30 51 3e b4 2e d7 3d fa 42 9b 3d
       -0.011656479 0.20428662 0.10506955 0.07581134
0001a0 a7 62 18 3d 60 71 b7 3d 3c f7 f3 bc 5a 89 5f 3d
       0.037203457 0.089571714 -0.029780976 0.054574348
0001b0 86 45 f2 3d d4 ee 29 be fd 2e 24 be a1 31 f0 3d
       0.11829667 -0.16595012 -0.1603355 0.11728216
0001c0 03 39 1e bd d5 cb 6f bd a2 52 fb 3d 15 01 4e bb
       -0.03862859 -0.058544 0.1227162 -0.003143375
0001d0 ef e6 af bc 52 73 ca bd b6 6b 81 bd f9 41 e0 bd
       -0.021472422 -0.09885277 -0.06319372 -0.10950083
0001e0 ab 4a 90 3d 10 01 ad bb 63 3a 11 3e 63 c6 f2 3d
       0.07045492 -0.0052796677 0.14182429 0.118542455
0001f0 31 d6 af bd f9 52 e6 3d cb 7f 9b bd 2d 7f 3a be
       -0.08585776 0.112462945 -0.07592734 -0.18212576
000200 65 9a c5 bd d9 bf ac bc 26 be 43 3c de fb d4 3b
       -0.09648589 -0.021087574 0.01194719 0.0064997515
000210 ad 3f 87 be 1c a7 47 bd a8 c1 9e 3d 89 8d 6a be
       -0.26415768 -0.048743352 0.07751781 -0.22905554
000220 15 8f 6a 3c 5b a9 8e be 40 3f 03 3e 71 7e 22 3e
       0.01431634 -0.27863583 0.12817097 0.15868546
000230 0c 35 57 be a8 78 68 bd e2 d9 8b be a1 f1 dd 3a
       -0.2101633 -0.05675569 -0.2731467 0.0016932973
000240 a5 60 33 be 9f 92 b8 3c 68 61 77 be 2e 29 a5 bd
       -0.17517336 0.022530852 -0.24158251 -0.08064495
000250 23 42 a2 3d 4c 21 80 bd 59 b9 89 be 14 db 91 be
       0.07922771 -0.06256351 -0.26899222 -0.28487456
000260 a3 0e c9 bc a9 04 87 bd 66 26 6e 3e c6 36 32 3d
       -0.024543112 -0.06592686 0.23256835 0.043509267
000270 65 86 5b 3c 12 0e 9e 3b b8 a5 c4 3d 9a a2 30 bd
       0.013398741 0.0048234547 0.09601921 -0.04312382
000280 a0 d7 3a bd 38 72 93 bd 11 9e b3 bd 34 b7 74 bd
       -0.045615792 -0.0719952 -0.08770383 -0.05974503
000290 3e 20 02 bc 65 24 2f 3e f0 d7 a7 bd 00 a9 a0 3d
       -0.007942257 0.17103727 -0.08195484 0.07844734
0002a0 e1 d1 d7 3c ad ab 2d be 6e 4f 6b bd 6b f3 48 3e
       0.026345195 -0.1696002 -0.057448797 0.19624107
0002b0 55 5c de 3d 30 20 ec bc ed 9f 67 be 04 06 3b 3e
       0.10857455 -0.028823942 -0.226196 0.18264014
0002c0 6d 88 11 be 4c 72 3c be a5 5f 97 3d 1b 64 b4 3c
       -0.14212199 -0.18402976 0.073912896 0.02202039
0002d0 3e eb 81 bd 91 70 fd 3c c6 31 18 be 95 2e 9e 3c
       -0.06343697 0.030937465 -0.14862737 0.019309321
0002e0 40 25 da 3d dc f4 a9 3d b9 8b fd 3d 80 0c 74 3d
       0.10651636 0.08298656 0.123801656 0.059582233
0002f0 93 30 a5 3c f5 0f bb bc 88 ba 3d 3e 92 dc bd bd
       0.020164764 -0.022834757 0.18528187 -0.09270586
000300 5c 74 0e 3d 8d ad 11 be 34 b1 a3 bd b2 19 0e 3e
       0.034778938 -0.1422636 -0.07992783 0.1387699
000310 20 d7 d3 bc b8 d1 86 3e d4 67 8b 3c 63 e9 d5 3c
       -0.025859416 0.26331878 0.017017283 0.026112264
000320 f1 49 3e 3d ad 20 59 3b a0 e9 30 3e 8c b6 e9 3d
       0.046457235 0.0033131049 0.17276621 0.11411771
000330 80 58 31 be 4a 70 d5 bd 74 57 81 be 90 0a 74 3e
       -0.17318916 -0.10421808 -0.25262034 0.23832154
000340 27 45 a6 3d 73 9c 97 bd c1 56 0f be b6 85 41 bd
       0.081186585 -0.07402887 -0.13997938 -0.047246657
000350 18 0b 20 3c 76 32 ef bd c6 51 80 bc fa d7 a0 3d
       0.00976827 -0.116795465 -0.015663993 0.07853694
000360 74 f5 34 be 85 d5 d8 bc ae 01 4f bd e0 56 b4 bc
       -0.17671758 -0.026469002 -0.05053871 -0.022014081
000370 46 30 aa bd ea 32 80 be fe 63 58 3e 02 4b 3a be
       -0.08309989 -0.25038844 0.21131894 -0.18192676
000380 99 1c be 3c 3c da 4d be 69 c5 6a bd 91 3b 32 3e
       0.023206996 -0.20102781 -0.05731717 0.17405535
000390 70 3f 82 bd 30 2e de 3d 6e 64 49 3e fc c0 e5 bd
       -0.06359756 0.10848653 0.19667217 -0.112184495
0003a0 69 03 df 3a 2f 06 b0 bc 81 26 07 bd ff e7 e7 3d
       0.0017014566 -0.021487324 -0.032995705 0.113235466
0003b0 37 51 73 bd ec fc 93 bd 6c 88 66 be 9d 07 4a 3e
       -0.059403624 -0.072259754 -0.22512978 0.19729467
0003c0 08 fc 99 3d d8 c3 82 bd f6 c6 76 be 54 c2 af 3d
       0.07518774 -0.063850105 -0.24099335 0.08581987
0003d0 99 9d bf 3d 0e e7 ed bd 17 79 07 be 2d 8c da bd
       0.09356231 -0.11616336 -0.13229786 -0.10671268
0003e0 bc e4 73 be 86 20 2e be c7 e3 76 3d c6 86 f3 bc
       -0.23817724 -0.17004594 0.06027582 -0.02972735
0003f0 d5 b6 14 3e ee 5e bb 3d 6d 63 41 3e db a1 22 be
       0.1452287 0.09148966 0.18885584 -0.15882055

decoder.3.bias f4 [34]
000000 6c 4c 41 3d f3 6f 89 3d 6f c0 4c 3e 78 e7 53 3e
       0.047192022 0.06710806 0.19995283 0.20693767
000010 01 99 16 3e db 6b 02 3e 8f c0 27 3e f6 8c b5 3b
       0.14706804 0.12736456 0.16382049 0.0055404855
000020 c4 21 07 3d 6b 6d 73 bd 76 34 de bb 80 e7 de 3d
       0.032991186 -0.05943052 -0.006781156 0.10883999
000030 c3 86 05 3e 04 bb 37 bd 99 ef c6 3d b4 08 12 3e
       0.13039689 -0.044856086 0.097136684 0.14261132
000040 07 fd 4e 3e da 56 36 bd ed 6f 22 3e 49 c4 8f 3c
       0.2021371 -0.04451642 0.15863009 0.01754965
000050 23 a0 11 bd 23 ff 06 3e 77 61 fb bc 37 b6 76 3e
       -0.03555311 0.13183264 -0.030686123 0.24092947
000060 b1 4c bf bd 46 9b 80 3d 0e ef a2 bd b7 03 b1 3d
       -0.093407996 0.06279616 -0.07955752 0.08643287
000070 d8 23 c2 3d 70 8f ee 3d 3d 9c ab bd 8b fc 8e 3c
       0.09479493 0.11648452 -0.083794095 0.017454406
000080 73 a2 62 3e 5c 4d 13 3e
       0.22132282 0.14384979

exp_avg f4 [32, 34]
000000 8f aa c6 37 60 21 c6 37 42 09 c6 37 8b e8 c4 37
       2.3682862e-05 2.361898e-05 2.360775e-05 2.3473307e-05
000010 28 18 c2 37 b9 ad bc 37 3f 52 b6 37 22 1d b0 37
       2.313785e-05 2.2492242e-05 2.173439e-05 2.0994401e-05
000020 96 9b ac 37 41 de ac 37 bb 13 b0 37 16 0f b5 37
       2.0576448e-05 2.0607493e-05 2.0990023e-05 2.1583906e-05
000030 e2 70 b9 37 e6 2d be 37 02 9f c2 37 9d c4 c3 37
       2.2106284e-05 2.2671138e-05 2.3200646e-05 2.3337367e-05
000040 31 12 c1 37 be 7a b9 37 2b 18 b0 37 2c 0e a8 37
       2.3015864e-05 2.2110875e-05 2.0992089e-05 2.003376e-05
000050 2a 99 a5 37 71 bc a8 37 38 be ad 37 a1 81 b1 37
       1.9740855e-05 2.011491e-05 2.0711785e-05 2.1160407e-05
000060 92 2d b1 37 ef f2 ae 37 1a 65 ac 37 07 e7 ab 37
       2.1121265e-05 2.0855541e-05 2.0551077e-05 2.0492369e-05
000070 b2 45 ab 37 25 e4 aa 37 96 3e ab 37 34 3e af 37
       2.0417243e-05 2.0371817e-05 2.0413932e-05 2.0890591e-05
000080 1d 07 b8 37 65 5d c3 37 f3 bb 82 b4 4a bf 82 b4
       2.1937822e-05 2.3289302e-05 -2.4351138e-07 -2.4353568e-07
000090 65 fa 82 b4 08 ec 82 b4 b7 b0 81 b4 7d 7a 7d b4
       -2.4396573e-07 -2.4386122e-07 -2.41567e-07 -2.3607022e-07
0000a0 49 91 76 b4 a8 6b 6e b4 2d 90 68 b4 2b b3 66 b4
       -2.296339e-07 -2.2204642e-07 -2.1659135e-07 -2.14856e-07
0000b0 a7 24 68 b4 3c 2b 6c b4 84 6e 70 b4 ca be 75 b4
       -2.1620018e-07 -2.1994941e-07 -2.2391947e-07 -2.2886812e-07
0000c0 3f 1e 7b b4 12 86 7d b4 0f 78 7b b4 f4 80 73 b4
       -2.33872e-07 -2.3611236e-07 -2.3419874e-07 -2.2678051e-07
0000d0 88 6e 69 b4 d6 44 60 b4 f9 44 5d b4 58 d8 60 b4
       -2.1740027e-07 -2.0886668e-07 -2.0607321e-07 -2.0940331e-07
0000e0 dc 87 66 b4 89 46 6b b4 0c 6c 6b b4 3e fb 68 b4
       -2.1469845e-07 -2.1911741e-07 -2.1925388e-07 -2.1698085e-07
0000f0 af 3d 66 b4 ec 30 65 b4 e5 65 63 b4 f5 d3 61 b4
       -2.144286e-07 -2.1345085e-07 -2.1178091e-07 -2.1031867e-07
000100 ab 34 61 b4 0e d3 65 b4 88 ea 70 b4 fe 0c 80 b4
       -2.0973918e-07 -2.1404068e-07 -2.2437064e-07 -2.385131e-07
000110 4f 34 04 38 ab 80 03 38 7d 73 03 38 b2 13 03 38
       3.151997e-05 3.1352665e-05 3.134039e-05 3.1251177e-05
000120 a2 29 01 38 9a 71 fa 37 c8 b9 f0 37 74 02 e8 37
       3.079477e-05 2.9855222e-05 2.869674e-05 2.7657698e-05
000130 28 2b e4 37 3e e1 e6 37 a8 9d ed 37 50 f3 f5 37
       2.7199814e-05 2.7523023e-05 2.8326016e-05 2.9319577e-05
000140 7c a2 fc 37 1a 3e 01 38 3a b0 03 38 60 0c 04 38
       3.0116404e-05 3.0813833e-05 3.1396958e-05 3.1482778e-05
000150 5e b9 01 38 d2 0f f8 37 1c 73 ea 37 42 eb de 37
       3.0928633e-05 2.957127e-05 2.7948576e-05 2.6574013e-05
000160 22 86 db 37 aa 43 e0 37 0b 02 e8 37 44 ae ed 37
       2.6169295e-05 2.673439e-05 2.7657507e-05 2.833375e-05
000170 7f 39 ed 37 b3 5d e9 37 fc 2c e5 37 56 1a e4 37
       2.8279375e-05 2.7819397e-05 2.7319875e-05 2.7191982e-05
000180 9f ee e2 37 48 53 e3 37 57 03 e5 37 9a a9 eb 37
       2.7052416e-05 2.709929e-05 2.7300483e-05 2.809316e-05
000190 35 f8 f7 37 6e 39 03 38 60 1a 44 37 c6 d0 44 37
       2.9560275e-05 3.128632e-05 1.1688651e-05 1.1731119e-05
0001a0 d7 ae 44 37 36 8c 43 37 69 1d 41 37 30 15 3d 37
       1.1723218e-05 1.1655551e-05 1.1510544e-05 1.1270211e-05
0001b0 e0 93 38 37 f2 fa 32 37 b9 1d 2e 37 db 67 2b 37
       1.10016845e-05 1.06680545e-05 1.03781285e-05 1.0216575e-05
0001c0 b6 fa 2a 37 de ea 2c 37 2a 1c 30 37 79 b0 34 37
       1.0191163e-05 1.0306683e-05 1.0496975e-05 1.0769924e-05
0001d0 e9 ec 39 37 b3 3c 3c 37 31 57 3b 37 20 d5 35 37
       1.1082019e-05 1.1219806e-05 1.1166369e-05 1.0838063e-05
0001e0 a0 88 2e 37 65 30 28 37 7f f3 25 37 b2 40 28 37
       1.0403019e-05 1.0024848e-05 9.89146e-06 1.0028643e-05
0001f0 8a e1 2b 37 e8 d8 2e 37 a9 ae 2e 37 5a 2e 2d 37
       1.0244907e-05 1.0421711e-05 1.0411874e-05 1.0322396e-05
000200 32 f4 2b 37 1d d9 2b 37 34 19 2b 37 9f 64 29 37
       1.024925e-05 1.0242945e-05 1.0198262e-05 1.0096613e-05
000210 f0 f6 27 37 3d 5d 2a 37 a1 20 32 37 e2 ca 3d 37
       1.001147e-05 1.0154498e-05 1.0617224e-05 1.1312515e-05
000220 3b 71 a4 b2 d1 72 a7 b2 45 d7 a9 b2 67 82 ac b2
       -1.9143604e-08 -1.9493571e-08 -1.9772083e-08 -2.0082735e-08
000230 5a 65 ae b2 c5 55 af b2 f2 c6 ae b2 01 42 aa b2
       -2.0302355e-08 -2.0411685e-08 -2.0346736e-08 -1.982062e-08
000240 d9 e0 a2 b2 d9 be 99 b2 89 59 91 b2 86 e5 8b b2
       -1.8961531e-08 -1.7898332e-08 -1.6920938e-08 -1.6286105e-08
000250 0c 7a 89 b2 d8 99 8a b2 40 12 8e b2 42 dd 91 b2
       -1.60044e-08 -1.6135274e-08 -1.6539275e-08 -1.6980838e-08
000260 e6 76 95 b2 c9 4c 97 b2 ac 42 98 b2 0d 87 97 b2
       -1.7399952e-08 -1.7613631e-08 -1.7725448e-08 -1.7640128e-08
000270 76 ac 96 b2 07 95 96 b2 6d 33 97 b2 a7 20 99 b2
       -1.7540724e-08 -1.7530068e-08 -1.76021e-08 -1.7826393e-08
000280 d6 28 9a b2 ac 02 9b b2 aa 11 9b b2 d5 e4 99 b2
       -1.794653e-08 -1.804559e-08 -1.8052408e-08 -1.7915605e-08
000290 0a 1e 97 b2 08 37 92 b2 71 ff 8d b2 b3 69 8d b2
       -1.7592374e-08 -1.7021662e-08 -1.6530722e-08 -1.6462627e-08
0002a0 b5 79 92 b2 ca cc 9c b2 d6 b4 32 b3 5d 13 35 b3
       -1.7051983e-08 -1.8253917e-08 -4.1608324e-08 -4.2159957e-08
0002b0 fa 70 38 b3 17 d7 3c b3 e5 35 40 b3 e5 b8 41 b3
       -4.294359e-08 -4.3967784e-08 -4.47525e-08 -4.5104475e-08
0002c0 d0 1b 40 b3 79 69 3a b3 cd 6e 32 b3 e2 9a 29 b3
       -4.472878e-08 -4.3402427e-08 -4.1544627e-08 -3.9489244e-08
0002d0 34 e7 21 b3 ea cc 1c b3 3d e5 19 b3 9d 2b 1a b3
       -3.769601e-08 -3.650795e-08 -3.583158e-08 -3.5895585e-08
0002e0 ba d7 1c b3 b9 59 20 b3 8c 04 24 b3 88 94 25 b3
       -3.6517783e-08 -3.7334505e-08 -3.818836e-08 -3.8552145e-08
0002f0 36 13 26 b3 5c 61 24 b3 bd f3 22 b3 e9 f8 22 b3
       -3.866736e-08 -3.8272773e-08 -3.7940243e-08 -3.7944947e-08
000300 7f 9b 24 b3 5d 01 28 b3 10 c3 29 b3 5c 52 2a b3
       -3.832565e-08 -3.9116788e-08 -3.9525787e-08 -3.9656115e-08
000310 e5 e5 28 b3 c5 77 26 b3 7a ac 22 b3 c4 e9 1d b3
       -3.9324636e-08 -3.8758817e-08 -3.787543e-08 -3.676702e-08
000320 31 b8 1a b3 1a b6 1b b3 e1 48 22 b3 23 7b 2d b3
       -3.602344e-08 -3.625437e-08 -3.7784847e-08 -4.0391694e-08
000330 2e 87 ec 36 6a ad ed 36 26 1d f0 36 46 fd f2 36
       7.049085e-06 7.0833385e-06 7.1559507e-06 7.241647e-06
000340 b9 4e f4 36 28 4d f2 36 78 ae ed 36 17 2d e6 36
       7.280931e-06 7.221144e-06 7.0834612e-06 6.8597833e-06
000350 8e a7 de 36 0b ef d8 36 95 a2 d5 36 73 d4 d4 36
       6.6356215e-06 6.46513e-06 6.3668217e-06 6.3428247e-06
000360 38 1b d5 36 b6 98 d7 36 b0 6a db 36 a7 74 de 36
       6.3510633e-06 6.425277e-06 6.5391287e-06 6.6296957e-06
000370 ac a4 df 36 4e 65 dc 36 54 98 d7 36 04 b5 d1 36
       6.665088e-06 6.5683043e-06 6.4252326e-06 6.2497584e-06
000380 47 49 cf 36 e8 05 d1 36 13 16 d5 36 26 bf d9 36
       6.1776113e-06 6.229373e-06 6.3504644e-06 6.4893566e-06
000390 5b 0f db 36 ce 01 da 36 38 7d d7 36 69 38 d5 36
       6.528496e-06 6.4971164e-06 6.4220767e-06 6.3544617e-06
0003a0 8c e4 d1 36 1b 80 ce 36 53 df cc 36 0a 17 d0 36
       6.2552917e-06 6.154192e-06 6.105672e-06 6.201565e-06
0003b0 dd bc d9 36 c4 a3 e7 36 27 f0 8a b3 0d 1a 8c b3
       6.4890905e-06 6.9034013e-06 -6.469809e-08 -6.5239966e-08
0003c0 6f 35 8d b3 da 69 8e b3 dc b5 8e b3 f4 f1 8d b3
       -6.575544e-08 -6.6316446e-08 -6.64547e-08 -6.609835e-08
0003d0 cf d2 8b b3 af c5 87 b3 b0 06 83 b3 c2 28 7d b3
       -6.511038e-08 -6.322386e-08 -6.101379e-08 -5.8943222e-08
0003e0 67 bf 76 b3 d0 1a 74 b3 27 37 74 b3 38 04 78 b3
       -5.7450418e-08 -5.6835063e-08 -5.6860838e-08 -5.7745837e-08
0003f0 12 e8 7d b3 09 29 81 b3 0b 32 82 b3 66 c1 80 b3
       -5.911722e-08 -6.014495e-08 -6.0626995e-08 -5.9956434e-08
