experiments/data/ae/156_UCR_Anomaly_TkeepFifthMARS_3500_5988_6085.txt-.ckpt (torch, 204258 bytes, 48 tensors)

encoder.0.0.weight f4 [64, 98]
00000000: 4c32 91bd 2e05 edbd 5ad3 c7bc f669 a23c
00000010: 5d60 b3bd 8435 92bd 0a6c 68bd 1014 95bd
00000020: 5759 8f3d 0c36 7abd 9b12 d3bd 6673 b0bc
00000030: abe2 87bd fb6f bebc 4b91 8cbd ac9d 573d
00000040: e3f8 153d 6329 b939 ea68 a6bd 1dde c9bd
00000050: 4293 89bd bba7 93bd 8699 82bc bc0a 643a
00000060: b0a4 a0bd 9845 383d 8f30 873d da78 333d
00000070: 5c1f 673d d177 833c 7f6e cfbd 6145 083b
00000080: a5cb ad3c 4fd2 f2bb 4fae a4bd 869e 933d
00000090: c344 c6bd ab21 0cbc 1a9a 36bd 5afd 93bd
000000a0: e45d e2bd b83b 853d 5115 4fbc 32b3 9fbd
000000b0: f8bd 8c3d 5ba9 c3bd 6fb6 113d 9712 893d
000000c0: cb2f a23d fb99 96bd 79bf b1bd bf1f 56bd
000000d0: 9aad d0bb 8305 b63c 6a94 8abd 2914 09bd
000000e0: eeb0 34bd f0a3 873d fa1d ffbc db7e 40bd
000000f0: b2c6 023d ce81 cbbb e035 bbbd d5d9 2f3d
00000100: 5130 b7bd d44a bbbd fe2c 96bd 72b4 8b3c
00000110: 16b4 aabb b3c1 8b3d 6dbd 193d 684d 75bd
00000120: ab00 a7bc 6b02 8ebd 0160 aebd ca21 d7bd
00000130: f5c9 59bd 091b 4e3d 6796 8c3d 3522 b6bc
00000140: 853d 9abd 7619 28bc 4642 77bc cc43 883d
00000150: 9d1d 283d 4ab1 e3bd d862 ebbd 5ccd 1f3d
00000160: 7f39 33bc f1f8 213d e901 123d 64ff 0b3d
00000170: 1f55 fa3c 5a45 90bd 15e1 a8bc a03c 1d3d
00000180: be8d ebbc 8927 013c 0f57 a83d 2d69 a93d
00000190: fe45 e63c ce47 833d f6bd d93d 7454 c13d
000001a0: 15d9 76bd 6ea7 8cbd 7a37 bdbb 3b25 50bd
000001b0: c0d8 ca3c 9223 b13d 9465 c5bb e833 05bd
000001c0: 6d1e 3bbd c2d6 09bd 423b 803d c3c2 853d
000001d0: 1630 b0bc e630 65bd d2c5 6c3d fc93 583d
000001e0: 33a4 ed3d bb8e 083d b270 eb3a 5c2a f33c
000001f0: 30e1 79bd 48e7 bb3d 0578 29bd 4e5f 7d3c
00000200: 9a89 8dba ad16 ecba 5506 623d 7560 e43d
00000210: 97f6 ee3d a928 e63d 4691 57bd fcc5 ee3d
00000220: 29e7 dd3d 80af f03d 2ecf 41bd 251c 86bd
00000230: 02e7 cf39 7403 c43d 646f 193d 1a8b c13d
00000240: 5e7e 9e3d 9837 903d 8425 f53d b5da a23c
00000250: ff8b 8f3d 5074 aa3d c0af d93d 41b4 433d
00000260: 241d bf3d 791b ee3d e760 a03d 8202 29bb
00000270: 1fe4 b73d adeb 2bbc e15e f03d c384 c03c
00000280: 1087 833d 1428 a0bb 3615 c93d 5173 da3d
00000290: 7cbe 6d3d 4e39 4abd 56ed d33d dcdc 373d
000002a0: 7d57 a0bc 9b1a 20bc de2b ef3c 22f0 04bb
000002b0: 0ef3 a53d 7970 41bc 5947 3cbd 1bed 91bd
000002c0: 9e7c 723d f256 3fbc d155 9bbd 7520 c73d
000002d0: 31a9 41bd 4f94 2a3d 6d4b f8bc 706a 35bc
000002e0: 9a29 f73d 0934 d03d 90dd 82bc f2e5 8cbd
000002f0: f946 5fbd b106 fc3d 5840 31bc 7c85 c73b
00000300: afd6 0d3c 83da 1abd 7af7 bd3d 79fb 0f3d
00000310: 847b bd3d 61c1 9c3d 2cba 6c3d 272a 5d3d
00000320: 59fa 713c efbd 70bd 12c5 e63d 670e c13d
00000330: aad2 7bbd b060 c83d 5415 913c e63f 1abd
00000340: 11d4 413d 12b8 8c3d 05c8 f73d 9784 85bb
00000350: b773 b83d 656c 49bd d5dd 5bbc e135 c83d
00000360: 5a1e a23d 716f 213d 0b9a 9cbd 6f0f 5fbd
00000370: fdaa 063d 305a f03c 6f48 96bd 15c4 763d
00000380: 1851 76bd fe82 203d 1fe9 423c 008e bf3d
00000390: 023b a13d 7118 a13d 4ce0 31bd 4f2a 2ebd
000003a0: dc6f 8ebd 52d1 5dbd 916a 1a3c 0229 66bb
000003b0: 28cb 6a3a e62a 63bd 44a4 7fbc d7a1 c13d
000003c0: a474 8f3c 7d21 00bd 56b0 263d c8c1 8d3d
000003d0: a444 da3d ddde e43d f834 73bd 4e98 1e3c
000003e0: 04b7 9fbc 75ca fb3c 072f 0d3d 508a 9dbb
000003f0: c828 013d 2939 00bd d1b5 cb3c 8fe6 babc
-0.070896715 -0.115732536 -0.024392772 0.019825917 -0.08758614 -0.071391135 -0.05674366 -0.07279217
0.06999462 -0.0610867 -0.10306283 -0.021539401 -0.0663503 -0.023246756 -0.0686365 0.052640602
0.03661431 0.00035316785 -0.081254795 -0.09856818 -0.0671754 -0.072097264 -0.015942346 0.00086991093
-0.07843912 0.044988245 0.06601059 0.043816425 0.05642639 0.016048344 -0.10128497 0.0020793306
0.02121527 -0.0074103246 -0.08041059 0.0720797 -0.09681084 -0.008552949 -0.044580556 -0.07226057
-0.110530645 0.06505531 -0.01263936 -0.07797851 0.06872171 -0.09553786 0.035574373 0.06692999
0.07919272 -0.07353588 -0.08679099 -0.05227637 -0.006368351 0.022219425 -0.06766589 -0.03346649
-0.044114046 0.066230655 -0.031142224 -0.04699598 0.031927772 -0.0062105423 -0.09141135 0.04293235
-0.089447625 -0.09145132 -0.073328 0.017053816 -0.005209456 0.068240546 0.037534166 -0.059888273
-0.02038606 -0.06934055 -0.08514405 -0.105044916 -0.053171117 0.05031875 0.068646245 -0.022233108
-0.07531265 -0.010259977 -0.015091484 0.06653556 0.041043866 -0.111177996 -0.11493462 0.039014205
-0.010939001 0.03954405 0.035646353 0.034179106 0.030558167 -0.07044478 -0.02061514 0.038387895
-0.028754111 0.007882961 0.0821973 0.08272014 0.028109547 0.0641018 0.10631935 0.09439936
-0.06026562 -0.06867872 -0.0057744356 -0.050816756 0.024761558 0.086493626 -0.006024072 -0.032520205
-0.045683313 -0.033652075 0.062613025 0.065312885 -0.021507304 -0.055954836 0.057805844 0.052875504
0.11603584 0.033339243 0.0017962663 0.029683284 -0.06100577 0.09174973 -0.041374225 0.015464617
-0.0010798455 -0.0018012129 0.05518182 0.1115121 0.11668127 0.11238224 -0.052628778 0.11658856
0.10835106 0.11752224 -0.047316723 -0.06548337 0.0003965423 0.09570971 0.037459746 0.0945036
0.077389464 0.07041854 0.11970046 0.019879678 0.07009124 0.08322966 0.10629225 0.047779325
0.0933173 0.11626334 0.07830983 -0.0025788848 0.089790575 -0.010493201 0.11736847 0.023500806
0.064222455 -0.00488759 0.09818499 0.10666526 0.05804299 -0.049371056 0.103480026 0.044888362
-0.019572968 -0.009771968 0.029195722 -0.0020284732 0.08103 -0.011806601 -0.04596648 -0.071253024
0.059200875 -0.011678444 -0.075847276 0.097229876 -0.047280494 0.041645344 -0.030309403 -0.01107274
0.12068482 0.10166175 -0.01597479 -0.06879796 -0.054511044 0.12305964 -0.010818563 0.0060889106
0.008657142 -0.037806045 0.09275718 0.035151932 0.09252074 0.076540716 0.057794735 0.053995278
0.01476916 -0.058774885 0.11268057 0.09426575 -0.0614802 0.09784067 0.017710365 -0.037658595
0.047321383 0.06871046 0.120986976 -0.004074644 0.09006446 -0.04917564 -0.013419588 0.097759016
0.07915945 0.03941292 -0.07646569 -0.054458078 0.03287791 0.02933988 -0.07338034 0.060245592
-0.06013593 0.039187424 0.011896401 0.09353256 0.07872583 0.0786599 -0.043426797 -0.042520817
-0.06954929 -0.0541547 0.0094248215 -0.0035119657 0.0008956664 -0.055460833 -0.015603129 0.094546966
0.017511673 -0.031281937 0.04069551 0.069217265 0.106576234 0.1117532 -0.059376687 0.009679867
-0.019496448 0.030736187 0.034468677 -0.004807748 0.031533033 -0.031304512 0.02486697 -0.022815017

encoder.0.0.bias f4 [64]
00000000: 844c 6dbd 1b9c c73c 32fe d53d a021 84bc
00000010: e23f 5b3d 35d9 05be 8f59 39bd 2334 9fbb
00000020: 0b6a b53c 8a69 89bc 481e 1c3c f495 f8bc
00000030: ae71 0c3c 6fb1 d33d 0563 3ebd 7e3e 3bbc
00000040: 18ac 5b3d 9859 a53d 8c40 973d 3715 cfbc
00000050: 43e4 513d 9bcc 88bd 450d 153d cb77 4e3d
00000060: 9e66 7fbd 9600 f93c 4409 74bd bdaa f03d
00000070: 5f7b c2bd 3d74 353d 794a 053e 0e06 0bbe
00000080: 1a22 f3bd 4abe d5bd 5e86 79bd 3a38 553c
00000090: fc19 273d cd8d 333c b036 91bd a7e4 203d
000000a0: 3c8f 663d 3f9b a23d 616f 8b3d 4267 c5bc
000000b0: 7fd8 063e 5183 a0bc 8734 88bd 986e cc3b
000000c0: f225 b63d 26a5 b13c 67f0 f7bb 5c0e 4abd
000000d0: 36f3 07bd f7b1 0fbe a0d8 e53c eb40 813a
000000e0: da66 89bc a3d8 7cbc 9230 78bd 6644 a23d
000000f0: 0902 c1bd 1547 d7bc 3834 823c 413e 553d
-0.0579343 0.02436643 0.104488745 -0.016129315 0.05352772 -0.13071139 -0.045251425 -0.00485851
0.022145292 -0.016773958 0.009528704 -0.03034494 0.008572025 0.10336577 -0.04648115 -0.0114284735
0.05363092 0.08073729 0.07385358 -0.02527867 0.051243078 -0.066796504 0.036389608 0.050407212
-0.062353723 0.030395787 -0.05957915 0.11751316 -0.094961874 0.044300307 0.1301669 -0.13576528
-0.11871739 -0.104366854 -0.06091916 0.013013894 0.040796265 0.010959101 -0.07090509 0.03928056
0.056288943 0.07939767 0.06808353 -0.024097089 0.13168524 -0.019593867 -0.06650644 0.0062387697
0.08893956 0.021685194 -0.0075665 -0.0493301 -0.03319093 -0.14032732 0.028057396 0.0009861266
-0.016772676 -0.01543251 -0.060593195 0.07923202 -0.09424216 -0.026279012 0.01589404 0.052061323

encoder.1.0.weight f4 [16, 64]
00000000: 0e44 e83d 4739 383d 123e 34bc f58b 863d
00000010: a455 a2bd 4b4b aabd ced1 853d 5ef8 473c
00000020: 7a32 e7bd 25fd 603d 5b59 75bd 658a ac3c
00000030: 84a8 c4bc 8622 d23c aa16 c13d 45d2 07be
00000040: 767c 1b3d 19e3 c3bd 29c6 3a3c bb17 993c
00000050: 9b44 8fbd a704 51bb 4457 823c f7b0 91bd
00000060: 469c 67bd a1cf 3cbc 229f c83c fc15 463d
00000070: e931 16bd 3d5b 683d e608 3abc 9e66 3ebc
00000080: 002a d2bd 4ba0 a4bd 5035 85bd 396a e03c
00000090: fdda e73d a7ec d8bd 1ce4 b13d cc56 0e3d
000000a0: 2a7c 003e 1607 173c 49e2 bc3d 10e3 b73d
000000b0: 013a 7a3d a37e fdbd 16a2 29bd dd72 75bc
000000c0: 9295 d5bd d4bd aebd 2a1f 6bbc 1424 babb
000000d0: 524b bbbd d438 00bc 5e06 67bc 7cc6 c4bc
000000e0: 01fd 9bbd 6554 9ebd 49d7 85bd 58a3 df3d
000000f0: 4b3b 573d b487 fb3d 64e6 883d d03f c23d
00000100: 1850 06be 1314 33bd abd9 53bd a596 eebc
00000110: 4895 cf3d b1b0 c7bd d6c7 a03d 1aa0 87bd
00000120: 3302 af3d bac8 f4bd baab 5abd 386d 08bd
00000130: b5ae be3d 0f42 62bc 5b79 53bd b2d7 0b3e
00000140: 19c3 a63d f8f9 bd3b 786f d13c 5745 12be
00000150: 8707 b73d 37e9 e93d 9165 e9bd 961a 34bd
00000160: 7e08 d4bd 7e9f e03d fd66 613d 5be3 173d
00000170: 52ea eabd 3771 f73d 4b78 093b 8316 3abd
00000180: 7378 b2bd 0f92 b33d 763d 903b 7950 803c
00000190: 3e7a 97bb a441 85bc 2e2e 12bc ed69 413d
000001a0: 3cf0 08be f457 6a3d 2638 a3bd e54a 0cbc
000001b0: 931a 183e 0876 b9bd b7a6 f3bb 1be5 a73d
000001c0: 8802 ddbb 89a7 163e 47e8 3d3d e874 16bd
000001d0: d5d9 edbd b4ce 343c 2b4a 5b3d c8db 403d
000001e0: 2333 a3bd 8352 c23d ae82 013e c7c7 a13d
000001f0: 96de 703d 5a6e 0cbd 4da1 dabc 733b 39bd
00000200: 4fa6 813d 2254 c5bc 3167 d23d f0ae a9bb
00000210: 05da ca3d de51 b2bb 841e a93d 204a 243e
00000220: e34b 773d cb09 6f3b e7c4 bcbd 3aac 1ebe
00000230: 3fbc a1bd 5476 dd3d 6667 2d3e d291 11bc
00000240: d4d1 283e de1e 56bd 33ed 00be d18d 08be
00000250: 2777 843d da4a 363b 0596 083e 43dd 21bd
00000260: 13cc 20bd 786b 143e 33f9 be3b ded2 5a3d
00000270: fa4f 5ebd 08ac e43d 9bd5 043e 8a14 10be
00000280: efe0 20be e585 a73d 318d 44bc 0a90 66bd
00000290: 81d7 71bd 891e dabd 2230 62bd f78b ff3d
000002a0: cae5 173c 5711 eebd ca8f c83d d0ac bfbd
000002b0: f048 af3d e6bc ec3c fddb 66bd 6214 f23d
000002c0: 7ea4 f33d 5e6e 613d 4609 7e3d 47f0 053d
000002d0: 9d64 e9bc aa50 05be 135a 643d a38f d1bc
000002e0: 36af 663d f59e ef3d a92a 223e 30ca 073d
000002f0: 2478 95bd d91a 0e3d 60be 483d 5f9b 10be
00000300: c7b3 08be a3c3 743d faad 023e 1693 ab3d
00000310: 07ac 0e3e 8dbf d1bc d6ca 71bd e359 8ebd
00000320: 3dd3 fe3c 4d30 1e3d 98b5 fbbd e0dd 10be
00000330: a794 92bd cf5d 213d 703e 06bd bb5e f43d
00000340: 3a8c d93d 290d 87bd 0159 23bd 58f5 903d
00000350: 4ead 513d f4a1 e73c ccfc 883d c078 afbd
00000360: ef10 8b3d 95f9 d93c 764e 4fbd fd75 82bd
00000370: 50aa e5bd 084e 98bd 410e 4fbd 4ca9 65bb
00000380: 2f62 a9bd 3117 713c 00a0 b93c d736 9abd
00000390: be98 493c bc6e f739 16a5 8c3c 5735 fb3c
000003a0: 437d dbbd a1eb 9cbd 2c03 31bd 3e47 2fbd
000003b0: 3b68 fa3c db5e ce3d 28cb bfbd 5587 d9bd
000003c0: b4bc e63d a851 1dbd 7245 113e d6ef ae3d
000003d0: 7bf7 81bd edbd 543d 74de ce3d 739e 12be
000003e0: aacb d6bd f6d3 143e d3d3 67bd 42ec 033c
000003f0: 9b76 f1bd aa14 0fbe 47ae 563d 07f7 f83b
0.113411054 0.0449765 -0.011001127 0.065696634 -0.07926491 -0.08315142 0.06534158 0.012205211
-0.112889245 0.054928917 -0.05989967 0.021062085 -0.024006136 0.025651228 0.09428151 -0.13263805
0.037960492 -0.095648 0.011399784 0.018688073 -0.06995507 -0.0031893642 0.015910752 -0.071138315
-0.05654552 -0.011524112 0.024489943 0.04836081 -0.03666869 0.056727637 -0.011354661 -0.0116211455
-0.10261917 -0.08038386 -0.06504309 0.0273944 0.113210656 -0.10592013 0.086860865 0.034750745
0.12547365 0.009217998 0.09222848 0.089788556 0.061090473 -0.1237767 -0.041414343 -0.014980999
-0.10428919 -0.085323006 -0.014350692 -0.0056805704 -0.091452256 -0.007826049 -0.014100639 -0.024020426
-0.07616616 -0.07730941 -0.06535203 0.10919827 0.05254678 0.12281743 0.066845685 0.094848275
-0.13116491 -0.043720316 -0.051721256 -0.029124567 0.10135895 -0.09750498 0.07850616 -0.06622334
0.08545341 -0.11952348 -0.053386427 -0.033307284 0.093106665 -0.013809695 -0.051629405 0.136565
0.08142681 0.005797621 0.025565848 -0.14284264 0.089369826 0.11421435 -0.113963254 -0.043970667
-0.10353182 0.10967921 0.055029858 0.037082057 -0.11470474 0.12082141 0.0020976241 -0.045431625
-0.0871438 0.08768093 0.004401858 0.015663372 -0.0046227267 -0.016266651 -0.008922143 0.04722016
-0.13372892 0.057212785 -0.07969694 -0.008562778 0.14853887 -0.09055716 -0.0074356454 0.08197995
-0.0067446865 0.14712347 0.046364095 -0.036732584 -0.11613814 0.01103561 0.05353753 0.0470846
-0.07968738 0.09488394 0.12647507 0.07899433 0.058806024 -0.034284927 -0.026688242 -0.04522271
0.06330549 -0.02408797 0.102735884 -0.005178325 0.09904865 -0.0054418882 0.082577735 0.16043901
0.060375106 0.0036474343 -0.09217244 -0.15495387 -0.07897233 0.10813585 0.16933975 -0.008884864
0.16486293 -0.05227553 -0.12590484 -0.13335349 0.06468039 0.002781561 0.13338478 -0.039517652
-0.03925712 0.14494121 0.0058280467 0.053423755 -0.05427549 0.11165625 0.12972109 -0.14070335
-0.15710805 0.08179835 -0.011996553 -0.05628971 -0.05904341 -0.10650355 -0.055221684 0.12477868
0.009271095 -0.11624401 0.097930506 -0.09359133 0.085588336 0.028898668 -0.05636214 0.11820294
0.11896609 0.055036895 0.062020563 0.03269985 -0.028490359 -0.13019052 0.055749964 -0.025581187
0.056319438 0.117002405 0.15836586 0.033151805 -0.07298306 0.034693573 0.04900968 -0.1412177
-0.1334983 0.059756886 0.1276168 0.08377664 0.1393281 -0.025604034 -0.05903133 -0.06950738
0.031106586 0.038620282 -0.12290496 -0.14147139 -0.071572594 0.039396103 -0.03277439 0.11932131
0.10622449 -0.06594307 -0.039879803 0.070780456 0.051190667 0.028275467 0.06688842 -0.08567953
0.06790339 0.026608268 -0.050611936 -0.06370161 -0.11214125 -0.07436758 -0.050550703 -0.0035043536
-0.0827068 0.014715002 0.022659302 -0.07529991 0.012304483 0.00047194015 0.017168563 0.030665083
-0.10717251 -0.0766213 -0.043215916 -0.04279255 0.03056728 0.10076686 -0.09364921 -0.10621516
0.11266461 -0.03840795 0.14186648 0.08541839 -0.06346031 0.05193894 0.10101023 -0.14318256
-0.104880646 0.14533982 -0.056598496 0.008051934 -0.117902 -0.13972726 0.052412298 0.0075978073

encoder.1.0.bias f4 [16]
00000000: 3e5c 6fbd 11c2 553d d422 083d 1dbc 063e
00000010: 3789 8a3d 10a6 7a3d 1688 f6bd 8666 a63d
00000020: da77 46bb 9975 233b f0cc 2ebd e348 213d
00000030: 0871 0ebc ef68 833d 038f 4abd 55ff b73c
-0.05843758 0.05218703 0.03323634 0.13157697 0.06764453 0.061193526 -0.12037675 0.081250235
-0.003028384 0.002494192 -0.042675912 0.03937615 -0.008693941 0.06416499 -0.049452793 0.022460619

encoder.2.0.weight f4 [8, 16]
00000000: e125 0cbe 37bb c43d 6629 39be 5850 ddbd
00000010: bbda 56be 312a 943d 1e25 bc3d 84a8 1bbe
00000020: 64a2 22be d6bf 433e 45bb 783e b64c 053d
00000030: 5605 f13c 198a 49be ee6e ad3d 7b62 4fbd
00000040: 9527 4a3e a41f 4f3e ac39 a8bc ca8d 343b
00000050: 2635 95bd f5f3 3fbc a7b3 98bd 707e 4f3d
00000060: d559 2b3e b84c 7c3e afd1 b63c be4e 8e3d
00000070: 00da 75be 5302 dd3d 1351 60be 71d4 85bd
00000080: a08d 073e eb92 d2bd a48d 1abe 8f64 0e3e
00000090: d6bd 26be 2be0 97bc 1e28 7fbe 6c13 edbd
000000a0: ed5f 38be 2541 26be fe0b 3ebe c084 40be
000000b0: 0484 34be 7cfb 3b3e 5886 5fbe b76f cb3d
000000c0: 9e5a bdbd 6310 08be 6157 da3c 56fd 3bbe
000000d0: 806f 1c3e 7347 5e3d d070 793d 75b4 ac3c
000000e0: 91d3 b1bd ecf3 063e 3b20 a53d b81b 75bd
000000f0: 97b7 ed3d fe88 2cbd 7da9 60be d7e3 08be
00000100: 8168 383e 8070 3cbe 647f dfbd a905 063e
00000110: 0b4c 55bd 40cb 85be 2230 923d b4dc 02be
00000120: d3ad 8dbe b1d4 5cbe 7d1d 6bbe 43f3 7a3d
00000130: caf2 593e 2e0e 823e d4e9 fb3d 6a5e 0abc
00000140: 825e d13d 6e63 583e 0299 393e e8fc 733d
00000150: 1ad1 173e e227 6d3e fc4c 3abe 24da 27be
00000160: 8fbb 31bc b31a 893e ff9e e8bc 9ab2 d9bd
00000170: ccc6 c63d 033c b03b 3604 e53c b11a 883e
00000180: 358d 643e 234d 893d 27ea 813c 0f3d 183d
00000190: 74a1 233d 38f0 183d 0314 2d3d 1fa1 a23c
000001a0: e39b 04be 72f8 69be 1441 063e 399e ebbd
000001b0: 3895 a9bd 53c0 bc3d 6188 86be a7c8 6c3c
000001c0: 424f e8bb 3927 41bc 76e7 7dbe e0c7 333d
000001d0: 1feb 3bbe 27fb 423e 2fd7 9bbd d450 85bc
000001e0: 18d5 b7bd 0924 4cbe cea1 4a3e 00a5 333d
000001f0: 52df 40be 2c0e 693e b958 bc3b ca8f c23b
-0.13686325 0.09606021 -0.18082199 -0.1080634 -0.20981877 0.0723461 0.09186767 -0.15201002
-0.1588226 0.19116148 0.24290188 0.03254386 0.02942149 -0.19681586 0.08468424 -0.050631028
0.19741662 0.20226914 -0.020535313 0.0027550333 -0.07285528 -0.011715879 -0.07456141 0.05065769
0.16733487 0.24638641 0.022316782 0.06948613 -0.24008942 0.10791459 -0.21905927 -0.065346606
0.1323762 -0.10281929 -0.15093094 0.13905548 -0.16283354 -0.018539509 -0.24917647 -0.1157597
-0.18005343 -0.16235788 -0.18559262 -0.1880064 -0.17628485 0.18357652 -0.21828592 0.09933417
-0.092457995 -0.13287501 0.026652994 -0.18358359 0.15276909 0.054267358 0.060898602 0.021082142
-0.08682931 0.13178986 0.08062788 -0.059840888 0.116072826 -0.042122833 -0.21939655 -0.13368164
0.18008615 -0.1840229 -0.1091297 0.13088097 -0.052074473 -0.2613163 0.07138087 -0.12779504
-0.2767168 -0.2156551 -0.22960468 0.06126715 0.21284023 0.25401443 0.123004586 -0.008445362
0.10223104 0.2113168 0.18124774 0.059567362 0.1482586 0.23159745 -0.1819343 -0.16391808
-0.01084794 0.26778182 -0.028396128 -0.10629769 0.09705886 0.0053782477 0.02795611 0.26582864
0.22319491 0.06704166 0.015858723 0.037167605 0.039948896 0.037338465 0.042255413 0.01985222
-0.12950091 -0.2284868 0.13110763 -0.11504788 -0.08280414 0.092163704 -0.26275924 0.014452136
-0.0070895264 -0.011789137 -0.24795327 0.043891788 -0.1835141 0.1904112 -0.076094024 -0.016273893
-0.08976191 -0.19935621 0.19788286 0.043858528 -0.1883519 0.22759312 0.0057478813 0.005937551

encoder.2.0.bias f4 [8]
00000000: 23cb 333e 2554 2fbe 7300 633d 3253 4cbe
00000010: c599 9cbd 036c 873d 8b5e 873d 50c8 323e
0.1755796 -0.17121942 0.05542035 -0.19953611 -0.07646517 0.066123985 0.066098295 0.17459226

encoder.3.weight f4 [5, 8]
00000000: 2dca 15be 8974 36be 5ea0 91be 3906 edbd
00000010: c2a2 713e 5c4b c93e 617a db3d cd44 14be
00000020: b1aa b8be 9eb7 2b3e 1a75 00bd d6d6 173e
00000030: 016b 533e 2503 90be c486 073c 8904 b73e
00000040: bfe6 9b3d 4c50 7ebe 9462 71be aa49 363e
00000050: 1ba2 763e 8cea 4cbe c06f 9ebe 78f2 b1be
00000060: 4c08 bbbd e7a7 8cbc f3b4 bebd a148 613e
00000070: 6208 c53d f089 2d3e f7a1 683e 2025 763e
00000080: e767 28be 7c90 813e eccf 953e 1a3f e6bd
00000090: 31df 54be 436d 8f3e ffbb b53c 97ac 313e
-0.14627905 -0.17817892 -0.28442663 -0.115734525 0.23597243 0.39315307 0.10716701 -0.1447937
-0.36067727 0.16769263 -0.031361677 0.14828047 0.20646288 -0.281274 0.008271877 0.35745648
0.07612371 -0.24835318 -0.23572761 0.17801538 0.24085276 -0.20011348 -0.30944633 -0.347553
-0.09132442 -0.017169906 -0.09311857 0.22000362 0.096207395 0.1694715 0.22718035 0.240376
-0.16445886 0.25305545 0.29260194 -0.112425044 -0.20788266 0.28013048 0.02218437 0.17350994

encoder.3.bias f4 [5]
00000000: d9eb 3e3e 94af 59be efc1 183e be54 4fbe
00000010: 8a77 a33d
0.18644656 -0.21258384 0.1491773 -0.2024717 0.07981785

decoder.0.0.weight f4 [8, 5]
00000000: 639f 70bb 3032 c73e b56d 81be b216 6fbe
00000010: c8a5 59be 0aa6 e1bd e3f3 37bd 8cc6 87be
00000020: a5aa 5a3e 8abc 713d e110 7d3e 4cea 51be
00000030: 2763 96be e32f a8be 4e04 6c3e 7dd0 dd3e
00000040: ca11 fc3d 1b2b b83e c928 263e 2395 eebd
00000050: 3bdd b1be 04e3 9fbe c580 b43e 2d89 95bd
00000060: fb75 ac3e 65a6 a4be 784c 2f3d 3e7c b8be
00000070: 1ecc bdbe 6815 f13d ec3d 763d b356 f23d
00000080: 5921 203e 0199 a83d 3683 633e cb54 05be
00000090: aa86 1abd 619c 723d 85be 353e bc7f be3e
-0.0036716096 0.38905478 -0.25279012 -0.23348501 -0.21254647 -0.110179976 -0.044910323 -0.26518667
0.21354158 0.059017695 0.2471347 -0.20499533 -0.29372522 -0.32849035 0.23048517 0.43323126
0.123080805 0.35970387 0.16226496 -0.11649539 -0.34739098 -0.31227887 0.35254493 -0.07301555
0.33683762 -0.321582 0.042797536 -0.3603229 -0.37069792 0.11771661 0.060117647 0.11832943
0.15637721 0.08232308 0.22218022 -0.13020627 -0.037726082 0.059231166 0.17748459 0.3720683

decoder.0.0.bias f4 [8]
00000000: c436 213e afd6 a2be 5d9e 403e 8082 5f3e
00000010: fc10 ca3e ee51 e53d aaed b33c 4394 283e
0.15743548 -0.31804416 0.18810411 0.21827126 0.39466083 0.111972675 0.021963913 0.16462807

decoder.1.0.weight f4 [16, 8]
00000000: a699 843e f242 a7be 62cb 993e 8969 313d
00000010: 045a 80be 6d3f 8a3e 05f6 03be faf3 8c3d
00000020: 69b0 4bbe 548b 8f3d de2f 623e 8dc0 4bbe
00000030: 5405 0cbe 1ef8 533d 5651 9a3e b4a5 183d
00000040: 49f9 043e 23e9 eebd da0f d5bc 1d96 79be
00000050: 0306 603e decf 75be 467c cc3d 5c72 153d
00000060: 2d7d 39bd da67 91be cf5d b53d 0127 7c3e
00000070: da4a 193c dc36 ec3d cd1d 06be 4fe4 7dbe
00000080: 666f 91be 37df ad3d 450c 1d3e 1599 61be
00000090: 055b c93e c839 5dbd ea70 793d 66c8 1b3e
000000a0: b310 2e3e 4523 c13c 82db 91be 2050 a83d
000000b0: f0c3 c2be 4285 9dbd 78e2 4ebe 43f2 163d
000000c0: 97da 95ba 4dff 85bd 2f4a b13c 6d9e b5be
000000d0: a26b 5ebe e82a 87be c832 ad3e 5f8d 9abd
000000e0: 9b79 a1be bcbf 74bd e891 863e 8505 573e
000000f0: 0f7a a33e c780 5e3e 81da 3bbe 4b81 813e
00000100: 6717 703e 741c 2e3e 2dba 1ebe ab13 853e
00000110: 5c0d c1bd 5b71 15be 7c49 843e 06f1 3b3c
00000120: 090a 6a3d 686f b53c 0b82 92be 660f 91be
00000130: 4ad6 f13c 3383 ffbd b63a 95bd 71e2 923e
00000140: 4045 5b3d 6a19 c83c 1b89 b3bd a6ef bc3e
00000150: b134 60b9 c5ae c43d 2fac 73bc e30b e83d
00000160: 5428 58be 56a9 00be 9923 0bbe facf e63d
00000170: ba5f 923e 5dae 7c3e 9eff 8c3e 9d82 89bd
00000180: 7aab ddbd 40fb 983e 7907 953e e8ec 32be
00000190: 4a89 a8be 4b06 4b3e 52b5 9bbe 99e8 ec3d
000001a0: ab76 43bd 3af3 b0bd 9afd cc3d 50b4 26be
000001b0: e041 70be c126 a2be 25b6 5c3e 1bf9 be3e
000001c0: 6b80 5c3e 17ca 873e 8175 9b3e ba1d c03e
000001d0: f76c 02bc e2d4 e1bd 9127 773e e17d cb3d
000001e0: 1279 a53e 59a3 9d3d 00f6 403e 373b 33be
000001f0: bcf1 bc3e e25e ac3e 10ff 03be c6ad e03c
0.25898474 -0.32668263 0.3003798 0.043313537 -0.25068676 0.27001515 -0.12886818 0.06882472
-0.19891514 0.070089966 0.22088572 -0.19897671 -0.13673908 0.051750295 0.3014018 0.0372674
0.1298572 -0.11665561 -0.026008535 -0.2437367 0.21877293 -0.24005076 0.09984641 0.036486015
-0.045285393 -0.28399545 0.08855783 0.24624254 0.009356225 0.11533901 -0.13097306 -0.24794124
-0.28405303 0.084898405 0.15336712 -0.22031052 0.39327255 -0.054010183 0.0608987 0.15213165
0.16998558 0.023576388 -0.28487784 0.08218408 -0.38040113 -0.076914325 -0.20203578 0.036852133
-0.0011432943 -0.065428354 0.021641819 -0.35472432 -0.21720746 -0.26399922 0.33827806 -0.07546496
-0.3153809 -0.059753165 0.26283193 0.209982 0.3192906 0.21728812 -0.18345071 0.25293955
0.23446427 0.17003042 -0.15500708 0.25991568 -0.09426376 -0.14594023 0.25837314 0.011471039
0.057138477 0.02214785 -0.2861484 -0.2833206 0.029521126 -0.12476196 -0.07286589 0.28688386
0.05353284 0.02442618 -0.08766385 0.36901587 -0.00021381934 0.09603647 -0.014872595 0.11330392
-0.21109134 -0.12564597 -0.13587798 0.11270137 0.2858866 0.2467589 0.2753877 -0.06714366
-0.10823722 0.2987919 0.29107264 -0.17473185 -0.32917243 0.1982662 -0.30411774 0.11567802
-0.047720592 -0.08640142 0.10009308 -0.16279721 -0.2346263 -0.31670192 0.21553858 0.37299427
0.21533363 0.2652137 0.30363086 0.3752268 -0.00796055 -0.11026932 0.24136187 0.09936119
0.32318932 0.07697172 0.18843842 -0.17503057 0.3690318 0.3366614 -0.12890267 0.027426612

decoder.1.0.bias f4 [16]
00000000: bdc1 dc3d 3c9a a23e d791 65be 41ab 373e
00000010: d69b b93c fcfe 8abe 0ef8 203e a725 173e
00000020: f86f a73e 499b 46be d39d cebd be02 dabc
00000030: 3dc7 bdbe b3ea 643e 8688 9c3e e5fd 023e
0.1077914 0.31758296 -0.22418915 0.17936422 0.022657316 -0.27147663 0.15719625 0.14760457
0.32702613 -0.19395174 -0.10088696 -0.026612636 -0.3706607 0.22355156 0.3057291 0.12792166

decoder.2.0.weight f4 [64, 16]
00000000: ae45 59bc 9916 09be 2e8e 2a3e 4af2 3d3e
00000010: a125 81be 783e 9fbb de71 ccbd 9d53 543d
00000020: 0adf 5c3b fa93 113e 78da 353e 6a36 513e
00000030: 0a1c 513d 48e5 91be d45a 80be adaf bd3d
00000040: 8229 fc3b 8407 1d3e 7de7 19bd d546 adbd
00000050: a232 97bd f21f 5a3d ef15 5a3e 8728 24bd
00000060: 5575 5fbe 7d5f c6bc a2c3 0ebe 193e ad3d
00000070: 130c f3bd bc34 2a3d 39ee 1fbe b993 bb3d
00000080: bc2d 14be 418e 683e 46a8 d3bc 0579 8b3c
00000090: 8908 6a3e 9918 1a3e 79a5 653d 2690 1cbe
000000a0: 3cef fd3d 30d2 edbd c3eb 843d adec 76be
000000b0: ee51 47bc eff1 13be 956d a9bc eecf 21bd
000000c0: 867a e63c 7b84 a5bd a9dd 633b 7f40 443e
000000d0: 0d2f 0b3e 2c7a a2bd f60b 3dbe e10f 3ebe
000000e0: 40b4 393d 2101 723c ae08 523e 5a0c f83d
000000f0: 37ba 48be 609c 21be 7d03 44be d577 fabc
00000100: 15eb a53c 1fd3 e53c e9e9 ebbd 41b2 3f3d
00000110: 27d2 ca3d 1e3e 95bd 134a 6fbe a7e7 70be
00000120: 99a5 91be d282 983e 7d12 6b3e fdb0 cdbc
00000130: c196 abbd 67c8 0dbd bfa3 8fbe 4744 3fbd
00000140: db8e 883e 5a4d 02bd 53ab 033e 1086 2c3c
00000150: 6321 7b3e a7fa fe3d c880 48be eb52 483e
00000160: 7eeb bc3d 7672 83be f03c 2d3e c448 52be
00000170: 5583 25be d74d 7a3e 6085 053e 70f3 053e
00000180: 229c 80be 91f5 d53d 23fd 0cbe 2d87 243e
00000190: b1f1 19be d823 b23d 7e36 1ebd df0d b83d
000001a0: 7a26 77ba 85f5 3a3e 9cc1 6b3e 7fb3 623d
000001b0: 3f3b 49be e7c6 84bc 5d76 6abe fc53 82bb
000001c0: 8694 b93d 4c58 dabd 7395 2f3e d985 493e
000001d0: ce19 1dbe 424a 76bd 9a87 143e 6e89 afbd
000001e0: 5867 7f3e 6984 403e 7aa8 483e e842 153e
000001f0: 5597 3f3e 5a64 8e3d 26e6 543e b8ce 3abe
00000200: 65d0 3fbd 9542 45be c07e 713d 8278 2fbe
00000210: 0a64 0c3e 5bcd 1e3d 3dfb 7cbd 87fd a53c
00000220: aa0a 4dbe 3a1c 033d 928c 66bc 610e a4bd
00000230: 3557 e1bd 9fe0 b13d bb48 50be f865 0f3e
00000240: c884 073d 2286 f03d 501f 18be b2a1 af3d
00000250: 9570 053e deb7 51be fe37 dcbd ede1 60bb
00000260: ac4d d83b 1c61 323e d722 023d c483 293e
00000270: 2574 913d 0791 94bd bd14 033e 5df5 35be
00000280: bd96 a13d 8dda 1dbe 6c2d 65be ad6a 913d
00000290: e4de b93c 6f59 04bd 8f11 94bd 3b41 703e
000002a0: f677 113e f759 1d3e b304 24be 6ce3 1e3d
000002b0: a530 58be e286 2abe be04 893e 88fb 463e
000002c0: a9e0 f1bd a6ea ab3c d936 263e 9271 203c
000002d0: 076b 883e 7515 1f3e 8c40 2f3e 8136 c2bd
000002e0: 727e 16be f5a8 1a3e 0555 59bc c17e af3d
000002f0: 62a4 5dbe 67a8 793d 831a 3d3e d9dc 5d3e
00000300: 341b 51bd 4b28 503d e71d 64bd 8c8d 4e3e
00000310: c32e cfbc e34b 90be b7eb 813d aadd 0fbd
00000320: 27ed 5d3e cd77 14be 1751 573e 4a69 6cbd
00000330: 3a10 7b3d e373 5ebd 80b7 543e 41be ca3b
00000340: 5704 393b c8e4 663e ecbf 63be 3dda 87bd
00000350: ed55 efbd 96b0 7f3e 5128 39bd 1545 d43d
00000360: 8ed6 d2bd ff7c 023e a142 433d eca1 f23c
00000370: 3ea3 153e f860 363e 7939 20bc 9b9d 8d3d
00000380: c22f 93bb 0156 183d 3a4a 63bd e0bf f8bd
00000390: 2264 bf3c 774d a43d 9be6 113e f831 6f3e
000003a0: 1474 3ebb 7a02 5d3d eb07 1fbe 343b ef3c
000003b0: c952 df3c 8d3c 053e 6d00 713c c2e0 5fbe
000003c0: 2442 70bd 5ee9 423d 6413 b83d a9c8 153e
000003d0: f6a7 20bd 5965 0bbe d4b9 713e 06dd 15be
000003e0: 9ad9 8d3d b4a0 d13d b896 153d 72b1 483e
000003f0: c27b 73be 50cd 903d e247 453d a9d8 4cbd
-0.013261242 -0.13387527 0.166558 0.18549457 -0.2522402 -0.004859742 -0.09982656 0.051837552
0.0033702278 0.14216605 0.1775912 0.20430914 0.05105213 -0.2849524 -0.25069296 0.09262023
0.007695378 0.15334898 -0.03757428 -0.08460776 -0.07382704 0.05325312 0.2129743 -0.040077712
-0.21822102 -0.024215454 -0.13941815 0.0845911 -0.11867537 0.041554198 -0.15618218 0.09159035
-0.14470571 0.22710516 -0.025837075 0.01702548 0.22854818 0.15048446 0.05606601 -0.15289363
0.12399146 -0.11612356 0.064902805 -0.24113722 -0.01216553 -0.14447759 -0.020682136 -0.039504938
0.028134596 -0.08081909 0.003476957 0.19165228 0.13592167 -0.07933459 -0.18461594 -0.18560745
0.045337915 0.014770777 0.20511124 0.12111731 -0.19602285 -0.15782309 -0.19141956 -0.030574718
0.020253697 0.028054772 -0.11519224 0.046800856 0.09903365 -0.072872385 -0.23368101 -0.23525868
-0.28446653 0.29787308 0.22956271 -0.025108809 -0.083783634 -0.034614947 -0.28054616 -0.046695974
0.2667149 -0.03181205 0.12858324 0.01053001 0.24524455 0.12450152 -0.19580376 0.1956288
0.09224604 -0.25673264 0.16917777 -0.2053557 -0.1616338 0.24443756 0.1303916 0.13081145
-0.2511912 0.10447229 -0.13768439 0.1606719 -0.15033604 0.08698243 -0.038626187 0.08987021
-0.00094280357 0.18257721 0.23023075 0.055346962 -0.19651507 -0.016208125 -0.22896715 -0.003977297
0.09061532 -0.106613725 0.17146854 0.19679965 -0.15341875 -0.06012941 0.14504853 -0.085711345
0.24941766 0.1880051 0.19595519 0.14576304 0.18710072 0.06952734 0.2079092 -0.1824292
-0.0468296 -0.1926368 0.05895877 -0.17135814 0.13710037 0.03877006 -0.061763037 0.020262493
-0.200236 0.03200934 -0.0140716005 -0.08010555 -0.110029615 0.08685421 -0.20340244 0.14003742
0.033085614 0.11744334 -0.14855695 0.08575763 0.13031228 -0.20480296 -0.10752867 -0.003431435
0.006601056 0.17419857 0.031771507 0.16554171 0.07102231 -0.07254224 0.1280088 -0.1776938
0.07890079 -0.15415402 -0.22380608 0.07100425 0.02268929 -0.032311853 -0.072299115 0.23462383
0.14205918 0.1536635 -0.16017418 0.038791105 -0.21112306 -0.16653016 0.2676143 0.19431889
-0.11810429 0.020985913 0.1623186 0.009792702 0.26644155 0.15535529 0.17114466 -0.09483052
-0.14696673 0.15103514 -0.013264899 0.08569098 -0.21644738 0.060951617 0.18467145 0.21666278
-0.051051334 0.050819676 -0.05569258 0.20171183 -0.025290852 -0.28182897 0.06343787 -0.035123505
0.21672498 -0.14498825 0.21027027 -0.0577176 0.06129477 -0.054309737 0.20773125 0.006187231
0.0028231347 0.2254821 -0.22241181 -0.066334225 -0.11686311 0.24969706 -0.045204464 0.10364739
-0.10294829 0.12742995 0.047670964 0.029618226 0.14613053 0.17810428 -0.009779328 0.069148265
-0.004491777 0.037191395 -0.05549071 -0.12145972 0.023363177 0.08022588 0.14248125 0.23358905
-0.0029060887 0.05395744 -0.15530364 0.029203035 0.027261155 0.1301138 0.014709574 -0.21863082
-0.058656827 0.047585838 0.089880735 0.14627327 -0.03922268 -0.1361288 0.23606044 -0.14635095
0.0692627 0.1023573 0.03652069 0.1959894 -0.23777679 0.0707041 0.048164256 -0.05001131

decoder.2.0.bias f4 [64]
00000000: 05d7 86be 8dd2 8e3d 1409 113d 94c7 433e
00000010: 84e9 7d3d e863 2fbd 663f 91be 23e4 513e
00000020: 2ccd b8bc f448 553e fbf7 9f3d d3dd f03d
00000030: 8ff2 b73c e425 9f3c dca8 883d 2da9 863e
00000040: df00 813e 0106 a8bd 3274 2abd d718 49bd
00000050: fadf 4abe a93e f73d 61a8 183e 6704 bcbd
00000060: dc7f 66be 882b 81be 89d8 8abe f77c 373e
00000070: 4400 2fbd 89da 163d 2a8e 28be 085f 913e
00000080: adcd 063d 2f77 5d3e 64c2 91be 414d 87be
00000090: 78f7 81be 65f3 373e 7bb1 ee3d 366d ae3d
000000a0: 8cd7 2cbe fc04 ad3c 735f 34be 7a82 a6bc
000000b0: ed4b 42be 921e 863e e83f c93b 5035 c43d
000000c0: 2c1d 80be 9884 813e 4e62 eabd a731 56be
000000d0: 2103 91bc 9b74 083e 508f 4fbe c3e9 903e
000000e0: 6470 71bd 3a4d 043e f1d0 05be ee0f 88be
000000f0: 9824 de3d b744 583e a9cd 02bd 94c6 8cbd
-0.26335922 0.06973753 0.03540905 0.19119102 0.061990276 -0.042819887 -0.28368682 0.20497184
-0.022558771 0.2082861 0.078109704 0.117610596 0.022454528 0.019427247 0.06672832 0.26300946
0.25195977 -0.0820427 -0.04161472 -0.049095955 -0.19812003 0.12072498 0.14907981 -0.09180527
-0.22509712 -0.25228524 -0.27118328 0.17918764 -0.042724863 0.036829505 -0.16460481 0.28392816
0.03291099 0.21627496 -0.2846862 -0.26426128 -0.25384116 0.17963941 0.116549455 0.08516924
-0.168791 0.02112054 -0.17614536 -0.020325888 -0.18974276 0.26195198 0.0061416514 0.09580481
-0.25022256 0.25296474 -0.114445314 -0.20917378 -0.017701687 0.13325731 -0.20269513 0.28303346
-0.058945075 0.12920085 -0.13067986 -0.26574653 0.108468235 0.21119963 -0.031934414 -0.06873813

decoder.3.weight f4 [98, 64]
00000000: 35d1 af3d 5ea8 cebd 1e88 42bc f628 54bd
00000010: 8898 483d d4f2 1bbd 3f3d 803c b94a 573d
00000020: 0184 cebd b928 023e 90f8 193e 5a4c b33d
00000030: 0cf6 353d d5ff 203c 7b75 bcbd 9f85 07bc
00000040: 21f8 6a3d ff14 b9bd 6113 adbd d45e a53d
00000050: ce6e 923d 6862 2a3d 69f8 bbbd 9f5d 713d
00000060: ac38 433d 6628 eabd 51b5 893b 94d4 0b3e
00000070: cdfa 1ebd 4493 cdbc 8ca4 b63d c489 bfbd
00000080: 2ee1 8d3d d593 693d 42d4 433d 33df 51bd
00000090: 5036 f2bd 1f5c 72bd 3ce0 4fbd 70b4 a4bd
000000a0: 52d0 bcbd e82a 03be bcb0 773c a76e 7f3d
000000b0: e947 413c 13df 683c dec6 1d3d 331f 133e
000000c0: 9097 763d c4d6 133e 1c10 bdbd 2db1 903d
000000d0: 127d 44bd 824c 1dbc 0f38 15be 3409 f13d
000000e0: 43c8 d8bd ae96 063e abab d9bd 14c5 273d
000000f0: fa04 e6bb 9a0a 0a3e 8da1 073e 8c9b 03be
00000100: a929 12be c7e9 d13c 0b62 8bbc a198 323d
00000110: 814e b6bd 86fc b33b 2ded 12be 113b 89bd
00000120: f7b2 963d 13ee 713d da01 c83c 8087 1abd
00000130: a8cf 1c3e a377 13bc 1b4d 333b 6dbb 7cba
00000140: 2ef1 2abd 5437 d9bd b282 a5bb edae bc3c
00000150: 9d46 03be d6e8 0d3e 9ce9 d33d 1188 9c3d
00000160: 0376 e13d 2fa4 03be 4832 c13c 2fc1 293e
00000170: 989a b33d 7206 30be 3ba8 b8bd f197 49bd
00000180: 6773 92bc f300 02bd c781 70bd 7954 f93b
00000190: d267 f03b f05e c03d ae04 723d 7205 46bd
000001a0: 60d0 15be bdab 57bd 834e 9cbc 138e 12be
000001b0: 8a13 b9bd e432 9aba f7c2 ea3d 5973 a03c
000001c0: eb87 94bd 7ccb 5cbc 7286 e7bd b473 123e
000001d0: c8ac a1bc 53f6 0dbd e85a b7bd 506c 32bd
000001e0: 1f24 943d 08fb 85bd 5eb2 0f3d de29 b2bd
000001f0: 15f4 bf3d eb71 2f3c a99b 0e3e 9831 86bd
00000200: 1f47 103d ea26 e43d cef7 8bbd 2147 adbd
00000210: bcf0 753d 27e3 de3d 6081 ddbb 66ce af3b
00000220: 9922 e6bd 5c95 d03d 20b4 193e 7bb6 94bd
00000230: 05ef 61bc f9d3 dabc 22a9 ba3d cb77 fe3d
00000240: f79c 38bd fe1a 6abd cef0 13be 6b63 9a3d
00000250: 4448 463d 6600 253e 8e2a eb3d 9ec1 22be
00000260: 789c 5abd 4675 66bd d123 293c af03 8a3d
00000270: 5b6d 063d 5c75 9ebb ad88 e4bd 8f53 703c
00000280: b612 07bd 26cb 1f3d 30e9 213d d481 05bd
00000290: 0b83 dbbc 2b04 633c f79b 423d c3df ab3c
000002a0: 013d bbbd a629 c43c 7af5 a1bc 9aa1 e1bd
000002b0: edeb cfbd 0458 cabc d30e 9339 1783 86bc
000002c0: 3ac2 88bd 58f8 983d 4267 f1bd 6306 75bd
000002d0: b7d0 bdbc 5a9d b33d a01d acbd cd2c b93d
000002e0: ad95 8fbc a2aa 323d b0d1 3ebd 44f9 263d
000002f0: 85bb 38bd bd12 f63d 763b 243e c205 04bd
00000300: 0fa5 543c ceec 9cbd e147 9abd ab2a b9bd
00000310: 6833 fdbc 0420 873d fc0e 28be dee8 f9bc
00000320: c522 1abe 4230 e23d f644 6abd ae94 183d
00000330: 41b6 2d3e bf41 1a3e 346e 2e3e 4e47 873c
00000340: 24cc ab3c 597d 7c3d daea 23bd c1f7 ccbd
00000350: c964 30bd 51a6 263e 0a83 dc3d 67e3 d9bd
00000360: e634 6fbd 79c5 03be 6f50 17be d211 1a3e
00000370: bfc6 88bd 1135 0ebe 9a96 833c 7f7e 93bd
00000380: 207e 81bc f99f 913d c33d e8bd 5852 56bd
00000390: 6bdc 4ebc 7e63 653b 0318 723d 9c15 6abd
000003a0: 2620 0fbe e02f 16be e45c adbd b4be c4bd
000003b0: 0227 ccbd 2156 8bbd c2d9 c73d 6e83 88bd
000003c0: f747 e3bd a29c edbc a46c 64bc e2a2 1c3e
000003d0: bbda 713d d6f0 573c 115b e0bd 77d0 64bd
000003e0: a5f6 063d 9060 dc3c 5097 71bc 6899 d6bd
000003f0: 5a4f 1b3d 3397 2e3e b741 ed3c 4e03 3c3c
0.08584825 -0.10090707 -0.011873273 -0.051796876 0.04897359 -0.038073376 0.015654204 0.052561495
-0.100837715 0.12710847 0.15036225 0.08754797 0.0444241 0.00982662 -0.09202095 -0.008271604
0.05736554 -0.09037208 -0.08450962 0.08074728 0.071500406 0.041597754 -0.0917824 0.058927175
0.04766147 -0.11433487 0.004202523 0.13655311 -0.0388134 -0.025094636 0.089181036 -0.093524486
0.06927715 0.05702575 0.047809847 -0.05123825 -0.118267655 -0.059169885 -0.050750956 -0.08042228
-0.092194214 -0.12809336 0.01511782 0.062361386 0.01179693 0.014213341 0.038519733 0.1436737
0.060203135 0.14437395 -0.09231588 0.070650436 -0.04797084 -0.00960076 -0.14572166 0.117693335
-0.10585072 0.13143417 -0.10628446 0.040959433 -0.007019636 0.13480607 0.1324522 -0.12852305
-0.14273705 0.025624169 -0.017014524 0.04360259 -0.08901692 0.0054927496 -0.14348288 -0.06700719
0.073583536 0.059064936 0.024414945 -0.03772688 0.1531359 -0.009000692 0.002735919 -0.0009640966
-0.041733913 -0.10606256 -0.0050509805 0.02303263 -0.12819906 0.13858351 0.10347292 0.0764314
0.11008837 -0.128556 0.023583546 0.165776 0.08769721 -0.17189959 -0.090164624 -0.04921717
-0.017877294 -0.031739186 -0.058717515 0.007608947 0.007336595 0.09393108 0.059086494 -0.048345037
-0.1463027 -0.052654017 -0.019080406 -0.1431201 -0.0903693 -0.0011764434 0.11462968 0.019586252
-0.07252487 -0.013476249 -0.1130494 0.1430195 -0.019735709 -0.03465874 -0.08952886 -0.043560326
0.07233452 -0.06542021 0.035082214 -0.08699392 0.09372727 0.0107083125 0.13926567 -0.06552428
0.035224076 0.11140235 -0.06834374 -0.084608324 0.060044035 0.108831696 -0.0067598075 0.005365181
-0.11237068 0.10184738 0.15010118 -0.07261368 -0.013789897 -0.026712405 0.09114291 0.124251924
-0.04507157 -0.057154648 -0.14447328 0.07538494 0.04840876 0.16113433 0.11482726 -0.15894172
-0.053371876 -0.056264184 0.010323481 0.06738984 0.032819133 -0.0048357677 -0.11158881 0.014668359
-0.03297683 0.039012097 0.039529026 -0.032594517 -0.026795885 0.013855974 0.04751202 0.020980721
-0.09142495 0.02394564 -0.019770373 -0.11017151 -0.10152421 -0.024700172 0.0002804907 -0.01641993
-0.06677671 0.07469243 -0.11787273 -0.059820544 -0.023170812 0.08770247 -0.08404088 0.09041748
-0.017527426 0.04361976 -0.046586692 0.040765062 -0.045100708 0.12015293 0.16038308 -0.032232054
0.012978806 -0.076623544 -0.07533241 -0.090413414 -0.030908301 0.06597903 -0.16411966 -0.030506548
-0.15052326 0.11044361 -0.057194673 0.037251167 0.16964056 0.15064143 0.17034227 0.016513493
0.020971365 0.06164298 -0.040018894 -0.10008193 -0.043064866 0.16274382 0.10767181 -0.10639077
-0.058400057 -0.12868299 -0.14776777 0.1504586 -0.06678533 -0.1388743 0.016063023 -0.072018616
-0.015807211 0.071105905 -0.11339905 -0.052324623 -0.012625794 0.003500193 0.05910493 -0.057149515
-0.13977107 -0.146667 -0.08464983 -0.09606686 -0.09968378 -0.06803537 0.09758331 -0.06665693
-0.110977106 -0.029005352 -0.013941918 0.1529651 0.05904649 0.013179978 -0.109548695 -0.05586287
0.032950062 0.026901513 -0.014745548 -0.10478479 0.037917472 0.17049865 0.028962 0.011475397

decoder.3.bias f4 [98]
00000000: 5b94 203e c038 ca3d 8038 4c3d 9884 863d
00000010: b33d 323c 71dc 4ebd 6d0b af3d 16ad 903d
00000020: aa5d 51bd 8abb 73bd 175c ef3c 9dc4 ee3d
00000030: 937a 0f3e cab6 313c fcdc fa3c def1 bf3d
00000040: 89c0 473c e952 f43d 5a05 7fbd c196 eb3c
00000050: a8fd ea3d 1a5c 55bd 0aa1 573d e78e 14bd
00000060: 2b27 143e 4058 0dbd d59f dc3c e3d4 333d
00000070: e5ba ad3c fca0 96bd 13c1 653c 7cd9 8e3d
00000080: e3e0 51bd 0c03 d43d 9f1e 083e 0d2c 253e
00000090: c2f3 db3d 7880 05bd dd38 b03d 5605 123e
000000a0: baec edbc 1757 90bd 2751 a33b 796f ab3d
000000b0: 0175 1a3e 864e 073e 510c a13c c212 203d
000000c0: 8e4a e03c 1abd f33d 08d3 183e 77ea d53d
000000d0: 3f5e 113e 2e65 86bd 5dea da3c dbb7 073d
000000e0: c884 6c3d 3001 76bd dc43 d2bc e078 81bd
000000f0: 21b4 30bd c65e b03b b822 153e 19d7 c13c
00000100: 70af a4bd 27f3 e83d 382b 813d 1116 3ebd
00000110: b94d 3a3d fbfb 66bc c18d ba3d d6a7 0e3d
00000120: e33a bd3d c84d 123c 2350 b03b ecca 123e
00000130: f9df f0bc 0900 49bd f39a f73d b45c d83d
00000140: b6df a9b9 4c8b 8a3d bc6b 0e3e 3ee2 9fbd
00000150: 7f58 9a3d baf2 a03d 0a18 08bd 5fb9 703d
00000160: 1e67 88bd d4ea 9bb9 1ee9 e23c 2839 01bd
00000170: d932 9d3d d76a a4bd 7a70 843d 6150 b93d
00000180: 77e4 b83d d20e 4cbd
0.15681593 0.098741055 0.04985857 0.06568259 0.010878968 -0.050503198 0.08547101 0.070642635
-0.051114716 -0.059505023 0.029218717 0.11658595 0.14011602 0.010846803 0.030622952 0.093723044
0.0121919 0.11929876 -0.062260963 0.028758409 0.11474162 -0.052089788 0.052643813 -0.036269095
0.14468066 -0.03450799 0.026931683 0.043904196 0.021207282 -0.07354924 0.014023083 0.069750756
-0.05123986 0.10352144 0.13292931 0.16130085 0.107398525 -0.03259322 0.08604596 0.14259848
-0.029043544 -0.07047861 0.0049840393 0.08370871 0.15083696 0.13213548 0.019659193 0.03908039
0.0273793 0.11901303 0.14924252 0.10445111 0.14196108 -0.06562267 0.026723081 0.033134323
0.057743818 -0.060059726 -0.025667123 -0.06321883 -0.043140534 0.0053823916 0.14564025 0.023662137
-0.080412745 0.11374503 0.063070714 -0.046407763 0.04548428 -0.014098163 0.09109069 0.03482803
0.092397474 0.008929677 0.005380647 0.14335221 -0.029403673 -0.0490723 0.12090101 0.10564557
-0.0003240087 0.0676485 0.13908285 -0.07806824 0.075364105 0.078587964 -0.03322605 0.058770534
-0.06660293 -0.00029738864 0.02769905 -0.03154865 0.07675714 -0.080281906 0.06466766 0.09048534
0.09027951 -0.04981882

exp_avg f4 [64, 98]
00000000: 16d9 0e33 806c 1233 e252 1233 6cde 0d33
00000010: 93f9 0433 8be1 ec32 c614 c632 8ae3 9732
00000020: c02b 4732 b31a 9f31 b326 36b1 857c 2bb2
00000030: fa9e 90b2 fecf c2b2 995e eeb2 88cf 09b3
00000040: 3346 19b3 6ef9 26b3 4183 33b3 9663 3eb3
00000050: 2b47 47b3 c077 4eb3 d0cd 53b3 e765 57b3
00000060: 2f44 59b3 0def 5ab3 acf6 5bb3 8876 5cb3
00000070: 6aef 5cb3 eb40 5eb3 bac4 60b3 4481 65b3
00000080: 351e 6bb3 0d7a 71b3 31cd 76b3 aea4 78b3
00000090: 214f 75b3 b54c 6db3 0baa 60b3 57e4 4eb3
000000a0: 4053 3ab3 c907 23b3 13c8 0ab3 2c0f dfb2
000000b0: e684 a6b2 8d9c 53b2 501b 9cb1 bd3e 8a31
000000c0: d53c 6532 5d22 c632 24fa 0f33 3a2f 3f33
000000d0: 1fad 6e33 2586 8e33 e3c5 a433 acea b833
000000e0: de32 cb33 e447 da33 4772 e733 a1f1 f133
000000f0: 2785 fa33 d4d3 0034 8cbc 0334 f19f 0534
00000100: 086d 0634 4ef1 0534 a2fb 0334 957f 0034
00000110: e86f f833 85b4 ed33 dec0 e033 525f d233
00000120: 7446 c233 19da b033 0be0 9e33 c8b3 8b33
00000130: 734f 7233 147a 4d33 81e1 2a33 d3b5 0833
00000140: 63e0 d032 4adb 9532 1ed1 4632 c038 ec31
00000150: 6600 7531 a607 ec30 c029 ab30 5369 0631
00000160: fac5 8131 2d29 de31 9a38 2632 aea5 6532
00000170: 46e2 9232 9a39 b232 024f cf32 7ceb e832
00000180: 8ac6 fc32 26c0 0633 6351 f1b5 e637 fcb5
00000190: 44c1 fcb5 9c20 f1b5 a776 d9b5 2087 b2b5
000001a0: 10d2 80b5 26a1 03b5 0688 8133 67ef 2d35
000001b0: b008 ae35 3f10 0136 5bf7 2836 f26a 4b36
000001c0: 9a2f 6936 fe2d 8136 5373 8b36 cbc7 9436
000001d0: ab37 9d36 70ee a436 6520 ab36 96fc af36
000001e0: ec17 b436 6d9a b636 be4f b836 5bf7 b936
000001f0: 48d1 ba36 4908 bc36 d5b3 bc36 5021 be36
00000200: f11e c036 dc11 c436 41cc c836 f8b4 cd36
00000210: a7f5 d136 3ba2 d336 8b21 d236 041d cd36
00000220: 1f33 c436 1691 b836 4721 aa36 e3ee 9936
00000230: 5440 8936 6d55 6d36 84cd 4536 7bef 1a36
00000240: 529a d735 9b37 6235 b8e9 ed32 fc80 65b5
00000250: 2c60 f0b5 f63e 3ab6 4d37 7cb6 b0cd 9eb6
00000260: 5e88 bdb6 5c84 d9b6 dfd1 f2b6 7210 04b7
00000270: d1ee 0cb7 b92b 14b7 fd28 1ab7 22ea 1eb7
00000280: 1fc2 22b7 5905 25b7 5b02 26b7 8dfb 24b7
00000290: 6627 22b7 659e 1db7 6646 17b7 95b0 0fb7
000002a0: 88cd 06b7 ec61 f9b6 cb37 e3b6 ce6d cbb6
000002b0: a40a b2b6 9ce0 97b6 7563 7db6 c6ce 4ab6
000002c0: 7931 1bb6 30a3 dab5 14a9 81b5 5e87 c0b4
000002d0: 5195 3334 d437 1a35 9197 6835 a1d3 8935
000002e0: 4ab4 8e35 8f31 8535 cb25 5d35 a4ff 1b35
000002f0: 08e6 9e34 aed8 eab2 9e4a c2b4 6261 37b5
00000300: 73e3 84b5 b424 a7b5 c88d c3b5 40e1 d8b5
00000310: 8933 1835 bf4b 0e35 3f27 0a35 9f97 0f35
00000320: 5966 1f35 1cdb 3935 2fba 5b35 5e79 8335
00000330: 47a9 9d35 a213 bb35 70ed d935 2548 f835
00000340: 4733 0a36 07c9 1636 f910 2136 f3ad 2936
00000350: 95e4 3036 3f73 3736 4175 3d36 81c1 4236
00000360: 0bf1 4736 63d3 4b36 e93b 4f36 e4b4 5136
00000370: c0b6 5336 87f3 5536 71d0 5736 c85e 5936
00000380: d7f2 5a36 bb74 5c36 6472 5f36 d721 6336
00000390: 16d4 6736 f3bd 6c36 2f3c 7136 83ab 7336
000003a0: f331 7336 01f8 6f36 b8fc 6936 4d7f 6136
000003b0: 8564 5736 c28f 4b36 47ad 3e36 44df 3036
000003c0: cfca 2136 4f4c 1136 3fff fe35 efe2 d735
000003d0: 642a ae35 f1af 8035 4a6b 2235 86c5 7634
000003e0: 3d9d 1bb4 4462 08b5 f1b7 63b5 d231 9cb5
000003f0: f071 c1b5 52f2 e0b5 0bf7 f9b5 e556 07b6
3.325939e-08 3.4091954e-08 3.4068655e-08 3.3031412e-08 3.096063e-08 2.7576581e-08 2.305968e-08 1.7682186e-08
1.1593272e-08 4.6305444e-09 -2.6506484e-09 -9.9818225e-09 -1.68361e-08 -2.2679156e-08 -2.7749865e-08 -3.2086547e-08
-3.5686934e-08 -3.8876742e-08 -4.179606e-08 -4.4328395e-08 -4.6398025e-08 -4.8072025e-08 -4.931445e-08 -5.0151268e-08
-5.0586262e-08 -5.0974496e-08 -5.1214258e-08 -5.1330545e-08 -5.1440487e-08 -5.1747445e-08 -5.2332986e-08 -5.3435784e-08
-5.4742674e-08 -5.622319e-08 -5.746296e-08 -5.7891775e-08 -5.7115475e-08 -5.5250627e-08 -5.2308717e-08 -4.8170786e-08
-4.3382215e-08 -3.7958475e-08 -3.2312595e-08 -2.5967516e-08 -1.9385379e-08 -1.2317412e-08 -4.5433026e-09 4.023461e-09
1.3343386e-08 2.306586e-08 3.3522284e-08 4.4513605e-08 5.5571146e-08 6.636791e-08 7.6728405e-08 8.610854e-08
9.462177e-08 1.0164493e-07 1.0777563e-07 1.1266389e-07 1.16657525e-07 1.1997992e-07 1.2268919e-07 1.2444777e-07
1.2519388e-07 1.2474376e-07 1.2291869e-07 1.1967343e-07 1.15687556e-07 1.1069009e-07 1.0465895e-07 9.796226e-08
9.046644e-08 8.2353104e-08 7.3982015e-08 6.505394e-08 5.6417274e-08 4.784131e-08 3.9786304e-08 3.1830336e-08
2.4316426e-08 1.7445604e-08 1.1572665e-08 6.8749557e-09 3.5652419e-09 1.7173434e-09 1.2453754e-09 1.9559436e-09
3.7769015e-09 6.4657315e-09 9.675341e-09 1.33672255e-08 1.7099534e-08 2.0748121e-08 2.41339e-08 2.711544e-08
2.9426946e-08 3.1374064e-08 -1.7979586e-06 -1.8791732e-06 -1.8831711e-06 -1.796539e-06 -1.6202292e-06 -1.330136e-06
-9.597879e-07 -4.9035805e-07 6.031773e-08 6.47959e-07 1.2966539e-06 1.9231954e-06 2.517793e-06 3.0311608e-06
3.4747413e-06 3.849854e-06 4.1559483e-06 4.4340027e-06 4.685445e-06 4.9153386e-06 5.0999683e-06 5.2448113e-06
5.367203e-06 5.442e-06 5.4929105e-06 5.5422256e-06 5.5675955e-06 5.603801e-06 5.623772e-06 5.6663193e-06
5.725648e-06 5.8433343e-06 5.9842428e-06 6.1305436e-06 6.257283e-06 6.307176e-06 6.2623926e-06 6.112854e-06
5.8472065e-06 5.5005175e-06 5.070269e-06 4.5875654e-06 4.090407e-06 3.5365476e-06 2.9474913e-06 2.3087184e-06
1.6063661e-06 8.427248e-07 2.7696714e-08 -8.5496845e-07 -1.7909383e-06 -2.7752808e-06 -3.7583115e-06 -4.732712e-06
-5.648514e-06 -6.4825126e-06 -7.2365942e-06 -7.871642e-06 -8.400254e-06 -8.831667e-06 -9.188659e-06 -9.472047e-06
-9.70115e-06 -9.8360115e-06 -9.8949195e-06 -9.8337305e-06 -9.665126e-06 -9.394808e-06 -9.016692e-06 -8.564578e-06
-8.034876e-06 -7.432178e-06 -6.7716223e-06 -6.0626544e-06 -5.306052e-06 -4.5262987e-06 -3.775783e-06 -3.0220704e-06
-2.3125597e-06 -1.628976e-06 -9.660457e-07 -3.586128e-07 1.6724995e-07 5.745071e-07 8.6647293e-07 1.0268888e-06
1.0632295e-06 9.923696e-07 8.238391e-07 5.8114006e-07 2.9597163e-07 -2.733972e-08 -3.6189607e-07 -6.8314523e-07
-9.900963e-07 -1.2453152e-06 -1.4569896e-06 -1.615881e-06 5.6699406e-07 5.300935e-07 5.1466117e-07 5.349229e-07
5.938105e-07 6.9236717e-07 8.185479e-07 9.795583e-07 1.1746678e-06 1.39383e-06 1.6236863e-06 1.8498437e-06
2.059345e-06 2.2468755e-06 2.400075e-06 2.5284214e-06 2.6359096e-06 2.7336207e-06 2.8231445e-06 2.9020887e-06
2.9793616e-06 3.03724e-06 3.0880276e-06 3.124872e-06 3.1547825e-06 3.1881225e-06 3.2158825e-06 3.239069e-06
3.2625883e-06 3.28505e-06 3.3296174e-06 3.3845333e-06 3.4545133e-06 3.5277305e-06 3.594683e-06 3.6309655e-06
3.6238896e-06 3.5758133e-06 3.4866807e-06 3.3601711e-06 3.2096007e-06 3.0333035e-06 2.8413067e-06 2.6356001e-06
2.410892e-06 2.1651101e-06 1.8998761e-06 1.6084795e-06 1.2976348e-06 9.587949e-07 6.050583e-07 2.2982394e-07
-1.4492703e-07 -5.0806943e-07 -8.483176e-07 -1.1637405e-06 -1.4412781e-06 -1.6759825e-06 -1.8623845e-06 -2.0167147e-06
