experiments/data/ae/175_UCR_Anomaly_insectEPG3_5200_7000_7050.txt-.ckpt (torch, 38178 bytes, 48 tensors)

encoder.0.0.weight f4 [16, 26]
-0.07811023 -0.09244474 -0.22423796 0.08605629 -0.018559767 0.091275625 0.13602287 0.19501592
0.1721055 0.20885848 0.07140095 0.21860802 0.28314376 0.29835868 0.020955332 0.28240415
0.3536043 0.23843126 0.27947992 0.10628615 0.013135662 0.19880699 0.15175895 0.06439386
0.07880521 0.055541735 0.072077215 -0.25242478 0.02697014 -0.06840409 0.11155049 0.017695194
-0.05342479 -0.010032407 0.12443671 0.21506152 0.15495574 -0.049380753 -0.012439408 0.04439389
0.22605284 0.22606502 0.31942496 -0.009381877 0.02874309 0.23047113 0.07030256 -0.06179461
0.17992108 -0.14494783 0.030928269 0.1493492 0.10063398 0.26592553 0.07533078 0.00086402916
0.2683085 0.2288464 0.18943933 0.06626858 0.021245021 -0.14036404 -0.20834601 0.022642443
-0.14064579 0.03861251 -0.1403922 -0.13482237 -0.26378313 -0.17277634 -0.058417115 -0.22783461
-0.18514906 -0.10759123 -0.027107576 0.06087547 0.006871065 0.0018765623 -0.13277735 0.103127316
-0.041631516 -0.10128877 -0.002169469 -0.001157289 -0.011590376 0.11792298 -0.15174834 -0.111404866
-0.05650896 -0.17292166 0.01190835 -0.1016191 -0.048456963 -0.16968872 0.061516367 -0.28512233
-0.2695488 -0.10991182 -0.09106351 -0.24318703 0.021510832 0.060933296 -0.06733959 -0.07924868
0.10163572 -0.03283787 0.070532344 -0.07096113 -0.0017435881 -0.10119756 0.110249594 -0.039420176
-0.11666646 -0.16601111 -0.14773096 -0.08364364 0.035960436 -0.1658993 0.10801096 -0.018048069
-0.123273954 -0.04015717 0.027109867 -0.12670805 -0.02152495 0.069980316 -0.04441856 0.09096639
-0.17332281 -0.14215966 0.024937397 0.19752717 0.118533745 0.14858472 0.011786632 -0.08383675
0.15091324 0.032143567 0.13280497 -0.0071246885 0.18038519 0.20409918 0.28656957 0.29531777
0.019975267 0.11000902 0.01419461 0.21370243 0.11954095 0.20232761 0.03860374 0.22869422
0.10535606 0.20425643 0.07918529 0.04030911 -0.101154424 -0.07223365 -0.1926051 0.06445048
0.09757209 -0.025772031 -0.1358575 0.09034517 0.048278734 0.11806178 -0.11744985 0.06936704
-0.15430911 0.053380996 0.04948038 -0.19071156 0.07074302 0.1028837 -0.065723024 0.072952904
-0.1143303 -0.16097446 -0.038162556 0.15229192 0.14657111 -0.03530026 -0.16725378 0.07579383
-0.16482918 0.16455472 -0.02040695 0.12512691 0.09762824 -0.031092426 0.13703935 0.004747913
0.05708471 0.2701974 0.32777825 0.15549928 0.1420059 0.0334023 -0.008169534 0.028456839
0.31920117 0.2526846 0.102093145 0.250934 0.22270691 0.058336183 -0.08496857 0.10803917
0.052474108 0.09006388 0.1840637 0.022592153 -0.117611945 -0.05364139 0.15917614 -0.12872283
0.099891156 -0.11635268 -0.16433954 -0.24765198 -0.27456683 0.00453133 -0.28859252 -0.035547018
-0.21721683 -0.11778047 -0.23829845 -0.13532962 -0.21785246 0.07838667 -0.13030373 -0.18213178
0.030895287 -0.08240452 0.16672926 0.071127936 -0.14610484 -0.15706287 0.019781983 -0.118862815
-0.05611187 0.15309694 -0.13698499 -0.15723921 0.12858696 -0.22038393 0.0831641 -0.019194528
-0.049154602 0.13273436 -0.21343546 -0.047971744 0.095961995 0.1568639 -0.04360736 -0.19647986
00000000: 42f8 9fbd ab53 bdbd a39e 65be 483e b03d
00000010: a70a 98bc b7ee ba3d 9449 0b3e 41b2 473e
00000020: 6d3c 303e ffde 553e a93a 923d c8da 5f3e
00000030: 38f8 903e 78c2 983e 84aa ab3c 4797 903e
00000040: 9f0b b53e 5327 743e fe17 8f3e 8eac d93d
00000050: f636 573c 0f94 4b3e b366 1b3e eee0 833d
00000060: a064 a13d bb7f 633d 389d 933d d23d 81be
00000070: 7cf0 dc3c 7217 8cbd 9574 e43d 83f5 903c
00000080: f4d3 5abd f75e 24bc acd8 fe3d 1639 5c3e
00000090: b8ac 1e3e 7943 4abd a9ce 4bbc 5ed6 353d
000000a0: 657a 673e 977d 673e ab8b a33e 72b6 19bc
000000b0: a176 eb3c a000 6c3e cafa 8f3d 581c 7dbd
000000c0: 3b3d 383e 346d 14be 485d fd3c ffee 183e
000000d0: 3019 ce3d 6427 883e 0647 9a3d 0480 623a
000000e0: bb5f 893e b656 6a3e 62fc 413e d2b7 873d
000000f0: 0a0a ae3c 97bb 0fbe a858 55be a57c b93c
00000100: 7305 10be 2728 1e3d f9c2 0fbe e00e 0abe
00000110: 950e 87be 48ec 30be c946 6fbd 7a4d 69be
00000120: b797 3dbe ca58 dcbd b510 debc 8f58 793d
00000130: ac26 e13b fbf6 f53a c9f6 07be 6a34 d33d
00000140: cf85 2abd 7d70 cfbd a62d 0ebb 2db0 97ba
00000150: 8fe5 3dbc 9a81 f13d eb63 1bbe 3c28 e4bd
00000160: f075 67bd 6012 31be 3d1b 433c ad1d d0bd
00000170: cf7a 46bd e1c2 2dbe 96f8 7b3d 8efb 91be
00000180: 4d02 8abe 7319 e1bd 817f babd 0506 79be
00000190: 7c37 b03c 3195 793d 57e9 89bd 224d a2bd
000001a0: 6326 d03d 0181 06bd 4373 903d 1254 91bd
000001b0: 1c89 e4ba ab40 cfbd 8aca e13d 0d77 21bd
000001c0: d3ee eebd d1fe 29be c946 17be 5b4d abbd
000001d0: 404b 133d 82e1 29be da34 dd3d 8bd9 93bc
000001e0: 0e77 fcbd d87b 24bd 8315 de3c c1bf 01be
000001f0: 1855 b0bc d751 8f3d 3cf0 35bd 964c ba3d
00000200: 897b 31be 4d92 11be 8349 cc3c 9044 4a3e
00000210: d2c1 f23d 9826 183e b81c 413c 9ab2 abbd
00000220: 0089 1a3e f9a8 033d 07fe 073e 3876 e9bb
00000230: e5b6 383e 60ff 503e 3fb9 923e e433 973e
00000240: 2ca3 a33c 694c e13d 8290 683c cfd4 5a3e
00000250: e3d1 f43d f82e 4f3e f51e 1e3d d12e 6a3e
00000260: ebc4 d73d 9928 513e e62b a23d 2a1b 253d
00000270: 0d2a cfbd 3cef 93bd 453a 45be 9dfe 833d
00000280: e0d3 c73d de1f d3bc 3a1e 0bbe e306 b93d
00000290: ecbf 453d 60ca f13d 8c89 f0bd 4f10 8e3d
000002a0: 3503 1ebe 08a6 5a3d f0ab 4a3d e449 43be
000002b0: b7e1 903d b0b4 d23d cb99 86bd 5568 953d
000002c0: 0126 eabd 7dd6 24be 5750 1cbd 6af2 1b3e
000002d0: bd16 163e 0197 10bd 9344 2bbe cc39 9b3d
000002e0: fbc8 28be 0881 283e 7a2c a7bc 4521 003e
000002f0: 51f1 c73d 8bb5 febc 0b54 0c3e 6294 9b3b
00000300: a8d1 693d 5057 8a3e 8dd2 a73e 343b 1f3e
00000310: ff69 113e dad0 083d 82d9 05bc 511e e93c
00000320: 566e a33e e05f 813e 3616 d13d 6c7a 803e
00000330: 480d 643e ecf1 6e3d 0004 aebd a443 dd3d
00000340: 17ef 563d 6973 b83d 327b 3c3e 2e13 b93c
00000350: 88de f0bd 13b7 5bbd 12ff 223e ebcf 03be
00000360: bc93 cc3d 504a eebd a048 28be 7b98 7dbe
00000370: 0694 8cbe 8d7b 943b 66c2 93be c099 11bd
00000380: 176e 5ebe e336 f1bd 8204 74be d993 0abe
00000390: b714 5fbe 3189 a03d 576e 05be c180 3abe
000003a0: 1d18 fd3c b3c3 a8bd 13bb 2a3e 86ab 913d
000003b0: 829c 15be 17d5 20be d30d a23c 596e f3bd
000003c0: 8fd5 65bd 72c5 1c3e cb45 0cbe 5103 21be
000003d0: 4dac 033e 53ac 61be f151 aa3d d83d 9dbc
000003e0: 5656 49bd 84eb 073e d38e 5abe 057e 44bd
000003f0: b987 c43d eea0 203e a29d 32bd 0432 49be

encoder.0.0.bias f4 [16]
-0.090042345 -0.1093188 -0.18609415 0.14364873 -0.079172395 0.16197957 -0.19008395 0.10222821
-0.11345464 -0.0055849603 0.18015015 0.08935071 -0.08498005 0.242528 -0.101533815 -0.013167063
00000000: 1f68 b8bd 89e2 dfbd 778f 3ebe a718 133e
00000010: 2325 a2bd f9dd 253e 5ea5 42be 065d d13d
00000020: e85a e8bd 0b02 b7bb 4879 383e 81fd b63d
00000030: 050a aebd 4359 783e f6f0 cfbd aaba 57bc

encoder.1.0.weight f4 [8, 16]
0.11386832 0.2239807 -0.14694448 -0.26401857 -0.17150801 0.3299356 0.2977622 -0.069379434
-0.11945361 0.16544563 0.26823065 0.33569837 -0.12276864 0.09867758 0.040590104 -0.05477071
0.39628404 0.34368122 -0.2166539 -0.0556571 -0.047586072 -0.06196721 0.11566981 0.28293145
-0.1475738 -0.20427264 0.5048921 0.42260107 -0.09945895 -0.23563628 0.048775613 -0.42239922
0.26669124 0.15275387 -0.35485616 -0.18345396 0.20203702 -0.13923495 -0.17589845 0.15063566
-0.25684568 -0.15075423 0.37418455 0.25188714 -0.19152997 -0.24586117 0.11827981 -0.1275036
0.22221334 0.19532406 -0.031937864 -0.22756591 -0.18197142 -0.04136824 -0.11464013 0.061532725
-0.050905496 -0.01519517 0.14011925 0.14602992 0.07685317 0.06520327 0.22575954 -0.04829371
0.014246977 -0.015323386 -0.46005708 -0.07122669 -0.2186025 0.25581288 -0.25273067 0.1262891
-0.26041675 0.095221855 0.43288097 0.4479674 -0.167979 -0.2507188 0.2103715 -0.35214704
0.08030606 0.1587269 -0.16059141 -0.1683595 -0.16096814 -0.07313191 0.0251225 -0.24508011
-0.13678408 -0.011835756 -0.17117172 -0.044818807 0.038313 -0.07826685 -0.05665016 0.09865688
-0.07221961 0.2847109 -0.33854112 -0.07309347 -0.24337575 0.3126357 -0.14025432 0.26988798
-0.2689197 0.08075239 0.06465264 0.25864553 0.24512309 -0.118256696 0.25460246 -0.0011602981
0.29071087 0.04252932 0.05958268 0.07562355 -0.004678706 0.34305534 -0.12694313 0.35147747
-0.033776365 -0.22066961 0.042423736 0.21181636 0.06525227 0.3099891 0.30916592 0.35007477
00000000: cb33 e93d 325b 653e 9d78 16be 712d 87be
00000010: cc9f 2fbe 52ed a83e 4974 983e ce16 8ebd
00000020: 18a4 f4bd 946a 293e 8755 893e a8e0 ab3e
00000030: 206e fbbd 7917 ca3d cf41 263d 4157 60bd
00000040: bee5 ca3e fcf6 af3e 85da 5dbe b3f8 63bd
00000050: 9de9 42bd 54d1 7dbd 4be4 ec3d 64dc 903e
00000060: 961d 17be d92c 51be 9c40 013f 2b5f d83e
00000070: 22b1 cbbd a34a 71be f0c8 473d b644 d8be
00000080: c18b 883e 836b 1c3e b5af b5be 5bdb 3bbe
00000090: cbe2 4e3e 9b93 0ebe b91e 34be 3c40 1a3e
000000a0: 4781 83be 515f 1abe 1e95 bf3e 5af7 803e
000000b0: 6f20 44be 08c3 7bbe af3c f23d 4e90 02be
000000c0: e58b 633e 0803 483e 47d1 02bd 0a07 69be
000000d0: b756 3abe be71 29bd 72c8 eabd bd09 7c3d
000000e0: 4882 50bd 2af5 78bc 6c7b 0f3e de88 153e
000000f0: 3265 9d3d 4b89 853d 822d 673e a0cf 45bd
00000100: 276c 693c f00e 7bbc 9a8c ebbe 4ddf 91bd
00000110: 55d9 5fbe e8f9 823e ea65 81be ee51 013e
00000120: 5855 85be ad03 c33d 93a2 dd3e fc5b e53e
00000130: b002 2cbe 375e 80be a06b 573e 9e4c b4be
00000140: 8177 a43d 4e89 223e 1372 24be 6f66 2cbe
00000150: d5d4 24be 2fc6 95bd b3cd cd3c 48f6 7abe
00000160: 2011 0cbe c2ea 41bc a447 2fbe ed93 37bd
00000170: 18ee 1c3d 5f4a a0bd 000a 68bd 9e0c ca3d
00000180: e0e7 93bd a1c5 913e 4355 adbe 07b2 95bd
00000190: 7e37 79be c911 a03e d49e 0fbe c22e 8a3e
000001a0: d8af 89be 8261 a53d 9a68 843d 306d 843e
000001b0: 8c01 7b3e 9130 f2bd 415b 823e 2515 98ba
000001c0: 0ed8 943e 3933 2e3d f80c 743d 85e0 9a3d
000001d0: d54f 99bb f3a4 af3e 61fd 01be dbf4 b33e
000001e0: 1659 0abd 37f7 61be 83c4 2d3d 63e6 583e
000001f0: fba2 853d e4b6 9e3e ff4a 9e3e 003d b33e

encoder.1.0.bias f4 [8]
0.22439028 -0.10215369 0.22199287 0.23959763 -0.052079264 0.053102598 -0.07870042 0.03535875
00000000: 91c6 653e f435 d1bd 1952 633e 1559 753e
00000010: 1151 55bd 1c82 593d b02d a1bd 56d4 103d

encoder.2.0.weight f4 [8, 8]
-0.053758755 0.17136276 -0.24208708 0.039067566 0.37991187 -0.36062115 0.37757808 -0.118302345
-0.053416878 0.32374653 0.07638442 -0.036225215 0.18641098 -0.23390245 0.413935 0.25826406
0.3285217 0.14509286 0.4213306 -0.19607013 0.25669265 -0.28854695 -0.0756533 -0.117309764
0.08792033 -0.19122715 -0.096893415 -0.33989596 -0.1390443 -0.02830229 -0.077316836 -0.10909936
0.008576073 -0.4179949 -0.15983729 -0.11675834 -0.3693152 -0.12669078 0.012221932 -0.2645458
0.14487618 -0.32595146 -0.16376035 0.21220204 -0.22481461 -0.22530226 0.21943139 0.28481883
0.308649 0.39357248 0.46361846 0.42879707 0.3713646 0.19958678 0.3341114 -0.13555783
-0.35425994 -0.10436448 -0.08555136 -0.015375097 0.14047441 -0.2074972 -0.03811919 -0.28821015
00000000: 2432 5cbd b879 2f3e ade5 77be 5005 203d
00000010: cf83 c23e 56a3 b8be ea51 c13e 8048 f2bd
00000020: a8cb 5abd 1bc2 a53e 6f6f 9c3d e460 14bd
00000030: 85e2 3e3e 2084 6fbe 4aef d33e 303b 843e
00000040: ff33 a83e 3993 143e a5b8 d73e 9cc6 48be
00000050: 386d 833e 6dbc 93be 1ef0 9abd 1a40 f0bd
00000060: 930f b43d 0dd1 43be 0e70 c6bd d806 aebe
00000070: a161 0ebe 34da e7bc 4a58 9ebd 7c6f dfbd
00000080: a882 0c3c 6d03 d6be 63ac 23be ff1e efbd
00000090: e216 bdbe 3abb 01be 803e 483c 8c72 87be
000000a0: 6c5a 143e 1ce3 a6be cbb0 27be 7e4b 593e
000000b0: cd35 66be a3b5 66be 9fb2 603e c6d3 913e
000000c0: 3e07 9e3e 5582 c93e 665f ed3e 4a8b db3e
000000d0: 8023 be3e 7a60 4c3e a610 ab3e accf 0abe
000000e0: 8f61 b5be 0bbd d5bd 8d35 afbd d5e7 7bbc
000000f0: 86d8 0f3e 257a 54be de22 1cbd 4890 93be

encoder.2.0.bias f4 [8]
0.12050246 0.37532344 0.30649045 0.28742322 0.08103436 0.17866237 -0.25893128 -0.2832347
00000000: fec9 f63d 652a c03e 51ec 9c3e 2329 933e
00000010: 58f5 a53d 45f3 363e a492 84be 2304 91be

encoder.3.weight f4 [5, 8]
0.23219682 0.23420759 -0.021687113 0.12586029 -0.026639042 0.35381737 0.43155664 -0.11432543
0.19114608 0.12043553 0.20600739 -0.27091736 -0.1971817 0.1983197 0.24697208 0.04848722
-0.1156721 -0.3171583 -0.42537034 0.044535138 0.049378727 -0.016861698 -0.21628897 0.40155828
0.2643846 0.13790168 -0.050233703 -0.04632315 -0.092011936 -0.36695504 0.047612257 0.37460262
-0.40913385 0.28436276 -0.20363282 0.1688975 0.02564056 0.50607115 -0.5027872 -0.265171
00000000: 01c5 6d3e 1dd4 6f3e 2ca9 b1bc 85e1 003e
00000010: 1f3a dabc 8d27 b53e fef4 dc3e 7323 eabd
00000020: ccbb 433e e7a6 f63d 9af3 523e aeb5 8abe
00000030: 00ea 49be 5214 4b3e 40e6 7c3e 899a 463d
00000040: 7ee5 ecbd 9362 a2be 24ca d9be 7a6a 363d
00000050: 5941 4a3d 8b21 8abc db7a 5dbe 0c99 cd3e
00000060: 6b5d 873e 1936 0d3e dbc1 4dbd 58bd 3dbd
00000070: c170 bcbd 88e1 bbbe 1205 433d eacb bf3e
00000080: fe79 d1be ff97 913e 1f85 50be 77f3 2c3e
00000090: 270c d23c e18d 013f a9b6 00bf 7ec4 87be

encoder.3.bias f4 [5]
0.12433245 0.39606026 -0.04907784 -0.19872889 -0.17383045
00000000: 03a2 fe3d 69c8 ca3e d805 49bd 967f 4bbe
00000010: 9c00 32be

decoder.0.0.weight f4 [8, 5]
0.47043228 0.3609149 -0.50080216 -0.35465297 0.069041036 0.23559853 0.4239817 -0.19157782
0.3676232 -0.40576765 0.018503143 0.23767518 0.0039472505 0.5304179 -0.19995517 0.24259059
0.36333105 -0.1455961 -0.4247758 0.2537572 -0.12664284 -0.3282251 -0.23402132 0.374286
-0.28601468 -0.3447773 -0.21213171 -0.10137222 0.30997148 -0.09040726 0.39820465 -0.2968121
-0.5450091 0.026000457 -0.3682248 -0.19583955 -0.019972714 0.23940477 0.4736101 0.17185397
00000000: 80dc f03e d6c9 b83e 9234 00bf 1395 b5be
00000010: 6365 8d3d be40 713e 2114 d93e fa2c 44be
00000020: 1c39 bc3e c7c0 cfbe e793 973c 1f61 733e
00000030: f057 813b 78c9 073f 0cc1 4cbe ab69 783e
00000040: 8706 ba3e 2517 15be 377c d9be 77ec 813e
00000050: a9ae 01be 1f0d a8be 49a3 6fbe 6aa2 bf3e
00000060: 8470 92be a686 b0be 0e39 59be 3d9c cfbd
00000070: 95b4 9e3e 7127 b9bd 7be1 cb3e c1f7 97be
00000080: b785 0bbf e9fe d43c f687 bcbe 2a8a 48be
00000090: d19d a3bc 8626 753e 067d f23e 7dfa 2f3e

decoder.0.0.bias f4 [8]
-0.2707024 0.307076 0.08131079 0.5201924 -0.43994102 0.0803213 0.35042945 -0.41206518
00000000: 8199 8abe 1139 9d3e 4586 a63d 542b 053f
00000010: f33f e1be 7e7f a43d 7d6b b33e 35fa d2be

decoder.1.0.weight f4 [8, 8]
-0.3821578 -0.24689895 -0.3738501 0.18762434 -0.13167419 0.21991107 -0.46870682 0.25641596
0.35471597 -0.025601216 0.06157002 -0.33242726 -0.19730714 -0.28025424 -0.103467174 -0.02509032
0.18295002 -0.020221949 -0.37448287 -0.20699406 0.119774915 0.020497045 -0.2612463 0.37629122
-0.31599265 -0.39080083 -0.19925919 -0.1334737 -0.008230891 0.17192128 -0.30447853 0.09564704
-0.29425043 0.21865827 -0.05906605 0.31440955 0.18726206 -0.28479496 0.018409073 -0.37300345
0.13028592 -0.3545562 -0.28029767 -0.23920198 -0.011642445 -0.09278316 -0.027335433 -0.1344203
0.4409811 0.3562743 -0.04897506 0.38606566 -0.34154126 0.11914642 0.118577346 0.27121446
0.14783284 -0.09963035 -0.22252388 0.3812919 -0.2816982 -0.08198069 -0.07928257 -0.19123317
00000000: 30aa c3be 14d3 7cbe 4869 bfbe 9820 403e
00000010: 99d5 06be 5e30 613e 57fa efbe f448 833e
00000020: 559d b53e a4b9 d1bc d830 7c3d e833 aabe
00000030: e20a 4abe 7c7d 8fbe 99e6 d3bd 378a cdbc
00000040: 4057 3b3e 80a8 a5bc 38bc bfbe 40f6 53be
00000050: 8d4c f53d 6be9 a73c 13c2 85be 3ea9 c03e
00000060: cac9 a1be 0c17 c8be 9a0a 4cbe 54ad 08be
00000070: dcda 06bc 220c 303e 9ce4 9bbe 98e2 c33d
00000080: fea7 96be f4e7 5f3e 3eef 71bd 4afa a03e
00000090: a0c1 3f3e a5d0 91be a0ce 963c 4ffa bebe
000000a0: ac69 053e 6488 b5be 2d83 8fbe 5df1 74be
000000b0: f4bf 3ebc 1905 bebd 8fee dfbc 7aa5 09be
000000c0: 46c8 e13e 9669 b63e 139a 48bd 66aa c53e
000000d0: 7fde aebe 0a03 f43d aed8 f23d 9fdc 8a3e
000000e0: 7e61 173e ff0a ccbd 4ddd 63be b138 c33e
000000f0: bf3a 90be 7ee5 a7bd e65e a2bd a1d2 43be

decoder.1.0.bias f4 [8]
-0.06445962 -0.36335292 -0.09499576 -0.20469713 0.2652597 -0.20974135 -0.18895999 0.1523053
00000000: 6803 84bd 6509 babe 238d c2bd 209c 51be
00000010: 1fd0 873e 70c6 56be ba7e 41be ecf5 1b3e

decoder.2.0.weight f4 [16, 8]
0.053582672 0.20264888 -0.053509112 -0.15907943 -0.2745297 0.27038196 0.10758592 -0.25753915
0.3162934 0.2869267 -0.04129771 0.29724094 0.24796598 0.10210883 -0.022467708 0.18239419
-0.30825454 0.055907905 -0.41612372 0.1506123 -0.056208245 0.0935908 0.31717253 0.0131932
0.14835092 0.338983 -0.21273245 0.433108 -0.44440272 -0.04084981 -0.1917123 0.117797345
-0.40758926 0.2260624 -0.3091903 0.21641229 -0.10431377 -0.31957608 0.37781838 -0.24760528
0.33478126 -0.1405886 0.23664972 -0.10983821 -0.20479546 0.1164424 0.26865393 -0.0011769074
-0.24915732 0.14263542 -0.17414583 -0.3817021 0.29618254 -0.39603752 0.26967302 0.026774246
0.14689504 -0.3978531 -0.3722419 -0.11977786 0.31154218 -0.40331337 -0.018483337 0.22740227
-0.032620303 0.25001988 0.09815516 0.08670695 0.09490272 -0.16817705 0.11574812 -0.24307398
-0.16481794 -0.35613006 -0.15359885 -0.060366765 -0.061017737 -0.1343015 -0.13387798 0.37438613
-0.09025823 0.20903789 0.18423954 0.4048443 -0.44406483 0.108459435 -0.2665344 0.14613569
0.28081962 -0.1837635 0.05850655 -0.020155799 -0.0718417 0.12516856 0.11149855 0.23841211
-0.33098984 -0.21817186 -0.32281154 -0.20311905 0.37621388 -0.43248326 0.32616708 0.1747573
0.18655404 0.29345566 0.45749712 0.05688481 -0.3451219 -0.012422089 -0.51013476 -0.2171081
0.14938435 0.21496376 -0.19487281 0.0348784 -0.23025984 0.0009943187 -0.04400783 -0.019837279
0.21431674 0.35795727 0.35431877 0.06289989 0.10427131 0.20197015 -0.04623034 -0.13934645
00000000: 8179 5b3d 3083 4f3e 5f2c 5bbd b8e5 22be
00000010: 288f 8cbe 816f 8a3e 0256 dc3d 2cdc 83be
00000020: 35f1 a13e 0ee8 923e ca27 29bd f72f 983e
00000030: cbea 7d3e 6f1e d13d 330e b8bc 8bc5 3a3e
00000040: 8ad3 9dbe b0ff 643d 2b0e d5be 1c3a 1a3e
00000050: 9e3a 66bd 89ac bf3d 7064 a23e 4b28 583c
00000060: 4ee9 173e 2e8f ad3e 89d6 59be 55c0 dd3e
00000070: c188 e3be 2152 27bd 3b50 44be bc3f f13d
00000080: 8aaf d0be e77c 673e 314e 9ebe 2f9b 5d3e
00000090: 75a2 d5bd 7a9f a3be 6971 c13e 3d8c 7dbe
000000a0: 7368 ab3e 75f6 0fbe 4e54 723e dbf2 e0bd
000000b0: e7b5 51be 5a79 ee3d 028d 893e 7642 9aba
000000c0: 1923 7fbe 050f 123e 4953 32be 756e c3be
000000d0: 3da5 973e 6ec5 cabe 9512 8a3e aa55 db3c
000000e0: a76b 163e 67b3 cbbe 7e96 bebe 184e f5bd
000000f0: 7582 9f3e 177f cebe 5e6a 97bc 24dc 683e
00000100: de9c 05bd 9b02 803e 9305 c93d 6a93 b13d
00000110: 5b5c c23d 9b36 2cbe 5a0d ed3d 63e8 78be
00000120: 09c6 28be ae56 b6be 0449 1dbe 2443 77bd
00000130: bced 79bd 5586 09be 4f17 09be 8aaf bf3e
00000140: 4fd9 b8bd 070e 563e 4aa9 3c3e c147 cf3e
00000150: 775c e3be fb1f de3d 3277 88be 98a4 153e
00000160: 97c7 8f3e 802c 3cbe 90a4 6f3d c61d a5bc
00000170: be21 93bd 302c 003e 5a59 e43d 4e22 743e
00000180: 8077 a9be 7268 5fbe 8e47 a5be 71fe 4fbe
00000190: 1b9f c03e 726e ddbe 5fff a63e 94f3 323e
000001a0: 0608 3f3e d23f 963e 103d ea3e 0c00 693d
000001b0: d1b3 b0be 0586 4bbc 3198 02bf 9651 5ebe
000001c0: 36f8 183e 761f 5c3e bd8c 47be a7dc 0e3d
000001d0: 3cc9 6bbe cd53 823a 8e41 34bd ca81 a2bc
000001e0: d975 5b3e 2d46 b73e 4569 b53e a8d1 803d
000001f0: 328c d53d 43d1 4e3e 065c 3dbd d6b0 0ebe

decoder.2.0.bias f4 [16]
0.1277758 -0.0025316784 0.3235459 -0.4386002 0.07284072 -0.19619744 -0.40458944 0.4054798
-0.030368691 0.33484623 -0.062384505 0.28205052 0.080854185 -0.106315225 0.30569834 -0.02154923
00000000: a9d7 023e 84ea 25bb cfa7 a53e 3590 e0be
00000010: 842d 953d fbe7 48be 5926 cfbe 0c9b cf3e
00000020: c3c7 f8bc f770 ab3e e586 7fbd ed68 903e
00000030: e196 a53d ccbb d9bd 7e84 9c3e 0388 b0bc

decoder.3.weight f4 [26, 16]
0.07244045 0.13994032 0.025690602 -0.22446288 -0.20116496 -0.1522266 -0.20009348 0.20661303
0.15069583 0.30703658 0.015360395 0.17161232 0.16279799 0.28661427 -0.031208374 0.09062189
0.075396724 0.23525847 0.025624748 -0.29480132 -0.25744948 -0.07489186 -0.14181302 0.29467478
-0.19390412 -0.07978641 -0.042110067 0.23397236 0.029799627 -0.37335885 0.1861393 -0.11515963
0.120830886 -0.07408424 0.33307952 -0.20591757 -0.25758755 -0.41245472 -0.031362757 0.14853114
-0.18928891 -0.012846305 -0.08504644 0.21534288 -0.0036031846 -0.006766432 -0.033198956 0.20492147
0.017351873 0.062244095 -0.048317205 -0.11876293 -0.11572243 -0.28882998 0.040034827 0.013500222
-0.011455018 0.331857 0.06266106 0.18740234 0.13740559 -0.25907877 -0.13316698 0.26228625
-0.22052434 -0.10402087 0.0119576305 -0.13048746 -0.10864175 0.004271637 -0.06616419 0.087514475
-0.17786357 -0.098784596 -0.38276914 0.18744168 0.39163604 -0.16779052 0.19551921 -0.03891437
-0.0462951 0.30904192 0.14958416 -0.11208912 -0.15845142 -0.064551085 -0.4056118 0.03390197
-0.12449377 0.16828796 -0.08274097 0.11853991 0.25214595 -0.15017907 0.24914855 -0.12662572
0.03600473 -0.05278491 -0.17676796 -0.1513986 0.05876994 -0.10184354 -0.20266092 0.23998353
-0.204926 0.14459479 0.14157622 0.2391989 0.15284821 0.044248283 0.09901738 0.19018728
-0.13993232 -0.134706 0.102490194 -0.16553462 -0.077704534 -0.13261473 -0.016718911 0.21018754
0.2522858 0.20183511 -0.23082207 0.115254976 0.047190115 -0.12293498 0.048430335 -0.057018865
0.08964538 -0.11769418 0.03833112 -0.025811102 0.0053274855 0.13883626 -0.018075593 -0.09065198
0.24865417 -0.022764942 -0.02256186 0.024384951 0.16572864 0.022790356 0.1595277 0.19819415
-0.16774473 -0.031155692 -0.18521379 0.19038284 0.15164253 -0.24039276 0.06871836 0.28920808
0.28574347 -0.17531216 0.18530186 0.12998565 0.08422462 -0.02077284 0.19499488 0.040096164
0.046385854 -0.067295454 -0.15046826 -0.05083037 -0.04207585 0.24313392 -0.14393573 0.021944255
-0.12777667 -0.19577436 0.076261036 0.3224007 0.22609153 -0.24205269 0.3000497 0.117658764
0.059926424 0.2967383 0.19945794 -0.17337829 0.00894346 0.04854768 -0.07951697 0.26814017
0.05495975 -0.10931297 -0.28038198 0.05106263 0.15789977 -0.08611407 -0.09063629 0.021979641
0.10664369 -0.036256768 0.049763463 -0.147222 0.022191051 0.24158633 -0.16695486 -0.11690424
-0.030876853 -0.0595562 -0.026557773 0.24454963 0.3246524 -0.18653779 0.098317616 -0.07849179
0.11550294 0.044662915 0.18359046 0.009102817 -0.036801156 0.03971116 0.23780732 0.107807375
-0.09478401 0.13317986 -0.07663555 0.06754616 0.15911601 -0.079607934 -0.059776854 -0.1869609
-0.18909231 0.20434856 0.27848038 0.02879275 0.2742403 -0.11021562 0.21201125 0.09690217
-0.041409608 -0.1905699 -0.36186555 0.11525931 -0.033295963 -0.12426204 0.09600437 -0.19969006
0.24094345 0.24369967 0.0672407 -0.2757163 -0.087394185 0.3255134 0.30771267 0.10886097
-0.05361819 -0.06295337 -0.30884323 0.11303275 0.10680313 -0.01639011 -0.00919761 -0.11561305
00000000: a95b 943d 844c 0f3e 1975 d23c 99d9 65be
00000010: 30fe 4dbe 4ae1 1bbe 4ee5 4cbe 5e92 533e
00000020: 0250 1a3e e633 9d3e 2baa 7b3c 24bb 2f3e
00000030: 84b4 263e 1bbf 923e b4a8 ffbc f897 b93d
00000040: 9969 9a3d 99e7 703e feea d13c 33f0 96be
00000050: 6bd0 83be e760 99bd 6f37 11be 9ddf 963e
00000060: cd8e 46be 0f67 a3bd 9b7b 2cbd 7396 6f3e
00000070: 591e f43c e428 bfbe 4d9b 3e3e d0d8 ebbd
00000080: 2f76 f73d 7ab9 97bd 6689 aa3e 0edc 52be
00000090: 84e2 83be 442d d3be 3c76 00bd 8c18 183e
000000a0: f4d4 41be 4f79 52bc d42c aebd d882 5c3e
000000b0: 6823 6cbb f2b8 ddbb a1fb 07bd efd6 513e
000000c0: 8425 8e3c aaf3 7e3d 43e8 45bd fb39 f3bd
000000d0: e2ff ecbd 86e1 93be 8ffb 233d 0930 5d3c
000000e0: d4ad 3bbc 29e9 a93e 7154 803d 66e6 3f3e
000000f0: 0db4 0c3e f9a5 84be ed5c 08be 624a 863e
00000100: 22d1 61be e508 d5bd f0e9 433c 819e 05be
00000110: 917f debd 17f9 8b3b 1781 87bd ca3a b33d
00000120: de21 36be 944f cabd 51fa c3be b6f0 3f3e
00000130: 8584 c83e 47d1 2bbe 3036 483e ad64 1fbd
00000140: ee9f 3dbd be3a 9e3e 972c 193e fb8e e5bd
00000150: 1741 22be 5c33 84bd 5aac cfbe cbdc 0a3d
00000160: 97f6 febd ae53 2c3e 1974 a9bd 0dc5 f23d
00000170: 4619 813e 8bc8 19be cc20 7f3e 2caa 01be
00000180: b279 133d fd34 58bd a902 35be 3c08 1bbe
00000190: c0b8 703d 5993 d0bd 5886 4fbe 3ebe 753e
000001a0: 1fd8 51be a810 143e 5bf9 103e 8ef0 743e
000001b0: 3e84 1c3e b03d 353d a0c9 ca3d 74c0 423e
000001c0: 6b4a 0fbe 5ff0 09be 61e6 d13d e881 29be
000001d0: 8e23 9fbd 28cc 07be 19f6 88bc 673b 573e
000001e0: 9b2b 813e ddad 4e3e 9f5c 6cbe cd0a ec3d
000001f0: 6c4a 413d 56c5 fbbd e35e 463d 9d8c 69bd
00000200: ff97 b73d a509 f1bd 1801 1d3d ce71 d3bc
00000210: 3092 ae3b 182b 0e3e 4413 94bc bfa7 b9bd
00000220: 339f 7e3e 8b7d babc a6d3 b8bc f3c2 c73c
00000230: c5b4 293e d7b2 ba3c 3b5b 233e 68f3 4a3e
00000240: 46c5 2bbe 393a ffbc afa8 3dbe b8f3 423e
00000250: 2e48 1b3e 8529 76be 36bc 8c3d 1513 943e
00000260: f84c 923e 0885 33be c5bf 3d3e f51a 053e
00000270: f57d ac3d ce2b aabc bdac 473e e03b 243d
00000280: 18ff 3d3d 33d2 89bd 5a14 1abe 8233 50bd
00000290: ba57 2cbd 19f8 783e e363 13be 70c4 b33c
000002a0: e3d7 02be 1379 48be bf2e 9c3d b411 a53e
000002b0: 8a84 673e a9dc 77be 1da0 993e 14f7 f03d
000002c0: 6975 753d 15ee 973e b43e 4c3e 148a 31be
000002d0: 9787 123c efd9 463d cbd9 a2bd ab49 893e
000002e0: 7a1d 613d 7adf dfbd 3a8e 8fbe 0c27 513d
000002f0: 7ab0 213e 935c b0bd 859f b9bd a60e b43c
00000300: 0268 da3d fa81 14bd c6d4 4b3d 5dc1 16be
00000310: 02ca b53c 6862 773e 37f6 2abe 7d6b efbd
00000320: 74f1 fcbc 34f1 73bd b08f d9bc 386b 7a3e
00000330: d738 a63e c303 3fbe bf5a c93d 4ec0 a0bd
00000340: ce8c ec3d 76f0 363d 23ff 3b3e fb23 153c
00000350: cfbc 16bd 2ba8 223d c383 733e 1dca dc3d
00000360: 1e1e c2bd 4d60 083e 19f3 9cbd a455 8a3d
00000370: 4fef 223e 7c09 a3bd 93d8 74bd ae72 3fbe
00000380: 6aa1 41be c040 513e fb94 8e3e c6de eb3c
00000390: 3969 8c3e bab8 e1bd 7a19 593e a574 c63d
000003a0: 1f9d 29bd c224 43be 7146 b9be 130d ec3d
000003b0: 5961 08bd 197d febd f09d c43d 8d7b 4cbe
000003c0: e1b9 763e 688c 793e 7eb5 893d b02a 8dbe
000003d0: b9fb b2bd b1a9 a63e 848c 9d3e 80f2 de3d
000003e0: bf9e 5bbd b2ed 80bd b320 9ebe b77d e73d
000003f0: 99bb da3d 8d44 86bc 93b1 16bc 89c6 ecbd

decoder.3.bias f4 [26]
0.1324572 0.26906037 0.19137482 0.24163717 -0.13349892 0.12773292 0.22833446 0.1368104
0.21341488 0.24032944 0.2612248 -0.1494622 0.012756712 -0.09981124 -0.14885363 -0.04857172
0.024666552 0.12305995 -0.13705026 0.1657827 -0.0643647 0.0215187 -0.098721944 0.13181828
0.03034469 0.10946114
00000000: dca2 073e 48c2 893e c3f7 433e bc6f 773e
00000010: f1b3 08be 6bcc 023e 82d0 693e 0718 0c3e
00000020: 6e89 5a3e ec18 763e 42bf 853e 9e0c 19be
00000030: 8701 513c d669 ccbd 166d 18be 24f3 46bd
00000040: 8211 ca3c db06 fc3d e756 0cbe f1c2 293e
00000050: a4d1 83bd fc47 b03c bb2e cabd 5ffb 063e
00000060: 6d95 f83c 2a2d e03d

exp_avg f4 [16, 26]
-2.8928067e-05 -1.7322134e-05 -1.2480269e-05 -1.5898902e-05 -1.989221e-05 -1.7821707e-05 -1.5705675e-05 -1.808808e-05
-2.4679855e-05 -2.9523953e-05 -3.116994e-05 -3.0315121e-05 -2.79221e-05 -2.4700368e-05 -2.4705258e-05 -2.7647437e-05
-3.369407e-05 -4.7500398e-05 -6.116645e-05 -7.206533e-05 -8.699196e-05 -9.938581e-05 -0.00010102983 -9.051983e-05
-7.017192e-05 -4.641678e-05 4.3291402e-05 5.7857826e-05 6.181213e-05 5.3705993e-05 4.502323e-05 4.553133e-05
4.6522964e-05 4.0680392e-05 2.6138321e-05 1.3105525e-05 4.4215144e-06 -4.12627e-06 -1.256294e-05 -1.8905477e-05
-2.5208281e-05 -2.9918447e-05 -3.7853042e-05 -5.7775793e-05 -7.566434e-05 -8.4692285e-05 -9.991397e-05 -0.00010861736
-9.734517e-05 -6.623599e-05 -2.2840739e-05 1.804614e-05 -3.6687048e-05 -3.9930637e-05 -4.0222993e-05 -3.8935377e-05
-3.705747e-05 -3.5138255e-05 -3.333132e-05 -3.1895255e-05 -3.1487e-05 -3.3634595e-05 -3.669647e-05 -3.5428813e-05
-3.0361402e-05 -2.2954187e-05 -1.3468173e-05 -7.1310974e-06 -4.4950884e-06 -4.06534e-06 -4.444844e-06 -4.9575783e-06
-4.5712068e-07 2.8918585e-06 9.2356066e-07 -5.636913e-06 -1.6828662e-05 -2.9276694e-05 -8.135009e-07 -9.0178423e-07
-9.134389e-07 -8.4294675e-07 -7.6979535e-07 -7.604098e-07 -7.5414795e-07 -6.9594626e-07 -5.6778754e-07 -4.4064979e-07
-3.3231098e-07 -2.1598295e-07 -9.957348e-08 -3.5683894e-09 7.5602046e-08 1.1608173e-07 1.648866e-07 2.8959218e-07
3.8880785e-07 4.1344103e-07 4.651914e-07 4.5705784e-07 3.0704697e-07 2.5525535e-08 -3.287811e-07 -6.3881197e-07
4.8374222e-08 -3.5205833e-08 -6.5679366e-08 -3.009187e-08 3.1764453e-09 -2.4703224e-08 -5.934743e-08 -5.595043e-08
-3.4170825e-10 4.6953197e-08 7.519781e-08 1.2126712e-07 1.7205129e-07 1.9289993e-07 1.9767302e-07 2.1533326e-07
2.7453515e-07 4.199877e-07 5.579512e-07 6.413089e-07 7.7135894e-07 8.5176373e-07 7.9195155e-07 6.1079487e-07
3.8182637e-07 1.75657e-07 -0.00014516737 -0.00013118281 -0.00011999194 -0.00011264932 -9.81934e-05 -6.877713e-05
-3.600294e-05 -1.1186541e-05 3.3182419e-06 1.4195507e-05 2.2647597e-05 2.3508883e-05 1.832158e-05 1.2152089e-05
3.8111623e-06 -8.680722e-06 -2.7467391e-05 -5.5656466e-05 -8.266957e-05 -0.000106658765 -0.00014296314 -0.00017833905
-0.00019601762 -0.00019463274 -0.00018007244 -0.00016038664 2.118025e-07 1.6029702e-07 1.4132173e-07 1.6617233e-07
2.0615543e-07 2.3259156e-07 2.6293745e-07 3.0975323e-07 3.7264303e-07 4.1460473e-07 4.1633e-07 3.7378808e-07
3.099611e-07 2.5365406e-07 2.2452414e-07 2.1665373e-07 2.2892772e-07 2.8355373e-07 3.345647e-07 3.666521e-07
4.0763945e-07 4.526523e-07 4.7555716e-07 4.537608e-07 3.8131967e-07 2.874243e-07 -8.231041e-05 -6.834625e-05
-6.1175844e-05 -6.2740204e-05 -6.4002306e-05 -5.731481e-05 -5.000457e-05 -4.802607e-05 -5.1704872e-05 -5.337978e-05
-5.046738e-05 -4.503744e-05 -3.9087663e-05 -3.359639e-05 -3.255549e-05 -3.6313555e-05 -4.525845e-05 -6.418485e-05
-8.300212e-05 -9.83861e-05 -0.00012079773 -0.00014221937 -0.00015114319 -0.00014468262 -0.00012551447 -0.00010123703
-7.817e-07 -9.1786217e-07 -9.323743e-07 -8.048122e-07 -6.359558e-07 -5.1990156e-07 -3.9439882e-07 -2.1277846e-07
3.497292e-08 2.3908058e-07 3.6398438e-07 4.3150973e-07 4.581336e-07 4.5317873e-07 4.514437e-07 4.4264988e-07
4.6655327e-07 6.147354e-07 7.4245116e-07 7.772612e-07 8.3854354e-07 8.331753e-07 6.6262834e-07 3.2435324e-07
-1.17457034e-07 -5.266925e-07 5.809158e-07 5.655276e-07 5.4426454e-07 5.2021807e-07 4.9555723e-07 4.7159088e-07
4.48686e-07 4.2375618e-07 3.8584113e-07 3.420017e-07 2.908351e-07 2.178752e-07 1.388646e-07 7.846609e-08
5.2980855e-08 5.6684698e-08 6.533077e-08 6.822734e-08 8.19192e-08 1.2297026e-07 1.7027565e-07 2.455019e-07
00000000: 8daa f2b7 004f 91b7 5962 51b7 a25e 85b7
00000010: 32de a6b7 d37f 95b7 aebf 83b7 dbbb 97b7
00000020: 9607 cfb7 35aa f7b7 78bc 02b8 3a4d feb7
00000030: 413a eab7 a333 cfb7 233e cfb7 6bec e7b7
00000040: bb52 0db8 2a3b 47b8 7d46 80b8 c821 97b8
00000050: 746f b6b8 5a6d d0b8 fadf d3b8 77d5 bdb8
00000060: 4329 93b8 a3af 42b8 ca93 3538 5eac 7238
00000070: 22a1 8138 5f42 6138 53d7 3c38 e5f8 3e38
00000080: a721 4338 3da0 2a38 9e43 db37 cddf 5b37
00000090: 855c 9436 6474 8ab6 6bc5 52b7 3497 9eb7
000000a0: 5f76 d3b7 60f9 fab7 65c4 1eb8 4954 72b8
000000b0: fcad 9eb8 d39c b1b8 e788 d1b8 80c9 e3b8
000000c0: ca25 ccb8 2de8 8ab8 1d9a bfb7 ca61 9737
000000d0: 6be0 19b8 327b 27b8 1cb5 28b8 8b4e 23b8
000000e0: 286e 1bb8 6a61 13b8 3bcd 0bb8 45c7 05b8
000000f0: e910 04b8 df12 0db8 89ea 19b8 6699 14b8
00000100: 9db0 feb7 be8d c0b7 5df5 61b7 a947 efb6
00000110: 84d4 96b6 0169 88b6 eb24 95b6 4659 a6b6
00000120: 306a f5b4 c011 4236 9bea 7735 b724 bdb6
00000130: 472b 8db7 3997 f5b7 5b5f 5ab5 2412 72b5
00000140: 0b33 75b5 dc46 62b5 efa3 4eb5 f71e 4cb5
00000150: a770 4ab5 10d1 3ab5 106a 18b5 7292 ecb4
00000160: 7968 b2b4 f1e8 67b4 19d5 d5b3 c537 75b1
00000170: aa5a a233 9b48 f933 af0b 3134 3f79 9b34
00000180: 58bd d034 e7f6 dd34 6bbf f934 8d61 f534
00000190: 37d8 a434 3f43 db32 5583 b0b4 d37a 2bb5
000001a0: 05c4 4f33 3935 17b3 9d0b 8db3 5c3e 01b3
000001b0: 9e48 5a31 f732 d4b2 30e5 7eb3 264e 70b3
000001c0: 29db bbaf 96a9 4933 6f7c a133 a735 0234
000001d0: 19bd 3834 ee1f 4f34 f23f 5434 5b36 6734
000001e0: d363 9334 ac7a e134 1dc6 1535 6926 2c35
000001f0: 620f 4f35 c2a4 6435 7f96 5435 81f5 2335
00000200: d1fd cc34 3a9c 3c34 1238 18b9 1e8e 09b9
00000210: 2fa4 fbb8 253e ecb8 2eed cdb8 713c 90b8
00000220: dd01 17b8 d4ad 3bb7 f6ae 5e36 3d29 6e37
00000230: 58fb bd37 f134 c537 4bb1 9937 d3e0 4b37
00000240: 45c3 7f36 6ba3 11b7 c669 e6b7 ad70 69b8
00000250: e35e adb8 fdad dfb8 60e8 15b9 8600 3bb9
00000260: 148a 4db9 5416 4cb9 d4d1 3cb9 762d 28b9
00000270: d46b 6334 1c1e 2c34 39be 1734 1a6d 3234
00000280: 935b 5d34 48be 7934 d929 8d34 294c a634
00000290: ab0f c834 d796 de34 f683 df34 0bad c834
000002a0: bb68 a634 f32d 8834 ba14 7134 53a1 6834
000002b0: 2ccf 7534 543b 9834 399e b334 48d8 c434
000002c0: 8ad9 da34 0f04 f334 1450 ff34 699c f334
000002d0: 2db8 cc34 4c4f 9a34 119e acb8 1d55 8fb8
000002e0: 884b 80b8 6493 83b8 fa38 86b8 4f65 70b8
000002f0: 00bc 51b8 9a6f 49b8 afdd 58b8 1ae4 5fb8
00000300: f0ac 53b8 95e6 3cb8 0ff2 23b8 d9e9 0cb8
00000310: 318c 08b8 624f 18b8 e4d3 3db8 fb9a 86b8
00000320: 6d11 aeb8 a354 ceb8 ca54 fdb8 b920 15b9
00000330: 317c 1eb9 f2b5 17b9 899c 03b9 374f d4b8
00000340: 04d6 51b5 0263 76b5 4648 7ab5 460a 58b5
00000350: 8db6 2ab5 5d8f 0bb5 c3bd d3b4 1978 64b4
00000360: 2235 1633 fc5a 8034 a269 c334 3faa e734
00000370: 67f5 f534 694c f334 f35d f234 56a5 ed34
00000380: 987a fa34 4c04 2535 db4c 4735 fca4 5035
00000390: 4618 6135 5fa7 5f35 79df 3135 c522 ae34
000003a0: b03c fcb3 0862 0db5 3bf0 1b35 c3ce 1735
000003b0: 9319 1235 1da5 0b35 6f06 0535 f52e fd34
000003c0: efe2 f034 9b80 e334 9a25 cf34 5b9c b734
000003d0: 1224 9c34 14f1 6934 d01a 1534 3081 a833
000003e0: 118d 6333 7c75 7333 f84b 8c33 6084 9233
000003f0: 8eeb af33 cf09 0434 04d5 3634 86cd 8334

exp_avg_sq f4 [16, 26]
5.0548876e-09 5.5477325e-09 5.6386114e-09 5.2980362e-09 4.850313e-09 4.583405e-09 4.312863e-09 3.9039323e-09
3.4629204e-09 3.1043659e-09 2.92387e-09 3.0590954e-09 3.497797e-09 4.0221053e-09 4.3474553e-09 4.3633293e-09
4.231426e-09 4.1216457e-09 3.986356e-09 3.7656185e-09 3.5627665e-09 3.3648178e-09 3.1362912e-09 3.0586649e-09
3.3827081e-09 4.1321178e-09 1.5509304e-08 1.6815193e-08 1.7147691e-08 1.650494e-08 1.568034e-08 1.5268345e-08
1.4718739e-08 1.3674342e-08 1.2427571e-08 1.13107586e-08 1.058407e-08 1.0620159e-08 1.1447968e-08 1.2589338e-08
1.3328567e-08 1.3356049e-08 1.3000664e-08 1.2653518e-08 1.2204626e-08 1.1484955e-08 1.0814849e-08 1.0322692e-08
9.961154e-09 1.0077854e-08 1.1124635e-08 1.3110291e-08 3.6701107e-11 4.219141e-11 4.2405166e-11 3.975824e-11
3.6150215e-11 3.2706043e-11 2.9696252e-11 2.733565e-11 2.6372106e-11 2.8951275e-11 3.365026e-11 3.2007466e-11
2.4632022e-11 1.4889466e-11 6.025889e-12 2.4194854e-12 1.5519546e-12 1.4474831e-12 1.5572465e-12 1.7479488e-12
1.5520124e-12 2.0153415e-12 1.92818e-12 2.7766337e-12 9.398389e-12 2.4170171e-11 1.11885e-12 1.204824e-12
1.2292716e-12 1.1870762e-12 1.1287622e-12 1.0960745e-12 1.0513906e-12 9.714504e-13 8.8196903e-13 8.1578266e-13
7.964538e-13 8.3063233e-13 9.061244e-13 9.945137e-13 1.0498477e-12 1.0534176e-12 1.0275191e-12 9.996515e-13
9.609473e-13 8.9788035e-13 8.311682e-13 7.777714e-13 7.4789334e-13 7.659569e-13 8.456347e-13 9.718903e-13
1.77274e-12 1.541322e-12 1.2824167e-12 1.0447156e-12 8.726585e-13 7.897812e-13 7.5686847e-13 7.2004056e-13
6.856938e-13 6.8304954e-13 7.4571084e-13 9.048185e-13 1.205202e-12 1.6404943e-12 2.1514724e-12 2.6457345e-12
2.9854075e-12 3.0414345e-12 2.9296706e-12 2.7491084e-12 2.578241e-12 2.442885e-12 2.3331547e-12 2.2442458e-12
2.1554234e-12 2.0302605e-12 1.1750871e-08 1.23500765e-08 1.2451248e-08 1.2021398e-08 1.1432832e-08 1.0990866e-08
1.0499067e-08 9.756074e-09 8.923533e-09 8.2113285e-09 7.784276e-09 7.865049e-09 8.467132e-09 9.272003e-09
9.8193365e-09 9.943247e-09 9.832539e-09 9.73528e-09 9.596928e-09 9.364565e-09 9.350512e-09 9.608445e-09
9.79564e-09 9.858762e-09 1.0073955e-08 1.069319e-08 9.669755e-12 1.0467907e-11 1.2647121e-11 1.6343996e-11
2.1809993e-11 2.8057766e-11 3.3084407e-11 3.6732506e-11 3.962102e-11 4.2072724e-11 4.3412027e-11 4.2387045e-11
3.936026e-11 3.699513e-11 3.524814e-11 3.3632284e-11 3.1675332e-11 2.8145875e-11 2.2690284e-11 1.7443654e-11
1.3445781e-11 1.1245295e-11 1.0903446e-11 1.0887307e-11 1.0382599e-11 9.824516e-12 6.057492e-09 6.5518604e-09
6.6304913e-09 6.2743153e-09 5.8155476e-09 5.531895e-09 5.2466698e-09 4.81396e-09 4.346138e-09 3.9663184e-09
3.781898e-09 3.943913e-09 4.4398347e-09 5.018341e-09 5.36482e-09 5.3699334e-09 5.217278e-09 5.1004942e-09
4.9653726e-09 4.756485e-09 4.63146e-09 4.5712483e-09 4.433824e-09 4.3258326e-09 4.523639e-09 5.152355e-09
1.1672154e-12 1.2732473e-12 1.292358e-12 1.2207687e-12 1.1285266e-12 1.0735952e-12 1.0124073e-12 9.199277e-13
8.24202e-13 7.5257037e-13 7.219162e-13 7.552943e-13 8.4772033e-13 9.552928e-13 1.0194723e-12 1.0181004e-12
9.842067e-13 9.53534e-13 9.140553e-13 8.506647e-13 7.85657e-13 7.271771e-13 6.8151794e-13 6.8869384e-13
7.873514e-13 9.661748e-13 1.3787153e-12 1.1636327e-12 8.5361704e-13 5.926446e-13 4.4335857e-13 4.153989e-13
4.6880745e-13 5.4304255e-13 6.0309727e-13 6.003083e-13 5.3805213e-13 4.739649e-13 4.4940348e-13 5.318393e-13
7.1055016e-13 9.31537e-13 1.2069687e-12 1.4967153e-12 1.8372992e-12 2.1515981e-12 2.1692708e-12 1.9773972e-12
00000000: 43af ad31 5f9e be31 c0bd c131 050a b631
00000010: cea7 a631 0f7c 9d31 5830 9431 5a23 8631
00000020: 57f8 6d31 9554 5531 44ed 4831 2d38 5231
00000030: e55d 7031 d032 8a31 9f60 9531 40ec 9531
00000040: 0464 9131 619e 8d31 5cf8 8831 bb62 8131
00000050: dad4 7431 803a 6731 3886 5731 9a30 5231
00000060: 3b75 6831 7efa 8d31 5239 8532 0071 9032
00000070: 2c4c 9332 bfc6 8d32 6fb1 8632 7227 8332
00000080: b3dd 7c32 64ec 6a32 0981 5532 3e51 4232
00000090: 3bd5 3532 f473 3632 b2ac 4432 7e48 5832
000000a0: a8fb 6432 8674 6532 8659 5f32 c362 5932
000000b0: 83ac 5132 5e4f 4532 35cc 3932 ae57 3132
000000c0: 9e21 2b32 df22 2d32 aa1e 3f32 ab3b 6132
000000d0: c669 212e 4e8f 392e f97f 3a2e ccdb 2e2e
000000e0: 86fd 1e2e bbd7 0f2e 029b 022e 6972 f02d
000000f0: b4f8 e72d 7aa8 fe2d d3fe 132e 34c5 0c2e
00000100: 62aa d82d 19f8 822d 6204 d42c 9341 2a2c
00000110: 0f6b da2b 13b7 cb2b b829 db2b 7e00 f62b
00000120: 246d da2b 2ad1 0d2c 01af 072c 6363 432c
00000130: 9556 252d 639a d42d d276 9d2b 5c90 a92b
00000140: 2d01 ad2b ed10 a72b f2db 9e2b 3f42 9a2b
00000150: 57f8 932b 30b8 882b 9140 782b 569f 652b
00000160: 8b2e 602b 5ecd 692b 250d 7f2b 22f7 8b2b
00000170: c0c0 932b 5e41 942b 479c 902b 3eb0 8c2b
00000180: c63d 872b 19bb 7c2b fbf3 692b 56ec 5a2b
00000190: 6583 522b 0399 572b 6706 6e2b 0ac8 882b
000001a0: b17d f92b faeb d82b ee7b b42b d907 932b
000001b0: aca1 752b bc4d 5e2b 1f0a 552b 64ac 4a2b
000001c0: 7201 412b e842 402b 21e6 512b 0baf 7e2b
000001d0: fa9d a92b 09e1 e62b 7b65 172c 512d 3a2c
000001e0: 5214 522c 9d05 562c 4128 4e2c 8973 412c
000001f0: 766d 352c 1be7 2b2c 612e 242c bdec 1d2c
00000200: a8ac 172c ecdd 0e2c e1e0 4932 362c 5432
00000210: 2be9 5532 ab86 4e32 206a 4432 57d2 3c32
00000220: 635f 3432 ab9b 2732 1d4e 1932 ce11 0d32
00000230: 9cbb 0532 da1e 0732 d776 1132 b34a 1f32
00000240: e6b1 2832 ddd2 2a32 f7eb 2832 3740 2732
00000250: bcdf 2432 cbe1 2032 fda3 2032 6312 2532
00000260: ae49 2832 4b5f 2932 b911 2d32 26b5 3732
00000270: b41c 2a2d 4327 382d 927d 5e2d 68c3 8f2d
00000280: bdd7 bf2d 79cc f62d bb81 112e 208d 212e
00000290: 4d41 2e2e ad09 392e 99ed 3e2e 926b 3a2e
000002a0: b71b 2d2e d0b4 222e e105 1b2e 96ea 132e
000002b0: 414f 0b2e e092 f72d fa95 c72d 9e6f 992d
000002c0: 6a8a 6c2d 4ed4 452d c1d0 3f2d 1288 3f2d
000002d0: 12a7 362d b0d5 2c2d 4322 d031 c61e e131
000002e0: 6bd2 e331 7695 d731 19d2 c731 1013 be31
000002f0: 3246 b431 0a68 a531 0955 9531 1b48 8831
00000300: edf1 8131 0783 8731 338d 9831 cb6d ac31
00000310: 7555 b831 6f82 b831 aa43 b331 6c40 af31
00000320: e19b aa31 7c6e a331 c122 9f31 2011 9d31
00000330: 5458 9831 6da2 9431 596e 9b31 9808 b131
00000340: 5e45 a42b 9231 b32b 1be2 b52b d4ce ab2b
00000350: 75d3 9e2b 5818 972b d17b 8e2b e377 812b
00000360: 03fe 672b 69d4 532b 8b33 4b2b b198 542b
00000370: b09c 6e2b 0d72 862b 5c7a 8f2b ef48 8f2b
00000380: c983 8a2b af32 862b 50a4 802b da70 6f2b
00000390: 8e24 5d2b a2ae 4c2b 8bd4 3f2b 9fd9 412b
000003a0: a69e 5d2b 1efa 872b 7409 c22b 49c4 a32b
000003b0: 9745 702b 8bd0 262b b496 f92a 4ad9 e92a
000003c0: 23f5 032b 57da 182b bdc1 292b c6f8 282b
000003d0: be72 172b c568 052b defd fc2a 0fb3 152b
000003e0: 8900 482b 281a 832b a1dd a92b daa4 d22b
000003f0: d749 012c bf67 172c 1ca6 182c 9f25 0b2c

exp_avg f4 [16]
-8.1402315e-05 -1.9311223e-05 -4.442894e-05 -5.1138636e-07 4.6628475e-07 -0.00014831948 6.0825516e-07 -0.00014562378
1.5532002e-07 6.438698e-07 -2.013002e-05 -0.00013467396 -5.075719e-06 -9.086541e-05 -0.00012385972 -0.00014894176
00000000: 89b6 aab8 89fe a1b7 3659 3ab8 3446 09b5
00000010: b055 fa34 3586 1bb9 fa46 2335 96b2 18b9
00000020: 0bc6 2634 65d6 2c35 e4dc a8b7 4437 0db9
00000030: 1850 aab6 ff8e beb8 57e0 01b9 402d 1cb9

exp_avg_sq f4 [16]
1.1413257e-08 3.9919925e-08 5.465684e-11 2.9948698e-12 5.5460163e-12 3.2308563e-08 8.847278e-11 1.5090254e-08
2.744024e-12 2.7591883e-12 3.34755e-08 3.8214594e-08 5.6657604e-12 1.874209e-09 2.4601082e-08 2.3308038e-09
00000000: 0914 4432 6c74 2b33 2262 702e c7be 522c
00000010: 1322 c32c a4c3 0a33 bf8d c22e d29f 8132
00000020: f117 412c 1e29 422c b4c6 0f33 6421 2433
00000030: a258 c72c 6fcb 0031 5a52 d332 ef2b 2031

exp_avg f4 [8, 16]
8.096615e-05 3.434305e-05 7.3126494e-06 1.3914818e-10 -6.3388626e-07 5.8373094e-05 -5.1000132e-08 1.7247716e-05
-2.2993164e-07 -3.0960933e-07 5.8577487e-05 -4.704877e-05 2.3402507e-07 1.9755671e-05 -5.9367234e-05 1.7075155e-05
-0.00034363987 -0.00016102343 3.9404727e-06 1.0435298e-06 9.421161e-07 -0.00015284358 -9.989315e-08 -0.00022365831
2.4468452e-06 3.424028e-07 -0.00031025647 -0.00021511466 1.0049542e-06 0.00034685584 -7.9878344e-05 0.00029838958
3.85931e-06 -1.0990331e-05 4.486078e-06 -2.5850446e-07 -4.9389894e-07 0.00012862543 -4.8939313e-07 2.0496647e-05
1.571186e-07 -3.1450813e-07 -7.044825e-05 -0.0001086403 3.3054485e-07 0.00037766938 2.9673643e-05 0.00027897363
1.970464e-05 1.0665802e-05 1.3410391e-06 2.91096e-07 -2.1781182e-07 -2.9752684e-05 1.2966143e-07 -3.0752188e-05
1.2375513e-07 -1.06818774e-07 4.3439646e-05 -3.6463378e-05 2.5080107e-07 -0.00010614289 -8.919681e-05 -7.465212e-05
-0.00038105337 -0.00017724029 4.1283943e-06 1.2914611e-06 1.0721895e-06 -0.00019469394 -2.250491e-08 -0.0002615811
2.7777505e-06 3.886381e-07 -0.00033085613 -0.00024060084 1.1627752e-06 0.0003248935 -0.000115023664 0.0002846598
1.6227131e-06 5.517146e-07 1.8318103e-07 -1.5851947e-08 -9.646842e-09 3.655529e-06 -8.575914e-09 2.2365048e-06
-1.46830645e-08 -4.853679e-09 -5.3698943e-07 3.3276172e-07 -6.069308e-09 6.6646535e-06 2.9835567e-06 4.814553e-06
-8.8866705e-05 -3.8679682e-05 9.253604e-07 9.290022e-07 4.401963e-08 -0.00012722783 2.3383348e-07 -0.00013366975
1.0785623e-06 -8.439941e-09 -1.8112862e-05 -0.00012423638 7.4802045e-07 -0.00012880402 -0.00019350079 -7.4790594e-05
-7.9165984e-05 -1.9795177e-06 -3.4044522e-05 1.6333206e-06 1.1665929e-06 -0.00047156957 1.3436846e-06 -0.00020942392
8.224328e-07 6.563084e-07 0.0002197227 9.81213e-05 1.4299259e-07 -0.0011637292 -0.0003536258 -0.00087443204
00000000: 5fcc a938 920b 1038 2e5f f536 bbfe 182f
00000010: 5528 2ab5 a2d5 7438 3d0b 5bb3 30af 9037
00000020: 21e3 76b4 6238 a6b4 19b1 7538 3b56 45b8
00000030: 5248 7b34 fbb8 a537 1501 79b8 9e3c 8f37
00000040: 902a b4b9 66d8 28b9 6738 8436 690f 8c35
00000050: bae5 7c35 a344 20b9 d784 d6b3 d285 6ab9
00000060: 7b34 2436 7cd3 b734 eba9 a2b9 6790 61b9
00000070: f7e1 8635 34da b539 5c84 a7b8 2c71 9c39
00000080: 387f 8136 1d63 38b7 1e87 9636 95c8 8ab4
00000090: 7a94 04b5 a0df 0639 d75e 03b5 37f0 ab37
000000a0: 6fb4 2834 abd9 a8b4 9ebd 93b8 d1d5 e3b8
000000b0: bd75 b134 ed01 c639 aaeb f837 3543 9239
000000c0: 644b a537 45f1 3237 c1fd b335 ee47 9c34
000000d0: a8df 69b4 6795 f9b7 1039 0b34 e9fb 00b8
000000e0: 8de1 0434 3e64 e5b3 f732 3638 41f0 18b8
000000f0: d6a5 8634 0899 deb8 2c0f bbb8 8d8e 9cb8
00000100: 1ec8 c7b9 94d9 39b9 a386 8a36 4456 ad35
00000110: 27e8 8f35 c226 4cb9 d250 c1b2 d224 89b9
00000120: 6469 3a36 04a6 d034 c276 adb9 cc49 7cb9
00000130: a710 9c35 7856 aa39 dc38 f1b8 643e 9539
00000140: ffcb d935 8a19 1435 6bb0 4434 cd2a 88b2
00000150: 43bb 25b2 8351 7536 4555 13b2 dc16 1636
00000160: cd40 7cb2 69c5 a6b1 a225 10b5 6ca6 b234
00000170: 338a d0b1 f0a0 df36 1d39 4836 b28c a136
00000180: f35d bab8 fe3b 22b8 4866 7835 8c60 7935
00000190: 1810 3d33 7668 05b9 a813 7b34 b329 0cb9
000001a0: 1ec3 9035 41ff 10b2 13f1 97b7 7345 02b9
000001b0: 93cb 4835 910f 07b9 79e6 4ab9 e5d8 9cb8
000001c0: ea05 a6b8 dbd7 04b6 07cb 0eb8 7838 db35
000001d0: d493 9c35 ff3c f7b9 a758 b435 ce98 5bb9
000001e0: 27c5 5c35 2b2d 3035 5d65 6639 79c6 cd38
000001f0: 8189 1934 4688 98ba da66 b9b9 243a 65ba

exp_avg_sq f4 [8, 16]
1.2234099e-07 1.66282e-08 3.072613e-12 3.6668845e-12 2.1972283e-12 1.2885081e-07 1.2576933e-11 6.885394e-08
6.87364e-12 1.804726e-12 3.407514e-08 1.976298e-08 1.857754e-11 1.201163e-07 7.273011e-08 1.3782056e-08
9.523662e-09 2.1275712e-09 6.4969265e-13 1.5020929e-13 7.843908e-14 4.082252e-09 1.7367458e-12 4.3826383e-09
5.1142993e-13 8.2102734e-14 6.681533e-09 4.1541637e-09 8.360888e-13 6.2180314e-09 2.5495908e-09 3.7792343e-09
1.0281712e-07 1.4298677e-08 2.297526e-12 3.1070593e-12 1.8187292e-12 1.09941055e-07 3.95243e-12 5.7994814e-08
5.750632e-12 1.5766564e-12 3.1579827e-08 1.9799842e-08 1.7224536e-11 1.17383856e-07 6.0509144e-08 2.53277e-08
6.4895914e-08 8.38533e-09 1.0228135e-12 1.8744288e-12 9.947888e-13 6.753305e-08 2.7560627e-11 3.5901973e-08
3.6073481e-12 5.1774416e-13 1.7894244e-08 1.0184027e-08 1.4456617e-11 6.3921526e-08 3.785165e-08 6.8059878e-09
1.9353664e-08 3.788262e-09 8.803841e-13 4.7066214e-13 2.3643855e-13 1.3896864e-08 5.088071e-14 1.022595e-08
1.0986259e-12 3.9435608e-14 1.0151646e-08 6.7291124e-09 4.0087419e-13 1.1601015e-08 8.572609e-09 4.920692e-09
3.8806933e-10 8.920098e-12 1.330139e-14 1.7334177e-14 5.9155816e-13 2.923931e-10 1.016977e-10 4.4293496e-11
1.0544639e-13 5.0690936e-12 4.7951313e-12 5.487167e-13 4.0871638e-12 1.2991654e-09 7.898631e-11 5.7644206e-12
1.6828876e-07 2.222695e-08 2.6860168e-12 4.9593927e-12 2.5350178e-12 1.7629722e-07 2.626271e-12 9.436132e-08
9.374275e-12 5.8229306e-13 4.662815e-08 2.6858816e-08 3.028167e-11 1.6678813e-07 9.918436e-08 1.7902279e-08
1.5659328e-08 1.691647e-09 2.6841784e-11 5.0229563e-13 4.2446965e-13 2.2964345e-08 3.545241e-11 9.344357e-09
9.117944e-13 8.7312265e-13 4.9502673e-09 2.3296307e-09 2.8326382e-12 5.8984728e-08 1.2545548e-08 1.9580499e-08
00000000: d65c 0334 ccd5 8e32 4637 582c 5c04 812c
00000010: bf9d 1a2c 3e5a 0a34 7941 5d2d dbdc 9333
00000020: 3fd8 f12c 1bfe fd2b 035a 1233 41c3 a932
00000030: e768 a32d 51f9 0034 cd2f 9c33 20c6 6c32
00000040: 829d 2332 a134 1231 4adf 362b e11e 292a
00000050: 0da1 b029 de43 8c31 dd6c f42b 1896 9631
00000060: 69f4 0f2b 01e1 b829 6393 e531 69bc 8e31
00000070: 8c56 6b2b 62a6 d531 e034 2f31 7fda 8131
00000080: 4fcc dc33 3fa6 7532 8dac 212c cea3 5a2c
00000090: a0f6 ff2b bc18 ec33 5310 8b2c f915 7933
000000a0: 1755 ca2c 09e5 dd2b 63a2 0733 5014 aa32
000000b0: 3582 972d 7514 fc33 41f1 8133 3490 d932
000000c0: e85c 8b33 120f 1032 bdf2 8f2b b5e6 032c
000000d0: 0b01 8c2b b006 9133 046d f22d a332 1a33
000000e0: 35d8 7d2c 66bb 112b dcb5 9932 d3f5 2e32
000000f0: d152 7e2d 3b45 8933 5492 2233 1ada e931
00000100: 283f a632 e829 8231 5cce 772b c87a 042b
00000110: 631a 852a 0ebf 6e32 7725 6529 34ae 2f32
00000120: 2b9e 9a2b 299a 3129 6967 2e32 e635 e731
00000130: 0fac e12a ce4d 4732 bc46 1332 dd12 a931
00000140: e757 d52f 8dec 1c2d d69d 6f28 e421 9c28
00000150: 4282 262b acbe a02f b7a2 df2e 0bce 422e
00000160: b571 ed29 565a b22c b4b6 a82c 3573 1a2b
00000170: e6cd 8f2c 528e b230 57b1 ad2e 49d1 ca2c
00000180: ddb2 3434 94ed be32 fa02 3d2c 3d7e ae2c
00000190: d262 322c 364c 3d34 b1ce 382c afa3 ca33
000001a0: fbe9 242d a3e6 232b 3144 4833 29b7 e632
000001b0: 212e 052e 5f16 3334 2eff d433 87c7 9932
000001c0: 3a83 8632 8a7f e830 531a ec2d 3762 0d2b
000001d0: 86f4 ee2a 2143 c532 ddeb 1b2e eb88 2032
000001e0: db52 802b 1ec3 752b 0317 aa31 4c17 2031
000001f0: 4654 472c 6556 7d33 e787 5732 f931 a832

exp_avg f4 [8]
5.0044524e-05 -4.8744372e-05 0.00011619554 -1.349599e-05 -7.1029805e-05 2.4852561e-06 -6.136229e-05 -0.0003518967
00000000: e6e6 5138 df72 4cb8 01ae f338 d66c 62b7
00000010: d6f5 94b8 60c8 2636 a1af 80b8 c77e b8b9

exp_avg_sq f4 [8]
7.740094e-08 1.1760461e-09 6.302734e-08 4.1204853e-08 5.7942677e-09 1.8784672e-09 1.0649158e-07 1.919432e-08
00000000: 9e37 a633 72a2 a130 a659 8733 37f9 3033
00000010: eb16 c731 5816 0131 5eb0 e433 c2e0 a432

exp_avg f4 [8, 8]
-0.0001440166 -0.0007017271 -0.000473975 -0.00012266822 -0.00050555175 4.8247466e-07 -0.00019137465 0.00021772506
-9.151709e-05 7.3491065e-05 3.9755658e-05 -8.076051e-05 2.5473779e-05 3.2991565e-07 -8.713902e-05 -0.00031905764
7.864411e-05 -7.2210954e-05 -4.699651e-05 4.617116e-05 -7.64081e-05 -1.7956237e-08 -7.82453e-06 0.00021210592
-2.2549602e-07 1.5697417e-06 1.0712942e-06 -1.2454251e-07 1.1400691e-06 -4.1756892e-10 2.1535989e-07 -1.8446591e-06
1.4800789e-07 8.8007806e-07 6.3197393e-07 1.6403527e-07 6.9325824e-07 -1.1679876e-09 3.8194574e-07 -3.3048912e-07
-0.0006051705 0.0012985087 0.0008061113 -0.00045718078 0.00087489275 1.2131396e-06 -0.00024444694 -0.0025137062
0.00028459655 -0.00047808868 -0.00030458602 0.00019213006 -0.00036872516 -3.0293833e-07 4.0483323e-05 0.0010154856
2.6888583e-06 -8.334245e-06 -5.300378e-06 2.0708499e-06 -5.5177616e-06 -5.290819e-09 9.397307e-07 1.3614979e-05
00000000: 2903 17b9 1cf4 37ba d97f f8b9 80a0 00b9
00000010: 0187 04ba 6883 0135 beab 48b9 204d 6439
00000020: ddec bfb8 371f 9a38 50bf 2638 f85d a9b8
00000030: 86b0 d537 431f b134 68be b6b8 3147 a7b9
00000040: bced a438 f66f 97b8 1e1e 45b8 e8a7 4138
00000050: 493d a0b8 2f3e 9ab2 1a46 03b7 c068 5e39
00000060: e01f 72b4 eaaf d235 63c9 8f35 fcb9 05b4
00000070: 7a04 9935 9a8f e5af ad3d 6734 0196 f7b5
00000080: 19ec 1e34 813e 6c35 eba4 2935 ac21 3034
00000090: 5818 3a35 e986 a0b0 390e cd34 146e b1b4
000000a0: 4ea4 1eba b932 aa3a 3751 533a c4b1 efb9
000000b0: 0f59 653a 29d3 a235 1d29 80b9 febc 24bb
000000c0: e735 9539 faa7 fab9 d8b0 9fb9 8576 4939
000000d0: 7451 c1b9 87a3 a2b4 a3cc 2938 0b1a 853a
000000e0: 3c72 3436 4fd3 0bb7 e6d9 b1b6 eef8 0a36
000000f0: 3625 b9b6 89ca b5b1 cd41 7c35 e46b 6437
