experiments/data/ae/206_UCR_Anomaly_CHARISten_25130_29080_29140.txt-.ckpt (torch, 68322 bytes, 48 tensors)

encoder.0.0.weight f4 [32, 37]
0.056865435 -0.024178833 0.15211421 0.21032783 0.045170657 0.11097165 -0.07201883 0.21134676
-0.09533503 0.10821571 -0.010942934 0.16956268 0.08522039 0.12023767 -0.066070795 0.2254891
0.17269376 0.0780671 0.011985346 0.1619998 0.1455378 -0.071786046 0.07353172 0.1160371
0.052686736 0.16830559 0.17660147 0.040481452 0.12967601 0.20479353 0.17918517 -0.075441465
0.10763061 -0.06189107 0.042510647 0.037147596 -0.059705596 0.023023143 -0.032383498 -0.056321353
0.07131642 -0.098041855 0.10539092 0.19678241 0.10408471 0.11421718 -0.02166928 -0.03567942
-0.024808118 -0.11828409 -0.062179536 -0.1028066 -0.118749514 -0.015162137 0.1011447 0.1728319
0.18766938 -0.06173102 0.14695768 -0.043495234 -0.11979291 0.025906561 0.14943773 0.055876296
0.08254529 0.15324771 -0.054758977 0.11534983 0.046530373 0.19858567 0.04584097 0.011478006
-0.115081474 -0.07209487 0.06630933 0.031560104 0.055846337 0.08250404 -0.068930335 0.053615984
-0.13218087 0.040588457 -0.041632615 -0.08128897 -0.08691463 0.062097676 -0.17663115 0.13706307
-0.05405781 0.061877824 -0.091711774 0.10012092 -0.099606745 -0.08495113 -0.09911936 -0.03081381
-0.035800226 0.07878624 -0.046260614 -0.042092104 0.093918644 -0.13202442 -0.09334033 -0.1863325
0.067601636 0.12493482 0.0135068875 0.10388651 -0.1531813 -0.005174413 -0.061157998 -0.007187123
-0.007212861 0.07908369 -0.048681952 0.17292297 -0.009240596 -0.088497005 -0.062749006 -0.043881435
0.007640978 -0.03998107 0.016065223 0.17573488 0.14607483 0.16919225 0.12293386 0.1890612
-0.090206295 0.091361746 0.085747756 0.20438178 0.028373854 -0.038562763 0.17314458 0.13545574
-0.07483742 0.16362834 -0.026544578 0.17810081 0.096663654 -0.048200067 0.20643893 0.1880881
-0.026647825 0.10223525 0.091728 0.14743516 0.13883828 0.19909239 -0.089180976 0.17165247
0.114345625 -0.011623093 0.050467514 0.1880536 0.03178385 0.046793457 0.21499613 0.021360883
-0.04187195 0.03449849 0.06721362 0.07509354 0.022424076 0.16883866 0.04107105 0.16710192
0.089899845 0.030317822 0.0121254325 0.022659479 0.08543118 -0.037841763 0.0558788 0.1690136
3.1937572e-05 0.08902142 0.15927592 0.13671096 0.04627879 -0.0961213 0.10528078 0.21516845
0.05919725 0.025228646 -0.10103223 0.016279908 -0.1329606 -0.06943056 -0.16192354 -0.08162822
0.025588064 -0.15985876 -0.06584115 -0.18779081 -0.20034143 0.065132566 0.036912594 -0.033380155
-0.019677924 0.10260999 -0.11037618 0.012216222 -0.1411218 -0.035676327 -0.18936852 -0.01693032
0.06716796 -0.08481141 -0.114299074 -0.16664062 -0.14835007 0.07147404 -0.027587676 0.0094253775
-0.21614695 -0.06853893 -0.05122804 -0.11494012 -0.061837528 -0.006804916 0.026142126 0.061379716
0.08835212 0.07807714 0.20644568 0.013103199 -0.08159235 0.22578342 0.15292819 0.004453862
0.2207506 0.16330156 0.108574286 0.18655424 0.12160821 0.11501931 0.03877534 -0.07839882
0.051720954 0.22783934 0.21535227 -0.0066768853 0.18815495 -0.07874063 0.08851823 0.10705486
0.12299383 0.1564123 -0.05010844 0.12921327 -0.00015759264 -0.0131048905 0.06808927 0.16802798
00000000: bbeb 683d b012 c6bc d4c3 1b3e 2e60 573e
00000010: de04 393d 1b45 e33d 9c7e 93bd 496b 583e
00000020: 033f c3bd 33a0 dd3d fe49 33bc d7a1 2d3e
00000030: 0788 ae3d 2b3f f63d 2050 87bd 9de6 663e
00000040: a2d6 303e a5e1 9f3d 2f5e 443c 47e3 253e
00000050: dc07 153e 9004 93bd cc97 963d dca4 ed3d
00000060: 0cce 573d 4d58 2c3e 04d7 343e e1cf 253d
00000070: cac9 043e 65b5 513e 517c 373e 0e81 9abd
00000080: 706d dc3d 7e81 7dbd a51f 2e3d 1428 183d
00000090: db8d 74bd 089b bc3c 8fa4 04bd 38b1 66bd
000000a0: 580e 923d 2bca c8bd 32d7 d73d 5481 493e
000000b0: 5d2a d53d b2ea e93d c683 b1bc 9524 12bd
000000c0: 653a cbbc ee3e f2bd f8af 7ebd 448c d2bd
000000d0: f232 f3bd 9d6a 78bc f424 cf3d d8fa 303e
000000e0: 672c 403e abd9 7cbd 137c 163e 0f28 32bd
000000f0: fc55 f5bd ff39 d43c 3406 193e 8bde 643d
00000100: 810d a93d f8ec 1c3e f34a 60bd 883c ec3d
00000110: a296 3e3d 0b5a 4b3e bec3 3b3d 3f0e 3c3c
00000120: d6af ebbd 7aa6 93bd 30cd 873d 2b45 013d
00000130: 21bf 643d e1f7 a83d 592b 8dbd 6f9c 5b3d
00000140: 6c5a 07be 1540 263d f686 2abd d57a a6bd
00000150: 4c00 b2bd 225a 7e3d ccde 34be 435a 0c3e
00000160: b96b 5dbd 9a73 7d3d 62d3 bbbd 320c cd3d
00000170: 9ffe cbbd dcfa adbd 17ff cabd 3e6d fcbc
00000180: 42a3 12bd ae5a a13d c57b 3dbd c568 2cbd
00000190: 6b58 c03d 6931 07be 3729 bfbd f2cd 3ebe
000001a0: ba72 8a3d d4dd ff3d fe4b 5d3c 73c2 d43d
000001b0: 8fdb 1cbe 1f8e a9bb cf80 7abd f581 ebbb
000001c0: dd59 ecbb a1f6 a13d ba66 47bd b812 313e
000001d0: de65 17bc eb3d b5bd 8d82 80bd 05bd 33bd
000001e0: 2b61 fa3b 31c3 23bd 379b 833c d8f3 333e
000001f0: a494 153e bc40 2d3e bfc4 fb3d 4299 413e
00000200: 14be b8bd de1b bb3d 859c af3d 7549 513e
00000210: 4970 e83c fdf3 1dbd d04c 313e e9b4 0a3e
00000220: 5c44 99bd 308e 273e 0474 d9bc 0f60 363e
00000230: 98f7 c53d 6f6d 45bd ba64 533e 2b9a 403e
00000240: 8a4c dabc b760 d13d e4db bb3d 3ef9 163e
00000250: 9f2b 0e3e e0de 4b3e 84a4 b6bd aac5 2f3e
00000260: 0a2e ea3d c96e 3ebc 06b7 4e3d 1f91 403e
00000270: c82f 023d 7faa 3f3d f227 5c3e 05fd ae3c
00000280: ec81 2bbd 4a4e 0d3d 4ba7 893d a4ca 993d
00000290: b2b2 b73c 0be4 2c3e 1e3a 283d c41c 2b3e
000002a0: 691d b83d 155d f83c c0a9 463c 5fa0 b93c
000002b0: 8bf6 ae3d f7ff 1abd 2be1 643d e711 2d3e
000002c0: b5f4 0538 dd50 b63d 3a19 233e f5fd 0b3e
000002d0: d48e 3d3d 3edb c4bd 739d d73d 1e55 5c3e
000002e0: d178 723d 4eac ce3c fce9 cebd 715d 853c
000002f0: d326 08be 9c31 8ebd 49cf 25be b22c a7bd
00000300: 0f9e d13c 04b2 23be bad7 86bd 3c4c 40be
00000310: 4e26 4dbe 3964 853d a931 173d a1b9 08bd
00000320: 9933 a1bc 3025 d23d e80c e2bd 8c26 483c
00000330: 3c82 10be 5721 12bd d2e9 41be 74b1 8abc
00000340: 5b8f 893d 9bb1 adbd a215 eabd d7a3 2abe
00000350: 15e9 17be fb60 923d 8dff e1bc e66c 1a3c
00000360: a055 5dbe 235e 8cbd 7ed4 51bd ba65 ebbd
00000370: 5949 7dbd c6fb debb 0328 d63c 4c69 7b3d
00000380: f5f1 b43d e8e6 9f3d 7f66 533e cdae 563c
00000390: e419 a7bd c533 673e 3599 1c3e b4f1 913b
000003a0: 720c 623e 8638 273e 325c de3d 1308 3f3e
000003b0: ba0d f93d 3e8f eb3d e4d2 1e3d 8f8f a0bd
000003c0: 5ad9 533d b74e 693e 4e85 5c3e c6c9 dabb
000003d0: b1ab 403e c442 a1bd 0c49 b53d 943f db3d
000003e0: 30e4 fb3d 8c2a 203e 823e 4dbd 7c50 043e
000003f0: 743f 25b9 e5b5 56bc 6372 8b3d 870f 2c3e

encoder.0.0.bias f4 [32]
0.14935942 -0.094542705 0.08478256 -0.05921316 0.0485024 0.09625591 -0.045848012 -0.08494255
-0.1438309 -0.0144150825 0.10352745 -0.035435304 -0.0057859714 0.04985115 -0.13763261 0.11351037
-0.08087767 0.09903735 0.075994365 -0.20810436 0.16168706 -0.043173324 0.061986376 -0.09997097
0.12654513 0.10258131 0.08640838 -0.14487725 -0.041688368 0.09998037 -0.10167023 -0.07809215
00000000: adf1 183e 9b9f c1bd 7ba2 ad3d 8089 72bd
00000010: 74aa 463d d221 c53d 20cb 3bbd 5cf6 adbd
00000020: 6848 13be 3d2d 6cbc 3306 d43d 9c24 11bd
00000030: 3f98 bdbb b830 4c3d 90ef 0cbe 2078 e83d
00000040: 31a3 a5bd 18d4 ca3d efa2 9b3d 4f19 55be
00000050: 4b91 253e 83d6 30bd 6de5 7d3d 94bd ccbd
00000060: 0c95 013e 2616 d23d e0f6 b03d b45a 14be
00000070: 6cc1 2abd 82c2 cc3d 7b38 d0bd c7ee 9fbd

encoder.1.0.weight f4 [16, 32]
-0.10111692 0.1694663 -0.07541076 -0.066793494 -0.0036585808 0.20526357 -0.10932238 0.19242975
-0.12890512 0.02471052 0.034108777 0.044504803 -0.21607877 0.05422829 -0.1718905 -0.104412794
-0.046199825 0.10482994 0.093076415 0.14693783 -0.1372839 -0.17953643 0.025098829 0.01873111
0.05122763 0.15055011 0.09570633 0.09146269 0.05806448 -0.0817704 0.16929916 -0.033576548
0.072088294 -0.13794085 -0.010970734 -0.11384009 0.012056625 -0.008885202 -0.064782456 0.015568836
0.05786245 -0.20859064 -0.09325892 0.11570405 -0.102819644 -0.1944205 0.07190627 -0.08479055
-0.18332617 -0.08363101 0.0009888192 -0.14586937 -0.00950695 -0.015152603 -0.15811768 -0.10219961
-0.0566871 0.19255456 0.13458046 0.07584899 -0.15561138 0.14234485 0.019244224 0.019183652
0.18267384 -0.031055016 -0.061840165 0.21006234 -0.06843315 0.08955588 0.14492145 -0.17905678
-0.073365435 -0.05879651 -0.092018224 0.09446045 0.14661527 -0.23300843 0.12874912 0.047118366
0.099052265 -0.14229223 -0.047407217 -0.17987905 0.12943193 -0.042607054 -0.036884967 -0.02499098
-0.017831448 -0.11237388 0.063630275 -0.073943265 0.09693253 0.0035394402 -0.13484646 0.08039568
-0.10928108 -0.10230938 0.1425177 -0.10420974 0.1015042 -0.14320938 -0.124021135 -0.014341095
-0.10319449 -0.11066238 -0.14501268 -0.13802303 -0.061333586 -0.091925405 0.0498667 -0.14418295
-0.055909608 0.17683685 0.023105362 0.16392204 0.14384244 -0.0226272 -0.14612606 0.10362479
-0.17761175 0.072362885 -0.06912277 -0.089574456 -0.09828975 -0.070991874 -0.09536211 0.13387135
0.0054983958 0.13502344 0.006987004 0.091969065 0.19223966 -0.03386225 0.24000666 -0.06834458
-0.10105162 -0.056843754 0.17971845 0.017222341 0.13116363 0.035082728 0.018053733 0.18928361
-0.19228342 0.1228683 -0.1822598 -0.22958645 0.072428346 0.0110974815 -0.030030143 -0.06442322
0.09202975 0.14480181 -0.19944756 0.022048406 0.03004212 0.023443088 -0.15791437 -0.19342145
-0.11289709 0.12037112 -0.08325587 0.10049806 0.14317034 0.07350826 0.13794442 -0.08292228
-0.057501514 -0.1804357 -0.12490995 0.16867651 0.028726393 -0.14007589 0.090627596 -0.005171106
-0.16554436 -0.036039095 -0.10400556 0.10503773 0.14736636 -0.105922036 0.17290427 -0.091921285
0.05168655 -0.04493549 0.091001764 -0.09329257 -0.059633344 -0.03732131 -0.018565152 0.021222074
0.08846083 0.1730797 -0.121557236 0.0077853403 -0.03915462 0.13023582 -0.10389329 0.11142012
0.0049758684 0.1624163 -0.0066365045 -0.016771842 -0.17193423 -0.057642926 0.090865724 0.12391549
-0.11115252 -0.15264927 -0.1490601 0.14166982 0.06797084 -0.007978659 -0.14505489 0.108726144
-0.13605694 0.1254312 0.14869794 -0.14464395 0.1876794 0.07249448 -0.039865747 -0.1475932
-0.026905786 0.017420761 -0.09577067 -0.16611782 0.10510058 0.10221784 -0.06268873 -0.0076777907
0.19941089 -0.026503954 0.11684533 -0.14297573 0.11139061 0.09085942 -0.08616772 -0.11554768
0.02901093 0.030703923 0.16779983 -0.0059992066 0.07675911 -0.0037758928 0.06749261 -0.14346491
-0.10251986 -0.16505942 -0.037215512 0.19635367 0.09810677 0.1442908 0.08058828 0.01214285
00000000: 6316 cfbd 9388 2d3e f570 9abd 07cb 88bd
00000010: cdc4 6fbb 9d30 523e 69e4 dfbd 4e0c 453e
00000020: b4ff 03be b76d ca3c a5b5 0b3d ab4a 363d
00000030: c143 5dbe 7c1e 5e3d 1004 30be 60d6 d5bd
00000040: 073c 3dbd 14b1 d63d d99e be3d df76 163e
00000050: 2794 0cbe 66d8 37be 0f9c cd3c fc71 993c
00000060: 10d4 513d cf29 1a3e ae01 c43d ca50 bb3d
00000070: 05d5 6d3d 3d77 a7bd c25c 2d3e 9087 09bd
00000080: 07a3 933d 5e40 0dbe 98be 33bc fe24 e9bd
00000090: 2789 453c 3d93 11bc aaac 84bd 6e14 7f3c
000000a0: 2d01 6d3d c998 55be 88fe bebd 3ff6 ec3d
000000b0: 1b93 d2bd 2b16 47be 9843 933d aba6 adbd
000000c0: dbb9 3bbe bc46 abbd 449b 813a c85e 15be
000000d0: 0ac3 1bbc a042 78bc 9ae9 21be 074e d1bd
000000e0: bc30 68bd 062d 453e 76cf 093e b756 9b3d
000000f0: 9758 1fbe d9c2 113e 10a6 9d3c 0927 9d3c
00000100: da0e 3b3e 1767 febc 1d4c 7dbd 951a 573e
00000110: ae26 8cbd 1369 b73d 4a66 143e a95a 37be
00000120: 9e40 96bd 9cd4 70bd 0d74 bcbd 7b74 c13d
00000130: 5022 163e c399 6ebe cfd6 033e 30ff 403d
00000140: eadb ca3d 0eb5 11be 122e 42bd 3732 38be
00000150: ce89 043e bc84 2ebd b114 17bd e2b9 ccbc
00000160: 4213 92bc 4724 e6bd 9750 823d 916f 97bd
00000170: 9084 c63d f4f5 673b 3115 0abe 7ea6 a43d
00000180: c2ce dfbd 9587 d1bd 29f0 113e eb6b d5bd
00000190: 6fe1 cf3d 7ba5 12be cbfe fdbd eaf6 6abc
000001a0: a257 d3bd f5a2 e2bd 347e 14be e955 0dbe
000001b0: ed38 7bbd 6343 bcbd 0641 4c3d b2a4 13be
000001c0: 7901 65bd b814 353e 7547 bd3c 2edb 273e
000001d0: 6f4b 133e ae5c b9bc 12a2 15be 3c39 d43d
000001e0: dbdf 35be fe32 943d 3d90 8dbd d072 b7bd
000001f0: 234c c9bd 3064 91bd 364d c3bd 9215 093e
00000200: e32b b43b 9643 0a3e 3df3 e43b 475a bc3d
00000210: 79da 443e 25b3 0abd 4ec4 753e 3ef8 8bbd
00000220: 27f4 cebd ffd4 68bd 1d08 383e de15 8d3c
00000230: c24f 063e e8b2 0f3d 6ce5 933c 90d3 413e
00000240: f2e5 44be 60a2 fb3d 50a2 3abe b618 6bbe
00000250: 5055 943d 36d2 353c c601 f6bc 52f0 83bd
00000260: 187a bc3d ed46 143e fb3b 4cbe dc9e b43c
00000270: e41a f63c b80b c03c 4eb4 21be 4610 46be
00000280: 9736 e7bd 2285 f63d 0e82 aabd edd1 cd3d
00000290: 3f9b 123e 808b 963d 4d41 0d3e 28d3 a9bd
000002a0: b586 6bbd 23c4 38be cad0 ffbd 89b9 2c3e
000002b0: 9d53 eb3c 0e70 0fbe f69a b93d 6272 a9bb
000002c0: 7684 29be bb9d 13bd de00 d5bd 051e d73d
000002d0: 35e7 163e a7ed d8bd d10d 313e 3a41 bcbd
000002e0: 47b5 533d 470e 38bd 225f ba3d 2d10 bfbd
000002f0: 1842 74bd 3bde 18bd f215 98bc ead9 ad3c
00000300: f42a b53d ce3b 313e 00f3 f8bd 2b1c ff3b
00000310: 9860 20bd 8a5c 053e 01c6 d4bd 3b30 e43d
00000320: 9c0c a33b 7550 263e 0977 d9bb 1a65 89bc
00000330: 870f 30be fd1a 6cbd cf17 ba3d 68c7 fd3d
00000340: efa3 e3bd 1750 1cbe 36a3 18be e511 113e
00000350: 4c34 8b3d ecb8 02bc 4589 14be d0ab de3d
00000360: 8352 0bbe 0971 003e 4644 183e 8b1d 14be
00000370: 072f 403e fc77 943d 444a 23bd ac22 17be
00000380: 8669 dcbc fcb5 8e3c 6a23 c4bd ca1a 2abe
00000390: f93e d73d 9657 d13d f362 80bd fa95 fbbb
000003a0: 5e32 4c3e d21e d9bc 9b4c ef3d 3b68 12be
000003b0: c320 e43d 8114 ba3d b478 b0bd 43a4 ecbd
000003c0: 54a8 ed3c cb86 fb3c b8d3 2b3e fe94 c4bb
000003d0: e133 9d3d f874 77bb 9139 8a3d 77e8 12be
000003e0: eff5 d1bd 5605 29be 4b6f 18bd f010 493e
000003f0: 34ec c83d f8c0 133e 780b a53d cef2 463c

encoder.1.0.bias f4 [16]
-0.006534933 0.128316 0.23408496 0.12756084 -0.06163744 0.043716095 0.01602017 -0.16123207
-0.026644468 0.1446492 -0.07915682 -0.13038924 0.124559544 -0.18432052 0.0069107474 0.052622028
00000000: fe22 d6bb 4565 033e f8b3 6f3e 4f9f 023e
00000010: 8a77 7cbd a60f 333d bb3c 833c 051a 25be
00000020: 8045 dabc eb1e 143e f91c a2bd c284 05be
00000030: 1319 ff3d 85be 3cbe 8d73 e23b 328a 573d

encoder.2.0.weight f4 [8, 16]
0.028125178 0.09749797 0.12196495 -0.13330013 -0.14470032 -0.14664337 -0.1783238 -0.10095485
0.008186229 -0.063963465 -0.05034749 -0.0032962845 0.17122075 -0.039939284 -0.11437662 -0.23158115
-0.15453342 -0.12546873 -0.16238889 -0.18656223 -0.011194176 0.10106564 0.022616806 0.14563496
0.19071648 -0.12183101 -0.1960247 0.20273899 0.17232287 0.14232256 0.13215011 -0.24934857
-0.13662602 0.12817872 0.078256935 0.03169988 0.23565994 -0.037867285 0.052867167 -0.17788652
0.20979957 0.23074976 0.20794627 -0.13605683 0.2906669 -0.14949732 -0.020677475 -0.180964
-0.15773684 0.19817653 -0.21210721 0.012288596 -0.017374432 0.010428434 -0.16538213 -0.1301169
0.074194945 -0.15850239 -0.18222591 0.03216111 0.18485928 0.19399315 -0.1298132 0.000981145
-0.1721404 0.055552855 0.21037406 -0.06623668 0.29681605 0.25362656 -0.18254301 -0.21433167
0.050938204 0.19590773 0.0859884 -0.19818582 0.29654828 -0.011108281 0.16672087 -0.22465825
0.17202704 0.17281076 -0.2883759 0.12025739 0.005630906 -0.19747424 0.061208997 -0.21799451
0.053763554 -0.1705335 -0.13476562 0.15137227 0.097338535 0.046706248 -0.03516699 -0.10600313
-0.0013265865 -0.16798584 0.013601844 -0.19918197 -0.28135738 -0.26452753 0.052280996 0.056150265
0.0049079317 0.10787617 -0.24919777 -0.044515043 0.0874916 0.027647983 -0.039082255 -0.24039471
-0.2585992 -0.1456724 0.03031192 -0.15982062 -0.19223358 -0.16200832 0.202189 -0.20613956
0.13657978 -0.054750152 -0.076339595 0.22046675 0.02084766 0.20776078 0.1878682 0.18625797
00000000: c666 e63c 04ad c73d c2c8 f93d d47f 08be
00000010: 522c 14be ae29 16be 849a 36be 6bc1 cebd
00000020: 881f 063c 47ff 82bd 2b39 4ebd 7a06 58bb
00000030: 7e54 2f3e 6097 23bd 4a3e eabd 9c23 6dbe
00000040: 023e 1ebe e07a 00be 4649 26be 2b0a 3fbe
00000050: c767 37bc 81fb ce3d e146 b93c 5521 153e
00000060: 2e4b 433e 8982 f9bd b3ba 48be cf9a 4f3e
00000070: 6875 303e 01bd 113e 5c52 073e 3b55 7fbe
00000080: b1e7 0bbe 4841 033e 2c45 a03d bcd7 013d
00000090: d750 713e ba1a 1bbd 3e8b 583d e227 36be
000000a0: b3d5 563e aa49 6c3e deef 543e 7b52 0bbe
000000b0: 4bd2 943e d315 19be cf63 a9bc a04e 39be
000000c0: c485 21be caee 4a3e a232 59be 1b56 493c
000000d0: d354 8ebc 06dc 2a3c ef59 29be 5d3d 05be
000000e0: 85f3 973d 734e 22be 6e99 3abe 5ebb 033d
000000f0: c04b 3d3e 24a6 463e c0ed 04be c399 803a
00000100: 9345 30be 648b 633d 4c6c 573e 19a7 87bd
00000110: 46f8 973e 57db 813e 8eec 3abe c379 5bbe
00000120: 94a4 503d 099c 483e b01a b03d 39f1 4abe
00000130: 2dd5 973e 82ff 35bc e0b8 2a3e d00c 66be
00000140: db27 303e 4ef5 303e 02a6 93be 8249 f63d
00000150: 7783 b83b b036 4abe 49b6 7a3d f439 5fbe
00000160: 2c37 5c3d 55a0 2ebe 0000 0abe 5501 1b3e
00000170: 6d59 c73d 0d4f 3f3d 430b 10bd 2b18 d9bd
00000180: dbe0 adba 7b04 2cbe 45da 5e3c 5cf6 4bbe
00000190: 130e 90be 2770 87be 9924 563d d2fd 653d
000001a0: b7d2 a03b 2eee dc3d b32d 7fbe 6855 36bd
000001b0: cc2e b33d 067e e23c b714 20bd 082a 76be
000001c0: 1d67 84be 252b 15be b450 f83c 04a8 23be
000001d0: e1d8 44be 82e5 25be a20a 4f3e 4016 53be
000001e0: 92db 0b3e b241 60bd ef57 9cbd 09c2 613e
000001f0: b6c8 aa3c 3ebf 543e 8560 403e 69ba 3e3e

encoder.2.0.bias f4 [8]
-0.30221373 -0.15750778 0.060645808 0.11660655 -0.10636744 -0.04773619 -0.2606707 -0.16884041
00000000: c2bb 9abe b849 21be bd67 783d 6acf ee3d
00000010: 2cd7 d9bd 0687 43bd a176 85be 80e4 2cbe

encoder.3.weight f4 [5, 8]
0.39399502 0.16890183 0.25505584 -0.13430269 -0.30203912 0.0998621 -0.012472952 0.19026613
0.19071941 0.116442114 -0.25316307 0.25350484 0.20228964 -0.25422844 0.102032475 -0.2226889
-0.18329585 -0.17051028 -0.390173 0.2008193 -0.19515261 0.13396646 -0.05549212 0.014171191
0.29532692 -0.3352222 0.30865195 0.05593092 -0.23653886 0.20250235 0.044077206 -0.0835099
0.3916593 -0.18072452 -0.19418216 0.22704034 -0.18321076 0.24010476 0.359377 -0.16146083
00000000: b7b9 c93e 9af4 2c3e ae96 823e a586 09be
00000010: dfa4 9abe 8084 cc3d 5a5b 4cbc 20d5 423e
00000020: f34b 433e 3479 ee3d 979e 81be 63cb 813e
00000030: 0425 4f3e 3b2a 82be 67f6 d03d 8f08 64be
00000040: e8b1 3bbe 3f9a 2ebe c1c4 c7be 93a3 4d3e
00000050: 16d6 47be 812e 093e b54b 63bd 482e 683c
00000060: 1735 973e 3fa2 abbe a107 9e3e d217 653d
00000070: 3e37 72be c75c 4f3e 4d8a 343d 3d07 abbd
00000080: 9187 c83e d90f 39be b0d7 46be 437d 683e
00000090: 9a9b 3bbe 06de 753e 4300 b83e fd55 25be

encoder.3.bias f4 [5]
-0.24339662 -0.083716474 -0.32697856 0.27591223 -0.20917146
00000000: f73c 79be 8b73 abbd bc69 a7be 5e44 8d3e
00000010: 0b31 56be

decoder.0.0.weight f4 [8, 5]
0.3531347 0.18617079 -0.33852908 -0.1378428 0.003965742 -0.16543481 0.187394 -0.4460177
0.1344306 0.001247359 -0.34473732 -0.012978392 0.1808197 -0.33574933 0.5084404 0.33720756
0.17168297 -0.3704109 -0.012682348 -0.05346999 -0.072877824 0.106109336 -0.015706459 -0.40151235
0.080666825 -0.09736211 -0.40154755 -0.21492787 -0.27439886 -0.26008022 -0.24852921 0.22503786
0.08794574 0.2122423 -0.30709842 -0.16712391 -0.101966605 0.23925781 0.032475855 -0.23973379
00000000: 12ce b43e 8ea3 3e3e af53 adbe aa26 0dbe
00000010: 0ef3 813b be67 29be 36e4 3f3e 6f5c e4be
00000020: 2da8 093e 6c7e a33a 6981 b0be 52a3 54bc
00000030: cd28 393e 56e7 abbe 2629 023f 78a6 ac3e
00000040: a9cd 2f3e 7fa6 bdbe 9fc9 4fbc 5903 5bbd
00000050: f840 95bd da4f d93d d5aa 80bc 0793 cdbe
00000060: a634 a53d c965 c7bd a497 cdbe 0d16 5cbe
00000070: 027e 8cbe 3c29 85be 717e 7ebe 5370 663e
00000080: e51c b43d 0c56 593e 013c 9dbe 8822 2bbe
00000090: ded3 d0bd 0000 753e 6705 053d c67c 75be

decoder.0.0.bias f4 [8]
-0.26913655 0.38876998 -0.08873865 -0.027969094 0.13713071 0.2414097 0.2348463 0.19220576
00000000: 44cc 89be dc0c c73e 9cbc b5bd 711f e5bc
00000010: fe6b 0c3e 1b34 773e 8c7b 703e 96d1 443e

decoder.1.0.weight f4 [16, 8]
-0.3222134 0.330008 -0.056734823 0.2929231 -0.33242294 0.16421317 -0.20044072 0.30817366
-0.18586262 0.39534262 -0.21460487 -0.0078559 -0.10681326 0.025689885 0.39823848 0.15758187
-0.10449448 -0.2564609 0.25159335 0.26357064 0.2423659 0.09761767 0.0072365785 -0.14510313
0.037248697 -0.19268572 0.29175258 -0.0659874 0.07568801 -0.030547393 -0.082507856 0.15151168
0.21134534 0.18428655 -0.33761907 0.090133704 0.23947603 0.36623162 0.19848733 0.32814056
0.3465761 0.21995215 -0.08266218 -0.19747028 -0.11341635 -0.20879743 0.14457801 -0.1171316
0.19494869 -0.33886674 0.1318447 -0.01944678 0.0960052 -0.14936487 -0.3606107 -0.34415013
0.16021965 0.19077864 0.05304679 -0.27455005 -0.2828511 -0.1103115 -0.053285386 -0.0012107544
-0.13173702 0.17004237 -0.14601415 -0.019497836 -0.2469774 -0.16946343 -0.25434753 0.2975081
-0.162609 -0.2796431 -0.00057246257 0.048564877 0.08406657 -0.18061501 0.16319713 0.18742537
-0.11599307 -0.27638268 0.18896165 0.15238714 -0.13353007 0.13986017 0.02476362 -0.015420939
-0.21245493 0.0427118 0.30393556 -0.13041 0.22832552 -0.31162304 0.32118532 -0.09808553
-0.113605134 0.3758072 -0.048259553 0.32276168 -0.31319585 0.34908274 0.33232898 0.18903904
0.05130106 -0.1593266 -0.15455712 0.08529742 0.18341032 0.36645052 -0.21899556 0.14315875
-0.32601368 0.35544378 0.07569455 0.28871635 0.13182959 -0.19820714 -0.2708282 0.20812535
0.10062503 0.27971637 -0.26529092 -0.12377249 -0.14929588 -0.2686383 -0.19622785 -0.033569075
00000000: 28f9 a4be cff6 a83e c662 68bd 04fa 953e
00000010: 5733 aabe 7f27 283e 5540 4dbe f0c8 9d3e
00000020: c552 3ebe 596a ca3e 61c1 5bbe 08b6 00bc
00000030: e9c0 dabd 9873 d23c eae5 cb3e 245d 213e
00000040: 3401 d6bd d84e 83be d8d0 803e bbf2 863e
00000050: c42e 783e c6eb c73d d220 ed3b ea95 14be
00000060: 1792 183d 684f 45be 9860 953e 6724 87bd
00000070: 5102 9b3d 873e fabc e1f9 a8bd e125 1b3e
00000080: ea6a 583e 9db5 3c3e 68dc acbe 0598 b83d
00000090: 3439 753e b682 bb3e 4340 4b3e 0a02 a83e
000000a0: 6c72 b13e 233b 613e ca4a a9bd a635 4abe
000000b0: d546 e8bd fece 55be 420c 143e b1e2 efbd
000000c0: a1a0 473e f17f adbe 4c02 073e db4e 9fbc
000000d0: 609e c43d 1bf3 18be f7a1 b8be 7234 b0be
000000e0: 9f10 243e 7a5b 433e 9747 593d d391 8cbe
000000f0: dcd1 90be ffea e1bd c741 5abd 2db2 9eba
00000100: 12e6 06be 961f 2e3e bc84 15be edb9 9fbc
00000110: a5e7 7cbe d287 2dbe d739 82be fb52 983e
00000120: f982 26be 612d 8fbe 5011 16ba f7eb 463d
00000130: 182b ac3d 24f3 38be 261d 273e 70ec 3f3e
00000140: c68d edbd 0882 8dbe 2a7f 413e 600b 1c3e
00000150: 1bbc 08be 8137 0f3e 13dd ca3c 1ba8 7cbc
00000160: c98d 59be 92f2 2e3d 719d 9b3e 338a 05be
00000170: 2ace 693e 0e8d 9fbe 6772 a43e 11e1 c8bd
00000180: cfa9 e8bd cd69 c03e cfab 45bd 0541 a53e
00000190: 355b a0be f9ba b23e 0627 aa3e 7393 413e
000001a0: 0f21 523d 8326 23be 3944 1ebe 6ab0 ae3d
000001b0: eacf 3b3e 679f bb3e 5f40 60be 3598 123e
000001c0: 44eb a6be bafc b53e bf05 9b3d a1d2 933e
000001d0: 56fe 063e d0f6 4abe fea9 8abe d01e 553e
000001e0: 7f14 ce3d fc36 8f3e 36d4 87be 6e7c fdbd
000001f0: 05e1 18be f68a 89be f4ef 48be ba7f 09bd

decoder.1.0.bias f4 [16]
0.2992899 0.17261358 0.21577927 0.09177837 0.12354046 -0.12106219 -0.14180422 0.061564196
0.29514152 -0.12852594 0.25263286 -0.27810115 0.08777951 -0.11633035 0.31786177 -0.24811457
00000000: 873c 993e 9dc1 303e 3ef5 5c3e 4cf6 bb3d
00000010: c802 fd3d 74ef f7bd 2035 11be bd2a 7c3d
00000020: ca1c 973e 4e9c 03be 1859 813e 4663 8ebe
00000030: bec5 b33d 9b3e eebd c7be a23e bf11 7ebe

decoder.2.0.weight f4 [32, 16]
-0.2416838 -0.12726381 0.056151316 0.022792282 0.14464384 0.06645733 0.0027337146 0.09908304
0.05732872 0.24917908 -0.0083693415 0.27223888 -0.23890884 0.16104311 0.018794922 0.18030165
0.123658545 0.034663863 0.029886864 -0.14767775 0.1806188 0.08895076 0.021368159 -0.11215923
-0.047198553 0.037584875 -0.18317989 -0.044392075 0.08275074 0.11833503 0.09232619 0.07426913
-0.21696287 -0.2783493 -0.003069674 0.31662565 -0.07324334 -0.0752408 0.022462998 -0.28061363
-0.021834522 0.091339305 0.15563415 -0.005623579 -0.26255822 -0.008158065 -0.26383042 0.30105522
-0.09762162 0.10659104 0.12295897 -0.15760677 0.1581567 -0.12638265 -0.09556992 -0.015887173
0.027846327 -0.05846026 0.067429565 -0.037660576 -0.14570267 -0.08594631 -0.19822256 0.08641337
-0.032803334 -0.19032492 -0.017996145 0.191069 -0.27667895 0.05884388 0.039208945 0.05461158
-0.097901486 0.14496024 -0.20169237 0.08037324 -0.08913187 0.26404077 0.0011459205 0.12155831
0.25809368 0.2246736 0.0990777 -0.28854015 0.2917386 -0.10253258 -0.26493013 0.13648655
-0.028006377 -0.11466696 0.21199124 0.04900863 -0.05880654 -0.16192293 -0.023939265 -0.24192257
-0.26212424 0.017096352 0.071242094 0.08111312 -0.085903265 -0.16092655 0.25508776 0.112769015
0.20680647 0.23139651 -0.17800643 -0.024835078 0.15170811 -0.10680414 -0.16428183 0.01463125
-0.0069911587 -0.17628427 -0.19745813 0.13517177 -0.004493658 -0.17055993 0.26566932 -0.117802195
0.20595296 0.08799786 -0.1121879 -0.19921795 0.1489312 0.026695535 0.015293127 0.049856074
0.27796248 0.21236606 0.14342827 0.06261947 0.21305406 0.10571381 -0.1714429 0.17427161
-0.07716344 -0.2511914 0.103972495 -0.19245139 0.15834934 0.0802852 0.21718507 0.16660321
0.1668253 0.14492051 0.19870126 0.27933463 -0.21359192 -0.06419122 0.007868836 0.031038923
-0.051432423 0.047788985 0.16488212 0.12776673 -0.25022402 0.17739578 -0.11841828 0.11470615
-0.14474356 -0.21242778 0.10985444 -0.118174754 0.10391913 -0.019027285 0.24616829 0.022256654
0.14267741 -0.22179335 -0.23787393 0.1113057 -0.19912496 -0.061060924 0.12418021 0.018295268
0.16618831 -0.1419603 -0.13853876 -0.02736468 0.22574654 -0.13739027 0.08626214 -0.1482631
0.05252142 -0.15584664 -0.05512938 0.0721566 0.1115557 0.10650586 0.21416536 0.08324162
0.13356216 0.16462904 0.12745169 -0.2534104 0.16509315 0.090791106 -0.29379222 0.112263195
0.1923685 -0.18835162 0.15045653 0.106904484 0.22170468 -0.18107678 0.23386878 -0.0400871
-0.06166622 -0.0579752 -0.25264886 0.09546997 -0.30109897 0.25173905 -0.038643375 -0.25833124
-0.2022564 0.2960579 -0.29690143 0.220206 0.0020091196 0.030314993 0.11310316 0.15466376
-0.045868378 0.23371986 0.07565639 -0.15785912 -0.041764278 -0.21628295 -0.10485963 0.23264977
-0.064328745 -0.041809864 -0.105766416 0.09515127 -0.04410822 0.1906941 -0.12609434 -0.030756805
-0.08304974 0.061228614 0.28057805 -0.13192499 -0.083435215 -0.10788852 -0.08809885 0.28369108
-0.013166159 -0.31177264 0.06084251 -0.08771565 0.26257324 -0.010040082 0.10107187 -0.09799928
00000000: f57b 77be 7251 02be ecfe 653d e1b6 ba3c
00000010: 841d 143e c81a 883d 1f28 333b 0dec ca3d
00000020: 85d1 6a3d cd28 7f3e 901f 09bc e562 8b3e
00000030: 85a4 74be 7ce8 243e cff7 993c ffa0 383e
00000040: b140 fd3d b2fb 0d3d 4cd5 f43c d638 17be
00000050: 22f4 383e d12b b63d 470c af3c bdb3 e5bd
00000060: 4553 41bd 99f2 193d 8293 3bbe 77d4 35bd
00000070: 3879 a93d a359 f23d 8315 bd3d 6a1a 983d
00000080: 842b 5ebe cd83 8ebe 952c 49bb c21c a23e
00000090: 9b00 96bd d917 9abd 5204 b83c 97ac 8fbe
000000a0: 50de b2bc 1a10 bb3d 8f5e 1f3e 0046 b8bb
000000b0: 086e 86be 68a9 05bc c814 87be e923 9a3e
000000c0: d8ed c7bd 674c da3d ead1 fb3d ab63 21be
000000d0: d4f3 213e 746a 01be 2aba c3bd d125 82bc
000000e0: fb1d e43c 0774 6fbd 8318 8a3d fa41 1abd
000000f0: 1533 15be 9e04 b0bd dbfa 4abe 7ef9 b03d
00000100: ca5c 06bd 89e4 42be a76c 93bc 98a7 433e
00000110: dda8 8dbe 4806 713d 8f99 203d 64b0 5f3d
00000120: 9380 c8bd 7570 143e 7288 4ebe ba9a a43d
00000130: c58a b6bd 5a30 873e b632 963a 90f3 f83d
00000140: db24 843e d610 663e 40e9 ca3d 89bb 93be
00000150: c35e 953e 9afc d1bd eca4 87be 21c3 0b3e
00000160: a16d e5bc 83d6 eabd 3b14 593e 46bd 483d
00000170: 20df 70bd 20cf 25be 471c c4bc 8dba 77be
00000180: 2635 86be a60d 8c3c 60e7 913d a31e a63d
00000190: 0dee afbd eec9 24be dd9a 823e 71f3 e63d
000001a0: 13c5 533e 35f3 6c3e 5147 36be ef72 cbbc
000001b0: 5f59 1b3e 21bc dabd 7f39 28be e9b7 6f3c
000001c0: 1716 e5bb dd83 34be 7732 4abe 786a 0a3e
000001d0: 893f 93bb 43a7 2ebe cf05 883e 4742 f1bd
000001e0: 55e5 523e 3938 b43d c5c2 e5bd caff 4bbe
000001f0: 6c81 183e 98b0 da3c 0690 7a3c e235 4c3d
00000200: 1951 8e3e 7d76 593e dcde 123e a33e 803d
00000210: d82a 5a3e 7b80 d83d ba8e 2fbe 4274 323e
00000220: de07 9ebd 299c 80be 88ef d43d fa11 45be
00000230: 5426 223e 916c a43d c365 5e3e 089a 2a3e
00000240: 40d4 2a3e 0b66 143e 5878 4b3e f304 8f3e
00000250: d7b7 5abe b076 83bd 4aec 003c 5745 fe3c
00000260: ceaa 52bd 62be 433d dcd6 283e 48d5 023e
00000270: 5d1d 80be 3da7 353e 4885 f2bd 0feb ea3d
00000280: a837 14be ab86 59be 5dfb e03d 9b05 f2bd
00000290: 8ed3 d43d 1cdf 9bbc 8a13 7c3e 9653 b63c
000002a0: 071a 123e cc1d 63be 3995 73be 3ef4 e33d
000002b0: 6ae7 4bbe 051b 7abd 3252 fe3d f5df 953c
000002c0: 452d 2a3e 0a5e 11be 1bdd 0dbe e52b e0bc
000002d0: 1a2a 673e 09b0 0cbe 34aa b03d 48d2 17be
000002e0: b320 573d 4396 1fbe 58cf 61bd d7c6 933d
000002f0: 5177 e43d bf1f da3d 2a4e 5b3e 957a aa3d
00000300: 85c4 083e 8494 283e b282 023e 02bf 81be
00000310: 2e0e 293e b0f0 b93d ef6b 96be 3fea e53d
00000320: 40fc 443e 3fdf 40be 4711 1a3e bdf0 da3d
00000330: 8d06 633e 316c 39be 4c7b 6f3e 5f32 24bd
00000340: b895 7cbd 6777 6dbd 315b 81be c285 c33d
00000350: a529 9abe f1e3 803e 8448 1ebd fe43 84be
00000360: 4d1c 4fbe e794 973e 7703 98be af7d 613e
00000370: 6fab 033b 2657 f83c a1a2 e73d 2d60 1e3e
00000380: 7be0 3bbd 4254 6f3e bdf1 9a3d d2a5 21be
00000390: 0511 2bbd 4779 5dbe a5c0 d6bd be3b 6e3e
000003a0: cabe 83bd d240 2bbd 109c d8bd abde c23d
000003b0: d2aa 34bd 5045 433e e01e 01be b2f5 fbbc
000003c0: fb15 aabd dbca 7a3d eda7 8f3e 5817 07be
000003d0: 15e0 aabd a8f4 dcbd 2b6d b4bd f53f 913e
000003e0: e0b6 57bc aaa0 9fbe ff35 793d 43a4 b3bd
000003f0: 0070 863e 287f 24bc c5fe ce3d d9b3 c8bd

decoder.2.0.bias f4 [32]
-0.20887461 -0.21299581 -0.14724109 -0.1807231 -0.1863554 0.11412992 -0.20941597 -0.17606272
-0.19261284 -0.15672642 0.07112582 0.16632237 0.04108318 -0.16613819 0.22649632 0.2309349
0.018645985 0.067951776 -0.05922185 0.10839547 0.1428606 -0.087867536 0.14474407 0.23685667
-0.13308424 0.24171624 -0.20495398 -0.2050961 -0.120804705 0.20827185 0.12622996 0.073053844
00000000: 3ae3 55be 931b 5abe 5ec6 16be 7a0f 39be
00000010: f3d3 3ebe f3bc e93d 2471 56be c949 34be
00000020: 4d3c 45be e47c 20be 6aaa 913d 6950 2a3e
00000030: d646 283d 2120 2abe a7ee 673e 337a 6c3e
00000040: 77bf 983c 4d2a 8b3d 9c92 72bd 72fe dd3d
00000050: 0d4a 123e e5f3 b3bd ca37 143e 8e8a 723e
00000060: 3c47 08be 7684 773e 75df 51be b604 52be
00000070: 7568 f7bd 3745 553e 6d42 013e 419d 953d

decoder.3.weight f4 [37, 32]
-0.24130636 0.20562513 -0.11615442 0.062397808 -0.17539412 0.20093934 -0.16837907 0.107617155
-0.031402282 0.002495097 -0.15001245 0.1803099 -0.08076445 -0.11007639 -0.054516308 0.025174817
0.0017187353 0.20245883 -0.076430194 -0.083192535 0.08576746 0.053048722 -0.06151984 0.14311814
0.072417766 -0.08009533 -0.2046802 -0.1668823 -0.19528122 0.077425465 0.13753082 0.20912758
-0.030575955 -0.07053904 -0.09960618 -0.21647063 0.06321155 0.0017496914 -0.024463493 -0.12655535
0.22278492 -0.09777265 -0.031448457 0.100997046 0.003583283 -0.1583147 -0.05869264 0.104571275
0.11712578 -0.08296104 0.019262647 0.02386011 0.10293907 0.0549995 -0.09494236 -0.08652959
0.06894612 0.10584836 -0.06426412 -0.02000305 -0.043448083 0.18926805 0.07697861 -0.040981524
-0.1482078 0.07613908 0.004606767 0.0650834 -0.25857198 0.035114598 -0.07857671 -0.12147379
0.15238614 0.007852971 0.1274051 0.17910239 0.022443868 0.08205025 0.23466273 -0.063124806
-0.07791718 0.05256239 -0.14054228 0.100628875 0.049348235 0.05518659 0.17756842 0.070660084
-0.023609687 -0.042523097 -0.18836759 0.035055257 0.009605193 0.02484706 0.19038482 -0.0013253045
0.059899796 0.002105213 0.07868869 -0.22499712 -0.24290214 0.15303919 -0.10380507 -0.20585002
0.16620603 -0.022622833 -0.08820918 0.12571664 -0.037303004 -0.21657145 0.026031228 0.14610074
0.18618006 0.06785416 0.11596373 0.06641321 0.12508464 -0.06323923 0.21617965 0.14177701
-0.2239455 -0.03507136 -0.11801021 -0.048129957 -0.00886195 -0.10570644 -0.10596168 0.10229429
0.031406913 0.024256323 0.08277948 -0.11043989 0.03408733 0.09953851 -0.10636913 0.02880613
0.14373952 0.1040202 0.055011272 0.22925028 0.084340595 0.121579684 -0.07498788 -0.10437558
0.002521772 0.008878111 0.095475726 -0.0369158 0.1901623 -0.15840569 -0.036785077 -0.10889836
-0.14242186 -0.033445034 -0.09308385 -0.11917958 -0.13670267 -0.098752774 0.19455107 0.13040897
0.079574555 0.11000564 -0.0074359966 0.088112585 -0.11034182 0.009857928 -0.20454597 0.09540276
0.17344202 -0.026145032 -0.013054112 -0.0901536 0.19049978 0.0736309 0.16464268 -0.044330176
0.08134264 -0.06786339 0.09195605 0.07572585 -0.08195795 -0.008291543 0.16421682 0.23149508
-0.18984415 0.07832183 -0.14808032 -0.09899244 -0.12731068 -0.010890089 0.19557224 0.20123722
-0.2087032 -0.060253255 -0.16956732 0.033985876 0.10961027 0.15342544 0.0020058905 -0.20087482
0.084526435 -0.05706472 0.08229762 -0.06613872 -0.11595163 -0.19129266 0.22800499 0.18651742
-0.047515213 0.22679704 -0.17352022 -0.021135246 0.094947375 -0.20671837 -0.037191965 0.17388423
-0.029698523 0.08876532 -0.00074128597 -0.21318126 0.020965528 -0.002167436 -0.07964883 0.14646892
-0.2402052 0.111621745 0.037711322 0.021886718 -0.16521269 -0.004690078 0.037595525 -0.17507464
0.0054275887 -0.22170204 -0.15118432 0.22567385 0.27078915 -0.16479869 0.067920946 -0.06401409
0.24605969 0.28666347 -0.19117977 -0.03315644 -0.012287803 -0.15588856 -0.02044889 -0.000507119
-0.049436543 0.026838377 -0.12029072 -0.09755795 -0.22922009 -0.01671243 0.0025429942 -0.044673502
00000000: 0419 77be 658f 523e 5ee2 edbd d894 7f3d
00000010: 849a 33be 0bc3 4d3e 906b 2cbe 6266 dc3d
00000020: ae9f 00bd c884 233b dd9c 19be 29a3 383e
00000030: d567 a5bd bb6f e1bd 7e4c 5fbd 6b3b ce3c
00000040: 3047 e13a 5e51 4f3e 6f87 9cbd d960 aabd
00000050: daa6 af3d 9e49 593d 3afc 7bbd 908d 123e
00000060: c44f 943d 0509 a4bd b097 51be 32e3 2abe
00000070: cdf7 47be 3e91 9e3d e1d4 0c3e 8a25 563e
00000080: 6d7a fabc c676 90bd 53fe cbbd 7aaa 5dbe
00000090: 0f75 813d e755 e53a aa67 c8bc ba97 01be
000000a0: bb21 643e 073d c8bd 19d0 00bd 8ad7 ce3d
000000b0: 83d5 6a3b 401d 22be b267 70bd 7729 d63d
000000c0: a4df ef3d 7ae7 a9bd b3cc 9d3c 4776 c33c
000000d0: b8d1 d23d 2847 613d 2471 c2bd 6d36 b1bd
000000e0: a033 8d3d 06c7 d83d e89c 83bd 70dd a3bc
000000f0: 9ef6 31bd 7ccf 413e f6a6 9d3d 3edc 27bd
00000100: c9c3 17be ceee 9b3d 5df4 963b 724a 853d
00000110: 8c63 84be 53d4 0f3d d3ec a0bd 40c7 f8bd
00000120: 1d0b 1c3e bfa9 003c 7c76 023e 9e66 373e
00000130: 34dc b73c f609 a83d 6d4b 703e 9447 81bd
00000140: 0b93 9fbd a94b 573d 51ea 0fbe 8316 ce3d
00000150: 6021 4a3d 550b 623d 7fd4 353e 3cb6 903d
00000160: 1a69 c1bc b32c 2ebd 6fe3 40be 1a96 0f3d
00000170: 195f 1d3c 108c cb3c 3df4 423e d7b5 adba
00000180: 7d59 753d 9df7 093b 8927 a13d a565 66be
00000190: 57bb 78be 4eb6 1c3e c197 d4bd 59ca 52be
000001a0: ea31 2a3e 8553 b9bc 04a7 b4bd ddbb 003e
000001b0: 09cb 18bd e8c4 5dbe 713f d53c 6f9b 153e
000001c0: fca5 3e3e 1ff7 8a3d 647e ed3d a603 883d
000001d0: 3016 003e 9283 81bd 335e 5d3e fe2d 113e
000001e0: f851 65be fda6 0fbd 56af f1bd eb23 45bd
000001f0: b631 11bc 9e7c d8bd 7002 d9bd ab7f d13d
00000200: 89a4 003d 32b5 c63c 4a88 a93d 4f2e e2bd
00000210: 289f 0b3d d9da cb3d 0fd8 d9bd d5fa eb3c
00000220: 7430 133e 8b08 d53d 8053 613d 96c0 6a3e
00000230: c3ba ac3d c5fe f83d 3f93 99bd ddc2 d5bd
00000240: 5044 253b 7f75 113c c788 c33d 0635 17bd
00000250: e8b9 423e 1a35 22be f3ab 16bd 1a06 dfbd
00000260: 09d7 11be a9fd 08bd bfa2 bebd 6c14 f4bd
00000270: c9fb 0bbe e53e cabd 6538 473e ee89 053e
00000280: fcf7 a23d a34a e13d a9a9 f3bb 5f74 b43d
00000290: e4fa e1bd 2683 213c 8074 51be 8662 c33d
000002a0: c99a 313e 1b2e d6bc eae0 55bc 73a2 b8bd
000002b0: 6012 433e cccb 963d 1798 283e 8f93 35bd
000002c0: f896 a63d f6fb 8abd 7453 bc3d 2816 9b3d
000002d0: 92d9 a7bd 41d9 07bc 7428 283e 0c0d 6d3e
000002e0: 8166 42be 3267 a03d 5ea2 17be 8cbc cabd
000002f0: bb5d 02be 586c 32bc 1744 483e 2111 4e3e
00000300: 4bb6 55be 1ecc 76bd 0ea3 2dbe c634 0b3d
00000310: 597b e03d 8f1b 1d3e 4275 033b 21b2 4dbe
00000320: 321c ad3d b2bc 69bd a88b a83d bd73 87bd
00000330: 0c78 edbd 39e2 43be 247a 693e 6cfe 3e3e
00000340: 509f 42bd 7c3d 683e 49af 31be d323 adbc
00000350: c573 c23d fbad 53be 9a56 18bd b50e 323e
00000360: 514a f3bc 98ca b53d dc52 42ba 304c 5abe
00000370: e6bf ab3c 8b0b 0ebb ed1e a3bd f3fb 153e
00000380: 5af8 75be f199 e43d 3077 1a3d c64b b33c
00000390: 842d 29be 3aaf 99bb c4fd 193d c446 33be
000003a0: ead9 b13b dc05 63be 10d0 1abe 0c17 673e
000003b0: e0a4 8a3e fdc0 28be 231a 8b3d d219 83bd
000003c0: 12f7 7b3e 8ec5 923e a1c4 43be 0ccf 07bd
000003d0: c852 49bc 40a1 1fbe 6e84 a7bc 2ef0 04ba
000003e0: f97d 4abd 28dc db3c fb5a f6bd 76cc c7bd
000003f0: acb8 6abe 82e8 88bc 5da8 263b 90fb 36bd

decoder.3.bias f4 [37]
-0.08488328 0.15068851 -0.030766545 -0.06757663 -0.004327756 -0.11992091 0.132019 -0.09692864
0.09600177 -0.016677622 0.18156181 -0.098649584 -0.0726332 0.13069932 0.03810013 0.08124966
-0.04893491 -0.10181391 0.024439815 0.07789641 -0.11678402 -0.11309521 0.08726812 -0.008365092
0.18460067 -0.03326497 0.19789912 0.09189988 0.20769693 0.10565529 -0.07750088 0.019622423
-0.047254506 -0.09786312 0.0017655336 -0.040751576 -0.014293482
00000000: 49d7 adbd 174e 1a3e 1f0a fcbc 9e65 8abd
00000010: d9cf 8dbb 1899 f5bd fd2f 073e 8682 c6bd
00000020: 939c c43d 829f 88bc 57eb 393e cb08 cabd
00000030: b7c0 94bd 0bd6 053e e20e 1c3d 3966 a63d
00000040: f96f 48bd d083 d0bd 0236 c83c 2788 9f3d
00000050: 762c efbd 769e e7bd a1b9 b23d bd0d 09bc
00000060: f507 3d3e d940 08bd 11a6 4a3e 0136 bc3d
00000070: 81ae 543e cd61 d83d c8b8 9ebd 34bf a03c
00000080: f18d 41bd 766c c8bd 7a69 e73a 20eb 26bd
00000090: 352f 6abc

exp_avg f4 [32, 37]
-1.0268263e-05 -1.0358735e-05 -1.0424275e-05 -1.0453545e-05 -1.0436786e-05 -1.0396392e-05 -1.0351226e-05 -1.0301659e-05
-1.0231997e-05 -1.0161011e-05 -1.0080875e-05 -1.001602e-05 -9.956106e-06 -9.908424e-06 -9.878204e-06 -9.867056e-06
-9.850788e-06 -9.816666e-06 -9.74911e-06 -9.665184e-06 -9.583356e-06 -9.486969e-06 -9.3865665e-06 -9.2770015e-06
-9.17531e-06 -9.087905e-06 -9.02944e-06 -9.012418e-06 -9.046443e-06 -9.1304255e-06 -9.254447e-06 -9.3982035e-06
-9.554638e-06 -9.704227e-06 -9.832381e-06 -9.9646795e-06 -1.0077775e-05 -3.123294e-06 -3.1529828e-06 -3.1723796e-06
-3.1814589e-06 -3.1812137e-06 -3.1760376e-06 -3.169152e-06 -3.1576044e-06 -3.1400778e-06 -3.1203565e-06 -3.1018658e-06
-3.0871427e-06 -3.0737478e-06 -3.0623742e-06 -3.0565598e-06 -3.0557364e-06 -3.054074e-06 -3.045809e-06 -3.0291128e-06
-3.009697e-06 -2.9880187e-06 -2.9625612e-06 -2.931209e-06 -2.8968755e-06 -2.8615239e-06 -2.830359e-06 -2.8067568e-06
-2.7948136e-06 -2.7968458e-06 -2.8135244e-06 -2.8430577e-06 -2.8791844e-06 -2.9187383e-06 -2.9557978e-06 -2.9936755e-06
-3.029327e-06 -3.0655272e-06 4.1243624e-08 4.1619423e-08 4.1872823e-08 4.2008264e-08 4.1943014e-08 4.1835136e-08
4.1721297e-08 4.152695e-08 4.1290193e-08 4.1013983e-08 4.0764586e-08 4.0507725e-08 4.0317413e-08 4.0136594e-08
4.0058517e-08 4.0011017e-08 3.9976033e-08 3.98481e-08 3.9620232e-08 3.9306403e-08 3.900841e-08 3.8659646e-08
3.825126e-08 3.7799047e-08 3.7356074e-08 3.7021177e-08 3.6740047e-08 3.6640674e-08 3.6708606e-08 3.6973283e-08
3.744934e-08 3.7973358e-08 3.8519158e-08 3.9042025e-08 3.955872e-08 4.00203e-08 4.0493322e-08 -1.282556e-05
-1.2945573e-05 -1.3020589e-05 -1.3047979e-05 -1.3040498e-05 -1.3004951e-05 -1.29501295e-05 -1.2883375e-05 -1.2809306e-05
-1.27245e-05 -1.2632925e-05 -1.25480965e-05 -1.2489714e-05 -1.2427269e-05 -1.2398877e-05 -1.2376293e-05 -1.2365698e-05
-1.2319263e-05 -1.2245126e-05 -1.213506e-05 -1.20479e-05 -1.1934324e-05 -1.1803279e-05 -1.1664213e-05 -1.153421e-05
-1.1429954e-05 -1.1349695e-05 -1.1321152e-05 -1.1356774e-05 -1.1448816e-05 -1.16029805e-05 -1.1775527e-05 -1.1953519e-05
-1.2133636e-05 -1.2289745e-05 -1.2445603e-05 -1.2594136e-05 -1.4133393e-05 -1.4262076e-05 -1.4352771e-05 -1.4383421e-05
-1.4364073e-05 -1.4314536e-05 -1.4266131e-05 -1.4198845e-05 -1.4116688e-05 -1.4020042e-05 -1.3918505e-05 -1.3831508e-05
-1.3755125e-05 -1.3692796e-05 -1.3660773e-05 -1.36452245e-05 -1.362329e-05 -1.3577905e-05 -1.3491245e-05 -1.3388935e-05
-1.3274267e-05 -1.3146689e-05 -1.3008532e-05 -1.2858486e-05 -1.2720149e-05 -1.260654e-05 -1.2516728e-05 -1.2480822e-05
-1.2519212e-05 -1.2622203e-05 -1.2781731e-05 -1.2974474e-05 -1.3176772e-05 -1.3365269e-05 -1.3549791e-05 -1.3713012e-05
-1.3875494e-05 4.8443077e-08 4.8941917e-08 4.9263015e-08 4.9338983e-08 4.923197e-08 4.8962523e-08 4.8704223e-08
4.833441e-08 4.8015362e-08 4.7599602e-08 4.7146568e-08 4.676262e-08 4.6401908e-08 4.6149598e-08 4.59359e-08
4.5821835e-08 4.5706454e-08 4.546591e-08 4.5101206e-08 4.463656e-08 4.4146887e-08 4.3655188e-08 4.3112234e-08
4.257715e-08 4.2159268e-08 4.1775618e-08 4.1537163e-08 4.1539472e-08 4.1803744e-08 4.232127e-08 4.3048505e-08
4.3901217e-08 4.47625e-08 4.5556437e-08 4.627002e-08 4.691522e-08 4.7517883e-08 -1.2438502e-05 -1.256063e-05
-1.2635376e-05 -1.2663089e-05 -1.2660853e-05 -1.2620237e-05 -1.25860815e-05 -1.25341285e-05 -1.2456988e-05 -1.2377758e-05
-1.2299637e-05 -1.2232427e-05 -1.2170822e-05 -1.2120721e-05 -1.2095056e-05 -1.2087703e-05 -1.2070754e-05 -1.2031474e-05
-1.1957987e-05 -1.1873541e-05 -1.17879445e-05 -1.168124e-05 -1.1555437e-05 -1.1422566e-05 -1.1295102e-05 -1.1182109e-05
-1.110736e-05 -1.1067729e-05 -1.1093868e-05 -1.117508e-05 -1.1305227e-05 -1.1456333e-05 -1.1625013e-05 -1.1785339e-05
00000000: db45 2cb7 6eca 2db7 ece3 2eb7 a261 2fb7
00000010: a819 2fb7 2a6c 2eb7 2daa 2db7 4ad5 2cb7
00000020: 18aa 2bb7 3679 2ab7 0721 29b7 7a0a 28b7
00000030: 2609 27b7 5b3c 26b7 90ba 25b7 af8a 25b7
00000040: d044 25b7 42b2 24b7 1c90 23b7 a627 22b7
00000050: 33c8 20b7 392a 1fb7 ff7a 1db7 6ba4 1bb7
00000060: a8ef 19b7 4178 18b7 267d 17b7 0a34 17b7
00000070: 2dc6 17b7 e12e 19b7 8c43 1bb7 faac 1db7
00000080: dc4c 20b7 56cf 22b7 c1f5 24b7 f92d 27b7
00000090: b713 29b7 c899 51b6 d597 53b6 11e5 54b6
000000a0: 0c81 55b6 d67c 55b6 e923 55b6 9ead 54b6
000000b0: 3be7 53b6 20ba 52b6 5167 51b6 a629 50b6
000000c0: b52c 4fb6 9646 4eb6 3083 4db6 4c1f 4db6
000000d0: 2711 4db6 98f4 4cb6 9a66 4cb6 c347 4bb6
000000e0: 33fa 49b6 c585 48b6 6ad0 46b6 cab5 44b6
000000f0: f167 42b6 9b08 40b6 33f1 3db6 b75b 3cb6
00000100: 888e 3bb6 72b1 3bb6 fbcf 3cb6 5ccb 3eb6
00000110: 0338 41b6 8bdf 43b6 385c 46b6 f4e6 48b6
00000120: 714b 4bb6 5bb9 4db6 d823 3133 0ac1 3233
00000130: a8d7 3333 936c 3433 d524 3433 38ae 3333
00000140: 0d31 3333 5d5b 3233 0c57 3133 5a27 3033
00000150: 2315 2f33 b7fa 2d33 7729 2d33 a762 2c33
00000160: ce0c 2c33 94d8 2b33 1db2 2b33 7325 2b33
00000170: e82a 2a33 d9d1 2833 338a 2733 bb0a 2633
00000180: b549 2433 7e58 2233 7071 2033 3701 1f33
00000190: 1ccc 1d33 d95e 1d33 8aa9 1d33 8ecc 1e33
000001a0: fcd7 2033 2618 2333 4370 2533 29af 2733
000001b0: 46e7 2933 c9e2 2b33 e1ea 2d33 5c2d 57b7
000001c0: d030 59b7 0173 5ab7 a5e8 5ab7 83c8 5ab7
000001d0: d72f 5ab7 6244 59b7 ad25 58b7 8de7 56b7
000001e0: 507b 55b7 00f2 53b7 aa85 52b7 ea8a 51b7
000001f0: b77e 50b7 c504 50b7 c6a3 4fb7 4576 4fb7
00000200: d5ae 4eb7 6a70 4db7 b097 4bb7 5621 4ab7
00000210: 8839 48b7 b306 46b7 6ab1 43b7 0e83 41b7
00000220: 47c3 3fb7 926a 3eb7 faef 3db7 f988 3eb7
00000230: 4a14 40b7 6caa 42b7 818f 45b7 f98b 48b7
00000240: 9291 4bb7 0e30 4eb7 75cd 50b7 674b 53b7
00000250: 761e 6db7 2647 6fb7 afcc 70b7 5350 71b7
00000260: 39fd 70b7 7728 70b7 9158 6fb7 9337 6eb7
00000270: b7d6 6cb7 9f37 6bb7 8683 69b7 e00d 68b7
00000280: d0c5 66b7 1cba 65b7 9330 65b7 cbed 64b7
00000290: 968f 64b7 a8cc 63b7 7558 62b7 0aa1 60b7
000002a0: 8bb4 5eb7 9990 5cb7 383f 5ab7 c7ba 57b7
000002b0: a068 55b7 ad80 53b7 f0fe 51b7 b964 51b7
000002c0: 9b09 52b7 f3c3 53b7 1e71 56b7 f1ac 59b7
000002d0: ce11 5db7 653b 60b7 e953 63b7 f010 66b7
000002e0: cbca 68b7 ba0f 5033 3534 5233 4295 5333
000002f0: c9e8 5333 2073 5333 dd4a 5233 dc2e 5133
00000300: 3f98 4f33 7339 4e33 5170 4c33 337e 4a33
00000310: 0bd8 4833 704b 4733 0536 4633 0e4b 4533
00000320: a4cd 4433 c74e 4433 4c46 4333 4db5 4133
00000330: 6bb6 3f33 049c 3d33 637f 3b33 672a 3933
00000340: 12de 3633 9b12 3533 c76c 3333 9866 3233
00000350: 2269 3233 b48b 3333 bac4 3533 55e4 3833
00000360: e68d 3c33 e440 4033 d5a9 4333 6dba 4633
00000370: d47f 4933 7716 4c33 f6ae 50b7 7fbb 52b7
00000380: 87fc 53b7 8e73 54b7 f369 54b7 81bb 53b7
00000390: cf28 53b7 ac49 52b7 5bfe 50b7 11aa 4fb7
000003a0: 8a5a 4eb7 e039 4db7 4831 4cb7 1a5a 4bb7
000003b0: dfeb 4ab7 4acc 4ab7 7e83 4ab7 cada 49b7
000003c0: 2a9f 48b7 7834 47b7 d6c4 45b7 8bfa 43b7
000003d0: 39de 41b7 8ca3 3fb7 1880 3db7 cb9a 3bb7
000003e0: bf59 3ab7 89af 39b7 cd1f 3ab7 9a7c 3bb7
000003f0: 95ab 3db7 9334 40b7 0d09 43b7 a5b9 45b7
