experiments/data/numenta_vae/ambient_temperature_system_failure.csv-.ckpt (torch, 64107 bytes, 102 tensors)

encoder.0.0.weight f4 [16, 32]
-0.09318886 -0.057946194 -0.08372441 -0.13788743 0.04860126 -0.134413 -0.11763409 -0.07881083
-0.03366214 -0.07677284 0.048512474 -0.05836373 -0.14909558 -0.120373935 -0.12987164 0.102686994
-0.05781602 0.1586931 0.14307982 -0.006134469 -0.0678418 -0.1537148 -0.10027881 -0.027968451
-0.16663624 0.041841608 -0.06898969 0.015746154 0.19358246 -0.088350035 0.07308996 -0.0037916403
-0.0899926 0.1439218 -0.061885506 -0.16030392 -0.059432745 -0.07910646 0.026795058 -0.009211542
0.16672306 0.008869706 0.14897794 -0.11161366 0.046477377 -0.05349894 -0.014429553 -0.15852723
-0.13939345 -0.027417134 0.14677203 0.027620915 0.12824558 0.11727479 0.09844712 -0.075725645
0.0039844285 -0.10788645 -0.046182062 -0.08350797 -0.062126294 -0.050968774 -0.16254722 -0.14032498
-0.111038044 0.14027593 0.10841577 -0.03838349 -0.055051778 0.12907463 -0.0609588 0.05610577
-0.13340639 -0.20797345 -0.16571802 -0.06321878 -0.007519046 -0.13894503 -0.07425045 0.015648684
-0.11228131 -0.004933077 0.021606356 -0.15380482 0.076096386 0.068587385 0.078676246 -0.09522735
-0.066363096 0.11716164 -0.04784941 -0.12228953 0.13871777 -0.0021336272 -0.15195127 -0.17677173
0.1049229 -0.093809515 0.029317359 -0.08859436 0.12303229 0.09899368 0.06384887 -0.18132676
-0.0237494 -0.09704345 -0.13503672 0.115011215 -0.08487903 0.027802218 -0.116904296 -0.03662171
0.14583945 0.04557594 -0.16755475 0.059394628 -0.15924421 0.17635024 0.07436262 -0.086052395
-0.093797706 -0.031537846 0.12626442 -0.16634592 -0.07358038 0.16542286 -0.036143772 0.013879966
-0.0974383 -0.047757335 -0.15674824 -0.07054992 -0.048923083 0.095145434 0.1472546 0.15410592
0.14660707 0.067039385 0.0505394 0.0065223076 -0.038005646 0.17634521 0.17052439 -0.11539857
0.06811404 0.017515194 0.11232093 -0.13594213 0.1615243 0.10940837 0.17008577 0.04428786
0.10612311 0.13517708 0.17325886 0.18570104 -0.0040276404 -0.13068771 0.0027767145 0.009080778
-0.05809411 -0.09157373 0.086584695 -0.06682699 0.06781249 0.11059469 -0.033067547 0.0045551844
0.008984947 -0.0031757809 -0.1786421 -0.13306929 -0.13766724 0.120213345 -0.06274232 -0.05745467
-0.06719884 0.054918054 0.10281739 0.13276432 -0.05093485 0.085598245 0.010468988 0.0031264988
0.08808949 0.0017253353 -0.013202906 -0.060416736 -0.012361759 0.09345087 -0.09584134 0.03456301
-0.048587844 0.14085999 0.112691365 0.003391633 -0.014550893 0.109858446 0.033731934 -0.03800353
-0.06799707 -0.037920643 -0.095355846 -0.123207 0.17598677 0.155545 -0.01080662 0.049779817
-0.13283968 -0.14047612 -0.08669899 0.1122512 -0.18272744 0.07262089 -0.17837512 0.11348961
0.0512632 0.13755271 -0.096653625 -0.15649864 -0.008427891 0.010244496 -0.17385109 -0.031884495
-0.05521667 0.17856942 -0.08526078 -0.10604496 0.05059417 0.0029632484 0.052076202 0.031924397
0.00877512 0.0611697 0.10880299 -0.1049769 0.16182981 0.05495158 -0.04506921 0.13485757
-0.14065146 -0.040074423 -0.18272364 -0.099399306 0.05103695 -0.117490344 0.14932525 0.09246814
-0.094581 0.019874806 -0.15711677 -0.02851432 -0.12060737 0.08568353 -0.0584632 0.053037383
00000000: cdd9 bebd fd58 6dbd b477 abbd 5d32 0dbe
00000010: 1d12 473d 90a3 09be 24ea f0bd 9367 a1bd
00000020: 50e1 09bd 143b 9dbd 04b5 463d ce0e 6fbd
00000030: 83ac 18be 9c86 f6bd 12fd 04be 8f4d d23d
00000040: 7ed0 6cbd 7280 223e 8483 123e a803 c9bb
00000050: a4f0 8abd 6a67 1dbe fa5e cdbd 181e e5bc
00000060: b1a2 2abe 1b62 2b3d 774a 8dbd 14fe 803c
00000070: 7b3a 463e ddf0 b4bd 30b0 953d 2b7d 78bb
00000080: 0a4e b8bd 3d60 133e a87b 7dbd b626 24be
00000090: c06f 73bd 9102 a2bd 4f81 db3c 02ec 16bc
000000a0: 73b9 2a3e 3e52 113c ac8d 183e b495 e4bd
000000b0: 105f 3e3d b421 5bbd ef69 6cbc f654 22be
000000c0: 28bd 0ebe e699 e0bc 684b 163e 4245 e23c
000000d0: cf52 033e c42d f03d a59e c93d 0c16 9bbd
000000e0: cf8f 823b 92f3 dcbd 6729 3dbd 3a06 abbd
000000f0: 2478 7ebd a2c4 50bd c772 26be 5ab1 0fbe
00000100: ea67 e3bd 7ea4 0f3e 1609 de3d 0238 1dbd
00000110: f97d 61bd 242c 043e efaf 79bd 2acf 653d
00000120: af9b 08be fef6 54be fcb1 29be d978 81bd
00000130: 5462 f6bb 9b47 0ebe 9f10 98bd ab31 803c
00000140: bef3 e5bd a6a5 a1bb d0ff b03c 037f 1dbe
00000150: 6cd8 9b3d 8b77 8c3d 0321 a13d 8f06 c3bd
00000160: 60e9 87bd 71f2 ef3d befd 43bd ef72 fabd
00000170: 080c 0e3e 53d4 0bbb 1d99 1bbe a603 35be
00000180: d1e1 d63d 341f c0bd f52a f03c f670 b5bd
00000190: 5af8 fb3d 33bd ca3d 32c3 823d b9ad 39be
000001a0: 1a8e c2bc b7be c6bd 1147 0abe 008b eb3d
000001b0: 0fd5 adbd 7ac1 e33c 856b efbd a500 16bd
000001c0: f056 153e d6ad 3a3d 7993 2bbe c847 733d
000001d0: ea10 23be 2895 343e 6e4b 983d 3d3c b0bd
000001e0: 0319 c0bd d42d 01bd 764b 013e 9656 2abe
000001f0: 4fb1 96bd 9c64 293e 7e0b 14bd cc68 633c
00000200: bb8d c7bd 329d 43bd 9c82 20be 7a7c 90bd
00000210: 9263 48bd 9cdb c23d e9c9 163e f1cd 1d3e
00000220: 2a20 163e f24b 893d 6702 4f3d 15b9 d53b
00000230: cfab 1bbd d793 343e f29d 2e3e 1656 ecbd
00000240: 607f 8b3d 067c 8f3c 8408 e63d 6a34 0bbe
00000250: a066 253e 7f11 e03d f72a 2e3e 3067 353d
00000260: 1357 d93d dc6b 0a3e c56a 313e 6a28 3e3e
00000270: 4cfa 83bb 00d3 05be 8af9 353b 8bc7 143c
00000280: 17f4 6dbd 028b bbbd 5153 b13d 97dc 88bd
00000290: 46e1 8a3d 787f e23d d671 07bd a843 953b
000002a0: 9935 133c c320 50bb f4ed 36be 5143 08be
000002b0: a4f8 0cbe 6a32 f63d 0c7f 80bd 9755 6bbd
000002c0: 8c9f 89bd c1f1 603d ec91 d23d 5ff3 073e
000002d0: 10a1 50bd 224e af3d 1e86 2b3c f2e5 4c3b
000002e0: 4368 b43d a524 e23a 0051 58bc 8a77 77bd
000002f0: fa88 4abc 2b63 bf3d 7748 c4bd f191 0d3d
00000300: 0c04 47bd 9a3d 103e bbca e63d 2946 5e3b
00000310: de66 6ebc 77fd e03d 7f2a 0a3d 97a9 1bbd
00000320: 0c42 8bbd ad52 1bbd ed49 c3bd f453 fcbd
00000330: e035 343e 3047 1f3e 400e 31bc ece5 4b3d
00000340: 2007 08be f9d8 0fbe 3d8f b1bd f5e3 e53d
00000350: e71c 3bbe 43ba 943d f8a7 36be 3e6d e83d
00000360: 5cf9 513d 9eda 0c3e 56f2 c5bd 2e41 20be
00000370: 2315 0abc 88d8 273c 0506 32be 5199 02bd
00000380: e02a 62bd e7da 363e 349d aebd 1a2e d9bd
00000390: d53b 4f3d 0f33 423b db4d 553d 28c3 023d
000003a0: 85c5 0f3c 148d 7a3d 1ad4 de3d 21fe d6bd
000003b0: b7b6 253e e814 613d 7e9a 38bd 1a18 0a3e
000003c0: f006 10be 1425 24bd e81b 3bbe dd91 cbbd
000003d0: 1f0c 513d c79e f0bd b8e8 183e f05f bd3d
000003e0: afb3 c1bd 7dd0 a23c 38e3 20be dd96 e9bc
000003f0: ff00 f7bd d97a af3d 1c77 6fbd ba3d 593d

encoder.0.0.bias f4 [16]
0.117420144 0.058066394 0.14168912 -0.014282909 -0.110401295 0.16471417 0.13154061 -0.080114976
0.11039514 0.027729437 -0.057602674 0.041424315 0.04169402 0.094256915 0.13072996 -0.037531365
00000000: f979 f03d 07d7 6d3d f416 113e dd02 6abc
00000010: 131a e2bd d5aa 283e 95b2 063e 5213 a4bd
00000020: d916 e23d d828 e33c c8f0 6bbd 8bac 293d
00000030: 59c7 2a3d c509 c13d 13de 053e 7dba 19bd

encoder.0.1.weight f4 [16]
0.95663124 1.0018817 1.0580134 1.0255914 0.99412996 1.0502098 0.9794243 0.9637071
0.9406392 0.994394 1.0068994 1.0425236 0.9286522 0.99767405 1.0232564 1.0405732
00000000: c9e5 743f a93d 803f fc6c 873f 9446 833f
00000010: 4d7f 7e3f 466d 863f 8dbb 7a3f 82b5 763f
00000020: bbcd 703f 9b90 7e3f 14e2 803f 6a71 853f
00000030: 27bc 6d3f 9167 7f3f 11fa 823f 8131 853f

encoder.0.1.bias f4 [16]
-0.01618859 0.0200371 0.026679724 -0.02059648 0.029882174 0.01097082 -0.010579095 0.0043178266
-0.0155365085 0.031334314 0.0025781624 -0.0078179585 -0.02088334 0.024074836 -0.028420515 0.027752437
00000000: ef9d 84bc d824 a43c 708f da3c f3b9 a8bc
00000010: 76cb f43c f4be 333c f153 2dbc 8e7c 8d3b
00000020: d78c 7ebc 6958 003d 63f6 283b e516 00bc
00000030: 8a13 abbc 9738 c53c 24d2 e8bc 1459 e33c

encoder.0.1.running_mean f4 [16]
-0.45843264 -0.24045968 -0.36321685 -0.15631892 0.5947256 0.10348385 -0.019299908 -0.14611447
0.69652903 0.4123911 -0.41263878 -0.41129404 0.60431457 -0.14705841 0.6626466 0.52245384
00000000: afb7 eabe 103b 76be 8ff7 b9be 1112 20be
00000010: f03f 183f 57ef d33d d71a 9ebc 089f 15be
00000020: ba4f 323f ed24 d33e 6445 d3be 2295 d2be
00000030: 5cb4 1a3f 7b96 16be 35a3 293f 89bf 053f

encoder.0.1.running_var f4 [16]
0.0059751514 0.0020885859 0.0052569173 0.0006437968 0.009597848 0.0006582131 0.0011170738 0.00076440163
0.0058075497 0.0025515622 0.0025639501 0.003988845 0.005676953 0.00147107 0.004939085 0.005234731
00000000: 34cb c33b a8e0 083b 3842 ac3b 79c4 283a
00000010: 4b40 1d3c ef8b 2c3a c76a 923a 2062 483a
00000020: 424d be3b 1c38 273b f207 283b dbb4 823b
00000030: bc05 ba3b ebd0 c03a 0cd8 a13b 1b88 ab3b

encoder.1.0.weight f4 [8, 16]
-0.0285853 0.12862287 -0.033965465 -0.2452683 -0.02039481 -0.04234596 -0.047480296 0.06998217
-0.18576334 -0.024540452 -0.047368385 -0.1259623 0.18977457 0.1814019 -0.046785362 -0.24575959
0.13638486 -0.27954727 -0.2974922 -0.16442612 0.13616413 0.01272915 -0.111921914 -0.269451
0.14146458 0.10096321 -0.08937023 0.08624388 0.13858908 -0.1898646 -0.21767549 0.14303613
-0.028374486 -0.07876629 0.1794789 -0.18826695 -0.11839443 0.20135978 -0.1501348 0.1590168
-0.003586276 0.006808695 -0.06345016 0.23393805 -0.021017656 0.03630149 0.10579777 -0.18606247
0.09407984 -0.092661835 -0.09752224 -0.2666402 -0.18772648 -0.15548855 -0.054540608 0.08319698
-0.086870156 -0.19974798 -0.18500204 0.11150863 -0.061514914 0.23123717 -0.057246942 0.061281808
-0.082041636 -0.09216906 -0.23672698 0.051571082 0.10407227 0.018858062 0.14265855 -0.013815709
0.10926043 0.1565066 -0.20200124 -0.0883262 0.013943202 -0.08109843 0.085815065 0.22364096
0.07926508 0.08202716 0.063929215 0.25195694 -0.17902179 0.20862512 0.119057596 0.02984166
-0.0009561214 0.065895125 0.014427129 -0.08405525 0.07403865 -0.1458322 -0.07133022 -0.007581372
-0.22696659 0.10565362 0.027124269 -0.041784212 0.26890415 0.09279449 0.055809844 -0.11705104
-0.09045276 0.21484873 0.06071941 -0.0738677 -0.14951444 0.07290491 0.263669 0.16101973
-0.11489684 -0.04037467 -0.170632 0.014719532 0.07268342 0.06250177 -0.06563962 -0.16587771
-0.089615375 0.06518312 0.14798239 -0.24628694 -0.002680133 -0.12813815 0.03849046 0.17415245
00000000: b82b eabc b7b5 033e 5f1f 0bbd 9d27 7bbe
00000010: 0413 a7bc f572 2dbd b37a 42bd d052 8f3d
00000020: bf38 3ebe 0f09 c9bc 5a05 42bd 43fc 00be
00000030: 4454 423e 6bc1 393e 02a2 3fbd 67a8 7bbe
00000040: 79a8 0b3e d220 8fbe e650 98be 525f 28be
00000050: 9c6e 0b3e ed8d 503c 5137 e5bd 7bf5 89be
00000060: 17dc 103e cdc5 ce3d bd07 b7bd a2a0 b03d
00000070: 4cea 0d3e de6b 42be 53e6 5ebe 1078 123e
00000080: 9c71 e8bc 3850 a1bd 51c9 373e 0dc9 40be
00000090: c778 f2bd 4231 4e3e f0bc 19be 4dd5 223e
000000a0: ba07 6bbb 791b df3b 28f2 81bd 758d 6f3e
000000b0: 382d acbc dfb0 143d 80ac d83d 2987 3ebe
000000c0: eeac c03d 7dc5 bdbd bdb9 c7bd 1085 88be
000000d0: 5f3b 40be 6438 1fbe f965 5fbd 2e63 aa3d
000000e0: fbe8 b1bd bc8a 4cbe 2d71 3dbe a35e e43d
000000f0: 10f7 7bbd 70c9 6c3e c57b 6abd a202 7b3d
00000100: 7205 a8bd 22c3 bcbd 8f68 72be 333c 533d
00000110: d823 d53d 397c 9a3c 1515 123e 495b 62bc
00000120: efc3 df3d 4443 203e 6ad9 4ebe 5ee4 b4bd
00000130: 0772 643c ef16 a6bd cfbf af3d 2302 653e
00000140: bb55 a23d dbfd a73d 52ed 823d 8000 813e
00000150: 7d51 37be d3a1 553e 78d4 f33d 7f76 f43c
00000160: 39a4 7aba 06f4 863d c45f 6c3c 2925 acbd
00000170: 93a1 973d 0955 15be 9415 92bd 286d f8bb
00000180: ee69 68be ed60 d83d b733 de3c ec25 2bbd
00000190: cead 893e 0a0b be3d dd98 643d 75b8 efbd
000001a0: 4c3f b9bd 4e01 5c3e ebb4 783d f347 97bd
000001b0: 501a 19be 2b4f 953d a0ff 863e 5be2 243e
000001c0: 094f ebbd e95f 25bd 28ba 2ebe 312a 713c
000001d0: 0bdb 943d ee00 803d 116e 86bd d9db 29be
000001e0: 4488 b7bd ba7e 853d b288 173e a532 7cbe
000001f0: 2ca5 2fbb a636 03be 2ca8 1d3d 0555 323e

encoder.1.0.bias f4 [8]
0.03188187 0.16751307 -0.06621978 -0.18110022 0.053306486 0.030355237 -0.19491728 -0.22025992
00000000: 9096 023d 8c88 2b3e 3c9e 87bd 5672 39be
00000010: e757 5a3d 8cab f83c 6598 47be d18b 61be

encoder.1.1.weight f4 [8]
0.94097567 0.9438852 0.91387784 1.081671 1.0510175 1.037484 1.0479816 0.95394546
00000000: c8e3 703f 76a2 713f e6f3 693f 3274 8a3f
00000010: be87 863f 47cc 843f 4324 863f c535 743f

encoder.1.1.bias f4 [8]
-0.028657442 0.0093639875 -0.08417796 0.010352321 0.07214039 0.0075060315 0.04526463 -0.007377876
00000000: 03c3 eabc 696b 193c 7f65 acbd c89c 293c
00000010: 57be 933d 28f5 f53b 6867 393d 1cc2 f1bb

encoder.1.1.running_mean f4 [8]
-0.18887454 -0.13305365 -0.022613676 -0.53424203 0.09760121 0.2291435 0.09178727 -0.40059805
00000000: 5468 41be 373f 08be 5140 b9bc 16c4 08bf
00000010: 25e3 c73d 98a4 6a3e f7fa bb3d 301b cdbe

encoder.1.1.running_var f4 [8]
0.08957955 0.45786232 0.07554893 0.10650941 0.3928833 0.11294283 0.1776661 0.18702897
00000000: 7c75 b73d ee6c ea3e 66b9 9a3d 9b21 da3d
00000010: 0028 c93e 924e e73d 1aee 353e 8684 3f3e

encoder.2.0.weight f4 [8, 8]
0.019644521 -0.17660876 -0.29614016 0.26398757 0.20023717 -0.34119642 0.1939489 0.25301152
0.12716298 0.033718027 -0.026742442 -0.3975178 0.073053874 0.107261986 -0.061746854 0.19814028
0.056249626 0.27365756 -0.07814187 -0.20738868 0.35479942 0.23623833 0.25897816 -0.1856545
0.22207794 0.057819683 0.039983433 -0.31132922 0.20792854 -0.34788194 0.35695168 0.04356473
0.24982469 0.22564128 -0.18819861 0.27601895 -0.20756876 -0.3467075 -0.3827118 -0.057383794
0.14098227 -0.08824556 -0.1348197 0.115187585 -0.1830168 -0.29222232 -0.15120327 -0.088358216
0.23928283 0.00969789 -0.04474129 0.26794687 0.2975391 -0.0649408 0.065414146 0.0017954173
-0.024655007 -0.08833556 -0.13888684 -0.35688987 0.026114745 -0.031687662 0.068656445 0.039772984
00000000: 8ced a03c edd8 34be af9f 97be 6129 873e
00000010: f90a 4d3e 4cb1 aebe 8a9a 463e ba8a 813e
00000020: 0337 023e ea1b 0a3d f712 dbbc 7487 cbbe
00000030: 459d 953d 2cac db3d 45ea 7cbd 49e5 4a3e
00000040: 0266 663d d81c 8c3e d808 a0bd b35d 54be
00000050: 45a8 b53e 76e8 713e c998 843e 371c 3ebe
00000060: 6668 633e 55d4 6c3d abc5 233d 8b66 9fbe
00000070: 38eb 543e 951d b2be 5fc2 b63e ee70 323d
00000080: 0bd2 7f3e 820e 673e 23b7 40be 5b52 8d3e
00000090: e88c 54be a583 b1be cdf2 c3be 450b 6bbd
000000a0: a85d 103e 17ba b4bd 2d0e 0abe 78e7 eb3d
000000b0: c268 3bbe 2a9e 95be 08d5 1abe 27f5 b4bd
000000c0: 8f06 753e e6e3 1e3c a542 37bd 5530 893e
000000d0: 0b57 983e afff 84bd daf7 853d 3554 eb3a
000000e0: 4cf9 c9bc 46e9 b4bd 5a38 0ebe 45ba b6be
000000f0: 97ee d53c ecca 01bd c09b 8c3d ffe8 223d

encoder.2.0.bias f4 [8]
-0.19400911 -0.18275568 -0.105566725 -0.3088088 0.16702743 -0.16561726 -0.17330837 -0.35520396
00000000: 53aa 46be 4e24 3bbe 5e33 d8bd 301c 9ebe
00000010: 3d09 2b3e 9297 29be c077 31be 4bdd b5be

encoder.2.1.weight f4 [8]
0.941749 0.92495936 0.940304 0.9508067 0.9752943 0.92998457 0.94160825 0.92726123
00000000: 7616 713f 23ca 6c3f c3b7 703f 1168 733f
00000010: e3ac 793f 7813 6e3f 3d0d 713f fe60 6d3f

encoder.2.1.bias f4 [8]
0.030013856 -0.071756445 -0.025480926 -0.054797925 0.07531016 -0.07970791 -0.034185585 -0.0661281
00000000: 9edf f53c 0bf5 92bd 60bd d0bc ca73 60bd
00000010: 373c 9a3d e73d a3bd 2f06 0cbd 2b6e 87bd

encoder.2.1.running_mean f4 [8]
-0.0987963 -0.17287977 0.22422287 -0.20258579 -0.024255432 -0.45549044 0.16334458 -0.55397385
00000000: b755 cabd 6507 31be ae9a 653e a672 4fbe
00000010: 54b3 c6bc 0b36 e9be cd43 273e 3bd1 0dbf

encoder.2.1.running_var f4 [8]
0.32063654 0.08700825 0.23320428 0.34007674 0.33999988 0.16223826 0.09739453 0.08150444
00000000: 792a a43e 6231 b23d 1acd 6e3e 8a1e ae3e
00000010: 7714 ae3e c921 263e c976 c73d cdeb a63d

mu.weight f4 [5, 8]
-0.22840506 0.13936545 0.14520244 0.00090910203 0.23796573 -0.22150758 -0.03680876 -0.17850102
0.1904752 -0.22760445 0.14911085 -0.26717207 -0.048177905 0.015223541 -0.019680113 0.19797751
-0.1743474 -0.19967772 0.056728512 -0.1362311 0.14000611 -0.15190318 0.0496183 0.30589783
-0.35600102 0.098078415 -0.18897596 0.27883875 -0.106384724 -0.051922005 0.23666757 -0.04749954
0.18789962 -0.20218198 0.05129553 -0.12439435 -0.33172813 -0.0077292323 0.14877155 -0.26400384
00000000: 04e3 69be d1b5 0e3e f3af 143e ce50 6e3a
00000010: 4aad 733e e2d2 62be c8c4 16bd f9c8 36be
00000020: ee0b 433e 2411 69be 84b0 183e c7ca 88be
00000030: 3256 45bd 296c 793c 3038 a1bc 9eba 4a3e
00000040: 2088 32be 5178 4cbe 285c 683d 2a80 0bbe
00000050: c35d 0f3e 828c 1bbe 8f3c 4b3d a49e 9c3e
00000060: c445 b6be 56dd c83d ea82 41be f4c3 8e3e
00000070: 3ce0 d9bd 2bac 54bd fc58 723e e18e 42bd
00000080: c268 403e cb08 4fbe 431b 523d 77c2 febd
00000090: 45d8 a9be 8045 fdbb 9257 183e 832b 87be

mu.bias f4 [5]
0.0652451 -0.001897226 0.033562917 0.08673532 0.22166933
00000000: 399f 853d 57ac f8ba 4579 093d 4aa2 b13d
00000010: 49fd 623e

sigma.weight f4 [5, 8]
-0.0020630339 -0.058586664 0.0119751245 -0.091603264 -0.17186779 0.25190204 -0.15202667 0.14702202
-0.011978046 0.18510886 0.05606773 -0.063645065 0.25264654 -0.048976596 -0.10636077 0.17630021
-0.35209978 -0.080116935 -0.02863093 0.26332816 0.007225176 -0.14665751 0.13159758 -0.28730652
0.14852297 0.24672036 -0.2565424 0.23915039 0.013558255 0.05380337 -0.08474706 -0.21174192
0.3630784 -0.20637415 0.22934045 -0.21396965 -0.079172984 0.17747124 -0.23618591 -0.08188398
00000000: f733 07bb 92f8 6fbd 5033 443c 7e9a bbbd
00000010: 1cfe 2fbe 4ef9 803e e1ac 1bbe f18c 163e
00000020: 913f 44bc 2d8d 3d3e 47a7 653d 5858 82bd
00000030: e35a 813e af9b 48bd add3 d9bd 0b88 343e
00000040: 6c46 b4be 5914 a4bd 6a8b eabc f3d2 863e
00000050: 2bc1 ec3b 632d 16be 84c1 063e d719 93be
00000060: 6816 183e 43a4 7c3e 8759 83be d7e3 743e
00000070: 7123 5e3c ec60 5c3d de8f adbd e0d2 58be
00000080: 69e5 b93e bf53 53be 39d8 6a3e dc1a 5bbe
00000090: 7225 a2bd 05bb 353e b8da 71be cab2 a7bd

sigma.bias f4 [5]
0.097916864 -0.16644494 0.22237833 -0.0705459 -0.023307042
00000000: a388 c83d 8b70 2abe 25b7 633e 5e7a 90bd
00000010: 69ee bebc

decoder.0.0.weight f4 [8, 5]
-0.09140242 -0.4121281 0.35421854 0.21155794 -0.042316567 -0.13905424 0.18707198 -0.21347995
-0.049185313 0.13958694 0.29462817 0.11780113 0.42385933 -0.110885 -0.099317834 0.20755011
0.20347732 0.36108017 0.0022801424 -0.08281589 0.23370317 -0.055779558 0.5041876 -0.05531418
-0.17527412 -0.31091833 -0.3113584 0.09839992 0.3758295 0.052001767 0.42475253 -0.24124716
-0.43384567 -0.3490156 -0.33015373 0.4045429 -0.10186604 0.06929715 -0.22781907 0.38932362
00000000: 3131 bbbd 7402 d3be 225c b53e a5a2 583e
00000010: 2354 2dbd 3c64 0ebe cc8f 3f3e 7d9a 5abe
00000020: 8a76 49bd e1ef 0e3e 81d9 963e b841 f13d
00000030: 1704 d93e ad17 e3bd 2667 cbbd 0488 543e
00000040: 5c5c 503e 80df b83e 716e 153b 619b a9bd
00000050: e24f 6f3e 1b79 64bd 7012 013f 1f91 62bd
00000060: 0f7b 33be b030 9fbe 5e6a 9fbe e685 c93d
00000070: b96c c03e ceff 543d 2a79 d93e 7f09 77be
00000080: 0521 debe 2cb2 b2be e909 a9be 3f20 cf3e
00000090: 249f d0bd aaeb 8d3d 6749 69be 6d55 c73e

decoder.0.0.bias f4 [8]
0.31629315 0.28499916 0.23076265 -0.2888457 -0.39381984 0.4242272 0.2029818 0.22339752
00000000: 2df1 a13e 69eb 913e 0b4d 6c3e 95e3 93be
00000010: c1a2 c9be 4f34 d93e 76da 4f3e 52c2 643e

decoder.0.1.weight f4 [8]
1.0117412 0.9342568 0.94681126 1.0875322 1.0473168 0.94800055 0.949454 0.97478986
00000000: bc80 813f 742b 6f3f 3962 723f 4134 8b3f
00000010: 7a0e 863f 2ab0 723f 6b0f 733f d48b 793f

decoder.0.1.bias f4 [8]
-0.023462018 -0.015577435 0.06693327 -0.03975904 -0.0302383 -0.06742 -0.08230619 -0.06622817
00000000: 6b33 c0bc 7f38 7fbc 4f14 893d 60da 22bd
00000010: 50b6 f7bc 7f13 8abd 2690 a8bd a3a2 87bd

decoder.0.1.running_mean f4 [8]
0.3102922 0.28634998 0.23738123 -0.2830669 -0.39296356 0.41822335 0.19727337 0.24644832
00000000: 9fde 9e3e 779c 923e 1114 733e 25ee 90be
00000010: 8532 c9be 5f21 d63e 0802 4a3e f35c 7c3e

decoder.0.1.running_var f4 [8]
0.3730629 0.12998618 0.33853462 0.2412933 0.38851577 0.3711478 0.7314968 0.42226282
00000000: 1a02 bf3e 191b 053e 6954 ad3e 9715 773e
00000010: 8aeb c63e 1607 be3e 6043 3b3f d532 d83e

decoder.1.0.weight f4 [8, 8]
-0.08801805 -0.3309819 -0.15774038 0.21616983 0.38258547 -0.23400724 -0.17055538 -0.1707588
0.095876776 0.19632535 -0.17833087 -0.17271489 0.18371789 0.24101274 0.07977551 -0.029466102
0.25797933 -0.17467703 -0.20793551 0.3361423 0.039750144 0.065415636 -0.15887591 -0.02955225
-0.14407596 -0.30189586 -0.18995531 0.28396192 0.39771178 -0.28976542 0.27284473 -0.230547
0.37106147 0.035763588 0.18272145 -0.28903273 0.016109645 0.031128814 0.31650278 -0.24770908
0.1525305 -0.40654343 0.07145744 -0.0050822883 -0.18293855 -0.09395536 -0.21477014 -0.116644666
0.256706 -0.09018704 -0.1407427 -0.27385417 0.19371565 0.017295256 0.3284099 -0.19080395
-0.26269892 0.21720414 0.34259936 0.28230062 0.3593905 0.18129686 -0.12348493 -0.014090177
00000000: cf42 b4bd 7676 a9be b286 21be a05b 5d3e
00000010: 3ee2 c33e 989f 6fbe 12a6 2ebe 65db 2ebe
00000020: 0b5b c43d 8309 493e 5e9c 36be 2cdc 30be
00000030: 8b20 3c3e 0bcc 763e 5861 a33d e562 f1bc
00000040: de15 843e 89de 32be 0ced 54be d81a ac3e
00000050: 0cd1 223d a2f8 853d 5eb0 22be 8f17 f2bc
00000060: a688 13be 1892 9abe a583 42be 7563 913e
00000070: e1a0 cb3e 225c 94be 4eb2 8b3e 8314 6cbe
00000080: c5fb bd3e d77c 123d 551b 3b3e 19fc 93be
00000090: 60f8 833c db01 ff3c a70c a23e 73a7 7dbe
000000a0: f530 1c3e 7626 d0be 4758 923d 5389 a6bb
000000b0: 3e54 3bbe ab6b c0bd b4ec 5bbe 66e3 eebd
000000c0: f86e 833e fcb3 b8bd db1e 10be 9d36 8cbe
000000d0: 655d 463e c8ae 8d3c 5825 a83e 1c62 43be
000000e0: 7980 86be c36a 5e3e 2f69 af3e b589 903e
000000f0: 0802 b83e e2a5 393e abe5 fcbd 7cda 66bc

decoder.1.0.bias f4 [8]
-0.019052912 -0.121902175 0.33833277 0.2849998 0.09841827 -0.15510125 0.12751436 -0.23971522
00000000: da14 9cbc d9a7 f9bd f439 ad3e 7eeb 913e
00000010: 858f c93d ddd2 1ebe 2093 023e e877 75be

decoder.1.1.weight f4 [8]
1.032025 0.99488896 0.9803418 0.98472327 0.930217 1.0067627 0.91248477 1.0868647
00000000: 6519 843f 0bb1 7e3f aef7 7a3f d316 7c3f
00000010: b422 6e3f 9add 803f 9a98 693f 621e 8b3f

decoder.1.1.bias f4 [8]
-0.062555656 0.07196733 0.042697176 0.01937911 -0.061287932 0.043859422 -0.0255135 0.13347226
00000000: 2e1d 80bd 9c63 933d 3ce3 2e3d f0c0 9e3c
00000010: 0e09 7bbd f0a5 333d b001 d1bc f4ac 083e

decoder.1.1.running_mean f4 [8]
-0.19901554 0.022228805 0.40505546 0.22640628 0.25329524 -0.43608323 0.1522906 0.15661907
00000000: bbca 4bbe 2f19 b63c 6e63 cf3e 0cd7 673e
00000010: eaaf 813e 4d46 dfbe 11f2 1b3e c060 203e

decoder.1.1.running_var f4 [8]
0.14420918 0.06452579 0.09804813 0.18647482 0.089071386 0.06022427 0.10198459 0.24339534
00000000: 92ab 133e 1926 843d 75cd c83d 41f3 3e3e
00000010: 0f6b b63d b9ad 763d 4cdd d03d a13c 793e

decoder.2.0.weight f4 [16, 8]
-0.27543885 -0.13895789 -0.13747919 0.10698708 0.05830162 -0.3919829 -0.30409944 0.16274706
0.04996103 -0.2103386 -0.08360908 0.17932849 -0.3906978 -0.29691267 -0.16540985 -0.1532124
0.32411423 0.20507424 0.01000061 -0.39703473 -0.044038795 -0.07046638 -0.122049086 -0.27492514
-0.07209605 -0.26398692 0.1451235 0.0011650623 0.21753603 0.12288304 0.09761948 -0.27530017
-0.3598282 -0.00024301802 0.089372255 0.2192425 -0.29765478 0.054493256 -0.38899294 -0.15648624
-0.18633457 -0.24738672 -0.1780724 -0.4221574 0.22546767 -0.0037895462 0.26377928 -0.028222777
-0.08283517 -0.27970362 0.05936673 0.072345704 0.02937226 0.41466472 0.20440625 0.21282142
-0.40444854 0.00095077365 -0.19288695 -0.32075524 0.060896493 0.10508659 0.26432782 -0.26989537
-0.33872682 0.048353456 0.1563556 -0.23249753 -0.24778906 -0.076103315 0.096163146 -0.11360669
-0.112292215 -0.44846627 -0.11086657 0.17807175 0.058653027 -0.3254853 0.09396358 0.20202796
0.03686871 0.26983675 -0.1523699 0.13450536 -0.30522662 0.13899344 0.30678284 -0.24437948
-0.18171081 0.25317806 -0.054774333 0.19580916 -0.17866659 0.07210519 -0.01998601 -0.34475634
0.2544981 -0.2916454 0.17563017 0.20635383 -0.05264973 0.076198466 -0.21084322 -0.2444674
-0.10238963 -0.042201973 -0.044013835 0.03347922 -0.3201559 -0.005042535 -0.4025479 0.054695647
-0.099566884 0.25073305 0.09016508 -0.027428726 -0.0012296445 0.2764626 -0.43357745 0.121978536
-0.26145807 -0.32715842 -0.42504713 0.08717686 0.2601267 -0.08662237 -0.23622759 -0.15374498
00000000: 5206 8dbe fa4a 0ebe 58c7 0cbe 0b1c db3d
00000010: aecd 6e3d fcb1 c8be ecb2 9bbe 2aa7 263e
00000020: f0a3 4c3d 0163 57be 3d3b abbd e3a1 373e
00000030: 8b09 c8be f004 98be 3361 29be b6e3 1cbe
00000040: 4df2 a53e fbfe 513e 99d9 233c 2348 cbbe
00000050: 0662 34bd ad50 90bd dff4 f9bd fdc2 8cbe
00000060: 18a7 93bd 4b29 87be 419b 143e 01b5 983a
00000070: c4c1 5e3e 1aaa fb3d b9ec c73d 25f4 8cbe
00000080: 673b b8be a7d2 7eb9 cd08 b73d 1b81 603e
00000090: 3566 98be 5234 5f3d 152a c7be ee3d 20be
000000a0: 7dce 3ebe f252 7dbe 9c58 36be 0425 d8be
000000b0: ffe0 663e 095a 78bb 140e 873e 7433 e7bc
000000c0: 7ca5 a9bd 5035 8fbe 872a 733d fc29 943d
000000d0: 189e f03c ef4e d43e df4f 513e dced 593e
000000e0: e113 cfbe 573d 793a 2884 45be 083a a4be
000000f0: 9a6e 793d a337 d73d fa55 873e ba2f 8abe
00000100: 9a6d adbe 460e 463d af1b 203e d513 6ebe
00000110: 6abc 7dbe 0edc 9bbd 2ff1 c43d a0aa e8bd
00000120: 76f9 e5bd 5f9d e5be 030e e3bd 7158 363e
00000130: 283e 703d 02a6 a6be fa6f c03d 6be0 4e3e
00000140: a503 173d 0b28 8a3e db06 1cbe c6bb 093e
00000150: aa46 9cbe 4c54 0e3e a412 9d3e 9d3e 7abe
00000160: 6612 3abe 8ea0 813e 0d5b 60bd 3282 483e
00000170: 60f4 36be e3ab 933d b3b9 a3bc e783 b0be
00000180: 934d 823e 8c52 95be 65d8 333e 6b4e 533e
00000190: 3ea7 57bd f10d 9c3d 49e7 57be a955 7abe
000001a0: a8b1 d1bd fadb 2cbd da47 34bd 8221 093d
000001b0: 79eb a3be d93b a5bb c21a cebe 8b08 603d
000001c0: b9e9 cbbd 1560 803e 78a8 b83d 35b2 e0bc
000001d0: 062c a1ba 828c 8d3e ddfd ddbe e2cf f93d
000001e0: d5dd 85be 4f81 a7be c79f d9be c889 b23d
000001f0: 542f 853e 1267 b1bd a5e5 71be 536f 1dbe

decoder.2.0.bias f4 [16]
-0.13241182 0.11673901 -0.010417472 0.14385597 0.24154702 0.24822672 0.3452642 0.15389225
-0.14292113 0.29028422 0.14622757 0.10760902 0.35290116 0.3322512 0.33640367 0.107736595
00000000: f796 07be dd14 ef3d 0bae 2abc fb4e 133e
00000010: 1a58 773e 252f 7e3e 78c6 b03e ee95 1d3e
00000020: eb59 12be 22a0 943e aebc 153e 1e62 dc3d
00000030: 76af b43e d41c aa3e 1a3d ac3e 01a5 dc3d

decoder.2.1.weight f4 [16]
0.9151483 1.0543187 0.9363811 0.9445048 0.92464674 1.0644315 0.95472103 0.93434477
0.9459859 0.9169861 0.93868065 0.94403327 0.9271724 1.0660356 0.92239237 0.9412343
00000000: 2947 6a3f eaf3 863f acb6 6f3f 11cb 713f
00000010: a6b5 6c3f 4b3f 883f 9968 743f 3831 6f3f
00000020: 222c 723f 9abf 6a3f 604d 703f 2aac 713f
00000030: 2c5b 6d3f db73 883f e821 6c3f bbf4 703f

decoder.2.1.bias f4 [16]
0.002035628 0.12516604 -0.030121086 -0.018082777 -0.024057634 0.12715977 0.13419388 -0.048993785
-0.049080215 -0.07012345 0.08980854 -0.03756428 -0.0017742845 0.10565444 -0.045123965 -0.045039818
00000000: 2c68 053b 872b 003e 7fc0 f6bc 5522 94bc
00000010: 8414 c5bc 2c36 023e 1f6a 093e b5ad 48bd
00000020: 5608 49bd e29c 8fbd 8aed b73d 01dd 19bd
00000030: 1c8f e8ba 5b61 d83d e8d3 38bd ac7b 38bd

decoder.2.1.running_mean f4 [16]
-0.48643917 -0.2991036 -0.16595785 0.09918913 -0.050758842 -0.017948434 0.61079 -0.17000432
-0.4151625 0.10106084 0.21809874 0.009897251 0.30422443 0.05397145 0.45789713 -0.37527892
00000000: 8e0e f9be 1b24 99be dbf0 29be ac23 cb3d
00000010: 81e8 4fbd 9808 93bc bc5c 1c3f 9d15 2ebe
00000020: 2e90 d4be fcf8 ce3d 4755 5f3e 1428 223c
00000030: 4ec3 9b3e 2b11 5d3d 7e71 ea3e 8f24 c0be

decoder.2.1.running_var f4 [16]
0.14261465 0.23173296 0.1030961 0.08958718 0.12363794 0.18758851 0.11257023 0.55781054
0.17435846 0.18968232 0.06991719 0.13807341 0.10514307 0.17739356 0.07440803 0.25862408
00000000: 9309 123e 684b 6d3e 0c24 d33d 7c79 b73d
00000010: e335 fd3d 3417 403e 398b e63d accc 0e3f
00000020: 068b 323e 153c 423e be30 8f3d 1e63 0d3e
00000030: 4055 d73d a8a6 353e 3d63 983d 606a 843e

decoder.3.weight f4 [32, 16]
-0.10010567 0.12966286 0.30755398 0.15874882 0.1816482 0.014405333 0.06367409 0.35642207
-0.13666128 0.21522267 -0.12528406 -0.01428008 0.09105915 0.10146093 0.114600345 0.05051193
0.15007012 0.25820494 -0.010512413 0.08299725 0.26127613 0.0534875 0.20680663 -0.12017266
-0.09682392 0.063893855 0.24824399 0.18052724 -0.12342461 0.08551072 0.113107204 -0.10215323
-0.14746742 0.21259348 0.2354972 0.10265163 -0.09624028 -0.059091322 0.057927523 0.09349489
0.1184253 0.07290923 -0.11472455 0.09122394 0.07648255 -0.008601719 -0.11898503 0.080135584
-0.07676827 0.021722315 -0.07148007 -0.14887834 0.21636488 0.03450499 0.13405974 -0.048425343
-0.03396391 0.056559727 0.24665296 -0.0065793535 -0.10772365 0.18472844 -0.09107791 -0.046298258
0.25549835 0.2656461 -0.029561529 0.05731126 0.12002748 0.2963406 0.20259589 -0.13354677
-0.10627178 -0.16392101 0.20011377 -0.027712299 0.0020407604 0.050041746 0.12605068 -0.12878923
0.09962216 -0.021476217 -0.0076550813 0.06821636 -0.010734123 -0.042289607 -0.012828367 0.08694855
-0.16211496 0.11988522 0.06774229 0.25309384 0.04424177 0.05222525 0.024024075 0.06618225
0.17611809 0.029805992 -0.072651155 0.03401215 0.016509807 0.120052546 0.21526878 0.23360527
-0.10580032 -0.00990457 0.043747224 0.2689536 0.03586195 0.085951746 0.019497838 -0.061480537
-0.0040696687 0.16749017 -0.038742736 0.18265538 0.08966674 0.22731961 -0.09673276 -0.05361266
0.040790364 0.07441845 -0.060716685 0.13256858 0.042494934 0.13805178 0.18854624 -0.14263564
0.2768603 -0.06277454 0.12803757 0.0990397 0.2332007 0.26150268 0.07825531 -0.053629424
-0.0904715 -0.037433144 -0.067411505 -0.031295713 0.17060795 -0.026727721 0.23512506 0.046092506
0.044092618 -0.07982937 -0.054072045 -0.10407942 -0.09927082 0.24843359 -0.1336743 0.28584352
0.24829969 0.07980273 0.11332864 -0.115494005 0.29903904 0.28591806 -0.03031301 -0.08685478
0.001786472 0.10310947 0.27611995 -0.06512432 0.17818272 0.23636347 -0.007153758 0.036328565
-0.043742653 0.12148073 -0.01865194 -0.16127442 0.114567265 -0.09963028 0.07731718 0.01568511
-0.10880814 0.116054416 0.16484134 -0.13569407 -0.099053696 0.34232247 0.23042364 -0.12921382
0.33605528 0.024423894 0.14141901 -0.1386684 0.021219099 -0.015268843 -0.027950905 -0.06742113
0.06287544 0.19572687 0.24502452 0.21933714 -0.14001153 0.010676817 0.090968736 -0.1309018
0.14256474 0.03060151 -0.12382748 0.12494522 -0.008662145 -0.012299987 -0.11401237 0.04384362
-0.14503554 0.17652273 -0.12337078 -0.07502557 -0.007136855 0.023504544 -0.10223978 0.29936233
-0.09945105 -0.0045765215 0.12259513 0.07422499 0.1168303 0.14210834 0.1874473 -0.041570313
0.13228698 -0.08300404 0.078947864 0.17054917 0.13123125 0.07964051 -0.073236056 0.058892906
0.14718895 0.12526041 0.13918638 -0.1516438 0.21199887 0.16300449 0.016112238 -0.022140143
0.0273165 -0.009102809 -0.123314716 -0.03600535 -0.051481277 0.22130992 0.10044749 -0.060028035
0.1579036 -0.01806528 -0.03381978 0.29044223 0.110378854 0.09372068 0.14636537 0.17423049
00000000: 3404 cdbd 57c6 043e b777 9d3e 0d8f 223e
00000010: fc01 3a3e 5904 6c3c 9067 823d f47c b63e
00000020: eff0 0bbe 5563 5c3e 774a 00be fff6 69bc
00000030: 387d ba3d c0ca cf3d 96b3 ea3d 99e5 4e3d
00000040: fbab 193e 7033 843e 423c 2cbc 76fa a93d
00000050: fcc5 853e b515 5b3d 1ec5 533e 151d f6bd
00000060: 9f4b c6bd c8da 823d ac33 7e3e 22dc 383e
00000070: 0bc6 fcbd 3f20 af3d c0a4 e73d b635 d1bd
00000080: b301 17be 1bb2 593e 2e26 713e 053b d23d
00000090: a019 c5bd be09 72bd 6945 6d3d 407a bf3d
000000a0: f788 f23d 6f51 953d b4f4 eabd 9ed3 ba3d
000000b0: e2a2 9c3d 39ee 0cbc 6cae f3bd 201e a43d
000000c0: af38 9dbd fff2 b13c 2564 92bd 9073 18be
000000d0: c18e 5d3e 1b55 0d3d f546 093e a759 46bd
000000e0: be1d 0bbd 2cab 673d 9892 7c3e 9e97 d7bb
000000f0: 389e dcbd 7429 3d3e 0e87 babd 3ea3 3dbd
00000100: aed0 823e c402 883e 052b f2bc 36bf 6a3d
00000110: f8d0 f53d f5b9 973e 4c75 4f3e 7cc0 08be
00000120: 05a5 d9bd e9da 27be a0ea 4c3e e704 e3bc
00000130: 47be 053b 93f8 4c3d 6e13 013e 53e1 03be
00000140: b406 cc3d e4ee afbc 7ad7 fabb 05b5 8b3d
00000150: 2dde 2fbc de37 2dbd 122e 52bc 1512 b23d
00000160: 7701 26be 6286 f53d 78bc 8a3d 8495 813e
00000170: dc36 353d 25ea 553d 23ce c43c 8f8a 873d
00000180: 4d58 343e b22b f43c 21ca 94bd 5350 0b3d
00000190: 933f 873c 1cde f53d 6b6f 5c3e 3836 6f3e
000001a0: d7ad d8bd c746 22bc 4a30 333d 49b4 893e
000001b0: fbe3 123d 7807 b03d eeb9 9f3c 04d3 7bbd
000001c0: db5a 85bb 8b82 2b3e b4b0 1ebd 030a 3b3e
000001d0: 32a3 b73d 79c6 683e d31b c6bd f398 5bbd
000001e0: cc13 273d b368 983d 0fb2 78bd 0fc0 073e
000001f0: 2b0f 2e3d 725d 0d3e 4412 413e 140f 12be
00000200: a2c0 8d3e f08f 80bd 481c 033e 54d5 ca3d
00000210: 2acc 6e3e aee3 853e 5244 a03d 87aa 5bbd
00000220: 1f49 b9bd 7f53 19bd 0b0f 8abd ef2f 00bd
00000230: dab3 2e3e 18f4 dabc a0c4 703e 7fcb 3c3d
00000240: 769a 343d 957d a3bd a67a 5dbd 9727 d5bd
00000250: 804e cbbd 6065 7e3e eae1 08be 155a 923e
00000260: 4642 7e3e 9d6f a33d d918 e83d 1f88 ecbd
00000270: a51b 993e da63 923e fd52 f8bc ebe0 b1bd
00000280: 0e28 ea3a 0f2b d33d 985f 8d3e e65f 85bd
00000290: 8875 363e 4409 723e 126a eabb 43cd 143d
000002a0: 7f2b 33bd e4ca f83d f4cb 98bc 1f25 25be
000002b0: 3ea2 ea3d f60a ccbd 7858 9e3d 0f7e 803c
000002c0: cdd6 debd f0ad ed3d 2bcc 283e 63f3 0abe
000002d0: aadc cabd e444 af3e 2df4 6b3e a150 04be
000002e0: 700f ac3e 9e14 c83c 25d0 103e 17ff 0dbe
000002f0: add3 ad3c 2b2a 7abc 4cf9 e4bc 1714 8abd
00000300: d7c4 803d a06c 483e b5e7 7a3e ea99 603e
00000310: 2f5f 0fbe d1ed 2e3c d14d ba3d 1f0b 06be
00000320: 7efc 113e 05b0 fa3c 4399 fdbd 48e3 ff3d
00000330: abeb 0dbc e285 49bc 517f e9bd 5e95 333d
00000340: 3284 14be 60c2 343e d2a9 fcbd 02a7 99bd
00000350: 47dc e9bb 9a8c c03c 1763 d1bd 0546 993e
00000360: feac cbbd a5f6 95bb 2813 fb3d 4603 983d
00000370: b944 ef3d d984 113e 2ff2 3f3e a245 2abd
00000380: 3d76 073e 06fe a9bd 6baf a13d 71a4 2e3e
00000390: 7c61 063e 901a a33d c9fc 95bd b039 713d
000003a0: b3b8 163e 4444 003e e086 0e3e 8348 1bbe
000003b0: 3b16 593e a6ea 263e d0fd 833c 3f5f b5bc
000003c0: dac6 df3c f323 15bc 6d8c fcbd 597a 13bd
000003d0: 08de 52bd 119f 623e 6ab7 cd3d f5df 75bd
000003e0: 7bb1 213e a3fd 93bc 9c86 0abd d8b4 943e
000003f0: 4f0e e23d a1f0 bf3d cee0 153e 7a69 323e

decoder.3.bias f4 [32]
-0.045509588 -0.081588656 0.25200504 0.29521534 -0.0072192005 0.2509043 0.030736178 0.10454267
0.02187006 0.11010291 0.16769858 0.03808822 0.20854384 0.24761838 0.050318386 0.084778056
0.16999952 0.18611592 0.18356733 0.13826956 0.05090534 0.17110486 -0.06918705 -0.0948334
0.16975918 0.18440193 0.022857873 0.070453964 0.069617316 0.18737437 -0.0015591503 0.1760448
00000000: 4368 3abd f417 a7bd ce06 813e 7726 973e
00000010: 0b8f ecbb 8776 803e 70ca fb3c 781a d63d
00000020: d728 b33c a27d e13d 2db9 2b3e 6502 1c3d
00000030: 848c 553e ac8f 7d3e a71a 4e3d 1ea0 ad3d
00000040: 5b14 2e3e 2c95 3e3e 13f9 3b3e 8996 0d3e
00000050: 1e82 503d 1d36 2f3e f1b1 8dbd 0338 c2bd
00000060: 5ad5 2d3e dcd3 3c3e 6f40 bb3c 2b4a 903d
00000070: 8693 8e3d 11df 3f3e 675c ccba 1745 343e

exp_avg f4 [16, 32]
-7.3856e-06 1.4775847e-05 -2.8663631e-05 -8.017158e-06 -1.1404152e-05 -6.8344552e-06 -2.0417536e-05 -1.2667618e-05
-8.731958e-06 3.3674166e-07 -7.3390815e-06 -8.954696e-06 2.4113886e-05 1.543775e-05 6.582264e-06 7.1973013e-06
6.8687373e-06 2.6262825e-07 -3.980587e-06 -8.822709e-06 -2.0151962e-05 -1.5322246e-05 -1.3828856e-06 1.3763353e-05
-1.1637528e-05 -9.773465e-06 -1.5413407e-07 -2.5324744e-05 -2.5421668e-05 -1.7960214e-05 -4.1091378e-05 -1.7740775e-05
5.325825e-05 4.1018768e-05 -1.6726623e-06 -3.1451134e-06 -1.7238095e-05 -5.2560572e-05 7.98071e-06 1.5576275e-05
1.3213525e-05 -4.203019e-05 -1.5960217e-06 -8.841828e-06 4.2059437e-06 -9.665035e-06 -2.3016659e-05 -2.2707887e-05
-8.909657e-06 3.388071e-05 8.961416e-05 2.0479305e-05 4.8640442e-05 3.7086767e-05 5.461474e-05 0.00011124323
2.2627179e-05 0.000115994684 7.1472314e-05 3.9311082e-05 8.5367756e-05 5.8396014e-05 1.739772e-05 5.0117207e-05
-3.112659e-05 -1.1943672e-05 -5.4627206e-05 -3.0284757e-06 -9.2206006e-05 -3.0635256e-05 -8.97433e-06 -4.7564434e-05
-6.220261e-05 1.6428074e-06 3.0069845e-05 5.2406936e-06 1.1730235e-05 -9.567088e-06 2.8772342e-06 2.138899e-05
-4.3170607e-05 -2.6785468e-05 7.5376573e-07 -3.3569242e-05 6.6657803e-06 -3.0110203e-05 -3.753413e-05 -3.6615576e-05
-4.2794054e-05 -3.386389e-05 -5.4247528e-05 1.23613145e-05 9.776299e-06 -1.3347999e-05 6.137646e-05 7.919499e-06
0.00032491426 0.00025383817 0.00024558662 5.2393752e-05 0.00018817633 0.00011151916 0.00027738925 6.6444125e-05
7.087298e-05 0.00010267252 0.00019183029 0.00025801608 0.00025331118 7.240483e-05 9.715318e-05 8.698784e-05
-7.346197e-05 0.0001769614 0.00013234882 0.00015788112 3.0695894e-05 0.00017768593 0.000119636556 2.6941372e-05
0.00014004491 0.00020797485 0.00015886745 0.00034064075 0.00023329566 0.00027990018 0.00032465832 0.00048204177
1.55509e-06 1.20766945e-05 -1.7151773e-05 -2.90551e-06 -1.4635852e-05 -1.5479978e-05 2.2946104e-05 5.182477e-05
7.0233844e-05 3.5026136e-05 7.061943e-05 5.9046804e-05 6.495123e-05 3.6325018e-06 2.327258e-05 -2.6334461e-05
3.005191e-06 1.4699115e-05 5.2719563e-05 1.4504132e-05 -2.0111853e-05 3.3958222e-05 -4.9586866e-05 -6.250349e-05
-5.9989605e-05 -6.5010696e-05 -6.6145716e-05 -5.9437766e-06 2.8376773e-05 1.8903265e-05 1.5632737e-05 8.451242e-05
4.074016e-05 -3.7459988e-05 -0.00010570924 -1.4695584e-05 -0.00011100521 -5.5661523e-05 3.46205e-05 -9.052046e-06
1.976642e-06 6.0651906e-05 3.8906473e-05 1.913656e-05 -6.35928e-05 -0.00011925218 9.877413e-06 2.6675272e-05
-0.00011621478 3.220496e-05 5.293729e-05 -3.169472e-05 -0.000101533995 6.221074e-05 2.134304e-06 0.00012344956
0.00014029178 0.0002220867 0.0002048508 0.00027560638 0.00016271634 0.00026681848 0.0002160317 0.000443895
0.00013516401 0.00017749675 0.00011731943 0.00013674125 0.00022513552 0.00017595095 0.00014110398 0.00011653217
6.755265e-05 9.873193e-05 0.00012100312 6.690289e-05 0.00015990474 0.00017701427 0.0001067075 0.00011680639
0.00013299953 0.00018240933 0.00016313282 0.00013321642 0.00013261418 0.00016952437 0.00015364037 0.00017002778
0.00019255675 0.00020376958 0.00016487065 0.00012759998 0.0001300486 0.00012327888 0.00012371372 7.5753764e-05
-2.2057835e-05 1.8016104e-05 7.6187396e-05 6.8181864e-05 5.5079014e-05 5.2907944e-05 -2.8550016e-06 -3.500574e-05
-7.477753e-05 -2.5684628e-06 -2.1353426e-05 -2.5827218e-05 -6.802153e-05 -1.8886969e-05 -2.6115436e-06 8.163227e-05
-4.7350946e-05 -1.5960282e-05 -5.475649e-06 8.080995e-06 8.620724e-05 3.0779713e-05 0.00010447913 0.00018030097
0.00012021638 0.00015711704 9.937648e-05 4.9078608e-05 4.4034998e-05 -4.5843542e-05 -8.62081e-05 -6.1435625e-05
00000000: d2d1 f7b6 c8e5 7737 ae72 f0b7 6e81 06b7
00000010: 7654 3fb7 8653 e5b6 5346 abb7 0187 54b7
00000020: 797f 12b7 6cc9 b434 3b42 f6b6 203c 16b7
00000030: 2d48 ca37 5180 8137 38dd dc36 5980 f136
00000040: 017a e636 5aff 8c34 fb90 85b6 3f05 14b7
00000050: 020c a9b7 4688 80b7 969b b9b5 27e9 6637
00000060: cd3e 43b7 b6f8 23b7 0d80 25b4 7970 d4b7
00000070: 9e40 d5b7 44a9 96b7 8859 2cb8 06d2 94b7
00000080: 9c61 5f38 910b 2c38 3d80 e0b5 a310 53b6
00000090: 879a 90b7 7c74 5cb8 e3e4 0537 cca9 8237
000000a0: a8af 5d37 9349 30b8 e336 d6b5 5d57 14b7
000000b0: c820 8d36 0227 22b7 e613 c1b7 d17c beb7
000000c0: af7a 15b7 231b 0e38 3cef bb38 f9ca ab37
000000d0: 4703 4c38 9d8d 1b38 2112 6538 414b e938
000000e0: 7fcf bd37 2c42 f338 68e3 9538 f4e1 2438
000000f0: 7707 b338 3eee 7438 52f1 9137 f134 5238
00000100: ec8d 02b8 ae61 48b7 841f 65b8 d13c 4bb6
00000110: b95e c1b8 5b7e 00b8 7490 16b7 ec7f 47b8
00000120: c672 82b8 6f7e dc35 803e fc37 37d9 af36
00000130: facc 4437 5482 20b7 8216 4136 826c b337
00000140: 1612 35b8 5bb1 e0b7 6356 4a35 b3cc 0cb8
00000150: 9eaa df36 2b95 fcb7 f76d 1db8 ad93 19b8
00000160: c47d 33b8 1309 0eb8 d787 63b8 7163 4f37
00000170: e204 2437 38f1 5fb7 3cb7 8038 fddd 0437
00000180: 4159 aa39 9515 8539 14c2 8039 5dc1 5b38
00000190: 3351 4539 65df e938 8e6e 9139 eb57 8b38
000001a0: a4a1 9438 e451 d738 0d26 4939 5546 8739
000001b0: dace 8439 0cd8 9738 b7be cb38 3e6d b638
000001c0: 980f 9ab8 b78e 3939 1ec7 0a39 e48c 2539
000001d0: 77bf 0038 3451 3a39 63e5 fa38 2800 e237
000001e0: 05d9 1239 d313 5a39 a895 2639 0798 b239
000001f0: d4a0 7439 91bf 9239 e736 aa39 8dba fc39
00000200: 7cb8 d035 029d 4a37 27e1 8fb7 48fc 42b6
00000210: 818c 75b7 00db 81b7 627c c037 6c5e 5938
00000220: 824a 9338 07e9 1238 8519 9438 06a9 7738
00000230: 6d36 8838 e8c5 7336 7c39 c337 d3e8 dcb7
00000240: caac 4936 389c 7637 331f 5d38 c656 7337
00000250: e0b5 a8b7 5d6e 0e38 7efb 4fb8 4e14 83b8
00000260: 599d 7bb8 5a56 88b8 b6b7 8ab8 a770 c7b6
00000270: a80a ee37 7492 9e37 0c23 8337 433c b138
00000280: 6ae0 2a38 5b1e 1db8 37b0 ddb8 0d8d 76b7
00000290: 78cb e8b8 1b76 69b8 7b35 1138 3ede 17b7
000002a0: 73a6 0436 7d64 7e38 822f 2338 7387 a037
000002b0: 205d 85b8 0717 fab8 2ab7 2537 b6c4 df37
000002c0: 56b8 f3b8 d013 0738 fb08 5e38 f2ef 04b8
000002d0: a6ee d4b8 2377 8238 103b 0f36 3d72 0139
000002e0: 4a1b 1339 f2df 6839 38cd 5639 437f 9039
000002f0: d69e 2a39 c5e3 8b39 9186 6239 94ba e839
00000300: d0ba 0d39 6c1e 3a39 6409 f638 3362 0f39
00000310: 5b12 6c39 797f 3839 50f5 1339 bb62 f438
00000320: 0eab 8d38 4d0e cf38 0ec3 fd38 374e 8c38
00000330: 1aac 2739 e89c 3939 27c8 df38 f4f5 f438
00000340: ca75 0b39 2245 3f39 a20e 2b39 03b0 0b39
00000350: 590e 0b39 5ac2 3139 861a 2139 7c49 3239
00000360: 0fe9 4939 fbaa 5539 21e1 2c39 5ccc 0539
00000370: a85d 0839 6c44 0139 26b9 0139 fedd 9e38
00000380: d708 b9b7 4a21 9737 ccc6 9f38 dcfc 8e38
00000390: a404 6738 79e9 5d38 8e98 3fb6 21d3 12b8
000003a0: e1d1 9cb8 db5d 2cb6 2220 b3b7 87a7 d8b7
000003b0: c8a6 8eb8 756f 9eb7 fa41 2fb6 fe31 ab38
000003c0: b19a 46b8 72e2 85b7 77bb b7b6 9c93 0737
000003d0: 29ca b438 7719 0138 ce1b db38 2c0f 3d39
000003e0: ad1c fc38 c9bf 2439 5768 d038 c1d9 4d38
000003f0: 38b2 3838 2148 40b8 9fca b4b8 00d7 80b8

exp_avg_sq f4 [16, 32]
4.312741e-09 3.8870636e-09 4.1963033e-09 3.4016392e-09 2.6493998e-09 3.2627856e-09 3.0579645e-09 3.0270029e-09
3.0143015e-09 2.6939473e-09 3.8661825e-09 3.4954144e-09 3.863656e-09 6.4264563e-09 5.394573e-09 7.468455e-09
8.237314e-09 9.9464845e-09 1.1392058e-08 1.1773071e-08 1.0537523e-08 9.652494e-09 1.1809655e-08 9.645525e-09
9.206285e-09 9.149229e-09 9.808227e-09 9.793151e-09 1.03618945e-08 1.3550579e-08 1.09594955e-08 1.0995585e-08
1.16723164e-07 9.9660525e-08 8.954391e-08 7.7157914e-08 9.04009e-08 7.413313e-08 7.993782e-08 8.512156e-08
8.044846e-08 8.624926e-08 8.926777e-08 8.475028e-08 1.027576e-07 9.245914e-08 1.0666843e-07 1.1479965e-07
1.0570443e-07 1.2355598e-07 1.2147765e-07 1.2564628e-07 1.235861e-07 1.1941228e-07 1.14699496e-07 1.1285089e-07
1.0665182e-07 1.01122076e-07 9.2269744e-08 7.553325e-08 7.4563566e-08 7.051546e-08 5.846656e-08 5.498396e-08
4.6483564e-08 4.3727546e-08 4.4990703e-08 4.2259426e-08 3.40056e-08 4.0526125e-08 2.537911e-08 2.446941e-08
1.9863702e-08 1.5894951e-08 1.2781472e-08 1.2418879e-08 1.03861195e-08 9.074465e-09 1.2079195e-08 1.4256418e-08
2.0656042e-08 1.6836445e-08 1.984183e-08 2.2075973e-08 2.251585e-08 2.6263416e-08 3.0715434e-08 3.167924e-08
3.1959488e-08 3.3500097e-08 3.7445094e-08 3.2405254e-08 4.2257604e-08 3.3491805e-08 2.4596885e-08 2.6928014e-08
1.3478026e-06 1.3973115e-06 1.2178854e-06 1.3657241e-06 1.2627839e-06 1.3599098e-06 1.0346434e-06 8.5493775e-07
8.5703095e-07 7.482096e-07 6.2586594e-07 5.7862707e-07 5.946952e-07 4.527182e-07 5.1191495e-07 5.478611e-07
5.9988224e-07 6.21103e-07 5.953451e-07 7.621387e-07 7.796269e-07 9.837344e-07 9.711125e-07 9.5914e-07
1.0941574e-06 1.2586461e-06 1.2580913e-06 1.1697321e-06 1.2130578e-06 1.2297776e-06 1.0760855e-06 1.0172354e-06
3.159236e-08 3.0925378e-08 2.8856459e-08 2.8544553e-08 2.8729625e-08 2.3471694e-08 1.991886e-08 1.9590193e-08
1.6788185e-08 1.8390876e-08 1.78623e-08 1.8129352e-08 2.569398e-08 1.9380673e-08 1.5847208e-08 2.0828598e-08
1.8193678e-08 1.8299556e-08 1.841054e-08 1.5655834e-08 1.5982776e-08 1.3817523e-08 1.17241035e-08 1.7380332e-08
1.8878147e-08 2.2566553e-08 2.4840569e-08 2.5840594e-08 2.6863868e-08 3.6304748e-08 2.411014e-08 2.5641935e-08
2.9332975e-07 3.008778e-07 3.2119183e-07 2.5466076e-07 2.5195084e-07 2.2198564e-07 1.8775717e-07 1.515064e-07
1.2183204e-07 1.200415e-07 9.149477e-08 1.4497478e-07 1.5748704e-07 1.9596804e-07 2.0977295e-07 2.5860086e-07
2.629913e-07 2.628197e-07 3.0218075e-07 2.526374e-07 2.309282e-07 2.61423e-07 3.1151245e-07 2.6135953e-07
2.9481498e-07 2.8103594e-07 2.633545e-07 2.6594992e-07 2.6558146e-07 2.3764693e-07 2.2891821e-07 2.155051e-07
7.441524e-08 7.0039086e-08 7.7392144e-08 8.7015025e-08 8.360775e-08 6.696609e-08 7.377717e-08 7.962639e-08
8.144432e-08 7.578269e-08 6.730435e-08 7.715058e-08 9.132058e-08 8.546042e-08 9.930762e-08 7.908531e-08
7.1431714e-08 8.612967e-08 8.486601e-08 7.4377965e-08 6.284889e-08 6.429984e-08 7.218211e-08 8.0880305e-08
8.561127e-08 9.234652e-08 9.933059e-08 9.525007e-08 9.1725354e-08 1.09567715e-07 7.860511e-08 8.178488e-08
2.913644e-07 3.495871e-07 2.8564702e-07 3.0929456e-07 3.091888e-07 2.8471788e-07 2.766194e-07 2.8543374e-07
2.6518447e-07 2.7455772e-07 2.8790623e-07 3.2358938e-07 3.3444078e-07 3.1243312e-07 3.971144e-07 4.1945904e-07
3.4490444e-07 3.8068615e-07 3.6942376e-07 3.309285e-07 3.3616857e-07 3.2079924e-07 2.5139843e-07 2.3159271e-07
2.032443e-07 1.9034438e-07 2.345217e-07 2.1472079e-07 2.9378577e-07 2.6653294e-07 2.5194342e-07 2.9526444e-07
00000000: 452f 9431 f98e 8531 132f 9031 45c2 6931
00000010: bc10 3631 8837 6031 4824 5231 9903 5031
00000020: 2724 4f31 6c20 3931 4dd7 8431 fb33 7031
00000030: 14c1 8431 b5cf dc31 2a5b b931 9d4e 0032
00000040: 1784 0d32 1ae1 2a32 cdb6 4332 8442 4a32
00000050: 8408 3532 1ed4 2532 69e3 4a32 78b5 2532
00000060: ab29 1e32 bc2e 1d32 0a81 2832 bc3e 2832
00000070: 1804 3232 14cc 6832 5f48 3c32 18e7 3c32
00000080: 3da9 fa33 f404 d633 494b c033 03b2 a533
00000090: 6c22 c233 1f33 9f33 48aa ab33 13cc b633
000000a0: 02c3 ac33 0838 b933 7ab3 bf33 f6ff b533
000000b0: 97ab dc33 f38d c633 9711 e533 c687 f633
000000c0: a0ff e233 cfaa 0434 866f 0234 63e9 0634
000000d0: 17b3 0434 cc37 0034 b750 f633 6f58 f233
000000e0: 7508 e533 7328 d933 d425 c633 d834 a233
000000f0: c11f a033 496e 9733 aa1c 7b33 8127 6c33
00000100: 38a5 4733 f2ce 3b33 cd3b 4133 bb80 3533
00000110: 8d0d 1233 f20e 2e33 4101 da32 cd30 d232
00000120: bea0 aa32 5e89 8832 8295 5b32 cf5a 5532
00000130: a36e 3232 ebe5 1b32 dd84 4f32 64ec 7432
00000140: 1e6f b132 bc9f 9032 a570 aa32 94a1 bd32
00000150: e168 c132 dd99 e132 faeb 0333 b10f 0833
00000160: d443 0933 bfe1 0f33 51d3 2033 f42d 0b33
00000170: ba7e 3533 a1d8 0f33 1f49 d332 544f e732
00000180: 25e6 b435 428b bb35 3976 a335 ec4d b735
00000190: ed7c a935 2586 b635 14de 8a35 e07e 6535
000001a0: b80e 6635 92d8 4835 2e01 2835 f352 1b35
000001b0: 25a3 1f35 1e0d f334 876a 0935 ba10 1335
000001c0: 9807 2135 e0b9 2635 cecf 1f35 c695 4c35
000001d0: 8d47 5135 db08 8435 2c57 8235 cdbb 8035
000001e0: f6da 9235 c0ee a835 b0db a835 b0ff 9c35
000001f0: 59d0 a235 d60e a535 046e 9035 f187 8835
00000200: 2bb0 0733 d0d2 0433 06e0 f732 2332 f532
00000210: 1dc9 f632 cd9e c932 091a ab32 4a47 a832
00000220: 9c35 9032 f7f9 9d32 9d6f 9932 deba 9b32
00000230: a9b5 dc32 8d7a a632 6120 8832 92ea b232
00000240: 5248 9c32 2631 9d32 3525 9e32 8b7b 8632
00000250: 7f4a 8932 1c62 6d32 276b 4932 c14b 9532
00000260: 7c29 a232 60d8 c132 fd60 d532 11f8 dd32
00000270: 45c2 e632 7eed 1b33 c21a cf32 3643 dc32
00000280: ef7a 9d34 5488 a134 4570 ac34 4fb8 8834
00000290: dc43 8734 f35a 6e34 4c9a 4934 c3ad 2234
000002a0: f0d0 0234 c2e4 0034 c87b c433 5daa 1b34
000002b0: b519 2934 496b 5234 f33d 6134 d5d5 8a34
000002c0: 4031 8d34 aa19 8d34 683b a234 38a2 8734
000002d0: 0ff5 7734 b459 8c34 f23d a734 fb50 8c34
000002e0: 1047 9e34 49e1 9634 2b63 8d34 e1c7 8e34
000002f0: 3d95 8e34 e42b 7f34 8fcc 7534 9765 6734
00000300: 36ce 9f33 6568 9633 c832 a633 04dd ba33
00000310: d98b b333 ffce 8f33 6e6f 9e33 12ff aa33
00000320: 7de6 ae33 f9bd a233 f588 9033 fbad a533
00000330: 051c c433 5d86 b733 f142 d533 9cd5 a933
00000340: 0066 9933 49f6 b833 953f b633 b8b9 9f33
00000350: 8bf7 8633 3615 8a33 8902 9b33 6bb0 ad33
00000360: 4bd9 b733 0950 c633 924f d533 488c cc33
00000370: 8cfa c433 7d4b eb33 9ecd a833 b7a1 af33
00000380: d16c 9c34 e3ae bb34 075b 9934 1f0d a634
00000390: 96fe a534 54db 9834 4882 9434 b73d 9934
000003a0: ad5e 8e34 ed66 9334 8891 9a34 c9b9 ad34
000003b0: 318d b334 7bbc a734 fd32 d534 0332 e134
000003c0: 4e2b b934 1b61 cc34 3755 c634 77aa b134
000003d0: a87a b434 503a ac34 f0f7 8634 b8ab 7834
000003e0: 5e3b 5a34 7761 4c34 d6d0 7b34 008e 6634
000003f0: 9cb9 9d34 0218 8f34 d742 8734 d684 9e34

exp_avg f4 [16]
1.2311562e-09 -2.668437e-07 1.880443e-07 -4.4890103e-07 -1.1668926e-07 -3.48543e-07 -3.117976e-07 2.1694063e-08
2.6307808e-07 3.1501577e-07 -3.353258e-07 4.1442127e-07 3.8922036e-07 -6.6417397e-07 -5.605275e-08 -1.6921315e-07
00000000: 7535 a930 b842 8fb4 39e9 4934 7d00 f1b4
00000010: 9996 fab3 631f bbb4 2365 a7b4 c059 ba32
00000020: 2d3d 8d34 701f a934 d406 b4b4 a07d de34
00000030: 0af6 d034 b049 32b5 a7be 70b3 f5b0 35b4

exp_avg_sq f4 [16]
9.964336e-14 8.1365345e-13 3.2630146e-13 6.3715097e-12 5.354571e-13 1.8848402e-12 1.3294939e-12 3.801405e-12
7.7177e-13 1.7782453e-12 1.1641093e-12 5.2965873e-13 1.8400225e-12 3.3435845e-12 1.2578354e-12 1.3499773e-12
00000000: 7c60 e029 e905 652b ffb0 b72a 752d e02c
00000010: c0b7 162b 43a2 042c 111c bb2b 03c0 852c
00000020: e43b 592b 0a44 fa2b 75d5 a32b ef15 152b
00000030: e67a 012c aa48 6b2c 4c06 b12b 0ffe bd2b

exp_avg f4 [16]
3.2047e-06 -1.9805402e-05 -3.5856272e-05 -1.5686075e-05 -2.7133354e-05 -0.0001019373 3.1122556e-05 3.2817723e-05
5.9895116e-05 3.0546114e-05 -4.294316e-05 3.7891943e-05 6.219605e-05 6.827489e-05 -1.4864076e-05 -4.985642e-05
00000000: 5410 5736 c723 a6b7 6164 16b8 9795 83b7
00000010: 6f9c e3b7 2cc7 d5b8 9789 0238 c3a5 0938
00000020: e437 7b38 a41e 0038 de1d 34b8 2aee 1e38
00000030: 406f 8238 cd2e 8f38 b860 79b7 ec1c 51b8

exp_avg_sq f4 [16]
1.3479483e-08 1.3280095e-08 2.9603614e-08 3.1691627e-08 1.7828775e-08 3.518104e-08 8.1096e-09 2.8392403e-08
2.938463e-08 1.3163096e-08 2.1520917e-08 3.30446e-08 7.319757e-08 3.082163e-08 8.1790645e-09 1.7432615e-08
00000000: 6593 6732 7a26 6432 094b fe32 501d 0833
00000010: e425 9932 f619 1733 6652 0b32 8ee3 f332
00000020: 7c69 fc32 e923 6232 ffdc b832 ecec 0d33
00000030: ca30 9d33 be60 0433 e883 0c32 babe 9532

exp_avg f4 [16]
1.840764e-08 -1.8066616e-05 6.8334516e-06 3.6812948e-05 -2.1568754e-05 -2.9074703e-05 2.561137e-05 3.0631014e-05
-9.417316e-06 7.3498672e-06 -3.349478e-05 6.859866e-05 -1.9762343e-05 7.763055e-05 -1.1033712e-06 -1.8622195e-05
00000000: d41e 9e32 c38d 97b7 e74a e536 9a67 1a38
00000010: 8cee b4b7 73e5 f3b7 00d8 d637 cd79 0038
00000020: 10ff 1db7 e19e f636 bf7c 0cb8 a0dc 8f38
00000030: 4fc7 a5b7 96cd a238 8c17 94b5 dc36 9cb7

exp_avg_sq f4 [16]
8.966809e-09 9.301498e-09 2.0429471e-08 4.9253643e-08 2.4156508e-08 2.1297101e-08 6.9956076e-09 1.58088e-08
1.2131541e-08 1.769613e-08 1.8310072e-08 1.9443386e-08 2.2983029e-08 2.2189361e-08 6.9399873e-09 2.3056685e-08
00000000: 710c 1a32 6ccc 1f32 e27c af32 f48a 5333
00000010: b980 cf32 d2f0 b632 045e f031 ebcb 8732
00000020: 156b 5032 3402 9832 4648 9d32 7504 a732
00000030: 376c c532 ec9a be32 c674 ee31 300e c632
