experiments/data/numenta_vae/ec2_cpu_utilization_24ae8d.csv-.ckpt (torch, 92971 bytes, 102 tensors)

encoder.0.0.weight f4 [32, 36]
00000000: af5c e5bd 76d2 aebd 09c5 5c3d f4b9 0dbe
00000010: a498 b73d a036 d1bd ab93 f3bd 4dda e8bd
00000020: ab47 4ebb 168c e83d 9126 42bd 08d8 12be
00000030: f600 9c3c ba68 113e c865 70bd 0043 a6ba
00000040: 8b12 dc3c 0226 d7bd 47b0 f7bd 0200 a83d
00000050: 8a35 bbbd 9cf3 fe3c 847a 2c3e f1a9 8f3d
00000060: 1a22 b43d 541f f23d 05eb abbd 9c19 843d
00000070: 862c ea3d dfe0 eabd 85fd 753d 3de2 40bd
00000080: f2ce 2bbe 7205 e2bd 8a18 923c e72c fbbd
00000090: 2561 913d 9fa8 7639 dd76 00bc 5534 dcbd
000000a0: 49e7 923d 2cac cebd 5252 e83d 0728 833c
000000b0: e00e eebd a936 053e aeb7 113e 7577 00be
000000c0: 35c4 e6bd bc7b 64bd 3e26 dcbd 1d4c 2b3d
000000d0: 1fd0 ddbd 096c 8e3d 6c7c 0cbe 305a 06be
000000e0: 9391 7fba 61d8 b7bb 6412 2c3d 085e 16be
000000f0: 7061 173e 5777 e2bd 9bb6 ec3d b555 2b3e
00000100: d9c3 093d 6428 133d 5bc0 8cbd 2c8d 413d
00000110: 6951 243e b8d5 06be 00be 153e 093f 3dbd
00000120: 7bdf 6e3d b7f8 a63d bb6c 36bb 75d9 cfbd
00000130: abc5 88bd 288d 3d3c 835d eebd f004 0abe
00000140: 3895 14be f76b 1d3e 6c7e 0ebe 4753 0fbe
00000150: 7cb8 8c3d ffa1 c23d 6b3e 303e f329 a13d
00000160: 5b73 1d3e 5c5f 98bd caa7 583d 6c12 d43c
00000170: 580e 1fbe 92a3 2a3e 60e1 103d 1e98 9f3d
00000180: cf86 dc3d cc1f 943d e7b0 98bd 118a c43d
00000190: 7227 91ba a2da a0bd 98a5 963d 1261 69bc
000001a0: 5d16 c63c ca2f b63d 7fd3 133e 054b b9bc
000001b0: 4d8e 68bc c258 3d3d d6b7 8b3d b657 803d
000001c0: 1d71 f93d c2af eebc baf7 30bd 3a55 1fbd
000001d0: 1022 f23d 7354 233e 24b8 20bd c8e8 d13d
000001e0: ec5d 353e f373 003e 78fb 183c e3ff dcbc
000001f0: 70fa 0b3e dca8 223d 87b6 1dbd 8639 0f3d
00000200: ed16 a0bd 5925 4ebd 021f 153e 70d1 a93d
00000210: 9af8 b4bd b5e7 5abc 049c 0ebd 2384 98bd
00000220: caeb 7dbd 4d19 b03d d554 0c3e ef1a 22bd
00000230: 210e 01be 2d0e 1e3e 1318 92bd 5463 8d3b
00000240: 5fde 97bd fae3 7bbd 8445 c53d 3cf5 133e
00000250: 5da2 46bd 9c5e fe3d c62a ebbd 77d9 09be
00000260: 168e 433d 5eca a3bc 3233 a43d e310 0f3e
00000270: fc22 3ebd 8e8c 023d 2d16 643d dd55 0f3d
00000280: 3f0b 08bd c422 a13d f4d3 05be c9b1 933a
00000290: 4091 c4bd 8164 1fbe dab9 f33d 5719 bfbd
000002a0: 0e98 6dbd 69dd 0b3e f4c7 5cbd 1f9a 22bd
000002b0: c509 f43d d030 aa3d 3389 b53d 9106 183d
000002c0: 2777 24bc 1695 203e f6ec 013e 4165 093c
000002d0: 0245 84bd fae0 80bd 0914 923a 31a9 01be
000002e0: ca24 1bbe ba99 25be 3939 a43d 6224 173c
000002f0: 9fcb 863d 076d 733b 05e6 a8bd d286 b43c
00000300: 716e cebc 744f 50bd 3cb6 b13d e014 57bd
00000310: 76ab 9b3c 2ab0 85bd e0f2 f53b 385e 0dbb
00000320: 756c 8ebd fc3e 7e3d 2e60 dabc b6e3 b2bd
00000330: eeae df3d c92a a2bd cbcf 283e 75b5 d4bc
00000340: 3688 2c3e c3e9 d0bd 71e7 74bd bb4a 243e
00000350: 5d4d 57ba 0f10 3cbd 6777 973d 13a1 00be
00000360: a252 db3d 8eb8 5ebd bc64 113e 76d3 173e
00000370: bd40 253e b70a fbbc 6c60 2bbd d47f b5bc
00000380: 87ec c23d e3dd 20be b872 a23d 35d5 043e
00000390: 53f5 a0bd 7195 f63d aba6 ec3d cba0 b33d
000003a0: acd5 eaba 98a6 da3d be93 653d dac0 143c
000003b0: 2503 033e 5f0a 1bbe 7d72 7dbd 0434 15be
000003c0: afa3 f23d 1ee3 d93d 403a 103e af8c 21be
000003d0: 3184 fa3c 19b4 a3bd a114 b6bd 5350 fabd
000003e0: 72c5 35be 15ec 8cbd 9b2c 9a3d 0269 a63b
000003f0: c6f8 bebd ee19 c4bc 50eb 4abd f792 61bd
-0.111993186 -0.08536236 0.053898845 -0.13840467 0.08964661 -0.10215497 -0.118934 -0.113697626
-0.0031475823 0.11354844 -0.04740006 -0.14340222 0.019043427 0.14200106 -0.058690816 -0.0012684762
0.02686431 -0.10505296 -0.12094169 0.082031265 -0.09141071 0.031122021 0.16843611 0.070148356
0.08795567 0.118223816 -0.08394436 0.06450197 0.114342734 -0.11468672 0.06005623 -0.047090758
-0.16778162 -0.11036195 0.017833967 -0.12264424 0.07098607 0.00023523204 -0.007840839 -0.10752169
0.071730204 -0.10091433 0.11343826 0.016010297 -0.11623931 0.13009132 0.14230224 -0.12545569
-0.11267892 -0.055782065 -0.107494816 0.041820634 -0.108307116 0.069542 -0.13719338 -0.13120341
-0.000974917 -0.005610511 0.042009726 -0.14684308 0.14783263 -0.110579185 0.11558267 0.16731913
0.03363404 0.03592719 -0.068726264 0.047253773 0.1604668 -0.13167465 0.1462326 -0.046202693
0.058318596 0.08152907 -0.0027835805 -0.101488985 -0.06678327 0.011569299 -0.1163893 -0.13478446
-0.14510047 0.15373217 -0.13915414 -0.13996612 0.06871125 0.095035546 0.1721131 0.07869329
0.15376036 -0.07440063 0.05289439 0.02588769 -0.15532815 0.1666396 0.035371184 0.07792686
0.107679 0.07232627 -0.074556164 0.095966466 -0.0011074378 -0.07854201 0.07355803 -0.014244335
0.024180586 0.08895834 0.14436148 -0.02261878 -0.014194083 0.046227224 0.06822173 0.062667295
0.12179778 -0.029136542 -0.043205 -0.038899638 0.11822903 0.15950184 -0.03923811 0.102494776
0.1771161 0.12544231 0.009337299 -0.026977485 0.13669753 0.039711818 -0.03850415 0.034966968
-0.07816873 -0.050328586 0.1456261 0.082919 -0.088364795 -0.013360907 -0.034816757 -0.07447078
-0.061992444 0.08598576 0.13704236 -0.039576467 -0.12603046 0.15435095 -0.07133498 0.0043148194
-0.07415461 -0.061496712 0.096324 0.14449018 -0.048494685 0.12420389 -0.11482768 -0.13461863
0.047742926 -0.019993957 0.08017577 0.13971286 -0.046420082 0.031872325 0.05568521 0.034993995
-0.03321385 0.07867959 -0.13069135 0.0011268194 -0.09598017 -0.15565683 0.11900683 -0.09331005
-0.05800634 0.1365868 -0.053901628 -0.039697763 0.11915926 0.083100915 0.08864059 0.037115637
-0.010038174 0.15681872 0.1268805 0.008385957 -0.06458475 -0.06292911 0.0011144887 -0.12662198
-0.15150753 -0.16171923 0.08018727 0.009224983 0.065818064 0.0037143843 -0.08246998 0.022036944
-0.025199147 -0.050857022 0.086773366 -0.052510142 0.019002657 -0.06527741 0.0075057596 -0.0021571051
-0.0695428 0.062071785 -0.02665719 -0.08734839 0.10922037 -0.07918317 0.16485517 -0.025965432
0.16848835 -0.102008365 -0.059791032 0.16044132 -0.0008213127 -0.045913752 0.07395821 -0.12561445
0.1070912 -0.054375224 0.14198583 0.1482676 0.16137977 -0.030644758 -0.041840002 -0.02215568
0.0951777 -0.15709643 0.07932037 0.12971957 -0.07859292 0.120402224 0.11555227 0.08770903
-0.0017916462 0.106763065 0.0560491 0.0090791825 0.12794168 -0.15140675 -0.061876763 -0.14570624
0.118476264 0.10639022 0.1408472 -0.15776323 0.030580612 -0.07993335 -0.088906534 -0.12222352
-0.177511 -0.068809666 0.07528039 0.005078436 -0.093247935 -0.023938145 -0.049540818 -0.055071797

encoder.0.0.bias f4 [32]
00000000: bfe8 ebbd 8fcd f93c 2e80 3c3d 9db1 753d
00000010: 62dc 1fbe 4c33 973d 81a5 47bd 39ce 4cbd
00000020: 35e9 dbbc b563 24be 2d7c b5bc 3740 4a3d
00000030: 0b26 1dbe e046 9bbd 1d05 fabd a4c4 bcbd
00000040: 7e68 c6bd 4e3f 0d3e a54c 3d3d 3294 b63d
00000050: c4fc 05be 8068 83bd 8c96 0dbe 4f41 c73d
00000060: 662c 2dbe 13fa 0fbe 8e5b b5bc b212 053d
00000070: 1fd4 4c3d cafe e3bc 5c48 8b3c 9af3 c23c
-0.11519002 0.030493526 0.04602068 0.05998384 -0.15611413 0.07382831 -0.04874182 -0.050001357
-0.0268446 -0.1605366 -0.022153938 0.049377646 -0.15346543 -0.07581878 -0.122080065 -0.09217194
-0.09687899 0.1379368 0.046215672 0.08914985 -0.13084704 -0.06416416 -0.1382696 0.097292535
-0.16911468 -0.1406024 -0.022138383 0.032488532 0.050006982 -0.027831454 0.017002277 0.023797799

encoder.0.1.weight f4 [32]
00000000: dd25 7a3f 9d41 7f3f d480 7b3f 4f6c 833f
00000010: 613e 823f b026 803f d2ea 783f 6b93 803f
00000020: 3b1c 803f bc2c 783f 2218 833f 7e65 7a3f
00000030: 9103 843f af39 793f 3ad9 7a3f 5a22 843f
00000040: 02f0 843f eded 813f a25a 7b3f 4dcb 793f
00000050: 3328 793f 4137 803f b254 783f f3d5 7c3f
00000060: 40a6 7b3f b947 783f 22c1 833f b876 7c3f
00000070: bd47 7e3f 7b9b 833f 5baa 793f 8277 823f
0.97714025 0.9970949 0.9824345 1.0267428 1.0175287 1.0011806 0.9723331 1.0044988
1.0008615 0.9694326 1.024174 0.97811115 1.0313588 0.97353643 0.9798771 1.0322983
1.0385745 1.0150734 0.9818517 0.9757584 0.97326964 1.0016862 0.97004235 0.9876396
0.9830055 0.9698444 1.0293314 0.9861865 0.99328214 1.0281824 0.97525567 1.0192721

encoder.0.1.bias f4 [32]
00000000: 872c b9bc 1f33 09bd 89f1 91bc a504 14bd
00000010: 1cf0 beba 704e e2bc 599d dcbc 3f13 cfbc
00000020: 9f2f b9bc d834 48bc 4aa1 e3bb 32c7 d6bc
00000030: 1750 0fbd 8f25 a1bc f73a e0bc 5a3c ba3b
00000040: 56a8 16bc 626d 3cbc dc0c d2bc 111b 19bd
00000050: ed24 0cbd 7a9b 05bc 0ef6 e7bc e7f5 dcbb
00000060: fb76 08bd 6a60 02bd 0a5a 52bd 8893 15bd
00000070: bd31 bcbc cd5c eabb 7f7d f1bc d2d5 49bd
-0.02260424 -0.03349602 -0.017815368 -0.036137242 -0.0014567408 -0.027625293 -0.026930498 -0.025277732
-0.022605715 -0.01221963 -0.0069467174 -0.02621803 -0.03498849 -0.01967123 -0.027371867 0.005683464
-0.009195408 -0.011500688 -0.025640897 -0.03737933 -0.034214903 -0.008154744 -0.02831557 -0.006743181
-0.033316594 -0.03183023 -0.0513554 -0.03651765 -0.022972936 -0.007152176 -0.029478787 -0.04927618

encoder.0.1.running_mean f4 [32]
00000000: b9bf 06be c261 e33c 4f06 7c3d 8f23 ac3d
00000010: 8578 11be acb6 7f3d 051e 10bd 4b5f 3cbd
00000020: ad75 48bd bd2d 2bbe a1de 813b 4985 833d
00000030: 5fd6 0ebe 4737 a3bd cca2 07be 27c7 99bd
00000040: 724f a7bd 8259 023e 27ae 873d f290 893d
00000050: bccf 03be 56fc 73bd f93b 1abe ad4d e83d
00000060: 14d1 0bbe ed19 21be 0ed8 9bbc 08cb 6a3d
00000070: f5a5 4f3d 9f69 cfbc 57a5 5b3c e334 e53c
-0.13159074 0.027756575 0.061529454 0.0840522 -0.14206131 0.06243007 -0.03518488 -0.045989316
-0.04894035 -0.16716667 0.003963307 0.064219065 -0.13948964 -0.07969528 -0.13245696 -0.075086884
-0.0816945 0.12729457 0.06625014 0.06717099 -0.12872213 -0.05956682 -0.1506194 0.113429405
-0.13653976 -0.15732546 -0.019023921 0.057322532 0.05069538 -0.025318919 0.013406119 0.02797932

encoder.0.1.running_var f4 [32]
00000000: 695b fa39 6298 093a 03db fb39 2bbf d539
00000010: cc9f df39 f0af c439 193d 103a e031 ce39
00000020: a7ae cf39 0afb ec39 89ff d139 8597 193a
00000030: 07c1 d339 1970 0c3a eb60 213a b203 bb39
00000040: 7eff e439 b54b c539 583a 103a 2f84 f339
00000050: 8322 ea39 7dc7 0b3a c014 043a 2fdc 0c3a
00000060: a596 f139 c042 d539 4b06 e539 25ec ca39
00000070: 9145 053a 2309 be39 a320 1e3a ec6b 053a
0.00047751822 0.0005248842 0.00048037627 0.00040768957 0.00042652932 0.00037515117 0.00055022683 0.00039328542
0.00039612243 0.00045200466 0.00040053975 0.0005859065 0.00040388873 0.000535728 0.00061561045 0.00035670173
0.00043677905 0.00037631174 0.0005501858 0.00046447056 0.0004465767 0.0005332155 0.00050384924 0.0005373386
0.0004607934 0.00040676259 0.00043682972 0.00038704384 0.00050839136 0.0003624643 0.0006032085 0.0005089629

encoder.1.0.weight f4 [16, 32]
00000000: 8563 953c 5a85 0abd 21c0 073e c4a7 cf3c
00000010: 7829 cc3d a3e4 233d 56d3 c7bd 1a63 75bd
00000020: 6f5e a9bd 5cc0 88bb 7133 a13c f6cf 70bc
00000030: a013 1f3e 18f8 063e 8a38 653d 61b8 993c
00000040: a9ab dbbd 87c3 f33d a6b7 5dbd 2f6a 12be
00000050: a4a0 e93d 1118 c63d 8c4f bc3d 8ba9 313d
00000060: a7c3 95bd 7526 eb3d db38 393e 90de ce3d
00000070: 40d7 f23d 0268 82bd 9f9e 9b3d 36c0 38bd
00000080: 2262 02bd 4c11 a03d f6ea ca3d 3509 b83d
00000090: 4f97 a83b 3f38 15bd a64d 823d 8154 9c3d
000000a0: 45d2 683c 57d1 05be e142 2a3e b0d1 e63d
000000b0: b1a2 923d ada3 25bc acf1 273e 0bfe de3c
000000c0: c2e4 a83c 61b5 943d 147d 54bc 0ef1 323d
000000d0: 2ed7 3d3c 0842 8c3d 5ba2 a0bc 2e71 b9bd
000000e0: 47b6 a0bc 7fc9 243e 171c d73d bbc2 3cbc
000000f0: e25e b13c d97e ebbd 2f61 0c3e 86aa 0fbe
00000100: 4c45 db3d bedc f23d f054 933d 214a cd3d
00000110: fba4 02be c201 e4bc 4a43 9bbd 4bdc 8f3d
00000120: 0402 0bbe a60a b0bd c3a1 c13d 6d29 813d
00000130: 16c3 25be 64f5 023e 1617 fd3d 8839 e53c
00000140: 988e f93c bcd7 1cbe fd35 2ebe 2e9d c9bd
00000150: 02b0 fabd 4254 febd 4503 cebd 2954 223e
00000160: 2e55 2abe 0f2b 103e ec76 2c3e 05fa 423d
00000170: 8944 143d 9848 bc3d f6c9 0e3d ba90 06be
00000180: 595d e8bd decd 223e cfcb 20bd ea98 053e
00000190: 8cae bb3d 3f59 9bbd e206 d8ba c5ae 9bbc
000001a0: be71 433e 31ad 3e3d 6bff 9b3d d42a a1bd
000001b0: 6faf 91bd 501f eabd df39 bb3d 0317 07be
000001c0: 852a d83d cf4a fa3d 2f27 643d 5d06 11bd
000001d0: ab68 ef3d c509 05be 1ead 0b3e 0b69 ff3a
000001e0: 946e 03be 5dea 803d 89f6 74bd 4d3c 1d3e
000001f0: 7ed3 09be 9706 0e3e d6d6 003d 89ff 0ebe
00000200: 6821 a43d 6410 6cbd c3b2 a83d 700c d73b
00000210: ed0e efbd 6062 6f3d b7ed a4bd 177a 25bd
00000220: 7645 d0bc 92b1 b33d 6813 083d 079e 21be
00000230: 3358 883d a469 17bc 1b40 0cbe ce41 3d3e
00000240: 9922 863d 491d af3d d073 dbbc a1fa 0abe
00000250: 1e92 e13d 9e0e 993d b213 c4bd 1ce5 0e3e
00000260: 73a5 f0bd 4b08 de3d aa38 8f3d b2bc de3d
00000270: 4a56 b43c 0a04 efbd 9a8a 353d 2c66 cbbd
00000280: c229 acbb 3bb7 27bd 6692 c2bd d809 323e
00000290: b8b2 febd 3e52 173e eaf8 69bc 58d7 a9bd
000002a0: 7e1a b63d 4159 77bd 350c 293e fad0 fd3d
000002b0: cb3a 343e ef4b 173d 30d3 0fbe 69c5 803d
000002c0: 025f d6bc ef40 923d 2805 8d3d 4c50 0cbe
000002d0: 02d3 103e 1a9d bdbd df45 0abe f73e 14bc
000002e0: ecc5 453e cf9b a7bd 3d29 173d edb8 8fbd
000002f0: 00bc ef3d c851 0ebd 0143 f3bd ae71 ce3d
00000300: 7cca ccbd 9bc4 373e 6bf9 9e3d bb08 a03c
00000310: 1e84 9c3d 2c30 d3bd 2f98 f23d b78e ad3c
00000320: 19b0 0dbe 03c1 403d f500 f9bd 2f30 69bb
00000330: f7b6 06be 1854 32be 23b3 5c3d f16c 17be
00000340: 57d1 d23d 015c 0e3e 4387 5e3d 226c c4bc
00000350: 25e6 6abd acfe 39bd 2f35 8c3b 10d0 f73d
00000360: 9510 f43d c85c 153d 61ec 073e c57d 34be
00000370: fe61 893c 4958 213e 7d74 0cbd 5eea 6abd
00000380: 54cf 343d 10ad 66bd 4d08 0c3e 3732 44be
00000390: aba8 0ebe 77a5 7abd b14a 49bd 133b e3bd
000003a0: d303 013e 6ef1 abbc 0ce9 063e 4ed0 cebd
000003b0: d139 bcbd 1b00 0ebe 236c 513d b730 9b3d
000003c0: ea18 2cbe decd 58be d417 b53d 54e2 8d3b
000003d0: e2f7 f33c abac 363c 2786 16be 70ae 4cbd
000003e0: df46 9cbd 8217 4c3b 6478 523d 923e 5b3d
000003f0: 7a76 92bc d339 4ebe 7083 e4ba b528 c43d
0.018235931 -0.03381858 0.13256885 0.025348552 0.09968847 0.040012967 -0.09757106 -0.059908964
-0.08269965 -0.0041733216 0.01967785 -0.014698019 0.1553483 0.13180578 0.055962123 0.018764677
-0.10726101 0.11902528 -0.05413022 -0.14298318 0.11407593 0.09672559 0.0919486 0.04337458
-0.07312708 0.114819445 0.18088095 0.10101044 0.11857462 -0.06367494 0.07598614 -0.04510518
-0.031831868 0.07815799 0.099080965 0.08986131 0.0051449905 -0.036430594 0.063624665 0.07633305
0.014210288 -0.13068138 0.16627075 0.112704635 0.07159937 -0.010109824 0.16400784 0.027220747
0.020616893 0.07261158 -0.012969274 0.04368692 0.011586947 0.06848532 -0.019608667 -0.090547904
-0.019618167 0.1609249 0.105034046 -0.011521037 0.021651689 -0.11498804 0.13708948 -0.14029893
0.10706577 0.118585095 0.07193935 0.100239046 -0.12758248 -0.02783287 -0.07581194 0.070244394
-0.13574988 -0.08595781 0.09454682 0.063067295 -0.161877 0.12788922 0.12357919 0.027981535
0.030463502 -0.15316671 -0.17012782 -0.09844433 -0.12240602 -0.12418415 -0.10059217 0.15852417
-0.16634056 0.14078926 0.1684224 0.04760172 0.036198173 0.09193534 0.034860574 -0.13141146
-0.1134593 0.15898845 -0.039256867 0.13046613 0.091641515 -0.07585382 -0.0016481543 -0.019004235
0.19086358 0.046551887 0.076170765 -0.07869497 -0.071135394 -0.11431754 0.091418974 -0.13192372
0.10554985 0.122213 0.05570143 -0.03540646 0.11689886 -0.12992008 0.13640258 0.0019486261
-0.12835151 0.06294701 -0.059805427 0.15355034 -0.13459584 0.13869701 0.031454884 -0.13964666
0.08014184 -0.05763282 0.08237221 0.006562762 -0.11672769 0.058443427 -0.08053153 -0.040399637
-0.025423747 0.08774103 0.033221632 -0.15782939 0.06657448 -0.009241495 -0.1369633 0.18482134
0.06549568 0.085505076 -0.026788622 -0.1357217 0.11014198 0.07473491 -0.09574069 0.13954586
-0.11750307 0.108414255 0.0699323 0.108758345 0.022013802 -0.11670692 0.044321634 -0.09931597
-0.0052540014 -0.040946227 -0.095005795 0.17386568 -0.12436432 0.14777467 -0.014280537 -0.08293027
0.08891772 -0.060387854 0.16508563 0.12393375 0.17600553 0.03693765 -0.14045405 0.06287653
-0.02616835 0.07141291 0.06885749 -0.13702506 0.14142993 -0.0925848 -0.13503216 -0.009048215
0.19313782 -0.08184015 0.036904562 -0.07017694 0.1170578 -0.03474596 -0.11878014 0.100802764
-0.09999558 0.17946093 0.077624165 0.019535413 0.07642387 -0.103119224 0.11845433 0.021186216
-0.13836707 0.04705907 -0.12158386 -0.0035581698 -0.13155733 -0.17414892 0.053881776 -0.14787652
0.10293835 0.13902284 0.054328214 -0.023977343 -0.05734839 -0.04540889 0.004278801 0.12100232
0.11917225 0.036465436 0.13273765 -0.17626102 0.01677036 0.15756334 -0.03429078 -0.057352416
0.044143036 -0.05631739 0.13675041 -0.1915978 -0.13931529 -0.061192956 -0.049143497 -0.11095252
0.12599115 -0.020989146 0.13174838 -0.10098325 -0.09190715 -0.13867228 0.051128518 0.07577651
-0.16806379 -0.21172282 0.088424355 0.004329959 0.029781286 0.011149566 -0.14699613 -0.049971044
-0.07630705 0.0031141941 0.051384345 0.05352647 -0.01787876 -0.20139246 -0.0017434191 0.09578077

encoder.1.0.bias f4 [16]
00000000: 3181 9e3d 419e 49bd e95d 9d3c ab8c 263e
00000010: 55aa a43d 8ba0 e73d 0d98 0fbd 862d 1f3e
00000020: 7d70 8fbd bc96 d339 f6a4 a8bd 0eda 35be
00000030: 32ed dd3d e61b 033e 9717 a23d 1439 c73c
0.07739485 -0.04922319 0.019209819 0.16264598 0.08040301 0.11309918 -0.035057116 0.1554471
-0.07003877 0.00040357362 -0.08234589 -0.17758963 0.10836257 0.12803611 0.07914656 0.02431921

encoder.1.1.weight f4 [16]
00000000: 9253 853f 65fa 853f 9403 763f 5d21 793f
00000010: 7612 803f 72d8 843f 1612 7d3f f25e 763f
00000020: fedd 733f 5192 813f e61f 833f b89c 853f
00000030: 9c5d 793f b5ce 743f 431f 7e3f 9c7f 743f
1.0416129 1.0467039 0.9609921 0.97316533 1.0005634 1.0378554 0.9885572 0.96238625
0.9526061 1.0122777 1.024411 1.0438452 0.9740846 0.9562791 0.9926645 0.95507216

encoder.1.1.bias f4 [16]
00000000: c257 8f3c f424 e4bc dcf7 41bd da86 85bd
00000010: c1fd c2bc 1117 30bd 116d bdbb a915 2abb
00000020: c871 79bc 8ca7 f5bc a6e1 17bd c08f b6bb
00000030: b6b5 09bd be0b 0bbd 45cf 2cbd a1c1 2ebd
0.0174979 -0.027849652 -0.047355518 -0.065198615 -0.02380264 -0.042990748 -0.005780824 -0.0025952852
-0.0152248815 -0.02998712 -0.03708043 -0.0055713356 -0.03362056 -0.033946745 -0.042189855 -0.042665128

encoder.1.1.running_mean f4 [16]
00000000: 4555 ab3e aed2 573e 17ad bcb9 87bc 8d3e
00000010: 3c4e 113e 802d 623e 17d6 133a 85b7 c0bd
00000020: 1009 e5be 2456 a23d 32ec 843d 04a8 233e
00000030: 73d4 273e cf19 133d 63f9 493e e634 513d
0.33463493 0.21076462 -0.00035987116 0.27682897 0.1419 0.2208767 0.0005639507 -0.094100036
-0.44733477 0.07926586 0.06490363 0.15982062 0.16389637 0.035913285 0.1972404 0.05107584

encoder.1.1.running_var f4 [16]
00000000: 9568 333e ae92 303e 19fe 3d3e 3585 1f3e
00000010: 8257 c43d d41b 133e fb10 353e 3305 493e
00000020: 2ac1 b83e 545a eb3d b39c 0e3e 8af0 973e
00000030: af38 4f3e e2e2 1e3e 0d1a 153e 1216 e23d
0.17520364 0.17243454 0.18553962 0.15578158 0.09587003 0.14366084 0.17682259 0.1963089
0.36084872 0.11491838 0.13926964 0.29675704 0.20236467 0.15516236 0.14560719 0.11039366

encoder.2.0.weight f4 [8, 16]
00000000: 7481 8bbe 5330 5bbe b58d 223c fd3c 003e
00000010: 07ed a0bd 3429 3bbe 6d7b df3b fe45 a13d
00000020: fb0a 22bd 8add f93d 5033 fcbd a27a 3bbe
00000030: 42b8 723d 3203 36be 4925 213d b42a 7abc
00000040: 5c2f 4d3e b50c 2ebe d6cc b3bd 398c 23be
00000050: e9c1 cc3c 8378 7bbe 28da 4cbe 1e72 e7ba
00000060: 2404 443e 81bc a5bd 20a4 7bbd 543f 87be
00000070: 0b79 75be d34e 03bd 8f8b 90bc 6ef8 a53d
00000080: a7c9 23be 454e 67bc 0a41 a7bc 16f3 31be
00000090: b184 fabc a122 25be f9e9 5b3d f677 703d
000000a0: 929f 13be 2699 2abe 39ba 6abe 2a7d 9b3d
000000b0: 1538 293e f2a9 13be 0087 0fbe f5d3 74be
000000c0: 83d5 80be 78c9 4e3d 8386 e33c d5b7 4e3e
000000d0: 33dc d23d 00fc 56be 09f7 403c 2a4c 503e
000000e0: 7ac9 be3c e89a f4bd 7277 20bd 4968 e2bd
000000f0: 508a db3d bc2b 0dbe ddfc 12be 5c0d a2bd
00000100: f4cd c7bd 832a d43d 0457 03be f191 79be
00000110: d39f 9d3c a920 c9bd c034 89bd d0d7 253e
00000120: a151 31be 20d1 0fbe df02 8abd 2942 cfbd
00000130: fb41 333e 81c4 353e d003 11be 8867 81bd
00000140: 20bc 35bd 6f7e 83be 2b0e 5d3e 7cdc 6a3e
00000150: 5867 b1bd b984 423e b7bc 19be 4256 48be
00000160: 6391 0e3e a1f0 cc3d 5ada dcbd 41d8 53be
00000170: 36e4 2b3e 3027 0bbe 7267 3ebe 462d 85bd
00000180: 3e61 2fbe fa20 1ebe aec5 14bb e987 433e
00000190: 70a8 88be 6a0e 043d b3a1 e23d aca0 99bd
000001a0: 6a29 103e 91fc d63d 366d 69be a0ce 73bd
000001b0: 23a6 d93d 3597 cd3d e148 2a3d c082 0f3e
000001c0: 1c8e ae3d 7a88 d8bd e3a8 22be aff9 83be
000001d0: 2362 17be 57b6 9c3d 3d75 d3bc 961f bd3d
000001e0: 17ff 683d 4c7b 16be 1f51 493e 7593 5cbe
000001f0: 86a3 88be 3ac6 b43d aa37 8e3d 09e8 483e
-0.27247202 -0.21405153 0.009921481 0.12523265 -0.078577094 -0.18277436 0.0068201334 0.07874678
-0.039561253 0.12200458 -0.123144746 -0.183085 0.059257753 -0.17774656 0.0393422 -0.01526897
0.20037597 -0.16997035 -0.08779304 -0.1597146 0.024994807 -0.2455769 -0.20005095 -0.0017657911
0.19142205 -0.08092595 -0.06143582 -0.26415503 -0.23971955 -0.032057595 -0.017644672 0.08104025
-0.15994893 -0.014117782 -0.020416755 -0.17377886 -0.03058085 -0.16126491 0.05368993 0.058708154
-0.1441634 -0.16659984 -0.22922601 0.075922325 0.165253 -0.14420298 -0.14016342 -0.2390898
-0.25162897 0.050485104 0.027774101 0.20187314 0.10295906 -0.20994568 0.011777648 0.20341554
0.02328943 -0.119436085 -0.039176412 -0.11055047 0.107197404 -0.13786215 -0.14354272 -0.07912704
-0.09756079 0.10359671 -0.12826163 -0.24372078 0.01924125 -0.098206826 -0.066995144 0.16195607
-0.17316295 -0.14044619 -0.06738829 -0.10120041 0.17505638 0.17750742 -0.1416161 -0.06318575
-0.044368863 -0.256824 0.21587436 0.2293567 -0.086622894 0.18995942 -0.15013395 -0.19564155
0.13922648 0.10006834 -0.10783835 -0.20687963 0.16786274 -0.13589168 -0.18594149 -0.06502776
-0.17126939 -0.15442267 -0.0022700834 0.19094814 -0.26691008 0.03224031 0.11065998 -0.07501349
0.14078298 0.10497392 -0.22795567 -0.059523225 0.10627391 0.10038606 0.04157341 0.14014721
0.08523199 -0.10572906 -0.15884738 -0.2577643 -0.1478353 0.07651966 -0.02581274 0.0923454
0.056883898 -0.14695472 0.19659851 -0.21540625 -0.26687258 0.08826871 0.06944211 0.19619764

encoder.2.0.bias f4 [8]
00000000: a1d7 72be 0615 c9bb 9ca1 2e3e 16a4 2a3e
00000010: 1484 0ebe 58c6 16be 1bb9 7bbd 7f42 03be
-0.23715068 -0.0061365394 0.17053837 0.16664156 -0.13917571 -0.147241 -0.061455827 -0.12818335

encoder.2.1.weight f4 [8]
00000000: 9e2b 753f 8e75 843f 28d6 743f 97e6 743f
00000010: 1164 763f 31a6 713f 965a 723f 2816 6f3f
0.9576968 1.0348375 0.95639277 0.9566435 0.9624644 0.9439421 0.94669473 0.9339318

encoder.2.1.bias f4 [8]
00000000: 7517 2bbd 67ae 9d3d 9040 7abd 4f26 8dbd
00000010: d965 e83b e67f 78bd 449b 65bd e4f5 a0bd
-0.041770417 0.0769928 -0.061096728 -0.068920724 0.0070922193 -0.06066885 -0.056056276 -0.078594

encoder.2.1.running_mean f4 [8]
00000000: cb83 f5be d9e8 89be bc35 14be cb74 843d
00000010: 0329 9bbe c792 91be ed32 b3bd c08b 71be
-0.47952113 -0.2693546 -0.14473623 0.06467589 -0.30304727 -0.28432295 -0.08749948 -0.23588467

encoder.2.1.running_var f4 [8]
00000000: 062f 063f 6f8d 053f 374c c23e b58e 6d3e
00000010: 62fc 803e eceb 693e 5e97 8b3e 8b55 6c3e
0.524155 0.52168936 0.37948772 0.2319897 0.25192553 0.22843903 0.27263921 0.23079507

mu.weight f4 [5, 8]
00000000: c6a6 623e 9601 26be e3ec 8fbe 8443 9b3e
00000010: 866e 25be b48e d33c 583b 27be 630d 05be
00000020: a68b ef3d 24f2 903c b7dd 62bd 20cf 78be
00000030: 99e5 443e caeb 7fbe ed74 3abd ff68 0ebe
00000040: 5b25 91bd c363 d83e b021 aeba 1197 ec3d
00000050: 295c 6bbe 616e bf3d d8b9 353d 8f0d 5abe
00000060: 94d5 8cbe d0e2 633e 6f97 36be 8bcc b7bd
00000070: bbc9 3d3e a47e 633e 5d53 8b3e 4431 c8bd
00000080: e912 04be 0201 9f3e 6f6f b23e 8b81 8bbe
00000090: 28b6 7c3e 0ed8 0d3e 0fdf 943d ff5c 443b
0.22133932 -0.16211542 -0.28110418 0.30324948 -0.16155443 0.025824882 -0.16331232 -0.12993388
0.11696558 0.017693587 -0.055387225 -0.24297762 0.1922821 -0.2499229 -0.045521665 -0.1390724
-0.07087203 0.42263612 -0.0013285186 0.11552251 -0.22984375 0.09347225 0.044366688 -0.21294235
-0.27506697 0.22254491 -0.17831205 -0.0897456 0.18533985 0.22216278 0.2721204 -0.09775022
-0.12897839 0.31055456 0.34850642 -0.2724727 0.24678862 0.1385195 0.072691076 0.0029962657

mu.bias f4 [5]
00000000: 6930 693c a841 27be 528b 26be 9af2 04be
00000010: b74c 70be
0.014232733 -0.1633364 -0.16264084 -0.1298317 -0.23466764

sigma.weight f4 [5, 8]
00000000: bce9 c8bd cc9d d93e 64d6 223d f45a 0d3c
00000010: 668b cb3d f9c1 853e 5218 593d c6d4 28be
00000020: 48f6 babd 6165 79be 4b7e 603e 586f c33d
00000030: c450 a7bd b907 32be c962 2b3c 8688 e1bc
00000040: 4cfa 54be 1bb0 413e 4b4c 9abe 8195 5fbd
00000050: 90c6 99be f51c 833e a8a0 96be bf88 273e
00000060: 9c74 5b3e 0e5d 38be 565c 013d 1c0d 60bd
00000070: 0c97 cfbd b89f d5bd 9516 8ebd a20e 75be
00000080: 3e6f b0be 69f3 9fbe 387c 983e ec42 813d
00000090: 8826 2ebe 6ff9 c13d 6166 73be 461f 57be
-0.09810206 0.42503202 0.03975524 0.008627642 0.099386975 0.26124552 0.05300171 -0.16487417
-0.09129006 -0.24355079 0.21923177 0.095427215 -0.08169702 -0.17385758 0.010460564 -0.02753092
-0.20798606 0.18914835 -0.30136332 -0.054585937 -0.30034304 0.2560803 -0.29419446 0.16360758
0.21431202 -0.18004248 0.0315822 -0.054700002 -0.10136232 -0.104308546 -0.06937901 -0.23931363
-0.3445987 -0.31240395 0.2978227 0.063115925 -0.17006886 0.09471404 -0.23769523 -0.21008024

sigma.bias f4 [5]
00000000: 3cfa 89be 4bc7 c33d cfa1 cf3d 52ce 193e
00000010: e8ed 6a3e
-0.26948726 0.095594965 0.101382844 0.15020111 0.22942317

decoder.0.0.weight f4 [8, 5]
00000000: 8f2b 2cbe 324c 263d 001b 353e 16df 863e
00000010: b981 ae3e 9936 97bd bd1d 393e 1521 4d3e
00000020: 78a4 d7be 77d2 003e 7886 7b3e 2840 d9bd
00000030: 04b3 863e 5c0a 923d 1350 d33e 0cf9 f2bc
00000040: b426 59be 7fc9 d5be 704d b6be 6939 a83d
00000050: 542f 9c3e dd5f 13be 94d4 aebd b1fe 58be
00000060: c6a2 633e ba58 44be 74cd 903e 6b49 853e
00000070: 238f 4dbe 04a4 abbe b6d5 69bb 5354 e83d
00000080: 2f9d 78be 2971 cf3e cc13 1b3e d655 bbbd
00000090: 12ed f53d bff9 bfbe 51f8 e53e dce8 263e
-0.16813491 0.04060001 0.17686081 0.26342076 0.34083346 -0.073834606 0.1807775 0.20032151
-0.42117667 0.12580286 0.24563015 -0.1060794 0.26308453 0.07130882 0.4127203 -0.02965977
-0.2120617 -0.41755292 -0.35605955 0.08214075 0.30504858 -0.14392038 -0.0853664 -0.21190907
0.22230062 -0.19174471 0.28281748 0.26032576 -0.20074134 -0.33523571 -0.003568036 0.113442086
-0.24278711 0.40516022 0.1514427 -0.09147231 0.12008108 -0.3749523 0.44916013 0.16299766

decoder.0.0.bias f4 [8]
00000000: f7d0 6f3e 90cf 40be 3a8c 8bbd aac7 863e
00000010: 10cf 31be a974 92be 9b30 cdbe eba8 aebd
0.23419558 -0.18829179 -0.068138555 0.26324207 -0.17364144 -0.2860463 -0.40076146 -0.08528312

decoder.0.1.weight f4 [8]
00000000: 25a5 803f cbe3 6f3f 8219 723f c9ba 753f
00000010: 0f68 863f 8e97 803f 3e8e 863f 4cc1 7f3f
1.0050398 0.9370696 0.9457017 0.95988137 1.0500506 1.0046251 1.0512159 0.9990432

decoder.0.1.bias f4 [8]
00000000: b9ac 56bd fc7d 8bbd 04fe 75bd 4a5e 4bbd
00000010: 3b9c 323d 24f2 dcbc 8908 d93c b708 d8bc
-0.052410815 -0.06811139 -0.0600567 -0.049650468 0.043606024 -0.02697093 0.026493328 -0.026371343

decoder.0.1.running_mean f4 [8]
00000000: abe9 473e 720c 65be d470 e0bd a1ae bf3e
00000010: 8c81 1dbe 8c51 acbe 6faf debe ea2e d5bd
0.19522731 -0.22368029 -0.1095902 0.3743792 -0.1538145 -0.33655965 -0.4349322 -0.10409339

decoder.0.1.running_var f4 [8]
00000000: e9c6 813e 1ba6 933e 9701 a23e 53ed ba3e
00000010: ed34 543e 17a7 ab3e fa67 8c3e 4e91 d23e
0.2534707 0.28837666 0.31641838 0.3650919 0.20723315 0.33525917 0.27423078 0.41126484

decoder.1.0.weight f4 [16, 8]
00000000: b3e9 6c3d 9edf 0bbe f6b2 87be b1b7 973e
00000010: f24b 203e f969 77be edc4 a5bd bbe8 87be
00000020: b509 0c3e b8dc 98be 7f8f fdbd 3557 84be
00000030: fd09 77be 69a8 2fbd 5596 4e3e 8e5d b73e
00000040: 0899 2a3e 2b3e 823c a7b2 cebd 66d1 373e
00000050: 25a2 863d 2e37 8bbe 947f 9ebe e31c 423d
00000060: 13ba 0ebe 6059 9dbe 6c95 4b3e 4b53 b0bd
00000070: 70cb a4be f3b5 17bd 96c1 b53e f79e 61be
00000080: c0be a03e ba21 ed3d df33 8fbe 4b8b fbbd
00000090: b7e1 863d 09fb 583e 4fa5 94bc 5a00 933e
000000a0: 622b 453e 5bc6 4f3e 3604 253c 1291 7dbd
000000b0: 307d 96be 9f9f a3be 91a1 54be 1eb6 25be
000000c0: 6c8b 023d 8c6a 363e 82ea a3bd 9ac7 02be
000000d0: d95e 00be 7003 be3e e010 693e 58b6 96be
000000e0: b7a3 6a3e 5eb4 7cbd d0d0 74be 6844 d23d
000000f0: bcea 233e 0963 a33e 257c 1a3d ceb6 323e
00000100: dbe3 933d 1ca0 683e 9af0 8bbe 2b63 99be
00000110: 6554 743d a1a4 093d bcb1 3c3e 0dcd 7d3e
00000120: 0c08 e1bd 8c49 a2be 4861 00be 4ef7 b8bd
00000130: ff37 5dbe 6be1 5f3c ba06 433e 7c0c c7bd
00000140: a341 293e 91c3 ff3d 4e95 9f3e db7e d5bc
00000150: 846c b3bd 430e 64bc 037a bcbd c634 a23e
00000160: 3725 843a 2e61 8dbe ef3c 46be 0d1d 36be
00000170: 51aa 183d fdae 963c 9cae 793e 4381 723e
00000180: 6514 cbbd d799 6abd a240 893e 923d 1bbc
00000190: 3c4b 823e 8385 99be 78ac 20bd 1770 413e
000001a0: f6c5 a8be efcc 78be 2f9e ecbc 4606 62be
000001b0: 372f c83e 3dfb cd3c cf35 de3d 2f81 b1be
000001c0: 0d9c 7ebe a73d afbd ffd2 c6bd ccaa 82be
000001d0: 684f d93b 50ff 7a3e 53fa a7be f9f5 6dbe
000001e0: 092e de3a 0cd5 18bd 4641 8bbe 4c7e 373e
000001f0: 9f08 e6bd 5cfe 4f3e 2800 9cbe 1737 efbd
0.05784006 -0.13659522 -0.26503724 0.29632333 0.15653971 -0.24161519 -0.08094201 -0.26544747
0.13675578 -0.29855895 -0.12380885 -0.25847784 -0.24124904 -0.042885218 0.20174535 0.35813564
0.1665994 0.015898785 -0.10092669 0.17950973 0.06573895 -0.27190536 -0.3095671 0.04739083
-0.13938169 -0.3073225 0.19881219 -0.08609637 -0.3218646 -0.037038755 0.35499257 -0.22033297
0.3139553 0.115786985 -0.27969262 -0.122824274 0.065860204 0.21189512 -0.018145232 0.28711206
0.1925483 0.2029051 0.010071805 -0.061905928 -0.29392385 -0.3195772 -0.20764758 -0.16182753
0.031871244 0.17814082 -0.08003713 -0.12771454 -0.12536182 0.37111998 0.22760344 -0.29435992
0.22914015 -0.06169545 -0.2390778 0.10266954 0.16007513 0.31911495 0.03771605 0.17452547
0.07221194 0.22717327 -0.27332002 -0.29958472 0.059650797 0.033604268 0.18427175 0.24785252
-0.10987863 -0.31696737 -0.1253711 -0.090315446 -0.21603392 0.013664584 0.19045535 -0.09719178
0.16528945 0.12488473 0.31168598 -0.026061466 -0.08760932 -0.013919416 -0.092029594 0.31680888
0.0010081892 -0.27613205 -0.19359182 -0.1778452 0.0372718 0.018393988 0.24383014 0.23682122
-0.09915999 -0.05727562 0.26807123 -0.009475129 0.25448024 -0.29984674 -0.03922698 0.18890415
-0.32963532 -0.24296926 -0.028884022 -0.22072706 0.39098522 0.025144214 0.10850107 -0.34668872
-0.24864216 -0.08556681 -0.09708213 -0.25520933 0.0066317804 0.24511456 -0.3280817 -0.23238362
0.0016950975 -0.037312552 -0.27198237 0.17919272 -0.11232113 0.20311874 -0.3046887 -0.116804294

decoder.1.0.bias f4 [16]
00000000: 64cc 6ebe bc8f 19bd e8db 603e 8bdf f53d
00000010: 3ff2 abbe fd01 0e3e 53aa 8ebe 0cc6 3cbe
00000020: 0641 4d3e 0ceb 5e3e e0c7 3d3e 6f71 413d
00000030: d318 b03c 214f 4fbe 43de 96be edb1 02be
-0.23320156 -0.03749059 0.21958888 0.12005528 -0.33583257 0.13867946 -0.27864322 -0.18434924
0.20044336 0.21769351 0.18533278 0.04722732 0.021496212 -0.20245029 -0.29466447 -0.12763186

decoder.1.1.weight f4 [16]
00000000: f160 8b3f 6026 863f 1d1c 783f 42c9 823f
00000010: d0c9 823f bba2 6b3f 628f 863f 6949 6f3f
00000020: 5d81 853f d21b 7c3f 153c 833f 09c9 833f
00000030: eae5 6e3f 465b 703f c548 823f bcda 743f
1.0888959 1.0480461 0.969179 1.0217669 1.0217838 0.9204518 1.0512507 0.9347139
1.0430104 0.9847995 1.025271 1.0295726 0.9331957 0.9388927 1.0178457 0.9564626

decoder.1.1.bias f4 [16]
00000000: 4527 863d 95b3 1b3d 4e68 9a3b 6eeb 3e3d
00000010: 68e5 473c 42f8 6ebd 3e2f 253d d339 05bd
00000020: 32b0 953d f822 a03c 71b1 843d 3e8f 8a3c
00000030: 0ef2 2abc 4a38 3cbd 73b8 ad3c 45ac 81bc
0.06550459 0.03801306 0.004712141 0.046611242 0.012200691 -0.058342226 0.040328257 -0.03252585
0.07308997 0.019547924 0.06479157 0.016914006 -0.010433687 -0.04595212 0.021206116 -0.015829215

decoder.1.1.running_mean f4 [16]
00000000: e49e d3be 95e7 01be f857 fa3d 43a8 b2bd
00000010: 5b36 dfbd 2e71 11be b645 51be 7feb e03d
00000020: 5aff a03e e302 5abd cb8c db3e 4e26 213d
00000030: ef02 e43d a435 cebe feb7 2dbf 70e5 9fbe
-0.4133216 -0.12685998 0.1222381 -0.087234996 -0.10899039 -0.14203331 -0.20436749 0.10982417
0.31444818 -0.05322541 0.42880854 0.03934317 0.11133372 -0.402753 -0.67858875 -0.31229734

decoder.1.1.running_var f4 [16]
00000000: 37a4 eb3d 5c5e a73e abb7 633d 3eaa d23d
00000010: 698d 973d 16e6 873d 34ca f13d 12d9 343d
00000020: 5c30 b93d 6493 c43d af04 983d 96e2 1b3e
00000030: c92c 0b3e ef57 f53d c48d 793e 0a9e 1a3e
0.11505931 0.32689178 0.05559508 0.10286377 0.07400019 0.06635682 0.11806145 0.044152327
0.09042427 0.09598425 0.07422768 0.15223154 0.13591303 0.119796626 0.24370486 0.1509935

decoder.2.0.weight f4 [32, 16]
00000000: c655 6ebe a752 813e ef44 233d 32bf da3c
00000010: 2bd8 be3d f52c f03d ea2e 6dbd 88e1 b23d
00000020: e66a 48be 71e9 903e d129 2d3e 4267 513e
00000030: 1cb8 e63d 26be ab3d f67c c83d 66eb 1f3d
00000040: ef1c b4bd 2bc9 1f3d 186f 82be 3de2 b73b
00000050: e7c2 833b 0987 2bbe d0be 0fbe a67e 7abd
00000060: 7801 323e 9cea 923e c84c 373e 8b71 8e3d
00000070: ab97 71be 3902 39be e13b ef3b 352c 06bc
00000080: 30df 233e 100f 78be b8ef 91bd 30de 43be
00000090: 43da 323e b52f 90be 255a 19be d4f7 1d3e
000000a0: 5e16 a4bd f8b5 22be 77b1 5ebe b0bc 363d
000000b0: 5795 323e 59c6 883d c40d 653d 3d8a c0bd
000000c0: c17a b93d 28f8 66be 2da3 bcbd b265 37be
000000d0: c5e1 b83d de95 8bbd f526 86be 16e7 da3d
000000e0: 45d8 9dbd 8e30 53bc d340 ca3d be4d 8fbd
000000f0: 0c38 673d 8873 d63d ff1d 0abe 85c5 4c3e
00000100: ed63 993b 4a19 043d af90 77be 8d7e 613e
00000110: 8072 1f3c 3f9a 0c3e c7cf 083d bf14 b93d
00000120: 96ff 303e 9188 623d f23f 30bc fe43 45be
00000130: 39f9 aebd 4e6a 5abe e300 893e db16 a53d
00000140: c861 85be 983a 4e3b d9ac 0cbe 297a 313e
00000150: 2926 3e3e 9b25 4c3d 723d 533e 96a0 d6bd
00000160: f167 203e cad0 74bd bbf4 37bd be86 f53a
00000170: df95 113d d962 433e 1961 6f3e 280e babd
00000180: 3f5e 813e d5c5 8ebd c020 c7ba 850b 1fbe
00000190: fd3e 31be 9937 f0bd bb15 95bc 00ac 37be
000001a0: 8151 a73d 5844 1bbd 40fb 513c db4f 37be
000001b0: 6b87 ff3c 0476 a9bb 4a71 1bbe 423d a63d
000001c0: 5445 89be 8371 26be 6190 03be 9986 813e
000001d0: b269 a7bc fe7c 9dbd cbaf 8d3d f77a 843e
000001e0: b4a4 953e 0379 17bd 2f18 2abc f470 2abe
000001f0: 230a d1bd 76fe e23d 6b90 32be f494 47be
00000200: afe2 943d 8533 90be fcae f0bd fc6e 33be
00000210: ffec 8bbe f350 63bc 61ee cb3d a000 25be
00000220: 9257 38be f402 ebbd 6db4 02be e594 273e
00000230: 3e03 9e3d cf26 29be 5c6a 40be 9a13 413e
00000240: af26 a03d cfdf ecbd 69dc 653e 595d 96bd
00000250: f00b 49bc 2ddd 9abe 3af2 8dbe 2965 41be
00000260: a3c3 3e3d e904 173e 9531 3fbe 6871 b73d
00000270: 6c2d 5d3e b903 963d bd68 e93c 538d 1dbd
00000280: ce5f 973d 20be 1c3e 0929 4d3e 8c5e 8fbe
00000290: 3da1 8e3d 2c56 bebd 226b 323e 691f 41be
000002a0: 5050 8abe 2901 ba3d 3a1f cfbd edfc fcbc
000002b0: bf33 a13b 8aa5 763d c7dc 9dbd 6ed0 e93b
000002c0: 8fdd 70bd 83f4 e53d fb76 0d3e c910 52be
000002d0: 5aec 8abd 0936 49bd 2af9 403d aa8f 4d3e
000002e0: 50bb 5bbd 5105 803d 9ce3 63be e964 42bd
000002f0: b43e 46be c5d9 e33a 2b50 053e b1b8 08bc
00000300: 52c4 823e b7be d3bd 9a43 753d 897c 97bd
00000310: 7b97 6dbe aa27 78bc 6aae 0dbe da10 083e
00000320: f6b3 09be d01d 6abe 63d0 1b3e b02e 8bbe
00000330: 7aa2 7a3c e1f4 663e 3435 dabd 3b9f 3bbe
00000340: 3bd6 153e f8ac ad3d 9ea2 fa3d 478c f83d
00000350: 4489 713d d8a3 543d d4f8 9fbe fda0 123e
00000360: 11c1 33bd 8613 afbd 3b87 ca3d 0eaf 6e3d
00000370: 46bf 713e 4183 b0bd 26f5 69be b03a 8bbc
00000380: 4a02 943c a5a2 34be 1a59 19bd c594 193e
00000390: a063 583e 2e2a 78bd f963 c8bc f9ef a4bd
000003a0: d425 86bd d844 80bd 16aa 103d 301f 3bbe
000003b0: a26d b2bd 0ea1 7bbe 8c5c 3c3e c9bd ecbc
000003c0: 8be8 62be 4e12 643e b765 dc3c ac2d 253e
000003d0: 9329 123e 52ce 9f3c f150 82bd bdbd 66be
000003e0: 92b6 80bd 9cd0 56bc 404b c0bd 9911 2c3e
000003f0: 274f 90be 7673 fe3d d3d6 4c3e 49ab b33d
-0.23274907 0.2525837 0.039860662 0.026702497 0.093185745 0.11727325 -0.05790607 0.08734423
-0.19572029 0.28303102 0.16910483 0.20449546 0.11265585 0.08385877 0.097894594 0.039042853
-0.08794581 0.039010208 -0.25475383 0.0056116865 0.004021037 -0.1675073 -0.14037633 -0.061155938
0.17383373 0.28694618 0.17900383 0.0695525 -0.23593013 -0.18067254 0.0073008393 -0.008189251
0.16003108 -0.24224496 -0.07125801 -0.19127727 0.17466073 -0.28161398 -0.14975794 0.1542657
-0.08012079 -0.15889728 -0.21747385 0.04461354 0.17439781 0.06678457 0.05592133 -0.09401367
0.090566166 -0.22555602 -0.09210811 -0.17909887 0.09027437 -0.06815694 -0.26201597 0.106886074
-0.07707266 -0.012889994 0.098756455 -0.0699725 0.056449935 0.104712546 -0.13488005 0.19997223
0.0046811015 0.03225068 -0.24176286 0.22020932 0.009731889 0.13730715 0.033401277 0.0903716
0.17284998 0.05530602 -0.010757433 -0.19264218 -0.08543629 -0.21329615 0.2675849 0.08061
-0.26051164 0.003146803 -0.13737811 0.17331757 0.18569244 0.04984055 0.20628908 -0.10479848
0.1566465 -0.05976943 -0.044911128 0.0018732173 0.03554332 0.19080676 0.23376884 -0.09084731
0.25267217 -0.06971327 -0.0015192255 -0.15531738 -0.17309184 -0.117293544 -0.018198838 -0.17936707
0.081698425 -0.037906975 0.01281625 -0.17901556 0.031192502 -0.0051715393 -0.15179935 0.08117153
-0.26810706 -0.16254239 -0.12848045 0.25298002 -0.020436142 -0.07689856 0.069182955 0.25875065
0.2922722 -0.03698064 -0.010381742 -0.1664465 -0.102070116 0.11083691 -0.17437904 -0.19490415
0.07269799 -0.28164306 -0.117521256 -0.17522806 -0.2732925 -0.01387428 0.099575765 -0.1611352
-0.18002155 -0.11475173 -0.1276414 0.16365393 0.07715462 -0.1651871 -0.18790573 0.18855134
0.07819878 -0.115661256 0.22447361 -0.073420234 -0.0122709125 -0.3024687 -0.27723867 -0.18886246
0.046573292 0.14747967 -0.18671258 0.089571774 0.21599358 0.07324929 0.028492326 -0.038464855
0.0739132 0.15306902 0.20035185 -0.2800182 0.069643475 -0.0929378 0.1742368 -0.18859638
-0.270144 0.090822525 -0.10113378 -0.030882323 0.0049194987 0.060216464 -0.077081256 0.0071354425
-0.058805045 0.112282775 0.13814919 -0.20514216 -0.06783362 -0.049123798 0.04711262 0.20074335
-0.053645432 0.06251014 -0.22254795 -0.047459517 -0.19359857 0.0017383626 0.13018863 -0.008344815
0.25540406 -0.1033911 0.059878923 -0.073968 -0.23202316 -0.015146175 -0.13836065 0.13287678
-0.13447556 -0.22862935 0.15216212 -0.27184057 0.0152975265 0.22554351 -0.10654679 -0.1832246
0.14632504 0.08480257 0.12238048 0.12136131 0.058968797 0.051914066 -0.31244528 0.14319225
-0.043885294 -0.08548646 0.098890744 0.058272414 0.23608121 -0.08618785 -0.22847423 -0.016995758
0.018067498 -0.17640169 -0.03743849 0.14998157 0.21131754 -0.0605871 -0.024461733 -0.08053584
-0.06550184 -0.06263131 0.035318457 -0.18273616 -0.08712317 -0.24573156 0.18394679 -0.02889909
-0.2215902 0.22272608 0.02690397 0.16130704 0.14273672 0.01950756 -0.063630946 -0.22533317
-0.062848225 -0.01311126 -0.09389353 0.16803588 -0.28185388 0.12424366 0.20003824 0.087729044

decoder.2.0.bias f4 [32]
00000000: 38f5 d83c 4643 d6bc bbd7 43be 8603 a5bd
00000010: 9ca0 71be f386 e338 9f94 153e 4dc4 8abd
00000020: 5167 c73c bddc 843d 1607 fbbd b37c 483e
00000030: 63b5 143d 255c 0c3e 45f6 28be b85b 4b3d
00000040: 42de 5cbe f336 3fbd fd5d 6f3d 7f8f 2ebe
00000050: 7c82 2fbe 5c81 2dbe b74a dcbd 5826 253e
00000060: e2a1 753d a816 03be 8b8f 043d 3ac0 30be
00000070: 0c69 35be 8e0a 7cbd 56d0 bbbd ab14 403c
0.026484117 -0.026155125 -0.19125263 -0.08057313 -0.23596424 0.0001084934 0.14607476 -0.06775723
0.024341257 0.06487415 -0.12257211 0.19578819 0.036305796 0.13707025 -0.16500194 0.049648017
-0.2156916 -0.046683263 0.058439244 -0.17046927 -0.1713962 -0.16943878 -0.10756438 0.16127908
0.059968837 -0.12801611 0.032363456 -0.17260829 -0.17715853 -0.061533503 -0.09170596 0.011723678

decoder.2.1.weight f4 [32]
00000000: 71db 733f d4aa 743f 5cfc 763f ab1a 733f
00000010: 1a99 763f 3a26 6d3f d18f 763f aa36 753f
00000020: 2d0a 743f 59e7 7f3f 61bc 753f 7434 733f
00000030: 0bb2 733f 48bb 693f 9729 783f b1cb 733f
00000040: dbed 763f 2472 743f 0616 743f 0c16 723f
00000050: f6b5 743f 6f44 773f 6712 6b3f 599a 733f
00000060: dfea 753f dd80 6f3f 12cf 783f 5065 763f
00000070: c623 743f dfa6 763f aba4 733f 9e9e 743f
0.95256716 0.95573163 0.9647882 0.9496257 0.96327364 0.92636454 0.96313196 0.95786536
0.95328027 0.99962384 0.9599057 0.9500191 0.95193547 0.91301394 0.9693846 0.95232683
0.9645669 0.95486665 0.95346105 0.9456489 0.9559015 0.96588796 0.91824955 0.9515739
0.9606151 0.93556005 0.97190964 0.9624834 0.95367086 0.96348375 0.9517314 0.9555453

decoder.2.1.bias f4 [32]
00000000: d8e8 26bd a0ab 14bd 2434 05bd c5c6 18bd
00000010: 6532 17bd 5372 79bd 2d7e 31bd ce33 10bd
00000020: b76d 3ebd d7a7 283d 0197 0fbd e467 4abd
00000030: b9e4 1dbd e384 1dbd 93d5 23bc f655 30bd
00000040: b12e 9dbb fbd7 04bd 6563 25bd 5e16 4fbd
00000050: 3bee d6bc 5222 07bd cde6 9cbd d5c7 3dbd
00000060: d1f7 8bbc 980e 31bd e667 acbc 4696 11bd
00000070: 4e5a 31bd a2e2 08bb f4c4 22bd 3a49 2bbd
-0.0407494 -0.036296487 -0.03252043 -0.037298936 -0.036913294 -0.060900044 -0.04333322 -0.035205655
-0.04649135 0.04117569 -0.035056118 -0.049415484 -0.038548205 -0.03845681 -0.0099996505 -0.04305073
-0.004796826 -0.032432538 -0.040377993 -0.05055844 -0.026236644 -0.032991715 -0.07661209 -0.046333153
-0.017085942 -0.04322681 -0.021045636 -0.035543703 -0.043299012 -0.0020887037 -0.03973861 -0.04181788

decoder.2.1.running_mean f4 [32]
00000000: 26e0 e43e 0a18 02be 3f8b edbe 6e1c 7abe
00000010: 6d81 94bd 1dac 5a3e 65f6 babd 1ec5 5fbe
00000020: 7bae e8be 2f60 28bd a530 53be 21d6 cd3d
00000030: 61b7 6dbe 3c9a 833e 2372 9ebe c55f 033e
00000040: 6a57 9bbe bce8 fe3e 55f3 ec3c 944d bdbe
00000050: c275 59be 8edb 31be 6fe5 1fbe 2afb 633d
00000060: b36c 493d f5cd 17be 687c 783d a417 20be
00000070: afe6 aabe 88f5 f2bd 4b2f b03e 78fa 0dbe
0.44702262 -0.12704483 -0.463953 -0.24424908 -0.072512485 0.21354719 -0.09129027 -0.21852538
-0.45445618 -0.041107353 -0.20624025 0.100506075 -0.23214485 0.2570361 -0.30946454 0.12829502
-0.3034013 0.49786937 0.028924624 -0.3697325 -0.21236327 -0.1736891 -0.15614866 0.05565945
0.04917593 -0.1482466 0.060665518 -0.15634018 -0.33379123 -0.118632376 0.34411082 -0.13865077

decoder.2.1.running_var f4 [32]
00000000: e1be 513e 3c7e 943e 4e3a 3f3e b346 bb3d
00000010: e9fb 2a3e 5b00 623e f2ee 453e bec7 0e3e
00000020: 5149 883e 38b5 813e 0fcb 013e f53b da3d
00000030: ef95 e53e 939b 943e cd1f 6f3d 80e4 103e
00000040: 6672 e13d 762b 893e 2869 353e cd45 893d
00000050: c9d1 803e f482 263e 37ee 9b3d a067 2d3e
00000060: 3248 3d3d 395e dc3d 9d21 583e e446 f13e
00000070: 367d 0c3e 0b58 a03e d701 3e3e 6f11 6c3e
0.20482971 0.2900256 0.18674585 0.09144344 0.16697659 0.22070448 0.19329432 0.13943383
0.26618436 0.2533357 0.12675117 0.10655967 0.44840953 0.29024944 0.058379937 0.14149666
0.11008148 0.2679097 0.17715895 0.067027666 0.25160053 0.16260892 0.07613795 0.16934061
0.04621143 0.10760159 0.21106572 0.47124398 0.13719639 0.3131717 0.1855539 0.23053525

decoder.3.weight f4 [36, 32]
00000000: c72f 6f3d f2e3 01be a2a6 63bd a7fa 3bbd
00000010: d5e9 bebd b4b3 c53d 2785 f43c 03d2 273a
00000020: f656 35bd 3fc9 393e 5eb4 02be 822d 56bd
00000030: da29 08be 5897 9e3d 1008 b8bd ca7c 053d
00000040: a17c 67bd 44fe e6bd 5e6e 0abe 6499 2dbd
00000050: 6e52 b53d 300f abbd 0d4e 043c c8ec 2b3d
00000060: 3fe9 8f3d fe3c 56bd 2d01 bdbd 0717 e13d
00000070: 2a18 8a3d a7b1 ea3c 561b dd3d 40ce 073e
00000080: ad7c 123d 6314 6a3c 2851 b0bd 8226 263e
00000090: 8185 b8bb 0589 153e dbd9 2cbd e3ff eabd
000000a0: bb22 abbd d1ee 7abd 41df 253d e56b 7b3d
000000b0: d301 293e 412d f3bd 466c 543d 32ec f23d
000000c0: 51cb 8cbc 8bff d0bd 4485 413d 5b90 08be
000000d0: 23a8 75bd a3f1 74bd 97f7 bc3d e14d e23d
000000e0: e1aa 41bd 5182 003e f9af d2bd 2f72 bdbd
000000f0: 5f00 2f3d 4dae 4ebc 3287 e13c 2356 d63d
00000100: 7f63 193e 5724 87bd 4909 083e 107d 21bd
00000110: e070 13be 59d3 94bd 6ed3 b5bb 47cb 9d3d
00000120: cce7 ba3d 4728 17be a9c5 fe3d 9bec 5b3d
00000130: 9db0 11bc d7c1 32be 26a5 0abd d844 afba
00000140: d604 e1bd c977 b7bd 9507 02be bd72 4bbd
00000150: 36c7 abbb 8011 f43d 1967 d93d 5e24 bebd
00000160: c3e5 bb3a f4b5 043e 49dd a03d 6585 15bc
00000170: d9fc 763d 9fe3 ebbd ada4 063c 10c8 333c
00000180: 4840 033e 71aa 41bd fc56 0ebe 6f38 4db8
00000190: 3e16 df3b 3c3c 893d 2bd1 2bbe 6fcc b2bd
000001a0: d10b e43d f7ac fc3d 5dd5 32ba cd25 e63c
000001b0: fc50 373e d37d 0bbe 9072 d73b 59c7 f73d
000001c0: 8dd6 d93d 8f07 e0bc 63e4 eaba f09c b0bd
000001d0: 83a4 9f3b 2e89 c23d 6981 823d ca72 83bd
000001e0: 8949 11be 1b71 513d 7a91 fdbd 4591 323d
000001f0: ad59 cbbd 0f39 e73d f330 0fbe bc56 a13c
00000200: e045 6d3d bc1d fa3d e623 043e 1783 f2bc
00000210: 78a5 b53d 0c34 6bbd ffba 8d3d c5a9 cd3d
00000220: ffc2 29bd 3398 483d f46c ebbc 5ca2 133d
00000230: eaf5 f93d 4cc3 f8bd 5abe 83bd 1317 c5bd
00000240: d8c3 99bd 49eb 933d f9aa bd3d 6fe7 8dbd
00000250: e498 1b3d 59c3 ec3d afd7 05be 8e25 5d3d
00000260: 6724 d5bd 813c fb3c 3d4b 31be 8f4c dcbd
00000270: 997b a73d 5e47 27be 1d93 7dbd 681f 603d
00000280: 90c2 9ebd 861a cb3d 234c 823d 6aaf c23d
00000290: d8fc b13d 7fca 0fbd 132d d5bd ffbf e0bd
000002a0: e6af cabd 5b7f 41bd 2069 c23d 8d4d 10be
000002b0: 5c63 aabd a3e8 bb3d 8673 e83b bd56 aa3d
000002c0: 4fac e33c b5bf 37bd 2631 d6bd 7813 aa3d
000002d0: 9302 a63d 4f50 84bd 968f a23d b7e6 2a3e
000002e0: cc23 b6bc 67ed f13c 91d9 f83c a758 5b3d
000002f0: c591 7ebd 66c4 5f3d 8f80 cbbd 9eb0 cabd
00000300: 1ff9 b33d fca7 943d 9722 043e 6df1 01be
00000310: 8aa6 e53d 087b 39be 4bee b7bd 3879 bfbc
00000320: f199 c53d 4565 51be 7a5d f23d 3a7b ddbb
00000330: 5ac7 0d3d ee4e 6abd 1a59 0d3e 2367 68bd
00000340: a53e 18bd 6297 cabd f9b9 edbd e1ec 903d
00000350: ffb2 45bd 6b61 58bd 4ce5 4e3c 4403 25be
00000360: 281a 523d 5456 873d 4a90 083e 9bf0 843b
00000370: 563e fbbd 514c de3d 576c 593d 9484 083e
00000380: 610f bcbd 25fa 74bd 7476 08be 7667 bebd
00000390: 2786 3f3e bc3a 00be 3f16 c03c 37f2 403c
000003a0: 854f d93d e2ed 313e a42f 613c 98c5 f9bc
000003b0: 8faf fb3d 639c 0a3e 19e8 b6bb 66dc d2bd
000003c0: 8ed0 6b3d 16ff 7ebc 5315 c5bd fd8d 793d
000003d0: 2a9e dd3d cdb1 0dbe 53e6 053e 45a1 703c
000003e0: bec5 883c 807b 493e 6569 323c 0796 48bd
000003f0: e491 d7bc 34e4 5bbc 34e2 abbd fa9b debd
0.058395173 -0.1268461 -0.055578835 -0.045893338 -0.09321944 0.09653416 0.029848648 0.00064018386
-0.044272386 0.18143176 -0.12764117 -0.052289493 -0.13297215 0.0774371 -0.08985913 0.03258971
-0.05651534 -0.11278966 -0.13518664 -0.042382613 0.08853613 -0.08352506 0.008075249 0.04197386
0.0702691 -0.05230426 -0.0922874 0.1099072 0.0674289 0.028649164 0.107962295 0.13262272
0.03576343 0.014287087 -0.08609229 0.16225627 -0.0056311493 0.1460305 -0.04219995 -0.11474588
-0.08356234 -0.06126291 0.040496115 0.061382193 0.16504602 -0.11873866 0.05186107 0.11861457
-0.017186793 -0.10204991 0.047246233 -0.13336317 -0.0599748 -0.059800755 0.092269115 0.110500105
-0.047282103 0.12549712 -0.1028747 -0.092502944 0.042724963 -0.012614799 0.027530286 0.10465648
0.14979361 -0.06598728 0.13284792 -0.03942591 -0.14398527 -0.07266874 -0.005548886 0.07704788
0.09126243 -0.14761458 0.124400444 0.05369244 -0.008892206 -0.17456757 -0.033848904 -0.0013371957
-0.109872505 -0.08958394 -0.12698205 -0.04966997 -0.0052422537 0.119174 0.106153674 -0.0928428
0.0014335442 0.12960035 0.07854707 -0.009126042 0.060299728 -0.11518025 0.008217973 0.010972992
0.1281749 -0.047281686 -0.1390037 -4.8928367e-05 0.0068080714 0.06700942 -0.1677901 -0.08730399
0.11135066 0.12337678 -0.0006821955 0.028094197 0.17901987 -0.13622217 0.006574936 0.120985694
0.106366254 -0.027347354 -0.0017920848 -0.086236835 0.0048719062 0.09498821 0.06372339 -0.06418379
-0.14188208 0.051133256 -0.12381263 0.04359557 -0.09929214 0.1129018 -0.13983516 0.019694678
0.057927966 0.12212703 0.12904319 -0.029603524 0.08869451 -0.057422683 0.06920432 0.100421466
-0.04144573 0.048973273 -0.028738476 0.03604351 0.122051075 -0.12146625 -0.06432791 -0.09623542
-0.07508057 0.072226115 0.09261126 -0.06928908 0.037987605 0.11560697 -0.13070558 0.053990893
-0.10407334 0.030668499 -0.17313857 -0.1075679 0.08177871 -0.16335818 -0.061907876 0.05471745
-0.077519536 0.09917168 0.06362178 0.09506114 0.08690804 -0.035105225 -0.10408988 -0.1097412
-0.09896831 -0.047240596 0.09492707 -0.14092083 -0.083197325 0.09175231 0.0070938496 0.08317325
0.027792124 -0.04486056 -0.10458593 0.083044946 0.0810596 -0.0646063 0.07937543 0.16689573
-0.022233866 0.029532148 0.030377181 0.053551342 -0.062150735 0.05463066 -0.0993663 -0.09896968
0.087877505 0.07258603 0.1290382 -0.12689753 0.112134054 -0.18113339 -0.08980998 -0.023373231
0.096485026 -0.20448788 0.118342355 -0.0067590745 0.034613945 -0.05720418 0.13803521 -0.056738984
-0.037169117 -0.09892155 -0.11607737 0.07076431 -0.048266407 -0.05282728 0.012627911 -0.16114527
0.051294476 0.06608263 0.13336292 0.0040570027 -0.12267749 0.108544 0.053081837 0.13331825
-0.09182621 -0.05980887 -0.13326436 -0.09297077 0.18703519 -0.12522405 0.023448108 0.0117764985
0.1061087 0.17375901 0.013744269 -0.030489728 0.122893445 0.1353622 -0.0055818674 -0.10295944
0.05757194 -0.015563747 -0.09623208 0.060926426 0.10821183 -0.13837357 0.13076143 0.014686887
0.016695853 0.19676018 0.010889386 -0.048971202 -0.026314683 -0.013421107 -0.08392754 -0.10869594

decoder.3.bias f4 [36]
00000000: d3e2 cc3d 78aa 64bd cd66 023e a7be 1c3b
00000010: c4ce 003d 7eff 86bb 459f de3c bd7f 7dbd
00000020: 7c60 f03d c4b3 78bd 588b 04be 3b8e 66bc
00000030: 7715 653d 7dca c03d b5fc ddbd 3250 023e
00000040: 8fd7 dfbd 424d 0d3e 4ad5 31bd e6e7 04be
00000050: 2c01 96bd 9af0 f03c 8417 4e3d e7c2 8a3d
00000060: 4b47 edbd dde4 6cbc 8437 b33d 373e 133d
00000070: cd6b 223d 7f3e c1bd b8a6 c4bd fa96 76bd
00000080: 2c52 023d 1c3c 0b3e 7772 9bbc 2869 8d3c
0.10004201 -0.055826634 0.12734528 0.0023917349 0.031447187 -0.0041198125 0.027175555 -0.0618894
0.11737153 -0.060718313 -0.1294378 -0.014071996 0.055928674 0.094136216 -0.10839216 0.12725905
-0.109297864 0.13799003 -0.0434163 -0.12979087 -0.07324442 0.029411603 0.050315395 0.06775456
-0.11585864 -0.014458862 0.08750823 0.035948005 0.039653588 -0.09435748 -0.096021116 -0.060202576
0.031816646 0.13597149 -0.01897548 0.017262056
