experiments/data/numenta_vae/machine_temperature_system_failure.csv-.ckpt (torch, 64107 bytes, 102 tensors)

encoder.0.0.weight f4 [16, 32]
000000 ed f0 1e be 30 2b 03 3e 72 1d b2 3d 8f e6 a9 3d
       -0.15521593 0.12809443 0.086970225 0.08295929
000010 f1 5a 84 bd aa f9 a5 3d ab 5e c5 3d b0 a6 02 bd
       -0.06462658 0.0810426 0.09637197 -0.031897247
000020 9d e3 a5 3c 72 6a 50 3d bb 1c cd 3d 7b 61 de 3d
       0.020250136 0.050882764 0.100152455 0.10858437
000030 4b 1c 5f 3d a9 63 89 bd c3 f2 10 3e b0 4a c4 3c
       0.05447034 -0.06708462 0.14155106 0.023961395
000040 ac 46 e0 3d 0e 3b 94 3c 59 e4 ad 3a 60 ce 1e be
       0.109509796 0.018094566 0.0013266905 -0.15508413
000050 8d ad 95 3b b3 98 b7 3d b5 62 f8 bd cb 30 9f bd
       0.004567808 0.08964672 -0.12128202 -0.077729784
000060 19 8e e4 3d 65 34 45 bd 74 79 70 bd 3f 36 0d bd
       0.111599155 -0.04814567 -0.058709577 -0.03447556
000070 83 0d 1c 3e 82 52 ea bc 75 b9 27 bd 2a bb 0a 3d
       0.1523953 -0.028603796 -0.04094835 0.0338699
000080 ff 89 bd bc b7 d2 a7 bd 99 0a 92 3d 4e 5a 1c bc
       -0.02313709 -0.081944875 0.071309276 -0.009543015
000090 9b 83 68 3c 36 31 e1 3d bd 40 0c be ba c6 66 3d
       0.014191533 0.10995714 -0.1369657 0.056341864
0000a0 01 dc 1d be 2d 63 0f be bc 54 cb bd eb c1 d1 bd
       -0.15415956 -0.14002676 -0.09928271 -0.10242065
0000b0 99 53 af 3d bb 06 eb bd 9a 7e e2 3d 9c 4d d5 bd
       0.08560867 -0.11475893 0.110593036 -0.104151934
0000c0 e5 f5 c8 3c 22 0d 3e 3d 3f eb a7 bc 3c 6e 13 be
       0.024531314 0.046399243 -0.020497916 -0.1439752
0000d0 52 12 86 bd 05 6a 24 be 7c 51 a3 3d c9 bf 84 3d
       -0.06546463 -0.16056068 0.07974526 0.064818926
0000e0 df 9b e2 ba 11 ef 98 3d a0 0c 25 3d 7b c8 3a be
       -0.0017288885 0.07467473 0.040295243 -0.1824054
0000f0 3b eb e2 bc 9b 82 26 be 4d 1b c5 bd db a9 11 be
       -0.027700057 -0.1626076 -0.09624348 -0.14224951
000100 cf 0f 1c bd fc 72 15 3c 0c f5 3f 3d 30 8b 85 3d
       -0.038101014 0.009121653 0.046864554 0.065206885
000110 83 dc 02 be a3 3e b1 bd 30 e9 ed bd 51 02 85 3d
       -0.12779431 -0.08654525 -0.116167426 0.064945824
000120 04 db be bd 9c 32 0b bd 4e 28 6e 3d f1 a1 f8 3c
       -0.09319118 -0.03398381 0.058143906 0.030350657
000130 fe b9 13 3d d0 d1 47 be cc 2b 0a bd 12 f6 3d bd
       0.036066048 -0.19513631 -0.033733174 -0.04637725
000140 f8 f7 8c 3d 6d 99 57 3d 81 68 ae bd 48 ca 4d be
       0.06883234 0.052636553 -0.08516026 -0.20096695
000150 a9 b3 60 bc 41 d3 95 3c 74 95 a3 bd 75 01 8d bd
       -0.013714709 0.01828921 -0.0798749 -0.068850435
000160 d8 2a e2 bd 47 7a 9c 3d c4 b1 a8 bd 71 4c 69 3d
       -0.11043328 0.0764051 -0.08237031 0.056957666
000170 27 17 08 be 57 40 ff 3c 75 03 d5 bd 90 ef ad 3d
       -0.13290082 0.03115861 -0.1040105 0.084929585
000180 0e b9 03 be 9b b3 f0 3d ca 23 c3 bc 7c f9 11 3e
       -0.12863562 0.11753007 -0.023820776 0.14255327
000190 10 f4 31 3e 7f f5 c3 bc 42 ae 03 3e c7 02 13 be
       0.17378259 -0.023920773 0.12859443 -0.14356528
0001a0 34 2c 7f 3d cd 06 92 3d c6 8e 88 bc 60 be 13 3e
       0.062298015 0.071302034 -0.016669642 0.14428091
0001b0 db 65 aa 3d ec 2c d9 3d 49 7b 31 be cb 97 d7 bc
       0.08320209 0.10604271 -0.17332186 -0.026317498
0001c0 48 25 a2 3d 0f c1 63 3d 09 2a d6 bc 1e 97 a5 bd
       0.07917267 0.055604037 -0.02614309 -0.08085464
0001d0 05 30 37 be 03 76 ba 3d 83 2a 95 3a 72 ab ef 3d
       -0.17889412 0.0910454 0.0011380467 0.117026225
0001e0 3e 5d 02 be 4e 00 8a 3d 4e 40 34 be 32 20 e3 bc
       -0.12730882 0.06738339 -0.17602655 -0.027725313
0001f0 44 07 e5 3c 8a 99 0f be 69 26 f7 bd 7d df 78 bd
       0.027957566 -0.14023414 -0.12067873 -0.06076001
000200 ad 52 e9 bd d5 35 73 bc bc d3 5a 3d 64 95 0a be
       -0.11392722 -0.0148443775 0.053424582 -0.1353355
000210 e4 ac b8 3d 7d 79 1f bc 85 a9 5f 3d 65 dd 7f 3d
       0.09017351 -0.009733555 0.054605026 0.062466998
000220 b2 8b f5 bd fb b3 8d 3d 10 c7 c0 bd f9 f0 32 bd
       -0.119895354 0.06919094 -0.09412968 -0.04368684
000230 7a 2e 3f be 68 0a e4 3c 11 b8 e5 bd 56 bc 22 be
       -0.18670073 0.027836993 -0.112167485 -0.15892157
000240 ce 12 36 be 89 5e 2d be fb 80 d2 3d 4c 56 39 be
       -0.17780611 -0.16930594 0.10278507 -0.18099326
000250 da d4 57 3d c4 93 7a 3d 57 57 86 3d ea c6 17 3e
       0.052693225 0.061176077 0.065596275 0.14821973
000260 16 53 69 3d 80 4a 08 3e 4f 4c e8 3d ad 0a 9a bb
       0.056964003 0.1330967 0.1134268 -0.0047009797
000270 b8 4d 93 bc 9c 54 73 3c 9e 44 b8 3b 69 c6 68 3d
       -0.017981395 0.014851715 0.005623414 0.056829844
000280 b0 58 b2 bd 7a 49 08 be c8 d0 07 3d 70 3e f6 bd
       -0.08708322 -0.13309279 0.033158094 -0.12023628
000290 e5 b8 2b 3d 97 45 13 3c 7f 37 a6 3d 38 9b e7 3c
       0.041924376 0.0089887595 0.08116054 0.028272256
0002a0 df bd ff 3d 15 35 9c bd 9d 33 22 3e 88 3d 68 3d
       0.12487387 -0.07627312 0.15840001 0.056699306
0002b0 6b d4 fa bd f9 c7 e4 bd ca f6 3b 3e c9 fc 88 3d
       -0.12247547 -0.11170954 0.18355861 0.0668884
0002c0 4b 56 c0 bc 94 3a 06 3e 18 3d 55 3d d8 8f 9d 3d
       -0.023478648 0.13108283 0.052060217 0.07693452
0002d0 d7 1a e3 3d da 2d fa 3d b6 d7 0f 3e 2b b3 98 bd
       0.11089104 0.12215777 0.14047131 -0.074560486
0002e0 de 57 23 be cb 7a 0a bd 52 96 31 3e e6 b4 86 bd
       -0.15951487 -0.03380851 0.17342499 -0.065774724
0002f0 8b 98 19 3e 0a 11 01 3e 70 6e f2 bc 18 b4 2b be
       0.14999597 0.12604156 -0.029593676 -0.16767919
000300 c7 24 32 3e 1d 0b ed 3d cd 3b fd 3b 6e 7d 9d bd
       0.17396842 0.11574385 0.007728076 -0.076899394
000310 96 17 07 be a0 0f 16 3e 0a dd a7 3d db de ca bd
       -0.13192591 0.14654398 0.08196457 -0.099057876
000320 cf 91 93 3b 8d bb 46 bd ee b8 93 3b 59 74 11 be
       0.0045034657 -0.048518706 0.0045081293 -0.1420454
000330 b5 89 ae ba c0 9b 24 3e 7e 0d 05 be 7e f0 4d bd
       -0.0013316186 0.16075039 -0.12993428 -0.05027818
000340 22 33 cb 3d 4d aa 8a 3d e2 20 8d bb ca 79 ca bd
       0.09921862 0.067707635 -0.0043068985 -0.09886511
000350 39 21 8e ba fa f1 21 bc 7f c3 26 3e b2 26 88 bc
       -0.0010843641 -0.009884352 0.16285513 -0.016620014
000360 f6 46 4c 3c 6b 1c 00 3e 21 14 03 3d c5 c3 4b 3d
       0.01246809 0.1251084 0.03200162 0.049747247
000370 9e 8b 17 3e 4b f5 db 3d 3b cf 17 3e 6d 59 00 be
       0.14799353 0.10740145 0.14825146 -0.12534113
000380 1a c6 3c 3e 31 79 d6 3c c7 b7 1a 3d a3 ec e3 bd
       0.18434945 0.026180835 0.03777292 -0.11129119
000390 8a 3e 52 3b c2 27 cc 3d 41 8f 17 3e 42 53 8c bd
       0.0032080733 0.09968521 0.14800741 -0.06851818
0003a0 f1 b3 a9 bd 36 fc e3 3d 23 93 44 3d 30 77 a4 3d
       -0.08286274 0.1113209 0.047991883 0.08030546
0003b0 77 fc 0f be c0 12 7f bd 83 8a a5 bd 00 e3 2b 3e
       -0.14061151 -0.06227374 -0.0808306 0.16785812
0003c0 78 8c b4 3d c6 7c c9 3d 4a 3a b4 3d 96 af d2 bd
       0.08815855 0.09838252 0.0880018 -0.102873966
0003d0 d7 66 91 bd 8c b1 1a 3d 23 f2 fa bd 4a 32 ba bd
       -0.07099693 0.03776698 -0.12253215 -0.09091623
0003e0 c8 20 01 bd 9e e8 22 3e ec 14 0e 3e cb 8b ce bd
       -0.031525403 0.15909049 0.13875169 -0.10085257
0003f0 85 b1 36 3e 7e 4f 97 3d 25 0f 23 3e ef 94 20 be
       0.17841156 0.07388209 0.15923746 -0.15681814

encoder.0.0.bias f4 [16]
000000 52 f3 22 be d5 2f aa bd 12 4c 42 3d a9 18 06 be
       -0.15913132 -0.083099045 0.047435828 -0.13095345
000010 23 f9 64 3d a1 84 d0 bc 86 38 92 3d f3 74 0b be
       0.055901658 -0.025453867 0.07139687 -0.13618831
000020 a1 74 ac 3d 12 2b da bd 41 18 05 bd 38 f0 1e 3d
       0.08420683 -0.10652746 -0.032493833 0.03880331
000030 21 39 9f 3d a3 0d 09 3e 55 c0 a8 3c ac a6 a1 bc
       0.07774568 0.13384108 0.020599524 -0.019732796

encoder.0.1.weight f4 [16]
000000 7f 42 74 3f 80 67 87 3f 46 d4 87 3f 41 e3 7f 3f
       0.95413965 1.0578461 1.0611656 0.99956137
000010 40 1d 81 3f 1a bd 7c 3f 72 75 79 3f da 4f 7d 3f
       1.0087051 0.98726046 0.9744483 0.9894997
000020 1f c7 7d 3f ea a0 7a 3f 29 3f 84 3f 6d 2b 80 3f
       0.9913196 0.97901785 1.0331775 1.0013252
000030 0f 23 7f 3f a6 45 80 3f c0 7a 84 3f 4a 2d 7c 3f
       0.9966287 1.0021255 1.034996 0.98506606

encoder.0.1.bias f4 [16]
000000 9c 08 05 3c c8 4e b7 3c 62 0d cf 3c 0e 7f 3b ba
       0.008119728 0.022376433 0.025274936 -0.00071524165
000010 63 0f 80 bb ed 04 76 3b b6 b6 9e 3c 2b 3d 95 bc
       -0.0039080842 0.0037539557 0.019374233 -0.018217644
000020 c6 24 b1 ba f7 7a f4 bc fe 66 e0 bc 60 7e c9 bc
       -0.0013514988 -0.02984379 -0.02739286 -0.024596393
000030 aa f9 57 3d 4d b3 78 bb 54 d2 b3 3c 98 29 d6 bc
       0.052728333 -0.0037948668 0.021950878 -0.02614288

encoder.0.1.running_mean f4 [16]
000000 c5 0d ae 3e 6a a1 86 bf 34 b2 37 bf 0e 3b 02 be
       0.3399488 -1.051801 -0.7175629 -0.1271784
000010 9e 5b 78 be 96 aa 02 3f 01 4e 26 3f 85 d0 db 3e
       -0.24253699 0.51041543 0.64962775 0.42932525
000020 07 ee 18 3c 06 ee 93 3e 64 c1 0f bf 54 d9 8a bd
       0.009334094 0.28892535 -0.56154466 -0.06779733
000030 87 5a 04 bf 14 cd 8f 3f 04 80 57 bf 98 1d d6 be
       -0.51700634 1.123446 -0.8417971 -0.41819453

encoder.0.1.running_var f4 [16]
000000 07 fe e9 3a 04 a9 bb 3b b0 2b 73 3b b5 f8 5f 3a
       0.0017852195 0.0057269353 0.0037104897 0.0008543835
000010 00 04 a9 3a cb c6 17 3b d7 8f 05 3b f5 05 f1 3a
       0.0012894869 0.0023159261 0.0020379925 0.0018388616
000020 07 62 bb 39 92 1b 86 3a e2 ba f5 3a 03 88 5b 3a
       0.00035740455 0.0010231605 0.0018747712 0.00083744543
000030 03 b0 23 3b e3 f5 d4 3b 13 01 a0 3b 48 d9 7f 3a
       0.0024976737 0.0064990385 0.0048829406 0.00097598555

encoder.1.0.weight f4 [8, 16]
000000 43 60 e6 3d 7d 63 b0 3d f1 be 6c 3e 17 36 0d be
       0.11248829 0.08612726 0.23119713 -0.13790165
000010 0d 72 a5 3d 9e ae b6 bd 1d 48 1d 3e 46 66 a0 3d
       0.08078394 -0.08920024 0.1535954 0.07832007
000020 f6 4d f9 3b c4 4b 63 3e 6b 84 de 3c 68 54 86 bd
       0.0076081706 0.22196871 0.027162751 -0.06559068
000030 18 c1 15 3e 65 52 8a be 6c 4c b4 3d ac 3a bc bd
       0.1462444 -0.27015987 0.08803639 -0.09190878
000040 7e 87 36 be c2 b8 92 3d fb 85 86 3e 7e 8c f5 bd
       -0.17825124 0.07164146 0.26274094 -0.119896874
000050 a9 12 9d bb db f5 e7 bd 8b 9d 26 3e 91 09 2b be
       -0.004793484 -0.1132619 0.16271035 -0.16702868
000060 c9 2e 4f 3e ba f3 11 3d 07 ef 36 3e 8b 5f fd 3d
       0.20232691 0.035632826 0.17864619 0.12371739
000070 87 9a 30 3e 51 e3 3a be 81 3f 66 bd d9 3f bc bb
       0.17246448 -0.18250777 -0.056212906 -0.005744916
000080 aa 27 5e bd 04 d6 bc 3d bd c0 fc 3c 0b c6 2f 3d
       -0.054237045 0.09220508 0.030853624 0.042913478
000090 2f 9c a2 bd 7d 85 3c 3a d0 93 7f bd 2e f3 5a be
       -0.07939946 0.0007191522 -0.062396824 -0.21381828
0000a0 0f b3 da 3b c1 02 51 3d e5 8d ab bd f4 bf 2c bd
       0.0066741775 0.051028017 -0.083766736 -0.04217525
0000b0 69 a3 88 3e 9f 63 4c 3e e5 f8 c9 3d 1e a2 ed 3d
       0.26687172 0.19959877 0.09861926 0.11603187
0000c0 03 a0 15 3e 6a 85 1e 3e 11 e5 76 bd 8e 8b 65 3e
       0.14611821 0.15480581 -0.06027705 0.22416517
0000d0 2b 30 f9 3d a8 61 87 3d 99 20 56 3b cf b3 ba 3d
       0.121673904 0.06610423 0.0032673238 0.09116327
0000e0 cc 02 2a 3e 24 7e 3a 3d 13 a2 3a be b3 ad ba 3d
       0.1660263 0.045530453 -0.18225889 0.09115162
0000f0 88 88 8d bd 6b 81 43 3e 8d c1 0e 3d 87 aa 30 3e
       -0.06910807 0.19092338 0.034852553 0.17252551
000100 5e f3 ac 3d 2f f0 26 3c b9 60 9a bc ef 0a 63 be
       0.08444856 0.0101891 -0.01884495 -0.2217214
000110 14 ed 2f be 08 d0 73 be db 8a ad bd d1 4e f8 3d
       -0.17180282 -0.23809826 -0.0847375 0.12124408
000120 a2 b6 3c 3e 8d 42 b3 3d 99 bd d4 3d 7b de ab 3d
       0.18429044 0.08752928 0.103877254 0.08392044
000130 bd 63 2e 3e 8e 11 2e be 08 57 7f 3d 07 85 dc 3c
       0.17030235 -0.16998884 0.06233886 0.026918901
000140 0d 60 1c 3e a4 d8 9a 3e b2 3e 67 3d ed 02 49 bd
       0.15271015 0.3024341 0.056456275 -0.049075056
000150 51 f9 d0 3d da 52 09 be 30 2b 9c bd f5 cf 07 be
       0.10203803 -0.13410512 -0.07625425 -0.13262923
000160 3b 97 2a 3c f7 0f ed 3c 16 4a e7 3d ff f6 26 be
       0.010412033 0.028938277 0.11293428 -0.16305159
000170 01 0b e3 bd 2e 06 69 3e cf ef 43 3e 83 cf 38 be
       -0.11086083 0.22756264 0.19134448 -0.1804791
000180 74 f6 09 3e de 6e d0 3c c4 b2 d3 bc 55 9d 94 bc
       0.1347292 0.02544349 -0.025842078 -0.018141428
000190 f3 8a 8a bd 20 4f 49 3d a1 54 47 3e fb 69 15 be
       -0.06764784 0.049147725 0.19465877 -0.1459121
0001a0 ca 7d 80 be 42 ea 28 be 34 7c c8 3c ab 38 c5 bd
       -0.2509597 -0.16495612 0.024473287 -0.09629949
0001b0 c6 59 37 3e 5a ab 88 be 52 ba a6 bd 47 17 82 be
       0.1790534 -0.2669323 -0.081410065 -0.25408384
0001c0 a4 aa 3b be 2c 5a 45 3e 79 9f a7 3c 32 ec 63 3e
       -0.18326813 0.19272679 0.020461785 0.2225807
0001d0 e5 2d e0 3d f9 c7 82 3d db 77 70 be bf fc c7 3d
       0.10946254 0.06385798 -0.23483221 0.09765004
0001e0 7a ea 41 be 7b 8a 80 bd 56 51 fd 3b 77 96 e8 3d
       -0.18937102 -0.06276413 0.0077306433 0.11356824
0001f0 b2 d5 55 bc 2a 8e 51 3e 93 0f 3b bc cb 38 d8 3d
       -0.013051437 0.20464388 -0.011417287 0.105577074

encoder.1.0.bias f4 [8]
000000 b0 9e 12 bb c9 68 3d 3e 34 eb 80 bd ce 48 57 be
       -0.0022372417 0.18497004 -0.062948614 -0.21023867
000010 8f 37 0b be a2 0f 34 3e 50 13 fb bd 10 00 33 be
       -0.13595413 0.17584088 -0.12259543 -0.17480493

encoder.1.1.weight f4 [8]
000000 ae 58 7d 3f 1f 37 87 3f 35 a3 7f 3f 17 ca 70 3f
       0.9896344 1.0563697 0.9985841 0.94058365
000010 e1 39 75 3f 05 e2 82 3f 63 42 72 3f 5f df 8a 3f
       0.9579144 1.0225226 0.9463255 1.0849417

encoder.1.1.bias f4 [8]
000000 e2 72 5d bd 87 f3 22 3d f6 bd d2 bc ee 4f 4f bd
       -0.05406464 0.039783027 -0.025725346 -0.050613336
000010 01 4c 8e bc 47 d8 cd bc 00 96 b2 3c 04 2b b7 3d
       -0.017370226 -0.025127543 0.021800041 0.089437515

encoder.1.1.running_mean f4 [8]
000000 bb db 78 3e c4 01 b2 3e 4e 40 ce 3d 0b 48 76 3e
       0.2430257 0.34766972 0.10070859 0.2405092
000010 43 97 03 be fb 61 ad 3e 75 f4 cc be 6f cb e6 3b
       -0.1285067 0.33863816 -0.40030256 0.007043294

encoder.1.1.running_var f4 [8]
000000 2b d4 c5 3d 66 95 b9 3e bf 4f a7 3d a3 ca aa 3d
       0.096596085 0.36246794 0.08169507 0.08339431
000010 5c d1 a7 3d d4 54 9f 3d cd 6b 5c 3d 8c a4 8d 3d
       0.08194229 0.077798516 0.053813744 0.069161505

encoder.2.0.weight f4 [8, 8]
000000 7c 6a 0f 3d 09 9d 2f be 51 14 aa be 2f 06 27 3e
       0.03501366 -0.17149748 -0.33218625 0.16310953
000010 8f ec 51 be 72 14 de bd 70 3e 51 be 67 5e 02 be
       -0.20500396 -0.108437434 -0.20433974 -0.12731324
000020 c2 02 9a 3e f1 e5 ae 3e 5a 88 13 be bf 22 84 3e
       0.3008023 0.34159806 -0.14407483 0.2580776
000030 0a 75 59 3e bf 65 8e bd 8d 9e af 3d f4 b5 a2 3e
       0.21236053 -0.06953 0.08575163 0.31779444
000040 81 c9 ab be 20 2c 81 3e b6 81 07 3e 61 47 d9 be
       -0.33552173 0.25228977 0.13233075 -0.4243727
000050 7c d4 5d be f3 fe f9 bd 3c 77 aa 3c 25 a3 62 bc
       -0.21663088 -0.12206831 0.020808809 -0.013832842
000060 2b 04 84 3d ac 1d d2 be cc 82 6a be b6 86 71 3e
       0.064461075 -0.41038263 -0.22901458 0.23586544
000070 0e fa ff bc b4 12 83 3d cc 67 db 3d 3e 12 6c be
       -0.031247165 0.06400052 0.10713157 -0.23053834
000080 a1 d4 93 bd f9 11 a8 bd b6 d5 37 bc 16 72 20 3e
       -0.0721829 -0.08206553 -0.011220386 0.1566852
000090 76 a8 f5 3d 91 15 b7 3d 8e 30 df 3d 83 c5 d1 be
       0.11995022 0.0893966 0.10897933 -0.40971002
0000a0 7b ab cc be 06 31 89 bd 15 d6 31 be 16 be 04 be
       -0.3997458 -0.066988036 -0.17366822 -0.12963137
0000b0 6c fc fe 3d 90 dd a5 be 93 77 c1 3d 0e ba 21 be
       0.124504894 -0.323956 0.09446635 -0.1579363
0000c0 b8 d8 e7 be c5 f5 9c bc 12 e6 4e 3e 93 43 22 be
       -0.4528253 -0.01916016 0.20204952 -0.1584609
0000d0 20 7f 47 bc ab a8 da be f4 55 98 bd 88 0d fe 3d
       -0.012176305 -0.42706808 -0.07438269 0.12404925
0000e0 4d e2 2b 3e 9c 14 a5 be b6 82 94 bc 92 db 4d 3c
       0.16785546 -0.32242286 -0.018128734 0.012564557
0000f0 d0 23 37 be 8d ee b0 be 84 1c 0e 3d 38 7b f5 bd
       -0.17884755 -0.34557 0.034695163 -0.11986393

encoder.2.0.bias f4 [8]
000000 22 c8 f4 3d f0 57 40 be d7 66 b0 3d 2c b5 08 be
       0.11952235 -0.18783545 0.08613365 -0.13350362
000010 fe f4 94 be ac bb 94 3e f4 02 7a 3e 19 10 74 3e
       -0.29093164 0.29049432 0.24415189 0.23834266

encoder.2.1.weight f4 [8]
000000 64 65 6a 3f a2 b0 55 3f b7 a6 55 3f 80 44 6c 3f
       0.9156096 0.83472645 0.8345751 0.9229202
000010 49 d9 61 3f a2 43 5a 3f ca 7b 5b 3f 6d ec 6a 3f
       0.88222176 0.8525945 0.8573576 0.9176701

encoder.2.1.bias f4 [8]
000000 ab 1b ac bd 78 28 0a be ca 63 c0 bd 3f bc bc bd
       -0.08403715 -0.13492 -0.09394033 -0.092155926
000010 cd 5a e7 bd 8e 11 bd bd 01 b9 e0 bd 11 bd d7 bd
       -0.11296616 -0.09231864 -0.10972787 -0.105341084

encoder.2.1.running_mean f4 [8]
000000 d2 d8 8c be 5f c3 af 3e 78 56 14 be 20 bf b7 be
       -0.2750917 0.34328744 -0.1448611 -0.35888004
000010 53 15 c2 be 79 5e eb bd b3 c5 13 bd 99 4c be bd
       -0.37906894 -0.114926286 -0.036077213 -0.092919536

encoder.2.1.running_var f4 [8]
000000 df 31 a4 3e 2a 25 c3 3e 8c 4e ca 3d 6b 1c 95 3e
       0.320693 0.3811429 0.09878263 0.29123244
000010 0d 5e d6 3d be 8e f8 3e 56 23 57 3e 59 78 9d 3e
       0.104671575 0.48546404 0.21009573 0.3075588

mu.weight f4 [5, 8]
000000 cf 98 cd bd 82 50 41 3d 4c f9 b2 3d 8a c6 86 3d
       -0.100389116 0.04719592 0.08738956 0.06580837
000010 78 d2 34 3e 73 7b 5b be 74 07 3f bc af 18 a8 bd
       0.17658412 -0.21433811 -0.011659492 -0.08207833
000020 13 b8 4d 3e 59 1c a8 3d 26 f1 2c 3e 68 7d 0b be
       0.2008975 0.08208532 0.16888866 -0.13622057
000030 55 44 37 3d de e4 e7 3c 6d 78 a4 3d 30 5e f3 3c
       0.0447429 0.028307375 0.08030782 0.029707998
000040 ca f4 90 3c 8d 46 80 3c c5 17 89 bd d4 87 50 be
       0.01769485 0.015658641 -0.06693987 -0.20364314
000050 c0 7b 39 3d 7e 81 cd 3d c5 57 e7 bd 2e 79 02 3e
       0.045284033 0.10034464 -0.112960376 0.12741539
000060 29 ea a0 bc 70 63 32 3d 99 f6 19 3e 4f 8f 3a 3e
       -0.019642906 0.043551862 0.15035476 0.1821873
000070 ce bf 28 3e 43 3e 4f bb 5a 7a 8c 3d f5 ce 51 be
       0.16479418 -0.0031622804 0.06859274 -0.20489104
000080 3b 17 29 be 8c de d5 bd 0e 6d 0f be ec 5b 1d 3e
       -0.16512768 -0.10442838 -0.14006445 0.15367097
000090 0c 38 92 bc 92 4e a5 3d 6a db bf 3a 14 97 73 be
       -0.01784899 0.08071627 0.0014637534 -0.237881

mu.bias f4 [5]
000000 1c 86 b1 3c 6c 8d 06 be 0d ca b8 3c 1c 89 e2 bd
       0.021670394 -0.13139886 0.022557283 -0.11061308
000010 92 36 fb 3d
       0.12266268

sigma.weight f4 [5, 8]
000000 41 c6 09 be d1 8c fe 3c fe fa 40 bd c9 13 14 3e
       -0.13454534 0.031073006 -0.047114365 0.14460672
000010 62 ff 39 3d 16 9d d3 3d b9 43 83 3d b8 01 bf bd
       0.045409568 0.10332696 0.064094014 -0.093265
000020 a9 67 3c 3e 61 6c fd 3c 35 b7 a0 3e 03 37 ab bd
       0.18398918 0.030935468 0.31389776 -0.08360102
000030 5c a8 a4 3d e1 e3 0b be 66 4e 34 be fc ae aa 3c
       0.080399245 -0.13661148 -0.17608032 0.020835392
000040 a0 d2 ee 3d ed 37 d2 3d f7 c9 55 3e 4f d7 26 bd
       0.11661267 0.10264573 0.20877825 -0.040732678
000050 28 0a 15 3d 11 44 72 3d f9 ea 7a bd 0d 9a 42 3d
       0.03638664 0.059146944 -0.061259244 0.047510196
000060 b6 81 0f bd 9f ee 52 bd 67 47 43 bd 7b d9 5e 3e
       -0.03503581 -0.051497098 -0.047675516 0.2176265
000070 27 46 53 be b7 f3 c2 3d 4b dc 91 bd 68 4f 4d be
       -0.2063223 0.09519141 -0.07122096 -0.20049822
000080 1b e7 99 be 19 58 77 39 bd b5 c0 bd c9 17 79 3e
       -0.30059132 0.00023588575 -0.09409664 0.2432548
000090 64 66 c5 3d 1a 76 3a be 81 0e 24 3e bb 9e 25 3e
       0.0963867 -0.18209115 0.16021158 0.16173832

sigma.bias f4 [5]
000000 b2 66 c3 bc 5d 17 8b bd b0 f8 17 be 3b 5a 86 3d
       -0.02385268 -0.067915656 -0.1484096 0.06560179
000010 0e 46 0d bd
       -0.034490637

decoder.0.0.weight f4 [8, 5]
000000 92 42 91 3c 91 4d 7e 3e f4 ae 27 be 9a c7 ee 3d
       0.017731939 0.24834277 -0.16375333 0.11659165
000010 4b 78 07 3e 55 ee 83 be e9 65 cc be 4a d9 b0 3d
       0.13229482 -0.2576777 -0.399215 0.086351946
000020 c4 74 e0 3d 1a 85 63 be 4e f1 fb 3e c0 2d b9 3e
       0.10959771 -0.22218743 0.49207538 0.36167717
000030 0a 40 26 3e bc a2 8c be 94 47 5e be a2 ce 13 3e
       0.16235366 -0.27467906 -0.21706992 0.14434293
000040 6a f3 fd 3e c7 ac 78 be 25 25 13 3e 00 f8 14 3e
       0.49599773 -0.2428466 0.14369638 0.1454773
000050 9a f6 e1 3e 3f 20 e0 3e 0f 60 22 3e 29 73 0d 3d
       0.44133455 0.43774602 0.15856956 0.034533653
000060 8b 84 b1 be d3 11 aa bd 84 3a 53 be 75 83 4f 3d
       -0.34671435 -0.08304181 -0.2062779 0.050662477
000070 c7 92 44 be 06 cd 14 3e 42 1b e3 be b0 16 02 bf
       -0.19196616 0.14531335 -0.44356734 -0.5081587
000080 87 78 ad 3b 26 4a f8 3d 51 f4 f3 3d e5 f3 f8 bd
       0.005293909 0.12123518 0.11911834 -0.12155894
000090 d9 94 8e be 9c 2a 4e 3d 60 eb a1 be c1 42 aa 3e
       -0.27847937 0.050333604 -0.3162489 0.33254054

decoder.0.0.bias f4 [8]
000000 9b 6f be 3d e6 d5 68 3e ac 49 d7 3d 15 8d 10 3e
       0.09298631 0.22737846 0.10512099 0.14116319
000010 9b ca 9a bc bb cd ac 3d 7e f3 2e bc 9e 16 23 3c
       -0.018895438 0.084376775 -0.01067817 0.009954123

decoder.0.1.weight f4 [8]
000000 4b 90 89 3f 91 4e 80 3f b8 e0 44 3f 36 7a 85 3f
       1.074716 1.0023977 0.76905394 1.0427921
000010 cc 44 71 3f f4 fd 82 3f 35 d3 82 3f 48 80 76 3f
       0.942456 1.023375 1.0220705 0.9628949

decoder.0.1.bias f4 [8]
000000 12 65 d6 bc 97 25 21 3e ae d2 8b be cc bd 47 3e
       -0.026171241 0.15736996 -0.27309173 0.19505996
000010 69 30 dd bd 24 de 62 bd 4b 6e 12 3e 36 ec 06 3b
       -0.10800249 -0.05538763 0.14299886 0.002058757

decoder.0.1.running_mean f4 [8]
000000 33 a5 c2 3d 9a a7 63 3e 22 17 ed 3d 07 ff 14 3e
       0.095041655 0.22231904 0.11576678 0.1455041
000010 fd b9 1d bc 25 57 ab 3d 8d 6b a0 bc 77 d5 ed 3b
       -0.009626863 0.08366231 -0.019582534 0.007258113

decoder.0.1.running_var f4 [8]
000000 70 da fe 3d 51 ea 9c 3e cf b5 08 3f 7a 29 c7 3e
       0.124440074 0.3064752 0.5340242 0.38898832
000010 15 44 0d 3f 0c c3 ec 3d 5a d6 02 3f 6e e1 a0 3e
       0.5518201 0.1156064 0.51108325 0.3142199

decoder.1.0.weight f4 [8, 8]
000000 33 42 34 bd 78 c0 02 be af be b9 3d c1 7f cc be
       -0.044008445 -0.12768734 0.09069573 -0.39941218
000010 ab a8 2e be c2 85 f0 bc f6 43 b4 3d fc 22 8e 3e
       -0.17056529 -0.029360656 0.08802025 0.27761066
000020 16 e7 9a be 2c ca 23 be c9 d6 29 3e dc 69 8e be
       -0.3025443 -0.15995091 0.1658584 -0.2781514
000030 f5 18 eb 3d 85 a4 b0 3d 3b db 0d 3e 6c b6 94 3d
       0.114793696 0.086251296 0.13853161 0.07261357
000040 61 fe cc 3c f2 75 32 be 2c e2 54 bd 07 5f 25 3e
       0.025023641 -0.17427805 -0.051973507 0.16149531
000050 65 dd f1 3d 63 74 bd be 14 5d 17 be cb b6 ef bb
       0.11809806 -0.3700286 -0.147816 -0.007315492
000060 5b f8 9d be b8 f6 3d 3d 3f df 85 3d bc 68 d7 bd
       -0.30853543 0.046377867 0.065367214 -0.10518023
000070 54 a4 33 3e 0b 6e a7 3e 74 b4 b6 3e 64 d5 9d 3e
       0.17543155 0.32701144 0.3568455 0.30826867
000080 25 e4 02 be 66 b7 2f 3e bd ff 04 be 51 ca cb be
       -0.12782343 0.17159805 -0.12988181 -0.39802793
000090 0d 8b 00 be f2 bc a9 3d d2 69 9d 3d 6d 21 21 be
       -0.12553044 0.082879916 0.07686199 -0.15735407
0000a0 b4 ff 6e 3e 41 e6 4f bd c3 b8 81 3e be ff e9 bd
       0.2333973 -0.050756697 0.25336275 -0.11425732
0000b0 99 f8 09 bc da a2 96 bd ec 0b 6e be 85 33 6f 3c
       -0.008421087 -0.0735528 -0.23246735 0.014599686
0000c0 75 22 b0 be a3 31 85 3e 33 23 62 bd 46 5c df bd
       -0.3440129 0.26014432 -0.05520935 -0.10906272
0000d0 48 dc 5d be ba a0 33 3e d1 50 09 3e 37 1e 34 3e
       -0.21666062 0.17541781 0.13409735 0.17589651
0000e0 d7 8d 97 3e d8 38 c8 be c9 4d 93 bd 18 e9 9d 3e
       0.29600403 -0.39105868 -0.07192571 0.308419
0000f0 4e 48 9d 3e 69 1d 4f be 16 b7 1c bd c8 e0 44 be
       0.30719227 -0.20226063 -0.03826054 -0.19226372

decoder.1.0.bias f4 [8]
000000 26 f1 87 3e 97 1f ae be 1e f9 81 bd b9 86 6f be
       0.2655117 -0.34008476 -0.063463435 -0.23391236
000010 5c 19 6d be 24 01 95 be 57 ee d2 3b 3a 9d 9f 3e
       -0.23154205 -0.29102433 0.0064371037 0.31174642

decoder.1.1.weight f4 [8]
000000 64 5a 6d 3f 1b 5c 41 3f f6 db 5d 3f 70 75 63 3f
       0.9271605 0.75531167 0.8666376 0.8885107
000010 fd a2 75 3f 25 9e 4f 3f 4c ea 99 3f 52 dc 90 3f
       0.95951825 0.81100684 1.2024627 1.1317236

decoder.1.1.bias f4 [8]
000000 59 b3 84 bd ac 4c b1 bd 30 53 d1 3e d6 14 40 bc
       -0.0647952 -0.08657202 0.4088378 -0.011723718
000010 57 90 0f 3e 46 ab 73 be 34 86 73 3e 06 53 80 3e
       0.14019905 -0.23795804 0.23781663 0.25063342

decoder.1.1.running_mean f4 [8]
000000 98 be a5 3d 59 53 fa be 1e 35 73 be df 3b b5 3d
       0.080929935 -0.48891714 -0.23750731 0.0884931
000010 95 e0 ed be e3 c5 bb be dc 01 58 3d 72 6e a7 3e
       -0.46460405 -0.36674413 0.05273615 0.3270145

decoder.1.1.running_var f4 [8]
000000 73 9a 24 3e d8 fd 1a 3e 26 6b 52 3e 00 ad ce 3e
       0.16074543 0.15135896 0.20548686 0.40366364
000010 5b 34 74 3e 68 89 8c 3d 7b 8d c6 3e 1a 84 12 3f
       0.23848097 0.06862146 0.38779816 0.5723282

decoder.2.0.weight f4 [16, 8]
000000 13 53 b0 3b c8 99 3b 3e e7 29 44 be d0 d0 bc bd
       0.005380997 0.18320382 -0.1915661 -0.09219515
000010 ae f5 98 3d 70 cf 04 bd 8c 06 22 3d 19 7a 8e be
       0.07468735 -0.03242439 0.039557025 -0.27827528
000020 cf 70 b0 bc 2f a4 b7 3c 64 14 b3 bd dc c9 31 3d
       -0.021538166 0.022417156 -0.087441236 0.0434054
000030 ac ba 02 3c 17 1c e1 be 6f 8d 26 bd 84 cc 15 be
       0.007979076 -0.43966743 -0.040662225 -0.14628798
000040 9c d3 c8 3d e1 24 bf 3d 58 a2 2a bd f4 f2 4b be
       0.09805986 0.09333206 -0.04165873 -0.19916898
000050 3c 28 2d 3c 06 70 a7 3d 6a 18 3a 3e 06 90 d9 be
       0.010568675 0.08175664 0.18173376 -0.42492694
000060 e2 ee 80 3e d3 67 89 be bf 1f 80 be 7d 59 01 bd
       0.25182253 -0.26837024 -0.2502422 -0.031579483
000070 8f e6 b8 3d 70 33 02 3e 62 d3 2a bc 52 e9 84 be
       0.090283506 0.12714934 -0.010426374 -0.2595926
000080 13 47 0a 3e a8 14 b7 3d 22 cf 72 bc 00 89 9b bd
       0.13503675 0.08939487 -0.014819892 -0.0759449
000090 c0 94 03 bf 91 bd 06 be 14 91 12 bf 55 0a 73 3e
       -0.5139885 -0.13158251 -0.5725262 0.2373441
0000a0 c7 e5 23 be cf 58 45 3c 19 01 b5 bc 1f 1e 8a be
       -0.16005622 0.012045099 -0.02209525 -0.26976106
0000b0 64 81 07 be a9 24 83 bd 92 0a 93 be d5 16 5a bd
       -0.13232952 -0.06403477 -0.28719002 -0.05324443
0000c0 5d e4 9e 3e a4 2e 97 be 23 2e 57 be ca 1b c4 bd
       0.31033602 -0.2952777 -0.21013694 -0.09575613
0000d0 a9 4c b0 3d f2 10 39 3e b9 f9 33 3d 50 09 2a be
       0.08608372 0.1807287 0.043939326 -0.16605115
0000e0 41 ce db be 0b 62 09 be bc 6f 13 3e 8c da 40 3e
       -0.42930797 -0.13416307 0.14398092 0.18833369
0000f0 07 3f b5 be 98 3a de 3d cb fd e4 be 20 d3 68 3d
       -0.3539965 0.108510196 -0.4472488 0.05684197
000100 89 52 94 3d f8 96 26 3e 6d c7 b8 3d e7 e5 2c 3d
       0.07242305 0.16268528 0.090224124 0.04221144
000110 69 39 c3 be 71 69 28 3e 9d 80 22 be bd 65 32 3e
       -0.38129738 0.16446473 -0.15869375 0.17421623
000120 0d 40 da bd ca 5b 0c 3e d8 c6 98 bd 9e 2a e7 be
       -0.10656748 0.1370689 -0.074598014 -0.45149702
000130 20 e8 b5 bd e8 17 26 be ef c9 84 be 84 2f 15 bd
       -0.08882165 -0.16220057 -0.25935313 -0.036422268
000140 ff 50 93 3e c8 2d b6 be ed b9 57 3d 40 b3 35 be
       0.28772733 -0.35581803 0.052667547 -0.1774416
000150 f7 e1 93 bd 6c 07 53 be 35 6f 58 3e 66 5d dd be
       -0.07220834 -0.206083 0.21136172 -0.4323532
000160 b1 39 84 bd 4f ba 0a 3d be b6 42 be 2e dd c9 3d
       -0.06456316 0.033869084 -0.19015023 0.0985664
000170 02 86 9f 3c b4 dd 88 be 4e d4 9f bd 0c f4 ad be
       0.01947308 -0.26731646 -0.07804166 -0.33975255
000180 ec 52 90 3e 93 55 32 be 72 b0 b6 be 52 9b bc bd
       0.28188264 -0.17415456 -0.35681492 -0.092093125
000190 05 ef 32 3e e6 e2 71 3e de b0 9e bc 8e 9f cc bd
       0.17473991 0.23621711 -0.019371446 -0.0999137
0001a0 53 e7 95 be 90 d9 3a 3d e8 f5 24 3d e7 60 d9 3d
       -0.2927805 0.04561764 0.040273577 0.10614186
0001b0 a7 b3 25 3e 4d 3c d0 3d b7 d1 77 be f7 45 7f 3d
       0.16181813 0.101677515 -0.24201094 0.062322583
0001c0 cc 10 bd bd ef 37 4c 3d f1 08 c4 3c ea 0c 59 be
       -0.092317194 0.04985803 0.023930045 -0.21196333
0001d0 18 50 99 bc 10 04 0a 3d c4 29 ac be e0 11 80 bc
       -0.01871495 0.03369528 -0.33625615 -0.015633523
0001e0 9e 89 fe bd cf 02 ad bc 70 62 84 3d 0b 92 05 be
       -0.12428592 -0.021119503 0.06464088 -0.13043992
0001f0 2c 1b ab 3d 12 ef 02 be 04 88 02 bf fc 1e 36 be
       0.08354792 -0.1278651 -0.50988793 -0.17785257

decoder.2.0.bias f4 [16]
000000 0e 8f 9c 3e 2c 6b 59 be 5a 2a 04 be 0c c9 5f 3e
       0.30577892 -0.21232289 -0.12906781 0.21854037
000010 4a 51 27 be 1a cc 99 bd 4d 9b 02 be ba 68 2f be
       -0.16339603 -0.075096324 -0.12754555 -0.17129794
000020 a7 07 96 3e 64 bb a2 3d 69 3e 96 bd 5c 15 22 be
       0.29302713 0.07945898 -0.073361225 -0.1582846
000030 82 e8 cd 3d b2 89 74 be e1 76 96 3e 71 0e b9 be
       0.10054113 -0.23880652 0.29387572 -0.3614383

decoder.2.1.weight f4 [16]
000000 84 1f 8f 3f a5 80 67 3f a9 3c 83 3f 31 50 97 3f
       1.1181493 0.9043067 1.0252887 1.1821347
000010 40 c4 93 3f 60 84 8f 3f 1d 3a 6d 3f cb fe 7c 3f
       1.1544266 1.1212273 0.926668 0.98826283
000020 58 5d 64 3f 83 cf 76 3f e9 1f 6c 3f 51 9e 77 3f
       0.8920493 0.9641039 0.9223619 0.96725947
000030 f6 55 88 3f eb 11 61 3f 4d 81 8e 3f d7 24 89 3f
       1.0651233 0.87917966 1.113321 1.0714368

decoder.2.1.bias f4 [16]
000000 f4 38 3d 3e 45 11 82 bd 46 42 2c 3e 61 33 35 3e
       0.18478757 -0.0635095 0.16822156 0.17695381
000010 b3 0a 2d 3e 1b 8a 0f 3e 97 e1 0e 3d 07 76 05 3e
       0.16898613 0.14017527 0.034883108 0.13033305
000020 bc d5 84 bb 5d b6 ef 3c 55 3c 34 bd db d2 62 3d
       -0.0040537994 0.029261762 -0.04400285 0.05537687
000030 08 a8 29 3e 70 b8 86 bd 1e 8c 2b 3e 37 75 07 3e
       0.16568005 -0.065781474 0.16752669 0.13228308

decoder.2.1.running_mean f4 [16]
000000 96 a8 c6 3d 3a 59 e5 be de 10 90 be e7 13 87 bc
       0.09700124 -0.44794637 -0.2813787 -0.016488982
000010 f9 3d 1c bf f1 97 01 bf 8a 80 80 be 9e 5c 12 bf
       -0.6103206 -0.5062247 -0.25098068 -0.5717257
000020 aa 81 92 3e d7 0f bc be 5a 8c 94 be c9 1e 0b bf
       0.2861455 -0.36730835 -0.2901333 -0.5434385
000030 8d 47 15 bd a6 a1 8d be 45 2c 4a 3b 7a 63 4f bf
       -0.03644519 -0.2766239 0.003084914 -0.81011164

decoder.2.1.running_var f4 [16]
000000 b5 22 15 3e 17 46 a5 3d 72 19 2e 3e 57 05 04 3e
       0.14564021 0.08070009 0.17001894 0.12892662
000010 1b f8 12 3f 27 e9 48 3e 76 c8 9a 3d 27 ef 00 3f
       0.5740983 0.1962019 0.07557766 0.5036492
000020 d6 01 4b 3e 47 4f 4a 3e 99 a4 3b 3e 64 88 3b 3e
       0.19824919 0.19756804 0.18324508 0.18313748
000030 33 51 bf 3d 60 2e 81 3d 09 81 34 3e 7c f3 3f 3e
       0.093416594 0.063076735 0.17627348 0.18745226

decoder.3.weight f4 [32, 16]
000000 45 af 28 3e 38 70 ac bd fc ce 9f 3d 4c 15 9f 3e
       0.1647311 -0.084198415 0.07803151 0.31070936
000010 68 b3 7f 3e 3d 7a 47 bd 6e 2e 0e be 7b 61 86 3e
       0.24970782 -0.04870056 -0.13884899 0.26246247
000020 81 81 87 bd 13 4b a8 bd 8a 09 ee bb f3 42 8c 3e
       -0.06616498 -0.08217444 -0.0072643207 0.27394828
000030 a9 a2 aa 3d 78 2e 50 3e 6d 2b bd bc 48 68 bc 3e
       0.08331806 0.20330226 -0.023091996 0.3679831
000040 0b 40 c7 3d 9b 90 b1 3d 99 39 3b 3d ae 18 49 3e
       0.09729012 0.086701594 0.045709226 0.19638321
000050 42 fd 3e 3e bc 10 8e 3e fd 19 d1 3d 8a ed 20 bd
       0.18651298 0.27747142 0.10210035 -0.039289035
000060 94 a2 8f 3c e0 d8 bd 3d bc 98 d9 bc d1 93 fa 3c
       0.017533578 0.09269881 -0.026562087 0.030588062
000070 62 5d 83 3d d2 26 3f 3e 72 b4 b4 bc 89 ba 94 3d
       0.06414296 0.18667153 -0.0220587 0.07262141
000080 ac 01 23 3e 7b 1d 93 3e 4c ee 57 3e b0 9d 91 3e
       0.15918607 0.2873343 0.21086997 0.2844062
000090 ae b9 63 3e 8d ac 5d 3e c1 7c f3 bd a4 26 14 3e
       0.222388 0.21647854 -0.11889029 0.14467865
0000a0 fb 11 31 3e f3 a0 01 bd 07 6a cf bd d1 12 ad 3d
       0.17292015 -0.031647634 -0.10127645 0.084508546
0000b0 2c f8 75 3c 3b 0b b8 bc dc 79 1d bd bc 11 6a 3e
       0.015012782 -0.022466293 -0.038446292 0.22858328
0000c0 3e 88 c3 3d 28 ff d6 3d 14 3b e7 3d aa 0d d9 bd
       0.095474705 0.10497886 0.11290565 -0.10598309
0000d0 f0 b6 98 3c 71 9e 91 3e 7c 39 d0 3d 64 af 21 3e
       0.018641919 0.28441194 0.10167214 0.15789562
0000e0 54 fe 1e 3e 40 ad 7e bd b7 8c 15 be c2 30 87 3e
       0.15526706 -0.062176943 -0.1460446 0.26404387
0000f0 4f 78 31 3e f3 67 60 bd bb 76 17 bd e5 2a 2a 3e
       0.1733105 -0.054786634 -0.036978465 0.16617925
000100 11 e0 23 3e 01 1d 9b bd ae e9 fd 3d 7f 0d 77 bd
       0.16003443 -0.075738914 0.123980865 -0.060315605
000110 0b 42 d7 3e 17 5f 5d 3e 5e d7 60 3d b6 47 92 bd
       0.42042574 0.21618305 0.05489289 -0.07142584
000120 0d 43 b3 3d 77 4a 84 bd f3 61 51 3e be 0d 16 bd
       0.08753023 -0.064595155 0.20447521 -0.0366342
000130 55 fa b6 3e f2 c6 4d bd 00 0b cd 3c 96 e0 92 3e
       0.35737863 -0.050238557 0.02502966 0.2868697
000140 69 19 57 3d 2c ec de bd 3b 45 82 3e e9 85 1e 3e
       0.052514467 -0.1088489 0.25443444 0.1548077
000150 e5 08 38 3e 89 5d 82 3e 61 cd f2 3d c4 86 4c 3e
       0.17972143 0.25461987 0.11855579 0.19973284
000160 11 cf 13 be b7 d6 58 3d cc 0f 20 3e b2 99 f8 bd
       -0.14434458 0.052939143 0.15631026 -0.1213869
000170 ee 52 56 3e 5c 8b 71 3e 6c 07 14 3d a6 a9 21 3e
       0.20930073 0.23588318 0.03613989 0.15787372
000180 a7 77 52 3e 4b f2 0b be bc 02 75 3d f3 4f 5e 3e
       0.20553456 -0.13666646 0.05981706 0.21710186
000190 1f 2e 95 3e 74 ce 81 3e 3e 19 f1 bc 73 a5 9b bd
       0.2913675 0.25352824 -0.029430982 -0.07599916
0001a0 d0 ec 86 bd fd 33 45 3e ed d2 8e bc c7 bf eb 3d
       -0.06588137 0.19258113 -0.017434562 0.11511188
0001b0 eb d7 47 3d 3b 51 7c 3e 74 b7 f3 bd 75 87 e7 3c
       0.0487899 0.24640362 -0.11900225 0.028262833
0001c0 eb 29 8c 3d b5 98 c2 3d 00 db ee bd de 3f f7 3d
       0.06843933 0.09501783 -0.11662865 0.120727286
0001d0 cf 7f 8f 3d f0 97 b3 3e 84 15 d0 bc b8 06 05 bb
       0.070067994 0.35076857 -0.025400884 -0.0020298194
0001e0 5e 7b a8 3d 23 49 4a 3d 2d 51 5d bc 6d e9 83 3e
       0.082266554 0.049386155 -0.013508123 0.25764027
0001f0 78 92 54 3e a2 3f fb 3d c7 4d 9d 3c 9d 44 b0 3b
       0.20758998 0.12267996 0.019202126 0.005379273
000200 79 eb c7 3d 58 97 91 3c 59 94 cd 3c 15 6e cd 3d
       0.0976171 0.017772362 0.025095152 0.10030762
000210 0c e0 e4 3d db 9a c8 bc 56 94 38 3e 11 e1 d5 3d
       0.11175546 -0.024487903 0.18025336 0.10443319
000220 03 1e 81 3a d8 1b 7d 3d 15 c0 b6 bd 6a ba d7 3d
       0.0009850863 0.061794132 -0.089233555 0.105336025
000230 cb c6 15 3d fb fe b4 3d 9f 2c a4 3d 25 99 32 3e
       0.036566537 0.08837696 0.08016323 0.17441233
000240 fd ac 99 3c f1 3a 12 be 45 de 8a 3d fb fb 25 3e
       0.018759245 -0.14280297 0.06780676 0.16209404
000250 d7 4b 86 bd dd 13 79 3e d6 d8 6a 3e 2c c6 bf 3d
       -0.06557434 0.24323983 0.22934279 0.0936397
000260 40 59 3f 3e 21 32 80 3e 75 1e 64 bc 5b 9f 92 3e
       0.1868639 0.25038245 -0.013923277 0.28637204
000270 93 6b 61 bd 74 74 b9 3d 34 25 29 bd 23 3d 6e 3d
       -0.05503423 0.09055415 -0.041295245 0.058163773
000280 c8 61 aa 3e c1 6d 08 3e c6 a3 b8 bd 00 82 03 3c
       0.33277726 0.13323118 -0.09015612 0.0080266
000290 af ef 93 bd 47 60 ae 3e bd 40 08 3e fb 19 14 3e
       -0.072234504 0.3405783 0.13305946 0.14463036
0002a0 c0 e3 5b bd c4 05 97 3c be 7c e4 3d d9 c8 52 3d
       -0.053683996 0.018435366 0.11156605 0.051461075
0002b0 0f 97 03 3d 8a 3b 0d 3e 2e 70 9a 3e 9c 70 b7 bd
       0.032126483 0.13792244 0.3016371 -0.089570254
0002c0 04 97 f7 3d 77 38 af 3d 07 5c 3e 3e d6 88 69 3e
       0.12089351 0.08555692 0.18589793 0.22806105
0002d0 e6 7c 2a 3e 53 51 ac bd c8 d0 30 3c cf 40 38 3e
       0.16649207 -0.08413949 0.010791965 0.17993473
0002e0 ce 49 24 3e a3 15 49 3e 27 da aa bd 46 f4 b9 3d
       0.16043779 0.1963716 -0.083423905 0.090797946
0002f0 33 bb 09 bb 38 f1 b3 ba 57 5a 55 bd 1b b3 98 3e
       -0.002101612 -0.0013728505 -0.052088108 0.29824147
000300 36 23 33 3e 36 2d d4 bd fb bb 04 3e e3 8b 98 3e
       0.174939 -0.10360186 0.12962334 0.29794225
000310 58 39 88 3e 78 87 b6 bc d8 8f 31 3e 93 9f a5 3d
       0.2660625 -0.022281393 0.17340028 0.08087077
000320 ba 69 c3 bd 1a 56 01 3e 13 38 07 be 4d 11 cf 3c
       -0.0954165 0.12630501 -0.13204984 0.025276804
000330 12 9b 12 bc 14 24 cf 3d c5 6b 53 3e f6 f3 17 3e
       -0.008948104 0.10114303 0.2064658 0.14839157
000340 db df 2d be 93 77 6c 3e a5 38 98 3e a0 54 a4 bd
       -0.16979925 0.23092489 0.29730716 -0.080239534
000350 15 a8 2e bc 94 7e 83 bc 66 f0 21 bc cb d8 5e 3e
       -0.010660191 -0.016051568 -0.009883976 0.21762387
000360 33 20 38 bc f9 d0 c3 3d bd 1e 89 3e e7 34 18 3c
       -0.011238146 0.09561343 0.26781264 0.009289957
000370 99 f6 66 3e c7 20 86 3d 58 f7 94 3e 1d 31 8d 3d
       0.22555007 0.065492205 0.29094958 0.06894133
000380 b3 89 d2 3d ce f0 5b 3e d6 7f f1 bd d1 fd 24 3e
       0.1028017 0.21478578 -0.11791961 0.16112448
000390 13 51 d1 3c 69 f2 a6 3e 9d d9 2b bd 5c ec 08 3d
       0.025551355 0.3260682 -0.04195558 0.033428535
0003a0 b2 09 15 3d 10 c1 97 bd 20 a6 02 3e 7f f6 fa bd
       0.0363862 -0.074098706 0.12758684 -0.12254047
0003b0 c9 a3 64 3e 8f 1b 1f 3c 06 f7 62 3e 90 f3 04 bc
       0.22328104 0.00971116 0.22164544 -0.00811471
0003c0 3c 5b 8c bc 90 8d 57 3d 58 45 8a bd 70 16 34 3e
       -0.017133348 0.05262524 -0.067515075 0.17586684
0003d0 cb 09 c3 3d 61 00 dd bd fb 8c a7 3b db f3 66 3e
       0.09523352 -0.10791088 0.0051132417 0.22553961
0003e0 ad ef 3e 3e 6a d7 0e 3e df 45 cd 3d 14 fb 8f 3e
       0.18646117 0.13949361 0.100230925 0.28121245
0003f0 e9 d6 9a 3e 3f c7 da bd da bb 86 3e 5d df 89 3e
       0.30242088 -0.106825344 0.26315194 0.26928225

decoder.3.bias f4 [32]
000000 40 76 06 bd e6 c3 04 3e ea ec 9f bd f9 84 49 3e
       -0.032827616 0.12965354 -0.0780886 0.19679631
000010 4f 44 64 bd a1 77 a5 bd 2d b2 25 3e a8 4f 3a 3e
       -0.055729207 -0.08079458 0.1618125 0.18194449
000020 19 51 89 3e b7 9c 39 3e ea 6a d8 3d 29 8c 63 3d
       0.26819685 0.18126188 0.10567267 0.05555359
000030 52 72 ec 3c 61 f9 1d 3e 8d f0 63 3e b7 cd ae bd
       0.028863106 0.15427162 0.22259732 -0.08535331
000040 98 95 7a 3e 27 98 ca bd 7f 24 ec bd 6e 41 e9 3d
       0.24471128 -0.09892302 -0.115303986 0.11389433
000050 ed ae a8 bb f2 3b 10 3d f3 e0 9b 3e a4 fb 07 bd
       -0.005147806 0.03521342 0.3044506 -0.033198968
000060 c9 c3 34 3e 16 aa 91 bd af c5 d7 bd d5 6e 5e 3e
       0.17652811 -0.071125194 -0.10535752 0.21721967
000070 03 b6 f4 3d 81 b7 fc 3d 86 f5 91 bd 1e 63 96 3d
       0.119487785 0.12339688 -0.07126908 0.07343124

exp_avg f4 [16, 32]
000000 f7 d8 d8 b7 3c d0 4e 37 d7 fc 1a b8 82 04 18 38
       -2.5850239e-05 1.232704e-05 -3.6951937e-05 3.6243822e-05
000010 95 01 e3 36 dc cf 83 38 36 f7 22 38 d0 d7 6a 38
       6.7653114e-06 6.2852836e-05 3.8854043e-05 5.599094e-05
000020 f5 8e 60 b8 2f 4a b7 38 6a da b0 b7 7e f2 44 38
       -5.35389e-05 8.739938e-05 -2.1082542e-05 4.695588e-05
000030 31 14 ed 37 89 08 b9 b7 2a b1 70 b8 9e 61 29 38
       2.8262004e-05 -2.2057693e-05 -5.7385456e-05 4.0383653e-05
000040 16 85 d8 36 67 dc 09 b8 7a 39 36 b8 a0 43 45 38
       6.452795e-06 -3.286861e-05 -4.344571e-05 4.703144e-05
000050 bd 27 a9 b6 23 dd 16 36 3f 44 68 37 77 22 b0 38
       -5.0412186e-06 2.248046e-06 1.3844167e-05 8.3987536e-05
000060 79 b5 1e b7 8e a8 a8 38 58 d3 54 38 5c 95 83 38
       -9.459786e-06 8.04226e-05 5.0741568e-05 6.274387e-05
000070 f9 15 55 38 0c a2 f6 38 2e ac 77 37 26 63 2e 38
       5.080362e-05 0.00011760378 1.4762436e-05 4.1577172e-05
000080 2c 88 8d b8 43 79 8d b8 e5 f6 99 b8 3e 38 59 b8
       -6.748768e-05 -6.745991e-05 -7.341596e-05 -5.178921e-05
000090 a0 99 42 b8 d3 66 4b b8 83 73 90 b7 dd 09 25 b7
       -4.639628e-05 -4.8494734e-05 -1.7219927e-05 -9.837063e-06
0000a0 f9 44 0a b7 d5 0c 0e b7 11 44 be b5 71 a9 80 b7
       -8.2415e-06 -8.466847e-06 -1.4175913e-06 -1.5337691e-05
0000b0 84 a7 3a 38 30 56 b9 b6 64 a1 51 36 d3 17 2f b8
       4.4501867e-05 -5.523463e-06 3.1237369e-06 -4.174544e-05
0000c0 08 92 76 b7 7c 55 55 37 c8 ac 57 b8 a3 69 8f 38
       -1.4696743e-05 1.2715693e-05 -5.142091e-05 6.838448e-05
0000d0 9c 05 04 38 f7 32 5e 38 26 22 9d 37 9e d3 63 38
       3.1476477e-05 5.297639e-05 1.873176e-05 5.43181e-05
0000e0 87 67 57 38 c0 19 68 b7 2e 54 c4 b6 35 9f 6b b7
       5.1356412e-05 -1.3834273e-05 -5.851055e-06 -1.404416e-05
0000f0 d1 cb 11 36 d7 39 50 b7 ee b4 a0 b7 0d 49 a7 37
       2.172532e-06 -1.2411233e-05 -1.9157738e-05 1.9941968e-05
000100 bb 1c 30 b7 c8 cc c0 37 27 f5 d5 37 ef e6 70 b8
       -1.0497107e-05 2.2983542e-05 2.5505737e-05 -5.7435533e-05
000110 f4 ca 51 b6 00 aa 82 b8 00 ce 19 38 ed d4 0c 38
       -3.1261561e-06 -6.230548e-05 3.6669895e-05 3.3576904e-05
000120 16 72 58 37 a3 e3 0b 38 5c d6 1a 38 36 d4 4c b8
       1.2901166e-05 3.3352186e-05 3.69161e-05 -4.8835027e-05
000130 5d fb 98 37 62 aa c4 b7 cc 1b 3b b8 a1 9a bc b8
       1.8236862e-05 -2.3444361e-05 -4.4610162e-05 -8.9933405e-05
000140 20 18 9c b7 7c cd 64 38 ed ea 1e b8 97 59 eb 36
       -1.8607883e-05 5.455081e-05 -3.7888927e-05 7.0139754e-06
000150 85 61 0b b5 55 33 9b 38 5b 8d 40 37 fb b9 40 38
       -5.1923445e-07 7.400537e-05 1.1477004e-05 4.5949575e-05
000160 66 a3 0a 39 c9 a2 e4 36 6c 0f e5 37 1b 39 29 38
       0.00013221576 6.81388e-06 2.7306109e-05 4.0345923e-05
000170 51 c2 18 b7 0e 19 69 38 ac bc 37 38 76 47 85 38
       -9.105149e-06 5.5574863e-05 4.3806314e-05 6.355245e-05
000180 20 f5 b8 38 93 3b cd 38 af f8 91 38 71 93 45 39
       8.819462e-05 9.786258e-05 6.96046e-05 0.0001884231
000190 56 65 ea 38 85 4b 2e 39 0f 1a 8b 39 59 51 21 39
       0.00011176865 0.00016622066 0.0002653156 0.00015384461
0001a0 0f cd 72 39 af 78 27 39 5c 5d 8b 39 75 1c 2e 39
       0.00023155309 0.00015971319 0.00026581704 0.00016604534
0001b0 4a e8 4c 39 11 9b 90 39 11 50 8d 39 04 3e 82 39
       0.0001954149 0.00027581354 0.0002695327 0.00024841737
0001c0 33 18 8b 39 63 08 43 39 c3 ce 03 39 9b eb 59 39
       0.00026530176 0.00018599773 0.00012570158 0.00020782503
0001d0 63 f3 60 39 dc c9 15 39 4f 65 8b 39 96 2a 82 39
       0.00021452973 0.00014284946 0.00026587627 0.0002482726
0001e0 fb 4b 58 39 f9 43 5a 39 94 45 41 39 cd 96 2f 39
       0.0002062767 0.00020815422 0.00018431834 0.00016745478
0001f0 99 50 5a 39 f2 82 4a 39 84 06 33 39 2b 56 80 39
       0.00020820125 0.00019313002 0.00017073198 0.00024478263
000200 f2 70 73 b8 fa 03 b6 b7 76 24 de 35 77 95 04 b8
       -5.8040903e-05 -2.1697942e-05 1.65509e-06 -3.1610452e-05
000210 91 1b ce 37 81 f2 19 b8 ce cc 9d 38 4e ef 93 38
       2.456995e-05 -3.6703892e-05 7.524491e-05 7.05408e-05
000220 c3 6c 9d 38 7b a4 88 38 95 32 78 38 22 89 13 38
       7.506602e-05 6.515622e-05 5.9174916e-05 3.5175246e-05
000230 14 aa 9c 38 d8 17 83 38 1d ff ac b7 d5 c1 b5 b6
       7.470339e-05 6.251008e-05 -2.0622794e-05 -5.4167854e-06
000240 7d 33 92 36 ba 2e 92 38 93 75 39 b8 e1 eb f2 37
       4.357133e-06 6.970526e-05 -4.4216937e-05 2.8958488e-05
000250 4d 96 83 33 cd 37 43 38 85 85 1f 38 2f 90 4e 38
       6.1275024e-08 4.654359e-05 3.8032904e-05 4.924851e-05
000260 d4 90 f2 38 0f d1 3c 38 59 f0 e8 37 1b 24 e6 37
       0.000115664356 4.5017394e-05 2.7768476e-05 2.743495e-05
000270 5d b3 0b 37 68 61 cc 37 a9 ec db b7 c4 b1 8b 37
       8.326807e-06 2.4364053e-05 -2.6217038e-05 1.665287e-05
000280 24 84 f1 36 a9 48 b0 37 c2 ab 4b 37 d0 77 74 38
       7.197743e-06 2.101467e-05 1.2139733e-05 5.8285717e-05
000290 47 b6 76 37 d8 25 09 38 49 cb 43 37 23 40 5a 38
       1.4705182e-05 3.269859e-05 1.1670237e-05 5.2034982e-05
0002a0 81 b4 3b 38 aa 7f 0b 37 70 d4 4e 38 05 8c 0f 38
       4.475238e-05 8.31477e-06 4.9312075e-05 3.422426e-05
0002b0 cf 2c 9a 37 c8 17 1d 38 79 b4 cd 37 0e 8c 3e 38
       1.8379096e-05 3.7453865e-05 2.4521943e-05 4.5429966e-05
0002c0 53 24 83 37 80 79 ff 36 7d 13 87 b7 86 90 e2 b7
       1.5633332e-05 7.6137367e-06 -1.6102329e-05 -2.7008598e-05
0002d0 0d d3 02 b6 44 a7 21 37 b7 24 c7 b7 87 90 1f b8
       -1.9494357e-06 9.635292e-06 -2.3739745e-05 -3.8043156e-05
0002e0 4a 60 eb 36 bf 93 7e b7 a6 cd 23 b7 45 ab 50 b7
       7.0147553e-06 -1.517398e-05 -9.763438e-06 -1.2437643e-05
0002f0 31 29 23 b8 27 0b 5f b8 28 c4 03 b8 a5 d8 e4 b7
       -3.890059e-05 -5.317773e-05 -3.141552e-05 -2.7280601e-05
000300 18 54 19 b9 40 7b bf b8 de 08 2a b9 8c b1 04 b9
       -0.00014622544 -9.130547e-05 -0.00016215767 -0.00012654642
000310 72 68 11 b9 42 35 17 b9 6d 5a 12 b9 c3 bf ee b8
       -0.00013867186 -0.00014420322 -0.00013957331 -0.00011384443
000320 01 50 ff b8 cc 3a 4d b8 bb 98 af b8 e7 6f e4 b8
       -0.000121742494 -4.8930568e-05 -8.3730985e-05 -0.00010892731
000330 67 1b e1 b8 33 a6 08 b9 42 59 06 b9 65 6f db b7
       -0.0001073394 -0.00013031885 -0.00012812487 -2.6158707e-05
000340 1d cd aa b8 95 b7 c5 b7 99 47 43 b8 ca fa 37 b8
       -8.144437e-05 -2.3569717e-05 -4.6558303e-05 -4.3864165e-05
000350 2c 2e 55 b8 35 c9 c9 36 3f 31 39 b8 b4 b2 3e b7
       -5.082616e-05 6.0136904e-06 -4.41533e-05 -1.136649e-05
000360 97 ef 17 38 c0 1b 98 38 0a 1d 88 38 89 c7 a6 38
       3.622434e-05 7.253094e-05 6.490394e-05 7.952663e-05
000370 e0 f8 97 38 8b 7c 52 38 eb 63 43 38 01 c3 9f 38
       7.246598e-05 5.018389e-05 4.658468e-05 7.618033e-05
000380 37 d8 2d 38 5a 93 d0 36 60 69 97 b7 c1 76 8e b7
       4.144778e-05 6.216037e-06 -1.8049672e-05 -1.6983018e-05
000390 46 7c 0f b8 12 81 d4 37 7c f4 7c 38 7a dc 43 38
       -3.4209595e-05 2.5332472e-05 6.0309176e-05 4.6696958e-05
0003a0 97 3d c9 b7 88 95 b0 38 5c 68 9d b7 da 9c 58 37
       -2.3989747e-05 8.420186e-05 -1.8764455e-05 1.2911123e-05
0003b0 ca 61 10 b7 26 54 bd b7 ae 2b de b7 15 d2 f1 b6
       -8.605837e-06 -2.256974e-05 -2.6484802e-05 -7.2068165e-06
0003c0 c2 da 9e b8 29 c9 04 b8 e6 e9 61 b8 9e 7a 90 37
       -7.574774e-05 -3.1658597e-05 -5.3862015e-05 1.7223236e-05
0003d0 af 87 ee b8 b8 25 af b8 a3 f8 cd b8 2c 82 7f b8
       -0.000113739974 -8.351676e-05 -9.821474e-05 -6.091797e-05
0003e0 91 72 27 b9 e9 ae bf b8 2c c4 0c b9 97 41 42 b9
       -0.0001596904 -9.140169e-05 -0.0001342452 -0.00018525716
0003f0 85 73 01 b9 e3 a4 08 b9 e9 93 48 b9 c0 a2 64 b9
       -0.00012345433 -0.00013031396 -0.00019128587 -0.00021804404
