experiments/data/numenta_ae/ambient_temperature_system_failure.csv-.ckpt (torch, 40610 bytes, 48 tensors)

encoder.0.0.weight f4 [16, 32]
0	0xbd4f7d78	-0.050656766
1	0xbd2e8cc3	-0.04261471
2	0xbe835d80	-0.25657272
3	0xbdb35fe9	-0.08758528
4	0xbe6a51e9	-0.22882809
5	0xbe823931	-0.2543426
6	0xbe278324	-0.1635862
7	0xbe217ec8	-0.1577102
8	0xbd1f3977	-0.038873162
9	0x39a31708	0.00031106942
10	0x3bd0061b	0.006348384
11	0x3d1b13d1	0.037860695
12	0xbdec79ca	-0.11546667
13	0xbe8f3f18	-0.27977824
14	0xbe82c5c9	-0.25541523
15	0xbe5d1b0c	-0.21592349
16	0xbe6d0322	-0.23145726
17	0xbcfd5460	-0.030924022
18	0x3d6969df	0.056985732
19	0xbe5700be	-0.20996377
20	0xbe8b6690	-0.27226686
21	0xbdc05525	-0.0939124
22	0xbe666a55	-0.225015
23	0xbddc20fc	-0.10748479
24	0xbe646fa1	-0.22308208
25	0x3d3f9245	0.046770353
26	0xbd79a35a	-0.0609468
27	0xbd760444	-0.06006266
28	0x3a98476a	0.0011617963
29	0xbe47d5a5	-0.19515093
30	0xbd4bf2e6	-0.049792193
31	0xbd5d5193	-0.054032873
32	0x3d9bc084	0.07605079
33	0x3dd98ae2	0.10622193
34	0xbe1501f4	-0.14551526
35	0xbdafd9f4	-0.08586493
36	0xbb72dcde	-0.0037057917
37	0xbe2a9086	-0.16656694
38	0x3ddbb95f	0.10728716
39	0x3af89456	0.0018965106
40	0x3e09d225	0.1345907
41	0x3a3c8f84	0.00071930164
42	0xbd632271	-0.055452768
43	0xbe046b83	-0.12931637
44	0xbc9c3d04	-0.019072063
45	0x3cc79fba	0.024368156
46	0xbe30690c	-0.17227572
47	0x3dd8c763	0.10584905
48	0x3dc894db	0.09794017
49	0xbe38f11c	-0.18060726
50	0xbdea4b88	-0.11440188
51	0x3dcf1290	0.101109624
52	0x3dc31243	0.095249675
53	0xbc915a1c	-0.017743163
54	0xbcc80bb5	-0.024419645
55	0x3a311b29	0.00067560613
56	0x3e0d9719	0.1382717
57	0xbdc02904	-0.09382823
58	0xbd06c6fe	-0.032904617
59	0xbe0db0dc	-0.13836998
60	0xbc9e7441	-0.019342544
61	0xbe21fb30	-0.15818477
62	0x3d4479f6	0.047967874
63	0x3aa2d9d3	0.0012424536
64	0xbd26eba5	-0.040752072
65	0x3d7d98ad	0.06191318
66	0x3dea793c	0.11448905
67	0x3e4ecefd	0.20196147
68	0x3de40998	0.11134642
69	0x3e81706c	0.25281084
70	0xbba927a8	-0.005162198
71	0x3d70224a	0.05862645
72	0x3e240052	0.16015747
73	0x3e8c8d73	0.27451667
74	0x3e1c74cd	0.15278931
75	0x3e9dd2ea	0.30824977
76	0x3e1e9896	0.15487894
77	0x3e10ef29	0.14153732
78	0x3e82bd5e	0.255351
79	0x3ccea6aa	0.025225956
80	0x3dd56a01	0.10420609
81	0x3de3bc98	0.11119956
82	0xbd2dd961	-0.042443637
83	0x3e310773	0.17287998
84	0x3d39ff97	0.045409765
85	0x3d5d58f1	0.0540399
86	0x3e946f54	0.28991187
87	0x3e98c3bb	0.2983683
88	0x3e175fc8	0.14782631
89	0x3e0fa66d	0.1402833
90	0x3de2b71d	0.11070082
91	0x3e86558f	0.2623715
92	0x3e089f55	0.1334203
93	0x3dd4fe88	0.104001105
94	0x3d12faf1	0.035883848
95	0x3d6a09b6	0.057138167
96	0x3c8c65c6	0.017138373
97	0xbe094505	-0.13405235
98	0xbd8fd93a	-0.070238546
99	0xbe1dd45f	-0.15413044
100	0x3c63a8d9	0.013895237
101	0xbe6e0b2d	-0.2324645
102	0xbd442959	-0.047890995
103	0xbd82439c	-0.06360552
104	0xbe6ff862	-0.23434594
105	0x3d874df7	0.066066675
106	0xb9bc8726	-0.00035958848
107	0xbe3dcd17	-0.18535267
108	0xbe690eaf	-0.22759508
109	0xbe754081	-0.23950388
110	0xbe419c51	-0.18907286
111	0xbc93c3e2	-0.01803774
112	0xbe8d01b2	-0.27540356
113	0xbe8296ec	-0.2550577
114	0xbdbe09f1	-0.0927924
115	0xbe35273c	-0.17690748
116	0xbdf524f1	-0.11969937
117	0xbcf5e931	-0.03001842
118	0xbe122991	-0.14273669
119	0x3d8a437f	0.06751155
120	0xbc539341	-0.012913526
121	0x3c1daa1c	0.009623077
122	0xbdece62b	-0.115673386
123	0xbe0e7f57	-0.13915764
124	0xbd96efaa	-0.07369931
125	0xbd0e1f3c	-0.034697756
126	0xbcb058d4	-0.021526732
127	0x3b2ffb84	0.0026852796
128	0xbd8db2a1	-0.069188364
129	0xbcfff837	-0.031246288
130	0xbcec5efc	-0.028853886
131	0x3dc0a0c8	0.094056666
132	0x3c78d8fc	0.015188452
133	0xbe6b896e	-0.23001644
134	0xbdd74378	-0.105109155
135	0xbdd5a8e4	-0.10432604
136	0xbd8210fc	-0.06350896
137	0x3d82bb18	0.063833416
138	0xbdc9b1cd	-0.09848366
139	0x3c748689	0.014924654
140	0x3d0978ef	0.033562597
141	0xbdf168f8	-0.11787599
142	0xbe2d8ae1	-0.1694751
143	0xbd9b0337	-0.075689726
144	0xbe3a079d	-0.18166967
145	0x3da6bdb5	0.081416525
146	0xbd80ef3e	-0.06295632
147	0x3dc5e8da	0.096635535
148	0x3d46ed0f	0.04856592
149	0xbe5b41c0	-0.214118
150	0xbd13b248	-0.036058694
151	0xbe4acba6	-0.19804248
152	0xbe3f00d1	-0.18652655
153	0x3d48c98d	0.04902034
154	0xbe2caab9	-0.16862
155	0x3dc29a69	0.09502108
156	0xbe32f914	-0.17477828
157	0xbdb5efd0	-0.08883631
158	0xbe4d4b44	-0.20048243
159	0xbe37d8af	-0.17953752
160	0x3e508a3d	0.20365234
161	0x3e53fbf7	0.20701586
162	0x3df70b77	0.120627336
163	0x3e9ccbbf	0.30624196
164	0x3d6fa97e	0.05851125
165	0x3e5ec744	0.21755701
166	0x3e8226cc	0.25420225
167	0x3e53b1e5	0.2067333
168	0x3e21d363	0.15803294
169	0x3e783aa7	0.24241124
170	0x3e96e1b0	0.2946906
171	0x3d2aff2f	0.04174727
172	0x3ac5a837	0.0015080039
173	0x3df75dfd	0.12078474
174	0x3e62e13a	0.2215623
175	0x3e85717b	0.2606314
176	0x3e0e63a7	0.13905202
177	0xbcf22c62	-0.029562179
178	0x3bc53d4f	0.0060192714
179	0x3d9ad2a1	0.075597055
180	0x3e84a2fa	0.2590559
181	0x3e8be4e7	0.27323076
182	0x3dd5228f	0.10406982
183	0x3be3221f	0.006931558
184	0x3bf7b1e7	0.0075590494
185	0x3e6584a0	0.22413874
186	0x3e556159	0.20837916
187	0x3bde6257	0.0067866254
188	0x3e274c15	0.16337617
189	0x3de10394	0.109870106
190	0x3e0c7a1b	0.13718455
191	0x3dc987ea	0.09840377
192	0xbde1a699	-0.11018104
193	0xbe4da168	-0.20081103
194	0xbd11de63	-0.035612475
195	0xbe88296c	-0.26594102
196	0xbe359921	-0.17734195
197	0xbe13b894	-0.1442588
198	0xbe90bf97	-0.2827117
199	0xbe5264ed	-0.20546313
200	0xbe32a82b	-0.17446963
201	0xbcd8c59e	-0.026461419
202	0xbc550033	-0.013000536
203	0xbdf7f540	-0.121073246
204	0xbe1078d7	-0.14108597
205	0xbdb22456	-0.08698337
206	0xbdba3a77	-0.090931825
207	0xbe65066e	-0.22365734
208	0xbc015759	-0.00789436
209	0xbd26ba2f	-0.040704902
210	0xbe434fad	-0.19073363
211	0xbe48015c	-0.19531769
212	0xbdae0497	-0.08496969
213	0xbe0153ed	-0.12629671
214	0xbe758def	-0.23979925
215	0x3c468033	0.012115526
216	0xbdd1a814	-0.102371365
217	0xbce97455	-0.028497854
218	0xbe4da627	-0.20082913
219	0xbe8258bc	-0.25458324
220	0xbd8bbb70	-0.0682286
221	0x3bdc4c79	0.0067229834
222	0xbe046022	-0.12927297
223	0xbe68c4a4	-0.22731262
224	0x3e6bfdd3	0.23046045
225	0x3e6e48ae	0.23269913
226	0x3e527379	0.20551862
227	0xbd31379b	-0.04326592
228	0x3e0be741	0.13662435
229	0x3e5a44e2	0.21315339
230	0x3e82bc9e	0.25534528
231	0x3e165ebd	0.14684577
232	0x3e5b621b	0.21424143
233	0x3e5eb2b5	0.21747859
234	0x3e749d4d	0.2388813
235	0xbd05006a	-0.032471098
236	0x3d3f1882	0.04665423
237	0x3de309a2	0.11085822
238	0xbcb75304	-0.022378452
239	0x3d89f516	0.067361996
240	0x3e7aa4ff	0.24477004
241	0x3b75ab9e	0.0037486325
242	0x3e93dc63	0.2887908
243	0x3e13cbaf	0.14433168
244	0xbd11a006	-0.035553
245	0x3df214a1	0.11820341
246	0x3e5bfbe9	0.21482815
247	0x3cb7690f	0.022388963
248	0xbc031179	-0.007999771
249	0x3decdfc5	0.11566118
250	0x3d5afbc8	0.053462774
251	0x3e22a026	0.15881404
252	0x3d506756	0.0508798
253	0x3e5fb1f5	0.21845229
254	0x3b0d69bb	0.0021577913
255	0xbcb54ce6	-0.022131395

encoder.0.0.bias f4 [16]
0	0xbe029bc7	-0.12754737
1	0xbdac4fd5	-0.08413664
2	0x3e861cbd	0.261938
3	0xbe12d894	-0.1434043
4	0x3e1af1c2	0.15131286
5	0xbd8c8733	-0.06861725
6	0xbe89bc44	-0.26901448
7	0xbc81983d	-0.015819663
8	0x3bb9173d	0.005648522
9	0xbe37f480	-0.17964363
10	0x3e8221c0	0.25416374
11	0xbda53cda	-0.08068247
12	0xbe731cee	-0.23741505
13	0x3b078940	0.0020681173
14	0xbda0b55f	-0.07847094
15	0xbd1ab412	-0.037769385

encoder.1.0.weight f4 [8, 16]
0	0x3c43d4c0	0.011952579
1	0x3e5ab3b9	0.21357621
2	0xbccd5751	-0.02506605
3	0x3e0ceb78	0.13761699
4	0x3e2bd0c4	0.16778857
5	0xbcff5f5c	-0.0311734
6	0x3e9167af	0.28399417
7	0xbe9f2e0d	-0.3108982
8	0xbe17eb37	-0.14835821
9	0xbe5fd79d	-0.21859594
10	0x3bd4b6a7	0.0064915004
11	0xbe4be3ad	-0.1991107
12	0xbd14442c	-0.036197826
13	0x3d79bc40	0.060970545
14	0x3e4f2a12	0.20230892
15	0xbd28518e	-0.0410934
16	0xbcfd21aa	-0.030899841
17	0x3e08cb59	0.13358821
18	0x3a89f870	0.0010526311
19	0xbd18d7e8	-0.03731528
20	0x3e199a86	0.15000352
21	0x3e66e32b	0.22547595
22	0xbd2d664a	-0.04233388
23	0x3e81e119	0.25367048
24	0xbda2dc05	-0.07952122
25	0xbc196f94	-0.009364981
26	0x3e07cb69	0.13261189
27	0x3e56e8b1	0.20987202
28	0x3dd3ee7f	0.10348224
29	0xbdf82104	-0.12115672
30	0xbc34cb18	-0.011034749
31	0xbc936db2	-0.017996643
32	0x3e5c8806	0.21536264
33	0xbd7b04b6	-0.06128379
34	0x3b518780	0.0031971633
35	0x3e98b10d	0.2982258
36	0xbd0dffee	-0.0346679
37	0xbe87d649	-0.26530674
38	0x3e5adcc9	0.21373285
39	0xbe18569a	-0.14876786
40	0x3d3cfe26	0.046140812
41	0xbdabad12	-0.0838262
42	0x3de310eb	0.11087211
43	0x3ca35a4b	0.019940516
44	0x3d486089	0.048920188
45	0xbd3ab6d3	-0.04558451
46	0x3e9a0249	0.30079868
47	0xbe99e558	-0.30057788
48	0xbcd4624f	-0.025925783
49	0x3d9dae52	0.076992646
50	0xbeb6a429	-0.3567212
51	0xbc1c2ac3	-0.00953168
52	0x3e2dfd5a	0.16991177
53	0xbe4750ba	-0.19464388
54	0xbdfdb853	-0.12388673
55	0xbe98263b	-0.29716668
56	0x3dd28e10	0.102810025
57	0xbe17b508	-0.14815152
58	0xbe366cd1	-0.17814948
59	0xbe7156f0	-0.2356832
60	0xbdcacc4b	-0.09902247
61	0x3dae584e	0.085129365
62	0xbdcd4be1	-0.100242384
63	0xbea44999	-0.320874
64	0xbd79a087	-0.060944106
65	0xbdcb1f37	-0.09918063
66	0xbe6d35cf	-0.23165058
67	0x3dcbb6e8	0.09946996
68	0xbdc4b194	-0.09604183
69	0xbe9ce484	-0.30643094
70	0xbda683ba	-0.081305936
71	0xbe96481f	-0.293519
72	0x3dd8499c	0.10560915
73	0xbdd97384	-0.10617736
74	0x3e156b30	0.1459167
75	0x3df01dbd	0.11724422
76	0x3d829922	0.06376864
77	0xbdd9c3e9	-0.1063307
78	0xbe091dec	-0.1339032
79	0xbe748b93	-0.23881368
80	0xbe33c87f	-0.17556952
81	0xbe9b488d	-0.3032879
82	0x3e3a3bba	0.18186846
83	0xbe7b26e4	-0.24526554
84	0xbd9304d2	-0.07178654
85	0x3ec4f69c	0.38469398
86	0xbe90d792	-0.28289467
87	0x3e396a49	0.18106951
88	0x3d56e1d1	0.05246145
89	0xbdb8c9b3	-0.09022846
90	0x3eaeeec5	0.34166542
91	0x3d23ab1a	0.039958097
92	0xbeb72256	-0.35768384
93	0xbd983d27	-0.07433539
94	0xbe766707	-0.2406274
95	0x3e3b21e3	0.18274646
96	0xbdd5751f	-0.1042273
97	0x3e1d0c7f	0.15336798
98	0x3e097bcb	0.1342613
99	0x3df8cdeb	0.12148651
100	0xbe835d00	-0.2565689
101	0x3e4d5510	0.2005198
102	0xbe272095	-0.16321023
103	0x3de76448	0.11298424
104	0xbdff478e	-0.1246482
105	0xbe13bc2f	-0.14427255
106	0x3dcd882c	0.10035738
107	0x3eb7ac9c	0.35873878
108	0xbd094df9	-0.033521626
109	0x3ded9cfe	0.116022095
110	0x3dbf3497	0.093362026
111	0x3e92b517	0.28653786
112	0xbc9b20c9	-0.018936532
113	0x3ccc48dd	0.024937088
114	0xbe469256	-0.1939176
115	0xb9d0851f	-0.00039772035
116	0xbdb6adc6	-0.089198634
117	0xbe13ed4a	-0.14445987
118	0x3c944337	0.018098457
119	0xbe98890d	-0.2979206
120	0xbe440dcc	-0.19145888
121	0xbe176f1d	-0.1478848
122	0x3e44641a	0.1917881
123	0x3e19373c	0.14962476
124	0x3d24f404	0.040271774
125	0xbd410b95	-0.047130186
126	0x3e958a32	0.29206997
127	0xbe0b1b61	-0.13584663

encoder.1.0.bias f4 [8]
0	0x3dbf2888	0.093339026
1	0xbd8a6c3a	-0.06758924
2	0xbe957096	-0.2918746
3	0xbe89db09	-0.26924923
4	0xbd690cf1	-0.056897108
5	0x3e07c495	0.13258584
6	0xbdc3b94f	-0.09556829
7	0xbdb05481	-0.08609868

encoder.2.0.weight f4 [8, 8]
0	0x3da759f2	0.081714526
1	0xbe98796a	-0.29780132
2	0x3d75e2a2	0.060030587
3	0x3e18668c	0.14882869
4	0xbe7fb8b6	-0.24972805
5	0x3d08c31c	0.033389196
6	0x3ca0f9c0	0.01965034
7	0x3e3d104f	0.18463252
8	0xbe4013d5	-0.18757565
9	0xbdafb43c	-0.08579299
10	0x3dead286	0.114659354
11	0xbe598f53	-0.2124608
12	0xbe8f7dd0	-0.28025675
13	0x3eebd7ee	0.4606318
14	0x3dc6a937	0.09700244
15	0xbebc44fe	-0.36771387
16	0xbeabf1c9	-0.33582905
17	0x3e7c436a	0.24635091
18	0xbea17fc6	-0.31542796
19	0xbd723428	-0.05913177
20	0xbe86d6c1	-0.2633572
21	0x3ecafe5e	0.39647192
22	0x3e93f5be	0.28898424
23	0x3d664ee7	0.05622759
24	0xbeb7cbcb	-0.3589767
25	0x3d0d82fe	0.034548752
26	0xbe74160b	-0.23836534
27	0xbea0589b	-0.313176
28	0x3e52079b	0.20510714
29	0xbcc07764	-0.02349443
30	0x3e341a90	0.17588258
31	0xbe95603c	-0.29174984
32	0xbd308aba	-0.04310105
33	0x3eb72e9b	0.35777745
34	0x3d151e26	0.036405705
35	0xbed04038	-0.40673995
36	0x3d6d2d23	0.057904374
37	0xbe611eb0	-0.21984363
38	0x3ed5221b	0.41627583
39	0x3d98e3da	0.07465334
40	0xbe622ba4	-0.2208696
41	0xbe238a53	-0.15970735
42	0x3d0346bb	0.032049876
43	0x3eb70a9d	0.35750285
44	0xbe9724c8	-0.2952025
45	0xbe67096b	-0.22562186
46	0x3ea8890a	0.32917053
47	0xbd0c1713	-0.034201693
48	0xbc495abf	-0.012289702
49	0xbe167e1c	-0.14696544
50	0xbe4577de	-0.19284007
51	0xbede4d9a	-0.4341858
52	0xbe88a5e3	-0.26689062
53	0xbd21f27b	-0.039537888
54	0x3e8373a7	0.25674173
55	0x3e4252e4	0.18976933
56	0x3e6423e2	0.22279313
57	0x3ec92d1f	0.39292237
58	0x3da804f4	0.0820407
59	0x3d11021d	0.035402406
60	0xbd5e344f	-0.054249104
61	0xbc2c27f8	-0.010507576
62	0x3eea5844	0.45770466
63	0x3e6fd7d5	0.23422177

encoder.2.0.bias f4 [8]
0	0xbea45ab0	-0.3210044
1	0x3e611655	0.21981175
2	0x3e000025	0.12500055
3	0x3e9a5366	0.30141753
4	0xbe83315d	-0.256236
5	0x3e6a113a	0.22858134
6	0x3e8dbfdd	0.27685443
7	0x3eb87d96	0.36033314

encoder.3.weight f4 [5, 8]
0	0xbd4a0f34	-0.049330905
1	0x3ea1fff9	0.31640604
2	0x3ec04b5c	0.37557495
3	0x3ed8a811	0.42315724
4	0x3e9be4a0	0.30447865
5	0x3d473403	0.048633587
6	0xbe29e766	-0.16592178
7	0x3de3089a	0.11085625
8	0x3df2b7a4	0.11851433
9	0xbe9947d8	-0.29937625
10	0xbebfa61f	-0.37431428
11	0xbb957129	-0.004560609
12	0xbe48bfb5	-0.1960438
13	0x3be8cfc3	0.0071048453
14	0x3d26eab7	0.040751185
15	0xbe872190	-0.26392794
16	0xbd81065f	-0.06300043
17	0x3d59f04a	0.053207673
18	0x3d679846	0.056541704
19	0xbe944e76	-0.2896611
20	0xbdfc08a2	-0.12306334
21	0xbe8553bd	-0.2604045
22	0x3e9688eb	0.29401335
23	0xbd4b2f6a	-0.049605764
24	0xbe0a5705	-0.13509758
25	0xbd234b43	-0.039866697
26	0x3e508208	0.20362103
27	0x3e880e42	0.26573378
28	0x3e8520ce	0.2600159
29	0xbdf046b5	-0.11732236
30	0x3e352a9f	0.1769204
31	0x3d1826c6	0.037146352
32	0xbdf7229d	-0.12067149
33	0x3e8cdc4c	0.27511823
34	0x3de089b4	0.10963765
35	0x3d4e2e86	0.050337337
36	0xbe1cc068	-0.15307772
37	0x3c684d25	0.014178549
38	0x3e93eb2a	0.28890353
39	0xbd861363	-0.065466665

encoder.3.bias f4 [5]
0	0x3e61f832	0.22067335
1	0xbe3338cc	-0.17502135
2	0x3ea67904	0.32514203
3	0x3ea24be0	0.31698513
4	0x3e0aeaf3	0.13566189

decoder.0.0.weight f4 [8, 5]
0	0x3a7e021f	0.0009689647
1	0x3ec3aaa3	0.38216123
2	0x3df6a24d	0.12042675
3	0xbd674430	-0.056461513
4	0xbe3d56e2	-0.18490174
5	0x3cedbdb9	0.02902113
6	0xbeadadce	-0.33921665
7	0xbe8768a3	-0.2644702
8	0x3f06f6cf	0.5272035
9	0x3ef53321	0.4789057
10	0xbd33b779	-0.043876145
11	0x3de559cd	0.11198769
12	0xbe9e42fb	-0.30910477
13	0xbea36797	-0.3191497
14	0xbe3fea3d	-0.18741699
15	0x3eea05b4	0.45707476
16	0xbf14199a	-0.57851565
17	0x3e954885	0.2915689
18	0xbe90bfa7	-0.2827122
19	0x3ef1d610	0.4723363
20	0x3dcf9fe5	0.10137919
21	0x3f0f5d80	0.56002045
22	0xbe55265d	-0.20815416
23	0xbed58b51	-0.41707852
24	0xbd3afbec	-0.045650408
25	0x3d8a25e6	0.0674551
26	0xbe9cd1f5	-0.30628935
27	0xbcd183c7	-0.025575532
28	0xbe8b3d8b	-0.2719539
29	0x3ea6dc69	0.32590035
30	0xbe50c3de	-0.20387217
31	0xbed4157b	-0.41422638
32	0x3ddb15b4	0.10697499
33	0x3d61fb15	0.05517109
34	0x3e1d8d41	0.15385915
35	0xbb01c346	-0.001980023
36	0x3cc38876	0.02386878
37	0x3df5d1e3	0.12002923
38	0x3e81b242	0.25331312
39	0xbe92027c	-0.2851752

decoder.0.0.bias f4 [8]
0	0x3ecd3f77	0.40087482
1	0x3e7f935b	0.24958555
2	0xbd31d357	-0.04341444
3	0x3efb9b45	0.491419
4	0xbecbead7	-0.39827606
5	0xbe0078d0	-0.12546086
6	0xbebe4412	-0.3716131
7	0xbe7dd4fb	-0.24788277

decoder.1.0.weight f4 [8, 8]
0	0x3e3769d9	0.17911471
1	0xbe243065	-0.16034086
2	0x3e73fe3b	0.2382745
3	0x3e90f9e4	0.2831565
4	0xbe82363a	-0.25431997
5	0x3dc83554	0.097757965
6	0xbeef4865	-0.4673492
7	0xbe1040f3	-0.14087276
8	0xbe35f789	-0.17770208
9	0x3e8e5c7b	0.27804932
10	0xbe52bad0	-0.20579076
11	0x3e5cbee5	0.21557195
12	0xbe3931fb	-0.18085472
13	0x3ed7aae2	0.4212256
14	0x3ea40c71	0.32040742
15	0xbd3410d5	-0.043961365
16	0xbc0c9802	-0.008581163
17	0x3ebc3265	0.36757198
18	0x3df0407f	0.11731052
19	0x3df306d5	0.118665375
20	0xbeca9ac9	-0.39571217
21	0xbe7dc225	-0.24781092
22	0x3e9e4140	0.30909157
23	0xbdf3cfe4	-0.11904886
24	0xbec87df0	-0.39158583
25	0x3dbf8e2b	0.09353288
26	0xbe024e10	-0.12725091
27	0xbe953c55	-0.29147592
28	0x3eafd4de	0.34342092
29	0x3cc85a15	0.024457017
30	0xbe71a8d8	-0.23599565
31	0x3ecf194a	0.40448982
32	0x3c969418	0.018381163
33	0xbe529c79	-0.20567502
34	0x3e958f72	0.29211003
35	0xbe09fd57	-0.13475548
36	0x3e097a87	0.13425647
37	0xbe10679a	-0.14102021
38	0x3ea8bb36	0.3295533
39	0x3e2bf0a6	0.16791019
40	0xbecd65dc	-0.40116775
41	0x3e76c1af	0.24097322
42	0xbe4448bc	-0.19168371
43	0xbca364f6	-0.019945603
44	0xbd440c26	-0.04786315
45	0x3e1e040c	0.15431231
46	0x3d998dae	0.074977264
47	0x3e968ada	0.2940281
48	0x3d8c97e9	0.06864912
49	0xbd2c2c79	-0.0420346
50	0xbd089243	-0.03334261
51	0x3ef868c9	0.48517445
52	0xbdd8904f	-0.105744
53	0x3c517369	0.012783864
54	0xbe989e99	-0.298085
55	0x3e46e3f0	0.19422889
56	0xbe53d49a	-0.2068657
57	0xbdbde41f	-0.09272026
58	0x3e2feb01	0.1717949
59	0xbe3839d4	-0.1799081
60	0x3e74159b	0.23836367
61	0x3dccc6f3	0.09998884
62	0x3dbfda9a	0.09367867
63	0xbd748562	-0.059697516

decoder.1.0.bias f4 [8]
0	0xbe859abb	-0.26094612
1	0x3e9d76d9	0.30754736
2	0x3ecf1827	0.40448114
3	0xbe8950bb	-0.26819405
4	0x3e09aeca	0.13445583
5	0xbb6c0524	-0.0036013806
6	0xbdba1d25	-0.0908759
7	0xbdebbd65	-0.115107335

decoder.2.0.weight f4 [16, 8]
0	0x3e2f82f9	0.17139806
1	0x3db0cfb3	0.086333655
2	0x3ecf3a2b	0.40474066
3	0x3e12afdf	0.14324902
4	0xbd21f7f9	-0.039543126
5	0x3ce7ecec	0.028311215
6	0x3e9f9d44	0.31174672
7	0xbdb017e1	-0.085983045
8	0x3debf704	0.11521724
9	0xbed54102	-0.4165116
10	0x3ce2f24f	0.027703432
11	0x3e9fe1a6	0.31226844
12	0x3dd6f989	0.10496814
13	0xbe417d8d	-0.1889555
14	0xbdb55933	-0.08854904
15	0x3d7ffec5	0.062498827
16	0xbeb2ad5a	-0.34897882
17	0xbcf5860f	-0.02997115
18	0xbe9bc4c1	-0.3042355
19	0x3edcde06	0.4313814
20	0xbea1b502	-0.3158341
21	0x3bdb4b51	0.006692328
22	0xbde08aa8	-0.109639466
23	0xbdd17920	-0.10228181
24	0xbd3879ff	-0.04503822
25	0xbedf41c9	-0.43604878
26	0xbe1addc7	-0.15123664
27	0x3ec9fe6b	0.39451918
28	0xbe55dee6	-0.2088581
29	0xbcdec810	-0.027195007
30	0xbeb6c5e8	-0.35697865
31	0xbd70ada7	-0.058759358
32	0xbe277f1a	-0.16357079
33	0xbee2a9af	-0.44270083
34	0x3dde7340	0.10861826
35	0xbe2bb0e7	-0.16766702
36	0xbe6a12e1	-0.22858764
37	0xbc467796	-0.012113472
38	0xbe8cb235	-0.2747971
39	0xbcd47e66	-0.025939178
40	0xbe8391b1	-0.2569709
41	0xbe9e12e7	-0.30873796
42	0xbef4e4a5	-0.47830692
43	0x3cb0f18e	0.021599557
44	0x3e5cf581	0.21578027
45	0xbef5c3d0	-0.48000956
46	0xbe91f2bb	-0.285055
47	0xbe12c49f	-0.14332817
48	0x3e8c743c	0.2743243
49	0xbebe3554	-0.3715006
50	0xbe469f03	-0.19396596
51	0xbe022c31	-0.1271217
52	0xbd2c22b2	-0.042025276
53	0x3dca5ba8	0.09880763
54	0xbd2ebd91	-0.042661253
55	0x3df232e0	0.1182611
56	0xbd04ae90	-0.03239304
57	0xbe6dc531	-0.23219754
58	0xbe015482	-0.12629893
59	0x3e17da09	0.14829268
60	0x3e7299ec	0.23691529
61	0xbdec53f5	-0.11539451
62	0xbd8f4b6f	-0.0699681
63	0x3db3edd6	0.08785598
64	0x3e6f99a7	0.23398457
65	0xbe99267c	-0.29912174
66	0xbe34702a	-0.17620912
67	0x3dc3eb40	0.09566355
68	0x3eabbc39	0.3354204
69	0x3e2eb6dc	0.17061943
70	0x3ce3a2ce	0.027787592
71	0x3e22dd2e	0.15904686
72	0x3d71882f	0.058967765
73	0x3ed7d9f2	0.42158467
74	0xbe6a3c49	-0.2287456
75	0xbec0c505	-0.37650314
76	0x3e899ef6	0.2687909
77	0x3e357cd9	0.17723407
78	0x3dfca31f	0.123358004
79	0x3d13cd04	0.03608419
80	0x3e3e17d5	0.18563779
81	0xbd1eeb91	-0.038798872
82	0x3e9c9590	0.30582857
83	0x3e4e76b4	0.20162469
84	0xbe9e71c0	-0.3094616
85	0xbe2a46f9	-0.16628636
86	0x3d89b75c	0.06724426
87	0x3d755256	0.059892975
88	0xbe9ad4ad	-0.30240384
89	0x3e7261e9	0.23670162
90	0x3e8b56dd	0.2721471
91	0x3ec13cd2	0.37741715
92	0xbe32491f	-0.17410706
93	0x3e50c372	0.20387056
94	0xbe2ffa71	-0.1718538
95	0xbddb682a	-0.10713227
96	0xbe94b3d5	-0.2904345
97	0x3da501d0	0.08056986
98	0x3edefa7c	0.4355048
99	0xbedf5e06	-0.43626422
100	0xbe5a655a	-0.21327725
101	0x3bf2cfa6	0.0074100075
102	0x3be65072	0.007028633
103	0x3d9a24fb	0.07526585
104	0xbaa45771	-0.0012538267
105	0xbec81225	-0.39076343
106	0xbe74ac91	-0.23893954
107	0xbdac0f82	-0.084013954
108	0x3c9da3ec	0.019243203
109	0x3df3de88	0.11907679
110	0xbeba8620	-0.36430454
111	0x3effc9d9	0.49958685
112	0xbea4339c	-0.32070625
113	0xbef6dcfd	-0.48215476
114	0xbdef6745	-0.11689619
115	0x3ef8ac55	0.4856898
116	0x3e6531ac	0.2238223
117	0xbe693a40	-0.22776127
118	0xbdf288c1	-0.1184249
119	0x3e5051e3	0.20343737
120	0xbe747dae	-0.23876068
121	0xbed5ac2e	-0.41732925
122	0xbefc121a	-0.4923256
123	0x3dd9e184	0.10638717
124	0xbdf1f15f	-0.11813616
125	0x3dbbd0bf	0.091706745
126	0xbe8f0435	-0.27932897
127	0x3ebdfbe8	0.37106252

decoder.2.0.bias f4 [16]
0	0xbca2e6ba	-0.01988541
1	0xbeaa993b	-0.3332003
2	0xbe900940	-0.28132057
3	0xbe57dbfe	-0.21080014
4	0xbed3eaaf	-0.41389987
5	0xbeb9ccc9	-0.3628905
6	0x3e1d52e7	0.15363656
7	0x3e19c94b	0.15018193
8	0xbe8d152d	-0.27555218
9	0x3e9abb16	0.3022086
10	0x3e6316df	0.22176693
11	0x3e80a0e3	0.25122747
12	0x3e7a65bd	0.24452873
13	0xbe3f14eb	-0.18660323
14	0xbe059895	-0.13046487
15	0xbe867fbb	-0.26269326

decoder.3.weight f4 [32, 16]
0	0x3d536908	0.051613837
1	0x3dc99e7f	0.09844684
2	0x3cd524bc	0.026018493
3	0xbd4aeefa	-0.049544312
4	0x3e6320a8	0.22180426
5	0xbe2c3d76	-0.1682032
6	0x3e8314f5	0.25601926
7	0xbe24f16d	-0.16107722
8	0x3e83327c	0.25624454
9	0x3dd98dfd	0.10622785
10	0xbcbd34c6	-0.023096453
11	0xbc3be5d9	-0.011468374
12	0x3e3a26e3	0.18178897
13	0x3e6aa931	0.22916104
14	0x3c228bad	0.009920997
15	0xbe4f116e	-0.20221493
16	0xbde696ea	-0.11259253
17	0xbe073263	-0.13202815
18	0x3de12e58	0.109951675
19	0x3d5f882c	0.054573223
20	0x3e48586e	0.19564983
21	0xbe042cce	-0.12907717
22	0xbdc1f354	-0.09470239
23	0x3e52c282	0.20582011
24	0xbe05ef10	-0.13079476
25	0x3db8c713	0.090223454
26	0x3e6301bd	0.22168632
27	0x3df509ee	0.119647846
28	0x3e473e69	0.19457401
29	0xbe62c060	-0.22143698
30	0x3e173607	0.14766704
31	0xbe82c847	-0.25543424
32	0x3c356f22	0.011073859
33	0x3e71d718	0.23617208
34	0x3e82c5f3	0.25541648
35	0xbe555ed4	-0.20836955
36	0xbe077140	-0.13226795
37	0xbdf4a16a	-0.1194485
38	0xbce748cf	-0.02823296
39	0x3e1cd518	0.15315664
40	0x3cb68773	0.022281384
41	0x3e2fe14f	0.17175792
42	0xbdecc78c	-0.11561498
43	0x3dba2a5a	0.09090109
44	0x3e024866	0.1272293
45	0xbd76fd88	-0.06030038
46	0x3dcd690a	0.100298
47	0x3e56e712	0.20986584
48	0xbd785c05	-0.06063463
49	0x3d63e530	0.055638492
50	0x3d7f4105	0.062317867
51	0xbd71f63e	-0.059072725
52	0x3e1cb1d4	0.15302211
53	0x3d8246f9	0.06361193
54	0x3e728b70	0.23686004
55	0x3c8f5799	0.017497825
56	0xbe2a1afe	-0.16611859
57	0x3e7ae9b0	0.24503207
58	0x3e57b0c3	0.21063523
59	0xbda7b351	-0.08188499
60	0x3e43b567	0.19112168
61	0x3cae30bf	0.021263478
62	0xbdacc990	-0.084368825
63	0x3d7bcb78	0.06147334
64	0x3e11ee7b	0.1425113
65	0x3d569780	0.052390575
66	0x3df7b54c	0.120951265
67	0xbe1af8af	-0.15133928
68	0xbd515947	-0.051110532
69	0x3d87e16e	0.06634794
70	0x3cb9de14	0.022688903
71	0xbe28b868	-0.16476595
72	0xbd7b39e9	-0.061334524
73	0x3dac34d6	0.08408515
74	0x3d76eb7d	0.060283173
75	0x3e307172	0.17230776
76	0xbd61764c	-0.055044457
77	0xbd84f2b2	-0.06491603
78	0xbdf1356e	-0.11777769
79	0xbe24003f	-0.16015719
80	0x3e912183	0.2834588
81	0x3e2c9add	0.1685595
82	0xbd5103ad	-0.051028896
83	0xbe83f759	-0.2577465
84	0x3e102ac9	0.14078821
85	0xbe9c7a9c	-0.30562294
86	0xbe5dfc89	-0.21678366
87	0xbdb44357	-0.088019066
88	0x3da8f538	0.08249897
89	0x3dc82d1b	0.09774228
90	0x3c21b651	0.009870128
91	0xbe229afc	-0.15879434
92	0x3e8b6e96	0.27232808
93	0x3d5936b0	0.05303067
94	0xbdda49df	-0.10658621
95	0x3d641e59	0.055693004
96	0x3e4df278	0.20112026
97	0xbe2f8949	-0.17142214
98	0xbe6ada3f	-0.22934817
99	0x3e2638f6	0.16232666
100	0xbdb464a3	-0.088082574
101	0xbdd5fd6a	-0.104487255
102	0x3e162053	0.14660768
103	0xbe541dce	-0.20714495
104	0xbe105f01	-0.14098741
105	0x3e3ac058	0.18237436
106	0xbddc35fd	-0.10752485
107	0x3e8d5a57	0.27607986
108	0x3d3abdf6	0.045591317
109	0xbc8edab3	-0.017438268
110	0xbdbceebe	-0.09225224
111	0x3e14db67	0.1453682
112	0x3e1e409f	0.15454338
113	0xbd253a30	-0.040338695
114	0xbd121bbf	-0.035670992
115	0xbebb6f2d	-0.36608258
116	0xbc727b86	-0.014799958
117	0xbe6f0072	-0.23340014
118	0xbd563403	-0.052295696
119	0xbe416ea8	-0.18889868
120	0xbeb19d75	-0.34690443
121	0x3d159442	0.036518343
122	0x3d7bc0a6	0.06146302
123	0x3e4aa0cf	0.19787906
124	0x3bcbcb2f	0.0062192897
125	0xbeccc907	-0.39997122
126	0xbeb94da0	-0.36192036
127	0xbb45954b	-0.00301488
128	0xbdfbe3d6	-0.12299316
129	0x3e3fc9db	0.18729346
130	0xbdca453b	-0.09876486
131	0x3c82db18	0.015973613
132	0xbdc0128c	-0.093785375
133	0xbe0f8444	-0.14015299
134	0xbe37b304	-0.17939383
135	0x3e049f85	0.12951477
136	0x3d337e78	0.043821782
137	0x3ddafab6	0.106923506
138	0x3e53fff4	0.20703107
139	0x3d611c93	0.05495889
140	0x3e3271bc	0.17426199
141	0x3de34606	0.1109734
142	0xbe6c3db3	-0.23070411
143	0xbda43682	-0.08018209
144	0xbca1addf	-0.019736229
145	0xbb20958a	-0.0024503195
146	0x3dae86f1	0.08521832
147	0x3e7d58b6	0.24740872
148	0x3e0c2ecd	0.13689728
149	0x3dea0fd7	0.114288025
150	0x3d8b8006	0.06811528
151	0x3e881133	0.26575622
152	0xbe41434e	-0.18873331
153	0x3e39874e	0.18118021
154	0x3de60a22	0.112324014
155	0x3d8ca517	0.06867426
156	0xbb86634a	-0.0041011916
157	0x3d84e33a	0.064886525
158	0x3d119c34	0.035549358
159	0xbd0598bf	-0.032616373
160	0x3e41d54d	0.18929024
161	0xbe4f7e6f	-0.20263074
162	0xbe4d50c4	-0.20050341
163	0xbdf10550	-0.117685914
164	0xbea305b6	-0.31840295
165	0xbb1ae2be	-0.0023633684
166	0x3d90050f	0.07032215
167	0xbbbb9d61	-0.005725548
168	0x3dfedfdd	0.12445042
169	0x3e7baf8e	0.24578688
170	0x3e20cad5	0.15702374
171	0x3c634c75	0.013873209
172	0xbcd0cd1f	-0.025488434
173	0x3d657a3d	0.05602478
174	0xbd9d4f9d	-0.07681201
175	0xbe281b8b	-0.16416757
176	0xbd17ee76	-0.03709265
177	0xbd73abc9	-0.05949
178	0x3d77136b	0.060321253
179	0xbd925a7c	-0.07146165
180	0xbe7b95eb	-0.24568908
181	0xbe3740ab	-0.17895763
182	0xbe1f008b	-0.15527551
183	0x3d35433d	0.044253577
184	0xbd91bbca	-0.07115896
185	0x3e69c30f	0.22828315
186	0x3d85de54	0.06536546
187	0xbc31dbdb	-0.01085564
188	0x3b3cae43	0.0028790392
189	0xbe005724	-0.12533242
190	0xbcee712b	-0.029106697
191	0xbecb99c0	-0.3976574
192	0x3e356f40	0.1771822
193	0xbe809edc	-0.251212
194	0xbe0c7be2	-0.13719133
195	0xbd3a111c	-0.045426473
196	0xbe133236	-0.14374623
197	0xbc8ffb70	-0.01757595
198	0xbd7b0348	-0.061282426
199	0xbe1cd5f7	-0.15315996
200	0xbe083e84	-0.13305098
201	0x3e5854ea	0.21126142
202	0xbce755dc	-0.028239183
203	0xbd4ca523	-0.049962174
204	0x3e13116e	0.14362118
205	0xbebfb74c	-0.37444532
206	0xbee2489b	-0.4419602
207	0xbce44f78	-0.027869925
208	0x3dd7a8eb	0.105302654
209	0xbe61a897	-0.22036968
210	0x3e22eff8	0.15911853
211	0x3e3f535e	0.18684146
212	0x3dde4d4c	0.10854587
213	0x3c5c31a4	0.01343957
214	0x3b947440	0.0045304596
215	0xbe3f2bf3	-0.18669109
216	0x3d0b74bc	0.034046873
217	0x3dd26ab3	0.102742575
218	0x3c84dc1b	0.016218236
219	0x3e59f7ed	0.21285982
220	0x3d686dcb	0.05674533
221	0x3e078573	0.132345
222	0xbd8f2886	-0.06990151
223	0xbde47da5	-0.11156777
224	0x3e6a8c8c	0.22905177
225	0x3e34218c	0.17590922
226	0x3e1c80f3	0.15283565
227	0xbe410346	-0.18848905
228	0x3e2e1584	0.17000395
229	0x3cbcc10a	0.023041267
230	0x3da0cf10	0.07851994
231	0xbe2b9c96	-0.16758952
232	0x3de048b5	0.10951368
233	0xbe4bf9fd	-0.19919582
234	0x3e80d4a3	0.2516223
235	0x3d28fea1	0.041258458
236	0x3e82ed77	0.25571796
237	0x3e2cf093	0.16888647
238	0xbe1e3be9	-0.15452541
239	0x3e340a72	0.1758211
240	0x3d95497a	0.07289405
241	0xbec2e828	-0.38067746
242	0xbecf219b	-0.40455326
243	0xbe5454f1	-0.20735528
244	0xbdf1d31c	-0.11807844
245	0xbe84aa54	-0.259112
246	0xbe0efa1b	-0.13962595
247	0x3d860e34	0.06545678
248	0xbe9f59fe	-0.31123346
249	0xbd88e670	-0.066845775
250	0x3d9607d2	0.0732571
251	0x3def147b	0.11673828
252	0x3ea755d0	0.32682657
253	0xbe6954d1	-0.22786261
254	0xbe375ede	-0.17907283
255	0x3d6eb82f	0.05828112

decoder.3.bias f4 [32]
0	0x3e272dc4	0.16326052
1	0x3d8c34d8	0.06846017
2	0x3e2107af	0.15725587
3	0x3d8829ef	0.06648623
4	0x3da7e768	0.08198434
5	0xbd62c538	-0.055363864
6	0xbe2aece6	-0.16691932
7	0x3c7d0090	0.015442029
8	0x3e1dda62	0.15415338
9	0x3e4d27f8	0.20034778
10	0xbd7eaf57	-0.062178936
11	0x3e6d9b97	0.23203884
12	0xbdd8d82a	-0.10588105
13	0xbbcf5619	-0.0063274023
14	0xbc5beeaf	-0.013423606
15	0xbd86940f	-0.06571209
16	0xbc3dafe9	-0.011577585
17	0xbe067fa0	-0.13134623
18	0x3e88c839	0.26715258
19	0x3dba6057	0.091004066
20	0x3e68fe53	0.22753267
21	0x3dc95f46	0.09832625
22	0xbd1b65e4	-0.037938967
23	0xbcd89cd2	-0.026441965
24	0x3d31e0d6	0.04342731
25	0x3e123a5d	0.14280076
26	0x3e3106d2	0.17287758
27	0x3e745bda	0.23863164
28	0x3e9c7325	0.30556598
29	0x3e60514f	0.21906017
30	0xbe103544	-0.14082819
31	0x3e3203e9	0.17384304

exp_avg f4 [16, 32]
0	0x357b7107	9.3669263e-07
1	0x357f1a3c	9.503308e-07
2	0x35814838	9.632267e-07
3	0x35830987	9.763033e-07
4	0x3584a53f	9.882859e-07
5	0x35860cff	9.98756e-07
6	0x358749ff	1.007982e-06
7	0x3587e18f	1.012393e-06
8	0x35884f8c	1.0155941e-06
9	0x3588cda4	1.0192639e-06
10	0x358969da	1.0238102e-06
11	0x35898238	1.0245194e-06
12	0x358a0ac9	1.028494e-06
13	0x3589b524	1.0260014e-06
14	0x3589817f	1.0244984e-06
15	0x358942fc	1.022679e-06
16	0x3588e99b	1.0200778e-06
17	0x35889973	1.0177449e-06
18	0x3587b522	1.0111e-06
19	0x358757a7	1.0083794e-06
20	0x3586c152	1.0040042e-06
21	0x35868792	1.0023234e-06
22	0x35862860	9.995529e-07
23	0x3585a756	9.957973e-07
24	0x3584cc9e	9.894318e-07
25	0x358408d0	9.837331e-07
26	0x35833510	9.775704e-07
27	0x35824a29	9.707338e-07
28	0x35819af0	9.656342e-07
29	0x35808255	9.574675e-07
30	0x35800355	9.537713e-07
31	0x357c4006	9.397048e-07
32	0x343832c8	1.715481e-07
33	0x343c53d1	1.7539357e-07
34	0x34419985	1.8030376e-07
35	0x3446908b	1.8492771e-07
36	0x344a8017	1.8859315e-07
37	0x344e37e8	1.9205584e-07
38	0x3450bb2f	1.9439607e-07
39	0x3451de8c	1.9545604e-07
40	0x34528405	1.9605802e-07
41	0x3453367f	1.9670732e-07
42	0x3453a157	1.9709601e-07
43	0x34520abe	1.9561682e-07
44	0x3450d901	1.9450455e-07
45	0x344d39ba	1.9113114e-07
46	0x3449a944	1.8781162e-07
47	0x3446ff19	1.8532991e-07
48	0x3445b663	1.8413407e-07
49	0x344336ae	1.8180683e-07
50	0x34415a37	1.8007346e-07
51	0x34404ab6	1.7908573e-07
52	0x343f8fef	1.7840624e-07
53	0x34400bce	1.7885688e-07
54	0x343f9c8a	1.784521e-07
55	0x34407389	1.7923425e-07
56	0x343f7cca	1.7833659e-07
57	0x343f7c53	1.783349e-07
58	0x3440e190	1.7963453e-07
59	0x3442e259	1.8150003e-07
60	0x344483c6	1.8301861e-07
61	0x344466dc	1.8291342e-07
62	0x3445e7d3	1.8431392e-07
63	0x3442685e	1.8105627e-07
64	0xb8d847b5	-0.00010313039
65	0xb8db4188	-0.0001045494
66	0xb8de279a	-0.00010593161
67	0xb8e138bb	-0.00010739403
68	0xb8e3ebf3	-0.000108681525
69	0xb8e6865f	-0.00010992283
70	0xb8e8997f	-0.00011091213
71	0xb8e99b9b	-0.000111392896
72	0xb8ea5546	-0.00011173873
73	0xb8eb253a	-0.00011212607
74	0xb8ec45fd	-0.00011266393
75	0xb8ec411c	-0.000112654845
76	0xb8ed2ecd	-0.00011309758
77	0xb8ecaab5	-0.000112851536
78	0xb8ec4e91	-0.00011267991
79	0xb8ebcf13	-0.00011244244
80	0xb8eb6686	-0.0001122477
81	0xb8ead688	-0.00011197949
82	0xb8e9596c	-0.00011126962
83	0xb8e89674	-0.00011090646
84	0xb8e7c869	-0.00011052268
85	0xb8e720a2	-0.00011021017
86	0xb8e69132	-0.000109942994
87	0xb8e5c79a	-0.000109567496
88	0xb8e43e44	-0.00010883485
89	0xb8e2f0c1	-0.00010821364
90	0xb8e17156	-0.000107499465
91	0xb8e00dd6	-0.000106837295
92	0xb8deca96	-0.000106235195
93	0xb8dce87c	-0.00010533721
94	0xb8dbe12f	-0.000104846775
95	0xb8d8a620	-0.00010330626
96	0x34cb1ae1	3.7831254e-07
97	0x34ce52d3	3.8430753e-07
98	0x34d1e220	3.909381e-07
99	0x34d56e6d	3.9754687e-07
100	0x34d89244	4.0339557e-07
101	0x34db6438	4.0864848e-07
102	0x34dd95d4	4.1273472e-07
103	0x34dea528	4.147089e-07
104	0x34df7b0b	4.1626512e-07
105	0x34e06cb9	4.1802357e-07
106	0x34e150cb	4.19683e-07
107	0x34e107e3	4.1915254e-07
108	0x34e13ea8	4.1955104e-07
109	0x34dfe103	4.1700704e-07
110	0x34dec62b	4.1494908e-07
111	0x34dd970a	4.1274353e-07
112	0x34dce6a4	4.1146006e-07
113	0x34dbec74	4.096397e-07
114	0x34da3bc3	4.0649147e-07
115	0x34d964a4	4.0492625e-07
116	0x34d89622	4.034237e-07
117	0x34d852ea	4.0293463e-07
118	0x34d7a7d0	4.016897e-07
119	0x34d74722	4.0098627e-07
120	0x34d5ffdb	3.98605e-07
121	0x34d4fe61	3.9673162e-07
122	0x34d469d6	3.9565083e-07
123	0x34d3fe20	3.9486713e-07
124	0x34d3ace6	3.9427613e-07
125	0x34d26b5a	3.9193657e-07
126	0x34d2542a	3.9176786e-07
127	0x34cf0b49	3.8564966e-07
128	0x3569cbf5	8.709606e-07
129	0x356d0af6	8.830533e-07
130	0x35700a6e	8.9422144e-07
131	0x35731e5a	9.056872e-07
132	0x3575f183	9.162106e-07
133	0x3578890c	9.258663e-07
134	0x357aacbc	9.338362e-07
135	0x357ba41b	9.374359e-07
136	0x357c8582	9.4071595e-07
137	0x357d47ff	9.435461e-07
138	0x357e44ac	9.4722304e-07
139	0x357e4f9d	9.4738226e-07
140	0x357f6526	9.5142093e-07
141	0x357eed29	9.4967487e-07
142	0x357ec69f	9.4911405e-07
143	0x357e39db	9.4706564e-07
144	0x357dcd2b	9.4548403e-07
145	0x357d4095	9.4343824e-07
146	0x357bc53e	9.379181e-07
147	0x357b0db2	9.3524716e-07
148	0x357a06c1	9.3142086e-07
149	0x357992d3	9.2973386e-07
150	0x3578fee1	9.2758097e-07
151	0x3577cf74	9.2316554e-07
152	0x35765ef5	9.178032e-07
153	0x35750c44	9.128746e-07
154	0x35734d07	9.0636644e-07
155	0x35716d7f	8.9938834e-07
156	0x356fec8e	8.937867e-07
157	0x356df401	8.864445e-07
158	0x356ca2f9	8.815401e-07
159	0x356927e2	8.68573e-07
160	0xb969fcb6	-0.00022314754
161	0xb96d44f3	-0.00022627767
162	0xb9706f0f	-0.00022929556
163	0xb9739d79	-0.00023232949
164	0xb9769934	-0.00023517461
165	0xb9795e4b	-0.00023781617
166	0xb97b7445	-0.00023980539
167	0xb97cbe44	-0.00024103472
168	0xb97d830e	-0.00024176782
169	0xb97e7be5	-0.00024269482
170	0xb97fb1a4	-0.00024384871
171	0xb97fc8fe	-0.0002439357
172	0xb9805a42	-0.0002448131
173	0xb9801630	-0.00024430593
174	0xb9800ad2	-0.00024422124
175	0xb97f5f2e	-0.00024354152
176	0xb97ef7c9	-0.00024315635
177	0xb97e6ed2	-0.00024264611
178	0xb97cbbeb	-0.00024102598
179	0xb97c057d	-0.00024034637
180	0xb97b1d8c	-0.00023948232
181	0xb97a6eb5	-0.000238831
182	0xb979ca22	-0.00023821791
183	0xb978f077	-0.00023740703
184	0xb9773522	-0.00023575549
185	0xb975bb13	-0.00023434711
186	0xb9743cd7	-0.00023292318
187	0xb9726510	-0.00023116567
188	0xb97115a1	-0.00022991608
189	0xb96f2c7a	-0.00022809385
190	0xb96df258	-0.00022692361
191	0xb96a804d	-0.00022363775
192	0x35c82b08	1.4913685e-06
193	0x35cb0403	1.5125846e-06
194	0x35cdd070	1.5334354e-06
195	0x35d08d2c	1.5538294e-06
196	0x35d31f5f	1.5729855e-06
197	0x35d584d9	1.59084e-06
198	0x35d7639e	1.6047741e-06
199	0x35d85e68	1.612073e-06
200	0x35d91dae	1.6176398e-06
201	0x35d9d4b0	1.622966e-06
202	0x35dac9c1	1.6300984e-06
203	0x35dae091	1.6307623e-06
204	0x35dbaac1	1.6366467e-06
205	0x35db47a2	1.6337619e-06
206	0x35dae080	1.6307604e-06
207	0x35da61e0	1.6270751e-06
208	0x35d9e7c7	1.6235216e-06
209	0x35d9721d	1.6200971e-06
210	0x35d7fcf4	1.6092367e-06
211	0x35d76267	1.6047387e-06
212	0x35d68cd0	1.5985224e-06
213	0x35d6251f	1.5955046e-06
214	0x35d584d6	1.5908397e-06
215	0x35d4ab37	1.5845061e-06
216	0x35d34cc9	1.5743072e-06
217	0x35d23a84	1.566325e-06
218	0x35d0d9a1	1.5560546e-06
219	0x35cf67dd	1.545293e-06
220	0x35ce458d	1.5368438e-06
221	0x35ccb7e8	1.5252708e-06
222	0x35cbb6cb	1.5177878e-06
223	0x35c8bafa	1.4955579e-06
224	0xb90ea6cb	-0.0001360431
225	0xb910846b	-0.0001378224
226	0xb91261d1	-0.00013960084
227	0xb914572b	-0.00014146852
228	0xb91614c7	-0.00014312855
229	0xb917c1b2	-0.0001447264
230	0xb918fbfe	-0.00014589724
231	0xb919bb1e	-0.00014660924
232	0xb91a6287	-0.00014723289
233	0xb91adf74	-0.00014769827
234	0xb91ba616	-0.00014843824
235	0xb91bbc86	-0.00014852182
236	0xb91c5efe	-0.00014912707
237	0xb91c23ab	-0.00014890607
238	0xb91c2a41	-0.0001489306
239	0xb91bd902	-0.00014862794
240	0xb91b7ddc	-0.00014828838
241	0xb91b4f2f	-0.0001481145
242	0xb91a3e5e	-0.00014709818
243	0xb919eb88	-0.00014678959
244	0xb9194c1a	-0.00014619567
245	0xb918d390	-0.00014574663
246	0xb9187892	-0.00014540766
247	0xb917da4e	-0.00014481807
248	0xb916ddf5	-0.000143878
249	0xb915d5c1	-0.00014289377
250	0xb914e509	-0.00014199702
251	0xb913b38d	-0.000140859
252	0xb912d290	-0.00014002086
253	0xb91196a2	-0.00013884393
254	0xb910f415	-0.00013823838
255	0xb90ecbdc	-0.00013618119

exp_avg_sq f4 [16, 32]
0	0x2bd5ed82	1.5200482e-12
1	0x2bd596c3	1.5176405e-12
2	0x2bd536da	1.5149785e-12
3	0x2bd4d985	1.512388e-12
4	0x2bd48e6c	1.5103036e-12
5	0x2bd43cac	1.5080346e-12
6	0x2bd3e5a7	1.5056193e-12
7	0x2bd37de4	1.5027393e-12
8	0x2bd339dd	1.5008512e-12
9	0x2bd2e61c	1.4985266e-12
10	0x2bd2b2ab	1.4970988e-12
11	0x2bd268c7	1.4950479e-12
12	0x2bd22995	1.4932939e-12
13	0x2bd1e740	1.4914528e-12
14	0x2bd1bdf1	1.4903063e-12
15	0x2bd197fc	1.4892527e-12
16	0x2bd17a36	1.4884264e-12
17	0x2bd1692a	1.4879532e-12
18	0x2bd15347	1.4873457e-12
19	0x2bd15023	1.4872586e-12
20	0x2bd13ab3	1.4866635e-12
21	0x2bd14726	1.4870091e-12
22	0x2bd153fe	1.4873656e-12
23	0x2bd16fa2	1.4881328e-12
24	0x2bd17675	1.4883222e-12
25	0x2bd17be2	1.4884728e-12
26	0x2bd19ccb	1.4893862e-12
27	0x2bd1aed3	1.4898867e-12
28	0x2bd1d2c5	1.4908843e-12
29	0x2bd1ca75	1.4906536e-12
30	0x2bd1dc2e	1.4911455e-12
31	0x2bd1dac2	1.4911061e-12
32	0x2ccd56e4	5.8360972e-12
33	0x2ccd3426	5.83224e-12
34	0x2ccc467a	5.805853e-12
35	0x2ccb66e5	5.7810306e-12
36	0x2ccbc88f	5.7918735e-12
37	0x2cca3bb3	5.7478132e-12
38	0x2ccb31b8	5.775127e-12
39	0x2cc9d4c6	5.736386e-12
40	0x2cc92ed2	5.7179617e-12
41	0x2cc7c3d6	5.6776623e-12
42	0x2cc6b982	5.648094e-12
43	0x2cc5d109	5.6222843e-12
44	0x2cc5962b	5.6157488e-12
45	0x2cc6ae01	5.6468168e-12
46	0x2cc5fece	5.6273658e-12
47	0x2cc66001	5.638157e-12
48	0x2cc69840	5.6444016e-12
49	0x2cc4ef2e	5.5972093e-12
50	0x2cc5b7f9	5.619502e-12
51	0x2cc509b8	5.6001558e-12
52	0x2cc5e36b	5.6243252e-12
53	0x2cc3e4da	5.567641e-12
54	0x2cc480b0	5.5849422e-12
55	0x2cc25fdd	5.5244546e-12
56	0x2cc2c14a	5.535271e-12
57	0x2cc0768f	5.470131e-12
58	0x2cbe48d1	5.408209e-12
59	0x2cbc3cfd	5.3500524e-12
60	0x2cbaaeff	5.3058664e-12
61	0x2cb8c632	5.2515986e-12
62	0x2cb71111	5.2030676e-12
63	0x2cb427a8	5.1203104e-12
64	0x32a6bfa0	1.9412084e-08
65	0x32a67fbd	1.9383032e-08
66	0x32a6389d	1.9350688e-08
67	0x32a5f1c0	1.9318463e-08
68	0x32a5c060	1.929601e-08
69	0x32a57fbf	1.926662e-08
70	0x32a5451c	1.9239955e-08
71	0x32a4f72b	1.9204512e-08
72	0x32a4b885	1.9176023e-08
73	0x32a47824	1.9146746e-08
74	0x32a44dce	1.9127494e-08
75	0x32a410de	1.9099783e-08
76	0x32a3e837	1.9081297e-08
77	0x32a3b4d9	1.9057937e-08
78	0x32a39070	1.904138e-08
79	0x32a36f6b	1.9026364e-08
80	0x32a362e8	1.9020675e-08
81	0x32a35193	1.9012793e-08
82	0x32a33f10	1.9004375e-08
83	0x32a3373d	1.9000817e-08
84	0x32a32ea2	1.8996904e-08
85	0x32a337be	1.9001046e-08
86	0x32a339c4	1.9001966e-08
87	0x32a34d71	1.9010914e-08
88	0x32a3597e	1.9016394e-08
89	0x32a358c4	1.9016063e-08
90	0x32a3690b	1.9023465e-08
91	0x32a37ce2	1.9032488e-08
92	0x32a39b7d	1.9046405e-08
93	0x32a391c2	1.904198e-08
94	0x32a39d0b	1.9047112e-08
95	0x32a39d10	1.9047121e-08
96	0x2a964c9b	2.6698508e-13
97	0x2a9629d3	2.6674374e-13
98	0x2a963b0f	2.6686333e-13
99	0x2a95e99f	2.6629824e-13
100	0x2a95b8f1	2.6596046e-13
101	0x2a953c50	2.6509567e-13
102	0x2a94d71a	2.6439338e-13
103	0x2a94506f	2.6345893e-13
104	0x2a93d7a7	2.6262084e-13
105	0x2a9375bc	2.619414e-13
106	0x2a9311b7	2.6124738e-13
107	0x2a929651	2.6039113e-13
108	0x2a923c9a	2.597686e-13
109	0x2a91ccb4	2.5899215e-13
110	0x2a918626	2.5850258e-13
111	0x2a917701	2.583975e-13
112	0x2a918a56	2.5853164e-13
113	0x2a91ac84	2.587688e-13
114	0x2a920b5c	2.5942692e-13
115	0x2a923b02	2.5975755e-13
116	0x2a92bc3f	2.6065432e-13
117	0x2a931e44	2.6133447e-13
118	0x2a937c2d	2.619861e-13
119	0x2a93e739	2.6272888e-13
120	0x2a9425a5	2.6316202e-13
121	0x2a943d70	2.6332712e-13
122	0x2a945503	2.634907e-13
123	0x2a945547	2.6349254e-13
124	0x2a9455c0	2.6349582e-13
125	0x2a940493	2.6293255e-13
126	0x2a93bb16	2.6242262e-13
127	0x2a9353c2	2.6170564e-13
128	0x2bced4a1	1.4696197e-12
129	0x2bce08fc	1.4639674e-12
130	0x2bccfc7a	1.4565148e-12
131	0x2bcc4386	1.4513813e-12
132	0x2bcb4a5e	1.4444659e-12
133	0x2bca0318	1.4353822e-12
134	0x2bc98ee7	1.4321572e-12
135	0x2bc8f472	1.4278702e-12
136	0x2bc8dd08	1.4272203e-12
137	0x2bc8c7f4	1.4266353e-12
138	0x2bc8710c	1.4242232e-12
139	0x2bc862ae	1.4238244e-12
140	0x2bc8664c	1.4239248e-12
141	0x2bc82adf	1.4222754e-12
142	0x2bc7f6fe	1.4208355e-12
143	0x2bc7d098	1.4197697e-12
144	0x2bc7ba35	1.4191483e-12
145	0x2bc7da30	1.420036e-12
146	0x2bc77fac	1.4175237e-12
147	0x2bc73002	1.4153125e-12
148	0x2bc67ff4	1.410426e-12
149	0x2bc5638a	1.402532e-12
150	0x2bc51c13	1.4005484e-12
151	0x2bc42154	1.3935888e-12
152	0x2bc393c1	1.3896593e-12
153	0x2bc32fa1	1.3868803e-12
154	0x2bc2573d	1.3808743e-12
155	0x2bc1d7fe	1.3773425e-12
156	0x2bc10fb0	1.3717829e-12
157	0x2bc08fac	1.3682297e-12
158	0x2bc01b4e	1.3649999e-12
159	0x2bbfef4b	1.3637783e-12
160	0x33c7555b	9.282186e-08
161	0x33c70177	9.266926e-08
162	0x33c6b963	9.253815e-08
163	0x33c66ddc	9.240077e-08
164	0x33c63100	9.2290065e-08
165	0x33c5e42a	9.21503e-08
166	0x33c59780	9.201085e-08
167	0x33c53d0e	9.184633e-08
168	0x33c502e3	9.1740525e-08
169	0x33c4b4c5	9.159843e-08
170	0x33c4769e	9.1485376e-08
171	0x33c426a9	9.1339935e-08
172	0x33c3f43a	9.12482e-08
173	0x33c3bfbc	9.1152714e-08
174	0x33c38c93	9.1059654e-08
175	0x33c368d4	9.099463e-08
176	0x33c3492e	9.0937064e-08
177	0x33c33b72	9.091208e-08
178	0x33c32951	9.0879105e-08
179	0x33c3289d	9.0877826e-08
180	0x33c30e49	9.0829936e-08
181	0x33c31d23	9.085695e-08
182	0x33c32ecd	9.088908e-08
183	0x33c34dd6	9.0945534e-08
184	0x33c34c61	9.094288e-08
185	0x33c34f89	9.0948625e-08
186	0x33c360cb	9.0980016e-08
187	0x33c36c09	9.1000466e-08
188	0x33c38523	9.1046125e-08
189	0x33c37cd6	9.1031026e-08
190	0x33c38d12	9.1060556e-08
191	0x33c3821c	9.104062e-08
192	0x2c982833	4.324563e-12
193	0x2c97f54d	4.318912e-12
194	0x2c97bfa4	4.3129545e-12
195	0x2c977a93	4.3052866e-12
196	0x2c9751e4	4.30077e-12
197	0x2c9717fc	4.294341e-12
198	0x2c96de75	4.287954e-12
199	0x2c969d49	4.2807186e-12
200	0x2c966c08	4.2752503e-12
201	0x2c962f25	4.2684905e-12
202	0x2c960476	4.2637517e-12
203	0x2c95ce56	4.2577426e-12
204	0x2c95a575	4.253204e-12
205	0x2c95782a	4.2481756e-12
206	0x2c955837	4.2446285e-12
207	0x2c95386a	4.241098e-12
208	0x2c952c28	4.239737e-12
209	0x2c951d41	4.2380825e-12
210	0x2c950fde	4.2365963e-12
211	0x2c950866	4.235767e-12
212	0x2c94ffdc	4.234819e-12
213	0x2c950ecc	4.2364775e-12
214	0x2c9516ba	4.237358e-12
215	0x2c9522c2	4.2386936e-12
216	0x2c952530	4.2389633e-12
217	0x2c9529bc	4.239468e-12
218	0x2c9535f4	4.2408247e-12
219	0x2c954015	4.2419492e-12
220	0x2c9552ab	4.2440127e-12
221	0x2c954a15	4.2430595e-12
222	0x2c954cda	4.243367e-12
223	0x2c95493a	4.2429645e-12
224	0x32fb5a8a	2.9261418e-08
225	0x32fae1b0	2.9206461e-08
226	0x32fa72ea	2.9156087e-08
227	0x32f9fcef	2.9102436e-08
228	0x32f9a038	2.9060274e-08
229	0x32f93780	2.9012654e-08
230	0x32f8cfd0	2.8965502e-08
231	0x32f857bb	2.8910895e-08
232	0x32f80f77	2.8878032e-08
233	0x32f7a33a	2.8828811e-08
234	0x32f75eaf	2.8797642e-08
235	0x32f7024b	2.8755627e-08
236	0x32f6c11a	2.8725982e-08
237	0x32f67700	2.8692284e-08
238	0x32f63f1d	2.866687e-08
239	0x32f60261	2.8639251e-08
240	0x32f5de14	2.8622743e-08
241	0x32f5ce40	2.8615545e-08
242	0x32f5b6af	2.8604829e-08
243	0x32f5ad48	2.8600553e-08
244	0x32f594aa	2.8589358e-08
245	0x32f5a171	2.8595169e-08
246	0x32f5b398	2.8603424e-08
247	0x32f5d710	2.8619553e-08
248	0x32f5e063	2.8623793e-08
249	0x32f5f0ed	2.8631314e-08
250	0x32f61a54	2.8650142e-08
251	0x32f62939	2.8656915e-08
252	0x32f66289	2.8682978e-08
253	0x32f6635f	2.8683358e-08
254	0x32f687f3	2.8699992e-08
255	0x32f69403	2.8705477e-08

exp_avg f4 [16]
0	0xb3736eba	-5.667855e-08
1	0xb2c7ea42	-2.3273177e-08
2	0x36da434e	6.5047416e-06
3	0xb2f2223e	-2.818808e-08
4	0xb3317f01	-4.1326533e-08
5	0x375a2cde	1.3004259e-05
6	0xb3c58b28	-9.19884e-08
7	0x37058280	7.957802e-06
8	0xb2b0b944	-2.0573346e-08
9	0xb373f0d4	-5.679688e-08
10	0x37247cd8	9.804229e-06
11	0x37191525	9.124434e-06
12	0xb38bade2	-6.504321e-08
13	0xb0235266	-5.941615e-10
14	0xb2f07efe	-2.7997427e-08
15	0x3712eb2a	8.7570315e-06

exp_avg_sq f4 [16]
0	0x2ccf66ad	5.894693e-12
1	0x2dbdbdc0	2.1571078e-11
2	0x33a0f215	7.494615e-08
3	0x2b8f62bc	1.0188165e-12
4	0x2cd1eda3	5.9665202e-12
5	0x34bf1d59	3.5597876e-07
6	0x2d919161	1.6549153e-11
7	0x33f621fe	1.1461451e-07
8	0x2fa1e424	2.9447833e-10
9	0x2f3c5c35	1.7131259e-10
10	0x34463479	1.8459276e-07
11	0x343dffe9	1.7695096e-07
12	0x2d1f786a	9.064841e-12
13	0x2e5c2841	5.005796e-11
14	0x2baad78d	1.2139054e-12
15	0x34335073	1.6699941e-07

exp_avg f4 [8, 16]
0	0xb3c2c64f	-9.069901e-08
1	0xb2522ae2	-1.2233359e-08
2	0x372a0bab	1.0135506e-05
3	0xb39fa6dc	-7.434366e-08
4	0xb35de93b	-5.1667694e-08
5	0x373c1aeb	1.1211941e-05
6	0xb3d40a2d	-9.87387e-08
7	0x3716cdc4	8.988605e-06
8	0xb24b99e8	-1.1851149e-08
9	0xb1d074bf	-6.0668692e-09
10	0x37389676	1.1002287e-05
11	0x36f25d9d	7.22306e-06
12	0xb40e9e49	-1.3282364e-07
13	0xb2104c5f	-8.399268e-09
14	0xb3d8c5d5	-1.0094269e-07
15	0x373e973d	1.1360095e-05
16	0x36d4349e	6.324218e-06
17	0x35640fc0	8.495954e-07
18	0xba38ff51	-0.0007057088
19	0x36add74c	5.1808656e-06
20	0x367135f9	3.5943215e-06
21	0xba4c5f0d	-0.0007796146
22	0x36e6a5a6	6.873818e-06
23	0xba23f80f	-0.000625492
24	0x355e281a	8.27598e-07
25	0x34e4298d	4.2498542e-07
26	0xba48d967	-0.000766179
27	0xba03c5f0	-0.00050267484
28	0x371b36fc	9.251522e-06
29	0x351c21cb	5.8163704e-07
30	0x36ebfdac	7.033077e-06
31	0xba4f48f5	-0.0007907295
32	0xb3614e3c	-5.245805e-08
33	0xb1f09ae0	-7.0025266e-09
34	0x36c42f3e	5.846755e-06
35	0xb3389079	-4.2972236e-08
36	0xb30089c3	-2.9927616e-08
37	0x36d99391	6.484283e-06
38	0xb374cbed	-5.6996146e-08
39	0x36ae84be	5.2010573e-06
40	0xb1ebff84	-6.868449e-09
41	0xb16a9a43	-3.413917e-09
42	0x36d53088	6.3535444e-06
43	0x368c3e6a	4.179591e-06
44	0xb3a4d9a8	-7.6764366e-08
45	0xb1a68a3e	-4.846952e-09
46	0xb37aae1a	-5.8366005e-08
47	0x36dc87b4	6.572309e-06
48	0xb3ede244	-1.107733e-07
49	0xb27e8f5e	-1.4817344e-08
50	0x374f1713	1.2343534e-05
51	0xb3c2c894	-9.070314e-08
52	0xb38777d0	-6.308221e-08
53	0x376580ce	1.3679453e-05
54	0xb4013d14	-1.2036281e-07
55	0x37381361	1.0971767e-05
56	0xb278ebf6	-1.4489151e-08
57	0xb1fa7efa	-7.290393e-09
58	0x37610876	1.3413015e-05
59	0x3713f9e3	8.820064e-06
60	0xb42e0ca9	-1.6209619e-07
61	0xb22fc6ee	-1.0231572e-08
62	0xb4043eab	-1.2316256e-07
63	0x37689db6	1.38649975e-05
64	0xb3c8b548	-9.3462006e-08
65	0xb2592361	-1.2639107e-08
66	0x372f4bb0	1.0448435e-05
67	0xb3a45f53	-7.6541845e-08
68	0xb3641e1c	-5.311277e-08
69	0x3741ef69	1.15594385e-05
70	0xb3daecb6	-1.01944735e-07
71	0x371b97cd	9.274064e-06
72	0xb2508753	-1.2137963e-08
73	0xb1d92d88	-6.3207075e-09
74	0x373e7174	1.1351298e-05
75	0x36fa12e6	7.4527807e-06
76	0xb413137b	-1.3697529e-07
77	0xb2168c65	-8.763071e-09
78	0xb3df357d	-1.0393976e-07
79	0x374422ec	1.1690641e-05
80	0x374c5344	1.2178734e-05
81	0x35dd0184	1.6466224e-06
82	0xbab28b43	-0.0013621825
83	0x372774a5	9.981134e-06
84	0x36e8def0	6.940092e-06
85	0xbac58f7d	-0.001507267
86	0x375ed4b4	1.3281755e-05
87	0xba9e5b44	-0.0012081643
88	0x35d52ff6	1.5883695e-06
89	0x355b4497	8.168367e-07
90	0xbac1e3b4	-0.0014792592
91	0xba7ebafc	-0.0009717194
92	0x3795d28d	1.786023e-05
93	0x359897b8	1.1369038e-06
94	0x37636cde	1.3555602e-05
95	0xbac7f290	-0.0015254784
96	0x376a57f5	1.3967966e-05
97	0x35fc6d51	1.8807278e-06
98	0xbacc92b1	-0.0015607682
99	0x373ff69d	1.1441906e-05
100	0x370535ff	7.93999e-06
101	0xbae21ddd	-0.0017251332
102	0x377f2fd4	1.521032e-05
103	0xbab588a7	-0.001384993
104	0x35f4986b	1.8223776e-06
105	0x357c118b	9.3902844e-07
106	0xbade2417	-0.0016948011
107	0xba91c847	-0.0011122309
108	0x37ab9143	2.0452431e-05
109	0x35adf937	1.2962035e-06
110	0x37825ea4	1.5541278e-05
111	0xbae51d5f	-0.0017480067
112	0xb3046085	-3.082143e-08
113	0xb18ff35f	-4.189516e-09
114	0x36678f30	3.4505028e-06
115	0xb2d92a6a	-2.5281413e-08
116	0xb297afb5	-1.7658616e-08
117	0x3680101d	3.816573e-06
118	0xb31048d9	-3.3593867e-08
119	0x364d351e	3.0578299e-06
120	0xb18b6b0a	-4.0576014e-09
121	0xb10dc42a	-2.0629707e-09
122	0x367b829d	3.7477942e-06
123	0x36251635	2.4599842e-06
124	0xb3421e04	-4.5196444e-08
125	0xb1441615	-2.8534306e-09
126	0xb313be65	-3.4399267e-08
127	0x3681d5e9	3.869402e-06
