experiments/data/numenta_ae/ec2_request_latency_system_failure.csv-.ckpt (torch, 24930 bytes, 48 tensors)

encoder.0.0.weight f4 [4, 8]
0.06448099 0.035689253 0.27002034 0.27162346 0.2690324 0.032417927 -0.35157216 -0.034786273
0.23280752 0.043565117 0.054434963 -0.2459331 0.052844543 0.2666593 -0.3950542 0.2642152
-0.25080976 -0.08249705 0.10689717 0.07933849 0.13713625 0.0035261598 0.32431185 0.29718485
0.010952741 0.0744447 0.3612478 0.017278107 0.24356875 -0.19682644 -0.14235051 0.1117054
00000000: 9c0e 843d e52e 123d 1b40 8a3e 3b12 8b3e
00000010: 9dbe 893e a9c8 043d 4401 b4be 0d7c 0ebd
00000020: 1865 6e3e 5671 323d 32f7 5e3d e3d5 7bbe
00000030: 8573 583d 9187 883e 8b44 cabe 3747 873e
00000040: 236a 80be 37f4 a8bd e7ec da3d 387c a23d
00000050: 726d 0c3e 2517 673b 340c a63e 9d28 983e
00000060: 2073 333c 7676 983d 79f5 b83e d18a 8d3c
00000070: 166a 793e df8c 49be 55c4 11be cdc5 e43d

encoder.0.0.bias f4 [4]
0.19632503 0.13276102 -0.2536913 0.11713206
00000000: 6e09 493e 81f2 073e d3e3 81be efe2 ef3d

encoder.1.0.weight f4 [4, 4]
0.4390341 -0.3177539 -0.4094517 0.48414683 0.3085622 0.032052368 -0.18434434 -0.33254796
0.07307695 0.11609859 0.14672087 0.08093104 -0.44870785 -0.009535769 0.22550961 -0.18090606
00000000: 14c9 e03e a4b0 a2be a7a3 d1be 18e2 f73e
00000010: ddfb 9d3e 5849 033d c3c4 3cbe ba43 aabe
00000020: 5ea9 953d 19c5 ed3d ff3d 163e 2cbf a53d
00000030: 09bd e5be ea3b 1cbc feeb 663e 703f 39be

encoder.1.0.bias f4 [4]
-0.30323339 0.049666744 -0.08496007 -0.041050505
00000000: 6841 9bbe 5b6f 4b3d 8cff adbd 9324 28bd

encoder.2.0.weight f4 [8, 4]
-0.3035007 -0.4384663 0.40481874 -0.119977824 0.10352522 -0.27906483 -0.17386529 0.042012885
0.32542545 -0.13848639 -0.37299708 0.39177766 -0.3033475 -0.23378675 0.44820938 0.4467466
-0.21366794 -0.097355366 0.117329925 0.485015 0.35834834 -0.47633305 -0.3458725 -0.42050493
0.18950303 -0.17141366 -0.13700992 -0.034272946 0.027901063 -0.31244236 -0.0022431945 -0.33561337
00000000: 7264 9bbe a87e e0be 6744 cf3e efb6 f5bd
00000010: 0805 d43d 96e1 8ebe be09 32be b415 2c3d
00000020: 2a9e a63e 60cf 0dbe 79f9 bebe 1597 c83e
00000030: 5d50 9bbe cb65 6fbe b37b e53e f8bb e43e
00000040: c5cb 5abe 4062 c7bd ac4a f03d e353 f83e
00000050: 6f79 b73e ede1 f3be 3316 b1be 6c4c d7be
00000060: 150d 423e 1087 2fbe 544c 0cbe ca61 0cbd
00000070: c590 e43c 72f8 9fbe 8f02 13bb 84d5 abbe

encoder.2.0.bias f4 [8]
-0.089687094 -0.0012309458 -0.25519145 -0.32947508 -0.157954 -0.04409263 -0.42376104 0.49331313
00000000: dead b7bd b057 a1ba 74a8 82be f5b0 a8be
00000010: b2be 21be 799a 34bd 35f7 d8be 8a93 fc3e

encoder.3.weight f4 [5, 8]
0.1369458 0.31139776 -0.044820644 -0.031504404 0.02560181 0.0050152075 0.13357015 -0.16796118
-0.18920462 0.008473567 -0.066793144 0.07258554 0.31430727 0.2648691 -0.22046193 -0.17430833
-0.033248696 0.27371395 -0.056116384 -0.011629413 -0.061727364 -0.20157965 0.023504328 0.19350803
-0.05637694 0.24303195 0.25820062 0.37370458 -0.24865703 -0.0519333 0.14910297 -0.099156685
-0.15420122 0.17945509 -0.09824351 0.20344916 0.17129043 -0.16185139 0.33650953 -0.2180002
00000000: 853b 0c3e 876f 9f3e da95 37bd c30a 01bd
00000010: e3ba d13c 9c56 a43b 9dc6 083e 04fe 2bbe
00000020: dbbe 41be b7d4 0a3c d8ca 88bd baa7 943d
00000030: e2ec a03e ec9c 873e c6c0 61be e27d 32be
00000040: c92f 08bd 3c24 8c3e 4bda 65bd 4b89 3ebc
00000050: d5d5 7cbd e56a 4ebe 268c c03c f826 463e
00000060: 82eb 66bd 5edd 783e df32 843e 3556 bf3e
00000070: f39f 7ebe 03b8 54bd 73ae 183e a912 cbbd
00000080: ede6 1dbe 13c3 373e e533 c9bd fa54 503e
00000090: c266 2f3e 5fbc 25be fa4a ac3e 723b 5fbe

encoder.3.bias f4 [5]
0.009684694 -0.05764451 0.21000987 0.1640806 0.097899824
00000000: 8dac 1e3c a61c 6cbd d40c 573e bf04 283e
00000010: b47f c83d

decoder.0.0.weight f4 [8, 5]
-0.23814824 -0.3824626 -0.08716188 -0.25535136 -0.18005511 0.23225021 -0.0658354 0.3765078
-0.109873384 -0.06480374 -0.20483872 -0.3419088 -0.3242126 -0.2140434 0.39894226 -0.52452385
0.34276536 0.33687004 0.0056557325 -0.004492939 -0.33763874 0.34403616 0.4854974 -0.16440648
-0.20481583 0.0766695 0.1919193 0.4215909 -0.2624332 0.38422313 0.42303988 -0.33153433
0.0051743696 -0.079849206 0.20289692 -0.21067096 -0.5153966 0.16231394 -0.1339535 0.00481097
00000000: 22dd 73be 23d2 c3be ee81 b2bd 6abd 82be
00000010: 5e60 38be 00d3 6d3e b6d4 86bd a1c5 c03e
00000020: 4c05 e1bd d3b7 84bd 3ec1 51be ac0e afbe
00000030: 32ff a5be 312e 5bbe 2942 cc3e 3247 06bf
00000040: f17e af3e 3b7a ac3e b953 b93b 8139 93bb
00000050: fcde acbe 8225 b03e 1d93 f83e 2c5a 28be
00000060: 3ebb 51be e604 9d3d 7e86 443e c3da d73e
00000070: a55d 86be e5b8 c43e af98 d83e debe a9be
00000080: c28d a93b fb87 a3bd 36c4 4f3e 21ba 57be
00000090: 08f1 03bf a035 263e 1b2b 09be 57a5 9d3b

decoder.0.0.bias f4 [8]
0.18323013 -0.4662157 0.03782514 0.11838331 -0.37727416 -0.35189152 0.43972084 0.27678087
00000000: aea0 3b3e d3b3 eebe 89ee 1a3d f372 f23d
00000010: 142a c1be 202b b4be 1723 e13e 39b6 8d3e

decoder.1.0.weight f4 [4, 8]
-0.41620535 0.38355204 -0.08020489 -0.010517805 -0.2861865 -0.06808798 -0.27006578 -0.25050825
-0.13764122 0.0406874 0.19782378 0.38791716 0.15141602 -0.3744244 0.14376526 0.09374852
-0.39035466 0.2958922 0.16014253 -0.4041541 0.18640953 -0.05814126 -0.22101167 -0.44054502
0.044767275 -0.29956806 0.14285628 -0.2933748 -0.1993208 -0.07723429 -0.148596 -0.3207797
00000000: de18 d5be ef60 c43e 7642 a4bd df52 2cbc
00000010: 0987 92be b671 8bbd 1046 8abe 9e42 80be
00000020: d2f1 0cbe d5a7 263d 5192 4a3e 149d c63e
00000030: cd0c 1b3e 8eb4 bfbe 3337 133e 39ff bf3d
00000040: 91dc c7be 2f7f 973e 67fc 233e 49ed cebe
00000050: 24e2 3e3e 8825 6ebd e250 62be 1e8f e1be
00000060: e45d 373d fc60 99be eb48 123e 3935 96be
00000070: c01a 4cbe 032d 9ebd 8d29 18be 3d3d a4be

decoder.1.0.bias f4 [4]
0.25872 -0.119898684 -0.264087 0.07360158
00000000: f376 843e 718d f5bd 6936 87be 6dbc 963d

decoder.2.0.weight f4 [4, 4]
0.005330075 0.27821732 0.24891488 0.41208053 -0.22043914 0.30987883 -0.2665068 -0.047761556
0.28998843 0.2520301 0.06949207 -0.45649216 -0.050322823 0.30603084 0.48520178 0.17202987
00000000: e9a7 ae3b 8072 8e3e 8be3 7e3e 38fc d23e
00000010: ccba 61be 70a8 9e3e 9473 88be 9fa1 43bd
00000020: 5d79 943e 170a 813e dc51 8e3d 57b9 e9be
00000030: 4e1f 4ebd 13b0 9c3e 5e6c f83e 9928 303e

decoder.2.0.bias f4 [4]
-0.5512692 0.36393687 0.44972315 -0.26708886
00000000: fa1f 0dbf ef55 ba3e 1d42 e63e dfbf 88be

decoder.3.weight f4 [8, 4]
-0.10662828 0.12425139 -0.030077513 -0.5242712 -0.18114398 -0.16500403 0.42072496 0.39082864
-0.31657478 0.3371854 0.12219936 -0.31078613 0.5941629 0.10530412 0.079449214 0.5557083
0.17873472 0.35968724 0.22537279 0.21783303 -0.062507495 -0.28935042 0.17211989 -0.0010065538
-0.30282077 -0.23378506 -0.3472215 0.2522072 -0.38373673 0.04222862 -0.179089 -0.29448605
00000000: ed5f dabd 8377 fe3d 1e65 f6bc a336 06bf
00000010: cf7d 39be d1f6 28be 4369 d73e b11a c83e
00000020: 1716 a2be 91a3 ac3e a843 fa3d 5c1f 9fbe
00000030: 0f1b 183f b0a9 d73d 45b6 a23d e642 0e3f
00000040: 3c06 373e ed28 b83e 20c8 663e 9f0f 5f3e
00000050: ee03 80bd bd25 94be 3240 303e 57ee 83ba
00000060: 530b 9bbe 5a65 6fbe 04c7 b1be 4d21 813e
00000070: 2479 c4be ebf7 2c3d 1b63 37be e0c6 96be

decoder.3.bias f4 [8]
-0.20931846 0.16572057 -0.38226408 0.3741352 -0.34485686 0.08939603 0.51958096 0.35220852
00000000: 9457 56be a7b2 293e 1eb8 c3be a68e bf3e
00000010: 1491 b0be 4415 b73d 4203 053f ad54 b43e

exp_avg f4 [4, 8]
8.489634e-06 8.483842e-06 8.499517e-06 8.479247e-06 8.506161e-06 8.480233e-06 8.477915e-06 8.494387e-06
9.5147493e-07 9.5043606e-07 9.52707e-07 9.501883e-07 9.533896e-07 9.5008215e-07 9.5023375e-07 9.520304e-07
-5.0787403e-08 -5.0764214e-08 -5.0858894e-08 -5.074158e-08 -5.0904024e-08 -5.0742557e-08 -5.074057e-08 -5.0837006e-08
-9.158792e-06 -9.152484e-06 -9.168731e-06 -9.1490165e-06 -9.177977e-06 -9.148828e-06 -9.145481e-06 -9.16413e-06
00000000: b36e 0e37 d355 0e37 2699 0e37 1742 0e37
00000010: afb5 0e37 5346 0e37 5e3c 0e37 1d83 0e37
00000020: dc68 7f35 7821 7f35 87bd 7f35 7110 7f35
00000030: 6fec 7f35 2609 7f35 9113 7f35 088f 7f35
00000040: 5721 5ab3 d807 5ab3 f26f 5ab3 f5ee 59b3
00000050: 91a1 5ab3 08f0 59b3 d9ed 59b3 e157 5ab3
00000060: b6a8 19b7 9f8d 19b7 66d3 19b7 ba7e 19b7
00000070: 1cfb 19b7 eb7d 19b7 8b6f 19b7 a3bf 19b7

exp_avg_sq f4 [4, 8]
1.0769403e-11 1.050602e-11 1.076544e-11 1.0645569e-11 1.074102e-11 1.0539793e-11 1.0727234e-11 1.0698747e-11
4.2852565e-13 4.178931e-13 4.2845707e-13 4.236626e-13 4.2754423e-13 4.1921731e-13 4.2682914e-13 4.2578213e-13
4.146153e-16 4.045274e-16 4.1454774e-16 4.099261e-16 4.1362374e-16 4.058156e-16 4.1306414e-16 4.1199722e-16
7.095139e-12 6.9279994e-12 7.1067627e-12 7.010109e-12 7.0911658e-12 6.9450444e-12 7.0653756e-12 7.056544e-12
00000000: 1475 3d2d e8d2 382d 3b63 3d2d 6147 3b2d
00000010: 41f5 3c2d 026b 392d 2bb7 3c2d df36 3c2d
00000020: 0e3d f12a be40 eb2a 2c33 f12a 3780 ee2a
00000030: 9eaf f02a 95ff eb2a 9048 f02a acb1 ef2a
00000040: 6b02 ef25 b531 e925 73f8 ee25 6a4e ec25
00000050: 1770 ee25 d0ef e925 821d ee25 0f80 ed25
00000060: 55a3 f92c dfc1 f32c 070c fa2c 73a5 f62c
00000070: 8b7f f92c 665b f42c 3f97 f82c b347 f82c

exp_avg f4 [4]
2.8662676e-05 3.2131652e-06 -1.7149594e-07 -3.0907486e-05
00000000: a170 f037 c2a1 5736 7224 38b4 a9a2 01b8

exp_avg_sq f4 [4]
1.2430615e-10 4.959307e-12 4.78745e-15 8.1691875e-11
00000000: 12ad 082f 777d ae2c 6f7c ac27 70a4 b32e

exp_avg f4 [4, 4]
-2.9524283e-08 -1.751164e-08 6.388182e-11 -1.956395e-08 3.4703004e-05 2.0554557e-05 -7.401383e-08 2.3267408e-05
-2.5514435e-10 -1.7010769e-10 1.1783148e-12 1.5344684e-11 3.5949083e-07 2.129686e-07 -7.6499523e-10 2.4151564e-07
00000000: 969c fdb2 816c 96b2 457a 8c2e 950d a8b2
00000010: 118e 1138 936c ac37 89f1 9eb3 612e c337
00000020: 6044 8caf 0f09 3baf 44d5 a52b 28f9 862d
00000030: 0b00 c134 5dac 6434 c147 52b0 a8a9 8134

exp_avg_sq f4 [4, 4]
8.489669e-16 3.8159657e-16 1.5206197e-20 3.198172e-17 2.536322e-10 1.0854896e-10 3.8985026e-15 2.320867e-11
2.1367764e-16 9.9253e-17 4.180195e-21 2.9542758e-18 1.86461e-14 7.75822e-15 2.5991956e-19 2.2928195e-15
00000000: b3b2 7426 b7f9 db25 549e 8f1e 5a7d 1324
00000010: 8f6f 8b2f a2b3 ee2e 5775 8c27 4725 cc2d
00000020: 825a 7625 a1dc e424 5eec 9d1d b1fc 5922
00000030: fbf2 a728 7ac2 0b28 ef6d 9920 0e37 2527

exp_avg f4 [4]
-7.938056e-08 9.369188e-05 -4.3712306e-10 9.714729e-07
00000000: ed77 aab3 727c c438 9a4f f0af 8e63 8235

exp_avg_sq f4 [4]
3.1322533e-15 1.0873463e-09 7.1426387e-16 8.628939e-14
00000000: e0b3 6127 9971 9530 5fdf 4d26 724e c229

exp_avg f4 [8, 4]
-6.1597865e-09 6.143827e-07 -8.526477e-10 -1.7054802e-08 2.235562e-09 -2.2204449e-07 3.0823188e-10 6.220098e-09
-1.3014441e-09 1.3093275e-07 -1.8159049e-10 -3.5505587e-09 3.3032348e-09 -3.2775858e-07 4.5489837e-10 9.213689e-09
3.221567e-09 -3.2097495e-07 4.4576037e-10 8.89655e-09 -2.0809487e-09 2.1149081e-07 -2.9321573e-10 -5.5760463e-09
-1.5285366e-09 1.5131207e-07 -2.0998263e-10 -4.3017225e-09 2.8341188e-07 -2.874025e-05 3.986908e-08 7.627706e-07
00000000: 0ea6 d3b1 0fec 2435 bf5f 6ab0 e87f 92b2
00000010: 6ca0 1931 206b 6eb4 c873 a92f 90b8 d531
00000020: 7ede b2b0 8596 0c34 2ea9 47af 17fe 73b1
00000030: 1fff 6231 ccf6 afb4 4115 fa2f 3c4a 1e32
00000040: 6862 5d31 7652 acb4 320f f52f 71d7 1832
00000050: 7000 0fb1 2716 6334 7232 a1af 6c97 bfb1
00000060: 9a14 d2b0 5878 2234 dbe0 66af 5ace 93b1
00000070: d527 9834 3817 f1b7 843c 2b33 32c1 4c35

exp_avg_sq f4 [8, 4]
1.2301524e-17 2.1102088e-13 7.912658e-19 1.472964e-17 3.3641576e-18 5.826877e-14 2.1226398e-19 3.3190932e-18
9.758716e-20 1.3901601e-15 4.3930932e-21 3.6634193e-19 7.206871e-18 1.2417389e-13 4.3512285e-19 7.616689e-18
1.433566e-18 2.2178667e-14 6.006118e-20 3.6798002e-18 2.2090077e-18 3.7573145e-14 1.1821272e-19 2.9147127e-18
3.766498e-18 6.7596306e-14 2.7266859e-19 2.6313945e-18 3.3182326e-14 5.6114297e-10 1.7813971e-15 4.297142e-14
00000000: 4eec 6223 a196 6d2a 5a8a 6921 61db 8723
00000010: 243b 7822 a935 8329 da98 7a20 e6e7 7422
00000020: d26b e61f db57 c826 64f7 a51d 0740 d820
00000030: 7cf1 0423 b0ce 0b2a f46c 0021 cc80 0c23
00000040: 988e d321 86c4 c728 c1d0 8d1f bbc2 8722
00000050: fafe 2222 e336 2929 9a8f 0b20 5e11 5722
00000060: 91f5 8a22 9e36 9829 83f4 a020 a329 4222
00000070: 9e70 1529 ed3e 1a30 fa5c 0027 ad86 4129

exp_avg f4 [8]
6.8311624e-06 -2.4895305e-06 1.425182e-06 -3.6861684e-06 -3.565816e-06 2.2452173e-06 1.7184419e-06 -0.0003068166
00000000: 3d37 e536 cf11 27b6 e148 bf35 e45f 77b6
00000010: 414c 6fb6 8aac 1636 37a5 e635 3adc a0b9

exp_avg_sq f4 [8]
3.2335332e-12 7.861376e-13 6.3322984e-14 1.7776361e-12 6.935766e-13 6.5004865e-13 7.011393e-13 9.554378e-09
00000000: 288a 632c 2f47 5d2b 3797 8e29 172e fa2b
00000010: 7639 432b f1f8 362b 695a 452b 9924 2432

exp_avg f4 [5, 8]
-2.36159e-06 -5.4552584e-07 -4.9387754e-06 -6.6225593e-06 -3.2096984e-06 -1.5829961e-06 -8.196267e-06 0.0008661425
1.6302696e-06 3.7866644e-07 3.4640716e-06 4.6352593e-06 2.253998e-06 1.1016366e-06 5.724855e-06 -0.00060878904
2.8513307e-06 6.5886405e-07 5.970073e-06 8.003351e-06 3.8800813e-06 1.912062e-06 9.903234e-06 -0.0010471201
1.5966566e-07 3.7265576e-08 3.6270083e-07 4.800298e-07 2.3614894e-07 1.11340796e-07 5.8852766e-07 -6.419912e-05
9.894129e-07 2.2910382e-07 2.0737205e-06 2.780725e-06 1.3487512e-06 6.641845e-07 3.440148e-06 -0.0003638541
00000000: cf7b 1eb6 4070 12b5 c2b7 a5b6 5a37 deb6
00000010: 3366 57b6 5577 d4b5 b382 09b7 d70d 633a
00000020: a3cf da35 854b cb34 4c78 6836 9388 9b36
00000030: 6443 1736 f2db 9335 2118 c036 2497 1fba
00000040: 7d59 3f36 cbdc 3035 8952 c836 2146 0637
00000050: a531 8236 fa50 0036 1126 2637 853f 89ba
00000060: 9070 2b34 ef0d 2033 39b9 c234 66db 0035
00000070: 2090 7d34 401a ef33 50fb 1d35 a4a2 86b8
00000080: f8cb 8435 94ff 7534 3f2a 0b36 7e9c 3a36
00000090: bd06 b535 694a 3235 4bdd 6636 acc3 beb9

exp_avg_sq f4 [5, 8]
1.8353362e-13 8.621883e-15 6.5234537e-13 1.170583e-12 2.6915454e-13 7.065527e-14 1.8418069e-12 1.9535007e-08
1.6985361e-12 4.2844455e-14 1.8767232e-12 3.518418e-12 5.440697e-13 3.5859496e-13 7.233971e-12 3.830413e-08
2.386757e-13 1.2006207e-14 9.464839e-13 1.7033541e-12 3.965098e-13 1.0004245e-13 2.6381527e-12 2.8758535e-08
5.9755895e-13 1.3301725e-14 5.4121665e-13 1.0057173e-12 1.3224529e-13 1.1598938e-13 2.232221e-12 9.250085e-09
5.534241e-14 2.0004784e-15 1.3741113e-13 2.4624107e-13 5.316019e-14 1.6908977e-14 4.1174732e-13 3.842167e-09
00000000: f7a3 4e2a 6b51 1b28 709e 372b b3be a42b
00000010: 4285 972a fd19 9f29 0b9b 012c efcd a732
00000020: 360c ef2b 4bf4 4029 0a10 042c 2f96 772c
00000030: 5b24 192b fbde c92a d185 fe2c d683 2433
00000040: cb5c 862a db48 5828 ad34 852b cdb9 ef2b
00000050: 1637 df2a 8c46 e129 bca4 392c b008 f732
00000060: a932 282b 619f 6f28 c556 182b c98a 8d2b
00000070: 1ce5 142a aa97 022a 1e14 1d2c 4eea 1e32
00000080: 743d 7929 5026 1027 10b6 1a2a 149f 8a2a
00000090: 8769 6f29 724d 9828 0bcb e72a 0f04 8431

exp_avg f4 [5]
0.0018709798 -0.001309909 -0.0022615057 -0.0001359308 -0.0007857298
00000000: aa3b f53a 41b1 abba c535 14bb a588 0eb9
00000010: 6ff9 4dba

exp_avg_sq f4 [5]
9.363648e-08 2.861318e-07 1.3601185e-07 8.25492e-08 1.9794692e-08
00000000: 3315 c933 a89d 9934 a70a 1234 e745 b133
00000010: fd08 aa32

exp_avg f4 [8, 5]
-0.00012210074 -0.00028098738 0.0005793643 0.00022752129 -2.5142192e-05 4.003383e-07 9.0967006e-07 -1.8594708e-06
-7.2030275e-07 8.707693e-08 1.7663668e-06 4.1167723e-06 -8.522911e-06 -3.3772299e-06 3.5610438e-07 0.0003434112
0.00080034946 -0.0016556244 -0.00065559405 6.963564e-05 1.3999851e-06 3.2901373e-06 -6.8228146e-06 -2.716055e-06
2.814315e-07 -3.2368512e-06 -7.520034e-06 1.5558046e-05 6.151629e-06 -6.53606e-07 0.00012615701 0.00029593898
-0.000613749 -0.00024416097 2.5250654e-05 8.55223e-05 0.0002020315 -0.00041894853 -0.00016718979 1.7240482e-05
00000000: 2b08 00b9 7d51 93b9 7be0 173a c892 6e39
00000010: 72e8 d2b7 14ee d634 0d30 7435 ee92 f9b5
00000020: d45a 41b5 0cff ba33 e713 ed35 ce22 8a36
00000030: a0fd 0eb7 5ea4 62b6 9d2e bf34 df0b b439
00000040: 8bce 513a 8901 d9ba 2cdc 2bba 5909 9238
00000050: 1fe7 bb35 21cc 5c36 88ef e4b6 7845 36b6
00000060: a717 9734 ae38 59b6 9a54 fcb6 a682 8237
00000070: 176a ce36 7673 2fb5 0449 0439 4228 9b39
00000080: 00e4 20ba bb02 80b9 5ed1 d337 6f5a b338
00000090: 6bd8 5339 52a6 dbb9 ab4f 2fb9 a79f 9037

exp_avg_sq f4 [8, 5]
4.8597865e-10 4.001883e-09 3.632083e-08 1.3064143e-08 8.56836e-10 1.33885085e-14 1.8652171e-13 3.1826748e-12
1.4311862e-12 1.1395382e-13 8.399879e-14 4.7208765e-13 2.3180162e-12 4.8683e-13 2.0091701e-14 3.0502303e-09
1.677034e-08 7.152963e-08 1.1301288e-08 1.4950671e-10 6.004172e-14 4.1533302e-13 4.254391e-12 1.6414299e-12
1.2787677e-13 2.7720206e-13 1.5276552e-12 6.7704314e-12 1.1687163e-12 2.7207301e-14 4.4751586e-10 3.035012e-09
2.3990205e-08 8.075007e-09 5.354854e-10 2.131793e-10 1.6637791e-09 1.6100614e-08 6.0392504e-09 4.2683146e-10
00000000: b595 0530 ef80 8931 2dff 1b33 b570 6032
00000010: 7986 6b30 992f 7128 3901 522a f9f5 5f2c
00000020: eb6b c92b f44c 002a 0126 bd29 80e1 042b
00000030: ab1d 232c cc07 092b 4ff8 b428 389c 5131
00000040: 5e0e 9032 d49b 9933 9727 4232 6662 242f
00000050: b233 8729 cccf e92a 26b0 952c bf02 e72b
00000060: f8f9 0f2a 070d 9c2a 94ff d62b a036 ee2c
00000070: 717b a42b c40f f528 4206 f62f 7f90 5031
00000080: 0513 ce32 42ba 0a32 6f31 1330 a364 6a2f
00000090: 06ab e430 a04d 8a32 cf81 cf31 30a7 ea2f

exp_avg f4 [8]
0.0019816246 -6.345605e-06 -2.921759e-05 -0.0056752698 -2.3421917e-05 5.3303887e-05 -0.0021066968 -0.0014398544
00000000: 25de 013b 55ec d4b6 4c18 f5b7 9df7 b9bb
00000010: 2f7a c4b7 9d92 5f38 8210 0abb 7fb9 bcba

exp_avg_sq f4 [8]
4.6387905e-07 4.0699097e-11 2.7636855e-11 8.4308635e-07 5.285164e-11 8.000623e-11 2.9863608e-07 2.0308919e-07
00000000: 0d0b f934 1cff 322e aa18 f32d 7450 6235
00000010: a871 682e 81ef af2e 3b54 a034 bb10 5a34

exp_avg f4 [4, 8]
2.3562601e-05 -5.4126923e-07 -9.498996e-08 1.9832522e-05 -4.8491717e-07 -4.4110925e-07 6.428747e-05 5.0602226e-05
-0.0029507766 5.449511e-05 4.8732245e-06 -0.0027898513 4.1418723e-05 4.1788913e-05 -0.0064812116 -0.0056686746
2.9945872e-05 -5.5691334e-07 -5.5151187e-08 2.623645e-05 -4.326096e-07 -4.264388e-07 6.604342e-05 5.7045858e-05
3.817029e-05 -7.0945316e-07 -6.996378e-08 3.352059e-05 -5.5054153e-07 -5.4314586e-07 8.413238e-05 7.271245e-05
00000000: 4da8 c537 bd4b 11b5 48fd cbb3 045e a637
00000010: 412b 02b5 98d1 ecb4 13d2 8638 ba3d 5438
00000020: d161 41bb ae91 6438 ae84 a336 f0d5 36bb
00000030: 04b9 2d38 8146 2f38 5860 d4bb 4ac0 b9bb
00000040: 4534 fb37 cb7e 15b5 5fdf 6cb3 5916 dc37
00000050: 6941 e8b4 4df1 e4b4 cb80 8a38 8644 6f38
00000060: 0919 2038 4071 3eb5 ff3e 96b3 7698 0c38
00000070: edc8 13b5 b3cc 11b5 3a70 b038 337d 9838

exp_avg_sq f4 [4, 8]
1.996277e-08 3.5363816e-11 6.0792317e-12 7.225413e-08 4.855143e-11 3.3681412e-11 5.1332785e-07 2.1978346e-07
2.3253776e-07 7.913392e-11 6.6402e-13 2.053311e-07 4.593694e-11 4.6445448e-11 1.1178851e-06 8.538233e-07
2.8966588e-11 1.2054469e-14 4.0147803e-16 2.1274238e-11 9.008815e-15 7.742806e-15 1.697214e-10 1.1388188e-10
4.410622e-11 3.1041288e-14 4.0269755e-15 6.944809e-11 3.584484e-14 2.6190818e-14 4.486845e-10 2.372705e-10
00000000: 987a ab32 1e88 1b2e dae4 d52c 212a 9b33
00000010: 0d88 552e e621 142e 9fcb 0935 9efd 6b34
00000020: 7eaf 7934 7004 ae2e afe7 3a2b fc78 5c34
00000030: 6508 4a2e ed44 4c2e 3d0a 9635 4a32 6535
00000040: f5ca fe2d 6d27 5928 b36f e725 5321 bb2d
00000050: d449 2228 647b 0b28 549c 3a2f cd6d fa2e
00000060: 30fb 412e 2bcc 0b29 4b16 9127 cdb7 982e
00000070: 496e 2129 eae7 eb28 bbaa f62f db70 822f

exp_avg f4 [4]
0.00014999913 -0.01455367 0.00014851317 0.00018917752
00000000: 1649 1d39 8472 6ebc 33ba 1b39 f45d 4639

exp_avg_sq f4 [4]
3.5058627e-06 5.640222e-06 9.063656e-10 2.8310478e-09
00000000: 4346 6b36 2341 bd36 cf23 7930 528c 4231

exp_avg f4 [4, 4]
6.41645e-08 4.3768932e-06 -3.8869384e-06 -7.897086e-07 -6.2507925e-06 -0.0004992941 0.00044836607 9.108874e-05
1.4595072e-06 -0.00027932358 0.00024320089 4.9676317e-05 1.7407247e-07 6.9186244e-06 -6.3369976e-06 -1.2829098e-06
00000000: cfca 8933 3add 9236 8c6c 82b6 5dfc 53b5
00000010: e6bd d1b6 0fe3 02ba ad12 eb39 e506 bf38
00000020: 49e4 c335 2d72 92b9 be03 7f39 8a5b 5038
00000030: ade8 3a34 8826 e836 65a2 d4b6 7230 acb5

exp_avg_sq f4 [4, 4]
1.3190778e-10 6.7559315e-13 6.5092934e-13 1.7229497e-14 1.7644352e-06 8.711855e-09 8.505621e-09 2.2964289e-10
1.1972259e-07 2.6797788e-09 2.1039874e-09 5.926418e-11 6.4501743e-10 1.706937e-12 1.945303e-12 5.1353937e-14
00000000: bd08 112f 9e29 3e2b 6738 372b 8430 9b28
00000010: 88d1 ec35 25ab 1532 1e20 1232 ba7e 7c2f
00000020: 188d 0034 2b27 3831 bd95 1031 c452 822e
00000030: 114d 3130 e33a f02b 77e3 082c 0f47 6729

exp_avg f4 [4]
0.0005984683 -0.06903821 -0.037356213 0.0009774338
00000000: 87e2 1c3a e863 8dbd d402 19bd 3c1d 803a

exp_avg_sq f4 [4]
2.315745e-08 0.00030091807 6.490815e-05 7.531323e-08
00000000: c5eb c632 8ac4 9d39 4c1f 8838 e3bb a133

exp_avg f4 [8, 4]
0.0006559142 -0.04322219 -0.05317329 0.00031265756 -2.768619e-06 0.00017743568 0.00021918658 -1.3173271e-06
0.0006959239 -0.045838285 -0.056402743 0.0003316666 -0.00021920222 0.014424387 0.017753381 -0.000104424944
0.0005786944 -0.038107947 -0.04688886 0.00027572512 0.00033387504 -0.021989187 -0.027060613 0.00015908564
2.3763117e-05 -0.0015722602 -0.0019331743 1.1327091e-05 6.5059544e-06 -0.00043540212 -0.00053274754 3.112343e-06
00000000: a8f1 2b3a c009 31bd 3ccc 59bd 30ec a339
00000010: 83cc 39b6 070e 3a39 73d5 6539 04cf b0b5
00000020: aa6e 363a edc0 3bbd 9006 67bd 8ae3 ad39
00000030: a6d9 65b9 4454 6c3c 8a6f 913c b7fe dab8
00000040: 86b3 173a 1417 1cbd 890e 40bd 338f 9039
00000050: f30b af39 ab22 b4bc 38ae ddbc 3ad0 2639
00000060: e856 c737 4c14 ceba 9162 fdba 7c09 3e37
00000070: b94d da36 af46 e4b9 15a8 0bba a5dd 5036

exp_avg_sq f4 [8, 4]
4.360911e-08 0.00014835299 0.00029424555 8.414671e-09 2.0210642e-11 6.236359e-08 1.4685372e-07 3.7058507e-12
5.1571387e-08 0.00017424344 0.00034869346 9.912315e-09 6.4152714e-09 2.1062096e-05 4.3790118e-05 1.2128955e-09
3.831332e-08 0.00012826767 0.00025977904 7.32474e-09 1.22945005e-08 4.1589767e-05 8.296644e-05 2.3634197e-09
1.4159764e-10 4.0815166e-07 1.0296155e-06 2.5039639e-11 6.6044184e-11 1.6931888e-07 5.068177e-07 1.1057686e-11
00000000: b94c 3b33 348f 1b39 f844 9a39 1d90 1032
00000010: 52c6 b12d bfec 8533 d8ae 1d34 5663 822c
00000020: 577f 5d33 1eb5 3639 d8d0 b639 d34a 2a32
00000030: 536d dc31 82ae b037 48ab 3738 f7b2 a630
00000040: f18d 2433 977f 0639 f432 8839 18ad fb31
00000050: c937 5332 ac70 2e38 45fe ad38 b869 2231
00000060: 31b0 1b2f f01f db34 5231 8a35 4140 dc2d
00000070: 923b 912e 05ce 3534 3f0c 0835 6487 422d

exp_avg f4 [8]
-0.12172022 0.000515484 -0.12916136 0.040713564 -0.10741052 -0.061973568 -0.0044073057 -0.0012015783
00000000: 7348 f9bd 8c21 073a e042 04be 44c3 263d
00000010: 0cfa dbbd ffd7 7dbd 296b 90bb 477e 9dba

exp_avg_sq f4 [8]
0.0018509332 9.1415683e-07 0.002199058 0.00027873047 0.001643678 0.00052387663 6.6365365e-06 3.2784985e-06
00000000: 039b f23a 6164 7535 121e 103b 9222 9239
00000010: af70 d73a c454 093a 6aaf de36 2d04 5c36
