experiments/data/numenta_ae/grok_asg_anomaly.csv-.ckpt (torch, 24866 bytes, 48 tensors)

encoder.0.0.weight f4 [4, 8]
00000000: 8969 6cbe 1bda 323c 69ba 8b3e 7569 adbe
00000010: ec07 c2be 2e5f 373e 1565 eabd 398e 713e
00000020: 41cd c4be e4d2 b13a bc5c 313d 1327 d3be
00000030: 6f5c 26bd 00ae 7dbe c20a 133d a182 f5bd
00000040: 1354 45bc 95bf 2f3e 9321 913d ef1e 353e
00000050: ccb8 a4be c0a1 2e3e a351 6fbe 49a9 0f3d
00000060: 95c9 20be 03cf aa3e c2dc e6bc c878 49be
00000070: 491f 303e 5183 c43d e214 9dbe 92a7 bdbe
-0.23087133 0.010916258 0.27290657 -0.3386952 -0.3789667 0.17907402 -0.11445061 0.2358941
-0.38437846 0.0013566879 0.04330133 -0.4124075 -0.040615495 -0.24773407 0.03589893 -0.11987806
-0.012043971 0.17162926 0.07086482 0.17687581 -0.3217224 0.1705389 -0.23370986 0.035073552
-0.15701897 0.33361062 -0.028181437 -0.1967498 0.17199434 0.09595359 -0.30679995 -0.37041909

encoder.0.0.bias f4 [4]
00000000: ee61 573e ab7f b53c 357b 8b3e e861 7cbc
0.21033451 0.022155603 0.27242437 -0.015404202

encoder.1.0.weight f4 [4, 4]
00000000: 7cce a8bd 865c d4be 64c0 b5be c985 f63d
00000010: 8fd6 8c3d 6b77 9c3e cada c13e e266 7a3e
00000020: 725e 9dbe 6640 e73e 7e23 983b 40e1 c3be
00000030: 3f7d 6d3e 7e22 923e 1f24 a9be 5a38 de3e
-0.08242509 -0.4147684 -0.35498345 0.12037236 0.06876861 0.3055986 0.37862235 0.24453309
-0.3073612 0.4516632 0.004642903 -0.3825779 0.23192309 0.2854194 -0.3303537 0.43402368

encoder.1.0.bias f4 [4]
00000000: fcab d93e 1f6a 0b3e 7527 f5be 7872 bfbe
0.42514026 0.136147 -0.47881666 -0.3739202

encoder.2.0.weight f4 [8, 4]
00000000: ac13 c5be 9d8f d8be 4a9b 733e 21e3 943e
00000010: fb9f d3be fc44 3c3e de92 1fbe f265 f0bd
00000020: 3a37 80be b1ae 893e 2062 79be 96c7 4d3e
00000030: d5c6 90be ff7a b63e d42d 623e 9352 efbe
00000040: 5c1d 4b3e 823d 253b d21b a2be 63c9 88be
00000050: 0fcf 61bc 63c6 ff3d deac ff3e f248 533e
00000060: 7c7b 473e 8c20 ab3e e410 673e a657 b23e
00000070: 309a 953e baee a23e a264 c2be 4331 c8be
-0.3849157 -0.42297068 0.23789707 0.29079536 -0.41332993 0.1838569 -0.15583369 -0.117381945
-0.25042135 0.2689109 -0.24353838 0.20095667 -0.28276697 0.35640714 0.22087795 -0.46742687
0.19835418 0.0025213663 -0.3166185 -0.26716146 -0.013782277 0.12489011 0.49936575 0.20633295
0.194807 0.3342327 0.22565037 0.34832495 0.29219198 0.3182276 -0.37967402 -0.39100084

encoder.2.0.bias f4 [8]
00000000: 5738 9bbd 27eb 06bf 2131 28bf 2202 49be
00000010: 8705 0b3f f24d b1bd d60d 18be 825f 3abe
-0.07579105 -0.52702564 -0.65699965 -0.1962972 0.5430531 -0.08657445 -0.14849028 -0.18200496

encoder.3.weight f4 [5, 8]
00000000: ad5e 803e 5ef6 84be b382 b7bd ecba 3e3e
00000010: 2523 a3bd 64c8 0bbd bd7a a93e 250f ba3d
00000020: 79d4 303e 3b77 b83e 70f3 e33e b4af 613d
00000030: 4810 b9be 8167 a43e 3087 913e 27da bc3c
00000040: 003b e5bd 3e3e af3e 393b dd3e e4c4 ec3a
00000050: fbc8 d6be 330c 4a3c 9bb8 6f3e 0037 dcbd
00000060: 24be 0bbd a58a 4e3e f3e8 85be cfee aabe
00000070: 2c2b e13d b981 0a3d 8691 273d be15 8f3d
00000080: 8ebe 933e 1ca7 d83e 117b 0fbd 2cd7 9c3e
00000090: e5fb 75be b32a 61be c20b 50be 939e cebd
0.25072232 -0.25969213 -0.08960476 0.18625993 -0.07965688 -0.034126654 0.33101454 0.0908492
0.17268552 0.36028466 0.44521666 0.055099204 -0.36145234 0.32110217 0.28423452 0.023053242
-0.11192894 0.34227175 0.43209246 0.0018064049 -0.4195021 0.01233201 0.23410265 -0.10752678
-0.03411688 0.20170076 -0.2615429 -0.33385321 0.109945625 0.03381512 0.040910266 0.06986569
0.2885632 0.42314994 -0.035029475 0.30632913 -0.24021871 -0.21988945 -0.20316985 -0.100888394

encoder.3.bias f4 [5]
00000000: 1a29 ab3e ebd6 483e b4fb f2be 9a9e 583d
00000010: 54fe 35be
0.33429796 0.19613235 -0.4745766 0.05288563 -0.177728

decoder.0.0.weight f4 [8, 5]
00000000: 1b03 bb3e c294 1f3e eb80 4dbe aa67 6a3e
00000010: 7d52 adbe bd98 0abf 89fb 7a3e 2b15 7f3e
00000020: 84d8 78bd a801 ef3d 252d 8f3e 06a7 08bb
00000030: 0d23 e93e 5fc8 513e 3257 423e ebc3 933d
00000040: c1b0 993e 5ddb c4bd 1507 3e3e 52d6 d43e
00000050: 4464 223e 5c36 4bbe 270b 04bf a6a6 703d
00000060: f494 603d 27ec c83e d7ca adbe 2d76 3bbe
00000070: 47bd 663e c6c9 b4be 8d69 06bf 0aee c3be
00000080: 7bd0 1bbe 6780 353e 13a1 34be 4c14 21be
00000090: 7a18 853d 07d6 983e df5b e2bd a4ad 183f
0.36525807 0.1558409 -0.2006871 0.22891107 -0.33851996 -0.5413931 0.24510016 0.24910419
-0.06075336 0.11670238 0.2796413 -0.0020851507 0.45534554 0.20486592 0.18978575 0.07215103
0.30017665 -0.09612153 0.18557389 0.41569763 0.15858561 -0.19844955 -0.5157952 0.05875268
0.054829553 0.3924267 -0.33943817 -0.18306799 0.22533141 -0.3531019 -0.5250481 -0.38267547
-0.15216248 0.17724763 -0.1763957 -0.15730399 0.06498809 0.2985079 -0.11052679 0.59639955

decoder.0.0.bias f4 [8]
00000000: 1580 c5be e2f1 c8be 3547 123e 7051 9dbd
00000010: ed05 e33d cc77 cf3e b1fa aabe 21fd 78be
-0.3857428 -0.39247042 0.14284976 -0.076815486 0.11085115 0.40521085 -0.33394387 -0.24315311

decoder.1.0.weight f4 [4, 8]
00000000: a0b3 9ebb 894b ddbd 1e50 1dbe 472d 673e
00000010: fe71 a03d 82b4 ab3e f9ce 20bd d644 103c
00000020: 2362 69be 3088 6bbe de07 a0be c5f0 a5be
00000030: b15f 8a3e b124 ae3e e171 d4be 0226 afbe
00000040: a579 21be 30fa 263c ff97 33bc 49bf 3abe
00000050: f06f 89be d2af f2be e56f c23e cd27 f43e
00000060: 050b 9fbd 2a30 723b 9d36 fbbb db93 babb
00000070: 8e9e b8bd 9750 a4be 29ee 1c3e a271 853c
-0.0048431903 -0.10805423 -0.15362594 0.22575866 0.07834242 0.33536154 -0.039259885 0.008805474
-0.22791342 -0.2300117 -0.31256002 -0.32410255 0.27026132 0.34012368 -0.41493133 -0.34208685
-0.1576906 0.010191485 -0.010961532 -0.18237032 -0.26843214 -0.47399765 0.37975994 0.47686616
-0.07765774 0.0036954978 -0.0076664225 -0.0056938953 -0.09014617 -0.32092735 0.15325226 0.016289536

decoder.1.0.bias f4 [4]
00000000: 1672 153e 58cb bb3e c05a e1bd 3bb3 d2be
0.14594302 0.36678576 -0.11003637 -0.41152367

decoder.2.0.weight f4 [4, 4]
00000000: a36e dc3e cb70 b1be 8571 38be 2a6b 41bd
00000010: 6f5c f23b e58b 9bbd 98d4 11bf 409b 1abf
00000020: 057d c23d e7de 0c3f 6330 02bf ae02 b13a
00000030: 123c fdbe e043 0ebf c8bd 933d f18e 423e
0.4305316 -0.34656367 -0.18012054 -0.04722134 0.007396273 -0.07595042 -0.5696502 -0.6039314
0.09496502 0.5502762 -0.5085508 0.0013504827 -0.49459893 -0.5557232 0.07213932 0.1899984

decoder.2.0.bias f4 [4]
00000000: 18c4 cabe 4f9a 9a3e 422f 013f 352a efbe
-0.39602733 0.30195853 0.50462735 -0.4671189

decoder.3.weight f4 [8, 4]
00000000: 25a8 d5be f240 afbc 998b d03e 8aca 91be
00000010: 9a8b 6f3c fcf6 f73e 6086 cf3c 5d12 a3be
00000020: a595 a4be 0e9a dc3e 5cac fb3e da02 0cbf
00000030: 4b92 cabd 9a48 a93e 10ff bb3e a6aa a53e
00000040: ce75 953e bf35 703d 6736 703e f312 ccbd
00000050: d8f4 c13d 383c 5c3d f9d1 973b 832b 4bbe
00000060: aa02 0c3e ea49 dfbd 97df 093e 27f2 733c
00000070: 667b 6cbd e786 033e 520f 683e 6370 bcbd
-0.41729847 -0.021393273 0.40731505 -0.28474838 0.014620686 0.48430622 0.02533263 -0.31849948
-0.3214542 0.43086284 0.49154937 -0.5469185 -0.098911844 0.33063203 0.36718035 0.32356757
0.2919144 0.058645006 0.23458253 -0.09964552 0.09470528 0.053768367 0.004633185 -0.19840817
0.13672891 -0.1090277 0.13464199 0.014889277 -0.05773487 0.1284443 0.22662094 -0.092011236

decoder.3.bias f4 [8]
00000000: 6dac d23e 43a1 ef3e 46a3 fabd 507d bcbd
00000010: 08dc c0be ce08 99bd dc04 5fbe d8f4 b4be
0.41147175 0.4680272 -0.12238173 -0.09203589 -0.3766787 -0.074723825 -0.21779197 -0.3534305

exp_avg f4 [4, 8]
00000000: 9496 0738 6487 0838 23ca 0838 0882 0738
00000010: b805 0738 e488 0838 d515 0838 a8e0 0838
00000020: a38a 1237 4178 1237 e08c 1237 b089 1237
00000030: f077 1237 6976 1237 1175 1237 5a7e 1237
00000040: 8b41 523a 662d 523a ca47 523a 5244 523a
00000050: 9924 523a 2c26 523a e01d 523a 0f2d 523a
00000060: f2f2 1ab6 e3d0 1ab6 19eb 1ab6 48e6 1ab6
00000070: c200 1bb6 d6d5 1ab6 39fd 1ab6 d9e6 1ab6
3.2326745e-05 3.255102e-05 3.261318e-05 3.230761e-05 3.2191834e-05 3.2552416e-05 3.244526e-05 3.2634154e-05
8.734557e-06 8.730277e-06 8.735078e-06 8.734336e-06 8.730203e-06 8.729848e-06 8.729535e-06 8.731697e-06
0.0008020631 0.0008017629 0.00080215617 0.0008021045 0.0008016318 0.00080165523 0.0008015316 0.00080175785
-2.30892e-06 -2.3069376e-06 -2.3084633e-06 -2.308183e-06 -2.309724e-06 -2.3072257e-06 -2.3095183e-06 -2.308216e-06

exp_avg_sq f4 [4, 8]
00000000: cd99 0831 c078 0831 c69d 0831 027e 0831
00000010: 8c71 0831 e77d 0831 3a84 0831 1c98 0831
00000020: 573f 502c 6aff 4f2c 8435 502c ae30 502c
00000030: 260a 502c 8809 502c b60a 502c 2621 502c
00000040: 6311 4833 e5d7 4733 a10f 4833 f503 4833
00000050: f4e4 4733 8ce0 4733 1bdf 4733 78f7 4733
00000060: 4cdf 412b 3094 412b 46ce 412b d9c2 412b
00000070: 3bc1 412b 1cae 412b 6eca 412b 28cc 412b
1.987803e-09 1.9859243e-09 1.9880289e-09 1.9862232e-09 1.9855149e-09 1.9862172e-09 1.9865767e-09 1.9877069e-09
2.9593738e-12 2.9558253e-12 2.9588285e-12 2.95856e-12 2.9564211e-12 2.9563869e-12 2.9564524e-12 2.9576979e-12
4.6581942e-08 4.6529653e-08 4.6580343e-08 4.6569728e-08 4.654153e-08 4.6537522e-08 4.653621e-08 4.655837e-08
6.887726e-13 6.8773025e-13 6.8853636e-13 6.883778e-13 6.8835535e-13 6.8809e-13 6.88483e-13 6.88507e-13

exp_avg f4 [4]
00000000: 0323 3938 79b5 4637 da91 8e3a 3326 52b6
4.4140044e-05 1.1843972e-05 0.0010877207 -3.1314673e-06

exp_avg_sq f4 [4]
00000000: 52f8 7b31 f0c2 bf2c 215d b833 33b9 b22b
3.666646e-09 5.450189e-12 8.585108e-08 1.2699064e-12

exp_avg f4 [4, 4]
00000000: 69f7 5bb7 3299 a537 d1c3 85ba 0737 3337
00000010: f9a9 af36 5918 d9b5 f32c d738 4bc0 87b5
00000020: f473 9134 f5e7 a9b4 4f78 8b37 78e3 39b4
00000030: ea3e 7334 d04c 90b4 5b8e 6c37 7cab 1db4
-1.3111022e-05 1.974087e-05 -0.0010205453 1.06820435e-05 5.235194e-06 -1.6174846e-06 0.00010260371 -1.0114248e-06
2.7092722e-07 -3.1647474e-07 1.6626114e-05 -1.731222e-07 2.2654027e-07 -2.687798e-07 1.4099841e-05 -1.468415e-07

exp_avg_sq f4 [4, 4]
00000000: 3212 df2f 3cb0 162d 48d5 0b33 07a4 5e2c
00000010: 2fd0 1d33 118b 052c d619 4434 d9a5 2f2c
00000020: 7741 3d2c dd44 3727 0fc4 ce2d b0b3 ab26
00000030: af1c ae2b 221d 0127 3dc4 6b2d f824 6826
4.0576392e-10 8.565645e-12 3.2557438e-08 3.163915e-12 3.6743753e-08 1.8977634e-12 1.8263322e-07 2.496106e-12
2.6894856e-12 2.5433683e-15 2.3506556e-11 1.1914213e-15 1.2371405e-12 1.791814e-15 1.3401777e-11 8.054127e-16

exp_avg f4 [4]
00000000: dd5d 32bb 4dda 7e39 972a 3838 3b48 1c38
-0.0027216591 0.00024304651 4.3908683e-05 3.726057e-05

exp_avg_sq f4 [4]
00000000: 679c 4634 aa4c 9f34 f3ed a82e 9093 592e
1.8497086e-07 2.9671838e-07 7.682024e-11 4.947115e-11

exp_avg f4 [8, 4]
00000000: ad79 81b5 5e9e c5b5 fe93 b532 bf86 c132
00000010: da96 4138 6fcf 4b38 7eb5 57b5 6ce1 60b5
00000020: 1ed2 4438 79d8 4e38 131f 5bb5 ae58 64b5
00000030: 934a f136 b00d fa36 0720 05b4 90b8 0ab4
00000040: e7d4 7ebb eaa6 85bb 4baf 8d38 e8a8 9338
00000050: c683 4137 eec8 4837 b303 56b4 5c8a 5eb4
00000060: a119 8d37 c0f5 cf37 0b4a c1b4 a651 cdb4
00000070: f4cc 34b7 5e81 43b7 d79f 4c34 16ae 5534
-9.646661e-07 -1.4723735e-06 2.1138472e-08 2.2529433e-08 4.6155277e-05 4.859216e-05 -8.035785e-07 -8.3774535e-07
4.692573e-05 4.9315833e-05 -8.1629076e-07 -8.5065665e-07 7.1910413e-06 7.452174e-06 -1.2398242e-07 -1.2919395e-07
-0.0038884224 -0.0040787356 6.756055e-05 7.0409675e-05 1.1534377e-05 1.19677115e-05 -1.9931649e-07 -2.0725696e-07
1.6820444e-05 2.479076e-05 -3.6002925e-07 -3.8243633e-07 -1.0776555e-05 -1.1653026e-05 1.905713e-07 1.9900503e-07

exp_avg_sq f4 [8, 4]
00000000: 9fa0 492a fb86 572d 9d31 7d26 3f23 5726
00000010: 1be5 522e fe3a 2f2f e6d6 df28 5253 ea28
00000020: 01a8 562e 5615 042f 1921 cc28 b1bb db28
00000030: 2f94 d12b 7561 fc32 fb2a ee2b fb47 b42b
00000040: db3b b334 2ff9 8535 af9b 332f c470 3d2f
00000050: 2287 602c af63 9931 881c 732a 4dfa 2b2a
00000060: c980 ca2e b027 7634 e5af 632d 12d6 2b2d
00000070: f8b3 572c 9590 8b2d 75d4 2127 446f 2627
1.7908113e-13 1.2251307e-11 8.7844246e-16 7.4640877e-16 4.795196e-11 1.5937116e-10 2.485117e-14 2.6015353e-14
4.8807184e-11 1.201291e-10 2.2662904e-14 2.4395282e-14 1.4891472e-12 2.938098e-08 1.6922847e-12 1.2809748e-12
3.33849e-07 9.981794e-07 1.6335265e-10 1.7229512e-10 3.1907328e-12 4.4642188e-09 2.1592634e-13 1.5274692e-13
9.208773e-11 2.2924974e-07 1.29425125e-11 9.767758e-12 3.065324e-12 1.5866678e-11 2.2458412e-15 2.3097445e-15

exp_avg f4 [8]
00000000: 86e6 9db6 59e0 3539 61b2 3839 102e e037
00000010: 01d6 6ebc f21d 3438 544c a638 71e8 2cb8
-4.705801e-06 0.00017345081 0.00017614059 2.672433e-05 -0.01457739 4.2943233e-05 7.929714e-05 -4.1224474e-05

exp_avg_sq f4 [8]
00000000: 9a33 5f2e be2a ac30 a895 9930 97b1 dc33
00000010: 3b27 0937 187d 6832 e277 5335 8a2a fe2e
5.075016e-11 1.2526795e-09 1.117475e-09 1.0276852e-07 8.17497e-06 1.353262e-08 7.877808e-07 1.1558139e-10

exp_avg f4 [5, 8]
00000000: 4eb8 3238 3c11 a438 f932 b638 f5d9 c137
00000010: c891 03bc 4c3b f936 a1be b334 ebd5 8b36
00000020: a1a7 78b8 95c1 e3b8 6601 fdb8 665b 06b8
00000030: fdc7 363c 48f0 2cb7 f793 efb4 a57c c7b6
00000040: fbd8 59b8 292f c8b8 1449 deb8 0bd2 ecb7
00000050: b575 203c b23a 18b7 6c1c ddb4 29ec a8b6
00000060: b2be 9c37 9dce 1038 b09a 2038 7a1d 2c37
00000070: e4b3 67bb 9cd2 5c36 babc 3234 8ca3 e535
00000080: d11a bdb7 81df 2db8 330c 41b8 ed97 4db7
00000090: 6757 8b3b ff1d 84b6 f44b 2db4 8536 11b6
4.2610154e-05 7.8233395e-05 8.687931e-05 2.3108887e-05 -0.008030362 7.4276813e-06 3.348005e-07 4.167426e-06
-5.9283924e-05 -0.00010860261 -0.000120642406 -3.203321e-05 0.011156079 -1.0307944e-05 -4.4624878e-07 -5.9451727e-06
-5.193891e-05 -9.5455274e-05 -0.00010599397 -2.8231201e-05 0.009793689 -9.073572e-06 -4.1185137e-07 -5.034283e-06
1.8685449e-05 3.45247e-05 3.8291037e-05 1.0258862e-05 -0.0035355026 3.2905145e-06 1.66462e-07 1.7109428e-06
-2.2543043e-05 -4.145457e-05 -4.6026147e-05 -1.2254325e-05 0.0042523625 -3.9373986e-06 -1.6139512e-07 -2.1638418e-06

exp_avg_sq f4 [5, 8]
00000000: 2b07 c72e c452 652f d5d0 922f ccd6 d030
00000010: a286 2636 dfe9 3f2c 5844 ed31 e2be 332d
00000020: 0f82 792f b4ae f72f 9035 2030 6845 4631
00000030: 3f5f bd36 fa88 b72c 4db1 9e32 0958 172e
00000040: 3104 f42e a297 992f 3448 c42f 8257 6e2f
00000050: 970d 5a36 75d2 242c b5df 1931 55ae 312d
00000060: 3de0 0b2e 9958 4a2e e716 7f2e a373 0431
00000070: 1d8a 2535 2956 d72b 86f3 2832 e876 e52c
00000080: d113 5c2e d246 ab2e 2031 da2e 036a 9f30
00000090: cca9 8a35 02c7 892b 74c2 2232 ca0a 2f2d
9.0507456e-11 2.0856833e-10 2.670563e-10 1.5195041e-09 2.4814294e-06 2.7272557e-12 6.9053776e-09 1.02173565e-11
2.2692624e-10 4.5053172e-10 5.828378e-10 2.8852245e-09 5.643727e-06 5.2163803e-12 1.8474248e-08 3.4411616e-11
1.109658e-10 2.793828e-10 3.5703496e-10 2.1677063e-10 3.2492442e-06 2.3422629e-12 2.2391593e-09 1.0099995e-11
3.1804104e-11 4.6008173e-11 5.800063e-11 1.927426e-09 6.166827e-07 1.5300583e-12 9.834258e-09 6.5217727e-12
5.003981e-11 7.78876e-11 9.9222186e-11 1.1598903e-09 1.0331219e-06 9.789671e-13 9.473855e-09 9.949994e-12

exp_avg f4 [5]
00000000: 5854 64bc 4adc 9e3c 6422 8b3c d92e c8bb
00000010: e388 f13b
-0.013936125 0.019392151 0.016984172 -0.0061091003 0.0073710545

exp_avg_sq f4 [5]
00000000: fab6 1f37 84e7 c537 bd74 4737 1f30 4836
00000010: 8a5f a236
9.519741e-06 2.3592038e-05 1.1888505e-05 2.9830333e-06 4.8390984e-06

exp_avg f4 [8, 5]
00000000: 330c 363b 8d00 acb7 3a79 ecbb 74cf 8b3a
00000010: 21c4 4ebb feff 7538 d070 dd34 ec24 20b9
00000020: 0d40 ba37 1794 8bb8 9f22 b338 c0c5 a835
00000030: 5061 69b9 00cd 0638 d833 cbb8 dcfb 9638
00000040: 0066 c935 e7d0 44b9 cf42 e237 2639 abb8
00000050: 807a dfbb 9812 5cb8 8677 913c fa17 29bb
00000060: c895 fd3b 225e 21bc dde3 acb8 3719 d23c
00000070: f70b 74bb 4914 373c 0dca db38 f5c5 a935
00000080: 732a 8fb9 29b5 2538 975b f9b8 125f b038
00000090: 6799 7c35 70bd 65b9 6011 0538 801c c8b8
0.0027778267 -2.0504254e-05 -0.0072166 0.0010666684 -0.0031550007 5.8650963e-05 4.124654e-07 -0.00015272544
2.2202754e-05 -6.6556204e-05 8.541834e-05 1.2574528e-06 -0.00022256863 3.213901e-05 -9.689451e-05 7.19947e-05
1.5005353e-06 -0.00018769839 2.697241e-05 -8.16456e-05 -0.006820023 -5.2469404e-05 0.017757189 -0.0025801645
0.0077388026 -0.009849103 -8.244042e-05 0.025646789 -0.0037238577 0.01117427 0.00010480369 1.2649094e-06
-0.00027306713 3.9507784e-05 -0.00011890305 8.410042e-05 9.4100545e-07 -0.00021909713 3.1725853e-05 -9.542052e-05

exp_avg_sq f4 [8, 5]
00000000: 1d21 1035 3b54 0034 d700 6f36 9f8f 7c33
00000010: 7acb 2c35 5a9f 062f 3395 ab2d a7f5 6e30
00000020: 3633 702d 269e 2d2f ce54 7234 3061 a934
00000030: 38e5 6a35 f3ab 8832 9844 1534 341f d634
00000040: 5735 1835 22aa eb35 b2b3 fc32 0404 9b34
00000050: 9c86 e135 654a 8f34 def7 4837 111b 4834
00000060: 54f7 1136 45c2 7536 f174 3a35 1b26 da37
00000070: 7870 d634 2808 9e36 0dec 0830 d6f6 182f
00000080: 71fa 7331 2b10 602e d84c 2f30 d3b9 a82f
00000090: 100b ad2e a963 1631 f40e 0c2e 0681 d82f
5.3692366e-07 1.1951572e-07 3.5614264e-06 5.8803945e-08 6.437109e-07 1.2243842e-10 1.9506707e-11 8.693299e-10
1.3653792e-11 1.5790444e-10 2.2568858e-07 3.1549416e-07 8.750535e-07 1.5910677e-08 1.390166e-07 3.988331e-07
5.670203e-07 1.755838e-06 2.9418377e-08 2.8873922e-07 1.6802983e-06 2.6689955e-07 1.197864e-05 1.8636298e-07
2.1750648e-06 3.6620925e-06 6.946057e-07 2.600537e-05 3.9942438e-07 4.7097164e-06 4.981196e-10 1.3912013e-10
3.5503513e-09 5.0946063e-11 6.377383e-10 3.0691058e-10 7.869094e-11 2.1884523e-09 3.1845596e-11 3.9381848e-10

exp_avg f4 [8]
00000000: a897 283c 0bda 6539 ca10 a839 5e1e 8e39
00000010: e7dc d0bc 1edf 16bd 49ea cd39 f42a a539
0.010290064 0.00021920369 0.00032055966 0.00027106976 -0.02549596 -0.036833875 0.00039275203 0.00031503255

exp_avg_sq f4 [8]
00000000: bf87 1b37 9a94 1831 9011 a636 7343 2037
00000010: 69b3 0038 45ab 8e38 6e9f 2a32 d315 cf31
9.270326e-06 2.2203381e-09 4.94923e-06 9.552447e-06 3.0684667e-05 6.802989e-05 9.9315525e-09 6.026974e-09

exp_avg f4 [4, 8]
00000000: 98aa 9db6 a573 ec38 b875 b237 c199 7f37
00000010: d0ef f1bb 28ff 3cbc 3097 2f38 a1d2 d738
00000020: 9ad4 e4b7 ef4a 323a 0936 0639 d489 bf38
00000030: 72dd 34bd b468 8ebd e459 8539 089b 223a
00000040: a029 e934 d60c 36b7 b40f 09b6 48a9 c3b5
00000050: 14bc 383a 2867 913a a921 88b6 510a 26b7
00000060: ab86 3034 aaf2 88b6 9961 4eb5 037f 13b5
00000070: 245e 8b39 f0d1 da39 494d ccb5 cad2 79b6
-4.6988243e-06 0.000112748974 2.127407e-05 1.5234983e-05 -0.007383324 -0.011535443 4.1864056e-05 0.000102912316
-2.7278718e-05 0.0006801327 0.00012799366 9.133262e-05 -0.0441565 -0.06953564 0.0002543471 0.0006202911
4.3429918e-07 -1.0851034e-05 -2.0423731e-06 -1.45779e-06 0.0007047069 0.0011093365 -4.0570344e-06 -9.896773e-06
1.6440269e-07 -4.0813657e-06 -7.6883003e-07 -5.4946594e-07 0.00026582286 0.00041736616 -1.5221677e-06 -3.7226587e-06

exp_avg_sq f4 [4, 8]
00000000: 362b 4a2d 141d a72f e041 0e30 da98 8030
00000010: 2196 a235 1b3e 5436 202f 452e 5637 8a2f
00000020: 9c1e f230 1582 b732 5a31 a733 cb0a 1434
00000030: 7f0d 8f38 174b 6639 d90b 7931 280e 9632
00000040: 44fe 1c2a 3a3b ac2c a1d5 d62c b264 432d
00000050: ef8d 8e32 a3af 5833 c02e 612b 316f 8d2c
00000060: b250 cd28 06fc 0e2b e7f8 6e2b 1796 c02b
00000070: 1728 0531 c3cb b431 32b2 ae29 c8c0 eb2a
1.1491965e-11 3.0397784e-10 5.1752913e-10 9.356669e-10 1.2113634e-06 3.1626612e-06 4.483447e-11 2.5141372e-10
1.7616517e-09 2.1363158e-08 7.7855205e-08 1.37875e-07 6.821285e-05 0.00021962482 3.6241004e-09 1.7468736e-08
1.39438e-13 4.8951095e-12 6.1059634e-12 1.11068255e-11 1.659552e-08 5.045116e-08 8.0000936e-13 4.0198058e-12
2.2794568e-14 5.0798287e-13 8.4900007e-13 1.3684079e-12 1.9376836e-09 5.2618545e-09 7.758064e-14 4.1878155e-13

exp_avg f4 [4]
00000000: 4283 7ebc b06f c3bd f560 c73a 330f 153a
-0.015534224 -0.09542787 0.001521139 0.0005686164

exp_avg_sq f4 [4]
00000000: 144c f636 617f 4c3a 8b27 2934 8b44 5c32
7.340228e-06 0.00078009634 1.5753737e-07 1.282127e-08

exp_avg f4 [4, 4]
00000000: 2568 a5b9 57c0 19ba ff20 9736 6e83 b236
00000010: bb18 21bd 1dfb 94bd 5118 133a 47f7 2c3a
00000020: defd 99bd d3c0 0ebe 08ad 8c3a b2c1 a53a
00000030: 42e1 a739 e00c 1b3a 5b45 99b6 de05 b4b6
-0.00031548846 -0.00058651477 4.503992e-06 5.320114e-06 -0.039330225 -0.072744586 0.00056112284 0.00065981265
-0.075191244 -0.13940744 0.001073272 0.0012646227 0.00032020552 0.0005914699 -4.5678294e-06 -5.365101e-06

exp_avg_sq f4 [4, 4]
00000000: f419 4732 782b 1933 1f6e 9a2b abfb 832c
00000010: eff8 5b38 76d0 5a39 56b4 3032 0a02 9432
00000020: dd18 9939 ca15 8f3a 4f16 4433 9954 d033
00000030: 7750 5f31 9759 5c32 27eb 352b 2bb0 942b
1.1589226e-08 3.5662623e-08 1.0972923e-12 3.7511847e-12 5.2445506e-05 0.00020867758 1.0285552e-08 1.7230395e-08
0.0002920096 0.0010916528 4.5655096e-08 9.701143e-08 3.249651e-09 1.2826056e-08 6.4630457e-13 1.0564929e-12

exp_avg f4 [4]
00000000: 0049 58ba e1b8 cfbd 63e7 47be 3ccc 573a
-0.0008250624 -0.10142685 -0.19521861 0.00082320324

exp_avg_sq f4 [4]
00000000: 4d2b 5e34 7da8 1c3a a28c 8b3b 08bb 1733
2.0691114e-07 0.00059760344 0.004258708 3.532753e-08

exp_avg f4 [8, 4]
00000000: fd13 9bb8 1577 663b 11a9 663c a593 26b9
00000010: 2ab4 4039 7fd7 06bc d327 09bd 382f c439
00000020: 0d0c d139 e479 92bc b7ea 94bd b412 553a
00000030: 6897 0e3a a09e c9bc 827d ccbd 0c81 923a
00000040: f1cc 923a 4668 51bd afe7 53be db04 183b
00000050: eddd 833a d869 3cbd 0591 3ebe 16bf 083b
00000060: 831e 8e3a 70f8 4abd c055 4dbe 2351 133b
00000070: 1963 8d3a 359c 49bd b901 4cbe fe5a 123b
-7.394699e-05 0.0035166193 0.0140783945 -0.00015885996 0.00018377663 -0.008230089 -0.033485245 0.00037419214
0.00039872565 -0.017880388 -0.07271331 0.0008128092 0.00054394314 -0.024611771 -0.09984876 0.0011177375
0.0011199993 -0.051124834 -0.20693849 0.0023196253 0.0010060646 -0.045999378 -0.18610008 0.002086585
0.0010842833 -0.049553335 -0.20052242 0.0022478781 0.001078698 -0.049221236 -0.19922532 0.0022332068

exp_avg_sq f4 [8, 4]
00000000: 34b7 0331 e91e 1135 1888 b737 06ee 2631
00000010: d24d 8b32 8d3a e136 cf74 6239 201e c732
00000020: 68eb 8c33 f521 f437 4987 6b3a 2cc6 cf33
00000030: 741c b333 fc26 3238 95b8 9e3a 7564 0d34
00000040: f9da 6e34 62db 1139 33e4 683b 68bd d234
00000050: 98b4 3034 dedd e038 1bda 2f3b 85a9 9f34
00000060: b72e 5034 68a6 0339 bf89 4e3b 3f6c bb34
00000070: a812 6234 1cb1 0839 bd5e 5b3b a158 c634
1.9167148e-09 5.406169e-07 2.1878674e-05 2.429148e-09 1.6217118e-08 6.7123387e-06 0.00021596554 2.3180348e-08
6.562078e-08 2.910288e-05 0.00089846976 9.675236e-08 8.3405126e-08 4.2474814e-05 0.0012109453 1.3168194e-07
2.2245139e-07 0.00013910004 0.0035536408 3.925336e-07 1.6456977e-07 0.00010722478 0.0026832882 2.97394e-07
1.9388504e-07 0.00012555125 0.0031515209 3.4910224e-07 2.1054677e-07 0.00013035949 0.0033473216 3.694486e-07

exp_avg f4 [8]
00000000: 0419 783c 5be8 17bd efd4 a4bd 425a e1bd
00000010: 6784 68be d9f0 50be 6227 61be 8ce7 5fbe
0.015142683 -0.037086826 -0.08048426 -0.110035434 -0.22706757 -0.20404376 -0.2198768 -0.21865672

exp_avg_sq f4 [8]
00000000: c828 8c38 8b82 133a 2f7f 153b c8eb 3e3b
00000010: 1a79 003c 3382 be3b 2a58 e03b 9b0b f33b
6.683316e-05 0.00056270574 0.0022811403 0.0029132236 0.007841373 0.005813861 0.0068464475 0.007417155
