experiments/data/numenta_ae/rds_cpu_utilization_e47b3b.csv-.ckpt (torch, 40610 bytes, 48 tensors)

encoder.0.0.weight f4 [16, 32]
0	0x3b8470b4	0.0040417556
1	0x3d364751	0.044501606
2	0xbe2e465c	-0.17019027
3	0x3d9ddb93	0.07707896
4	0xbe391570	-0.18074584
5	0xbcfa9017	-0.030586286
6	0xbe09520f	-0.13410209
7	0xbd3d3a27	-0.046198037
8	0x3e11955f	0.14217137
9	0x3d8eb2ef	0.069677226
10	0x3dc3423a	0.09534116
11	0xbdead0c7	-0.11465602
12	0xbd2cb308	-0.042162925
13	0xbd477c31	-0.048702423
14	0x3dbc3abe	0.09190892
15	0xbd8b4c0c	-0.06801614
16	0x3d114508	0.035466224
17	0x3c6dff66	0.014526224
18	0x3dbf6ba8	0.09346706
19	0x3daba11d	0.08380339
20	0xbd0488b5	-0.032356936
21	0xbda23c25	-0.07921628
22	0x3ddc0ad0	0.1074425
23	0x3dfc354b	0.12314852
24	0xbdf5b00a	-0.119964674
25	0xbd8a103b	-0.06741377
26	0x3db35435	0.087562956
27	0xbe025a03	-0.12729649
28	0xbd912f9d	-0.0708916
29	0x3e04ad9e	0.12956855
30	0x3dce4c52	0.10073151
31	0xbd185f75	-0.03720041
32	0xbdfef647	-0.124493174
33	0xbe1690cc	-0.14703673
34	0xbd1b8249	-0.037966046
35	0x3dc8b7ea	0.09800704
36	0x3cc650ac	0.02420839
37	0x3d910558	0.07081097
38	0xbdd0cb03	-0.101949714
39	0xbe345bf4	-0.17613202
40	0x3e089590	0.13338304
41	0xbd46354d	-0.048390675
42	0xbdb3969a	-0.08768959
43	0xbe1900ae	-0.14941666
44	0xbe1678b0	-0.14694476
45	0xbe2402d6	-0.16016707
46	0xbd88ded4	-0.06683126
47	0xbb83fc15	-0.0040278533
48	0xbe0c9599	-0.13728942
49	0xbd43e6dd	-0.04782759
50	0xbdc8657e	-0.09784983
51	0xbc4614a3	-0.012089881
52	0xbe2f1ca3	-0.17100768
53	0x3e09bb04	0.13450247
54	0xbdf1984e	-0.11796628
55	0xbc8ccdd1	-0.017187985
56	0xbe1663a8	-0.14686453
57	0xbda10e33	-0.078640364
58	0xbcb75e4d	-0.022383833
59	0xbd78816f	-0.060670312
60	0xbcf5a492	-0.0299857
61	0xbd8f854b	-0.070078455
62	0x3d9e874a	0.07740648
63	0x3d92c10a	0.071657255
64	0xbbca3819	-0.006171238
65	0x3e0b2bb4	0.1359089
66	0xbdaa6d59	-0.08321638
67	0x3e105003	0.14093022
68	0xbd9699da	-0.073535636
69	0x3dd68a15	0.10475556
70	0xbd339b08	-0.04384902
71	0xbe2f3b8d	-0.1711256
72	0xbe361b9f	-0.17783974
73	0x3e15f853	0.1464551
74	0xbdbd2f75	-0.09237567
75	0x3cf28ce2	0.029608194
76	0x3db1ecf6	0.08687775
77	0x3de91f85	0.11382965
78	0x3dd8187d	0.10551546
79	0xbde9fa53	-0.11424699
80	0x3e12a394	0.14320213
81	0x3e0d663b	0.13808529
82	0x3d634362	0.055484183
83	0xbdb3d737	-0.08781283
84	0xbe2733fc	-0.16328424
85	0x3d8f3b5d	0.069937445
86	0xbdd79d5b	-0.1052806
87	0xbe3d4f00	-0.18487167
88	0xbc12f3a8	-0.008969225
89	0x3e0fa504	0.14027792
90	0xbd4d83dd	-0.050174583
91	0xbce25dae	-0.02763256
92	0x3d0a520d	0.033769656
93	0xbe1bff84	-0.1523419
94	0xbe2c1abb	-0.16807072
95	0x3d4a81b0	0.049440086
96	0x3e3203e0	0.1738429
97	0xbca555ff	-0.020182608
98	0x3e51ccfb	0.2048835
99	0x3e1dafa2	0.1539903
100	0x3e6eb6cc	0.23311919
101	0xbabec2b0	-0.0014553871
102	0x3d41b8f3	0.047295522
103	0x3ce89a7b	0.028393975
104	0xbd8c6bcf	-0.068565
105	0xbdde1c11	-0.10845197
106	0x3e3af39d	0.18256994
107	0x3e4f9bff	0.20274352
108	0x3e52da63	0.2059112
109	0x3da5ab9b	0.08089372
110	0xbdb1ff4d	-0.08691273
111	0xbd788c29	-0.060680542
112	0x3ca26785	0.019824753
113	0xbd076b7d	-0.033061493
114	0xbda3b662	-0.07993771
115	0x3df31332	0.118688956
116	0xbdbe23d9	-0.09284181
117	0x3e242b9b	0.16032259
118	0xbde1bfa9	-0.110228844
119	0x3d74ce16	0.05976685
120	0x3ddba2ff	0.107244484
121	0x3dab6b3f	0.08370065
122	0x3e6b02d7	0.22950302
123	0x3e3b5150	0.18292737
124	0x3d80c502	0.06287576
125	0x3d153d8a	0.03643564
126	0xbd61c6b6	-0.055121146
127	0x3de8ace1	0.11361099
128	0xbd6effca	-0.05834941
129	0xbd63bd97	-0.05560073
130	0xbd57a4b1	-0.052647296
131	0x3d10700c	0.035263106
132	0xbdbb1d29	-0.09136421
133	0x3c8cd249	0.017190116
134	0x3aa69b8e	0.0012711154
135	0xbd6d4323	-0.057925355
136	0xbdfdaef3	-0.123868845
137	0x3e07f2d3	0.13276224
138	0xbdb6f85b	-0.08934089
139	0x3c17cdea	0.009265402
140	0x3c85cd31	0.016333194
141	0x3d476211	0.048677508
142	0x3d79492f	0.06086081
143	0x3dcf7926	0.10130529
144	0xbe122f55	-0.14275868
145	0xbde88101	-0.113527305
146	0x3e421422	0.18952993
147	0xbd8997ba	-0.06718393
148	0x3e2b6094	0.1673606
149	0x3dbd78cf	0.09251558
150	0xbe0d958f	-0.13826583
151	0xbdc1f6f6	-0.09470932
152	0x3df2f9ec	0.11864075
153	0x3d0388a0	0.032112718
154	0xbdcfb1d9	-0.101413436
155	0xbe09cd8f	-0.1345732
156	0x3c669571	0.014073716
157	0xbd59043b	-0.05298255
158	0xbccb9041	-0.024849059
159	0x3e4c7490	0.1996634
160	0xbe08f28e	-0.13373777
161	0xbe16ac74	-0.14714223
162	0x3d05d3aa	0.03267256
163	0xbdc4e84b	-0.09614619
164	0x3da17a02	0.07884599
165	0xbdd09183	-0.10184004
166	0xbd8f3129	-0.069917984
167	0xbdc1f389	-0.09470279
168	0x3d09bb8b	0.03362612
169	0xbe653f59	-0.22387446
170	0xbde2cd6b	-0.110743366
171	0x3e03d1b1	0.1287296
172	0xbd60b2ce	-0.05485802
173	0xbe41fd8a	-0.18944374
174	0xbe2c2af6	-0.16813263
175	0xbd83ad3c	-0.06429526
176	0xbc7bfcbb	-0.01538008
177	0x3dcd6b8a	0.10030277
178	0xbdf00ec6	-0.11721568
179	0x3cb923dd	0.022600109
180	0xbdb509ae	-0.08839737
181	0x3da41fe4	0.08013895
182	0xbd780306	-0.06054976
183	0xbe1f375f	-0.15548466
184	0x3d30b87c	0.043144688
185	0xbbdaa49a	-0.006672454
186	0xbdda47a0	-0.10658193
187	0xbcd1805f	-0.025573907
188	0xbe52ff70	-0.20605254
189	0xbe168319	-0.14698447
190	0xbd942101	-0.072328575
191	0x3cb73e9c	0.022368722
192	0x3d36a947	0.04459503
193	0x3e2d7f06	0.16942987
194	0xbd9faee1	-0.077970274
195	0xbdc96e68	-0.098355114
196	0x3d1594ce	0.036518864
197	0x3caa9a66	0.020825576
198	0xbdc8801a	-0.097900584
199	0xbe23936e	-0.15974209
200	0xbdd55cad	-0.10418067
201	0x3d28d612	0.04121978
202	0x3d651bab	0.05593459
203	0x3e445904	0.19174582
204	0xbcf26369	-0.029588418
205	0xbe06b77b	-0.1315593
206	0xbd932484	-0.07184699
207	0xbde5b69c	-0.112164706
208	0x3dc52577	0.096262865
209	0xbe26fc20	-0.16307116
210	0xbdbd08da	-0.09230204
211	0x3bf09665	0.007342147
212	0xbe04d010	-0.12969995
213	0xbd9b4d02	-0.075830474
214	0xbcc892bc	-0.02448403
215	0x3e07f6fc	0.13277811
216	0xbda5f15f	-0.081026785
217	0x3dc8cddc	0.098048896
218	0x3e2a092c	0.16605061
219	0xbda349c7	-0.07973056
220	0xbd7e93c4	-0.06215264
221	0xbcab5b34	-0.020917512
222	0xbd107575	-0.035268266
223	0xbc962c1b	-0.018331578
224	0xbd7ada7a	-0.06124351
225	0x3e0228c4	0.12710863
226	0x3db3da25	0.08781842
227	0x3e28a8b0	0.16470599
228	0xbce69fbe	-0.028152343
229	0x3d947df2	0.07250585
230	0x3d9a1d50	0.07525122
231	0xbc9c6ab7	-0.019093854
232	0xbd0ea41d	-0.03482448
233	0x3d026459	0.03183398
234	0x3e358f0b	0.17730348
235	0x3cbd5148	0.023110047
236	0xbd73c1e7	-0.05951109
237	0xbc44d80b	-0.012014399
238	0x3d4ae27e	0.049532406
239	0x3e31b4de	0.17354152
240	0xbdb9fa8b	-0.090809904
241	0x3e6b7125	0.2299238
242	0x3e2f5e8e	0.17125914
243	0x3d367b35	0.044551093
244	0xbd6efa16	-0.05834397
245	0x3e4e4780	0.20144463
246	0xbc56b57c	-0.013104793
247	0x3d33a021	0.043853883
248	0xbd34ed3d	-0.04417156
249	0x3e5a0db3	0.21294288
250	0x3e37d704	0.17953116
251	0x3e7b2e7c	0.24529451
252	0x3e08f822	0.13375905
253	0xbdd3ea65	-0.103474416
254	0x3e105933	0.14096527
255	0x3e65b260	0.22431326

encoder.0.0.bias f4 [16]
0	0xbd979eaa	-0.0740331
1	0x3dcabb18	0.098989666
2	0xbde027fa	-0.10945125
3	0x3e3e99f6	0.18613419
4	0xbe0571e2	-0.13031724
5	0x3de6d620	0.1127131
6	0xbe0fea81	-0.140543
7	0x3db0196a	0.08598597
8	0x3de07c59	0.109612174
9	0xbe32c638	-0.17458427
10	0x3ddc2ba9	0.10750515
11	0xbc71a71a	-0.014749313
12	0x3d15ad6b	0.036542337
13	0x3e32f7aa	0.17477289
14	0x3e0b5238	0.13605583
15	0xbdc540d4	-0.096315056

encoder.1.0.weight f4 [8, 16]
0	0xbe6b4773	-0.22976474
1	0xbe663762	-0.22482064
2	0x3e5327ab	0.20620601
3	0x3d815bf0	0.06316364
4	0xbe674fb7	-0.22589003
5	0x3e56aec9	0.20965113
6	0x3db1ba80	0.0867815
7	0x3df84f83	0.12124541
8	0xbe5396af	-0.2066295
9	0xbda7d6c4	-0.0819526
10	0xbe85e731	-0.26152948
11	0xbe3db4f1	-0.18526055
12	0xbe05bf1a	-0.1306118
13	0x3dd27d48	0.10277802
14	0xbc2b5212	-0.010456579
15	0x3e4c2566	0.19936141
16	0x3e3cd736	0.18441471
17	0xbe8baaac	-0.2727865
18	0x3e0d15f3	0.13777904
19	0x3e52e704	0.20595938
20	0x3e48e878	0.1961993
21	0xbe54211b	-0.20715754
22	0x3cdbea6e	0.026845183
23	0x3d6bb70a	0.057547607
24	0x3bd06ccd	0.0063606263
25	0xbdc3e997	-0.09566038
26	0x3bb04add	0.005380018
27	0xbe262d67	-0.16228257
28	0x3e356d64	0.1771751
29	0x3e1bf687	0.15230761
30	0x3dab5ac7	0.08366924
31	0x3e0c156e	0.1368005
32	0x3e610d80	0.21977806
33	0xbe4c384a	-0.19943348
34	0xbdf44415	-0.11927048
35	0x3db14974	0.08656588
36	0xbc7a0489	-0.01525987
37	0xbc61e7c3	-0.013788166
38	0xbd419056	-0.04725679
39	0x3d4e91f3	0.050432157
40	0xbdd73342	-0.105078235
41	0xbcebac03	-0.028768545
42	0x3e65b265	0.22431333
43	0xbe25b330	-0.16181636
44	0x3d0ed71e	0.03487312
45	0xbde50429	-0.11182434
46	0xbd15a1fd	-0.036531437
47	0x3e836399	0.25661924
48	0xbc93229f	-0.017960845
49	0xbe016e29	-0.12639679
50	0xbc97575f	-0.018474279
51	0x3d25466f	0.040350374
52	0xbadb8b73	-0.0016749933
53	0x3b98f58c	0.0046679433
54	0x3d1819f9	0.037134144
55	0xbe07fbb5	-0.13279612
56	0xbe18ff5e	-0.14941165
57	0xbd15e07d	-0.03659104
58	0x3d791099	0.060806844
59	0xbbca0dbb	-0.0061661876
60	0xbe51ab5f	-0.20475529
61	0x3e274246	0.16333875
62	0xbdc86f27	-0.097868256
63	0xbd8834ba	-0.06650682
64	0xbe515734	-0.20443422
65	0x3d18f423	0.037342202
66	0x3e671633	0.22567062
67	0x3e87e012	0.2653814
68	0x3e12f84c	0.1435253
69	0xbc7c55d4	-0.015401322
70	0x3df079ef	0.11742007
71	0x3e6bda27	0.23032437
72	0x3d15fe95	0.03661974
73	0xbe50090f	-0.20315956
74	0x3d49e64a	0.049291886
75	0xbd60ca1f	-0.054880258
76	0x3e41dd9a	0.1893219
77	0x3e564d34	0.20927888
78	0x3e88a589	0.26688793
79	0x3c6b6cde	0.014369218
80	0xbdc57ca1	-0.09642912
81	0x3d4ccdbc	0.05000089
82	0x3e23299a	0.15933838
83	0xbcc1742a	-0.023614962
84	0xbde1c6d3	-0.11024251
85	0xbe75dcb7	-0.24009977
86	0xbe54bd39	-0.20775308
87	0xbe74d34b	-0.23908727
88	0xbe7f0d42	-0.24907401
89	0xbdb7c7b0	-0.08973634
90	0x3d6cac35	0.057781417
91	0x3dae6b71	0.085165866
92	0xbdb01bba	-0.085990384
93	0x3d0b3532	0.033986278
94	0x3e2d23c2	0.16908172
95	0x3cfef991	0.031124862
96	0xbe825da2	-0.2546206
97	0x3dfdc76c	0.12391552
98	0xbd1b1592	-0.037862368
99	0xbdf6fc5b	-0.12059852
100	0xbe267271	-0.16254593
101	0x3e1ec0f3	0.15503292
102	0x3e5e161a	0.21688119
103	0xbd24294c	-0.040078446
104	0xbd36cffe	-0.04463195
105	0xbdbe76b4	-0.092999846
106	0xbd7016d1	-0.05861551
107	0xbd3352d2	-0.043780155
108	0xbd9beaec	-0.07613167
109	0xb993fd73	-0.0002822686
110	0xbe631f94	-0.22180015
111	0xbe38d0d9	-0.18048419
112	0xbe1bb785	-0.15206726
113	0xbe90dd73	-0.28293952
114	0xbdee2ce2	-0.116296545
115	0x3e29738c	0.16547984
116	0x3e3cc08b	0.18432824
117	0xbda844de	-0.082162604
118	0xbd501465	-0.0508007
119	0x3e387411	0.18013026
120	0x3dc5f017	0.09664934
121	0xbe09a27c	-0.13440889
122	0x3e84f6c6	0.25969523
123	0x3dc74619	0.09730167
124	0x3e7c5f79	0.24645795
125	0x3e8684fd	0.26273337
126	0x3ddd5a2a	0.10808213
127	0xbe8d5d0d	-0.27610055

encoder.1.0.bias f4 [8]
0	0x3e0a10a5	0.13482912
1	0x3e704829	0.23465027
2	0xbc8d5b30	-0.017255396
3	0xbe249c86	-0.16075334
4	0xbd21da05	-0.03951456
5	0xbb0f72e8	-0.0021888558
6	0xbe4fd1d0	-0.20294881
7	0x3dee6f74	0.11642352

encoder.2.0.weight f4 [8, 8]
0	0xbdc6b24c	-0.09701976
1	0xbe3a50bf	-0.18194865
2	0x3d3d9454	0.046284035
3	0xbe7c7cdf	-0.2465701
4	0x3d95633c	0.07294318
5	0xbdee429c	-0.116337985
6	0x3e9396e5	0.2882606
7	0xbe10e147	-0.14148436
8	0x3e259fd7	0.16174255
9	0xbdccdcd0	-0.10003054
10	0xbc9aeb0f	-0.018910913
11	0xbea9a140	-0.33130836
12	0xbe8ba43c	-0.27273738
13	0xbea60743	-0.32427415
14	0xbe9444a8	-0.2895863
15	0x3deba279	0.115055986
16	0xbcf6306f	-0.030052392
17	0xbe492f28	-0.19646895
18	0x3e058e09	0.13042463
19	0xbe7baf8d	-0.24578686
20	0x3e8ca877	0.27472278
21	0xbe596cee	-0.2123296
22	0xbd9cc71f	-0.07655167
23	0x3e6a6420	0.22889757
24	0x3e4c0c16	0.19926485
25	0x3eaef312	0.34169823
26	0xbdafdbcb	-0.08586844
27	0x3e4e74d9	0.20161761
28	0x3e562512	0.20912579
29	0x3e8c9136	0.27454537
30	0x3d92c8ca	0.07167204
31	0x3e487070	0.19574142
32	0xbe6cf4e3	-0.23140292
33	0x3e7ed587	0.24886142
34	0xbe079833	-0.13241653
35	0x3d3395f8	0.043844193
36	0xbe882698	-0.26591945
37	0x3e932ecd	0.28746644
38	0xbc336375	-0.010949005
39	0x3ec66626	0.38749808
40	0xbe52f2d2	-0.20600441
41	0x3d952409	0.07282264
42	0xbcba3f4d	-0.022735262
43	0xbe1dab24	-0.15397316
44	0x3e14c40f	0.14527915
45	0xbe558178	-0.2085017
46	0xbeaa9384	-0.3331567
47	0x3e808602	0.2510224
48	0xbe5ed84f	-0.21762203
49	0xbe0b4e8d	-0.13604183
50	0x3e9f1cd0	0.3107667
51	0xbcd76dd7	-0.026297493
52	0xbd502cab	-0.05082385
53	0x3e3b9eae	0.1832225
54	0x3ac1f8e8	0.0014798911
55	0x3ea934e7	0.33048174
56	0x3d3a3759	0.04546294
57	0xbd1002e9	-0.035159025
58	0x3e9f8f34	0.31163943
59	0xbea450c7	-0.32092878
60	0xbea26375	-0.31716505
61	0x3e8af237	0.2713792
62	0x3ec31ead	0.3810934
63	0x3d9429a3	0.07234504

encoder.2.0.bias f4 [8]
0	0x3e55c2c4	0.20875078
1	0x3c7d2582	0.015450837
2	0xbe54631f	-0.20740937
3	0x3ebaa7d2	0.36456162
4	0x3ebc0ded	0.36729375
5	0x3e34b79f	0.17648171
6	0x3d83484d	0.06410275
7	0x3ea2a610	0.3176732

encoder.3.weight f4 [5, 8]
0	0x3ddeb7d8	0.10874909
1	0xbd850876	-0.064957544
2	0xbd4a38f1	-0.04937071
3	0xbe4a84b1	-0.1977718
4	0xbe8e7192	-0.27821022
5	0x3c2c5628	0.010518588
6	0xbe4e23a2	-0.2013078
7	0x3e72c797	0.2370895
8	0xbe510fd9	-0.20416202
9	0x3e867dd3	0.2626787
10	0x3dfaea37	0.12251704
11	0x3c2edb04	0.010672335
12	0xbe4af5d0	-0.19820333
13	0x3e4c7ac4	0.19968706
14	0xbe8c6122	-0.27417856
15	0xbe0777d8	-0.1322931
16	0xbe268c91	-0.1626456
17	0xbe3dd3da	-0.18537846
18	0x3dc523dc	0.0962598
19	0x3e99bae2	0.30025393
20	0x3e588ea4	0.21148163
21	0x3e1c2368	0.15247881
22	0x3dfb56ae	0.12272392
23	0xbe00aa02	-0.12564853
24	0xbd9a0c6b	-0.075219
25	0xbe757605	-0.23970802
26	0x3e8ea31a	0.27858812
27	0xbd46e413	-0.048557352
28	0xbe8b84a1	-0.27249625
29	0x3e84d341	0.25942424
30	0x3b232dcb	0.002489912
31	0xbe00537f	-0.12531851
32	0x3e4fa23d	0.20276733
33	0x3ead20ae	0.33813995
34	0xbe66a942	-0.22525504
35	0x3b921240	0.004457742
36	0x3e447f74	0.19189245
37	0x3e824292	0.25441414
38	0x3e8b6b34	0.27230227
39	0xbea63cb1	-0.3246818

encoder.3.bias f4 [5]
0	0xbe9e643f	-0.30935857
1	0x3ea84cc2	0.32871062
2	0xbdc85670	-0.09782112
3	0xbe4a7ddb	-0.19774573
4	0x3e68df2e	0.22741386

decoder.0.0.weight f4 [8, 5]
0	0x3d64a259	0.05581889
1	0x3e968d3f	0.29404637
2	0xbeb8203d	-0.35962096
3	0xbcdba73f	-0.026813148
4	0x3ed6535a	0.41860467
5	0xbe2692b5	-0.16266902
6	0x3eb5b30e	0.3548817
7	0xbefe4637	-0.49662945
8	0x3eb833ca	0.35977012
9	0xbe1b8b08	-0.15189755
10	0x3d721914	0.059105948
11	0xbd8dd5e1	-0.0692556
12	0xbca11961	-0.019665422
13	0x3e849ed2	0.2590242
14	0xb94aade7	-0.00019329005
15	0x3ca6de77	0.020369751
16	0xbeb0847f	-0.34476086
17	0xbe7cff76	-0.24706826
18	0xbcdd92fc	-0.027047627
19	0x3e3a15b3	0.1817234
20	0x3d58f483	0.05296756
21	0xbea1f978	-0.31635642
22	0x3d9b32f7	0.0757808
23	0xbec18d68	-0.37803197
24	0x3da8e9a3	0.08247688
25	0xbe748de3	-0.2388225
26	0x3d67dedd	0.056609023
27	0x3e38263e	0.17983338
28	0x3ddc9b67	0.10771828
29	0x3ebd2ff0	0.36950636
30	0xbe045287	-0.12922107
31	0x3e1fa219	0.15589179
32	0x3e99cf9e	0.30041212
33	0xbe2d8ab3	-0.16947441
34	0xbccbdbae	-0.024885025
35	0x3e63c1d2	0.22241905
36	0x3eb957a5	0.3619968
37	0xbe713921	-0.23556949
38	0x3eee91e0	0.4659567
39	0x3eb62063	0.35571584

decoder.0.0.bias f4 [8]
0	0xbdfef256	-0.12448566
1	0xbe35bfb3	-0.17748909
2	0x3c3208c7	0.0108663505
3	0xbe8a7e9f	-0.2704973
4	0xbe6058bf	-0.21908854
5	0x3ee12496	0.43973225
6	0xbe8d997c	-0.27656162
7	0xbe714956	-0.23563132

decoder.1.0.weight f4 [8, 8]
0	0xbdd25bf0	-0.10271442
1	0xbe4a36a0	-0.197474
2	0x3e8f5a31	0.27998498
3	0x3da717ad	0.08158813
4	0x3d0e4205	0.03473093
5	0x3ca5503d	0.020179862
6	0xbca42efe	-0.020041939
7	0x3e62b2c6	0.22138509
8	0xbea680c2	-0.3252011
9	0x3e5af292	0.21381596
10	0xbe104355	-0.14088185
11	0xbe062af3	-0.13102321
12	0xbdf95dab	-0.12176069
13	0xbd880796	-0.06642072
14	0x3e792963	0.24332194
15	0x3e741cab	0.23839061
16	0x3e291c51	0.16514708
17	0x3e89f89f	0.26947495
18	0xbd8b8483	-0.06812384
19	0xbe2acffe	-0.16680905
20	0x3e165d3b	0.14684002
21	0xbe8eb99c	-0.27875984
22	0x3d143d29	0.03619114
23	0xbe1fc856	-0.15603766
24	0x3df89283	0.1213732
25	0x3e346a2b	0.17618625
26	0x3df8ea64	0.121540815
27	0xbd6ac2da	-0.05731473
28	0xbe89516b	-0.2681993
29	0xbc9f7987	-0.019467128
30	0x3d96038b	0.073248945
31	0x3e9e7fb8	0.30956817
32	0x3d58c7fa	0.052925088
33	0x3db6ea34	0.089313895
34	0x3eb90c33	0.3614212
35	0x3d9276c3	0.07151558
36	0xbcfea5d0	-0.031084925
37	0xbe4e078a	-0.20120063
38	0x3eb834ad	0.35977688
39	0x3e5495d8	0.20760286
40	0xbe81185a	-0.2521389
41	0xbe0a8110	-0.13525796
42	0xbdbb51fd	-0.091464974
43	0x3e9ff4c4	0.3124143
44	0x3e71681b	0.2357487
45	0xbc50b4c5	-0.012738411
46	0xbe68d862	-0.22738793
47	0xbdb306b8	-0.08741516
48	0x3e148851	0.14505126
49	0xbe66efeb	-0.22552459
50	0xbe40541d	-0.18782087
51	0x3e260eab	0.16216533
52	0x3e9ee354	0.31032813
53	0x3c5354a7	0.012898601
54	0x3d92c56b	0.07166561
55	0xbe41f678	-0.18941677
56	0x3e29ebdb	0.16593878
57	0xbe9a4f47	-0.3013861
58	0xbd721dbe	-0.059110396
59	0x38b56066	8.648708e-05
60	0xbca0375b	-0.019557646
61	0x3e82c84e	0.25543445
62	0xbe849a6b	-0.25899062
63	0xbd878af8	-0.06618303

decoder.1.0.bias f4 [8]
0	0xbc745fc8	-0.014915414
1	0x3e5be4fa	0.21474066
2	0xbbdacb15	-0.0066770413
3	0xbde4a98e	-0.111651525
4	0x3e73113f	0.23737048
5	0xbdea09f0	-0.11427677
6	0xbebc0995	-0.3672606
7	0xbe69d088	-0.22833455

decoder.2.0.weight f4 [16, 8]
0	0xbe1d3fa2	-0.15356305
1	0xbe1f9e8c	-0.15587825
2	0xbe8b316d	-0.27186146
3	0xbd397e5a	-0.045286514
4	0xbe2e4bf1	-0.17021157
5	0x3e33b79f	0.17550515
6	0xbed123a3	-0.408475
7	0xbd3785ec	-0.044805452
8	0xbd4bf3c1	-0.04979301
9	0xbde98aa9	-0.114034005
10	0x3ec5ecae	0.38657135
11	0xbe078a0d	-0.13236256
12	0xbdfc44f0	-0.12317836
13	0x3e919fcf	0.28442237
14	0x3d47a0c1	0.04873729
15	0xbe01d880	-0.12680244
16	0xbd5a98bc	-0.053368315
17	0xbe532b0b	-0.20621888
18	0x3de1dff9	0.110290475
19	0x3e9da157	0.30787155
20	0xbea6c967	-0.32575533
21	0x3e9ab6d4	0.30217612
22	0x3e37b273	0.17939167
23	0x3c055f07	0.008140332
24	0x3c872e1a	0.016501475
25	0x3d46c5df	0.04852855
26	0x3e52d4bf	0.20588969
27	0xbc4c22c9	-0.012459465
28	0x3ded11ff	0.11575698
29	0x3e4a1f37	0.1973847
30	0x3e85b5ff	0.26115415
31	0xbcce58df	-0.025188861
32	0xbead2e06	-0.33824176
33	0x3e848a82	0.25886923
34	0x3e94213b	0.28931603
35	0x3e2c671f	0.16836213
36	0x3e719ff4	0.23596174
37	0xbe62279f	-0.22085427
38	0x3c75ebc6	0.015009826
39	0x3e9b59f4	0.30342066
40	0xbe868286	-0.26271456
41	0xbe0aa37c	-0.13538927
42	0x3ec29763	0.38006124
43	0xbe1d5dbd	-0.1536779
44	0xbd97fe02	-0.07421495
45	0xbdadc72c	-0.08485255
46	0xbe1a4572	-0.15065554
47	0x3e7dbdc7	0.24779426
48	0xbe9f5dde	-0.31126302
49	0xbe330c3c	-0.17485136
50	0x3e2d8858	0.16946542
51	0x3d8b34b8	0.06797165
52	0x3e5cb619	0.2155384
53	0xbe5d8eb3	-0.21636467
54	0x3e8253cc	0.25454557
55	0x3eb1d575	0.34733167
56	0xbe0a53e0	-0.13508558
57	0x3dacacdf	0.0843141
58	0x3c6a9125	0.014316832
59	0xbe805379	-0.25063685
60	0xbe820144	-0.2539159
61	0xbe76a70b	-0.2408716
62	0x3e3fa708	0.18716061
63	0xbe2fbc75	-0.17161734
64	0x3d8456db	0.06461879
65	0xbe8ed0a8	-0.27893567
66	0xbe4238b5	-0.18966945
67	0xbe7a58b2	-0.24447897
68	0xbe96f22a	-0.29481632
69	0xbe20973c	-0.15682691
70	0x3b83f883	0.0040274276
71	0xbdc66fd7	-0.096893005
72	0xbe1ad878	-0.15121639
73	0xbdbdeea3	-0.09274032
74	0x3ed8e8df	0.42365167
75	0xbdef5c8f	-0.11687576
76	0x3ddafd20	0.10692811
77	0x3eba59ee	0.36396736
78	0x3e61e243	0.22058968
79	0xbb8e51a6	-0.0043432293
80	0x3dc376d9	0.09544153
81	0x3e4f5e6d	0.20250864
82	0xbe549fc6	-0.20764074
83	0xbe3c24fc	-0.18373483
84	0xbb2d0f3f	-0.0026406792
85	0xbe5b0894	-0.21389991
86	0xbe26aa77	-0.16275965
87	0xbdeca0ea	-0.115541294
88	0xbe475468	-0.19465792
89	0xbeb77c0d	-0.3583683
90	0x3e87bd96	0.2651183
91	0xbd537c64	-0.0516323
92	0xbd53cbd2	-0.05170805
93	0xbb90028e	-0.004394836
94	0xbe3e791f	-0.18600892
95	0xbe102545	-0.14076717
96	0x3e9a9b1e	0.3019647
97	0x3c9d9eef	0.019240825
98	0x3e847103	0.2586747
99	0xbc9b5923	-0.018963402
100	0xbda0f11e	-0.078584895
101	0x3d3f6d66	0.04673519
102	0xbe08b925	-0.13351877
103	0x3e04734a	0.12934604
104	0xbe2592f1	-0.16169335
105	0x3e821e39	0.25413683
106	0xbdb1062b	-0.086437546
107	0x3e52304d	0.20526238
108	0xbe05f423	-0.13081412
109	0xbe6533ee	-0.22383091
110	0xbe0a68ff	-0.13516615
111	0x3b46fb36	0.0030362136
112	0xbe36827a	-0.1782321
113	0xbed169dc	-0.40901077
114	0x3edc33e8	0.4300835
115	0x3e9c7d63	0.30564412
116	0xbe9e0265	-0.30861202
117	0x3cc7d4fc	0.024393551
118	0x3ed9846c	0.42483842
119	0xbe738634	-0.23781663
120	0x3d421c8f	0.047390517
121	0xbe991369	-0.2989762
122	0x3e2510df	0.16119717
123	0xbd810752	-0.06300224
124	0x3e8785cf	0.26469275
125	0x3e091f33	0.13390808
126	0x3e3bdb45	0.18345363
127	0x3ebd5ad5	0.36983362

decoder.2.0.bias f4 [16]
0	0x3dbef883	0.093247436
1	0x3e73d417	0.23811375
2	0xbea4bce9	-0.32175377
3	0xbe9c7c3f	-0.30563542
4	0x3e63a1b8	0.2222966
5	0xbe220de7	-0.15825616
6	0x3d68053a	0.05664561
7	0x3e050c6f	0.12993024
8	0x3e422dcc	0.18962783
9	0xbe87bf48	-0.26513124
10	0x3e8fb8aa	0.28070575
11	0xbe74aca5	-0.23893984
12	0x3dcd3890	0.10020554
13	0x3cbffb2f	0.023435203
14	0xbec397cb	-0.38201746
15	0x3dfc6b72	0.12325181

decoder.3.weight f4 [32, 16]
0	0x3e2a6f6e	0.1664407
1	0x3c44ac3b	0.012003954
2	0xbdcdfef0	-0.10058391
3	0x3d8b70ca	0.06808622
4	0xbd29c21f	-0.041444894
5	0x3e431068	0.19049227
6	0xbd900c23	-0.07033565
7	0x3e806fcf	0.25085303
8	0x3e7eeb22	0.24894384
9	0xbc99b05c	-0.018760853
10	0x3dad5db1	0.08465136
11	0x3e5c6a89	0.21525015
12	0x3d7d4ae4	0.061839
13	0x3da6e7fe	0.08149718
14	0xbd4d178d	-0.050071288
15	0x3dd49780	0.10380459
16	0x3d8d8539	0.06910176
17	0x3e6bdfd6	0.23034605
18	0x3e1de118	0.15417898
19	0xbe028bb2	-0.12748602
20	0xbd274591	-0.040837828
21	0xbd9fe733	-0.078077696
22	0x3d230643	0.039800894
23	0x3e318594	0.17336112
24	0xbd363f7c	-0.044494137
25	0x3db33c1f	0.087517016
26	0x3ce51adf	0.027966915
27	0x3cd24a96	0.025670331
28	0x3d52eea1	0.051497106
29	0x3d1419de	0.03615748
30	0xbd83863a	-0.06422086
31	0x3d84e728	0.06489402
32	0x3d88b484	0.066750556
33	0x3e0e6631	0.1390617
34	0x3d9771c4	0.07394746
35	0x3e3de3e6	0.18543968
36	0x3e4a5f55	0.19762929
37	0xbe901044	-0.2813741
38	0xbaee512f	-0.0018182154
39	0xbe49e3f1	-0.19715859
40	0x3df33754	0.118757874
41	0xbe5e31f2	-0.2169874
42	0xbd8d07dd	-0.068862654
43	0xbd3917b6	-0.045188628
44	0xbe103c2e	-0.14085457
45	0x3e7c6e68	0.24651492
46	0xbddba2cf	-0.10724413
47	0xbdde5e4b	-0.10857829
48	0x3e52c807	0.20584117
49	0x3d94439f	0.0723946
50	0x3d7798c3	0.06044842
51	0x3e1cc84f	0.15310787
52	0xbdf089ba	-0.11745019
53	0x3e0c0e36	0.13677296
54	0xbd8b5745	-0.06803755
55	0xbd20057e	-0.039067738
56	0x3d4d4fb6	0.050124846
57	0x3e44e3cb	0.19227521
58	0xbd721979	-0.059106324
59	0x3bac5d1f	0.0052601243
60	0x3db5ddcf	0.08880197
61	0x3e57d6bb	0.21078007
62	0x3e1efac9	0.15525354
63	0x3e00e243	0.12586312
64	0x3ca354dc	0.019937925
65	0x3e4877ea	0.19576994
66	0xbdb9e3f1	-0.090766795
67	0xbe0ee3f0	-0.13954139
68	0xbe4c5927	-0.19955884
69	0xbdca240c	-0.09870157
70	0xbe18d8c4	-0.1492644
71	0xbca7a00e	-0.020462062
72	0x3d75a848	0.05997494
73	0x3dfe8400	0.12427521
74	0xbdcc3a2e	-0.099720344
75	0xbe8f68d1	-0.28009656
76	0x3e536eec	0.20647782
77	0xbd843fd8	-0.0645749
78	0x3e26f5ea	0.16304746
79	0x3d350406	0.04419329
80	0x3e40075c	0.18752807
81	0x3e639a1a	0.22226754
82	0xbd4a2d22	-0.04935945
83	0xbe1189ea	-0.14212766
84	0x3e1980a6	0.14990482
85	0xbe5d6560	-0.21620703
86	0xbe14e63d	-0.14540954
87	0x3e46f5f4	0.19429761
88	0x3e90356c	0.28165758
89	0x3b850b5a	0.004060191
90	0x3e14232e	0.14466545
91	0x3d40654f	0.046971615
92	0xbd5ec783	-0.054389488
93	0xba876837	-0.0010330741
94	0xbe4b85c8	-0.19875252
95	0x3d39959f	0.045308705
96	0x3d8b0b99	0.067893215
97	0x3e43b96e	0.19113705
98	0xbe53f904	-0.2070046
99	0xbe1a059f	-0.15041207
100	0x3e1055e4	0.14095265
101	0xbea88c1d	-0.32919398
102	0x3a9992d9	0.0011716738
103	0xbe103d46	-0.14085874
104	0x3e5793e3	0.21052508
105	0x3e02ad24	0.1276136
106	0x3c668ab5	0.014071156
107	0xbe1ec84e	-0.15506098
108	0x3d38c4d3	0.04510958
109	0xbda3f50d	-0.08005724
110	0x3cc32743	0.023822432
111	0xbdb604a9	-0.088876076
112	0xbbcd7157	-0.0062696147
113	0xbe0140b1	-0.12622334
114	0xbd965f05	-0.07342342
115	0xbde43fd0	-0.11144984
116	0xbd31e54a	-0.043431558
117	0xbe1c082b	-0.15237491
118	0xbe2207e2	-0.1582332
119	0xbe35f1da	-0.1776804
120	0xbc45ded2	-0.01207705
121	0x3df42e35	0.11922876
122	0xbe451416	-0.19245943
123	0x3e915b12	0.28389794
124	0x3c8078b6	0.01568256
125	0xbda14b06	-0.07875638
126	0x3e103195	0.14081414
127	0x3d06a691	0.032873694
128	0x3d9ee124	0.07757786
129	0xbbc0fdec	-0.005889645
130	0x3e2204f9	0.1582221
131	0x3e68eaab	0.22745769
132	0xbe97af7e	-0.29626077
133	0x3e914ea7	0.2838032
134	0x3ddd575e	0.108076796
135	0x3df0cbfa	0.117576554
136	0xbd85cdec	-0.06533417
137	0x3de222a1	0.11041761
138	0xbe77887d	-0.2417316
139	0x3e3dc09f	0.1853051
140	0xbd92ec8f	-0.07174026
141	0xbd4a4242	-0.049379595
142	0x3e500c12	0.20317104
143	0x3e22d61d	0.1590199
144	0xbd9de5dc	-0.07709858
145	0x3df50a7f	0.119648926
146	0x3e2b9938	0.16757667
147	0xbe2a903f	-0.16656588
148	0xbe4cc7df	-0.1999812
149	0xbded5a1a	-0.11589451
150	0x3e11c566	0.14235458
151	0xbdb1e8e0	-0.086869955
152	0x3da8debb	0.082456075
153	0x3e236b25	0.15958841
154	0x3db564e9	0.08857138
155	0xbe63cd1a	-0.22246209
156	0xbdeecf8e	-0.11660682
157	0x3dd8652e	0.105661735
158	0x3e5bebdb	0.2147669
159	0x3d8e5574	0.06949893
160	0x3ddc8d10	0.10769093
161	0x3d909bbf	0.07060956
162	0x3d0799e9	0.033105765
163	0x3e0927c7	0.1339408
164	0x3c23af1f	0.009990483
165	0xbbb833ae	-0.005621395
166	0x3e89f4b0	0.26944494
167	0xbc4da4ba	-0.012551481
168	0xbccc8424	-0.024965353
169	0xbe8f488f	-0.27985045
170	0xbe09016a	-0.13379446
171	0xbe26b15a	-0.16278592
172	0xbd0c7b3f	-0.034297224
173	0x3dde0cd1	0.10842288
174	0x3da96a6a	0.0827225
175	0x3e8d379b	0.27581486
176	0x3e45a2ea	0.19300428
177	0xbe0c2fa5	-0.1369005
178	0x3e53dd96	0.20689997
179	0x3be806ef	0.0070809047
180	0x3e33ec69	0.17570652
181	0x3d7ef237	0.062242713
182	0x3e557b65	0.20847853
183	0x3e31709c	0.17328113
184	0xbdec73bc	-0.11545512
185	0xbe55d5bc	-0.20882314
186	0x3d0e7137	0.03477594
187	0x3d866a8b	0.0656329
188	0xbe6af186	-0.22943696
189	0x3df2da02	0.11857988
190	0x3e6028a7	0.21890508
191	0x3c66e51f	0.014092713
192	0xbe6b849c	-0.22999805
193	0xbdc668f4	-0.09687987
194	0x3d018e9c	0.031630144
195	0xbe521a10	-0.20517755
196	0x3d0017cb	0.03127269
197	0x3d93fe89	0.07226283
198	0x3d506b52	0.0508836
199	0xbd30e2a6	-0.0431849
200	0xbd9eae57	-0.077480964
201	0xbe81c3f5	-0.25344816
202	0xbe3dd06b	-0.18536536
203	0x3e324f43	0.17413048
204	0x3dd811af	0.10550248
205	0x3e01bf05	0.12670524
206	0xbe954cc5	-0.29160133
207	0x3e3fa2d9	0.18714465
208	0xba6eab77	-0.000910453
209	0x3e82cc52	0.2554651
210	0xbe8a1902	-0.26972204
211	0x3e092e6f	0.1339662
212	0xbe069275	-0.13141806
213	0x3de7114e	0.112825975
214	0xbd4c77e6	-0.04991903
215	0xbdec9dd1	-0.115535386
216	0x3e98ee1d	0.29869166
217	0xbe8b3e91	-0.27196172
218	0xbda82030	-0.08209264
219	0x3d965d19	0.07341976
220	0xbe061d83	-0.13097195
221	0xbe3e6318	-0.18592489
222	0xbd443c07	-0.04790881
223	0xbe3e4f52	-0.18584946
224	0xbdd7fad6	-0.1054589
225	0x3e16dc4a	0.14732471
226	0x3e408c83	0.18803601
227	0xbdff00a8	-0.12451297
228	0xbe2e3fdf	-0.17016552
229	0x3e9b4285	0.30324188
230	0xbaaf3748	-0.0013367916
231	0xbe06951f	-0.13142823
232	0x3e076dfa	0.13225546
233	0x3de87fcb	0.113524996
234	0xba8be85f	-0.001067411
235	0xbd6ca1fb	-0.057771664
236	0xbe57b717	-0.21065937
237	0xbe239385	-0.15974243
238	0x3e84de0c	0.25950658
239	0xbe40179f	-0.1875901
240	0xbdbcbfba	-0.092162564
241	0xbdfc24ce	-0.123117074
242	0x3df22b72	0.11824693
243	0xbe179bf4	-0.14805585
244	0x3e4fdd05	0.20299156
245	0xbe2cd8e8	-0.16879618
246	0xbe15d123	-0.1463056
247	0xbe4f13e5	-0.20222433
248	0x3ca147d4	0.01968757
249	0xbd5b1d0f	-0.05349451
250	0x3d686289	0.056734595
251	0xbe298ffe	-0.16558835
252	0x3de2b23e	0.11069153
253	0xbcb330de	-0.021873888
254	0xbe38bef7	-0.18041597
255	0xbdd01f42	-0.10162212

decoder.3.bias f4 [32]
0	0xbd8cacc5	-0.06868891
1	0xbd445bf5	-0.04793926
2	0xbc8877c7	-0.016658677
3	0x3d0a69d2	0.033792324
4	0x3d749df1	0.059720937
5	0xbe1a0d70	-0.15044188
6	0xbdd8cb13	-0.10585608
7	0x3e2b1a80	0.16709328
8	0x3e398b77	0.18119608
9	0x3d0163f8	0.03158948
10	0x3c5f0e8e	0.01361431
11	0xbc5b1a02	-0.0133729
12	0x3da43430	0.080177665
13	0x3d2289b8	0.03968212
14	0x3e0008e3	0.1250339
15	0x3c260a26	0.0101342555
16	0xbe03d5c1	-0.1287451
17	0x3d8379f9	0.06419749
18	0x3d97c04c	0.074097246
19	0xbc7df6af	-0.0155007085
20	0x3e290714	0.16506606
21	0xbda7d1e2	-0.08194329
22	0x3d46f9e0	0.048578143
23	0x3dd48d07	0.10378461
24	0xbde48f27	-0.11160117
25	0xbd8b0d80	-0.06789684
26	0xbdc123b1	-0.09430636
27	0x3d55b311	0.052172724
28	0xbde776b7	-0.1130194
29	0xbe03a3a1	-0.12855388
30	0x3c5e5cef	0.013571962
31	0xbc0db32d	-0.008648676

exp_avg f4 [16, 32]
0	0x30863f9e	9.767864e-10
1	0x30133e84	5.356713e-10
2	0x30855258	9.700427e-10
3	0x30cf0b87	1.5064509e-09
4	0x310bc541	2.0339288e-09
5	0x311dca7e	2.296161e-09
6	0x30cc0f16	1.4847241e-09
7	0x312651c7	2.4202664e-09
8	0x32e1c976	2.6285061e-08
9	0x326d8a00	1.3826593e-08
10	0xb0fcf0fe	-1.8403907e-09
11	0x2fe9cb99	4.2527118e-10
12	0x309d3827	1.1439213e-09
13	0x30dc4a44	1.6028214e-09
14	0x30c6ab76	1.4455128e-09
15	0x311776ae	2.2040854e-09
16	0xb0085dc4	-4.960976e-10
17	0x30db3a4e	1.5950918e-09
18	0x321c38e7	9.093333e-09
19	0x32071446	7.862644e-09
20	0x317b6c74	3.6586956e-09
21	0x313cded2	2.748426e-09
22	0xb26a38e1	-1.3633525e-08
23	0xb23c09e9	-1.0945294e-08
24	0x2f6c7d73	2.1508643e-10
25	0x30826165	9.486426e-10
26	0x30c79bd3	1.4523444e-09
27	0x30f66d4a	1.7929918e-09
28	0x310fb211	2.0910458e-09
29	0x32b77b18	2.135998e-08
30	0x32b3b46e	2.0920393e-08
31	0x31d2134b	6.1139978e-09
32	0x339ee16a	7.398451e-08
33	0x33a40fac	7.639696e-08
34	0x33fddda9	1.182155e-07
35	0x346b5cad	2.1919796e-07
36	0x34b3b315	3.3471647e-07
37	0x34837e8f	2.4492735e-07
38	0x33e70b43	1.0758824e-07
39	0x33c63361	9.229439e-08
40	0x341f9b1b	1.4864456e-07
41	0x34135b80	1.372373e-07
42	0x33bd6a96	8.820386e-08
43	0x33c50c11	9.175722e-08
44	0x33af96b3	8.1764846e-08
45	0x33cb3e1c	9.464222e-08
46	0x33c2da2c	9.073514e-08
47	0x33d473d6	9.89309e-08
48	0x33c167a2	9.0061135e-08
49	0x33d661d8	9.982949e-08
50	0x33c0ed7e	8.983896e-08
51	0x33d349ff	9.838913e-08
52	0x33c3db01	9.120232e-08
53	0x33b11bff	8.247297e-08
54	0x3393ba84	6.879148e-08
55	0x33c5278d	9.1807216e-08
56	0x33b7c9d5	8.5583146e-08
57	0x33cee0a8	9.633487e-08
58	0x33e4c587	1.06530074e-07
59	0x33fc988c	1.17624126e-07
60	0x3439f05c	1.731691e-07
61	0x3459a4a9	2.0269603e-07
62	0x345cc25b	2.0559803e-07
63	0x3450a62e	1.9431965e-07
64	0x3168391f	3.3792913e-09
65	0x31252c32	2.4035782e-09
66	0x3109c693	2.0049e-09
67	0x30d5241b	1.5508052e-09
68	0x30a1a64e	1.1761558e-09
69	0x309504db	1.0842557e-09
70	0x3096d35c	1.0974008e-09
71	0x30e1d208	1.6430599e-09
72	0x30c54331	1.4352733e-09
73	0x30a3511b	1.1882862e-09
74	0x30e11241	1.6376093e-09
75	0x3106158f	1.951182e-09
76	0xafa12a6b	-2.931587e-10
77	0x3301f25c	3.0255578e-08
78	0x32e76a5b	2.6940304e-08
79	0x31a9fc79	4.94725e-09
80	0xb238426a	-1.072531e-08
81	0xb19750e7	-4.403876e-09
82	0x31a6afd1	4.851224e-09
83	0x311fa536	2.3231457e-09
84	0x313e5956	2.769942e-09
85	0x30fc56a2	1.8360036e-09
86	0x311d7196	2.2911073e-09
87	0x3107f022	1.9781585e-09
88	0x31493f5d	2.9285367e-09
89	0x314f2ae6	3.014685e-09
90	0x31670bb9	3.3621588e-09
91	0x312f4c79	2.5509321e-09
92	0x311d6e30	2.2909141e-09
93	0x311e5ca8	2.3044695e-09
94	0x3139b58a	2.7024236e-09
95	0x3138e8d4	2.6907871e-09
96	0xb523d2e7	-6.1029135e-07
97	0xb5194a6c	-5.710524e-07
98	0xb50b73ea	-5.195021e-07
99	0xb51dd7e6	-5.880123e-07
100	0xb5376559	-6.832029e-07
101	0xb538181a	-6.8580414e-07
102	0xb515e4e2	-5.5839894e-07
103	0xb4ff6502	-4.7570944e-07
104	0xb50428f5	-4.923343e-07
105	0xb4f30439	-4.526535e-07
106	0xb4bdf6ff	-3.5383707e-07
107	0xb49a3c73	-2.8728718e-07
108	0xb4bdd72f	-3.536056e-07
109	0xb5120456	-5.439555e-07
110	0xb50ad155	-5.1713624e-07
111	0xb4bfa4c2	-3.56964e-07
112	0xb4ad03c1	-3.2226492e-07
113	0xb4d971a7	-4.0502093e-07
114	0xb506547e	-5.004184e-07
115	0xb51811a0	-5.665006e-07
116	0xb506c921	-5.021157e-07
117	0xb4d91310	-4.043327e-07
118	0xb4b95d37	-3.4526758e-07
119	0xb4cbb224	-3.794131e-07
120	0xb4f1e2e3	-4.505483e-07
121	0xb5000623	-4.7692646e-07
122	0xb4fb656b	-4.6826185e-07
123	0xb515f259	-5.585949e-07
124	0xb526a120	-6.2074287e-07
125	0xb51afa3d	-5.7733615e-07
126	0xb51acb77	-5.766555e-07
127	0xb51a50a9	-5.7486847e-07
128	0xb22005a4	-9.314508e-09
129	0xb23947c0	-1.0784731e-08
130	0xb21018b7	-8.387523e-09
131	0xb22f4543	-1.0202089e-08
132	0xb237e2c6	-1.0703564e-08
133	0xb23868f0	-1.073407e-08
134	0xb20b171d	-8.09612e-09
135	0xb21d9e6f	-9.174626e-09
136	0xb21d87fb	-9.169521e-09
137	0xb20923d5	-7.982597e-09
138	0xb1feb841	-7.41332e-09
139	0xb1b4e777	-5.265004e-09
140	0xb20b40b4	-8.105577e-09
141	0xb21b01d0	-9.0226e-09
142	0xb2168179	-8.760588e-09
143	0xb1f4f012	-7.1286275e-09
144	0xb1edb2cc	-6.9179347e-09
145	0xb20edeef	-8.316177e-09
146	0xb3a784fb	-7.8007325e-08
147	0xb38f580b	-6.674971e-08
148	0xb2e2e514	-2.6414035e-08
149	0xb2a24d58	-1.8894454e-08
150	0xb23f6722	-1.1141113e-08
151	0xb246e627	-1.15774474e-08
152	0xb237e6ae	-1.0704452e-08
153	0xb264c410	-1.3315926e-08
154	0xb2471fc0	-1.1590544e-08
155	0xb261d597	-1.3145288e-08
156	0xb2851386	-1.5492116e-08
157	0xb272fe70	-1.4144106e-08
158	0xb2805489	-1.4939603e-08
159	0xb3be10ba	-8.850607e-08
160	0x3405c8d6	1.2459654e-07
161	0x34037a20	1.2244755e-07
162	0x340b5d81	1.29794e-07
163	0x3414f59c	1.3872926e-07
164	0x346860c2	2.1641884e-07
165	0x344d0735	1.9094735e-07
166	0x340e6d73	1.3264598e-07
167	0x3408bb39	1.2734098e-07
168	0x340b8e8d	1.2997243e-07
169	0x3406331d	1.2498317e-07
170	0x338b407a	6.48442e-08
171	0x33353c4e	4.2197193e-08
172	0x33a9e9cd	7.912204e-08
173	0x33ffb3c3	1.1907061e-07
174	0x3400f759	1.2010914e-07
175	0x33f455ad	1.137772e-07
176	0x33ab32b8	7.972034e-08
177	0x33f0d0ef	1.1213876e-07
178	0x3408cd92	1.2740773e-07
179	0x345a8d09	2.035414e-07
180	0x34471517	1.8540992e-07
181	0x33e04c01	1.0444638e-07
182	0x33c764da	9.2850044e-08
183	0x33fbe052	1.1728902e-07
184	0x3426c358	1.553102e-07
185	0x342991a5	1.5792337e-07
186	0x3407fdaa	1.2665137e-07
187	0x340cfcb5	1.313045e-07
188	0x34062e1e	1.24965e-07
189	0x34089675	1.2720723e-07
190	0x345669fb	1.9968859e-07
191	0x3481fde3	2.421285e-07
192	0x305bbc93	7.9939716e-10
193	0x30501672	7.5701856e-10
194	0x3020e00c	5.852605e-10
195	0x3006461d	4.8848553e-10
196	0x2fbdb8b2	3.4510134e-10
197	0x2fbfb58d	3.4871697e-10
198	0x300a113e	5.022861e-10
199	0x2feea132	4.3406484e-10
200	0x2ff5f3b1	4.4738394e-10
201	0x2fe040d8	4.0791437e-10
202	0xb151e373	-3.0542793e-09
203	0xb12520d0	-2.4029312e-09
204	0x2e0d6ecd	3.21581e-11
205	0x2fbac5b3	3.3973677e-10
206	0x2fdf1310	4.0577008e-10
207	0x2f3e4a22	1.7306737e-10
208	0x2f340a24	1.6374507e-10
209	0x2f6da00a	2.1611882e-10
210	0x2fd91b09	3.949128e-10
211	0x2ffc3bcc	4.588102e-10
212	0x2fcd041a	3.7292197e-10
213	0x2f85a677	2.431084e-10
214	0x2f68ffd0	2.119116e-10
215	0x2f2998ec	1.5424789e-10
216	0x2fb12bd3	3.2227251e-10
217	0x312d0b01	2.5181068e-09
218	0x310ffd03	2.095306e-09
219	0x303186b0	6.458363e-10
220	0x3028f8ce	6.1471617e-10
221	0x30051e50	4.8428195e-10
222	0x3011c115	5.302508e-10
223	0x3015201c	5.4251514e-10
224	0xb4ddb885	-4.1298713e-07
225	0xb4cfa9a6	-3.868019e-07
226	0xb4bd0169	-3.520502e-07
227	0xb4dc42bd	-4.1026752e-07
228	0xb504e562	-4.950763e-07
229	0xb505bdc8	-4.982253e-07
230	0xb4d34758	-3.9353722e-07
231	0xb4afaf13	-3.2723673e-07
232	0xb4b8d060	-3.4424284e-07
233	0xb4a8c67d	-3.1436858e-07
234	0xb481f7d9	-2.4208455e-07
235	0xb446d3fa	-1.8517304e-07
236	0xb47b8b38	-2.3426844e-07
237	0xb4c7163d	-3.708282e-07
238	0xb4bd13c0	-3.5218363e-07
239	0xb482bc9d	-2.435162e-07
240	0xb46c27c5	-2.1993681e-07
241	0xb494e857	-2.7736198e-07
242	0xb4b7575d	-3.414997e-07
243	0xb4cf3418	-3.8594658e-07
244	0xb4b80a38	-3.4280106e-07
245	0xb494b023	-2.7695305e-07
246	0xb47d1903	-2.357156e-07
247	0xb48aedd7	-2.5877554e-07
248	0xb4a4c2b8	-3.0689057e-07
249	0xb4ae71b0	-3.2492744e-07
250	0xb4ab9470	-3.1959235e-07
251	0xb4cc9d87	-3.8112577e-07
252	0xb4e2e91a	-4.2265384e-07
253	0xb4d60a5a	-3.9868138e-07
254	0xb4d54d9f	-3.9730818e-07
255	0xb4d29621	-3.922478e-07

exp_avg_sq f4 [16, 32]
0	0x219679ab	1.0196601e-18
1	0x211eea3e	5.38425e-19
2	0x206db0ba	2.0133155e-19
3	0x209a56ae	2.6145975e-19
4	0x215dcf54	7.515211e-19
5	0x215567e0	7.2304685e-19
6	0x2093a5b1	2.5012414e-19
7	0x21695a71	7.906317e-19
8	0x24d7aced	9.3534335e-17
9	0x243fe9e1	4.1614626e-17
10	0x237b06cc	1.36081766e-17
11	0x20df8618	3.7866405e-19
12	0x207bf583	2.134176e-19
13	0x2301243e	7.000779e-18
14	0x22f616d8	6.670262e-18
15	0x2204a7cb	1.7978165e-18
16	0x22e99aad	6.3318546e-18
17	0x222bb3fd	2.3270106e-18
18	0x23fa128a	2.7112906e-17
19	0x24934d9b	6.3882557e-17
20	0x23b8e7b4	2.004745e-17
21	0x21dcdefd	1.4966804e-18
22	0x24365020	3.9532828e-17
23	0x23efbd53	2.5992614e-17
24	0x1fdc4c71	9.3300086e-20
25	0x208cf7de	2.3880947e-19
26	0x20ef8573	4.0576484e-19
27	0x2135c6e6	6.1588425e-19
28	0x2407d8b9	2.945703e-17
29	0x24c2609c	8.429775e-17
30	0x24c5691d	8.56132e-17
31	0x23d0e5d9	2.264875e-17
32	0x270c131b	1.943926e-15
33	0x270fe283	1.9968029e-15
34	0x273d2635	2.624973e-15
35	0x27b28075	4.95442e-15
36	0x286e6fb9	1.323588e-14
37	0x283998b0	1.0302672e-14
38	0x276b9b6c	3.2697056e-15
39	0x271fabb0	2.2158755e-15
40	0x27725c17	3.3634168e-15
41	0x275a237f	3.027282e-15
42	0x27195714	2.128022e-15
43	0x271ea8ca	2.2018405e-15
44	0x27155412	2.0723478e-15
45	0x271c6a09	2.170683e-15
46	0x271f9255	2.214501e-15
47	0x27296bc8	2.351189e-15
48	0x271b7720	2.1575149e-15
49	0x27272a30	2.3198776e-15
50	0x271f029e	2.2067101e-15
51	0x2723ffdf	2.2759502e-15
52	0x271b7be1	2.1577726e-15
53	0x271ae6b6	2.1496862e-15
54	0x270a72e9	1.921364e-15
55	0x271e6b66	2.1985126e-15
56	0x27166b2a	2.0874775e-15
57	0x27213f4e	2.2377556e-15
58	0x272db517	2.4106742e-15
59	0x275dcbff	3.0780498e-15
60	0x27b9f7ec	5.1616612e-15
61	0x27cb25b8	5.6384713e-15
62	0x27c49052	5.45574e-15
63	0x27b34ac7	4.9763554e-15
64	0x265b46f1	7.607703e-16
65	0x2654cdba	7.3831087e-16
66	0x24c7609e	8.646617e-17
67	0x253e0a52	1.648337e-16
68	0x25036220	1.1395685e-16
69	0x25096075	1.1915537e-16
70	0x24af5153	7.603192e-17
71	0x2391921e	1.5782815e-17
72	0x23249e07	8.923921e-18
73	0x2308ac05	7.409001e-18
74	0x229d2087	4.2589375e-18
75	0x24dabb3b	9.485961e-17
76	0x23c26476	2.1076069e-17
77	0x26cb607e	1.4112109e-15
78	0x268e6b31	9.882284e-16
79	0x24b96495	8.0401353e-17
80	0x248e811d	6.180141e-17
81	0x23dd4647	2.3990632e-17
82	0x240a0844	2.993098e-17
83	0x23a6f353	1.8100808e-17
84	0x239e7531	1.7180027e-17
85	0x234b83e1	1.10325785e-17
86	0x238df860	1.5392442e-17
87	0x237488a7	1.3256204e-17
88	0x24b7bc68	7.968277e-17
89	0x2532310d	1.5455658e-16
90	0x24bfa69e	8.3115306e-17
91	0x23ebb279	2.5554337e-17
92	0x23c400c2	2.1250684e-17
93	0x23ecfd23	2.5694379e-17
94	0x23cde6f0	2.232395e-17
95	0x23d0ec99	2.2651608e-17
96	0x291f1232	3.5320874e-14
97	0x290d5bd6	3.1387944e-14
98	0x28f3c1cd	2.7062467e-14
99	0x2913f443	3.285242e-14
100	0x294be8ce	4.527698e-14
101	0x2948b02a	4.456172e-14
102	0x2905621f	2.961704e-14
103	0x28d3d3f5	2.3517628e-14
104	0x28daac2b	2.4277528e-14
105	0x28c3f3d4	2.1755093e-14
106	0x28a56789	1.8363581e-14
107	0x28a168b8	1.7920005e-14
108	0x28a5bcf2	1.8400622e-14
109	0x2903b038	2.924069e-14
110	0x28f99202	2.7707874e-14
111	0x28adc68e	1.9292968e-14
112	0x28a6f79b	1.8537084e-14
113	0x28b6cfac	2.0296122e-14
114	0x28e4f4a1	2.5419176e-14
115	0x290cd92c	3.127461e-14
116	0x28e95360	2.5904355e-14
117	0x28b1a84e	1.9723938e-14
118	0x28a4d4a2	1.8299872e-14
119	0x28b141da	1.9679506e-14
120	0x28ce6a71	2.2916756e-14
121	0x28dc82e2	2.4481668e-14
122	0x28d9c990	2.4179253e-14
123	0x2907b6c0	3.0134532e-14
124	0x29253a3e	3.6687877e-14
125	0x2911ff65	3.2417987e-14
126	0x2914365c	3.290975e-14
127	0x2913c4d8	3.281129e-14
128	0x2349438e	1.0910537e-17
129	0x236b67d1	1.27613595e-17
130	0x23240163	8.8907515e-18
131	0x23566d80	1.1624151e-17
132	0x23772e1b	1.339966e-17
133	0x237ca9f2	1.3696935e-17
134	0x232093a6	8.704883e-18
135	0x231e8138	8.59256e-18
136	0x2325838e	8.972526e-18
137	0x230515f4	7.214593e-18
138	0x22ed977b	6.4399365e-18
139	0x22c5b835	5.3591994e-18
140	0x2303ea5b	7.151151e-18
141	0x232afefa	9.269712e-18
142	0x233491ba	9.788678e-18
143	0x22e4ccc6	6.2016336e-18
144	0x22e667f5	6.2451694e-18
145	0x230be6ca	7.5840766e-18
146	0x2614e33f	5.165579e-16
147	0x25d53346	3.6984354e-16
148	0x254971ee	1.7472572e-16
149	0x250713a1	1.1716034e-16
150	0x2364c64c	1.2401896e-17
151	0x234b54c7	1.1022604e-17
152	0x2335e574	9.860618e-18
153	0x23815813	1.4023509e-17
154	0x2357651f	1.16765866e-17
155	0x23834095	1.42304e-17
156	0x23c44437	2.1279253e-17
157	0x239b298d	1.6822731e-17
158	0x23a8a341	1.8283737e-17
159	0x26c924fd	1.3957202e-15
160	0x286f8895	1.3296782e-14
161	0x28707fb5	1.3350368e-14
162	0x2883a27d	1.461439e-14
163	0x28a7e5b3	1.864034e-14
164	0x28c56b6d	2.1917982e-14
165	0x289a3c19	1.7123498e-14
166	0x287a2fe8	1.3888176e-14
167	0x2875438e	1.3614881e-14
168	0x2875f449	1.3653203e-14
169	0x287223ef	1.34414905e-14
170	0x285e83a2	1.2352019e-14
171	0x2867b779	1.286286e-14
172	0x285e7562	1.2348929e-14
173	0x286cf8cc	1.3154581e-14
174	0x286ec7f3	1.3255011e-14
175	0x28654e1f	1.27289934e-14
176	0x28623b81	1.2558423e-14
177	0x286ad120	1.3034956e-14
178	0x2881ff2b	1.4432538e-14
179	0x28a2908b	1.8048299e-14
180	0x288e2aa0	1.5783653e-14
181	0x28638f7e	1.2632146e-14
182	0x28601d13	1.2440802e-14
183	0x28712f0c	1.3388389e-14
184	0x28833bc7	1.4569846e-14
185	0x28886eaf	1.5147034e-14
186	0x2881ac3e	1.4396575e-14
187	0x287e1285	1.4103848e-14
188	0x287486b1	1.35739274e-14
189	0x2874e1ac	1.3593656e-14
190	0x289a2942	1.7115327e-14
191	0x28b03b90	1.9565756e-14
192	0x245fbe52	4.8516624e-17
193	0x241c2d5c	3.386553e-17
194	0x21a18d8c	1.0947252e-18
195	0x20fa7966	4.2431982e-19
196	0x20aa2e84	2.8829902e-19
197	0x20b7d0ac	3.1139493e-19
198	0x2092903c	2.4828808e-19
199	0x20adae5c	2.9422721e-19
200	0x2067b0af	1.9624921e-19
201	0x2089d448	2.3349179e-19
202	0x23644cfb	1.2376206e-17
203	0x231c7848	8.4822475e-18
204	0x20d9c3f7	3.6890909e-19
205	0x21015300	4.381675e-19
206	0x20a4f731	2.7946258e-19
207	0x206551fe	1.9424183e-19
208	0x208b1909	2.3564083e-19
209	0x208812c8	2.3051725e-19
210	0x20840d28	2.2370376e-19
211	0x209cac4d	2.6541447e-19
212	0x2067539d	1.9594126e-19
213	0x205c5573	1.8662998e-19
214	0x209cbe0b	2.6553188e-19
215	0x2084f980	2.2526775e-19
216	0x208a3022	2.340996e-19
217	0x224500ed	2.6698969e-18
218	0x221aa50f	2.0958273e-18
219	0x20b77a2b	3.108225e-19
220	0x20ce7311	3.4973902e-19
221	0x20c78e0b	3.3805907e-19
222	0x20a16075	2.733829e-19
223	0x20953489	2.5276347e-19
224	0x28863770	1.490103e-14
225	0x286e4ae8	1.3227897e-14
226	0x284c1514	1.13288454e-14
227	0x287a5204	1.3895572e-14
228	0x28bed732	2.1187564e-14
229	0x28be987d	2.1160369e-14
230	0x286c57a1	1.3119633e-14
231	0x2836cc7b	1.0147369e-14
232	0x2841e07b	1.0762329e-14
233	0x282af664	9.490323e-15
234	0x280cdc89	7.819382e-15
235	0x28085dfa	7.5698945e-15
236	0x280afd2f	7.715439e-15
237	0x285de75f	1.2318135e-14
238	0x2859288b	1.2054711e-14
239	0x281371d5	8.184823e-15
240	0x280b5bb1	7.7359324e-15
241	0x281aeea8	8.600468e-15
242	0x28429435	1.0801301e-14
243	0x286c8d32	1.31312485e-14
244	0x2845942b	1.0967826e-14
245	0x2817cac9	8.426156e-15
246	0x280bd4d4	7.7622e-15
247	0x2814e119	8.264461e-15
248	0x282d32d0	9.614447e-15
249	0x283847be	1.02296084e-14
250	0x2835eb6e	1.0098569e-14
251	0x2862cb56	1.2589612e-14
252	0x28899f10	1.5279038e-14
253	0x2877a7da	1.3747651e-14
254	0x2878cfed	1.3811852e-14
255	0x2874d0e0	1.35900134e-14

exp_avg f4 [16]
0	0x3315c38e	3.4869622e-08
1	0xb5f8027f	-1.8478166e-06
2	0x32cb3fed	2.366138e-08
3	0xb64638de	-2.95374e-06
4	0xb44d86f3	-1.9141207e-07
5	0xb5e81c10	-1.7293514e-06
6	0xaf2d688a	-1.5771398e-10
7	0xb6037049	-1.958588e-06
8	0xb6008ecb	-1.9156603e-06
9	0x32b01b6a	2.0501563e-08
10	0xb666ebc8	-3.4409913e-06
11	0xb531e13d	-6.6265403e-07
12	0xb6848464	-3.949319e-06
13	0xb64696ae	-2.9592006e-06
14	0xb6246df6	-2.450191e-06
15	0xb3c48c55	-9.1524875e-08

exp_avg_sq f4 [16]
0	0x25b6f651	3.1738878e-16
1	0x2bde00e9	1.5774301e-12
2	0x27c07f4a	5.3428712e-15
3	0x2cee9210	6.780583e-12
4	0x27c9905d	5.5945226e-15
5	0x2ca7d0d7	4.7696114e-12
6	0x24a0a121	6.96619e-17
7	0x2c4b63b3	2.890338e-12
8	0x2c8e923c	4.052118e-12
9	0x2683c2cb	9.14275e-16
10	0x2d902348	1.6386573e-11
11	0x2b1dfae7	5.61258e-13
12	0x2d8858e0	1.5500878e-11
13	0x2d1b0438	8.811667e-12
14	0x2c8a9f2f	3.939869e-12
15	0x278c6d47	3.8976285e-15

exp_avg f4 [8, 16]
0	0x30e646cc	1.6754824e-09
1	0xb5288914	-6.278435e-07
2	0xb0c9ddfb	-1.4687765e-09
3	0x362a9204	2.5416966e-06
4	0xb11e5c0a	-2.3044344e-09
5	0xb5579308	-8.03077e-07
6	0xb26f47d0	-1.3927959e-08
7	0x361843dd	2.2689267e-06
8	0x3601d1bd	1.9344582e-06
9	0xb257300b	-1.2525571e-08
10	0x35ddcc40	1.6525228e-06
11	0x36088d02	2.0347657e-06
12	0x35d55315	1.5893917e-06
13	0x365f18eb	3.3244094e-06
14	0x36071a45	2.0131858e-06
15	0xb2ec4862	-2.7506932e-08
16	0xb2889748	-1.5901279e-08
17	0x34e13e73	4.1954954e-07
18	0x2fc4d94c	3.580659e-10
19	0xb601aef4	-1.9324334e-06
20	0x30e47ece	1.6625223e-09
21	0x35212395	6.002895e-07
22	0x323acf97	1.0873825e-08
23	0xb5e8142c	-1.7291218e-06
24	0xb5ca2052	-1.5059579e-06
25	0x322855fa	9.798436e-09
26	0xb5b1f2b3	-1.3258162e-06
27	0xb5d89035	-1.6135224e-06
28	0xb5a616d3	-1.2374607e-06
29	0xb62c15a5	-2.5642596e-06
30	0xb5cf1661	-1.5429215e-06
31	0x32b46f25	2.10053e-08
32	0xb202db7a	-7.616899e-09
33	0x3241e638	1.1286424e-08
34	0x308278c4	9.493069e-10
35	0x334945ce	4.6862446e-08
36	0xae5ab3b7	-4.972708e-11
37	0xb29ba30c	-1.811852e-08
38	0xb1321fcd	-2.5920486e-09
39	0x337ab957	5.8376227e-08
40	0x3231f426	1.0358269e-08
41	0x2f9f2412	2.894756e-10
42	0x32ada980	2.021693e-08
43	0x32264171	9.677351e-09
44	0x32c29cc5	2.2655863e-08
45	0x33b0b0ec	8.2278206e-08
46	0x32ef79db	2.7878675e-08
47	0xb22a4f02	-9.913267e-09
48	0xaf2c5ab0	-1.5675528e-10
49	0x3164f47f	3.3317347e-09
50	0x2d2ef87b	9.945929e-12
51	0xb2c86c4b	-2.333231e-08
52	0x2e230d4a	3.7073712e-11
53	0x31aba69c	4.9956963e-09
54	0x2f157f05	1.3596597e-10
55	0xb2aa3601	-1.9815163e-08
56	0xb2983ace	-1.772187e-08
57	0x2f0e6a26	1.2952536e-10
58	0xb2878dfc	-1.5780635e-08
59	0xb2940dcd	-1.7235743e-08
60	0xb26d627b	-1.38176075e-08
61	0xb300d24c	-2.9993586e-08
62	0xb29e7bc3	-1.8449901e-08
63	0x2f8300f1	2.382943e-10
64	0xb27bcd2e	-1.4656775e-08
65	0x34b5fa58	3.3896026e-07
66	0x30803f3b	9.331197e-10
67	0xb60f8074	-2.138343e-06
68	0x314d0990	2.9836862e-09
69	0x35062ffa	4.9988705e-07
70	0x3254aadf	1.2378876e-08
71	0xb5f69bb1	-1.837374e-06
72	0xb5db72ac	-1.6350145e-06
73	0x324888c8	1.1672633e-08
74	0xb5c2983d	-1.4498434e-06
75	0xb5d99d31	-1.6213509e-06
76	0xb5acf44a	-1.2886096e-06
77	0xb6397f3f	-2.7641215e-06
78	0xb5e3e80a	-1.698035e-06
79	0x32bddd52	2.210314e-08
80	0x2ef4cbd2	1.1132041e-10
81	0xb0cfc206	-1.5116377e-09
82	0x2d9e1c11	1.7974984e-11
83	0xb1a7b37d	-4.880745e-09
84	0x2dc5cc4c	2.2487033e-11
85	0xb0fa4875	-1.8210488e-09
86	0x2def161e	2.7180976e-11
87	0xb145434d	-2.870553e-09
88	0xb1581516	-3.1444123e-09
89	0x2e3d6069	4.3059254e-11
90	0xb15a9c8a	-3.1812157e-09
91	0xaf1e97f9	-1.4424008e-10
92	0xb0d8a932	-1.5764157e-09
93	0xb1938f04	-4.294522e-09
94	0xb1802d7d	-3.7304617e-09
95	0x2ddb3da2	2.4924788e-11
96	0x2fc61f3c	3.6038184e-10
97	0xb23d32a0	-1.1012759e-08
98	0x2d11e383	8.2928135e-12
99	0x330cae7e	3.275499e-08
100	0x2cfa24fd	7.109534e-12
101	0xb282f905	-1.5247233e-08
102	0xaf3fe0f9	-1.7451275e-10
103	0x33081f1a	3.1693254e-08
104	0x32e42656	2.6560127e-08
105	0xaf1b6fb3	-1.4136851e-10
106	0x32c4e23e	2.2920286e-08
107	0x330b47c4	3.242873e-08
108	0x32c9ad7c	2.3478371e-08
109	0x33449a3b	4.5775078e-08
110	0x32e4064a	2.6545553e-08
111	0xafd76994	-3.918329e-10
112	0xb32c4ab4	-4.0114813e-08
113	0x3597ab60	1.1300253e-06
114	0xada2eae2	-1.8521577e-11
115	0xb6889e5d	-4.0715518e-06
116	0x30bd65f5	1.3780538e-09
117	0x35d45922	1.5821172e-06
118	0x32bea514	2.219398e-08
119	0xb67e52fc	-3.7897253e-06
120	0xb6595140	-3.2382814e-06
121	0x32a46701	1.9138954e-08
122	0xb63d8184	-2.8238583e-06
123	0xb6799db3	-3.7195684e-06
124	0xb639ac20	-2.7667338e-06
125	0xb6b9fe44	-5.54303e-06
126	0xb65bd432	-3.2757057e-06
127	0x334635a8	4.6149268e-08
